Competition/TrainAI/model/s30/model_weights_1.pth (torch, 241895 bytes, 10 tensors)

lstm.weight_ih_l0 f4 [256, 36]
0	0xbd6c163a	-0.057638384
1	0xbe004442	-0.12526038
2	0xbd7c76c2	-0.061636694
3	0xbd863fc1	-0.06555129
4	0xbd00c468	-0.031437308
5	0x3d84e39f	0.06488728
6	0x38064ea0	3.2021315e-05
7	0x3d81964c	0.06327495
8	0x3c8aa147	0.016922606
9	0xbc6279e1	-0.0138230035
10	0xbd944c26	-0.07241087
11	0xbd09c1da	-0.033632137
12	0xbd5a8b02	-0.053355224
13	0x3d1278b7	0.035759654
14	0xbd5f1e1b	-0.05447207
15	0xbdb5fb9e	-0.08885883
16	0xbc16cc3b	-0.009203966
17	0xbb92e89a	-0.0044832947
18	0x3ce3f5b8	0.027827129
19	0x3ce18fe0	0.027534425
20	0x3dca0843	0.09864857
21	0xbc32654e	-0.010888411
22	0xbc99c06f	-0.018768517
23	0xbdbbfde2	-0.09179284
24	0xbdac910a	-0.084261015
25	0xbd17b096	-0.03703364
26	0x3d2e6d00	0.04258442
27	0xbdda82bc	-0.10669467
28	0xbde904d0	-0.11377871
29	0x3da8aee4	0.08236483
30	0xbc931670	-0.017955035
31	0x3d87e6f0	0.06635845
32	0x3d8a2165	0.06744651
33	0xbd236be1	-0.039897803
34	0xbd907144	-0.07052854
35	0x3de54905	0.11195568
36	0xbd205f7d	-0.039153565
37	0xbd9df20c	-0.077121824
38	0x3daa1431	0.083046325
39	0x3b9add5f	0.0047260965
40	0x3d9f0680	0.07764912
41	0x3d88ddf4	0.06682959
42	0xbcee45be	-0.02908599
43	0xbdf3f419	-0.11911792
44	0x3d90ae2b	0.0706447
45	0x3da03e29	0.07824356
46	0xbd0b5b56	-0.03402265
47	0xbdaf30f0	-0.08554256
48	0x3c768c2a	0.015048066
49	0xbe1458ec	-0.14487046
50	0xbe0d89ad	-0.1382205
51	0xbdc01aaf	-0.093800895
52	0xbd0a3c1c	-0.03374873
53	0xbd9e3c92	-0.077263966
54	0xbe13a790	-0.14419389
55	0x3d530246	0.05151584
56	0xbd240e3b	-0.040052634
57	0xbd36fc4a	-0.044674195
58	0xbd18e801	-0.03733063
59	0xbc9bd962	-0.019024555
60	0x3b93ab24	0.0045064855
61	0xbdf3c1c9	-0.11902196
62	0xbcbe9d41	-0.023268344
63	0x3bca7240	0.0061781704
64	0xbe10ede6	-0.14153251
65	0xbe246af8	-0.1605643
66	0xbddc3c45	-0.10753683
67	0x3ddbd344	0.10733655
68	0xbd8fe1f3	-0.07025518
69	0x3d9173b0	0.07102144
70	0x3da37540	0.07981348
71	0x3d8618a9	0.06547672
72	0xbdedae64	-0.11605528
73	0x3d99f731	0.07517851
74	0xbdb1cd93	-0.08681788
75	0xbd2d6b7c	-0.042338833
76	0xbcb54fb6	-0.022132736
77	0xbc88d9ed	-0.016705478
78	0x3b5ecc52	0.0033996296
79	0x3d87a5c2	0.06623413
80	0x3d46390d	0.04839425
81	0x3d086c81	0.033306602
82	0x3e076bea	0.1322476
83	0x3deb560d	0.11491022
84	0xbd4bf688	-0.049795657
85	0x3bbdcdea	0.005792369
86	0xbda1b20e	-0.07895289
87	0x3cb81c23	0.022474354
88	0x3d861408	0.065467894
89	0xbd79d785	-0.06099655
90	0x3dce7ac1	0.10082007
91	0xbc69eb00	-0.01427722
92	0xbc66d4c7	-0.014088816
93	0xbdb03ead	-0.086057045
94	0x3df9ffb1	0.122069724
95	0xbdb695f4	-0.0891532
96	0xbd9f80ab	-0.07788213
97	0x3d13564c	0.03597097
98	0xbdedf6da	-0.11619349
99	0xbd44d85c	-0.0480579
100	0x3c86b5ba	0.016444076
101	0x3dbe5888	0.0929423
102	0xbd616e71	-0.055036966
103	0xbd8af009	-0.06784064
104	0xbda06f93	-0.07833781
105	0x3cda99bc	0.026684634
106	0xbd97cf12	-0.074125424
107	0xbd877420	-0.06613946
108	0x3d40ca3c	0.047067866
109	0xbd97a74a	-0.07404955
110	0xbd92d797	-0.07170027
111	0xbdafd5e0	-0.08585715
112	0xbd4d868e	-0.05017715
113	0x3db38f20	0.08767533
114	0x3d08d20d	0.033403445
115	0xbcac676d	-0.021045411
116	0xbcc43d7e	-0.023955103
117	0x3dcbf922	0.09959628
118	0x3d2fe7ea	0.04294578
119	0x3e296ecb	0.1654617
120	0xbc91d35f	-0.017800985
121	0x3e064199	0.13110961
122	0x3db71ee5	0.089414395
123	0xbde62643	-0.112377666
124	0xbb0cd34c	-0.0021488247
125	0xbdc224d1	-0.094796784
126	0x3b2c522b	0.0026294093
127	0x3dfae646	0.122509524
128	0x3e0e339a	0.13886872
129	0xbd269f6c	-0.04067938
130	0x3d641d2e	0.05569189
131	0xbdffc397	-0.12488478
132	0xba8178c8	-0.0009877915
133	0x3dfbd2cf	0.12296068
134	0xb88f8f10	-6.845419e-05
135	0x3d4d04c5	0.050053377
136	0x3dd00139	0.10156483
137	0x3e0e3197	0.13886105
138	0x3da6fa19	0.08153171
139	0xbe1208ca	-0.14261165
140	0xbdd83845	-0.105576076
141	0xbe25811b	-0.16162531
142	0xbda24cb6	-0.07924788
143	0x3e0d4799	0.13796844
144	0x3ddc6cdb	0.1076295
145	0xbbf83a49	-0.0075753075
146	0x3d6e8c32	0.05823917
147	0x3c02c9cb	0.0079826815
148	0xbe248efc	-0.16070169
149	0xbde4deb9	-0.111752935
150	0x3ce19a98	0.027539536
151	0xbda2e0f1	-0.079530604
152	0xbe36493c	-0.17801374
153	0xbcb95266	-0.022622298
154	0x3e3f9fb6	0.18713269
155	0x3d16d1a9	0.03682104
156	0x3d2d6c23	0.042339455
157	0xbde5b131	-0.11215437
158	0xbe036f86	-0.12835512
159	0xbd329b63	-0.04360522
160	0xbe184c5e	-0.14872882
161	0xbae561f8	-0.001750051
162	0x3c8bd350	0.017068535
163	0xbd963aea	-0.07335456
164	0xbccfd4ef	-0.02537009
165	0xbdb49e5e	-0.08819269
166	0xbb707234	-0.0036689164
167	0xbdebc59a	-0.11512299
168	0xbd1844b3	-0.03717489
169	0x3d945746	0.072432086
170	0x3d07966e	0.033102445
171	0x3d1767d7	0.036964264
172	0x3d25c68b	0.04047255
173	0x3d8c9f58	0.0686633
174	0x3d9a606c	0.07537922
175	0x3d90d979	0.070727296
176	0x3d2b1573	0.041768502
177	0xbbf9a191	-0.007618137
178	0x3e01d5e1	0.12679245
179	0xbd00663c	-0.0313475
180	0xbd0fc338	-0.035098284
181	0xbc270c8a	-0.010195861
182	0xbe0654b7	-0.13118254
183	0x3c87aab7	0.016560895
184	0xbdd87645	-0.10569433
185	0x3d081ac2	0.033228643
186	0x3c3ec67e	0.011644004
187	0xbdf0dd84	-0.11761001
188	0xbdb14538	-0.086557806
189	0x3e12476f	0.14285062
190	0xbddeb443	-0.10874226
191	0xbd5440a5	-0.051819462
192	0xbd45048f	-0.04810005
193	0x3d91b5db	0.07114764
194	0xbde1d462	-0.11026837
195	0x3d5ad12e	0.053422146
196	0xbd3bffa1	-0.045898084
197	0x3d33deb7	0.04391357
198	0x3c95c5b0	0.018282741
199	0x3d73b68c	0.059500262
200	0xbd75e287	-0.060030486
201	0xbd01b99c	-0.03167115
202	0x3c0f0419	0.008729004
203	0x3d9fb424	0.07798031
204	0x3e1b4618	0.15163457
205	0x3d00d475	0.031452615
206	0xbd285878	-0.041099995
207	0xbca63c95	-0.02029256
208	0xbdae3288	-0.08505732
209	0x3d5c27ed	0.053749014
210	0x3dc25a0c	0.09489831
211	0xbc9ed33c	-0.019387834
212	0x3d6e2db2	0.058149047
213	0x3cc3d15e	0.023903545
214	0x3d193a10	0.03740889
215	0x3da8cb3d	0.082418896
216	0x3d4ff5f0	0.050771654
217	0x3b38c981	0.0028196278
218	0x3be16ce8	0.0068794377
219	0xbd5e58e9	-0.05428401
220	0x3ca9df77	0.02073644
221	0x3cd8a572	0.026446078
222	0xbcc02e29	-0.02345951
223	0x3dd2e370	0.102972865
224	0xbd18c83b	-0.03730033
225	0xbdf0649f	-0.11737942
226	0xbca6788d	-0.020321155
227	0x3d16b200	0.036790848
228	0xbe3037bb	-0.1720876
229	0x3d4d6795	0.05014761
230	0x3bf1f1e1	0.0073835705
231	0xbd00d7d7	-0.03145584
232	0x3e153960	0.14572668
233	0x3e062a5a	0.13102093
234	0x3de5ac0b	0.11214455
235	0xbe242a68	-0.16031802
236	0xbe0fb3c0	-0.14033413
237	0xbe1e9721	-0.15487339
238	0x3c2d4bd2	0.010577159
239	0xbd85728e	-0.0651599
240	0xbdd051a6	-0.10171823
241	0xbda9a35b	-0.08283111
242	0xbe0a09e8	-0.13480341
243	0x3cfb867d	0.030703777
244	0xbdbb2aef	-0.09139048
245	0x3d52dba8	0.05147901
246	0xbe0ba0ea	-0.13635603
247	0xbe08e208	-0.13367474
248	0x3d8e9d83	0.06963637
249	0x3dcc7da0	0.099848986
250	0xbb09fd84	-0.0021055648
251	0xbdcac9c4	-0.09901765
252	0xbd60e65c	-0.054907188
253	0x3e10acd3	0.14128427
254	0xbcbfe187	-0.02342297
255	0x3d0478e5	0.032341857

lstm.weight_hh_l0 f4 [256, 64]
0	0x3d958ab9	0.0730185
1	0x3d665255	0.05623086
2	0xbc32c57a	-0.01091134
3	0x3cc76d3f	0.024344085
4	0x3d837394	0.06418529
5	0x3d86c0ce	0.06579743
6	0xbc9bade1	-0.01900381
7	0xbb1107a4	-0.0022129798
8	0xbdc6f2b0	-0.09714258
9	0xbd6fda33	-0.0585577
10	0xbdbac4e8	-0.09119588
11	0x3c86e46a	0.016466338
12	0x3dc2a757	0.09504574
13	0xbb268e5a	-0.0025414438
14	0x3dbc1991	0.09184564
15	0x3e30902c	0.17242497
16	0xbd6e96de	-0.058249347
17	0x3d823a00	0.06358719
18	0xbd37eb77	-0.04490229
19	0xbe01fbbd	-0.12693687
20	0xbcdf9926	-0.027294707
21	0xbd5cfcfa	-0.053952195
22	0x3ce00a4b	0.027348658
23	0x3d881846	0.06645255
24	0x3d02fff2	0.03198237
25	0xbe0e7755	-0.13912709
26	0xbd14417b	-0.03619526
27	0xbce2ea16	-0.027699511
28	0xbd609fd5	-0.054839928
29	0xbc0f367c	-0.008741017
30	0xbe0dd4b0	-0.13850665
31	0xbe09e6f2	-0.13467005
32	0x3d6b07b1	0.057380382
33	0xbb81b432	-0.0039582485
34	0xbdee84e5	-0.11646441
35	0x3d6f47c7	0.05841806
36	0x3b071332	0.0020610807
37	0x3d48a3e5	0.048984427
38	0x3c1363d7	0.008995972
39	0xbde53a63	-0.11192777
40	0xbe1bd01a	-0.15216103
41	0x3d8d1394	0.068885
42	0x3e292f53	0.16521959
43	0x3b007d65	0.001960599
44	0xbdfceadd	-0.12349484
45	0xbd2e0988	-0.04248956
46	0xbd8279a6	-0.06370859
47	0xbd819d7e	-0.063288674
48	0xbcd5d58b	-0.026102802
49	0xbdc668e5	-0.09687976
50	0xbdf09d0b	-0.117487036
51	0x3d4d58c6	0.05013349
52	0xbdaf6561	-0.08564258
53	0x3e032ee4	0.12810856
54	0x3ca78508	0.020449176
55	0xbd5493d4	-0.051898792
56	0xbe06b327	-0.13154279
57	0x3dc318b6	0.095261976
58	0xbd8c6915	-0.0685598
59	0x3d6aef66	0.057357214
60	0x3d1b96ec	0.037985727
61	0x3d66fd84	0.056394115
62	0xbded90e2	-0.115999
63	0xbb03ea2c	-0.002012859
64	0x3daa8acf	0.08327257
65	0xbd5238f2	-0.05132384
66	0xbcc0674e	-0.02348676
67	0xbd9161aa	-0.07098706
68	0x3d65b6a6	0.05608239
69	0x3dd52adc	0.104085654
70	0x3d9890d4	0.07449499
71	0x3dbbd674	0.09171763
72	0xbd953569	-0.07285578
73	0x3d29c4e2	0.041447528
74	0xbe024d7e	-0.12724873
75	0x3dd63c24	0.1046069
76	0xbd8ab5e5	-0.06772975
77	0x3e250b69	0.16117634
78	0x3d99573e	0.07487343
79	0xbd241c06	-0.040065788
80	0x3e223e36	0.15844044
81	0x3e111539	0.14168252
82	0xbdcc5bcf	-0.099784486
83	0x3d920e43	0.071316265
84	0x3c787c02	0.0151662845
85	0x3d901047	0.07034355
86	0x3b55d6a6	0.003262916
87	0xbd7868ec	-0.060646936
88	0x3d9d66c1	0.076856144
89	0x3cf2cdd4	0.029639162
90	0xbd8cb740	-0.0687089
91	0xbdbc1ddc	-0.09185383
92	0x3d889d57	0.06670635
93	0x3d3f0d83	0.046643745
94	0xbd1c8f72	-0.038222738
95	0x3dbb63fd	0.091499306
96	0xbdad5bc0	-0.084647655
97	0x3bc3ef9b	0.005979491
98	0x3a160c68	0.00057238946
99	0xbda5ff05	-0.08105282
100	0xbd9b5f97	-0.07586592
101	0xbe158e30	-0.14605021
102	0x3e097d69	0.13426746
103	0x3b37d7b9	0.0028052165
104	0xbd6f3aba	-0.058405615
105	0xbe17a11e	-0.14807555
106	0x3e182b33	0.14860229
107	0xbc9b6c1d	-0.01897245
108	0x3d86aa88	0.06575495
109	0xbda922b8	-0.08258575
110	0x3e3489f3	0.17630748
111	0x3caf2fda	0.021385122
112	0x3d95a93b	0.07307669
113	0xbde02f76	-0.109465525
114	0x3d5fdffd	0.05465697
115	0x3de33e23	0.11095836
116	0x3d35ae7c	0.044355854
117	0xbd9fad83	-0.077967666
118	0xbc147730	-0.00906162
119	0x3e0b4cd5	0.13603528
120	0x3c8b9e17	0.017043157
121	0x3bead367	0.0071663144
122	0xbddeaed2	-0.10873188
123	0xbd1402d4	-0.03613551
124	0xbd2b2ba9	-0.041789684
125	0x3d3d7b07	0.046259906
126	0xbd727ba1	-0.059199933
127	0xbc6e4feb	-0.014545421
128	0x3c12a14b	0.008949588
129	0xbd0b06df	-0.0339421
130	0x3d28a1e4	0.041170016
131	0xbdbdc8e0	-0.092668295
132	0xbd5cc091	-0.053894583
133	0xbda4d403	-0.080482505
134	0x3e2908ab	0.16507213
135	0xbe109cad	-0.14122267
136	0xbe1aa373	-0.15101413
137	0x3db2f4f4	0.08738127
138	0x3d4e1a79	0.050318215
139	0x3d3bdffc	0.045867905
140	0xbccd9f7b	-0.02510046
141	0xbd73646b	-0.059421938
142	0xbda28ff6	-0.079376146
143	0x3dc14b4e	0.09438191
144	0xbd0796d4	-0.033102825
145	0x3d8254b9	0.06363816
146	0xbe2694fb	-0.16267769
147	0xbae88342	-0.0017739313
148	0xbd84968f	-0.06474029
149	0xbdc7961e	-0.097454295
150	0x3d3c9cce	0.046047978
151	0x3d73e10f	0.059540804
152	0xbd7163fc	-0.058933243
153	0xbe2e95c2	-0.17049316
154	0xbd1962fb	-0.03744791
155	0xbdb84151	-0.08996833
156	0xbc6449dc	-0.013933625
157	0xbd87a9af	-0.066241615
158	0xbcb3d252	-0.021950874
159	0x3d91cdc8	0.07119328
160	0xbd0c5d5e	-0.03426873
161	0xbda76589	-0.08173663
162	0x3e00c9bd	0.12576957
163	0xbdaa962d	-0.08329425
164	0x3d68b3af	0.056811985
165	0xbcf89a50	-0.03034702
166	0x3cbebc87	0.023283256
167	0x3bb2c637	0.005455758
168	0xbe109e81	-0.14122964
169	0x3c97b2b1	0.018517824
170	0xbd924b11	-0.07143224
171	0x3dc66b74	0.09688464
172	0x3d6013d4	0.05470641
173	0x3df84f1b	0.12124463
174	0x3d6ab0b5	0.057297427
175	0xbdac24c4	-0.0840545
176	0xbc78b46e	-0.015179737
177	0xbd35670a	-0.04428772
178	0x3c9134b2	0.017725322
179	0x3c9ec0fa	0.019379128
180	0x3d07fb38	0.033198565
181	0x3da14847	0.07875114
182	0xba13bcb0	-0.00056357216
183	0x3d0946e2	0.033514865
184	0xbdb746ae	-0.08949028
185	0xbd1ce6a0	-0.03830588
186	0xba823d1e	-0.0009936427
187	0x3e0c7af5	0.1371878
188	0xbd6a54c9	-0.057209764
189	0xbe00ab89	-0.12565435
190	0xbd68d38e	-0.05684238
191	0x3e027713	0.12740736
192	0x3bfa9ac8	0.007647846
193	0xbc4c09d6	-0.012453517
194	0x3d5811fb	0.052751523
195	0x3d6c1976	0.05764147
196	0x3d3c6ee5	0.046004195
197	0x3cabcc4f	0.020971445
198	0xbbea60ef	-0.0071526687
199	0x3dd7bc12	0.105339184
200	0xbcaf1af0	-0.02137515
201	0xbe159756	-0.14608511
202	0xbd411098	-0.047134966
203	0xbd264228	-0.040590435
204	0x3d7eb4e0	0.062184215
205	0xbbafb639	-0.005362299
206	0x3db53e5d	0.088497855
207	0x3d58f820	0.052971005
208	0xbc9a2bb9	-0.018819677
209	0x3df11c35	0.11772958
210	0xbda6542f	-0.081215255
211	0xbd0c762b	-0.03429238
212	0x3d679ae2	0.056544192
213	0xbdded0ad	-0.108796455
214	0x3da29166	0.07937889
215	0x3d301d79	0.042996857
216	0x3ba8390a	0.0051337527
217	0x3d8a2a62	0.06746365
218	0xbd3b260b	-0.045690577
219	0x3e020d6c	0.12700433
220	0x3b0f95fb	0.0021909464
221	0xbc38f33d	-0.011288461
222	0x3db64d0f	0.089014165
223	0x3a98a9e6	0.0011647313
224	0x3db36c9a	0.087609485
225	0xbdf83b49	-0.12120683
226	0xbe04cf5e	-0.1296973
227	0xb8b4eb80	-8.626934e-05
228	0x3da1e08d	0.07904158
229	0x3db856bf	0.090009205
230	0xbd2388c6	-0.03992536
231	0xbd38b84b	-0.04509763
232	0xbd409236	-0.047014438
233	0x3e156629	0.14589752
234	0xbcfab91d	-0.030605847
235	0xbd0c519e	-0.034257524
236	0x3d5fd7ac	0.05464904
237	0x3c9dba0e	0.019253757
238	0x3e0320c7	0.12805472
239	0x3e18821d	0.14893384
240	0x3e12128f	0.14264892
241	0x3de4b709	0.11167724
242	0xbd878cac	-0.06618628
243	0xbdd5dbc5	-0.10442308
244	0xbd4fe2d9	-0.05075345
245	0x3d84e006	0.064880416
246	0x3e0af449	0.1356975
247	0x3d67e0c2	0.05661083
248	0xbdfd5fa9	-0.12371761
249	0x3e03ded9	0.12877978
250	0xbd20c519	-0.039250467
251	0x3d62149b	0.055195432
252	0xbdcb5096	-0.0992748
253	0x3dd267d1	0.10273708
254	0xbdf24a80	-0.11830616
255	0xbdb609fd	-0.08888624

lstm.bias_ih_l0 f4 [256]
0	0x3cad4c23	0.021154469
1	0x3c22e8af	0.009943171
2	0x3d3e0d99	0.046399686
3	0xbdda8c8a	-0.10671337
4	0xbd6c89b5	-0.057748515
5	0xbd67d0eb	-0.056595724
6	0xbd105ffb	-0.035247784
7	0x3da1ba32	0.07896842
8	0xbbbbf5e6	-0.0057361005
9	0x3e147059	0.14495982
10	0xbe20ccc5	-0.15703113
11	0xbd640d68	-0.055676848
12	0x3d98bcf9	0.07457919
13	0xbb3b8d57	-0.002861818
14	0x3db7132b	0.08939203
15	0x3d8e4c84	0.06948188
16	0xbd35d86e	-0.044395857
17	0xbbf84dc4	-0.0075776298
18	0xbe1794c2	-0.1480284
19	0xbdc42e9c	-0.095792025
20	0x3d1bee33	0.03806896
21	0x3d5906ac	0.05298488
22	0x3d915fa0	0.07098317
23	0x3e1702dd	0.14747186
24	0xbd98bba9	-0.07457668
25	0xbcbc57e0	-0.02299112
26	0x3d7cdea6	0.06173577
27	0xbdd08aff	-0.101827614
28	0x3d174b2c	0.036936924
29	0x3d5e5dec	0.05428879
30	0xbc642ecc	-0.013927173
31	0x3d89fc6f	0.06737601
32	0xbd5339ef	-0.05156892
33	0x3c3266d9	0.010888779
34	0x3d8c2a1b	0.068439685
35	0x3e43688f	0.19082855
36	0x3d5cf603	0.053945553
37	0xbe29884d	-0.16555901
38	0xbc6fcd72	-0.014636384
39	0xbd79d37b	-0.0609927
40	0xbd8cb09d	-0.06869624
41	0xbc82aaad	-0.015950525
42	0x3be6aa4e	0.007039345
43	0xbb24ab2e	-0.0025126445
44	0x3da6c390	0.08142769
45	0x3dac4a65	0.08412627
46	0xbcf21186	-0.029549371
47	0xbd8d903a	-0.06912275
48	0xbe109032	-0.14117506
49	0x3c6e1ffb	0.014533992
50	0xbd9bf259	-0.076145835
51	0x3d870cde	0.06594251
52	0xbdf3601d	-0.118835665
53	0xbdcc1c54	-0.09966341
54	0xbe1049f0	-0.14090705
55	0x3d40ab0e	0.04703813
56	0x3ddde086	0.1083384
57	0xbd3e758a	-0.046498813
58	0x3dd58304	0.1042538
59	0xbe1e3389	-0.15449347
60	0x3d9ec438	0.077522695
61	0xbdae153f	-0.08500146
62	0xbd01e2d1	-0.03171045
63	0x3e015d8e	0.12633345
64	0x3d29b44a	0.041431703
65	0xbe06de32	-0.13170698
66	0xbda14e8b	-0.07876309
67	0x3db788db	0.0896165
68	0xbcec92ee	-0.028878655
69	0x3c638f66	0.013889169
70	0xbe15a368	-0.14613116
71	0xbd275b02	-0.040858276
72	0x3e27e9df	0.16397808
73	0xbde0b79d	-0.109725215
74	0xbdbdafcc	-0.09262046
75	0xbbc1bf84	-0.005912723
76	0xbd7324d6	-0.0593613
77	0xbe24af6b	-0.16082542
78	0x3db8e37a	0.09027763
79	0xbdc87f33	-0.09789886
80	0xbda85511	-0.0821935
81	0xbe0465f1	-0.12929513
82	0xbdc48796	-0.095961735
83	0x3d317ee3	0.0433339
84	0xbd8e63d2	-0.06952633
85	0xbd389bf5	-0.045070607
86	0xbd7cbaaf	-0.061701473
87	0xbddbc238	-0.10730404
88	0x3d3ad42f	0.04561251
89	0xbdc5648c	-0.096383184
90	0xbe11161e	-0.14168593
91	0x3d53ab49	0.051677022
92	0x3dfe8ce5	0.12429217
93	0x3cf0351d	0.029322201
94	0x3e0495e6	0.12947807
95	0x3b9d4ec2	0.0048006484
96	0x3bcd96e5	0.0062740915
97	0x3c830eaa	0.015998203
98	0xbcbd5af5	-0.02311466
99	0xbcb9f11d	-0.02269798
100	0x3d53cfc5	0.051711816
101	0xbe237eb3	-0.159663
102	0xbd400adf	-0.046885367
103	0x3d8619b5	0.06547872
104	0x3b0164c2	0.0019743894
105	0xbe2a636a	-0.16639486
106	0xbdc66bee	-0.09688555
107	0xbd8fa362	-0.07013585
108	0x3dc45d4f	0.0958811
109	0xbd9812fa	-0.074254945
110	0x3d4e490f	0.050362643
111	0x3dd1b6f4	0.10239974
112	0x3d9afd00	0.07567787
113	0xbc88db45	-0.016706118
114	0xbe1adcc1	-0.15123273
115	0x3c8ade82	0.016951803
116	0x3d22ec38	0.039776057
117	0xbe1c8487	-0.1528493
118	0xbc4c6382	-0.012474896
119	0xbd956321	-0.07294298
120	0x3d02952b	0.03188054
121	0x3bfad385	0.0076546096
122	0x3dcab00e	0.09896861
123	0xbd057042	-0.03257776
124	0x3c620044	0.013794009
125	0x3d2cde02	0.04220391
126	0xbc1a76ca	-0.009427736
127	0xbcbfc8fa	-0.023411263
128	0x3deb37e1	0.114852674
129	0x3c0711b4	0.008243967
130	0x3cc4bd96	0.024016183
131	0xbd8b21c0	-0.06793547
132	0xbd4a4afa	-0.04938791
133	0x3b48fe06	0.0030668988
134	0x3d65f5a5	0.056142468
135	0x3d5d92e6	0.05409517
136	0x3d243076	0.04008528
137	0x3d717df9	0.058958028
138	0xbdb56115	-0.088564076
139	0xbcb38a9e	-0.021916684
140	0xbe1d8606	-0.15383157
141	0x3d1418f8	0.036156625
142	0xbd9b4559	-0.075815864
143	0xbdaa6fec	-0.08322129
144	0x3d62b112	0.05534465
145	0xbd1d5cd2	-0.0384186
146	0xbda1a65d	-0.078930594
147	0xbd999ef8	-0.07501024
148	0xbd8367d0	-0.06416285
149	0xbe19c1b4	-0.15015298
150	0xbd0c2229	-0.034212265
151	0xbc71d65a	-0.014760578
152	0x3b0e8b75	0.0021750603
153	0x3d61c692	0.055121012
154	0x3dbcb9c3	0.09215119
155	0x3d2e159e	0.042501085
156	0xbdbcb3b6	-0.09213965
157	0xbd133d05	-0.035946865
158	0x3de11418	0.10990161
159	0xbdd6ae1d	-0.10482428
160	0xbdb78893	-0.08961596
161	0xbe187bf8	-0.1489104
162	0xbc9c4748	-0.019076958
163	0x3d87c49a	0.06629296
164	0x3d19f5e9	0.037588034
165	0xbc471124	-0.012150083
166	0x3dc4d166	0.09610252
167	0xbc94f413	-0.01818279
168	0xbda226ba	-0.07917543
169	0xbdb3ecd8	-0.08785409
170	0x3dce8e41	0.100857265
171	0xbd19fb12	-0.037592955
172	0xbe19362f	-0.14962076
173	0xbdcf2378	-0.10114187
174	0x3ce13008	0.027488723
175	0xbd7707d1	-0.06031019
176	0x3be3e4ae	0.006954751
177	0x3c3aeb44	0.011408631
178	0x3c819a4c	0.015820645
179	0x3d7edecb	0.06222419
180	0xbdda333d	-0.10654304
181	0xbdf8834b	-0.12134417
182	0x3d7f7e50	0.06237632
183	0xbad53f3a	-0.0016269453
184	0xbcdf65d0	-0.027270228
185	0xbdd96cf7	-0.106164865
186	0x3d05ae42	0.03263689
187	0x3e1dfc70	0.15428329
188	0xbc96bf5d	-0.018401796
189	0x3d35fccb	0.044430535
190	0x3da5420d	0.08069239
191	0x3c05a0f2	0.008156048
192	0xbdca9c6c	-0.09893116
193	0xbe263971	-0.1623285
194	0xbe15f638	-0.14644706
195	0x3d49039e	0.049075715
196	0xbd64b8b3	-0.055840205
197	0xbdcddae8	-0.10051519
198	0xbd2d3d38	-0.04229471
199	0xbdbacee2	-0.09121491
200	0x3dca4673	0.09876718
201	0x3d5348c7	0.051583078
202	0xbdff8e3c	-0.12478301
203	0xbe18ccf9	-0.14921941
204	0x3c9dce6b	0.019263467
205	0x3d192798	0.037391275
206	0x3d66f42d	0.056385208
207	0x3de3ea32	0.111286536
208	0xbd7960cb	-0.060883325
209	0xbc6f46ee	-0.014604313
210	0xbd636d34	-0.055524066
211	0x3dd5f9f3	0.10448065
212	0xbe0863de	-0.13319346
213	0xbb8c46f7	-0.0042809206
214	0xbddd2d07	-0.10799604
215	0xbd5fe784	-0.05466415
216	0xbc6e1b4a	-0.014532873
217	0xbe2c3ccc	-0.16820067
218	0xbac12e38	-0.0014738506
219	0xbe147031	-0.14495923
220	0xbc328324	-0.010895524
221	0xbda0733a	-0.07834478
222	0x3dddf5d8	0.108379066
223	0xbd92a0ca	-0.07159574
224	0xba8a4223	-0.0010548275
225	0x3def6150	0.11688483
226	0x3e00e8ff	0.12588881
227	0x3d2f983e	0.0428698
228	0xbda3ef65	-0.08004645
229	0xbd528ce6	-0.051403902
230	0xbde81a23	-0.1133311
231	0x3c51d6bc	0.012807544
232	0xbd716ae1	-0.05893982
233	0x3ca74c11	0.020422013
234	0x3cea4b48	0.02860035
235	0xbe09e3c9	-0.134658
236	0x3ddd6e81	0.108120926
237	0xbd768c29	-0.06019226
238	0xbd9b0253	-0.07568803
239	0xbd965caf	-0.07341897
240	0x3d189191	0.037248198
241	0x3d45dfa1	0.048308972
242	0xbdbb66d1	-0.0915047
243	0x3e200b30	0.15629268
244	0x3c48f719	0.012265944
245	0x3c044e24	0.008075271
246	0x3d5b5272	0.053545423
247	0x3dd2568a	0.10270412
248	0x3d91170d	0.07084475
249	0xbd77e63d	-0.060522307
250	0x3d161bed	0.036647726
251	0x3d0a0172	0.033692785
252	0xbd477bea	-0.048702158
253	0x3d2ca466	0.04214897
254	0xbda89b9f	-0.08232807
255	0x3d06fd0c	0.032956168

lstm.bias_hh_l0 f4 [256]
0	0xbd6bd7a6	-0.057578705
1	0xbdd8b041	-0.10580493
2	0xbe0ca3d9	-0.13734378
3	0x3d25451a	0.040349104
4	0x3d5af906	0.053460144
5	0xbdd5dd6a	-0.10442622
6	0xbcf4926e	-0.02985498
7	0x3d9fe094	0.07806507
8	0x3db8baf0	0.090200305
9	0x3e077f41	0.13232137
10	0xbe3d296e	-0.18472835
11	0xbe1a475e	-0.15066287
12	0xbe0fa6d0	-0.14028478
13	0x3c0e81ca	0.008697936
14	0x3b942078	0.004520472
15	0xbb39c527	-0.0028346272
16	0x3d2d0ed6	0.042250477
17	0x3cab2ea9	0.020896273
18	0xbdb40515	-0.08790032
19	0x3d9e9c40	0.07744646
20	0x3cf5557e	0.029947992
21	0xbdd1495f	-0.102190726
22	0xbdbe20f9	-0.09283633
23	0x3cb671ab	0.022270998
24	0x3c64a9f2	0.013956534
25	0xbd989745	-0.074507274
26	0xbcc93d06	-0.024565231
27	0xbd8ed673	-0.06974497
28	0xbdd4eac5	-0.10396341
29	0xbe18b8d8	-0.14914262
30	0xbe2b1fef	-0.167114
31	0xbbf1b998	-0.007376861
32	0xbe05872c	-0.13039845
33	0x3d9a1931	0.07524336
34	0x3ddf36e8	0.108991444
35	0x3e35d683	0.17757611
36	0x3c21437c	0.00984275
37	0xbdd155ed	-0.10221467
38	0xbd316b37	-0.04331514
39	0x3cdda2c4	0.027055152
40	0xbd6e794f	-0.058221158
41	0x3d892436	0.0669636
42	0xbd1695a1	-0.03676379
43	0x39f66f10	0.00047003524
44	0xbdd44f1e	-0.10366653
45	0xbdb49a07	-0.08818441
46	0xbdbd0081	-0.09228612
47	0xbdc714ab	-0.09720739
48	0xbdcc9dc3	-0.09991028
49	0xbd69db56	-0.05709394
50	0xbd8af507	-0.067850165
51	0x3e0b0b67	0.13578568
52	0xbc102da8	-0.008799948
53	0xbdcd9ddc	-0.10039875
54	0xbe1be748	-0.15224946
55	0x3d700b46	0.0586045
56	0x3dfe306e	0.12411581
57	0x3df1aecf	0.1180092
58	0x3c15199a	0.009100342
59	0x3d836779	0.0641622
60	0x3ceb4938	0.028721437
61	0x3d866bdb	0.065635405
62	0x3dbe6ff3	0.09298696
63	0xbd6b0896	-0.057381235
64	0xbbce9f8c	-0.0063056406
65	0xbd9b8130	-0.07593
66	0xbbf9b274	-0.00762015
67	0x3ba9823a	0.005172995
68	0xbe21481f	-0.15750168
69	0xbd91f850	-0.0712744
70	0xbda78a18	-0.08180636
71	0xbd9e84c3	-0.07740166
72	0xbc863e9c	-0.016387276
73	0xbdf2af4d	-0.11849842
74	0xbdbaef7c	-0.09127709
75	0xbd000fc1	-0.031265024
76	0x3d03d65d	0.032186855
77	0xbe0498cc	-0.12948912
78	0x3d651510	0.05592829
79	0x3b12b8fb	0.002238809
80	0x3d480c18	0.04883966
81	0xbd1a4980	-0.03766775
82	0xbe1983ab	-0.14991634
83	0x3defbfb8	0.11706489
84	0xbd2316e5	-0.039816756
85	0xbe045bcc	-0.12925643
86	0xbd708274	-0.05871816
87	0x3dbfb0f2	0.093599215
88	0xbe01262d	-0.12612219
89	0xbd7208a6	-0.05909028
90	0x3ca3a537	0.019976242
91	0x3cf2528d	0.029580379
92	0x3d04e58f	0.032445487
93	0xbe2709be	-0.1631231
94	0x3d135513	0.035969805
95	0x3dde124b	0.10843333
96	0x3dac507d	0.084137894
97	0x3e0d0ac5	0.1377364
98	0xbb6897ab	-0.0035490792
99	0x3d8bd369	0.06827433
100	0x3d1ca9a9	0.038247738
101	0xbe1a8387	-0.15089236
102	0x3ccd8426	0.025087427
103	0xbd53edce	-0.05174046
104	0xbc99dbe1	-0.018781604
105	0x3b8ce11b	0.0042992956
106	0x3cdc3780	0.026881933
107	0xbd1abf2c	-0.037779972
108	0x3c188008	0.009307869
109	0xbb07fa32	-0.0020748493
110	0x3d83d9aa	0.064380005
111	0xbc8f2776	-0.017474871
112	0xbd92d4d4	-0.071695
113	0x3d4551f3	0.048173856
114	0x3d7c618e	0.061616473
115	0x3c8c742a	0.017145235
116	0xbde3b5ca	-0.11118658
117	0x3d34dfc1	0.0441587
118	0xbd751b21	-0.059840325
119	0xbcef1e96	-0.02918939
120	0xbbe20fcd	-0.0068988563
121	0xbda05455	-0.07828585
122	0xbd13c1bf	-0.036073443
123	0xbe1e3508	-0.15449917
124	0xbd409a10	-0.047021925
125	0xbd24cefb	-0.040236454
126	0xbdd79c4c	-0.10527858
127	0x3e16a418	0.14711034
128	0xbbed0426	-0.0072331605
129	0x3e11e0a8	0.14245856
130	0x3d93d6ec	0.072187275
131	0xbdbd9a07	-0.09257894
132	0xbc24725c	-0.010037031
133	0x3cceb538	0.025232896
134	0x3c37fdc3	0.011229935
135	0xbce21266	-0.027596664
136	0xbda42a62	-0.080158964
137	0x3c6e2d18	0.014537118
138	0x3cefa4c6	0.029253375
139	0x3dab9c0f	0.08379375
140	0xbdd59ce8	-0.10430318
141	0x3d3d4f08	0.04621795
142	0xbd74acd4	-0.059735134
143	0xbd99527a	-0.07486434
144	0xbda96bce	-0.08272515
145	0x3dcca5ac	0.09992537
146	0xbe1d92e7	-0.1538807
147	0x3dc17d9a	0.09447785
148	0x3d936d60	0.07198596
149	0xbe15ed28	-0.14641249
150	0xbd4f03e9	-0.05054084
151	0xbdb79c6f	-0.08965384
152	0x3d825439	0.063637204
153	0x3c44e50a	0.012017498
154	0x3d63048c	0.055424258
155	0xbddc08dd	-0.10743878
156	0xbd897dff	-0.06713485
157	0xbdd73b67	-0.10509377
158	0x3e2ff3af	0.17182802
159	0x3daf8003	0.08569338
160	0xbd216108	-0.039399177
161	0x3cc522e9	0.024064498
162	0xbdaf58fa	-0.08561893
163	0xbde90de2	-0.11379601
164	0xbc544efe	-0.012958286
165	0xbe1f4e15	-0.1555713
166	0x3db61966	0.08891563
167	0x3e105234	0.14093858
168	0x3d9fea58	0.078083694
169	0xbdb1db9e	-0.08684467
170	0x3d8300c4	0.063966304
171	0x3cb85b63	0.022504514
172	0xbdc23060	-0.09481883
173	0xbded4d8e	-0.11587058
174	0x3d71ed18	0.059064
175	0xbd2dcc3d	-0.042431105
176	0x3da46dc2	0.08028747
177	0xbbe8723c	-0.007093696
178	0xbcc4b566	-0.024012279
179	0x3d73d4f7	0.05952927
180	0x3db46ef9	0.08810229
181	0xbce8e6d2	-0.028430376
182	0x3d2582ac	0.04040782
183	0xbd026546	-0.031834863
184	0xbd0edd21	-0.034878854
185	0x3d83a918	0.064287364
186	0xbe0ec6f6	-0.13943085
187	0xbc91d30e	-0.017800834
188	0xbd9c1a64	-0.07622221
189	0xbdb6f41f	-0.08933281
190	0x3dbde305	0.09271816
191	0x3e207e1b	0.15673105
192	0x3d00f4a3	0.031483304
193	0x3b880eb2	0.0041521424
194	0xbc3f7826	-0.01168636
195	0xbd710e28	-0.05885139
196	0xbc6c06fb	-0.014405961
197	0x3cdaddd8	0.026717111
198	0xbdca961c	-0.09891912
199	0xbdea2734	-0.11433259
200	0x3dd43c57	0.103630714
201	0x3db94eba	0.09048219
202	0xbcf9dcf8	-0.030500874
203	0x3c052da9	0.008128562
204	0xbdfb105e	-0.12258981
205	0x3c50b6ed	0.012738925
206	0xbd266d7e	-0.040631764
207	0x3b3747fe	0.0027966495
208	0xbdc3ede8	-0.095668614
209	0xbb1497fd	-0.00226736
210	0xbdac0fd7	-0.08401459
211	0xbd55f476	-0.05223509
212	0xbdc012cf	-0.093785875
213	0x3c033a43	0.008009496
214	0x3d527c8a	0.0513883
215	0xbd75ea40	-0.06003785
216	0x3d3d91fe	0.046281807
217	0x3d4fb194	0.05070646
218	0xbde374ec	-0.111062855
219	0x3d79fdae	0.061032943
220	0xbe030239	-0.12793817
221	0xbce88dd2	-0.028387938
222	0xbdafec9c	-0.085900515
223	0xbdd138bc	-0.10215899
224	0xbc7fdcb2	-0.015616583
225	0xbcbc1541	-0.022959353
226	0x3cced5f7	0.02524851
227	0x3d79634d	0.060885716
228	0xbd9f2408	-0.07770544
229	0xbd940160	-0.07226825
230	0xbd894634	-0.06702843
231	0x3de18b73	0.11012926
232	0xbdbd57ee	-0.09245287
233	0xbb332276	-0.0027333773
234	0xbd0750b4	-0.03303595
235	0xbd747f20	-0.05969155
236	0x3dff948b	0.12479504
237	0xbd28673d	-0.04111408
238	0xbdd9d3fb	-0.10636135
239	0x3d04a0fa	0.03238008
240	0x3cd8f4d2	0.026483927
241	0xbd0cc773	-0.034369897
242	0x3dc31293	0.09525027
243	0x3da1fa8f	0.079091184
244	0x3d4af891	0.049553458
245	0xbd33f742	-0.043936975
246	0xbc717a98	-0.014738701
247	0xbd2983b5	-0.04138537
248	0x3cf48e42	0.02985299
249	0xbd233d92	-0.03985364
250	0xbd81b4fd	-0.06333349
251	0x3d72fc8f	0.05932289
252	0x3cf0e7b8	0.029407367
253	0x3d53e67a	0.05173347
254	0xbd806d82	-0.06270887
255	0x3d82a736	0.06379549

lstm.weight_ih_l1 f4 [256, 64]
0	0x3d69b816	0.057060324
1	0xbe1ae814	-0.15127593
2	0x3df77097	0.12082022
3	0x3d81b24d	0.06332836
4	0xbda7edf8	-0.08199686
5	0x3d14b36a	0.036303915
6	0x3d6a6f48	0.057235032
7	0xbd91bdd9	-0.07116289
8	0xbe0e7ada	-0.13914052
9	0x3c23d9e3	0.010000679
10	0xbe0c5c36	-0.1370705
11	0x3d25d8c4	0.040489927
12	0xbc8b6382	-0.017015222
13	0x3c0e6d73	0.008693087
14	0x3d332a4a	0.043741502
15	0x3dbd48fa	0.09242435
16	0x3d8f380d	0.06993113
17	0x3c393052	0.011303024
18	0xbcde0ae8	-0.02710481
19	0x3d2f92f5	0.04286476
20	0xbd65cce6	-0.05610361
21	0x3d8f5554	0.06998697
22	0x3e049d62	0.12950662
23	0x3d88b69a	0.066754535
24	0xbcd26425	-0.025682518
25	0x3d3880b1	0.045044605
26	0xbddcb800	-0.10777283
27	0xbcc8e685	-0.024523983
28	0x3d48ed52	0.04905445
29	0x3d2c5c6b	0.042080324
30	0xbd4da2f9	-0.05020425
31	0x3b86a717	0.004109274
32	0xbd266c2d	-0.04063051
33	0xbcab613b	-0.020920387
34	0x3d2c2703	0.042029392
35	0x3d8faecb	0.07015761
36	0xbb995be9	-0.004680146
37	0xbe2308f4	-0.15921384
38	0x3df41af3	0.11919203
39	0x3dc55ded	0.096370555
40	0x3e2e4a5a	0.1702055
41	0xbdab07c5	-0.08351091
42	0xbce874f0	-0.028376073
43	0xbda1b662	-0.07896115
44	0xbd88fceb	-0.06688865
45	0x3d406a38	0.046976298
46	0xbc4e734e	-0.012600733
47	0xbcabc869	-0.020969586
48	0x3dd93aa4	0.10606888
49	0xbdfbf81f	-0.12303185
50	0x3dab9ef4	0.08379927
51	0xbd8d3362	-0.06894566
52	0xbd42af8e	-0.047530703
53	0xbdfb209c	-0.12262079
54	0xbdae3e26	-0.085079476
55	0x3d221dd1	0.039579216
56	0x3d8ae53a	0.06782003
57	0xbc1510be	-0.00909823
58	0xbdc7dfde	-0.09759496
59	0xbbba6b2e	-0.0056890463
60	0xbdb46a76	-0.08809368
61	0x3de32d6f	0.1109265
62	0xbe0a6a90	-0.13517213
63	0xbda7dc88	-0.0819636
64	0xbd0f05c3	-0.034917604
65	0x3dbe6a3e	0.09297608
66	0xbd3cd9e1	-0.046106223
67	0x3c674bad	0.014117164
68	0xbd3020b4	-0.042999938
69	0xbc9520c2	-0.018204097
70	0xbd28fe98	-0.041258425
71	0xbc38b69b	-0.011274005
72	0xbcba3070	-0.022728175
73	0xbd968dd8	-0.07351273
74	0x3cba0dd2	0.022711668
75	0x3da417ea	0.08012374
76	0xbc75e981	-0.015009285
77	0x3e22773d	0.15865798
78	0xbb6fd84e	-0.0036597433
79	0xbd4963a1	-0.04916728
80	0x3da216cc	0.079145044
81	0x3e0c491d	0.13699766
82	0xbdac0270	-0.083989024
83	0x3d66fc4c	0.056392953
84	0xbda68bb2	-0.081321135
85	0x3dc1b5d0	0.09458506
86	0x3d8428e2	0.0645311
87	0xbdd7d706	-0.10539059
88	0xbe05952c	-0.13045186
89	0xbddcad91	-0.10775293
90	0xbdd69067	-0.10476761
91	0xbd0c62fd	-0.03427409
92	0x3af27dfc	0.0018500681
93	0xbd99c19c	-0.07507631
94	0x3db4a6a8	0.0882085
95	0xbce60e96	-0.028083127
96	0xbd2e782c	-0.042595074
97	0xbdd490b8	-0.103791654
98	0x3daa64cb	0.08320006
99	0x3dfb22c4	0.122624904
100	0x3e1ca004	0.15295416
101	0xbe18adc2	-0.14910033
102	0x3d3a13d8	0.04542908
103	0x3d7d13ab	0.061786335
104	0xbdf7cabe	-0.12099217
105	0xbe1bc2fc	-0.152111
106	0x3cd3a821	0.025837006
107	0xbde88ef7	-0.113553934
108	0x3dbe786b	0.09300312
109	0xbda7f247	-0.082005076
110	0xbd58c7f8	-0.05292508
111	0x3d7f6105	0.062348384
112	0xba939d5e	-0.0011262109
113	0xbe030ae5	-0.12797125
114	0x3d0e3250	0.03471595
115	0xbcc02983	-0.023457294
116	0x3e14869e	0.14504477
117	0x3da42ef0	0.08016765
118	0x3cf2b469	0.029627042
119	0xbb8228f7	-0.0039721685
120	0x3d348d6a	0.044080175
121	0x3d3d8e2b	0.04627816
122	0xbd99a97c	-0.0750303
123	0x3def6ce6	0.116906926
124	0x3d9623e2	0.07331063
125	0xbd61b02c	-0.05509965
126	0xbe0dfad8	-0.1386522
127	0x3da020d7	0.07818764
128	0x3d070962	0.032967933
129	0xbd9cd4e4	-0.07657793
130	0x3cf5ae81	0.029990437
131	0xbe04d3bf	-0.129714
132	0xbd8fd93b	-0.07023855
133	0xbd5f4db0	-0.054517448
134	0x3e00ba29	0.12571014
135	0xbe086a22	-0.13321736
136	0x3db254de	0.087075934
137	0x3cceba9b	0.025235465
138	0x3db34d91	0.08755029
139	0xbdcbcb36	-0.09950869
140	0xbb850b7e	-0.004060208
141	0x3d2293de	0.0396918
142	0xbd023e96	-0.031797968
143	0x3d0cac19	0.034343813
144	0x3cece8b7	0.02891956
145	0x3d857dc6	0.0651813
146	0xbc83a652	-0.016070519
147	0xbd98f3e6	-0.07468395
148	0x3db58da7	0.08864909
149	0xbe1a7f62	-0.15087655
150	0xbd903a92	-0.070424214
151	0xbb342c1b	-0.002749211
152	0xbdb2249a	-0.086983874
153	0x3de2f446	0.11081748
154	0xbe40235c	-0.18763489
155	0xbdc5c9b5	-0.09657613
156	0xbdcb7167	-0.09933739
157	0xbdc24f66	-0.094878
158	0x3d31104f	0.043228444
159	0x3dfeddbb	0.124446355
160	0xbdd931c7	-0.106051974
161	0x3d0f31fd	0.034959782
162	0xbd0ca4d2	-0.034336872
163	0x3ca9e474	0.020738818
164	0x3d8cf8d0	0.06883395
165	0xbdbf2ba1	-0.093344934
166	0x3b8a7465	0.004225301
167	0xbdd184e3	-0.10230424
168	0x3d10b163	0.03532542
169	0xbdba7ae8	-0.09105474
170	0x3d1b93af	0.03798264
171	0xbdc7cb32	-0.09755553
172	0xbc9e4726	-0.019321036
173	0x3be3294d	0.0069324137
174	0x3dc1f5dd	0.09470723
175	0xbc9d8e3b	-0.01923286
176	0x3dc56380	0.09638119
177	0xbd548971	-0.051888887
178	0xbe2c61a3	-0.1683412
179	0xbcf21fab	-0.029556116
180	0xbd88f9f3	-0.06688299
181	0x3d0e2664	0.03470458
182	0x3dfa97df	0.12235998
183	0xbd96387d	-0.07334993
184	0xbd742e0f	-0.059614237
185	0x3de088af	0.1096357
186	0x3cacec16	0.021108668
187	0x3df8c569	0.12147028
188	0xbe03489e	-0.1282067
189	0x3e08a7b2	0.1334522
190	0xbe000e9b	-0.12505572
191	0xbd1d36f2	-0.038382478
192	0xbdad80e6	-0.08471851
193	0xbca6c947	-0.020359648
194	0x3dec9ce7	0.11553364
195	0xbda55d91	-0.08074487
196	0xbc0313c6	-0.00800032
197	0xbc9a2798	-0.018817708
198	0x3d36eaae	0.0446574
199	0x3dabcd66	0.08388786
200	0xbd4a237e	-0.049350254
201	0x3e073147	0.13202392
202	0xbcdba47d	-0.026811833
203	0x3d969caa	0.073541
204	0xbe01f347	-0.12690459
205	0x3ce1654c	0.027514122
206	0x3be42119	0.0069619534
207	0x3e05eeae	0.1307933
208	0x3b58e47e	0.0033095176
209	0xbd9a4666	-0.07532959
210	0x3bc04d2a	0.0058685737
211	0xbbd4e3ef	-0.0064968984
212	0x3c55ca44	0.013048712
213	0xbd7e6156	-0.062104546
214	0xbe311750	-0.1729405
215	0xbcd210d4	-0.02564279
216	0xbd8158df	-0.06315779
217	0xbbe0a740	-0.0068558753
218	0x3dc376ea	0.095441654
219	0xbd09ccea	-0.033642687
220	0xbd8e949c	-0.06961939
221	0xbca4c546	-0.020113599
222	0xbd18e37e	-0.03732633
223	0xbdcf1653	-0.1011168
224	0xbc0a0473	-0.008423912
225	0xbda47df8	-0.08031839
226	0xbdc0df56	-0.09417598
227	0xbdbf76f4	-0.093488604
228	0xbd289efa	-0.041167237
229	0xbe2c96d8	-0.16854417
230	0xbd803ecd	-0.06261978
231	0x3cc61a46	0.02418245
232	0x3b92184c	0.004458463
233	0xbd0ab4d9	-0.033863876
234	0x3d2be244	0.04196383
235	0x3daf44ba	0.085580304
236	0xbdd1c4c6	-0.1024261
237	0xbca8747f	-0.020563362
238	0x3d875261	0.066075094
239	0x3cefad73	0.029257512
240	0x3c7dfec6	0.015502637
241	0xbd891951	-0.06694282
242	0xbd18323e	-0.03715729
243	0x3d68d196	0.0568405
244	0xbce24cfd	-0.027624601
245	0x3dbb0198	0.09131163
246	0xbd65c692	-0.056097575
247	0x3dfab3dc	0.12241337
248	0x3e0e3b13	0.13889723
249	0x3df835be	0.121196255
250	0xbe02be5f	-0.12767933
251	0xbdd28cde	-0.102807745
252	0x3c07496b	0.00825725
253	0xbd32a2d5	-0.04361232
254	0xbd94d22c	-0.072666496
255	0xbd9b1288	-0.07571894

lstm.weight_hh_l1 f4 [256, 64]
0	0x3d6d7e4d	0.057981778
1	0xbcad5986	-0.021160852
2	0xbb8f7728	-0.004378218
3	0x3df59074	0.11990443
4	0xbc89d2f6	-0.016824227
5	0x3d135107	0.035965946
6	0x3d651882	0.055931576
7	0xbd7e5ed4	-0.062102154
8	0xbc3bb78f	-0.011457338
9	0xbda9c67f	-0.08289813
10	0x3e10b42e	0.14131233
11	0xbdcb3959	-0.099230476
12	0xbd068638	-0.032842845
13	0x3d9fd574	0.07804385
14	0x3dabd336	0.08389895
15	0x3dcf0f44	0.101103336
16	0x3d83197a	0.06401344
17	0x3e051b98	0.12998807
18	0xbd42030e	-0.047366194
19	0x3d72e6ae	0.059302025
20	0xbd62641f	-0.055271264
21	0x3d0d0a7d	0.03443383
22	0x3d5cfca0	0.05395186
23	0xbc30fb59	-0.010802113
24	0x3e1af4f9	0.15132512
25	0x3c3e560f	0.011617198
26	0xbd2dfe21	-0.042478684
27	0x3db9dec8	0.09075695
28	0xbdcdb154	-0.10043588
29	0xbca01e84	-0.019545801
30	0xbcf6c59b	-0.030123523
31	0xbbc9bb86	-0.0061563877
32	0x3cc13ecd	0.023589516
33	0x3d0d55a7	0.034505513
34	0xbd3cf2c1	-0.046129946
35	0xbc86b8f4	-0.016445614
36	0x3cb2dcf2	0.02183387
37	0x3e1a59c8	0.15073311
38	0x3b65395c	0.0034976816
39	0x3d5e8805	0.054328937
40	0x3dbaa00a	0.09112556
41	0x3cbd39a9	0.023098784
42	0x3da38ddf	0.07986044
43	0x3cb59c05	0.022169122
44	0xbde6fe33	-0.112789534
45	0x3df02c16	0.11727159
46	0xbe10cded	-0.14141054
47	0x3e084e38	0.13311088
48	0x3deba27d	0.115056016
49	0x3dd0e307	0.10199552
50	0x3d6e75f1	0.058217946
51	0x3e29ebfd	0.16593929
52	0xbd89d8f6	-0.06730835
53	0x3df5b05f	0.11996531
54	0xbd8d6b09	-0.06905181
55	0xbc449354	-0.011998016
56	0x3d9c1f7d	0.076231934
57	0x3d95e999	0.07319946
58	0x3d9a17a4	0.0752404
59	0x3e11c9ea	0.1423718
60	0x3de52d8b	0.11190327
61	0xbbd6d332	-0.006555938
62	0xbd9488dc	-0.07252666
63	0xbdfd6d73	-0.123743914
64	0xbdcc12b2	-0.09964503
65	0xbd30415e	-0.04303109
66	0xbe0f7777	-0.14010416
67	0xbcee7318	-0.029107615
68	0x3c847c03	0.016172415
69	0x3dd39c08	0.10332495
70	0x3c4a48f5	0.012346496
71	0x3b556b11	0.0032565037
72	0x3dc03744	0.09385541
73	0x39f81394	0.00047316833
74	0xbe036e5b	-0.12835066
75	0xbdcbc612	-0.09949888
76	0xbdf46850	-0.119339585
77	0xbe1966d6	-0.14980635
78	0xbd38b73f	-0.045096632
79	0xbdf74a48	-0.12074715
80	0xbd044cbe	-0.03229975
81	0xbe2f6763	-0.17129283
82	0x3adccb48	0.001684525
83	0xbcef8552	-0.029238377
84	0x3cc52dd6	0.024069708
85	0x3c1a30f5	0.009411086
86	0x3b5f6e7a	0.0034092949
87	0xbe021443	-0.12703042
88	0xbd6d90d7	-0.05799946
89	0xbd94d1c1	-0.0726657
90	0x3c12029a	0.008911753
91	0xbcf13d2b	-0.029448112
92	0x3b523c7e	0.0032079513
93	0xbce93430	-0.028467268
94	0x3d063995	0.03276976
95	0x3e029a1e	0.12754104
96	0xbe02c0fb	-0.12768929
97	0xbd7e2e3a	-0.062055804
98	0x3e22573f	0.15853594
99	0x3cdd82d9	0.027039932
100	0x3d8ff0f4	0.0702838
101	0xbdab5800	-0.08366394
102	0x3b03be24	0.0020102346
103	0xbd83c78f	-0.06434547
104	0x3de6148d	0.112343885
105	0x3c75947e	0.014989017
106	0xbdd45b5c	-0.10368988
107	0xbda750a9	-0.081696816
108	0x3defaeaf	0.1170324
109	0xbd262a1a	-0.040567495
110	0x3d875465	0.06607894
111	0x3dc7bf02	0.09753229
112	0xbda02f6e	-0.078215465
113	0xbd324428	-0.04352203
114	0xbd375c2c	-0.044765636
115	0xbd724624	-0.059148923
116	0xbcf26d4e	-0.029593136
117	0x3ddeadf7	0.10873025
118	0x3d0aa628	0.033849865
119	0x3da5b0f0	0.08090389
120	0xbdfb3970	-0.12266815
121	0xbcd3190e	-0.025768783
122	0x3d263deb	0.040586393
123	0xbd9a863e	-0.07545136
124	0xbcf35f78	-0.029708609
125	0xbd5eafd5	-0.054366905
126	0xbda42dd7	-0.08016556
127	0xbdb44f09	-0.08804137
128	0xbc00a4f1	-0.007851825
129	0xbdcbeccd	-0.099572755
130	0x3d10fca4	0.035397187
131	0x3d9ba1e0	0.075992346
132	0xbcbd860b	-0.023135206
133	0xbd863c1c	-0.06554434
134	0x3dc3e784	0.095656425
135	0xbd68a3f4	-0.056796983
136	0x3dde1669	0.10844118
137	0xbcdd2aca	-0.026997942
138	0x3cd51118	0.026009127
139	0xbdf67ed3	-0.120359086
140	0x3cb5d20d	0.022194887
141	0x3d7545c0	0.059880972
142	0x3d14dd6e	0.036343984
143	0x3dddc742	0.10829021
144	0x3d06a88a	0.032875575
145	0xbe08a3b7	-0.13343702
146	0xbc1ebada	-0.009688104
147	0xbd0cefa4	-0.034408227
148	0x3df7a3b7	0.12091773
149	0x3dad0cfd	0.08449743
150	0x3be68691	0.0070350845
151	0x3bb82e0c	0.0056207236
152	0xbe0b86d3	-0.1362565
153	0x3df29219	0.11844272
154	0xbd65df1a	-0.05612097
155	0x3d2718bb	0.04079507
156	0x3d3fdbae	0.046840362
157	0xbd6d3cec	-0.057919428
158	0x3d15dbb7	0.03658649
159	0x3e0314ba	0.12800875
160	0x3c52cec7	0.012866682
161	0xbd1fce84	-0.039015308
162	0xbd364312	-0.044497557
163	0xbb39c055	-0.0028343399
164	0x3d53d0c1	0.051712755
165	0xbdf0f04c	-0.11764583
166	0x3e091baf	0.13389467
167	0xbc7cf17b	-0.015438433
168	0x3b99969a	0.0046871426
169	0x3d401911	0.046898905
170	0xbcdb3b13	-0.026761567
171	0xbd7c9b7b	-0.061671715
172	0xbd1b452f	-0.037907775
173	0x3df703f0	0.12061298
174	0xbd89e242	-0.067326084
175	0x3df13796	0.1177818
176	0xbdfc7204	-0.12326434
177	0xbd965fc1	-0.07342482
178	0x3cb61a7b	0.022229424
179	0x3d973e33	0.073849104
180	0xbc85dad7	-0.016339703
181	0xbc1a096e	-0.009401662
182	0xbda0e3f2	-0.07855977
183	0xbd8d8731	-0.06910551
184	0xbd858457	-0.065193824
185	0x3d9630df	0.0733354
186	0xbd00cb6d	-0.031444002
187	0x3de92b38	0.113851964
188	0xbd045af9	-0.03231332
189	0x3debdaf3	0.115163706
190	0x3dad7178	0.08468908
191	0xbd53186a	-0.051536955
192	0xbbd3a786	-0.0064591793
193	0x3d3e874c	0.046515748
194	0x3de515b0	0.11185777
195	0x3dea5308	0.11441618
196	0xbde78cb2	-0.113061324
197	0x3d2d9228	0.042375714
198	0x3e2ad624	0.1668325
199	0x3d080a49	0.033212934
200	0x3dfd4744	0.123671085
201	0x3d939442	0.07206012
202	0x3d971ba2	0.073783174
203	0x381648e0	3.5830657e-05
204	0x3e2f093d	0.17093368
205	0x3dac9e37	0.084286146
206	0x3d5d549d	0.05403577
207	0x3dffaff6	0.12484734
208	0xbda7b121	-0.081880815
209	0x3db9b3a0	0.09067464
210	0x3da7f7c3	0.08201554
211	0x3e003a0d	0.12522145
212	0xbdb81527	-0.089884095
213	0x3de89ceb	0.11358055
214	0x3d4e707a	0.050400235
215	0x3d72e4e8	0.059300333
216	0x3e1a88f0	0.150913
217	0x3de7b8ec	0.11314568
218	0x3caa6e74	0.020804621
219	0xbe13a3c4	-0.1441794
220	0xbe0873be	-0.13325402
221	0xbd2ff11a	-0.04295454
222	0x3d02460d	0.031805087
223	0xbe0b27e8	-0.13589442
224	0x3e444d7c	0.19170183
225	0xbd37f9f7	-0.04491612
226	0xbcb728aa	-0.022358257
227	0x3d65ece8	0.056134135
228	0x39978920	0.0002890313
229	0xbd819bbb	-0.06328531
230	0x3bc331fa	0.0059568854
231	0xbd330b5d	-0.04371201
232	0x3d8ae172	0.067812815
233	0x3def5c75	0.11687557
234	0xbd122385	-0.035678405
235	0x3db5c026	0.0887454
236	0x3d42cd3c	0.047559008
237	0xbdc055b7	-0.09391349
238	0xbdb3374d	-0.08750782
239	0xbcb77a76	-0.022397261
240	0x3c1a5964	0.009420726
241	0xbdd98c2a	-0.10622437
242	0xbe064822	-0.13113454
243	0x3e1972a3	0.14985137
244	0x3e224f29	0.1585051
245	0x3e0cbcf8	0.13743961
246	0xbe04122a	-0.12897554
247	0x3b1b8d1d	0.0023735233
248	0xbc7f89a5	-0.015596782
249	0xbd2bc828	-0.04193893
250	0xbd2043b4	-0.039127067
251	0x3c4f7986	0.012663251
252	0x3deeb1f8	0.116550386
253	0x3d7018f9	0.058617566
254	0xbd78bb72	-0.060725637
255	0xbe126dc3	-0.14299683

lstm.bias_ih_l1 f4 [256]
0	0xbcfae900	-0.030628681
1	0xbd288b50	-0.041148484
2	0xbdac1f3f	-0.08404397
3	0xbd78f1ba	-0.060777403
4	0x3c277bfa	0.010222429
5	0xbc5b7208	-0.013393886
6	0xbda1bf63	-0.07897832
7	0x3d1d0c7a	0.038341977
8	0x3c94abc4	0.01814831
9	0xbdf2b457	-0.11850803
10	0x3d94ceca	0.072660044
11	0xbdab4b3f	-0.083639614
12	0x3bf7bfd0	0.0075607076
13	0xbdb05d46	-0.086115405
14	0x3d42abef	0.04752725
15	0x3da2f34a	0.0795656
16	0xbdf01c2f	-0.117241256
17	0x3d5764d9	0.05258641
18	0xbb506107	-0.0031796114
19	0x3dd66896	0.10469167
20	0x3d683446	0.056690477
21	0x3d902ae4	0.07039431
22	0x3c5d158f	0.0134939095
23	0xbe229c58	-0.15879953
24	0xbb4058e8	-0.0029349867
25	0xbe06f870	-0.13180709
26	0xbd8c43cf	-0.06848871
27	0xbba40480	-0.0050054193
28	0xbd800c5b	-0.062523566
29	0xbe095392	-0.13410786
30	0xbc26bd68	-0.010176994
31	0xbd9b48d5	-0.07582251
32	0xbdf45f90	-0.119322896
33	0x3b894e20	0.0041902214
34	0xbb06a668	-0.0020545963
35	0xbd8532ea	-0.06503852
36	0xbdd605ce	-0.10450326
37	0xbd83790d	-0.06419573
38	0x3c167953	0.009184199
39	0xbd48a675	-0.04898687
40	0xbde48bb1	-0.111594565
41	0xbe04e7e2	-0.12979081
42	0xbd9ef88f	-0.077622525
43	0xbd9ff4bc	-0.07810351
44	0x3d17dbe5	0.037074942
45	0x3d05a04a	0.032623567
46	0x3d8b019d	0.06787417
47	0x3dd6e76b	0.10493358
48	0x3d90d825	0.07072476
49	0xbe08e3eb	-0.13368194
50	0xbc676fd8	-0.014125787
51	0xbd3fc50c	-0.046818778
52	0xbb558af1	-0.0032584036
53	0xbda9a798	-0.08283919
54	0x3d799c01	0.060939793
55	0xbe02a6bf	-0.12758921
56	0xbd631902	-0.05544377
57	0xbe27b87c	-0.16378969
58	0xbdfb8f6a	-0.122832134
59	0xbd7d5354	-0.061847046
60	0x3ad3b2c4	0.0016151299
61	0xbd420e46	-0.047376893
62	0xbd0cbaa2	-0.034357674
63	0xbd264d1c	-0.04060088
64	0xbc836ef9	-0.016044127
65	0xbdef4a8d	-0.11684141
66	0xbd912810	-0.070877194
67	0xbda6361c	-0.08115789
68	0x3d8e5436	0.06949656
69	0x3d629790	0.055320323
70	0xbe0802c8	-0.13282311
71	0xbc88a630	-0.016680807
72	0x3d80d17d	0.06289957
73	0x3d36a3ed	0.044589926
74	0x3d98eb49	0.07466752
75	0x3c638b40	0.01388818
76	0x3c896cf3	0.016775584
77	0x3d75b31a	0.059985258
78	0xbd662673	-0.05618901
79	0x3da3d0e1	0.07998825
80	0xbdf6c233	-0.12048759
81	0xbd3ecc80	-0.046581745
82	0x3d34d9be	0.044152968
83	0x3d5bde58	0.05367884
84	0x3dc96b28	0.098348916
85	0x3d9c2c5f	0.076256506
86	0x3a3ead72	0.000727377
87	0xbe2d2e59	-0.16912211
88	0xbe18dd10	-0.14928079
89	0xbdaaae68	-0.083340466
90	0x3d24b4f7	0.040211644
91	0xbe1092c4	-0.14118487
92	0xbc19f098	-0.009395741
93	0xbdcc7229	-0.09982712
94	0xbd78a82f	-0.060707267
95	0xbcdd871a	-0.02704196
96	0xbd59847e	-0.05310487
97	0xbc895e8f	-0.016768722
98	0xbe05002a	-0.12988344
99	0xbd7d7ab6	-0.061884604
100	0x3d93dd3e	0.07219933
101	0xbe3651b1	-0.178046
102	0x3dbe759a	0.092997745
103	0xbe0ee542	-0.13954642
104	0xbc6f9e90	-0.014625207
105	0x3c2c341f	0.0105104735
106	0xbdf1d9a8	-0.11809093
107	0xbde78a1c	-0.11305639
108	0x3dad588d	0.08464155
109	0x3c6648dd	0.014055458
110	0x3d9319e0	0.0718267
111	0xbe153b33	-0.14573364
112	0x3dc93771	0.09825028
113	0xbddad828	-0.1068576
114	0xbde45762	-0.111494794
115	0xbd6f7ff0	-0.05847162
116	0x3cda781e	0.026668604
117	0x3dcdef5a	0.10055418
118	0xbdd56e83	-0.10421469
119	0xbdd66a81	-0.10469533
120	0xbd624301	-0.05523968
121	0xbcbf106f	-0.023323266
122	0x3ab383e0	0.0013695918
123	0xbe1b95fa	-0.1519393
124	0xbda3382c	-0.07969698
125	0x3c398b87	0.01132477
126	0xbd17ce59	-0.037062023
127	0x3dafec84	0.08590034
128	0x3db9b30f	0.09067356
129	0xbe08152d	-0.13289328
130	0xbcaea8c4	-0.021320708
131	0x3d91c400	0.07117462
132	0xbd417e34	-0.047239497
133	0x3dc73aa0	0.09727979
134	0xbc8d21d9	-0.017228054
135	0x3c79135a	0.015202368
136	0xbdd38531	-0.103281386
137	0xbd9a7471	-0.07541741
138	0xbddea58a	-0.10871418
139	0x3da10cdd	0.078637816
140	0x3d8ff95b	0.07029983
141	0xbd888015	-0.06665055
142	0xbd04c26c	-0.032411978
143	0xbdb5f244	-0.08884099
144	0xbd9eb93d	-0.07750175
145	0xbc3dae3b	-0.011577184
146	0x3df7d8c3	0.12101891
147	0xbd39227e	-0.04519891
148	0x3cc5ee9a	0.024161626
149	0x3ba6893f	0.005082279
150	0xbb7722fc	-0.0037710061
151	0xbc8d5dce	-0.017256644
152	0xbd6af283	-0.057360183
153	0xbdaedce1	-0.08538223
154	0x3df34d97	0.118800335
155	0xbd675d9d	-0.05648576
156	0x3e092769	0.1339394
157	0x3d40d7bf	0.04708075
158	0x3c31e1c9	0.010857054
159	0xbe02e19d	-0.12781377
160	0xbdd58dcb	-0.104274355
161	0x3da3b4bf	0.07993459
162	0xbdc85927	-0.097826295
163	0x3dff6f82	0.1247244
164	0xbdbee35f	-0.09320711
165	0x3da0fb61	0.07860447
166	0xbdda9af1	-0.10674084
167	0xbdae349b	-0.085061274
168	0x3e03ce26	0.12871608
169	0x3c3b91d7	0.011448345
170	0x3d64ac0a	0.05582813
171	0x3da96705	0.082716025
172	0xbd629017	-0.055313196
173	0x3c747886	0.014921313
174	0x3df192a2	0.11795546
175	0xbd7e88ba	-0.06214211
176	0xbdfa5aa4	-0.122243196
177	0x3cd3bad9	0.025845932
178	0xbdb38acd	-0.087667085
179	0x3b3437f9	0.0027499183
180	0xbd682466	-0.056675337
181	0xbdbff30a	-0.09372528
182	0x3d3a3311	0.045458857
183	0x3e07f1b9	0.13275804
184	0x3cd7bd93	0.026335513
185	0xbd3858e0	-0.045006633
186	0xbdc779c6	-0.09740023
187	0xbd591d14	-0.053006247
188	0x3b8700ea	0.004119982
189	0x3e018db3	0.1265171
190	0xbde5e0e1	-0.11224533
191	0x3d85f932	0.06541671
192	0x3d315614	0.04329498
193	0xbd954e27	-0.07290297
194	0xbd1b372d	-0.037894417
195	0x3d87a551	0.066233285
196	0x3d95cbd3	0.07314267
197	0xbe060bac	-0.1309039
198	0x3d6d76b9	0.05797455
199	0xbddd4a07	-0.10805135
200	0xbe0a97f9	-0.13534535
201	0x3c5b1e8f	0.013373985
202	0x3d2ed3f6	0.04268261
203	0xbcf8e386	-0.03038193
204	0x3d889cff	0.0667057
205	0xbd57ac24	-0.0526544
206	0xbd1bed49	-0.03806809
207	0x3d114cca	0.035473622
208	0xbcf1b9be	-0.029507514
209	0xbcbe8412	-0.023256335
210	0x3d238269	0.03991929
211	0x3cb93b1c	0.022611193
212	0xbdd388e2	-0.10328843
213	0xbd646b77	-0.05576655
214	0x3c9800bb	0.018555036
215	0xbd33bae8	-0.04387942
216	0xbe03a88d	-0.12857266
217	0xbda9a824	-0.082840234
218	0x3d34687e	0.044044964
219	0xbdc01113	-0.09378257
220	0xbe00cdf3	-0.12578563
221	0xbdb4ae19	-0.08822269
222	0x3cfe160d	0.031016374
223	0x3d10f845	0.03539302
224	0xbe2b3b46	-0.1672183
225	0xbd0b3c4d	-0.033993054
226	0x3c2ba2e3	0.010475847
227	0xbe3ab69f	-0.18233727
228	0xbddb8071	-0.10717858
229	0xbde25e5d	-0.110531546
230	0xbc787a64	-0.015165899
231	0x3d1f8ae9	0.038950834
232	0xbdde4654	-0.10853258
233	0xbe21160e	-0.1573107
234	0xbd938a4c	-0.072041124
235	0x3d4d5458	0.050129265
236	0xbd31a9cd	-0.043374825
237	0xbdcc9bfd	-0.0999069
238	0x3d83cecd	0.064359285
239	0x3d566263	0.052339923
240	0x3cf7dfcd	0.030258084
241	0x3d5fc86b	0.054634493
242	0x3d9954ff	0.07486915
243	0xbca36d58	-0.0199496
244	0xbbd02680	-0.006352246
245	0xbe08eca0	-0.13371515
246	0xbd9f3171	-0.07773102
247	0xbe006f02	-0.12542346
248	0x3caa9fa8	0.020828083
249	0xbd414e08	-0.047193557
250	0x3da50c72	0.080590144
251	0xbda11786	-0.07865815
252	0x3d933723	0.07188251
253	0xbdd024fc	-0.10163304
254	0xbe20bbc6	-0.1569663
255	0xbbf8185c	-0.0075712632
