Competition/TrainAI/model/s30/model_weights_.pth (torch, 241883 bytes, 10 tensors)

lstm.weight_ih_l0 f4 [256, 36]
0	0x3d61c58a	0.05512003
1	0x3d03de53	0.032194447
2	0xbdf71654	-0.120648056
3	0xbdde68cc	-0.10859832
4	0xbd0843f8	-0.033267945
5	0xbe108f25	-0.14117105
6	0xbd827e95	-0.063718
7	0x3c1f0043	0.009704652
8	0x3c958118	0.018250033
9	0x3d713230	0.058885753
10	0xbd0b626c	-0.03402941
11	0x3c942baf	0.018087236
12	0x3da65f96	0.081237
13	0x3e2c3574	0.16817266
14	0x3e0aa259	0.13538493
15	0xbd92b798	-0.07163924
16	0xbd604628	-0.054754406
17	0x3ba7f294	0.005125353
18	0x3d1b27be	0.037879698
19	0xbd4041f9	-0.046937916
20	0x3e19839d	0.14991613
21	0x3e151fa4	0.14562851
22	0x3c50919f	0.012730031
23	0xbd9b531a	-0.0758421
24	0x3cb6955a	0.022288013
25	0x3dd2abfa	0.10286708
26	0xbd944406	-0.07239537
27	0x3ccd87ea	0.025089223
28	0xbd8e12e9	-0.069372006
29	0xbd714634	-0.05890484
30	0xbd5ecc81	-0.05439425
31	0xbdc79a54	-0.09746233
32	0xbdd2f238	-0.10300106
33	0x3d1189db	0.03553186
34	0xbd797da7	-0.060910847
35	0xbb919794	-0.0044431183
36	0x3d079546	0.033101343
37	0xbda84a49	-0.08217294
38	0xbd84ea0e	-0.06489955
39	0x3e14cb18	0.14530599
40	0x3cde666f	0.027148454
41	0xbdb12d43	-0.08651211
42	0xbd28cdc0	-0.041211843
43	0x3d9d3dab	0.07677778
44	0xbe116bc5	-0.14201267
45	0xbd5c3c63	-0.053768527
46	0xbd86098d	-0.065447904
47	0xbd4ea8cd	-0.05045395
48	0xbd528422	-0.051395543
49	0x3bd175ff	0.00639224
50	0xbb079ed5	-0.0020694037
51	0x3e256c5c	0.16154617
52	0xbe0b8938	-0.13626564
53	0x3d761550	0.06007892
54	0x3d3a9635	0.045553405
55	0x3ca207dd	0.01977914
56	0xbde04a93	-0.10951724
57	0x3e04fa0c	0.1298601
58	0x3cf6abdf	0.030111251
59	0x3dc82289	0.09772212
60	0xbc505221	-0.012714894
61	0xbd09d105	-0.033646602
62	0x3d4c7d5f	0.04992425
63	0x3ccd04e3	0.025026744
64	0xbcd126f6	-0.025531273
65	0x3a370a72	0.00069824525
66	0x3d7b379b	0.061332326
67	0x3d84ed95	0.06490628
68	0x3dc0ea4c	0.094196886
69	0xbe190192	-0.14942005
70	0x3e08c73d	0.13357253
71	0xbd73d44e	-0.05952864
72	0x3cbc2b0a	0.022969741
73	0x3d164d0f	0.036694583
74	0xbdcd25bb	-0.10016962
75	0xbd58c639	-0.052923415
76	0xbd1d0c48	-0.03834179
77	0xbdabf154	-0.08395639
78	0x3d9efe62	0.077633634
79	0xbc1a7cd0	-0.009429172
80	0xbd3d036c	-0.04614584
81	0x3d8eaf58	0.06967038
82	0x3e2b7393	0.16743307
83	0xbdead719	-0.11466808
84	0x3d9ec294	0.077519566
85	0xbd9a8d51	-0.07546485
86	0xbd06eee5	-0.03294267
87	0x3ae39a78	0.0017364761
88	0xbdf99422	-0.12186457
89	0xbcb44a13	-0.022007978
90	0xbd3a5f34	-0.04550095
91	0x3d8ca231	0.06866873
92	0xbd10ce49	-0.03535298
93	0x3e032b9c	0.12809604
94	0xbdb07898	-0.086167514
95	0x3ddb58a6	0.10710268
96	0xba41c5b3	-0.0007391825
97	0x3e38e0ce	0.18054506
98	0x3c099232	0.008396672
99	0x3d9068b1	0.07051218
100	0x3dcee017	0.101013355
101	0x3d5127cd	0.051063348
102	0xbdf20e15	-0.11819092
103	0x3e106a30	0.14103007
104	0x3d91450a	0.07093246
105	0xbe014321	-0.12623264
106	0xbe2b858e	-0.16750166
107	0xbe2dec47	-0.16984664
108	0xbd319012	-0.043350287
109	0xbd9bf42e	-0.07614933
110	0xbd7e896c	-0.062142774
111	0xbd5f501a	-0.05451975
112	0xbd7407e0	-0.059577823
113	0xbdabcb53	-0.083883904
114	0x3d9a830b	0.07544526
115	0x3dbdb264	0.09262541
116	0x3df673f7	0.12033837
117	0x3d905278	0.0704698
118	0x3d864469	0.06556017
119	0x3d99a7fe	0.07502745
120	0xbd143913	-0.036187243
121	0x3d8cef55	0.068815865
122	0x3c9f104f	0.019416956
123	0xbd18e067	-0.03732338
124	0xbda837c7	-0.08213764
125	0x3d65cdd4	0.056104496
126	0xbdf8f209	-0.121555395
127	0x3cd2720d	0.02568915
128	0x3defb2aa	0.11703999
129	0x3dfd91e0	0.12381339
130	0xbd363da1	-0.044492368
131	0x3d4aed41	0.04954267
132	0x3d8ab731	0.06773222
133	0xbd9941e7	-0.07483273
134	0x3bf805ed	0.007569066
135	0x3b860d7f	0.0040909643
136	0xbcf61405	-0.030038843
137	0xbccaa52c	-0.024736963
138	0x3d9dbef3	0.07702436
139	0xbdf19ef4	-0.11797896
140	0xbd15f764	-0.036612883
141	0x3d925e7a	0.07146926
142	0x3dd34b50	0.10317099
143	0x3d981133	0.074251555
144	0x3e00b4ec	0.12569016
145	0x3d14dc24	0.036342755
146	0x3d1fbff5	0.039001424
147	0xbd9ca4fc	-0.07648656
148	0xbc27f78f	-0.010251894
149	0x3de4c602	0.111705795
150	0xbe2489e2	-0.16068223
151	0x3d96fe49	0.0737272
152	0xbdd2a251	-0.10284866
153	0xbd0a4c25	-0.033764023
154	0x3d389550	0.04506427
155	0x3da65120	0.08120942
156	0x3c70da88	0.014700539
157	0xbc4a631d	-0.012352732
158	0x3c889d70	0.016676635
159	0x3d1ac229	0.03778282
160	0xbc7dbf9c	-0.015487578
161	0x3d1be21c	0.03805743
162	0x3d8ddbbc	0.06926677
163	0x3beae0a4	0.0071678925
164	0x3e07c916	0.13260302
165	0x3e07157f	0.13191794
166	0x3dd1bf0c	0.102415174
167	0xbd4482ff	-0.04797649
168	0x3b2e3748	0.0026583243
169	0x3cc27b14	0.023740329
170	0x3da099b2	0.07841815
171	0xbc01e657	-0.007928452
172	0x3d58726e	0.052843504
173	0x3cabfd1c	0.020994715
174	0x3be1d8fe	0.0068923226
175	0x3bb47131	0.0055066575
176	0xbdf543fa	-0.11975856
177	0xbd6b6e7c	-0.057478413
178	0xbd21ea33	-0.03952999
179	0x3e51a0cb	0.20471494
180	0xbe37aca6	-0.17936954
181	0xbdd67a1d	-0.1047251
182	0x3b706451	0.0036680887
183	0x3e32668c	0.17421931
184	0xbc98f817	-0.018672986
185	0x3c72e53c	0.014825162
186	0xbcb00fdc	-0.021491937
187	0xbd8ad10b	-0.06778153
188	0xbe45ba13	-0.19309263
189	0xbd0fb86d	-0.03508799
190	0xbca74fcc	-0.020423792
191	0xbc50ba9b	-0.012739803
192	0xbc82b166	-0.01595373
193	0xbdad6786	-0.08467011
194	0xbd511e1f	-0.051054116
195	0x3ca51829	0.020153122
196	0x3e041e42	0.12902167
197	0x3e07ff15	0.132809
198	0xbcba223f	-0.022721408
199	0xbd4ac535	-0.049504478
200	0x3d089bb3	0.03335161
201	0xbbf16ce0	-0.0073677152
202	0x3ca7285d	0.020404989
203	0xbcbccb8a	-0.023046274
204	0x3e023c07	0.12718211
205	0x3e1500f5	0.14551146
206	0x3e2cda65	0.16880186
207	0xbdba74cc	-0.091043085
208	0x3cebc852	0.028782044
209	0xbd591c43	-0.053005468
210	0xbd54d422	-0.051960118
211	0xbb94e3b3	-0.0045437454
212	0x3e1983a8	0.14991629
213	0x3c0652c1	0.008198441
214	0xbdc1ec8d	-0.094689466
215	0x3cd1a86c	0.025593005
216	0xbe1c4824	-0.15261894
217	0xbd9afef5	-0.075681604
218	0x3d5388cc	0.05164413
219	0xbd77d947	-0.060509946
220	0x3da76a52	0.08174576
221	0xbd3aa79f	-0.045570012
222	0x3db2c6b8	0.08729309
223	0x3e2410b4	0.16021997
224	0xbc749f1b	-0.014930512
225	0xbc019bb0	-0.007910654
226	0xbd611a03	-0.054956447
227	0xbd8567e0	-0.06513953
228	0xbd5de19d	-0.05417024
229	0x3c4c019f	0.012451558
230	0xbd8eef99	-0.069792934
231	0x3d70a75d	0.05875336
232	0x3e1a41aa	0.15064111
233	0x3d8455c5	0.06461672
234	0x3c833dcf	0.016020684
235	0xbd6db9b1	-0.058038417
236	0x3ce5c80b	0.02804949
237	0x3d601ebb	0.054716807
238	0x3ca2bd41	0.019865634
239	0x3dd3d6f7	0.10343736
240	0x3d3ed89d	0.046593297
241	0xbdaac170	-0.083376765
242	0x3dfbdfa8	0.122985184
243	0xbd66ed2f	-0.05637854
244	0xbde64d75	-0.112452425
245	0xbdf54254	-0.11975542
246	0xbe479619	-0.19490851
247	0x3e08e227	0.1336752
248	0x3ce40552	0.027834568
249	0x3d69d5b1	0.057088558
250	0x3e17def2	0.1483114
251	0x3e24136a	0.16023031
252	0xbe2e09a9	-0.16995873
253	0x3d6595ec	0.05605118
254	0xbbf0f104	-0.00735295
255	0xbc15fdda	-0.009154761

lstm.weight_hh_l0 f4 [256, 64]
0	0x3c6f02ab	0.014588038
1	0x3e47a395	0.19495995
2	0xbcd07246	-0.025445115
3	0xbc4c178c	-0.012456786
4	0xbe124c7c	-0.14286989
5	0xbd761546	-0.06007888
6	0x3e0e8152	0.1391652
7	0xbdb8dd44	-0.09026578
8	0x3c8cdbc2	0.017194632
9	0x3ded6475	0.11591426
10	0x3c074854	0.00825699
11	0xbdc483ac	-0.09595427
12	0xbd39426c	-0.04522936
13	0x3da4ff4e	0.08056508
14	0xbcdfc22c	-0.027314268
15	0xbe591479	-0.21199216
16	0xbd947806	-0.07249455
17	0x3ddc68ad	0.10762153
18	0x3dac090c	0.08400163
19	0xbcf5ef90	-0.030021459
20	0xbc1aa902	-0.009439709
21	0x3d7d1bb3	0.061793994
22	0x3cca2dc1	0.02468002
23	0x3dc9228d	0.09821043
24	0x3e464e6f	0.19365858
25	0xbc1a338c	-0.009411704
26	0x3de13e68	0.10998231
27	0xbc600005	-0.01367188
28	0xbc553330	-0.013012692
29	0x3d1df31e	0.038561933
30	0xbe21b27a	-0.1579074
31	0x3d31ee9f	0.043440457
32	0xbcedf9e5	-0.029049823
33	0xbe3f1bb6	-0.18662915
34	0xbdcff354	-0.10153833
35	0x3d884601	0.06653977
36	0x3e0b7eeb	0.13622634
37	0x3bc11385	0.0058922195
38	0xbcc81d0a	-0.02442791
39	0xbdac8eae	-0.084256515
40	0x3b9bb875	0.0047522136
41	0x3d972e4c	0.07381877
42	0xbdb03000	-0.08602905
43	0xbdb69373	-0.089148425
44	0x3c21f3d4	0.009884793
45	0x3e596e50	0.21233487
46	0xbe56fc47	-0.20994674
47	0xbe02194f	-0.12704967
48	0xbca4410d	-0.02005055
49	0x3d8cb899	0.06871147
50	0x3cd61743	0.026134139
51	0xbd354ea1	-0.04426444
52	0xbe0db563	-0.13838725
53	0x3cc59e02	0.024123196
54	0x3c8a7830	0.016903013
55	0x3e30223c	0.1720056
56	0x3cff6b8b	0.03117921
57	0x3d0e03fd	0.034671772
58	0x3c157540	0.009122193
59	0x3d8ff3c6	0.07028918
60	0xbca3d72d	-0.020000065
61	0xbd24491f	-0.040108796
62	0x3de860df	0.11346602
63	0x3d875fb7	0.06610053
64	0x3d707b1a	0.05871115
65	0xbd7ea8d0	-0.06217271
66	0x3e1deaab	0.1542155
67	0xbde4d4e2	-0.11173417
68	0xbd5a44c6	-0.053288244
69	0xbd715da6	-0.0589272
70	0x3cbf3497	0.023340506
71	0xbce8138d	-0.028329635
72	0xbd9b0786	-0.07569794
73	0xbd815ec2	-0.06316902
74	0xbd333835	-0.043754775
75	0x3ddec8fc	0.108781785
76	0xbd87ce8b	-0.06631192
77	0xbd1a73ba	-0.03770802
78	0x3dcd1f3e	0.100157246
79	0x3dbf625b	0.09344932
80	0x3d8e66af	0.06953179
81	0xbdf19d38	-0.11797565
82	0xbd0a1b38	-0.033717364
83	0xbd507079	-0.050888512
84	0x3dcaf826	0.09910612
85	0xbd7a0489	-0.06103948
86	0x3d250981	0.040292267
87	0xbd3dc971	-0.046334688
88	0x3d1de788	0.038550884
89	0x3d10f65c	0.035391197
90	0xbd51846d	-0.05115168
91	0x3db6178e	0.088912115
92	0x3e0c83d3	0.13722162
93	0x3cc08a09	0.02350332
94	0xbe27ce53	-0.163873
95	0xbd9c1495	-0.07621113
96	0xbd88d37d	-0.06680963
97	0x3d2c8dd7	0.042127457
98	0xbc19675f	-0.0093630245
99	0xbdcd5d1c	-0.10027525
100	0xbb6c09ba	-0.003601654
101	0x3d97bf4e	0.07409535
102	0x3db05e89	0.08611781
103	0xbd7fd88e	-0.062462382
104	0xbcbbaee9	-0.022910552
105	0xbd988354	-0.07446924
106	0xbcd9ce82	-0.026587728
107	0xbd561c44	-0.05227305
108	0xbdd8792a	-0.10569985
109	0x3ba0eaad	0.004910788
110	0xbcd4e5cd	-0.025988484
111	0x3dc9efd0	0.09860194
112	0x3d2fc45a	0.042911865
113	0xbd774fa7	-0.060378697
114	0x3d8e9112	0.06961264
115	0x3a984866	0.0011618256
116	0x3e14ade7	0.14519463
117	0xbdc8bf00	-0.09802055
118	0x3e0e1c55	0.13877995
119	0x3db038e3	0.086046
120	0x3dc126ed	0.09431253
121	0xbd86aca4	-0.06575897
122	0x3dd2a5d0	0.102855325
123	0xbcc05a40	-0.023480535
124	0xbc5bec43	-0.013423028
125	0xbd88e3f2	-0.06684102
126	0x3dc93cdc	0.09826061
127	0x3c824dba	0.015906204
128	0xbd86da40	-0.06584597
129	0xbbe904c1	-0.0071111624
130	0x3d00f911	0.03148753
131	0x3dcd585b	0.10026618
132	0xbdf5c958	-0.12001294
133	0xbdc8a381	-0.09796811
134	0xbd5da8a3	-0.054115903
135	0x3da00121	0.07812715
136	0xbd27d260	-0.040972114
137	0x3a09890c	0.0005246557
138	0x3d0c50c4	0.03425671
139	0xbde6fdc9	-0.112788744
140	0x3de2dc82	0.11077215
141	0xbd31e6bf	-0.043432947
142	0x3d811640	0.06303072
143	0x3d9afd94	0.075678974
144	0xbd592aaa	-0.053019203
145	0xbd4e7872	-0.050407834
146	0x3de0d1a4	0.10977486
147	0xbdb5756b	-0.08860286
148	0x3dc275d8	0.09495133
149	0xbe0ee5a3	-0.13954787
150	0x3d48be13	0.049009394
151	0xbdb683d1	-0.08911861
152	0xbd4d61c1	-0.050142054
153	0x3cb9f09b	0.022697737
154	0xbcd3fb29	-0.025876598
155	0xbdd8b954	-0.105822235
156	0xbd6d5450	-0.057941735
157	0xbd521ad5	-0.05129512
158	0xbd82728c	-0.06369504
159	0xbd9fe3a9	-0.078070946
160	0xbca1ac38	-0.01973544
161	0x3cabd79e	0.020976838
162	0xbe0f4566	-0.13991317
163	0xbbf5ba7b	-0.007499037
164	0xbd39e060	-0.045379996
165	0x3c7090fc	0.0146830045
166	0xbe0c80c8	-0.13721001
167	0x3cbe16ea	0.023204286
168	0x3cc1d326	0.023660254
169	0x3d13d7bd	0.036094416
170	0xbcfb24a3	-0.030657118
171	0xbcbc6251	-0.0229961
172	0xbe319baf	-0.17344545
173	0xbc117b9f	-0.008879571
174	0xbc10cbfc	-0.008837696
175	0xbdc40295	-0.09570805
176	0x3d9123ed	0.070869304
177	0x3dc258af	0.09489571
178	0x3d55b02d	0.052169967
179	0xbdec9a41	-0.11552859
180	0x3d33a201	0.04385567
181	0xbc4c45f5	-0.012467851
182	0x3dc19ab9	0.09453339
183	0xbcfc8d7f	-0.03082919
184	0x3e177313	0.14789991
185	0xbdc9b966	-0.09849815
186	0x3de18ca5	0.11013154
187	0xbdd1058a	-0.102061346
188	0xbd9fb4e8	-0.07798177
189	0xbddf6f9a	-0.10909958
190	0xbe028979	-0.12747754
191	0xbc9acafc	-0.018895619
192	0x3c2b0ad6	0.010439595
193	0xbc3284da	-0.010895932
194	0x3dd1b385	0.10239319
195	0xbe27bebc	-0.16381353
196	0xbdb04892	-0.08607592
197	0x3d2683e5	0.04065313
198	0x3e07525f	0.13215016
199	0x3dfd4978	0.12367529
200	0x3d546b0c	0.0518599
201	0xbcf87933	-0.03033123
202	0xbd971bfb	-0.07378384
203	0xbc192ee8	-0.009349562
204	0xbb9b4037	-0.0047378796
205	0xbce9f359	-0.02855842
206	0xbc8d0d1e	-0.017218169
207	0x3d925263	0.0714462
208	0x3e31dcb6	0.17369351
209	0x3dfcae15	0.12337891
210	0x3d996b55	0.07491175
211	0xbe01343f	-0.12617587
212	0x3dfa062c	0.122082084
213	0xbe4b8024	-0.198731
214	0x3dc67640	0.09690523
215	0x3d9f5ea9	0.07781727
216	0x3b198876	0.0023427284
217	0xbd37e576	-0.044896565
218	0xbd7bb2c4	-0.06144978
219	0xbbc6beba	-0.006065217
220	0x3e030197	0.12793575
221	0xbe037c3e	-0.12840363
222	0xbe0a2590	-0.13490891
223	0xbddd1310	-0.107946515
224	0x3dcb396f	0.09923064
225	0x3d221bfd	0.039577473
226	0xbde507f5	-0.11183158
227	0x3dc595b1	0.09647692
228	0x3e172913	0.14761762
229	0x3bf65d08	0.0075184144
230	0x3e45ea05	0.19327553
231	0xbe023c48	-0.12718308
232	0xbac10076	-0.0014724869
233	0x3cd0116c	0.025398932
234	0xbd0977da	-0.033561565
235	0x3cb83dcb	0.022490403
236	0xbdc83d6c	-0.0977734
237	0xbcde03f9	-0.027101504
238	0x3daac928	0.08339149
239	0xbd6f8d21	-0.0584842
240	0xbe1df8b9	-0.15426911
241	0xbd306e15	-0.043073732
242	0xbd4b3189	-0.049607787
243	0x3ba3ae27	0.004995126
244	0xbbacfe3c	-0.0052793305
245	0xbda4cf7b	-0.08047386
246	0xbc52928a	-0.01285232
247	0x3d545803	0.051841747
248	0x3d806f48	0.06271225
249	0xbd1ca704	-0.038245216
250	0xbd407b4d	-0.04699259
251	0xbdb18a6e	-0.086689815
252	0x3d54bffd	0.051940907
253	0x39b2374c	0.00033992005
254	0xbda379da	-0.07982226
255	0xbc57b8d8	-0.013166629

lstm.bias_ih_l0 f4 [256]
0	0x3e56992f	0.20956872
1	0xbd55e123	-0.05221666
2	0x3dcf1ab5	0.10112516
3	0x3ca5fa0c	0.020260833
4	0x3d8a2bd8	0.06746644
5	0xbd39734d	-0.045275975
6	0x3c174048	0.009231634
7	0xbdb8bf2f	-0.090208404
8	0xbd2571a4	-0.04039158
9	0xbd84ba0e	-0.064807996
10	0x3d562765	0.052283663
11	0x3d8ccfc7	0.06875568
12	0xbd2c492a	-0.042061962
13	0x3dbc1dfb	0.09185406
14	0x3c7ba2f5	0.015358676
15	0x3e04b40b	0.12959306
16	0x3cc68e6d	0.024237836
17	0x3d19ba12	0.037530966
18	0xbd4208de	-0.047371738
19	0x3baa1977	0.005191024
20	0xbd7b4cd0	-0.06135255
21	0x3d70080d	0.058601428
22	0xbddd3b51	-0.10802329
23	0x3d11e226	0.035616063
24	0xbe3cdc5e	-0.18443438
25	0x3de0b5b9	0.10972161
26	0x3de165a7	0.11005717
27	0xbd98e90f	-0.074663274
28	0x3d3e9436	0.046528064
29	0xbe2e93f4	-0.17048627
30	0xbd46586c	-0.04842417
31	0xbe00b1fc	-0.12567896
32	0x3e0031f3	0.12519054
33	0xbdc48ba0	-0.09596944
34	0x3dad140c	0.08451089
35	0x3d9ea77e	0.0774679
36	0x3d5522c4	0.05203511
37	0x3da81dba	0.08208795
38	0xbca1f6b4	-0.019770958
39	0x3a84b69b	0.0010125221
40	0xbdb1c07d	-0.08679292
41	0x3ce7db32	0.028302763
42	0xbc7c1f39	-0.015388303
43	0xbd83c8d5	-0.0643479
44	0xbd6cf7e2	-0.057853587
45	0xbde2a23f	-0.11066102
46	0x3e37b7c1	0.1794119
47	0xbdef9b61	-0.11699558
48	0xbd2fc198	-0.042909235
49	0x3d01228b	0.031527083
50	0xbe0bfcc5	-0.13670643
51	0xbdde9d57	-0.10869854
52	0xbdacb3ad	-0.08432708
53	0x3c306fee	0.010768874
54	0x3d20080e	0.03907018
55	0xbe0e9927	-0.1392561
56	0xbd6edfc3	-0.058318865
57	0xbcbdfac3	-0.023190862
58	0x3d9faa06	0.07796101
59	0xbdf8eb31	-0.12154234
60	0xbd574894	-0.05255945
61	0x3ca91915	0.020641843
62	0x3e038005	0.12841804
63	0x3cccbbd9	0.024991916
64	0x3d93da61	0.07219387
65	0xbd9f7d88	-0.07787615
66	0xbe1d427a	-0.1535739
67	0xbd93cb2a	-0.07216485
68	0x3d90e27b	0.07074448
69	0xbd97b329	-0.07407219
70	0xbd9962ac	-0.07489523
71	0x3b00b6b8	0.001964016
72	0x3ddb271f	0.10700821
73	0x3db8760d	0.090068914
74	0x3cf4c16d	0.029877389
75	0x3b69a7ee	0.0035653072
76	0xbdde5cb6	-0.10857527
77	0x3e306c8c	0.17228907
78	0xbda4f6c3	-0.080548786
79	0xbba5f378	-0.005064424
80	0xbd8a3691	-0.06748689
81	0x3dae2a78	0.08504194
82	0x3df46bfd	0.1193466
83	0xbd8df066	-0.06930618
84	0xbe0538eb	-0.13009994
85	0x3e0b82f1	0.13624169
86	0x3df16a7a	0.11787887
87	0xbda0dc65	-0.07854537
88	0xbd969b6c	-0.07353863
89	0xbd4e2398	-0.050326914
90	0x3e040493	0.1289237
91	0x3cf12610	0.029437095
92	0x3d394be2	0.045238383
93	0xbe3fe93b	-0.18741314
94	0xbd356a68	-0.04429093
95	0xbe021ba6	-0.1270586
96	0xbd270727	-0.040778305
97	0xbe30d350	-0.1726811
98	0xbd9b1976	-0.07573216
99	0xbde2ec62	-0.11080243
100	0x3db0504d	0.08609066
101	0xbe154d26	-0.14580211
102	0x3cdb7648	0.0267898
103	0xbdb89fa6	-0.090148255
104	0x3db278bb	0.08714434
105	0x3cca7067	0.0247118
106	0x3cb63a19	0.0222445
107	0xbd586d44	-0.05283858
108	0x3d6551d4	0.05598624
109	0xbe01e0f8	-0.12683475
110	0x3dfe53e5	0.12418345
111	0xbe0e2c41	-0.13884069
112	0xbdc8d6af	-0.09806573
113	0xbe30a2b0	-0.1724956
114	0xbb8a2125	-0.004215377
115	0x3d9e683f	0.07734727
116	0x3d991f23	0.07476642
117	0x3b3c1fd8	0.0028705504
118	0xbde41867	-0.11137467
119	0xbd88f44e	-0.066872224
120	0xbd74c901	-0.059762005
121	0x3b7e923c	0.0038844487
122	0xbd696a11	-0.05698592
123	0xbdcb7493	-0.09934344
124	0x3c38c8d5	0.011278351
125	0x3dbf63b6	0.0934519
126	0x3d9ea4bf	0.077462666
127	0xbdf1ce4c	-0.11806926
128	0x3d82b878	0.06382841
129	0xbbea157f	-0.007143676
130	0x3d8b76f4	0.06809798
131	0x3da0857e	0.078379616
132	0xbd8e5115	-0.06949059
133	0xbbf031d5	-0.007330159
134	0x3da449e5	0.08021907
135	0x3de5ae2b	0.112148605
136	0x3e754a38	0.23954093
137	0xbe29e282	-0.16590312
138	0xbd9b6460	-0.075875044
139	0x3e43196d	0.19052668
140	0x3d007740	0.031363726
141	0x3d77aa13	0.06046493
142	0xbd2b54eb	-0.04182903
143	0xbe070485	-0.13185318
144	0xbd0c0b21	-0.0341903
145	0x3d8d4e56	0.06899707
146	0x3da3ff71	0.08007706
147	0x3e20b035	0.15692218
148	0xbe2e7d76	-0.17040047
149	0x3cfc2135	0.030777553
150	0x3d69e75e	0.057105415
151	0x3dd23e8d	0.10265837
152	0x3e134e28	0.14385283
153	0x3e1626ab	0.14663188
154	0xbdf7825c	-0.12085411
155	0x3d8acb6d	0.06777082
156	0x3e186204	0.1488114
157	0x3d816dd0	0.06319773
158	0xbd94fbe5	-0.072746076
159	0xbdd8f59e	-0.10593723
160	0x3d2266c2	0.03964878
161	0xbd251a24	-0.040308133
162	0xbcbb1ea2	-0.022841755
163	0x3cbb6984	0.022877462
164	0xbd87fb99	-0.06639785
165	0x3d8d9912	0.069139615
166	0xbcefa30a	-0.029252548
167	0x3d7fc1cf	0.06244069
168	0xbbd4e25e	-0.0064967116
169	0xbd96181f	-0.073288195
170	0xbd77301f	-0.060348626
171	0x3d81177e	0.06303309
172	0xbcaf81f5	-0.021424273
173	0x3d41ebf1	0.047344152
174	0xbc28012a	-0.010254184
175	0xbe0488ac	-0.12942761
176	0xbe0038db	-0.12521689
177	0xbd7e9c3b	-0.06216071
178	0x3e3c4f6f	0.18389677
179	0x3b02d084	0.001996071
180	0x3dc554c8	0.09635311
181	0xbdfda7cf	-0.123855226
182	0xbda9d7da	-0.082931235
183	0xbc5bf5f6	-0.013425341
184	0x3c8fa38a	0.017534036
185	0xbc2230d5	-0.009899338
186	0x3d93a065	0.07208327
187	0x3d80d86d	0.0629128
188	0x3c9dedfa	0.019278515
189	0xbd8cba95	-0.06871525
190	0x3e06e08d	0.13171597
191	0x3d08c39c	0.033389673
192	0x3d8bf282	0.06833364
193	0xbdda05b8	-0.10645622
194	0xbde79396	-0.11307447
195	0xbd1b37f2	-0.03789515
196	0x3b21522b	0.0024615626
197	0xbd3de32a	-0.04635922
198	0x3d664ba8	0.056224495
199	0xbcace8af	-0.021107046
200	0xbc0ca0ba	-0.008583242
201	0xbdb1973b	-0.08671423
202	0x3d47e257	0.04879984
203	0x3e0993ed	0.13435335
204	0xbdb8bc5d	-0.090203024
205	0x3d0e1649	0.03468922
206	0xbd1e2c0a	-0.038616218
207	0xbe0fadab	-0.14031093
208	0xbdb2c922	-0.08729769
209	0xbd8d4726	-0.06898336
210	0x3deec62f	0.11658894
211	0xbc078004	-0.008270267
212	0xbdca6b0c	-0.09883699
213	0x3db52e62	0.088467374
214	0x3dc721b2	0.09723224
215	0x3caef723	0.021358078
216	0xbe0e013a	-0.13867655
217	0xbdafeb3c	-0.08589789
218	0xbd1be2a3	-0.038057934
219	0xbe030839	-0.12796105
220	0x3dd8793a	0.10569997
221	0xbdd536fd	-0.10410879
222	0x3d8b626e	0.06805883
223	0xbb8abe04	-0.0042340774
224	0xbcdc8ba8	-0.026922062
225	0xbdf186dd	-0.11793301
226	0x3d984037	0.07434123
227	0xbd94bd34	-0.0726265
228	0x3e187398	0.14887846
229	0xbd4a04e4	-0.04932107
230	0xbd333fea	-0.043762125
231	0x3bb8ccb6	0.005639638
232	0xbd0d43c9	-0.034488473
233	0xbdf1757e	-0.11789988
234	0xbdc11516	-0.0942785
235	0x3d668f3f	0.056288954
236	0xbde82847	-0.11335807
237	0x3ce1960c	0.027537368
238	0xbe04faa4	-0.12986237
239	0xbd5f834b	-0.05456857
240	0x3d075201	0.03303719
241	0x3d16ff7f	0.036864754
242	0x3dab114d	0.08352909
243	0xbe1a0844	-0.15042216
244	0xbdcaba5a	-0.09898825
245	0x3db86bf0	0.090049624
246	0x3d52746e	0.051380567
247	0x3d1c8036	0.03820821
248	0xbdada7ea	-0.08479293
249	0x3db4643d	0.088081814
250	0xbb2c128a	-0.0026256167
251	0xbd9c401c	-0.076294154
252	0xbd205334	-0.03914185
253	0x3b9fb71d	0.0048741237
254	0xbb1c93ec	-0.002389188
255	0x3dfeca68	0.1244095

lstm.bias_hh_l0 f4 [256]
0	0x3e4f3a56	0.20237097
1	0x3d9a8930	0.07545698
2	0xbbd2638c	-0.0064205583
3	0xbd534f82	-0.051589496
4	0x3e1aeab2	0.15128592
5	0xbccd7ef9	-0.02508496
6	0x3d312e72	0.043257184
7	0xbddb7b4f	-0.107168786
8	0x3d8ed2ac	0.06973776
9	0xbc5d97e4	-0.013524983
10	0xbd498149	-0.04919556
11	0xbd761ee8	-0.06008807
12	0x3d7576ec	0.059927866
13	0x3caf0be3	0.021367973
14	0x3d8488dc	0.06471416
15	0x3c3255db	0.010884727
16	0x3d0e2da3	0.03471149
17	0xbc838556	-0.01605479
18	0x3d45f428	0.04832855
19	0xbd17770a	-0.03697876
20	0xbe2855b3	-0.16438942
21	0xbd137c33	-0.036007117
22	0xbe099c2d	-0.13438483
23	0x3d00168a	0.031271495
24	0xbe11d0c8	-0.142398
25	0x3d8a92d8	0.067662895
26	0xbbe63e00	-0.007026434
27	0xbd477b50	-0.048701584
28	0xbd82c669	-0.063855
29	0xbdb6a429	-0.0891803
30	0xbe466ffb	-0.19378655
31	0xbe0e8a5f	-0.13919972
32	0x3dda5e2d	0.10662494
33	0x3b515c5b	0.0031945917
34	0x3dab20ee	0.0835589
35	0x3e1893df	0.14900158
36	0x3d8bec69	0.06832201
37	0x3b2b8a95	0.002617513
38	0x3c887c6d	0.016660893
39	0xbda5b56c	-0.08091244
40	0xbd41901f	-0.047256585
41	0x3d015f4d	0.031585027
42	0xbd751bcd	-0.059840966
43	0xbce24515	-0.027620832
44	0xbd4cb76e	-0.04997962
45	0xbe23e95c	-0.16006988
46	0x3e23e2ba	0.16004458
47	0xbd80e05b	-0.062927924
48	0xbe43b881	-0.19113351
49	0x3d255f62	0.040374167
50	0xbe13d4e0	-0.14436674
51	0xbdfd7e7f	-0.12377643
52	0xbe029661	-0.12752678
53	0xbd1d0012	-0.038330145
54	0x3ca1159f	0.01966363
55	0x3d041928	0.032250553
56	0xbd8ecbff	-0.06972503
57	0x3e1c666f	0.1527345
58	0x3d46efe6	0.04856863
59	0xbcf838c2	-0.030300502
60	0x3d7b77ce	0.06139355
61	0xbde6953e	-0.112589344
62	0x3d306c58	0.043072075
63	0x3d54d1bd	0.051957835
64	0x3db1a641	0.086742885
65	0xbd85b3c2	-0.06528427
66	0xbcb81cbb	-0.022474637
67	0xbde00e15	-0.10940186
68	0xbe2c1e9a	-0.16808549
69	0xbdf66c16	-0.120323345
70	0x3d916694	0.07099643
71	0x3d05ee25	0.032697815
72	0xbd991b27	-0.07475882
73	0xbd8838f7	-0.0665149
74	0x3e40961a	0.18807259
75	0x3c1e32cc	0.009655666
76	0x3d8e45a0	0.06946874
77	0x3d974868	0.07386857
78	0xbcf5402d	-0.029937828
79	0xbd76dc64	-0.060268775
80	0x3d94f3f5	0.072730936
81	0xbd48abc4	-0.048991933
82	0x3e0e72b3	0.13910942
83	0xbc4f4c2c	-0.012652438
84	0xbdddb39a	-0.10825272
85	0x3c919ec0	0.017775893
86	0x3da887ed	0.08229051
87	0x3dd13253	0.10214677
88	0xbd399709	-0.045310054
89	0x3da69afb	0.08135029
90	0xbdd9dea8	-0.106381714
91	0x3cd3e9e9	0.025868373
92	0xbd743d05	-0.059628505
93	0xbe3aabea	-0.18229643
94	0xbd86a692	-0.065747395
95	0xbc795390	-0.015217677
96	0x3b9423ae	0.004520855
97	0xbda2d03a	-0.07949872
98	0xbd4e3498	-0.050343126
99	0xbd1bda50	-0.038049996
100	0xbda945ad	-0.08265243
101	0xbd2af1ec	-0.04173462
102	0xbd80e212	-0.062931195
103	0xbe3a772f	-0.18209527
104	0xbdaa53c0	-0.08316755
105	0xbd987ccd	-0.07445679
106	0x3cf82ba9	0.030294256
107	0xbe030ea8	-0.1279856
108	0xbde7a43a	-0.113106206
109	0xbd09976f	-0.033591684
110	0x3dd85277	0.10562604
111	0xbdf313c9	-0.11869008
112	0x3d26c095	0.040711004
113	0x3d8b062c	0.067882866
114	0xbb8ebdc5	-0.0043561184
115	0xba7357bd	-0.00092827884
116	0x3ca78b2a	0.0204521
117	0xbd05f5dc	-0.032705173
118	0x3d0579db	0.032586914
119	0x3dfe6e68	0.12423402
120	0x3d4a2ed5	0.04936107
121	0xbcabeb5f	-0.020986257
122	0xbc2a9669	-0.010411837
123	0x3a3e8956	0.00072683895
124	0x3dc53798	0.09629744
125	0xbd29b308	-0.041430503
126	0xbd461156	-0.048356377
127	0xbd149d11	-0.036282603
128	0xbe0df753	-0.13863878
129	0xbcbc9f45	-0.023025164
130	0x3cf11f87	0.029433979
131	0xbdd4b21c	-0.10385534
132	0xbd5c9148	-0.05384949
133	0x3c418b85	0.011813049
134	0xbdc9757b	-0.09836861
135	0x3d4e836a	0.050418295
136	0x3bc2010a	0.005920534
137	0xbde5acd7	-0.11214607
138	0xbce85c46	-0.028364312
139	0x3bc0d6ad	0.0058849663
140	0x3cc88a86	0.024480116
141	0x3e0b1330	0.13581538
142	0x3db6024e	0.08887158
143	0x3d8c53ba	0.06851907
144	0x3c9cb8bb	0.019131055
145	0xbc905329	-0.017617779
146	0x3bc66690	0.006054707
147	0xbd510942	-0.05103422
148	0xbc5ff004	-0.013668064
149	0x3e760527	0.24025403
150	0x3d891f07	0.06695371
151	0x3ddca3f9	0.10773463
152	0x3cab3adc	0.02090209
153	0xbccd8e0c	-0.025092147
154	0xbdef48b2	-0.116837874
155	0x3d45fcef	0.04833692
156	0x3e27e8a4	0.16397339
157	0x3d08810b	0.03332619
158	0x3de037d3	0.109481476
159	0xbc367fd1	-0.011138872
160	0x3d86fa43	0.065907024
161	0x3e11e654	0.1424802
162	0xbd675979	-0.056481812
163	0xbd8096f5	-0.06278793
164	0xbbf96deb	-0.00761198
165	0x3e202e11	0.15642573
166	0xbd2ff6dd	-0.042960037
167	0xbd208919	-0.039193247
168	0x3ce4cb64	0.027929015
169	0x3d4481ad	0.04797523
170	0xbde8f52b	-0.11374887
171	0xbbf1af40	-0.0073756278
172	0x3d70372d	0.05864637
173	0x3ba360d0	0.004985906
174	0xbdb65d7b	-0.08904549
175	0x3d0268fd	0.031838406
176	0xbc7ed162	-0.01555285
177	0xbbf56d29	-0.0074898195
178	0x3e34d2fa	0.17658606
179	0x3d455604	0.048177734
180	0x3c020c01	0.007937432
181	0xbdfb99ad	-0.12285171
182	0x3d83791b	0.064195834
183	0x3ddeb386	0.10874085
184	0xbd59b0ef	-0.053147253
185	0x3aa14f58	0.0012306971
186	0x3c218485	0.009858255
187	0xbcab170b	-0.020885011
188	0x3d66c433	0.056339454
189	0x3e267f00	0.16259384
190	0x3d84e39a	0.06488724
191	0x3de6e98b	0.112750135
192	0x3e172d9f	0.14763497
193	0xbe01db48	-0.12681305
194	0xbd5adc6e	-0.053432874
195	0x3d227316	0.039660536
196	0xbd547e07	-0.051878
197	0xba4e3c6b	-0.00078672793
198	0xbdf6cf83	-0.120512985
199	0xbd87ce33	-0.06631126
200	0x3dd24a20	0.102680445
201	0xbd24181e	-0.040062062
202	0x3d00bc61	0.031429652
203	0x3e08a908	0.1334573
204	0x3c639494	0.013890404
205	0x3d7f3326	0.06230464
206	0xbdd80b70	-0.105490565
207	0xbe0067c1	-0.12539579
208	0x3daeed07	0.08541303
209	0xbd0ce1d2	-0.034395047
210	0x3d471e68	0.048612982
211	0x3db20885	0.08693031
212	0xbe3ccc6f	-0.1843736
213	0xbe11b3de	-0.1422877
214	0x3d1bface	0.038080983
215	0x3cd114b3	0.025522565
216	0xbb80618d	-0.003917879
217	0x3c9f9772	0.019481394
218	0x3d3e5611	0.046468798
219	0xbd18a827	-0.037269738
220	0xbdb0be22	-0.08630015
221	0xbe013ae0	-0.12620115
222	0xbc396919	-0.011316561
223	0xbddb0907	-0.10695081
224	0x3d87a3b5	0.066230215
225	0xbe322a80	-0.17399025
226	0x3dfd0acf	0.12355577
227	0xbda6332c	-0.08115229
228	0x3c881c13	0.01661495
229	0x3c6ef759	0.014585339
230	0x3e001e43	0.12511544
231	0x3d17f2ad	0.037096668
232	0x3da7277b	0.08161827
233	0x3d73a376	0.05948206
234	0xbd4ad7a4	-0.049522057
235	0xbd5ccbe7	-0.053905394
236	0x3d0b1d72	0.033963628
237	0xbdb8c15c	-0.090212554
238	0xbca42b01	-0.020040037
239	0xbd29b299	-0.04143009
240	0xbdf19ffa	-0.11798091
241	0xbc1c2a25	-0.009531532
242	0xbc7b3b62	-0.015333982
243	0xbdbeb698	-0.09312171
244	0xbe0f29a5	-0.1398073
245	0xbe154d44	-0.14580256
246	0xbe352bf2	-0.17692545
247	0x3dbdc482	0.092659965
248	0x3d89d118	0.067293346
249	0x3e1ebdde	0.15502116
250	0x3a82d76d	0.0009982415
251	0x3c593661	0.013257594
252	0x3d0ca790	0.034339488
253	0xbc3dbd51	-0.011580781
254	0x3dae6aad	0.085164405
255	0x3dbf376c	0.09336743

lstm.weight_ih_l1 f4 [256, 64]
0	0x3e80e5eb	0.25175413
1	0xbe4b76d2	-0.19869545
2	0xbaa1ec4c	-0.0012353747
3	0xbc2abc9e	-0.010420946
4	0xbe0605b4	-0.13088113
5	0x3deb80a2	0.11499144
6	0xbca8ad66	-0.020590495
7	0x3cbef140	0.023308396
8	0xbde0efe0	-0.109832525
9	0xbdef6f96	-0.11691205
10	0x3e307d4b	0.17235295
11	0xbd085b94	-0.03329046
12	0xbcb8f085	-0.022575626
13	0xbb20e042	-0.002454773
14	0x3dc8de50	0.09808028
15	0x3e43d04f	0.19122432
16	0xbd1da435	-0.03848668
17	0xbe0113b5	-0.12605174
18	0xbd35f771	-0.04442543
19	0x3cd2fc2f	0.025755016
20	0xbc9a0638	-0.018801793
21	0xbc011a9e	-0.007879881
22	0x3e23420e	0.15943167
23	0x3e3291a2	0.17438367
24	0xbe2b1cac	-0.16710156
25	0x3e0c7edc	0.13720268
26	0x3cb8e35a	0.022569347
27	0xbd1ba39a	-0.03799782
28	0x3d367cda	0.04455266
29	0xbc886789	-0.016650932
30	0xbdbbe853	-0.09175172
31	0x3cde1ddc	0.027113847
32	0x3d839a83	0.06425955
33	0xbd7ce8fc	-0.06174563
34	0x3df803cc	0.12110099
35	0xbd39c191	-0.045350615
36	0xbe29a504	-0.16566855
37	0x3da478b4	0.08030835
38	0xbe0d9340	-0.13825703
39	0xbdf65c4f	-0.12029325
40	0x3d9539d6	0.07286422
41	0xbd67b640	-0.05657029
42	0xbe2ce94f	-0.16885875
43	0x3e3ce3fa	0.18446341
44	0x3dd94a10	0.106098294
45	0xbdb1457a	-0.0865583
46	0x3de6460b	0.112438284
47	0x3d343cb8	0.04400322
48	0x3d4e1f2b	0.050322693
49	0xbd829e18	-0.0637781
50	0x3c58c540	0.013230622
51	0xbda8111e	-0.0820639
52	0x3b628a25	0.0034567204
53	0xbdfe3a72	-0.12413491
54	0x3e211866	0.15731964
55	0x3dc5de52	0.09661545
56	0x3c96870c	0.018374942
57	0x3cde19f5	0.027111987
58	0xbd061a91	-0.03274018
59	0xbe259f01	-0.16173936
60	0x3e045fd8	0.12927186
61	0x3d63f2b8	0.055651397
62	0xbd7798fa	-0.060448624
63	0xbd8d23c3	-0.06891587
64	0xbcd83fec	-0.026397668
65	0x3cfb8d46	0.030707013
66	0x3cd40fb3	0.025886392
67	0x3bc289c3	0.0059368326
68	0x3d6ebd76	0.058286153
69	0x3c9a3104	0.0188222
70	0x3e3df00b	0.185486
71	0x3dc38ff8	0.09548944
72	0x3c1e3ba6	0.009657776
73	0xbded8672	-0.11597909
74	0x3d562a07	0.052286174
75	0xbd601257	-0.05470499
76	0x3da263ac	0.07929167
77	0xbdf84c0d	-0.121238805
78	0x3db858c7	0.09001308
79	0xbd889cbb	-0.06670519
80	0x3dc1d69a	0.0946476
81	0xbda2d8ae	-0.079514846
82	0x3c8b0e21	0.01697451
83	0xbda06b3d	-0.07832954
84	0xbd864315	-0.06555764
85	0xbe056861	-0.13028099
86	0x3da031d6	0.078220055
87	0x3dd6ffb5	0.10497991
88	0xbdf6dbee	-0.12053667
89	0x3cad4e1d	0.021155411
90	0xbcda5aa6	-0.026654553
91	0x3db75a20	0.08952737
92	0xbd1f597c	-0.0389037
93	0xbdcbb849	-0.09947259
94	0xbe3f0e18	-0.1865772
95	0xbd9951f5	-0.07486335
96	0xbc4ee1de	-0.012627093
97	0xbdf7c9a6	-0.12099008
98	0xbd4faf96	-0.05070456
99	0x3d2db872	0.04241223
100	0x3db698c9	0.0891586
101	0xbd393529	-0.045216713
102	0x3da6b435	0.081398405
103	0x3d47ab5a	0.048747398
104	0xbcffaa10	-0.031209022
105	0x3cdebca5	0.027189562
106	0xbe2e79b3	-0.17038612
107	0xbd2aeb52	-0.041728325
108	0x3de0f7f4	0.10984793
109	0x3b5b6fe9	0.0033483452
110	0x3dbb8952	0.09157051
111	0x3d6367ba	0.055518843
112	0xbdb1e376	-0.08685963
113	0xbdd861d8	-0.10565537
114	0x3de23a99	0.11046333
115	0x3d41f703	0.04735471
116	0x3d32ab60	0.043620467
117	0x3d3f79cd	0.046747018
118	0x3dae3c3d	0.08507583
119	0xbd9212a8	-0.07132465
120	0x3d4e4d2d	0.05036657
121	0x3d166da4	0.036725655
122	0xbcdfb775	-0.027309159
123	0xbd48344a	-0.04887799
124	0x3db06a2e	0.08614002
125	0xbe10b201	-0.14130403
126	0x3da455b5	0.0802416
127	0x3dfca62a	0.12336381
128	0x3e08d4c8	0.1336242
129	0x3d394c67	0.04523888
130	0x3dc96cda	0.09835215
131	0xbd23cc17	-0.039989557
132	0x3cc41f56	0.023940723
133	0xbc080b11	-0.00830342
134	0xbd9d015a	-0.076662734
135	0x3b735500	0.0037129521
136	0x3d9b9e01	0.07598496
137	0xbd2b85df	-0.041875716
138	0x3ddf2aeb	0.10896858
139	0xbdebefc6	-0.115203425
140	0xbd62f846	-0.055412553
141	0xbe5df8da	-0.2167696
142	0x3db9b612	0.0906793
143	0xbb39834c	-0.0028307019
144	0x3de3b08c	0.11117658
145	0xbce4365c	-0.027857952
146	0xbd8e75ed	-0.06956086
147	0x3dac222f	0.084049575
148	0xbe47387f	-0.19455145
149	0x3d13fc3b	0.036129218
150	0x3e36d7c6	0.17855749
151	0x3e108452	0.14112976
152	0xbd2873a4	-0.04112591
153	0x3df1fed8	0.11816186
154	0x3d3ebb63	0.046565425
155	0x3c8659e6	0.016400289
156	0xbbfc8d28	-0.007707257
157	0x3d68ca9a	0.05683384
158	0x3c29258d	0.010323894
159	0xbe1fc642	-0.15602973
160	0x3c1280ac	0.008941811
161	0x3d0c9109	0.034318004
162	0x3d443676	0.0479035
163	0xbdd157b8	-0.10221809
164	0xbdc50253	-0.09619584
165	0xbde56e4e	-0.112026796
166	0xbdaee023	-0.085388444
167	0xbdf6a6c1	-0.120435245
168	0xbb25f4fb	-0.0025323022
169	0x3c4b2733	0.012399483
170	0xbe0ae09e	-0.13562247
171	0x3ddb8f98	0.10720748
172	0x3d988285	0.074467696
173	0x3ba8746e	0.0051408326
174	0x3b7d4260	0.00386443
175	0xbda79863	-0.08183362
176	0x3cccbd4b	0.024992606
177	0xbd2c944f	-0.042133626
178	0xbc99ee76	-0.018790465
179	0xbc8b15a2	-0.016978089
180	0xbd8b5a74	-0.06804362
181	0xbd328ee0	-0.043593287
182	0xbdf9daa3	-0.12199905
183	0xbe08d77b	-0.1336345
184	0xbd1197c6	-0.035545133
185	0x3d90d69c	0.070721835
186	0xbcab8082	-0.0209353
187	0x3d6ac2a8	0.057314545
188	0x3c93cf83	0.018043285
189	0xbbd80873	-0.006592804
190	0xbdd34ae7	-0.10317021
191	0x3d58caab	0.052927654
192	0x3d0ec3d6	0.034854732
193	0x3d319d5c	0.04336296
194	0x3e16a7a1	0.14712383
195	0x3d4a78bf	0.04943156
196	0xbd3a5f62	-0.04550112
197	0xbced9ef3	-0.029006457
198	0xbbda8bcc	-0.006669497
199	0xba0da612	-0.00054034695
200	0xbe0b1feb	-0.13586394
201	0x3cd93f9c	0.02651959
202	0xbccbfe42	-0.024901513
203	0xbd8ac2c0	-0.06775427
204	0xbe011089	-0.12603964
205	0xbd81c5a1	-0.06336523
206	0x3d89ddeb	0.067317806
207	0x3e10b3d1	0.14131095
208	0x3e473265	0.19452818
209	0xbdd86421	-0.10565973
210	0xbe41257b	-0.18861954
211	0xbd700a04	-0.0586033
212	0xbe4706bf	-0.19436167
213	0xbd4fc614	-0.05072601
214	0xbd827806	-0.06370549
215	0x3c8f6cc2	0.017507914
216	0xbda74ca6	-0.081689164
217	0x3e1844ad	0.14869948
218	0xbdc28bd8	-0.09499329
219	0x3b60074c	0.0034184037
220	0x3b447452	0.002997656
221	0xbbebb943	-0.007193716
222	0xbd794496	-0.060856424
223	0xbcd0bf86	-0.02548195
224	0xbdfa882d	-0.12233005
225	0x3c94fce8	0.018187001
226	0x3e367af3	0.17820339
227	0xbda25d42	-0.07927944
228	0x3c82bfc2	0.015960578
229	0xbd225d81	-0.039639954
230	0xbd5cde1e	-0.053922765
231	0x3d87fb54	0.06639734
232	0xbd512341	-0.05105901
233	0xbd061bc2	-0.032741316
234	0xbc666e63	-0.014064404
235	0x3db60a3c	0.08888671
236	0x3d9d8b89	0.0769263
237	0xbcc66644	-0.024218686
238	0x3dd07508	0.10178572
239	0xbcf9789a	-0.030453015
240	0xbdb1cc74	-0.086815745
241	0xbdf54064	-0.11975172
242	0x3d66c044	0.056335703
243	0xbcfb8bc1	-0.030706288
244	0x3dcf37cb	0.101180635
245	0x3cd1bc6b	0.02560254
246	0xbd23cf10	-0.039992392
247	0xbd03a624	-0.032140866
248	0x3cb4c15f	0.022064863
249	0xbdc51f3e	-0.096250996
250	0xbc1db686	-0.0096260365
251	0x3d0c4a41	0.0342505
252	0x3cbbefc2	0.022941474
253	0xbca5c6b5	-0.020236352
254	0xbe681ae3	-0.22666506
255	0x3de0cd01	0.109766014

lstm.weight_hh_l1 f4 [256, 64]
0	0x3de629b8	0.11238426
1	0x3ac22787	0.0014812805
2	0x3d390f11	0.045180384
3	0x3c84ac6e	0.016195502
4	0x3e292273	0.16517048
5	0x3c23d2f7	0.009999028
6	0xbdfd486c	-0.12367329
7	0x3d606386	0.054782413
8	0xbd8c7810	-0.068588376
9	0xbcda4c9c	-0.026647858
10	0xbe0df0ba	-0.13861361
11	0x3c8183e2	0.015809957
12	0xbe49014e	-0.19629404
13	0xbd47d3df	-0.04878604
14	0xbafbf18d	-0.0019221768
15	0x3da56029	0.08074982
16	0xbd7c1ff4	-0.06155391
17	0xbe0c3661	-0.13692619
18	0x3ddcccd9	0.10781259
19	0x3e005282	0.12531474
20	0x3d876f5d	0.06613038
21	0x3dff024e	0.124516115
22	0x3cc5706e	0.024101462
23	0x3d85b57b	0.06528755
24	0x3cf4ab14	0.029866733
25	0xbddb1dd9	-0.10699052
26	0xbdadcb28	-0.084860146
27	0x3e06825d	0.13135667
28	0xbc24f77a	-0.010068769
29	0xbd74f8e1	-0.059807662
30	0xbd1fdaa3	-0.039026868
31	0x3e184d9e	0.14873359
32	0xbc9a5bed	-0.018842662
33	0x3cc24d15	0.023718396
34	0x3e196ac7	0.14982139
35	0xbe13a9bc	-0.14420217
36	0xbc0e8eec	-0.008701067
37	0x3e4b4a11	0.19852473
38	0x3d738707	0.059454944
39	0xbd746ccd	-0.059674073
40	0xbe229bcd	-0.15879746
41	0xbc932545	-0.017962107
42	0xbe0e2a12	-0.13883236
43	0xbdd54a2b	-0.10414537
44	0xbd971d24	-0.07378605
45	0xbd525ec1	-0.051359896
46	0xbdec8bf2	-0.1155013
47	0xbd88b311	-0.06674779
48	0xbcbc7fe4	-0.023010202
49	0xbd898c2a	-0.06716187
50	0xbdd072f5	-0.10178176
51	0x3e074c3c	0.13212675
52	0xbda3f812	-0.080063
53	0x3e3abef5	0.18236907
54	0xbdbf02e2	-0.09326722
55	0x3d348a91	0.04407746
56	0x3cb7e621	0.022448601
57	0x3d5721b9	0.052522395
58	0xbdda3683	-0.106549285
59	0xbd89675b	-0.067091666
60	0x3d684588	0.056706935
61	0x3e0ba1c6	0.1363593
62	0x3e45f276	0.19330773
63	0xbce10721	-0.02746922
64	0xbd8b0a75	-0.06789104
65	0xbe15d985	-0.14633758
66	0x3dc9f196	0.09860532
67	0xbac4b4be	-0.0015007479
68	0x3d91e562	0.071238294
69	0x3da44f74	0.08022967
70	0xbc896f4a	-0.0167767
71	0xbc4c0bd3	-0.012453991
72	0x3e1cde7a	0.15319243
73	0x3dc20c14	0.0947496
74	0x3c891970	0.016735762
75	0x3baeb7ac	0.005331954
76	0x3d1adfcc	0.037811086
77	0xbc82cf29	-0.015967922
78	0x3d7586b2	0.05994291
79	0x3e187013	0.14886503
80	0x3b93da38	0.0045120977
81	0xbb559a2a	-0.003259311
82	0x3ccb350d	0.02480557
83	0x3d36c485	0.04462101
84	0x3d7c86e9	0.061652098
85	0x3d8d5ca5	0.06902436
86	0xbd3ef818	-0.04662332
87	0x3e230e26	0.15923366
88	0x3d4a254a	0.049351968
89	0xbb9a4a95	-0.004708598
90	0x3d83381b	0.06407186
91	0xbdaadffe	-0.08343504
92	0x3bdb3b79	0.0066904393
93	0x3d7c287d	0.06156205
94	0xbe1fd5ff	-0.15608977
95	0x3dc019cf	0.093799226
96	0xbcb66dbe	-0.022269126
97	0xbd4180f3	-0.047242116
98	0x3daa09a2	0.083026186
99	0xbc4eeaba	-0.012629205
100	0x3e1613c0	0.14655972
101	0xbd44df76	-0.04806467
102	0xbc229eaf	-0.009925528
103	0x3da246dc	0.079236716
104	0xbdf9604b	-0.121765696
105	0x3d255eab	0.040373486
106	0x3d75bf61	0.059996966
107	0xbe092aee	-0.13395283
108	0xbba472b4	-0.0050185565
109	0x3d6afe7a	0.057371594
110	0xbe0fddf4	-0.14049512
111	0x3d214a4e	0.039377503
112	0x3d0dd19e	0.034623735
113	0x3d34a31c	0.044100866
114	0xbe1a4eaf	-0.15069078
115	0x3dc78363	0.09741857
116	0xbcb79650	-0.022410542
117	0x3c6e1726	0.014531886
118	0x3bc8f84f	0.0061331163
119	0x3e1961d3	0.14978723
120	0x3d5c44bf	0.0537765
121	0x3d5f5be6	0.054531
122	0x3daa24b7	0.08307784
123	0xbe0831e1	-0.13300277
124	0x3d5a2050	0.05325347
125	0x3dbe4cbb	0.09291979
126	0x3d6186dd	0.055060256
127	0xbda52563	-0.080637716
128	0x3d733417	0.05937585
129	0xbd58b9ca	-0.052911557
130	0xbdb3090a	-0.087419584
131	0xbdfa92bc	-0.122350186
132	0xbe061664	-0.13094479
133	0xbcb32514	-0.021868266
134	0x3d3920ea	0.045197405
135	0x3d477481	0.04869509
136	0x3de79160	0.11307025
137	0x3d96b1f8	0.073581636
138	0x3c91a949	0.017780917
139	0xbbff997e	-0.00780028
140	0xbc0c7c16	-0.008574506
141	0x3cc9a053	0.024612581
142	0xbd2692ac	-0.04066722
143	0xbdf8f5bd	-0.12156246
144	0xbd5c2450	-0.053745568
145	0xbdf1d53e	-0.11808251
146	0x3e2bd196	0.1677917
147	0x3d6bdcdd	0.05758368
148	0xbdb388b3	-0.08766308
149	0x3d67247c	0.05643128
150	0xbde80577	-0.11329167
151	0x3d969398	0.0735237
152	0xbdbf291e	-0.09334014
153	0xbdc693e5	-0.096961774
154	0xbdeafdb7	-0.114741735
155	0xbca9eaaa	-0.02074178
156	0xbb910120	-0.004425183
157	0xbd8162f2	-0.063177004
158	0x3d972e2f	0.07381856
159	0xbd210ce1	-0.039318923
160	0x3d16c599	0.036809538
161	0x3d64a755	0.055823643
162	0x3d1629ae	0.036660843
163	0x3e48fe8a	0.19628349
164	0x3cafcc16	0.02145962
165	0x3d77faa7	0.060541775
166	0x3d908935	0.0705742
167	0xbd9b52cc	-0.075841516
168	0x3e20b0f7	0.15692507
169	0x3b2ba614	0.002619152
170	0xbdf56368	-0.11981851
171	0xbe0b3ade	-0.13596675
172	0x3de612b9	0.1123404
173	0xbd809e26	-0.062801644
174	0x3d9430d9	0.072358795
175	0xbd7e3a42	-0.062067278
176	0x3c24048f	0.0100108525
177	0xbc0802ad	-0.008301419
178	0xbdf6ff52	-0.12060417
179	0x3e2cab7b	0.1686229
180	0xbcc22cdf	-0.023703037
181	0x3e400877	0.18753229
182	0x3dbe9d6e	0.09307371
183	0x3c88e045	0.016708503
184	0xbd866482	-0.06562139
185	0x3c96f859	0.018428968
186	0xbe0c6e5b	-0.13713972
187	0xbd9e9392	-0.077429906
188	0xbd015ecf	-0.031584557
189	0x3e3680b0	0.17822528
190	0x3e26a1c8	0.16272652
191	0x3da1d64a	0.079022005
192	0x3e09341e	0.13398787
193	0xbe036188	-0.12830174
194	0xbe043712	-0.12911633
195	0x3d4c2a10	0.0498448
196	0x3c9c3fc8	0.019073382
197	0x3d84bad2	0.06480946
198	0xbcbd03c6	-0.023073088
199	0xbd96b8f6	-0.07359497
200	0x3d8713f3	0.06595602
201	0x3d14c123	0.036317002
202	0x3c15f05d	0.009151545
203	0x3d018fe6	0.031631373
204	0xbc15a994	-0.009134669
205	0xbcaba4b6	-0.020952564
206	0x3d60074b	0.054694455
207	0x3d8bb417	0.06821459
208	0xbe105223	-0.14093833
209	0x3d1536b3	0.03642912
210	0x3e174f5b	0.14776365
211	0x3cd1018e	0.025513437
212	0x3d033596	0.032033525
213	0x3d982a66	0.07429962
214	0xbdb50d33	-0.08840408
215	0x3cf01aa0	0.02930957
216	0xbceb0141	-0.028687121
217	0xbdf5c15a	-0.119997695
218	0x3d12939a	0.035785295
219	0xbe100197	-0.14063106
220	0x3dc55826	0.096359536
221	0x3da4cc87	0.08046823
222	0xbc30079b	-0.010744001
223	0x3d0c9bb4	0.034328178
224	0x3bb778d7	0.005599122
225	0xbd66399f	-0.056207296
226	0x3de54926	0.111955926
227	0xbe371408	-0.17878735
228	0x3d8b6dc2	0.06808044
229	0x3d9eae9e	0.07748149
230	0x3d3e1f2a	0.04641644
231	0x3d2d1555	0.042256672
232	0xbdcac7d0	-0.099013925
233	0xbd833c4a	-0.064079836
234	0x3c336651	0.010949687
235	0xbbd2c461	-0.0064321016
236	0x3cfad2e1	0.030618133
237	0x3c419fe9	0.011817911
238	0xbe11e7e2	-0.14248613
239	0xbdaea1e4	-0.08526972
240	0xbdbec686	-0.09315209
241	0x3cec46b0	0.0288423
242	0x3c44fa4a	0.012022564
243	0x3e18275b	0.14858763
244	0xbc70781d	-0.014677075
245	0xbab652a6	-0.0013910129
246	0xbe4024dd	-0.18764062
247	0x3e1f9cd9	0.15587176
248	0xbe0ed45b	-0.13948195
249	0x3d248800	0.040168762
250	0x3d091afe	0.033473007
251	0xbd212712	-0.0393439
252	0x3cc567e2	0.024097387
253	0x3df0e3ce	0.117622
254	0x3d0b17cf	0.033958253
255	0x3e34352c	0.17598408

lstm.bias_ih_l1 f4 [256]
0	0xbde07561	-0.10959888
1	0xbe115392	-0.14192036
2	0xbe420c3e	-0.18949983
3	0xbc0dd0f8	-0.008655779
4	0xbdf3c6dc	-0.11903164
5	0xbe3828b0	-0.17984271
6	0x3c92aac2	0.01790369
7	0xbe10ac08	-0.14128125
8	0xbe3f7bd1	-0.18699576
9	0xbe2cd46e	-0.1687791
10	0xbdbbc853	-0.09169068
11	0xbdc6a8a5	-0.09700135
12	0x3a0350b6	0.000500928
13	0xbcda18d6	-0.02662317
14	0xbe05f688	-0.13082325
15	0xbdb33e45	-0.08752111
16	0xbcb07fb6	-0.021545272
17	0xbd42f131	-0.0475933
18	0x3c664587	0.014054663
19	0xbda17f76	-0.07885639
20	0xbd391c07	-0.045192745
21	0xbd51fd5c	-0.051267013
22	0xbe20dc73	-0.15709095
23	0xbe2f789a	-0.1713585
24	0xbda0d741	-0.078535564
25	0x3cb0d34a	0.021585125
26	0xbe1e78dc	-0.15475792
27	0xbe4357c3	-0.19076447
28	0x3d8e49da	0.0694768
29	0x3c249132	0.010044383
30	0xbcc3da03	-0.023907667
31	0xbd8c663d	-0.06855438
32	0xbd4e2136	-0.05032464
33	0xbc5980b2	-0.013275312
34	0xbe5b5855	-0.21420415
35	0x3d3661bd	0.044526804
36	0xbdf0baad	-0.117543556
37	0x3d073076	0.0330052
38	0xbdd0a824	-0.1018832
39	0xbaa46398	-0.0012541888
40	0x3d7b21ee	0.061311655
41	0xbd9c9dad	-0.07647262
42	0xbe08e720	-0.13369417
43	0xbde0d676	-0.10978405
44	0xbce36cf4	-0.027761914
45	0xbd4b5f27	-0.04965129
46	0x3d8352f4	0.064123064
47	0x3dda48e7	0.10658436
48	0xbdd62957	-0.10457104
49	0xbe4b1801	-0.19833376
50	0x3d357db5	0.044309337
51	0xbe330fe6	-0.17486534
52	0xbdae1adb	-0.08501216
53	0xbd93cca3	-0.07216766
54	0xbde78ee7	-0.11306553
55	0x3c87149e	0.016489323
56	0xbd6113aa	-0.054950394
57	0x3d02a8ed	0.03189938
58	0xbe005dd5	-0.12535794
59	0xbc865977	-0.016400082
60	0xbd1c2060	-0.038116813
61	0xbcf75fd3	-0.03019706
62	0x3d909c5e	0.07061075
63	0x3d11cbe5	0.03559484
64	0xbdc6572d	-0.09684596
65	0x3c24b7a1	0.010053546
66	0xbacad877	-0.0015475889
67	0xbc0c3dcf	-0.008559658
68	0x3d7aa1a7	0.06118932
69	0xbc4690d1	-0.012119488
70	0x3ba4c7d2	0.0050287032
71	0xbdb5c1f9	-0.08874888
72	0x3cb780d3	0.022400295
73	0xbdb97cc7	-0.090570025
74	0xbda457fd	-0.08024595
75	0xbd9c63b1	-0.07636202
76	0x3d4a3b1f	0.04937279
77	0xbdbca43b	-0.09211012
78	0xbd1dee12	-0.03855712
79	0xbd99784d	-0.07493649
80	0xbdace097	-0.084412746
81	0x3ca7a275	0.020463208
82	0xbd14cbdd	-0.03632723
83	0xbd4cefc2	-0.05003334
84	0xbd77313c	-0.060349688
85	0xbe26ffc5	-0.16308506
86	0xbcc230b0	-0.023704857
87	0xbd28fe2b	-0.04125802
88	0x3d7a02c8	0.06103781
89	0xbd63230c	-0.055453345
90	0x3b2cb6c2	0.002635405
91	0xbcee3c97	-0.029081626
92	0xbd24791e	-0.04015457
93	0xbdc0f58f	-0.094218366
94	0xbe014668	-0.12624514
95	0x3cb687d6	0.022281568
96	0xbdebdb0a	-0.11516388
97	0xbe235a10	-0.15952325
98	0xbe2b7949	-0.16745485
99	0xbcaf9643	-0.021433955
100	0xbe041e24	-0.12902123
101	0xbe1b2cda	-0.15153828
102	0xbdb34abb	-0.08754488
103	0xbe0ce8ba	-0.13760653
104	0xbde7ef66	-0.113249585
105	0xbe35b637	-0.1774529
106	0xbe16663b	-0.14687435
107	0xbd639d1d	-0.055569757
108	0x393f0cd8	0.00018219964
109	0xbdb3dd34	-0.087824255
110	0xbc22a45e	-0.0099268835
111	0x3db584b0	0.08863199
112	0xbe4b35a6	-0.19844684
113	0xbdb4d57c	-0.088297814
114	0xbdceaadd	-0.10091183
115	0x3d05c2e7	0.032656576
116	0x3c95d59a	0.01829033
117	0xbc9dabfa	-0.019247044
118	0xbdc261c3	-0.09491303
119	0xbe420f60	-0.18951178
120	0xbdb1814a	-0.08667238
121	0xbba8eccc	-0.0051551815
122	0xbd7941a6	-0.060853623
123	0xbd8f9cef	-0.070123546
124	0xbe089434	-0.13337785
125	0xbdff8d66	-0.124781415
126	0x3ca1179c	0.019664578
127	0x3c373bcc	0.01118369
128	0xbdde34ad	-0.10849891
129	0x3cf85b34	0.030316927
130	0x3be1bb8a	0.0068888115
131	0xbd6aeda8	-0.057355553
132	0x3d09c3aa	0.033633865
133	0xbc776eae	-0.015102072
134	0xbd1a2533	-0.037633132
135	0x3cf5840f	0.029970197
136	0x3da9a5c4	0.082835704
137	0x3cfe60b5	0.031051973
138	0xbbce81aa	-0.0063020783
139	0x3d4bb1b8	0.049730033
140	0x3e03a06e	0.12854168
141	0x3c3b7020	0.011440307
142	0x3d133ffa	0.035949685
143	0xbd4392fb	-0.047747593
144	0x3d9e4e1a	0.077297404
145	0xbc9fab7a	-0.019490946
146	0x3d320915	0.043465693
147	0x3ca1bfe6	0.019744825
148	0xbdb448da	-0.08802958
149	0x3dbece0b	0.09316643
150	0xbdbfa711	-0.09358037
151	0xbc98dd80	-0.018660307
152	0xbd1468e1	-0.036232833
153	0xbda25188	-0.07925707
154	0xbdcde117	-0.10052698
155	0xbdcab598	-0.098979175
156	0xbd94ea30	-0.0727123
157	0x3dedd181	0.11612225
158	0xbd96cfdc	-0.07363865
159	0xbd7e78ff	-0.06212711
160	0xbdca3b56	-0.09874599
161	0xbc7be0c9	-0.015373417
162	0xbdaa8025	-0.08325223
163	0x3da9d6ed	0.08292947
164	0x3dfbc8b7	0.12294143
165	0xbc600716	-0.013673564
166	0x3dcd0c43	0.10012104
167	0x3dca8e33	0.098904036
168	0xbc87ee9c	-0.01659327
169	0x3dbdcf8b	0.09268101
170	0x3a321324	0.00067930133
171	0xbd959b91	-0.073050626
172	0xbabfefba	-0.0014643588
173	0xbce9aae1	-0.028523864
174	0xbdd2af0a	-0.10287292
175	0x3df7a925	0.12092809
176	0xbc989f0a	-0.018630523
177	0x3c8ae884	0.016956575
178	0xbb81734c	-0.003950512
179	0x3e082179	0.13294019
180	0x3d9052c2	0.07047035
181	0x3d62db6c	0.05538504
182	0x3d6ec7e2	0.05829609
183	0x3e06bb88	0.13157475
184	0xbc966752	-0.018359814
185	0x3cd2039a	0.025636483
186	0x3d00dbb1	0.031459514
187	0xbde8fcdb	-0.11376353
188	0x3cf57f16	0.029967826
189	0xbc5b5a90	-0.013388291
190	0xbd936919	-0.0719778
191	0x3cc44308	0.023957744
192	0xbd5beebe	-0.05369448
193	0xbdf53f59	-0.11974973
194	0xbbfa83c0	-0.0076451004
195	0x3ca9af54	0.020713486
196	0xbce66c69	-0.028127866
197	0xbd2e3462	-0.042530425
198	0x3a471224	0.0007593951
199	0xbb02cf25	-0.0019959894
200	0xbdeb273c	-0.11482093
201	0xbbe9ce76	-0.0071352078
202	0xbe22a047	-0.15881453
203	0x3d23b74a	0.03996972
204	0xbceed694	-0.029155053
205	0x3d353445	0.0442393
206	0xbd752346	-0.059848092
207	0xbe070d9f	-0.1318879
208	0xbc846c41	-0.0161649
209	0x3c5f3596	0.013623616
210	0x3d59ec09	0.053203616
211	0x3d3e843c	0.046512827
212	0x3d942c5f	0.072350256
213	0xbe190914	-0.1494487
214	0xbd31aa40	-0.043375254
215	0xbd6de00e	-0.058075003
216	0x3ce0b70d	0.027431035
217	0xbd8ebd03	-0.06969645
218	0x3d54b138	0.05192682
219	0x3b7f278a	0.003893348
220	0xbd3cfb9c	-0.04613839
221	0x3d83d566	0.06437187
222	0xbde06737	-0.10957187
223	0xbcaaad6f	-0.020834653
224	0x3d1e3113	0.03862102
225	0xbe3c8229	-0.18409027
226	0xbd2e92f7	-0.042620625
227	0x3b8c6376	0.0042843176
228	0xbe00db3f	-0.12583636
229	0x3d3cb02d	0.04606645
230	0xbdf44ea0	-0.11929059
231	0xbe1c334d	-0.15253945
232	0xbe00fa91	-0.12595583
233	0xbc2c5222	-0.010517629
234	0xbdec4724	-0.115370065
235	0xbdc0d8c3	-0.09416344
236	0xbd3a9964	-0.04555644
237	0xbe49172c	-0.19637746
238	0xbcbaabd7	-0.022787018
239	0x3d60c79b	0.05487786
240	0xbc06a484	-0.0082179345
241	0xbd444800	-0.047920227
242	0x3d3f5b27	0.04671779
243	0xbe38c80b	-0.1804506
244	0x3cdb4190	0.026764661
245	0xbe041081	-0.1289692
246	0xbc8b5266	-0.017007064
247	0xbdf61a82	-0.12016775
248	0xbcc647ce	-0.024204161
249	0xbc3ae3be	-0.011406837
250	0xbd8d69ec	-0.069049686
251	0xbe0d2cbc	-0.13786596
252	0xbe04b402	-0.12959293
253	0xbdcf8fa9	-0.10134823
254	0x3d17e6fa	0.03708551
255	0x3d681788	0.056663066
