Competition/TrainAI/model/s50/model_weights_1.pth (torch, 443791 bytes, 18 tensors)

lstm.weight_ih_l0 f4 [256, 36]
00000000: c2f2 913d 6d42 073e 5c81 ffbc 8795 4cbd
00000010: 0e55 853d ba42 8f3d 417e 61be fff2 863d
00000020: c854 02bd d560 38bd 535e 0bbe 7950 f4bd
00000030: 9c61 df3b aa8a c53d b608 17be e234 90be
00000040: ba84 d03c 78a1 30be 07c5 8c3c c0fa 4e3e
00000050: bd54 bfbd b31d 1e3e ea55 31be b279 203e
00000060: fa04 a03c 4bf8 363c c14d 493d d243 c7bd
00000070: 40a7 1abe 98c5 ebbd 04df 26be 4ab9 92be
00000080: 4d43 e6bc 8f72 0f3e c6c1 4d3d 075d 00be
00000090: f70b 23bd 0df8 04be 9b6e a4bd 602b 243e
000000a0: 96aa 103e 8c5f 2a3d bbd2 9d3d 4fd2 ee3d
000000b0: 30ca e73d dae9 0fbe 016c b9bd 036f 39bb
000000c0: 21eb 2bbe 1b0d e93d 6af8 633d 392d 40be
000000d0: 26bf 0f3e 0bcf 7d3b 0908 f63d 7072 85bd
000000e0: 1d03 943d ac0c f73b 5a09 743d 6cf4 99bd
000000f0: e500 21be c1fd 39be 1f45 6dbc cbd7 12bd
00000100: 0c14 8c3d a75b 12bd 025f 463e 7b17 76bd
00000110: ce41 e0bd 9ffc bebc 0e1f a23d d6e0 3ebd
00000120: 102d c53d 26e8 3a3d e4f1 2ebe d70a 263e
00000130: 8839 0a3b 985f 7abd 85f8 083e 03c0 203d
00000140: d968 20be cf02 9a3d 23aa 8b3c a1e0 a23d
00000150: 167b b3bd 91ca e23d 8257 c53d b88d d03d
00000160: 6cdd 033e cc49 84bd 8d9a 3c3d ef5e 9c3d
00000170: fd63 70bd 1c2b 9b3d 764d 1d3d 0220 353d
00000180: 0cbf ad3d 1c26 00bd 9b44 bcbc 39e2 99bc
00000190: fd8a 383e 49df 0b3e d284 083e 93ee 03bb
000001a0: baf8 8c3d f2e7 0a3e b69c a3bc 09f2 603d
000001b0: 7d55 ec3d 9bc7 9f3d 1bdf acbd 5870 04be
000001c0: 6e62 11bd 3e18 d63d 9d61 9cbd 2244 f4bd
000001d0: 2739 ae3d 1e4a 103e a3a7 1c3e 449d 72ba
000001e0: b22e a03d bc93 273e 7a41 aa3d a415 a1be
000001f0: cbc1 5e3b 54bd 68be 94dd 543e c314 6f3d
00000200: 6213 683c 86f8 da3c 3014 cdbd b6a2 373e
00000210: 86d4 4c3e 08af ac3c a855 a03b 51d5 1f3e
00000220: 122b ffbb bf72 0b3e 7bbf 643d 85b9 613e
00000230: fd19 7b3c 8067 b3bd 5d89 01be c100 c33d
00000240: c3c2 a73d cb1d 44be ae70 733d 3bad c6bd
00000250: 2bc1 1fbe 95b8 58be e4a0 82be 0e99 bdbe
00000260: cb7b babe 6c5d a63d 58f0 0f3d 1583 97bd
00000270: 09d7 94bd 7648 c8bc 910b d53b c1d5 2b3d
00000280: 2ac9 90be bae1 23bd 8250 77be 4e09 09be
00000290: d6e6 083e 2d07 3b3e 1163 7fbd 52dd 15bc
000002a0: 5df7 823d 89a3 06be f27a d33c 3065 163e
000002b0: 3244 b13d eea2 a63c a708 9e3c b822 d53b
000002c0: 8c6a 0cbe 0da8 8e3d 7e80 163e 5ec7 533d
000002d0: 5e91 c6bd 43ea 53bd 0be4 b3bd 2e2b 1d3e
000002e0: c32d abbd bee5 29bd 0289 2c3e a228 eabc
000002f0: 50e7 a5bd 5ca2 9a3d 36c7 b0bc bca7 e23c
00000300: dfb3 b8bc 4f6a 9ebd 8ccf 5ebd 1365 77bd
00000310: 5a12 90bd af8d 813c 9c4a 0b3d 7688 093e
00000320: 85b3 8abd 160a b03d 563c 28bd 0ab5 f43d
00000330: 8e36 e8bb e24a 913d e30a f63c 68dc 70bd
00000340: d6be 9e3d e705 12bd 3d81 ce3c e034 21be
00000350: e517 003e 85ce 25bd a246 75ba 2311 953d
00000360: 8832 2e3c e833 11bd 838c 083d b461 3fbd
00000370: 2568 6abc 65da e7bd 10ea 48bc 3e37 993d
00000380: 8c65 b4bd d302 8ebd 1961 fdbd 6520 9fbd
00000390: ebb4 00bd 7279 943c 98db 443e 8c8a af3d
000003a0: 1db1 d1bd 84ee 87bd 780b eebd 1aa3 333b
000003b0: a473 313e a15a 53be d6e8 e33d 579d aabd
000003c0: 69ab dcbc a35f 913c cc35 413d 6b40 913d
000003d0: d3da f83d d361 fa3d 6474 f13d e370 243e
000003e0: 5247 e33d 37a0 8c3d f81f d83a b08b acbd
000003f0: 3e3f 9e3c 8028 f93c cb9f 0bbc ce4d 2f3d
0.071263805 0.13208933 -0.031189613 -0.049947288 0.065103635 0.06995149 -0.22020818 0.065893166
-0.031819135 -0.04501422 -0.136102 -0.119294114 0.006817056 0.09645589 -0.14749417 -0.28165346
0.025453914 -0.17249095 0.017183794 0.20212841 -0.093423344 0.15441017 -0.1731793 0.15671423
0.019533623 0.011167596 0.049146418 -0.097297326 -0.15102863 -0.115122974 -0.16296011 -0.2865699
-0.028108263 0.14008544 0.050233625 -0.12535487 -0.039806332 -0.12985249 -0.08028909 0.16032171
0.14127573 0.041595027 0.07706209 0.11661207 0.11317861 -0.14054051 -0.09053803 -0.0028294928
-0.16788913 0.11379453 0.055656828 -0.18767251 0.14037761 0.0038728144 0.12013251 -0.06515968
0.07227156 0.0075393524 0.05957923 -0.07517323 -0.15722997 -0.18163206 -0.014481812 -0.035850327
0.06839761 -0.035731938 0.1937218 -0.060080986 -0.10950051 -0.023313818 0.079160795 -0.04660114
0.096277356 0.04563155 -0.17084461 0.16215073 0.002109142 -0.06112632 0.13376053 0.039245617
-0.15664996 0.07520067 0.017048901 0.07953001 -0.08763711 0.11073793 0.096358314 0.10183281
0.12877434 -0.06459388 0.04604583 0.07635295 -0.058689106 0.07576582 0.03840395 0.04421998
0.08483705 -0.031286344 -0.022981932 -0.01878463 0.1802177 0.13659395 0.13331917 -0.0020131215
0.06883378 0.13565043 -0.019972187 0.054918323 0.11539743 0.078017436 -0.084409915 -0.1293348
-0.03549426 0.104538426 -0.07635806 -0.11927058 0.08506995 0.14090773 0.15298323 -0.0009255002
0.078214064 0.1636495 0.0831327 -0.31461823 0.0033990021 -0.22728473 0.2078765 0.05836941
0.0141647775 0.026729833 -0.10013616 0.17933163 0.20002946 0.021079555 0.0048930235 0.15608718
-0.007787117 0.13617991 0.055846673 0.22043426 0.01532602 -0.087599754 -0.12650056 0.09521628
0.08191445 -0.1915199 0.05943363 -0.0970101 -0.15601031 -0.21164162 -0.25513375 -0.37030834
-0.36422572 0.081232876 0.03514132 -0.07398049 -0.07267577 -0.024448615 0.006501623 0.0419519
-0.28278476 -0.04001019 -0.24151805 -0.13382456 0.13369307 0.18264456 -0.062350336 -0.009147005
0.06394837 -0.13148321 0.02581546 0.14687037 0.08655585 0.020341363 0.019291235 0.006504383
-0.1371252 0.06965647 0.14697453 0.051703803 -0.09695695 -0.05173708 -0.0878373 0.15348503
-0.08358338 -0.041478865 0.1684914 -0.028583828 -0.0810076 0.07550499 -0.021579366 0.027667873
-0.022546707 -0.077351205 -0.05439715 -0.060399126 -0.0703475 0.01581463 0.0340067 0.13430962
-0.06772522 0.08595674 -0.041073166 0.11948593 -0.0070865816 0.07094361 0.030034488 -0.058803946
0.07751243 -0.03565016 0.02520811 -0.15742826 0.12509115 -0.040480155 -0.00093565334 0.07278659
0.010632165 -0.035449892 0.033337127 -0.046724036 -0.014307057 -0.11320952 -0.012262836 0.0748124
-0.08808431 -0.069341324 -0.123720355 -0.07769851 -0.031422537 0.018124316 0.19224393 0.085713476
-0.1023886 -0.0663729 -0.11623281 0.0027410449 0.1732927 -0.20640041 0.11128394 -0.083307914
-0.026937203 0.017745798 0.047170445 0.07092365 0.121511124 0.1222569 0.11789778 0.16058688
0.11097588 0.06866496 0.001648902 -0.08425081 0.019317266 0.03041482 -0.008521984 0.04279881

lstm.weight_hh_l0 f4 [256, 64]
00000000: 042b 9b3c b67c 4abd 1c48 8cbd d34c 683e
00000010: 9dd2 753d 87e2 453d 45b7 4f3d 3880 153e
00000020: f892 90bd 3f61 c0bc 5cd7 283e a282 a0bd
00000030: c4dd ac3d ad8c f6bd cada 11be aeaf 043c
00000040: 1e71 fcbd 7f3d 963b 3975 2d3d 7582 dabd
00000050: 117f 043e 9c6f 24bd d885 26be ddd6 6cbc
00000060: d98d 013c 8a91 84bd 9049 10be 45ca 71be
00000070: 65f2 23bd bcad 59bd dd83 463d 7ccb e03d
00000080: f452 f7bd e2d3 cd3d 5efb 863c a513 9abd
00000090: c43d 043e cf3c 803d fbf5 cf3b 5235 9e3d
000000a0: 1654 a5bc c4af 6e3d 23ba 0ebe dabb a43b
000000b0: e0d0 633d 78f8 a53d 1683 9c3c ef85 683d
000000c0: c4ce d1bc 7a76 a0bd fd96 d3ba 1b97 c0bc
000000d0: 4ae1 15be 9889 e8bd a4ad a93d ffb1 56bd
000000e0: 9be8 83bd 8857 5ebd 2067 2cbe dd94 39bd
000000f0: cdb0 95bd cd00 483c 13f4 25be 709c a83c
00000100: 4b0f a83d aad9 083e 8938 81bc 3d86 13bd
00000110: 629b 8fbc 109d 393e a4e6 de3d bd7f 3f3e
00000120: da08 07be d834 c3bc b545 f9bd 048b 52bc
00000130: e61c 373b 035c 123e 607b 4b3e bcdd 07bc
00000140: 1267 03bd b7af 8dbd a4cb 1dbe 52f5 973c
00000150: 3a1c 193c 77f5 fc3c 46a9 d5bd 888d aabd
00000160: 2a11 2c3e 0908 9d3d 4027 2c3d f30b 36bd
00000170: d3bb 203d 24ca 1fbe 054f 53bd e08b 043c
00000180: 8c96 433d 5863 e6bc 1974 a3bd 349d c9bc
00000190: b195 17bd 8e0b 213e 6730 b53d 4042 fabc
000001a0: 75ff 3fbe 166c 03be d3d2 ce3d fff7 993b
000001b0: da28 07bd f53a 153e bd88 02be 98cc 0a3e
000001c0: 5aa3 fd3d 7a5b 103e 52c4 523d 5a26 e13b
000001d0: e23a b6bd 686f 2b3e b211 a63c 49e3 873d
000001e0: 72ed 13bc 6694 2cbd 7578 adbc e0a6 c8bd
000001f0: de3f b0bd 138e c53b 0095 52bd 8d32 27bd
00000200: fecc 32bd 32bd 20bd ee0c bbbd a9b6 8ebd
00000210: f974 063e b585 bfbd f8e9 d03d cd27 20bd
00000220: 01dd 65bd b84d 85bb 01f6 c63c b8ac 0a3d
00000230: 9401 40bd 545a 423e 9517 6c3c b832 c63d
00000240: fe97 393e 3012 303e eb40 d7bd ad74 563d
00000250: fee7 92bd 8659 b23c 9142 f438 89ef 963d
00000260: dd6b c9bd 7477 313d de57 003e 1720 13be
00000270: 4db8 89bb 5142 fd3c 0c9e d7bd bd80 b8bd
00000280: 0e65 d13c 60cd 313e 0c9a a03d 95ae 303e
00000290: 6bcf 2bbb becb 483e 78cb 68bd 9bb9 12be
000002a0: 2967 3fbd 863d 023d e6bb 423d c93c b53d
000002b0: 4857 f43d 5557 533e 25c4 5fbd 265d a43d
000002c0: 07ab 0f3e ae27 e93d 3e3e 1d3e 0fbc 213e
000002d0: f1c5 b83d aed4 db3d 8c63 c63d 0a2d 0bbb
000002e0: 65fe 4d3d 363b d2bc 5b3c 0c3e 7018 d5bc
000002f0: 3909 7cbd 11e4 3c3e 0079 d2bc b5c2 a9bc
00000300: b0e8 023e 1f45 d8bb 1e11 243e cda7 b6bc
00000310: c85f 9b3d 9151 3dbe fe91 5e3d 0edf d1bd
00000320: 82f6 1e3d 010a 993d dad6 a73d f26e 03bd
00000330: 8bdb 583e e37d 003e d60f 8dbd 2967 98bc
00000340: 3e56 a53c 6201 edbd a045 873c 7ea7 3bbd
00000350: f327 b33d f90b 8d3e ac70 16be a524 c33d
00000360: 1d8b d1bd 26fb 68bd 996b 8ebd eebf bfbd
00000370: d043 673d ece6 61bd 6e58 f1bd 40b0 1f3e
00000380: c30b 33be 51dd c9bd 684f 04be a71a 183d
00000390: ef1e d4bc 8db4 773d f739 0a3e 2cc2 16bd
000003a0: 0a89 1ebe 7349 a63d 7cce 20bd 5eea 66bc
000003b0: 9b37 0a3e 7190 023e 0945 21be 43eb 58be
000003c0: fa8a 493d 21bc 543e 84a6 103e 16dd 083e
000003d0: 7033 0a3e df67 043e 0ec9 633b 77e4 93be
000003e0: 5036 24be cf2a a7bd abf4 623e e975 cb3d
000003f0: b41b 3dbe 2e1a 5bbd c986 113e ca6a e8bd
0.01894141 -0.04943534 -0.06849691 0.22685556 0.06001531 0.048311736 0.05071189 0.14599693
-0.07059282 -0.02348387 0.16488403 -0.07837416 0.08440736 -0.120385505 -0.14243618 0.008098526
-0.12326263 0.0045849676 0.04234812 -0.10669414 0.12939097 -0.0401455 -0.16261995 -0.014455524
0.007907354 -0.06473072 -0.14090562 -0.23612316 -0.040026087 -0.0531442 0.0484656 0.109763116
-0.12076369 0.10050179 0.016477283 -0.07523278 0.12914187 0.06261598 0.006346462 0.07725014
-0.020181697 0.058273092 -0.13938193 0.0050272765 0.05561912 0.08104032 0.019105475 0.056768354
-0.025611289 -0.078350976 -0.001614302 -0.023509553 -0.14636722 -0.11354369 0.082850724 -0.052415844
-0.0644085 -0.054282695 -0.16836214 -0.045307983 -0.07309113 0.012207222 -0.16206388 0.020582408
0.08206042 0.13364282 -0.015774028 -0.03601669 -0.017530147 0.18126321 0.10883835 0.18701072
-0.1318697 -0.023828909 -0.12171499 -0.012850527 0.0027940809 0.14292912 0.19871283 -0.008292612
-0.032080717 -0.069182806 -0.15409714 0.018549595 0.009345109 0.030878766 -0.10432677 -0.08327776
0.16803423 0.07667548 0.04202962 -0.04444499 0.039241623 -0.15604454 -0.05158903 0.008089989
0.047750995 -0.028123543 -0.07981128 -0.024611093 -0.03700799 0.15727064 0.08847123 -0.030549169
-0.18749793 -0.128342 0.10098805 0.004698753 -0.032997943 0.14573272 -0.12747474 0.13554609
0.123846725 0.14097396 0.051456757 0.006871027 -0.0889795 0.16741717 0.02027211 0.06635148
-0.009028779 -0.04213371 -0.021175602 -0.09797454 -0.08605932 0.0060288995 -0.05141163 -0.040819693
-0.043652527 -0.03924293 -0.091333255 -0.069684334 0.13130559 -0.093516745 0.10200876 -0.039100457
-0.05611897 -0.0040681027 0.024287226 0.033856124 -0.046876505 0.1897977 0.014409919 0.096776426
0.18124387 0.17194438 -0.10510429 0.052357364 -0.07173155 0.021771204 0.000116472256 0.073699065
-0.098350264 0.04332681 0.12533519 -0.1436771 -0.0042028786 0.030915411 -0.10528192 -0.0900893
0.025560882 0.173635 0.07841882 0.17254098 -0.002621616 0.19608971 -0.056834668 -0.14328615
-0.04672924 0.031796955 0.047542475 0.088494845 0.1193071 0.20638783 -0.054630417 0.08025579
0.14030086 0.113845214 0.15355775 0.15794395 0.09022129 0.10733925 0.09686956 -0.0021236562
0.050291438 -0.025663 0.13694899 -0.02601263 -0.061532233 0.18446375 -0.025692463 -0.020722726
0.12784076 -0.0066000368 0.16022155 -0.02229681 0.07586628 -0.18488146 0.054338448 -0.102476224
0.038809307 0.07472611 0.081952766 -0.032088228 0.21177499 0.12548022 -0.06887786 -0.018603878
0.020182725 -0.115725294 0.016512692 -0.04581403 0.08747854 0.27548197 -0.14691418 0.09528474
-0.10231612 -0.05688014 -0.069541164 -0.093627796 0.056461155 -0.055151865 -0.11784445 0.15594578
-0.17484955 -0.09856666 -0.12920916 0.037134793 -0.025893657 0.06047492 0.13498674 -0.03680627
-0.15481964 0.08119478 -0.03925942 -0.014093963 0.13497774 0.12750413 -0.15748991 -0.21183495
0.049204804 0.2077489 0.1412602 0.13365588 0.13496184 0.12930249 0.003475729 -0.28885242
-0.16036344 -0.08162462 0.22163646 0.09934599 -0.18467599 -0.053491764 0.14211573 -0.113484934

lstm.bias_ih_l0 f4 [256]
00000000: fe52 19be c976 37be cfe5 fe3c df85 92bc
00000010: f64b 6e3c 90d1 afbd d8a8 18bd 0055 8e3c
00000020: 6f9d 2bbd 11c4 863d f03b 1dbe e5e2 0abd
00000030: e90d 98bd 723f 183d f267 2abe 5107 d13d
00000040: 7afc e6bd 27aa a83d 5796 3fbd f0d5 803c
00000050: b74c c23d 98f8 f639 98f1 90bc 1fef e13c
00000060: fc91 a63d e25d d33d 4eac 1ebd 1a27 0dbe
00000070: 369f a73d 5e8b 28be 12fa 06bc a4df 7f3d
00000080: 4319 d63c 6b9d 2abe 84a3 993d c63c 14bd
00000090: 8e07 aabc 74af 71bd b20d 3fbb 94a1 3d3d
000000a0: c4f7 a5bd 27b4 e6bd 5545 053e 6c9e 11bd
000000b0: dbe1 053d c47a 993d c506 90bd 016a 0dbe
000000c0: c780 c6bc 6511 e13d 125a 343c 667a b6bd
000000d0: e26e 9a3c 2179 8cbd bc3f 203d c128 cfbd
000000e0: a20e 733c df25 15bc 6646 08be e360 123c
000000f0: 34b4 45bd 1cbe 27be 3bbb 103d ab69 4abe
00000100: 69cc c23c 6395 1fbe 6282 27be 5fe1 e5bd
00000110: ddb4 1dbc bb69 c43d 7bcf 09be 35b7 27be
00000120: 681a 23be 2288 12be fa63 ecbd 03bc e2bd
00000130: cde0 823d 91a0 f4bc 120a 2fbe 2a2f 10be
00000140: fb29 62bc 514c 1fbd 2b7c 3bbd 25d8 e33d
00000150: b91b 4abc eebc efbd db64 1fbe df27 fa3d
00000160: a91b 433d 6967 38be 7852 0e3e b94f 2fbd
00000170: e8d3 8f3d 2a92 40bd 6242 073d 4406 053d
00000180: 8d0d 0bbd 379d 1a3e 9b38 a93c 3574 2f3d
00000190: a6bb c0bd e888 20be 0184 c5bc 017b 033e
000001a0: 6f77 c33d 9e1d c9bd e8d1 13bb 9ed5 783d
000001b0: 7064 963d 1e1e ecbd adda eabd c55e a8bd
000001c0: 86d7 e7bd 307b 91bd d62c 1b3b aaf7 9dbd
000001d0: 9aa9 e13b 2ccc 0d3d 9eca 283e f354 383d
000001e0: d4a4 b3bd cb3c 02bd a454 47bd dbb7 99bd
000001f0: c816 0cbe c7d3 253d 0b11 b7bd ef21 48be
00000200: c9b3 f2bd 86af d4bc 229b 11bd baa6 71bc
00000210: 73ab 28bc 267a c0bd 970a f0bd e9fd 71bd
00000220: 1de4 cdbd 8c47 89bd 4da6 99bd 4efc a5bd
00000230: 21fc 85bd 3cf8 283e 4830 a5bc ef6d b7bc
00000240: 5fe3 bebd d263 b73b 616c 853d 6963 1cbe
00000250: 640a 723d 8af1 003d b80d 073c beb4 5f3d
00000260: 48aa dcbd 5ba2 1c3e 4f13 413e 71f0 b3bd
00000270: d218 be3c 1100 c2bd de67 8c3c bfd0 fcbc
00000280: 7b3e 35bd ae7d f43d 6dd9 c7bd ad2a b1bc
00000290: 8af8 bfbc c06f b93d 84ce 663d 5581 e6ba
000002a0: 3e4f 7c3d 1f5f 3dbe 4c69 48be da61 7f3d
000002b0: 1ea2 923d 0948 1f3d 829d bb3d 1b57 3bbd
000002c0: 244b abbd 53db 1fbe 4371 7fbd b8be ae3d
000002d0: a3a1 c1bd c6db ec3d ee9b efbd 6fb3 563e
000002e0: 1a68 bebd 3af9 983d c7ef aabd 4b64 08bc
000002f0: 0cd6 5abc c230 ba3d 941b c1bc cac1 473c
00000300: c72e dcbd df70 33bd 3355 903c 0c05 313b
00000310: bc60 7dbd 5ba1 643c 078f 22be 198b 353c
00000320: f994 493d d833 76bd 208d 7dbe 324b 08bc
00000330: 524a 4f3d 6319 3cbe 1841 38be 1f50 01be
00000340: 701b 0ebe 2cfa 0a3d 055f c2bd d897 83be
00000350: 6589 1bbd 35e7 b73c c111 903d 0550 923d
00000360: 5315 cf3d a7e1 133a efaf 01be 9363 25bc
00000370: 4d96 a03d 7d35 a5bd fe85 2cbe e683 e03d
00000380: 6fb3 f6bb f28b 9f3c 327c f33d a8e6 183d
00000390: f392 ad3c 0242 86bc 59f2 56be 7a17 f4bd
000003a0: 8e6c 32bd 092f 543d 82bd 65bc 122e 723d
000003b0: 2114 82bd d11e 2e3d 6161 3fbd bb41 cdb9
000003c0: 055d 063e 26b2 debd ad6b 2ebe 63c5 75bc
000003d0: b69c ebbd b857 17bd 43e2 1f3d 66cb 793c
000003e0: aea3 763c df4b 30be 4961 29be d94b f13c
000003f0: d0f1 6ebd 30f2 59bd ccaf a53d b04f e3bd
-0.14973065 -0.17916407 0.03111544 -0.0178861 0.014544478 -0.08584893 -0.037270397 0.017374516
-0.041898187 0.065803654 -0.15354896 -0.03390779 -0.07424528 0.03716988 -0.16641214 0.102064736
-0.11278625 0.08235579 -0.046774235 0.015727013 0.094872884 0.00047105993 -0.017693326 0.027579842
0.08133313 0.10320641 -0.03873854 -0.13784447 0.08184664 -0.16459414 -0.008238332 0.06246914
0.026135093 -0.16661613 0.07501891 -0.03619077 -0.020755555 -0.059005216 -0.002915245 0.04629667
-0.08103898 -0.1126483 0.1301473 -0.035551473 0.032686096 0.07494119 -0.07032541 -0.13809969
-0.024231328 0.10989646 0.011007803 -0.089100644 0.018851701 -0.06859041 0.03912328 -0.10115195
0.014835032 -0.009103267 -0.13308105 0.008934232 -0.04826756 -0.16381115 0.035334807 -0.19766872
0.023779111 -0.1558433 -0.16358331 -0.11224627 -0.009625641 0.09590479 -0.13458054 -0.16378482
-0.15928042 -0.14309743 -0.115425065 -0.11071017 0.063905336 -0.02986172 -0.17093685 -0.14080492
-0.013803954 -0.03889114 -0.045772713 0.11125211 -0.012335711 -0.11705957 -0.15565817 0.12214636
0.0476338 -0.18008198 0.13898647 -0.04280064 0.0702284 -0.047014393 0.033022292 0.03247668
-0.03394847 0.15099035 0.020656874 0.042835433 -0.09410791 -0.15677226 -0.024110796 0.12839891
0.095442645 -0.09820102 -0.0022555534 0.060750596 0.07343376 -0.11529182 -0.1146749 -0.08221201
-0.11320405 -0.07103574 0.0023677847 -0.07713254 0.006886673 0.03461854 0.16483542 0.04500289
-0.08771673 -0.031796258 -0.048664704 -0.07505771 -0.13680565 0.04048517 -0.089387976 -0.19544195
-0.118506975 -0.025962602 -0.035548337 -0.014749223 -0.010294783 -0.09398298 -0.1172077 -0.05908004
-0.10053275 -0.067030996 -0.075024225 -0.08104764 -0.065422304 0.16500944 -0.020164624 -0.022391288
-0.09320711 0.0055966163 0.06514812 -0.15272297 0.05909194 0.03148035 0.008243017 0.05461573
-0.10774666 0.15296309 0.18855022 -0.08786095 0.023205195 -0.09472669 0.017139371 -0.030861257
-0.04424904 0.11938034 -0.097582676 -0.021626795 -0.023433942 0.09054518 0.056349292 -0.0017586151
0.06159901 -0.18493317 -0.19571418 0.062349178 0.07159828 0.038887057 0.091609016 -0.045737367
-0.08363941 -0.1561101 -0.062363874 0.085324705 -0.09454658 0.11565356 -0.11699663 0.20966886
-0.092971995 0.07469411 -0.08346515 -0.008324693 -0.013356697 0.09091331 -0.02357272 0.012192199
-0.107511096 -0.043808814 0.017618751 0.0027011065 -0.06185983 0.013954486 -0.15874873 0.011080527
0.049214337 -0.060108036 -0.24760866 -0.008318709 0.050607987 -0.1836906 -0.17993581 -0.1262822
-0.13877654 0.03392999 -0.0949078 -0.25701785 -0.037972827 0.022449115 0.07034636 0.07144169
0.10111489 0.000564123 -0.1266477 -0.010094541 0.078411676 -0.08066843 -0.16847989 0.10962658
-0.0075287144 0.01947591 0.11888923 0.037329346 0.021188235 -0.016388897 -0.20990886 -0.1191854
-0.043560557 0.05180267 -0.014022233 0.059125967 -0.063514955 0.042509858 -0.046723727 -0.0003914962
0.13121422 -0.10873823 -0.17033263 -0.015000674 -0.115044996 -0.03694889 0.03903414 0.015246248
0.015053673 -0.17216443 -0.16541018 0.029455112 -0.05833608 -0.053209484 0.08090171 -0.110991836

lstm.bias_hh_l0 f4 [256]
00000000: 5a87 f2bd bcc1 d6bd b663 0b3e d3e0 f5bd
00000010: 3d75 1ebe dc79 17be e944 df3d 43ea 0ebe
00000020: a508 8e3d 4d87 723d 5fe4 b5bd cf91 8abd
00000030: e773 dd3d f5a1 9abc 2afd 10be 1ec3 ed3d
00000040: d49f 57bd 24b6 c2bc fd1b 673d 826a 0dbc
00000050: 9b63 18bd b0ce d2bd 4c50 eebd 4162 09bd
00000060: f948 b8bd c5b4 16bd a60d bfbd f4a6 6c3d
00000070: 45bc 763c 6d64 04bc 43b0 49bd 63f5 7dbd
00000080: f2df c83d dea9 46bd 7071 ea3d 9e71 653d
00000090: fa6c 043d 4f81 ad3d 2ed5 f03c 71ef 39bb
000000a0: efeb 81bd 1ae1 24be 4237 d33d ef63 773b
000000b0: 9870 053c 8138 ca3d 1a93 d6bd 6bc2 753d
000000c0: a714 0e3e cad7 5b3d 9b0c 15be 65d4 8abc
000000d0: 6ab8 c1bd 1409 c8bb ac9a 223d b5b7 ec3d
000000e0: 7d17 2a3d 3f25 db3c a156 77bc aea0 0d3d
000000f0: a69b ce3c 9018 cebd 246f 1bbe 498a 8fba
00000100: a32d d93c 464c 583d 48e8 d6bc 5c28 103b
00000110: c86e 3f3d 1ac5 343e d8e6 39be abe2 dfbd
00000120: 2332 f83c 17c5 f0bd b0b4 acbd 1fe3 81bc
00000130: 7f97 b43d a623 763d 77b7 f33c bea1 80bd
00000140: e954 94bd bdd1 ac3c dbe8 04bd 06f8 c13d
00000150: 2b85 f33c 5347 14be 96a4 e1bd a212 453d
00000160: 239e 703d 79c8 8ebc ce80 babd 8844 e6bd
00000170: b4e4 053e 00e4 14bd ebed 983c addc afbc
00000180: 0fb7 0d3e acd5 92bd 80cd dabd ddb6 97bd
00000190: 1650 b7bd 7d6c 6bbd 95d0 54bb a09c 2e3d
000001a0: 1a83 763d 3e4d 30be 6ab3 e7bd c38e 2dbe
000001b0: f848 97bd f0ae b63c dd2f 08bd bfae a43d
000001c0: 3ee7 febd dc69 2d3d 330c afbd c4a1 543d
000001d0: f7eb 3fbc db4a b5bd af2f 37bc a608 cabd
000001e0: d208 103b 0932 c0bd ad3f d33d 57bf b7bd
000001f0: 4cda 2dbd 89e4 5bbd 332a f5b9 a481 81ba
00000200: d9ce fdbd 099f ce3d 6632 44bc 1609 e7bc
00000210: 103e 473d e2f4 b7bd ee6b df3c 9ea6 403d
00000220: 39bc 423d 6db2 15be 6a13 a63d 6084 803d
00000230: 1191 c4bd d876 243e 64ae 193e f894 973d
00000240: 1a36 143d e153 b9bd b8ee bcbd d9b3 22be
00000250: 32e0 efbd 136a 81bd c8ac dfbb bea0 db3c
00000260: d8e1 993a cd13 113d 077d 283e 6f30 9a3d
00000270: 89a0 8f3c f691 a4bd a367 9abd ea58 83bd
00000280: 158f adbd a669 e83d 4d31 5b3d a831 7bbd
00000290: e19a 9e3d f01a 573d 9c46 84bd b4f1 fa3c
000002a0: 655a 3c3e 74fd 39bd 8d77 3fbd 7ed6 bdbc
000002b0: 8723 0d3d 3414 1ebe 5c2a 6ebc 1727 ab3d
000002c0: fb51 f2bc 60e5 bb3c 3226 e2bd fcea 58bd
000002d0: 0564 1bbe 815c 763d 7378 223d 8eba 043d
000002e0: 227e 18be 0523 76bd 560c 04bd 20b2 1c3d
000002f0: 585f 0a3a 8782 423e 1662 debb a9ab e13c
00000300: f931 e23d a1a0 93bd 21d8 02be 072d 00be
00000310: 35be b33d 8d14 643e ff44 99bd 6aeb 84bd
00000320: 039b 71bd 78c7 d53c b2ee 49be 55ef 05be
00000330: d472 b3bc 8ce7 c1bd c4a1 dbbc fb36 a6bd
00000340: 1739 2d3d c96e 31bb 6947 e7bd 088f b9bc
00000350: 2269 e2bd e9b4 e83d 01c5 32bb 17d2 bebd
00000360: 4b72 ef3d 9ae8 8cbc c65f 2c3d 5b74 433c
00000370: 8a48 c23c 6918 31be 8963 71bb bc62 023b
00000380: 3818 c8bd e2aa e7bd 3f5c a03d db63 f63d
00000390: 77a6 59be 7727 23be 115e 55be 3b96 b9bd
000003a0: d778 e83c 703c cebd 6f28 c1bc 23b9 c6bc
000003b0: 8f91 5abd 086b 893c 4845 39be 5dc2 183d
000003c0: 133c 4e3b c3ce 05be 3018 fdbd 3c59 363c
000003d0: 6760 01bd d75b 1dbe 9f1c ca3c bbba 32bd
000003e0: 6e88 d43c 0045 91bd 3899 11be 7b96 99bd
000003f0: bbb3 953c 2ec8 393c ba27 5bbd 043f d1bd
-0.118422225 -0.10486171 0.13612255 -0.120057724 -0.1547441 -0.1479258 0.109018154 -0.13956551
0.069352426 0.059211064 -0.08881449 -0.06766092 0.10813122 -0.018876055 -0.14159074 0.11609481
-0.05264266 -0.023768492 0.056423176 -0.0086313505 -0.037204366 -0.10293329 -0.11636409 -0.033540968
-0.089982934 -0.03679349 -0.09328775 0.057776406 0.015059535 -0.008080584 -0.049240362 -0.062001597
0.09808339 -0.04850184 0.11447418 0.056016557 0.03233049 0.08471929 0.029398527 -0.0028371478
-0.06343829 -0.16101494 0.10313274 0.0037748774 0.00814452 0.098740585 -0.10477276 0.059999865
0.13875066 0.05367259 -0.1455559 -0.01694698 -0.09459002 -0.006104598 0.039698288 0.11558477
0.041526306 0.026751159 -0.015096338 0.034577064 0.025220703 -0.10063279 -0.15179116 -0.0010951246
0.02651102 0.052807115 -0.026233807 0.0021996712 0.04673651 0.17653313 -0.18154466 -0.10931905
0.030297345 -0.11756342 -0.08432901 -0.01585537 0.08817958 0.06009259 0.029750569 -0.0628085
-0.07242758 0.021096105 -0.03244863 0.09471135 0.029726585 -0.14480333 -0.110177204 0.048113473
0.05874456 -0.017429577 -0.09106599 -0.1124354 0.13075525 -0.03635025 0.018668136 -0.021467531
0.13839363 -0.07169661 -0.10683727 -0.07407925 -0.08950822 -0.05747651 -0.0032472957 0.042629838
0.060183622 -0.17216966 -0.113135174 -0.1694899 -0.073869646 0.022300214 -0.03324877 0.08041143
-0.1244645 0.042337283 -0.08547249 0.051912084 -0.011713973 -0.08852168 -0.011180802 -0.09864931
0.0021977914 -0.093845434 0.103148796 -0.08972042 -0.042444512 -0.053684745 -0.00046761482 -0.0009880555
-0.12392969 0.10088927 -0.011974907 -0.028202575 0.04864317 -0.089822546 0.027273145 0.0470339
0.047542784 -0.14618845 0.08109172 0.062752485 -0.09597982 0.1606096 0.15007931 0.074014604
0.036184408 -0.09049202 -0.092252195 -0.15888919 -0.11712684 -0.0631906 -0.006826017 0.026810046
0.001174028 0.035419274 0.16453944 0.07528769 0.017532604 -0.08035652 -0.075392984 -0.064134434
-0.08474556 0.11348276 0.053513814 -0.061326653 0.077443846 0.052515924 -0.0645878 0.030632831
0.18393858 -0.045407727 -0.046744872 -0.023173567 0.03445771 -0.15437394 -0.014536466 0.08357065
-0.029580107 0.022936523 -0.110424414 -0.052958474 -0.15174873 0.060146812 0.03966565 0.032404475
-0.14891866 -0.06009199 -0.032238327 0.03825581 0.00052784896 0.18995105 -0.006786595 0.027547674
0.11044688 -0.07208372 -0.12777759 -0.12517177 0.087765135 0.22273465 -0.07483863 -0.06490214
-0.05898572 0.02609609 -0.19719961 -0.13079579 -0.02190534 -0.09467992 -0.026810534 -0.081159554
0.042290773 -0.002707409 -0.11292917 -0.02265121 -0.11055209 0.11362631 -0.0027278068 -0.09317415
0.116917215 -0.017200757 0.042083524 0.011929597 0.02371623 -0.17294468 -0.003683301 0.0019895276
-0.09770244 -0.1131189 0.078300945 0.12030765 -0.21254908 -0.15933023 -0.20836665 -0.09061857
0.028377933 -0.10070121 -0.02357885 -0.024258202 -0.05336147 0.01677467 -0.18092835 0.037294734
0.0031468912 -0.13067155 -0.12358129 0.011129674 -0.031586077 -0.15367065 0.02467185 -0.04363511
0.025943961 -0.07093239 -0.14218605 -0.07499405 0.018274179 0.01133923 -0.053504683 -0.102170974

lstm.weight_ih_l1 f4 [256, 64]
00000000: ae5e d0bd 0a26 843c 50d5 113c bf1b dc3d
00000010: b268 40be 8f01 4bbc b0c1 1a3e 7c4f b03d
00000020: 959c d7bd 9e8f a0bc b22d 4fbc ecb1 733d
00000030: d4f9 45bc 60ec c33c 6cc3 d63d 038f 9ebc
00000040: 9591 8d3b fc0b 31bd 7d9b afbc 5dd9 353b
00000050: 05de 97be da13 fabd 4813 05bd d6d0 4ebe
00000060: 67d8 313d 0379 e73d a41f 6a3c 58ed e2bc
00000070: 6b14 dabd 4eeb 9fbb da2b 073d ea0b 683e
00000080: 31d1 c2bd d4a5 97bd 67ce 56be b914 c7bc
00000090: ed63 9fbd 9c01 d13d 1d07 473e 55fc c43d
000000a0: 0b17 a53c 2dfc 1abd 2bc4 10be 8047 8c3c
000000b0: e2ea 36be 61fd 1f3d e826 fc3b a6a5 1a3e
000000c0: 6b7b b13d 0378 403e e63d f83c 77e6 183e
000000d0: 9f6b d9bd ce25 8b3c fe01 46be e8e7 13be
000000e0: dd84 c13d 5045 d6bd 03ff 84bd 7ab9 02be
000000f0: 5ec7 1cbe f005 26be dd2e 70bc 8da2 2fbe
00000100: 4403 edbd 0cb2 e73d 3cf4 2bbe 131f 193c
00000110: 382f 4dbd 937c d23d dfcf 073e 62b9 253d
00000120: 7e46 a4bc 91ba c0bd 2c6a 28bc 09d5 fabd
00000130: f31e 483e a45a 91bd 89be 34bb 75fa 86bd
00000140: 98c3 c7bb 4364 44bd c401 99bd c0d3 ebbb
00000150: 9ead a23d 0077 e3bb 3a1b babd aee9 ffbd
00000160: 7038 5b3e 9cd0 993d 5aaa 1c3d a6ff 3cbe
00000170: 4a94 b9bd c0c6 43be 654f dd3d 5848 3e3e
00000180: f9ee e0bd 64ac b73d bfdd ebbd c17d 29bd
00000190: c9e3 273e 757d f4bc d370 b53c a62e eebc
000001a0: f4b4 81bc 5e71 d9bd 5fb2 8a3d 0267 9e3d
000001b0: 23f3 45bd 014d 363e fefa 35be 7ae0 083e
000001c0: 557c 063d 9a89 2b3e a2eb c5bd fdf8 883d
000001d0: 8d79 0fbe 9258 893d a3a0 e3bd 1082 0dbd
000001e0: 8dd4 86bd d8a8 3f3d 94c6 85bc d42b c5bd
000001f0: 2bf4 7ebd 2380 a8bd 238f 11bc 6ba0 70bd
00000200: 2678 8dbb ea8f 0e3d 1cf2 23be 4956 d23d
00000210: af72 14bd 34a2 9e3d 20cd 83bd e4e0 33bd
00000220: 35bf 19be eb0a 973b c773 f5bd c287 1fbe
00000230: 7563 a6bd b3af b73c 64f7 a23c f22d 3c3d
00000240: 093d 30bd 38bc 883d 6fc9 68bd 4cdf 82bd
00000250: 9664 4a3d d47f 1d3e c6c3 0e3e d432 e1bd
00000260: 6a8a 4cbd 3993 0f3e 5444 d8bc b349 703d
00000270: 046d 983a 1a76 fe3d f834 1bbd db82 653d
00000280: e311 0abd 86f2 2ebd f176 18be 2214 3dbe
00000290: 2902 da3d 7d59 013e 5f50 883d 4649 b13b
000002a0: cf44 1cbe d353 c73d d9a9 64bb 7c79 43bd
000002b0: 4e4d 85bd f41e 0f3e ced4 8a3b 7393 e03d
000002c0: da40 45bd 0575 2a3e 4789 c8bd dc55 d43d
000002d0: 6be1 99bd 5892 d93c 9753 483d 4bc9 17be
000002e0: 59ba 1bbd 8b20 eb3d 094f 7a3c 4998 2dbe
000002f0: b8f7 3ebd 372b 27be 76bd 5cbd 1e51 02be
00000300: 1801 063d fa9b 323d 8154 26be 92b5 a63b
00000310: a491 6cbd 2cf0 753c 15d2 223d 73ff 2bbd
00000320: 6c7c 91bd 7608 f5bd 1041 293b e164 70bc
00000330: 14cb f43d b1c8 14be a1c5 213e 6b07 39be
00000340: ab65 25bd b349 b23c a78c 7abb ea21 16be
00000350: a446 28be c7dd 9b3d ae45 153e 0f61 8e3d
00000360: 1798 f53c 3e96 443d b484 a03d 50c2 3e3b
00000370: 153e d53c 366e 09be a404 e1bd addd 293e
00000380: 6652 1a3e 4975 bb3d c182 11be d587 91be
00000390: 062d 333e 3061 cc3d 4a28 203e c4db 88bc
000003a0: e768 f23c a28c 85bc 4dec 93bd 653c ec3b
000003b0: f49a 2fbe b63f 863c 1059 4f3b dcaa a33d
000003c0: 50ca ee3c 6b8e de3d 028e 5c3d 17f2 843d
000003d0: d736 6f3c ccb1 343e beb1 c4bd 867e 02be
000003e0: d118 d2bc 37aa 2b3d 90b8 2cbe 2905 23be
000003f0: ec06 95bd 355c 8a3d a50c 433d 32a0 9cbd
-0.10174309 0.01613142 0.008900955 0.1074748 -0.18789938 -0.012390508 0.15112948 0.086089104
-0.105279125 -0.019599732 -0.012645172 0.05949585 -0.012083489 0.023916423 0.104864925 -0.019355303
0.0043203332 -0.04322432 -0.021436447 0.0027747967 -0.29661575 -0.12210818 -0.03248909 -0.20196852
0.043419268 0.11302378 0.01428977 -0.027701065 -0.10648426 -0.0048803454 0.033000804 0.22660795
-0.09512556 -0.07404676 -0.20977174 -0.024301874 -0.07782731 0.10205385 0.19436307 0.09618441
0.02015259 -0.03783815 -0.14137332 0.017123938 -0.17863038 0.03906 0.0076950677 0.15102252
0.08666118 0.18795781 0.030302953 0.14931665 -0.1061623 0.0169858 -0.19336697 -0.14443934
0.0944917 -0.10462439 -0.06493952 -0.12766066 -0.15310428 -0.16213202 -0.014659611 -0.17151852
-0.115728885 0.113132566 -0.16792387 0.009345788 -0.05009386 0.10277667 0.1326289 0.040459998
-0.020053145 -0.09410585 -0.01027922 -0.122476645 0.19543056 -0.070973665 -0.0027579388 -0.0659074
-0.0060963146 -0.04794718 -0.0747104 -0.0071968734 0.07943271 -0.006941676 -0.09087224 -0.12495743
0.21408248 0.07510492 0.038248397 -0.18456897 -0.09061487 -0.19118786 0.10806159 0.18582284
-0.109830804 0.08968428 -0.11516904 -0.041379694 0.16395487 -0.029844979 0.022148525 -0.029074978
-0.015833355 -0.10617326 0.06772303 0.07734491 -0.048327576 0.17802812 -0.17771527 0.13366881
0.032833416 0.1675171 -0.09664084 0.06688116 -0.14011212 0.067063466 -0.111146234 -0.034547865
-0.065835096 0.04679188 -0.016330041 -0.096275 -0.062244575 -0.08227565 -0.008884224 -0.058746736
-0.0043173013 0.034805216 -0.16010326 0.10270364 -0.036242183 0.077457815 -0.06435609 -0.043915644
-0.15014346 0.004609456 -0.119849734 -0.15579131 -0.08124439 0.022422647 0.019893356 0.045942254
-0.043026958 0.06676525 -0.056832727 -0.06390247 0.049412332 0.15380794 0.13941869 -0.10996023
-0.04993669 0.14021005 -0.026399769 0.058664035 0.0011629169 0.1242487 -0.03789231 0.056032997
-0.033708464 -0.042711757 -0.14889123 -0.18464711 0.10644943 0.12631793 0.066559546 0.005410346
-0.15260623 0.09732785 -0.0034891276 -0.04772328 -0.06508885 0.13976651 0.004236794 0.10965624
-0.04815755 0.16646202 -0.097918086 0.10367939 -0.07513698 0.02655904 0.048907842 -0.14822881
-0.03801951 0.114808165 0.0152776325 -0.16952623 -0.04662296 -0.16325079 -0.05389162 -0.12726256
0.032715887 0.043605782 -0.16243173 0.005087563 -0.05775608 0.015010875 0.03975113 -0.041991662
-0.0710381 -0.119645044 0.0025826134 -0.014672489 0.119527966 -0.14529683 0.15798046 -0.18069236
-0.04038016 0.021763658 -0.0038230808 -0.14661375 -0.16433197 0.0761066 0.14577362 0.06952106
0.029979749 0.047994845 0.07837811 0.0029107518 0.02603058 -0.13420948 -0.10987213 0.16588469
0.15070495 0.0915323 -0.14210035 -0.28423944 0.17497644 0.099794745 0.15640369 -0.016706355
0.029591037 -0.01630241 -0.07222805 0.007209348 -0.17148954 0.016387802 0.0031638779 0.07991573
0.029149204 0.10867008 0.053846367 0.064914875 0.014600477 0.17645949 -0.09604214 -0.12743577
-0.025646599 0.041910376 -0.1686728 -0.15919937 -0.07276711 0.06755868 0.04761948 -0.07647742

lstm.weight_hh_l1 f4 [256, 64]
00000000: 7260 653d da3a 5f3d 59f9 013e 442f 0cbe
00000010: 090a 633d c37c 403c 1828 ff3d f89c e8bd
00000020: d7f7 c73d db0b 933c 6f8f f2bc 2610 143e
00000030: b78f b4bd 1e59 ac3d 5ad9 423e 7abd 25bd
00000040: ad9d 263e 10de 093e 62fc fe3d 3b5d 7ebd
00000050: f259 a43d b945 333e ee43 11bd 310b dfbc
00000060: 5ea4 3ebd c2f5 45be ae9f f13d 3f09 fd3d
00000070: 2c36 153c 6323 13bd 0f23 2d3c 183f 823d
00000080: 454b de3d 1660 2abd 520b c8bd 322e 46be
00000090: 81c5 363e f09e e93d 6462 65bd 9d21 a33d
000000a0: 769e fa3a b50e cfbd 6a29 043d 3842 85bd
000000b0: 6995 803c c729 a3ba 715a 35bd c009 0bbd
000000c0: 87c6 3dbd 9f01 e63c 6a7c 403e fb76 363d
000000d0: f5ff 5c3d 6542 273c 16a4 27be 9f42 663d
000000e0: e853 9b3c 331a b63b 6888 d7bc d68b 4cbd
000000f0: 2147 a73d 81b2 653d 41cf 643d 9fe1 2e3c
00000100: 2705 dd3d f190 c1bc 17b7 85bd 5a72 2ebe
00000110: 825a 873d bdb4 823d 2797 ccbc 1f84 14be
00000120: 92df 89bd 83ae dfbd 1175 a9bc 6118 78be
00000130: 7907 503e 5658 c3bd 6895 5abd 9dbd 7dbd
00000140: 6b66 41bd f5be 10be e94d 9e3d 7eb7 bb3d
00000150: 1a0a fd3c 7abd 0cbd b12f 7abc 4173 58bd
00000160: 09a4 84bd 3da6 9cbc f79e 2ebc e109 2f3d
00000170: 9467 c0bd 53f7 693d bcfb c03b ca45 56bd
00000180: 641a 9ebd cc5f 4fbe 90fe 223d f5f9 223c
00000190: b959 e8bc 2b6c 673c 40bb a1bd d484 13bc
000001a0: 69e8 2c3c 2ed6 d0bd a27b c4bb d039 273d
000001b0: 0d87 883b 8820 50bd c5e8 5a3d d0dd 67be
000001c0: 0677 a43d 9b83 303e 4af8 16be d356 2abc
000001d0: 8e1f 5bbb 57fc 083e aafe 483c 4c17 153e
000001e0: 95f5 453d 76e5 2c3c ef5d 233e bea2 ab3d
000001f0: 07c7 753c 3983 c7bd 2cce 43bc b661 8ebc
00000200: 2fcd 51bd 47ab 7fbd e803 233d 1936 153e
00000210: e493 333d c94d 5b3e 4aa1 02bd 3f14 d2bd
00000220: cfde 173e e40d 1cbe 4575 303e 8251 e93d
00000230: be25 b63d df53 d4bd c976 1fbd 98a9 5b3e
00000240: 9a03 2a3e a528 df3d 3363 e1bc 23a5 1fbe
00000250: 9bd0 bcbd bdcd 113e a2a8 e53d 0e70 153c
00000260: 9a5d 16be 6e5b 1a3b 1d69 13be 82f6 41be
00000270: d989 35bd 1008 c0bd aa59 01be 1810 26be
00000280: b08f d53d 3292 04bd 12e7 d1bd 4cc2 a8bd
00000290: 4e10 cdbd e173 c43c 3075 733d 1c9f 00be
000002a0: 3c52 66bd 7a06 2b3c 2ea7 273e 74b7 973d
000002b0: 5dfd 423e dbc0 443c ab8a d7bc 529c 753c
000002c0: bf3e a13d caff 383d 287c cf3d b4a5 53be
000002d0: 1439 293e 569b 813d a951 653e ca79 db3d
000002e0: 0a5a cf3c f3e7 c8bd 8305 243e 3904 03be
000002f0: 4d8d f7bc 567e e6bd d7cd adbd 8ed2 15be
00000300: b497 04bd 652c b13d 285f 3abd 2a53 05be
00000310: 3f7e e2bd aafc d03d 3016 bf3d 4cf4 ebbc
00000320: b9f6 10ba e567 32be bc91 633d 306b 2cbd
00000330: 5e23 1dbe 46f3 1bbb a1e9 a53c 8cd9 093e
00000340: e610 22bd 3a07 933d 42df 433e 7a65 43be
00000350: e282 35bb c142 003e 1151 b13b c9ff e4bc
00000360: fdc7 a4bc a94d 3fbe b1ea 1b3e bcbe 5f3d
00000370: 62d7 863c 8f7c bebd 2b0d 22be d403 0bbc
00000380: 5131 42bc cfff 293e e053 afbc b98b 29bd
00000390: 4aab 373e 2c19 853d 81e7 66bd c97d e93c
000003a0: 5d81 c33b ba5f 203c abd6 febb d251 153a
000003b0: b235 88bd de69 18be a2b0 893d 5adb 063e
000003c0: e46c 533d 8860 5ebd 6982 bb3d fd62 0abe
000003d0: 074d 913d 27ab 8e3d 03ad de3c 9023 993b
000003e0: e680 9fbc da77 5e3d dd73 843d 5d55 39be
000003f0: 118a 51bc e36c f6bd 3400 2ebb 01cc 3dbd
0.05600018 0.054499485 0.12692775 -0.13689905 0.055429492 0.0117484955 0.12458819 -0.113580644
0.097640686 0.017949989 -0.02960941 0.14459285 -0.08816474 0.08415435 0.19028226 -0.040463902
0.16271086 0.13463616 0.12450482 -0.06210063 0.08024968 0.17507066 -0.035465173 -0.027227016
-0.04654347 -0.1933203 0.117980346 0.12355279 0.009107154 -0.03592242 0.010567441 0.063596904
0.108542 -0.04159554 -0.09767784 -0.1935356 0.1784878 0.11407268 -0.056002036 0.079653956
0.0019120711 -0.10110227 0.032266058 -0.06506771 0.015696244 -0.0012448364 -0.044275705 -0.033944845
-0.04633191 0.028076945 0.1879746 0.044547062 0.053955037 0.010208701 -0.16371188 0.05621588
0.018960908 0.0055573224 -0.02631016 -0.049938045 0.08167864 0.056078438 0.055861715 0.010673909
0.10791998 -0.023628684 -0.06529062 -0.17035809 0.0660906 0.06382129 -0.024974419 -0.14503525
-0.06732096 -0.10921957 -0.020685704 -0.2422805 0.2031535 -0.09538333 -0.05336514 -0.061948407
-0.047216814 -0.14135344 0.07729704 0.09165858 0.030888606 -0.034360386 -0.01527016 -0.05284429
-0.064766 -0.019122237 -0.010658017 0.04273403 -0.09394756 0.057120632 0.005889384 -0.05231265
-0.07719877 -0.20251387 0.03979355 0.00994729 -0.028363096 0.01412491 -0.07897043 -0.009003837
0.010553458 -0.101971015 -0.0059961835 0.04082662 0.00416649 -0.050812274 0.053444643 -0.22643209
0.080305144 0.17237704 -0.14743152 -0.010396677 -0.0033435556 0.1337751 0.012267748 0.14559668
0.04832991 0.010552755 0.15953802 0.0838065 0.015001065 -0.097418256 -0.011951011 -0.017380577
-0.05122107 -0.062419202 0.039798647 0.14571418 0.04384221 0.21416391 -0.0318921 -0.10257768
0.14831088 -0.15239674 0.17232235 0.113924995 0.088939175 -0.1036756 -0.03893164 0.21451414
0.16602936 0.10896424 -0.027513122 -0.15590338 -0.09219476 0.14238639 0.11213805 0.009120954
-0.14684144 0.0023553031 -0.14395566 -0.18941692 -0.044320915 -0.09376538 -0.1263186 -0.16217077
0.10427797 -0.032365985 -0.10249151 -0.08240184 -0.100128755 0.023981037 0.05943793 -0.12560695
-0.05623077 0.010438556 0.16372368 0.07408038 0.19041963 0.012008871 -0.02631124 0.014990883
0.07873296 0.045165814 0.10131103 -0.2066868 0.1652568 0.06328456 0.22394432 0.10716589
0.025311489 -0.09809866 0.16017728 -0.1279458 -0.030218745 -0.112545654 -0.084865265 -0.14631101
-0.032371238 0.08651046 -0.045500904 -0.13020006 -0.11059236 0.10204442 0.09330404 -0.028803013
-0.00055299286 -0.17422445 0.055558905 -0.04209441 -0.15345523 -0.0023796125 0.020253005 0.13461894
-0.039566897 0.07179113 0.19128135 -0.19081679 -0.002769642 0.12525465 0.005411275 -0.027954
-0.020114893 -0.18681969 0.15226246 0.054625258 0.016460124 -0.093011014 -0.15825336 -0.008484799
-0.011852578 0.1660149 -0.0214023 -0.041393016 0.17936435 0.06498942 -0.056373123 0.028502362
0.005966349 0.009788448 -0.0077770553 0.0005696091 -0.066508666 -0.14884135 0.06723143 0.13169613
0.051617518 -0.054291278 0.09155733 -0.13514324 0.0709477 0.069662385 0.027182108 0.004673429
-0.019470643 0.054313518 0.06467412 -0.1809897 -0.012789265 -0.12032487 -0.0026550414 -0.04633713

lstm.bias_ih_l1 f4 [256]
00000000: 1d51 15bd 3c2f 4a3c 50e7 6dbd 4bb7 14be
00000010: 6bd3 fdbb f0d7 21be 32a0 763d f795 40be
00000020: 5764 973d d94c 7a3d 68b3 a6bd 2f7e fcbd
00000030: 969d 213d 4e28 58be bee2 643c 0e89 193e
00000040: 4ad5 3c3c 2d47 9fbc e0b6 233c 814d 8abd
00000050: 3b91 a2bd e75b c3bd b9ba 9abd 5c43 bcbd
00000060: b876 d4bd 4748 09be 1717 fdbd 7865 9abc
00000070: d6dc a5bc 91c0 633d fe10 dabd 4347 3fbd
00000080: 7bb6 efbd 785b 22be 54f1 5c3c c85e ce3c
00000090: 92e9 a1bd 40ea 2dbe 062d d2bd d81a 923c
000000a0: 1855 133e a5da 123e 7c8f 03be e96c 93bc
000000b0: 882d d8b8 cbf4 0cbc 2b41 20be 0369 05be
000000c0: 57ae 823c a682 d83c a9d2 1cbd 7415 97bd
000000d0: 79ee 153e a882 9ebc 0c82 e2bb 036c 13be
000000e0: d62b d7bd b629 79bd f6fa 08be bc42 59bd
000000f0: 0949 963c a30e 3ebe 7a73 973c 3241 9c3d
00000100: 484c 3dbe b0e0 19be 71e7 07be 5b88 1dbc
00000110: f2ab d33a 2024 5f3d dc17 18bd 880b dbbc
00000120: 8ed3 bf3d e9f9 83bd 2a3c bf3d d8fb 2cbe
00000130: dca2 96bd a1e9 3fbe 7672 f0bd 6b8f c13d
00000140: c243 02be 3484 b4bd 4fc8 95bd a481 053d
00000150: 0e54 d9bd 6b47 26bd 1927 0ebe 5ed3 c5bc
00000160: 6e50 d83b 46e9 5fbd ba2e b3bd f1be 5cbd
00000170: dd7a 1bbe 6825 f5bd e365 83bd 970f 8a3d
00000180: 79b8 a43d aed9 b7bd 73df cfbc 600b 86bc
00000190: ba56 babd 9641 9f3d 1fdb 253d 776a 8abd
000001a0: 5443 013e 8765 49bd b988 983d 8356 cb3d
000001b0: 7b77 e2bd bd80 763c 99a2 3fbe 0905 f03c
000001c0: 3b18 9b3d 971e 2dbe 689c 9bbd 069d 0bbe
000001d0: 5f61 983d 0182 32be 060a 2dbe 8a26 19be
000001e0: 6443 043d bd30 08bd c933 fdbd b416 8a3c
000001f0: df92 e03b b0fd 2abe 0e7b 1f3d 1383 e1bd
00000200: 39e6 c83d a007 d73d 2f7e 4c3d 5826 39bd
00000210: 38dc 10be 2b9a 18be 19a2 5e3b 5bc1 adbd
00000220: 1a9b 28bd ca5f dfbd e728 03be cd63 243c
00000230: bcec ccbd 6999 283e 2705 e5bc 4292 83bd
00000240: 531c 31bd 1b3f 8d3d a58e c53d 4220 4f3a
00000250: 2e09 0abd 9dda 043e 80b7 da3c 2c04 30be
00000260: 78cc 0e3d 5f7d cebd 3486 883d 7e0c 11bd
00000270: 9e5d 0b3e e18b 3ebd beac 1fbe efcd 5a3d
00000280: 3abb a7bb b52f 7bbd c9ca 88bd 1dee 0a3d
00000290: fd91 113b 6e20 ae3d d2bc 1fbd 67ea ea3b
000002a0: 21fe 05be 4cf2 e6bc 2e7f 2e3d 2760 f6bd
000002b0: 03c9 62bd bb84 b5bc 49a4 43bd 8e80 5b3d
000002c0: 848b b3bc 5ac9 8abd b424 693c da1d ef3c
000002d0: 562b ef3b 72d1 9ebd 0577 c3bd ffe2 ccbd
000002e0: d565 413d 2a43 83bd 4310 043b 4350 b6bd
000002f0: dcc2 6fbd 7ea0 1d3d 239d 2dbc 7861 6d3d
00000300: e5dd b7bd c711 09bd 858c 2c3d 4b0d afbd
00000310: f744 96bd 16d9 e1bd 3073 51bc f96e c5bc
00000320: 7360 ad3d fa83 6dbc b689 023e 0f9a 17be
00000330: 269e f8bd ba2a c0bd c844 98bd 9bce babd
00000340: 92e8 05be 12af f4bd 973a 923d 4ae8 e5bd
00000350: 1de8 e7bd 2382 09be cbe5 81bd 500f 4e3d
00000360: 163e 1c3c 7743 ddbd 57d7 bcbd 927c 31bd
00000370: a438 54bb 3ff3 50bd b14d debb 70f1 1bbd
00000380: 8180 0abd 0192 2cbd 2a31 edbd 2b57 1abe
00000390: 92eb aebc 2a3a b2bd d662 a53c 5aea d3bc
000003a0: 700d bbbb bf87 073e 75ef a13d d2df 89bd
000003b0: b3dc 07be f84b a33d ad41 2dbd a0fa afbd
000003c0: ed15 e5bd 3074 f0bc 54bd 833c 98dc a0bc
000003d0: 75dd 863d 6cb1 f7bc 81a9 20bd e17c 56bd
000003e0: fce9 3b3c 4d97 1fbe c7d8 e6bd c6fb 3fba
000003f0: 7f19 eebd b5dd a6bd 6151 31bd fcb7 06be
-0.03645431 0.012340363 -0.058081925 -0.14523046 -0.0077461503 -0.1580503 0.060211368 -0.18807207
0.07392185 0.061108444 -0.08139688 -0.12328755 0.039456926 -0.21109125 0.013970075 0.14993688
0.011525461 -0.019443119 0.009992331 -0.06753064 -0.07937857 -0.09539013 -0.07555146 -0.09192535
-0.10374206 -0.13406478 -0.1235792 -0.018847212 -0.020246904 0.055603568 -0.10647772 -0.04669882
-0.11704727 -0.15855205 0.0134852715 0.02519168 -0.07905878 -0.1698389 -0.10262494 0.017835066
0.1438793 0.14341219 -0.12847704 -0.017996268 -0.000103081635 -0.008603285 -0.1564986 -0.1302834
0.015952272 0.026429486 -0.03828684 -0.07377139 0.14641751 -0.019349411 -0.0069124755 -0.14396672
-0.10506408 -0.060830794 -0.13376984 -0.05304216 0.018345373 -0.18560271 0.01848768 0.076296225
-0.1848613 -0.15027118 -0.13271882 -0.009615029 0.0016149266 0.05447781 -0.03713213 -0.026738897
0.09366523 -0.06444151 0.09337647 -0.16892946 -0.07355282 -0.18741466 -0.11740582 0.09451183
-0.1272116 -0.08814278 -0.073135965 0.032594338 -0.10611735 -0.040595453 -0.13882102 -0.02414864
0.006601385 -0.054665826 -0.08749147 -0.053893033 -0.15183587 -0.11970025 -0.06415918 0.06741255
0.08042998 -0.08977066 -0.025375104 -0.016362846 -0.09098573 0.077761814 0.040492173 -0.06758588
0.1262334 -0.04916909 0.07447953 0.0992861 -0.11057945 0.015045342 -0.1871437 0.029299276
0.07572981 -0.169062 -0.075981915 -0.13634118 0.07440447 -0.17432405 -0.16898355 -0.14956108
0.03229083 -0.033249605 -0.12363393 0.016856529 0.006853446 -0.16698337 0.038935713 -0.110113285
0.098095365 0.10499501 0.049925026 -0.045202583 -0.14146507 -0.1490256 0.003397113 -0.08484145
-0.04116354 -0.10906942 -0.12808572 0.01003356 -0.10006091 0.16464771 -0.027956558 -0.06424381
-0.043239903 0.06896802 0.09646348 0.000790123 -0.03370016 0.1297402 0.026698828 -0.17189091
0.034862965 -0.100825064 0.06666222 -0.035412304 0.13609931 -0.046520118 -0.1559324 0.05341905
-0.0051187547 -0.061324794 -0.06679303 0.03391849 0.002221226 0.08502279 -0.038998432 0.007169056
-0.13085224 -0.028191708 0.042601757 -0.12030058 -0.05536748 -0.022158017 -0.047764096 0.053589396
-0.021917112 -0.06776686 0.014229942 0.029189039 0.007298867 -0.07754792 -0.095441855 -0.100042336
0.047216255 -0.06409295 0.0020151294 -0.089020275 -0.05853544 0.038483135 -0.010596546 0.05795428
-0.0897787 -0.03346422 0.042126197 -0.08547457 -0.07337373 -0.11027734 -0.0127838105 -0.024100767
0.08465662 -0.014496798 0.12747845 -0.14804862 -0.121395394 -0.093831494 -0.07434994 -0.09121438
-0.13077 -0.119474545 0.071400814 -0.11225946 -0.11323569 -0.1342855 -0.06342658 0.050307572
0.009536287 -0.108038835 -0.0922076 -0.04333169 -0.0032382393 -0.051013228 -0.006784164 -0.03807205
-0.033813957 -0.042131428 -0.11581643 -0.15072314 -0.021352563 -0.087025 0.02018873 -0.025868583
-0.005708389 0.13235377 0.07907001 -0.067321435 -0.13267784 0.07973474 -0.04229896 -0.08592725
-0.11185823 -0.029352278 0.01608149 -0.019636437 0.06585208 -0.030235969 -0.03922415 -0.052365188
0.01146936 -0.1558506 -0.11271816 -0.0007323589 -0.11625957 -0.08147756 -0.0432905 -0.13156122
