Competition/TrainAI/model/c70/model_weights_1.pth (torch, 239847 bytes, 10 tensors)

lstm.weight_ih_l0 f4 [256, 34]
0	0xbdc401c6	-0.09570651
1	0xbd6bde27	-0.057584908
2	0xbd912e6c	-0.070889324
3	0xbd338c33	-0.043834876
4	0xbd8f151a	-0.06986447
5	0xbdc4cb7c	-0.09609124
6	0x3ce1ad27	0.027548386
7	0xbb9adf40	-0.0047263205
8	0xbdbf4137	-0.093386106
9	0xbc78f778	-0.01519572
10	0xbbf0ef63	-0.007352756
11	0x3d007828	0.03136459
12	0xbe2aaad3	-0.16666727
13	0xbdb2b244	-0.08725408
14	0x3d3a74e4	0.04552163
15	0x3d13ab82	0.036052234
16	0x3b880c2f	0.004151843
17	0x3dae09bb	0.0849795
18	0xbe107990	-0.14108872
19	0xbc4b6ec3	-0.012416544
20	0x3de9dd98	0.11419219
21	0xbe29dd71	-0.1658838
22	0x3e37b65d	0.1794066
23	0x3d11cddd	0.035596717
24	0xbd00a6ac	-0.03140895
25	0xbdc4bbfa	-0.09606166
26	0xbddc491c	-0.10756132
27	0x3e0851c6	0.13312444
28	0xbdbe2cb9	-0.09285874
29	0x3e06bd63	0.13158183
30	0xbdbc11c8	-0.09183079
31	0xbd315516	-0.043294035
32	0x3d84a7b2	0.06477298
33	0x3db0ab84	0.08626464
34	0x3dcc2a90	0.09969056
35	0xbdad3f8d	-0.08459387
36	0x3dd3c840	0.10340929
37	0xbdfc89fe	-0.123310074
38	0xbe29b73e	-0.16573808
39	0xbe487cdc	-0.1957888
40	0x3d8207a2	0.06349112
41	0xbe53e9b8	-0.20694625
42	0xbdd27186	-0.10275559
43	0xbd7b926a	-0.06141893
44	0xbe0d547b	-0.13801758
45	0xbdd675cc	-0.10471687
46	0xbe1dd805	-0.15414436
47	0xbe2bf3ef	-0.16792272
48	0xbdc6e19c	-0.09711
49	0xbe7528b1	-0.23941304
50	0xbcdb8ca0	-0.026800454
51	0xbde0a337	-0.10968631
52	0x3c3ff717	0.011716626
53	0xbc5781fe	-0.013153551
54	0xbdd283ab	-0.1027902
55	0xbe157696	-0.14596018
56	0x3dabb50e	0.08384143
57	0x3d890c53	0.06691804
58	0xbd194a14	-0.037424162
59	0x3d836650	0.06415999
60	0xbe1dbcae	-0.15404007
61	0xbe69323a	-0.22773066
62	0xbd4534e6	-0.04814615
63	0xbe3fbb56	-0.18723807
64	0x3b1d5676	0.0024007834
65	0xbce26034	-0.027633764
66	0x3d8fda8c	0.070241064
67	0xbc334e23	-0.010943922
68	0x3deb3a94	0.11485782
69	0xbd826fe0	-0.06368995
70	0x3df52aa7	0.11971026
71	0x3dafcb6a	0.0858372
72	0x3e519dd1	0.20470358
73	0xbd34a98f	-0.044107016
74	0xbd015c72	-0.031582303
75	0x3e70f076	0.23529229
76	0x3d5068ee	0.05088132
77	0xbe023578	-0.12715709
78	0xbe0d3c11	-0.13792445
79	0xbdd2a745	-0.102858104
80	0x3b6a7dd2	0.003578056
81	0x3e4af69b	0.19820635
82	0xbc9e4fb7	-0.01932512
83	0x3dc183cb	0.09448966
84	0x3d3158ab	0.04329745
85	0x3be06a1a	0.006848586
86	0x3d1832ee	0.037157945
87	0x3d5842f6	0.052798234
88	0xbd3cc321	-0.046084527
89	0x3d796831	0.06089038
90	0x3e0023bb	0.1251363
91	0xbcb49ddb	-0.022047928
92	0x3dd48e74	0.10378733
93	0xbdbc4127	-0.09192114
94	0xbad7074d	-0.0016405374
95	0xbe0d60e9	-0.138065
96	0x3d7faf2e	0.062422924
97	0xbd64a699	-0.055822942
98	0x3db118ea	0.0864733
99	0xbd492dc8	-0.049115926
100	0x3df1dfb2	0.118102446
101	0xbbf7f831	-0.0075674285
102	0x3ce4d0dc	0.027931623
103	0x3ceb480f	0.028720884
104	0x3d351ec8	0.04421881
105	0x3e12f9a5	0.14353044
106	0xbcd31545	-0.025766978
107	0xbd64a598	-0.055821985
108	0xbaa19552	-0.0012327826
109	0xbe4abe47	-0.19799148
110	0x3d30a39a	0.043124773
111	0x3e12ec68	0.14347994
112	0x3e465002	0.19366458
113	0xbd6e975f	-0.058249827
114	0x3e02dd54	0.12779742
115	0x3d48426f	0.04889148
116	0x3b442bf5	0.0029933427
117	0xbc5b6d84	-0.01339281
118	0x3dc2a035	0.09503213
119	0x3d6d8035	0.057983596
120	0xbd9fb614	-0.077984005
121	0xbd363d79	-0.04449222
122	0xbe237fbf	-0.159667
123	0xbcd75f26	-0.026290487
124	0x3d818b7d	0.063254334
125	0x3df07e04	0.117427856
126	0xbd33f9a9	-0.043939266
127	0xbd729952	-0.05922825
128	0xbce5a70f	-0.028033761
129	0xbc7cacac	-0.015422028
130	0x3d064adb	0.03278623
131	0xbd5e9116	-0.054337583
132	0xbda74ee4	-0.08169344
133	0x3d82dd25	0.06389836
134	0x3dab5e59	0.08367605
135	0xbdc52379	-0.096259065
136	0x3e5784a1	0.21046688
137	0x3dd2f3f0	0.10300434
138	0x3c5a1ba6	0.013312256
139	0xbdbf000a	-0.09326179
140	0x3de004e9	0.109384365
141	0x3db87923	0.0900748
142	0x3d898db9	0.067164846
143	0xbd90bdb4	-0.07067433
144	0x3dc86117	0.097841434
145	0xbda4f116	-0.08053796
146	0xbe35d4f5	-0.17757018
147	0xbd277257	-0.040880527
148	0xbd129b02	-0.03579236
149	0xbe2610ec	-0.16217393
150	0x3da06a97	0.078328304
151	0xbd5e1349	-0.05421761
152	0xbcc58c06	-0.02411462
153	0x3da2f413	0.0795671
154	0x3d9fecdd	0.0780885
155	0xbd5b7ded	-0.05358689
156	0xbd1220a2	-0.035675652
157	0x3daca482	0.08429815
158	0xbe1b1c7b	-0.15147583
159	0x3d8f98c7	0.07011562
160	0x3d80a6c6	0.062818095
161	0xbd11e840	-0.03562188
162	0xbd55f5c0	-0.05223632
163	0xbe2f0382	-0.17091182
164	0x3c8bc63f	0.017062305
165	0xbc47b31b	-0.012188698
166	0xbc96b787	-0.01839806
167	0xbd9846f4	-0.07435408
168	0xbdc4386c	-0.09581074
169	0xbcc0ca60	-0.023534
170	0x3da895e5	0.08231715
171	0xba3429a2	-0.0006872659
172	0xbc1a2c19	-0.009409928
173	0x3da81d1a	0.08208676
174	0x3d51766a	0.05113832
175	0x3e27d6cb	0.16390531
176	0xbce6504a	-0.028114457
177	0xbd4d4f9f	-0.05012476
178	0x3d1ca282	0.038240917
179	0x3bc91189	0.0061361236
180	0x3cb9e819	0.02269368
181	0xbe2b098d	-0.16702862
182	0x3d599435	0.053119857
183	0xbd930e50	-0.07180464
184	0xbe1d3939	-0.1535386
185	0xbdc0086c	-0.09376606
186	0xbc9f389e	-0.019436177
187	0xbe5a5421	-0.21321155
188	0xbdc632fb	-0.096776925
189	0x3e17829a	0.14795914
190	0xbd93b33c	-0.072119206
191	0x3dd48c25	0.10378293
192	0x3d80f975	0.0629758
193	0x3dec1459	0.115273185
194	0x3e0abca4	0.13548523
195	0x3dd13077	0.10214322
196	0x3d571eae	0.052519493
197	0xbdaedc02	-0.08538057
198	0x3b4d41bf	0.0031319705
199	0xbdd2c212	-0.10290922
200	0x3c218112	0.009857433
201	0xbdd93115	-0.10605065
202	0x3d8509d3	0.064960144
203	0x3d39b919	0.04534254
204	0x3e2c9e62	0.16857293
205	0x3caee3ad	0.021348799
206	0x3e745e58	0.23864114
207	0xbc0fee49	-0.008784839
208	0x3dd8b4dc	0.10581371
209	0xbca28e5d	-0.019843275
210	0x3d81bbfd	0.06334684
211	0x3daf43e1	0.08557869
212	0xbd1a5231	-0.03767604
213	0xbd08a6fb	-0.03336237
214	0x3ddd0a3a	0.10792966
215	0x3e230808	0.15921032
216	0x3e00b529	0.12569107
217	0x3c5b5da2	0.013389023
218	0x3d9eff47	0.07763534
219	0xbe541e43	-0.20714669
220	0x3e0ce5cb	0.13759534
221	0xbe3b0f35	-0.1826752
222	0x3e047f0a	0.12939087
223	0x3da5d7ff	0.080978386
224	0xbd1dfe4b	-0.03857259
225	0x3e09bf52	0.13451889
226	0x3da0b735	0.07847444
227	0xbd298bba	-0.04139302
228	0xbcd239f1	-0.025662394
229	0x3d672e2b	0.056440514
230	0xbd82131a	-0.063512996
231	0xbdfd79e7	-0.12376767
232	0x3cd6a405	0.026201257
233	0xbdf3a1cf	-0.11896097
234	0x3dd44935	0.10365526
235	0x3911e000	0.00013911724
236	0xbdab0c38	-0.0835194
237	0x3dd2fb54	0.10301843
238	0xbe3ac2a3	-0.1823831
239	0x3dad610b	0.08465775
240	0xbc91c512	-0.017794166
241	0xbc855526	-0.016275954
242	0x3cd5a1ae	0.026078071
243	0xbd633155	-0.05546697
244	0xbda00473	-0.078133486
245	0xbdf93267	-0.121678166
246	0x3cbb3b18	0.022855327
247	0x3e3a63e4	0.18202168
248	0x3df22cdc	0.118249625
249	0x3c1162c3	0.008873644
250	0x3d7774ff	0.06041431
251	0x3e31ac5b	0.17350905
252	0x3dd48292	0.10376467
253	0x3d857e99	0.06518287
254	0x3d3e431f	0.04645073
255	0xbde48087	-0.11157327

lstm.weight_hh_l0 f4 [256, 64]
0	0x3b656769	0.0035004264
1	0xbd2e73f0	-0.042591035
2	0xbe14f3fc	-0.14546198
3	0xbc5845d2	-0.01320024
4	0x3dc049ff	0.09389114
5	0x3e4a8254	0.19776279
6	0xbe0c39d1	-0.1369393
7	0xbe0e8900	-0.13919449
8	0x3dbb3969	0.091418095
9	0x3d67ab61	0.056559924
10	0x3c77e64e	0.0151305925
11	0x3e46b7bd	0.19406028
12	0x3ab11a06	0.0013511784
13	0xbdd5d025	-0.10440091
14	0x3b22c89a	0.0024838806
15	0xbd01fcbe	-0.031735174
16	0x3da2774e	0.07932912
17	0x3d2dd9c8	0.04244402
18	0xbc4e8cb6	-0.01260679
19	0x3e1269d6	0.14298186
20	0x3dfeec8d	0.12447462
21	0x3d35385d	0.044243205
22	0xbca9de0f	-0.020735769
23	0x3dd73dd2	0.10509838
24	0x3e08b42a	0.13349977
25	0x3d62f79f	0.05541193
26	0xbe0e4c01	-0.1389618
27	0xbd53f78d	-0.051749755
28	0xbc5a12be	-0.013310133
29	0x3dbec026	0.09313993
30	0xbd8de13a	-0.06927724
31	0xbcbfc740	-0.02341044
32	0x3cf57afc	0.02996587
33	0x3c63f8c2	0.013914289
34	0xbdd2286b	-0.10261615
35	0xbab2257e	-0.0013591496
36	0xbd136e4c	-0.03599386
37	0x3c56b836	0.013105443
38	0xbd2bfda0	-0.041989923
39	0xbdc04bf5	-0.09389488
40	0xbe14fa40	-0.14548588
41	0x3d41b18b	0.04728846
42	0xbdad2586	-0.08454423
43	0x3cbc855a	0.023012806
44	0x3ba74854	0.0051050577
45	0x3bf65dbb	0.0075184978
46	0x3dc97e54	0.09838548
47	0xbe05f21a	-0.13080636
48	0xbd6715cc	-0.05641727
49	0xbd143ec5	-0.036192674
50	0x3e2a3cb3	0.16624717
51	0x3d974a8b	0.07387265
52	0xbe3bc4c6	-0.18336782
53	0x3dde2a6b	0.10847934
54	0x3db98a89	0.090596266
55	0x3e324f7f	0.17413138
56	0xbdcd4c9e	-0.10024379
57	0xbdece79b	-0.11567613
58	0xbd43c844	-0.04779841
59	0xbd49f3e8	-0.049304873
60	0x3dabb099	0.08383293
61	0xbd1cd0f0	-0.038285196
62	0x3da3030f	0.07959568
63	0xbd940855	-0.07228152
64	0xbdefc455	-0.11707369
65	0x3b807c7b	0.003921089
66	0xbcd6be78	-0.02621387
67	0xbe446d45	-0.19182308
68	0x3dfb48aa	0.12269719
69	0xbdff3b46	-0.124624774
70	0x3dc5c8ac	0.09657416
71	0x3c830e16	0.015997928
72	0x3d4eaa38	0.050455302
73	0xbd5c206f	-0.05374187
74	0x3dab907f	0.0837717
75	0xbcddc4c6	-0.027071368
76	0x3dcd8403	0.10034945
77	0xbdb154e7	-0.08658772
78	0xbe409c99	-0.18809737
79	0x3e05ee81	0.13079263
80	0xbdc9d9cc	-0.098559946
81	0xbe0870b2	-0.1332424
82	0x3bb5b3b6	0.005545105
83	0xbde53572	-0.111918345
84	0x3da16321	0.078802355
85	0xbcdc2c28	-0.026876524
86	0xbdf5233f	-0.11969613
87	0xbd7883b1	-0.060672466
88	0x3d50668d	0.05087905
89	0x3cdd64a2	0.027025525
90	0xbb942e50	-0.0045221224
91	0x3db6bef3	0.089231394
92	0x3cdae079	0.026718365
93	0x3e6d385d	0.23166032
94	0xbd9a655c	-0.07538864
95	0xbd5622e6	-0.052279375
96	0x3d8046ea	0.06263526
97	0x3d8ac7c2	0.06776382
98	0x3d3388ef	0.043831762
99	0x3d9b65d2	0.0758778
100	0x3dc1e096	0.094666645
101	0xbc965879	-0.018352734
102	0xbdb8ca49	-0.09022958
103	0xbe3371b2	-0.1752384
104	0x3d5129c0	0.051065207
105	0x3dc0c271	0.09412087
106	0x3c5ea070	0.013588056
107	0x3d7b2ba1	0.061320905
108	0xbd62498d	-0.055245925
109	0xbe3963b9	-0.18104447
110	0xbdefd879	-0.11711211
111	0x3e2e3843	0.1701365
112	0x3ceacd24	0.028662272
113	0xbc9343dc	-0.017976694
114	0xbe023d94	-0.12718803
115	0x3e2fafbc	0.17156881
116	0xbd867a47	-0.06566291
117	0x3e483800	0.19552612
118	0x3e1752f0	0.14777732
119	0xbdae221e	-0.08502601
120	0xbe3d1465	-0.18464811
121	0xbe0ea880	-0.13931465
122	0xbd8b6bcd	-0.06807671
123	0x3d3dd839	0.046348784
124	0xbd8646f9	-0.06556506
125	0x3c16e375	0.009209503
126	0x3d650082	0.055908687
127	0xbdfd4fb7	-0.1236872
128	0x3d867240	0.0656476
129	0xbd350c84	-0.04420139
130	0xbdd59dd1	-0.10430492
131	0x3d529c92	0.05141885
132	0xbe0beef5	-0.13665374
133	0x3d0314f4	0.032002404
134	0xbd0be218	-0.034151167
135	0x3e0f9ef7	0.14025484
136	0x3ca54f5b	0.020179441
137	0xbcb1e5ee	-0.021716084
138	0x3c95086c	0.018192492
139	0xbe25311b	-0.16132013
140	0x3d5419a9	0.051782284
141	0x3d9f02cf	0.077642076
142	0x3d829dc7	0.0637775
143	0x3cd2dda1	0.025740447
144	0x3e2d359c	0.16914982
145	0x3c951a06	0.018200886
146	0xbc87f2c5	-0.016595254
147	0x3ae1092c	0.0017168871
148	0x3e0c2e76	0.13689598
149	0xbd92f110	-0.07174885
150	0x3cfaa2cc	0.030595206
151	0xbcd0da83	-0.02549482
152	0xbdc6adf0	-0.09701145
153	0x3cf7d102	0.03025103
154	0x3e1e6d8c	0.15471476
155	0x3d29a4cd	0.041416932
156	0xbd9381cb	-0.072024904
157	0x3c8d1759	0.017223047
158	0x3ca5a4fd	0.020220274
159	0xbd20ec71	-0.039287988
160	0x3d91622f	0.07098805
161	0x3c8e139f	0.01734334
162	0xbd7d4af4	-0.06183906
163	0x3cc0d808	0.023540512
164	0xbd8987d2	-0.06715359
165	0xbe26bf1e	-0.16283843
166	0x3d530d02	0.051526077
167	0xbda7ea2a	-0.0819896
168	0x3d71cd66	0.059033774
169	0xbe0799bf	-0.13242243
170	0x3e14f9e3	0.14548449
171	0xbd927012	-0.07150282
172	0xbd01fa2c	-0.031732723
173	0x3dbdd28a	0.09268673
174	0xbda253c7	-0.079261355
175	0x3dba3d63	0.0909374
176	0x3e4e5dc4	0.20152956
177	0x3e126bcf	0.14298938
178	0x3d2b2ef9	0.041792843
179	0xbd5b00bb	-0.053467494
180	0xbe129f8d	-0.14318676
181	0xbc9a9e8f	-0.018874435
182	0xbc75be79	-0.0149990255
183	0xbe02784f	-0.12741207
184	0xbd041589	-0.0322471
185	0xbd973bb9	-0.07384438
186	0x3d138fd5	0.03602584
187	0xbe536aa8	-0.20646155
188	0x3e1e3bd9	0.15452518
189	0xbddd4c95	-0.108056225
190	0xbcc0b6e0	-0.023524702
191	0x3e228316	0.15870318
192	0xbd1d39c9	-0.038385186
193	0xbe0d6516	-0.13808092
194	0x3b7ed8df	0.003888659
195	0x3c2587e4	0.0101032
196	0xbd76e55f	-0.06027734
197	0xbbeab419	-0.0071625826
198	0x3e036963	0.1283317
199	0xbdd5e281	-0.10443593
200	0x3e0b8635	0.13625415
201	0xbdb37c25	-0.08763913
202	0xbe0300c6	-0.12793264
203	0xbde17100	-0.11007881
204	0xbda87034	-0.08224526
205	0xbdb49ec7	-0.08819347
206	0xbdd42443	-0.10358479
207	0xbc959911	-0.018261464
208	0xbca49f9e	-0.020095643
209	0xbdd296bb	-0.10282656
210	0x3d706e4d	0.05869894
211	0x3bc5cec9	0.0060366136
212	0xbc534ea9	-0.012897172
213	0x3dd9d668	0.10636598
214	0x3d3131c4	0.04326035
215	0x3da38579	0.07984442
216	0x3e458d97	0.19292293
217	0xbe580e9f	-0.21099328
218	0x3d27ce73	0.04096837
219	0x3c9e886e	0.019352164
220	0xbd2820d2	-0.041046925
221	0xbdab9f4e	-0.08379994
222	0x3d1bf5da	0.03807626
223	0x3d305f0d	0.043059397
224	0x3db88ab2	0.09010829
225	0xbd5d92fe	-0.05409526
226	0xbdd58f26	-0.10427694
227	0xbc9aaa63	-0.018880075
228	0xbe40aef4	-0.1881674
229	0xbdbead54	-0.093104035
230	0xbc241729	-0.010015287
231	0x3e1aafed	0.15106173
232	0xbced6b9a	-0.028981972
233	0x3e3b0417	0.18263279
234	0xbb80444b	-0.003914391
235	0xbe08b52d	-0.13350363
236	0xbc2d2e49	-0.010570117
237	0x3e23f977	0.16013132
238	0x3e2c2fa3	0.16815047
239	0xbd5a187c	-0.053246006
240	0x3d9baf4b	0.07601794
241	0x3da8d0e8	0.08242971
242	0xbc069f5f	-0.008216708
243	0x3dc62c5d	0.096764304
244	0xbd290d42	-0.04127241
245	0x3c20773d	0.009794054
246	0x3d8a7f00	0.067625046
247	0xbda0b3ae	-0.07846771
248	0xbd891536	-0.06693499
249	0xbdeb76f2	-0.114972964
250	0x3cb71ab5	0.022351602
251	0xbcb09644	-0.021556027
252	0xbe20ef77	-0.15716349
253	0x3d35ee53	0.044416737
254	0x3e43435e	0.19068667
255	0x3dffc4c2	0.124887004

lstm.bias_ih_l0 f4 [256]
0	0xbda5291f	-0.08064484
1	0xbe024521	-0.12721683
2	0xbb3a2b45	-0.0028407138
3	0x3d9fe23c	0.07806823
4	0x3dbfbf46	0.093626544
5	0xbd334756	-0.043769203
6	0xbd470ac6	-0.04859426
7	0xbddf26da	-0.10896082
8	0xbd31001f	-0.043213006
9	0xbcbfb955	-0.023403803
10	0xbd7aa304	-0.06119062
11	0xbc16408e	-0.0091706645
12	0xbd89830b	-0.067144476
13	0xbde8fbd3	-0.11376157
14	0xbe133ce7	-0.14378701
15	0xbd0a2b16	-0.033732496
16	0xbe182f2a	-0.14861742
17	0x3d5baac6	0.05362966
18	0xbe2b9544	-0.16756159
19	0xbd4b1636	-0.04958173
20	0xbcd9d45f	-0.026590524
21	0xbd3b4e74	-0.045729116
22	0xbce8bb0a	-0.0284095
23	0xbd02aeca	-0.031904973
24	0xbdb2aa03	-0.087238334
25	0xbe569ec1	-0.20958997
26	0x3d33898f	0.043832358
27	0xbe48eb89	-0.196211
28	0xbc845e30	-0.016158193
29	0xbbcddb3d	-0.0062822388
30	0xbd502f07	-0.0508261
31	0xbcaf4ee5	-0.021399925
32	0xbd16e26e	-0.036837034
33	0x3ce790c3	0.02826727
34	0xbc58415d	-0.013199178
35	0xbe155150	-0.145818
36	0x3d92a414	0.07160202
37	0x3c987db7	0.018614633
38	0xbe089830	-0.13339305
39	0xbdb8c4cd	-0.09021912
40	0xbdb6d1e6	-0.08926754
41	0x3ceef49b	0.029169371
42	0xbe3dbcee	-0.18529102
43	0xbddf544c	-0.1090475
44	0x3c2af756	0.010434946
45	0x3d752ed8	0.059859127
46	0xbe13c637	-0.14431082
47	0xbcb0c9dd	-0.02158063
48	0x3c7c6e20	0.015407115
49	0xbd93185b	-0.0718238
50	0xbe0b54c1	-0.1360655
51	0xbe48c480	-0.19606209
52	0x3e03d6a8	0.12874854
53	0x3d5e9fe2	0.054351695
54	0xbc9f70db	-0.019462993
55	0x3d398d29	0.045300636
56	0xbd9002d1	-0.07031787
57	0xbc3fc0d5	-0.01170369
58	0xbe351166	-0.17682418
59	0xbd0bab54	-0.034098938
60	0xbd50e6a9	-0.051001225
61	0xbbcb78ac	-0.0062094536
62	0xbda98cc7	-0.08278804
63	0x3e306534	0.17226106
64	0xbd80240f	-0.06256878
65	0xbd9e06e9	-0.07716162
66	0xbd305beb	-0.04305641
67	0xbdf18a7f	-0.11793994
68	0x3dbcd0f4	0.09219542
69	0x3c99004d	0.018676901
70	0x3ddb4547	0.10706573
71	0x3ce854b7	0.028360708
72	0xb98af301	-0.00026502463
73	0xbde57351	-0.112036355
74	0xbd4eed9c	-0.05051957
75	0xbdbdc3d4	-0.09265867
76	0x3d5efec2	0.054442175
77	0xbdbd2ebf	-0.09237432
78	0xbdc46636	-0.09589808
79	0xbd767d27	-0.06017795
80	0xbd45af4c	-0.04826288
81	0x3dcffdd8	0.10155839
82	0x3d0af386	0.03392365
83	0x3db13652	0.08652939
84	0x3d27daaf	0.040980037
85	0xbda681d4	-0.081302315
86	0x3dad6f60	0.08468509
87	0x3df0a430	0.11750066
88	0xbc91dfe4	-0.017806955
89	0xbe4b8c3d	-0.19877715
90	0xbdd1e8f2	-0.10249509
91	0xbe3e79ba	-0.18601122
92	0x3d900dd1	0.07033885
93	0xbd8b8b08	-0.068136275
94	0xbc4b326d	-0.012402159
95	0x3cba8825	0.022769997
96	0xbd5ffb89	-0.054683242
97	0xbd087e17	-0.033323374
98	0xbd3dc11d	-0.046326745
99	0xbe01cb78	-0.12675273
100	0xbe16c0f9	-0.1472205
101	0xbc87c15b	-0.016571691
102	0xbd415039	-0.047195647
103	0xbe37efdb	-0.17962591
104	0x3b48a811	0.0030617754
105	0xbdf728b1	-0.12068308
106	0xbdb80bdf	-0.08986639
107	0x3d241ff9	0.040069554
108	0xbd22dc67	-0.039760973
109	0xbdc9e634	-0.09858361
110	0x3dcb2141	0.09918452
111	0xbdd9b65c	-0.106304854
112	0xbda6a127	-0.08136206
113	0xbde47b60	-0.111563444
114	0xbdca0587	-0.098643355
115	0xbdaabcf4	-0.08336821
116	0xbe089a22	-0.13340047
117	0xbd1a54c2	-0.037678488
118	0x3ce5f503	0.028070932
119	0xbdf04d35	-0.11733476
120	0x3d3ac99d	0.04560243
121	0xbc9067d4	-0.017627634
122	0x3d0bef75	0.03416391
123	0xbde04ca8	-0.10952121
124	0x3cf22313	0.02955774
125	0xbd823e5d	-0.06359551
126	0x3e0ed79b	0.13949434
127	0x3da72658	0.0816161
128	0xbde5b3d3	-0.112159394
129	0x3cd496f4	0.025950886
130	0x3db94a9c	0.09047434
131	0xbd77c5f3	-0.060491513
132	0xbcc67c56	-0.02422921
133	0xbd6859f0	-0.056726396
134	0xbdae1bfb	-0.085014306
135	0x3d776b18	0.060404867
136	0x3c732276	0.014839759
137	0x3c0cfd4b	0.008605312
138	0xbe213cd7	-0.15745865
139	0x3d8a9955	0.06767527
140	0x3e1dff65	0.15429457
141	0x3c2d0c25	0.0105619775
142	0xbd9f0908	-0.077653944
143	0x3d8f06d4	0.06983724
144	0xbd59c1e9	-0.053163443
145	0xbe3eb572	-0.18623903
146	0xbe1fae77	-0.15593897
147	0x3d2b867d	0.041876305
148	0x3d1f80d7	0.03894123
149	0xbe2edd14	-0.17076522
150	0x3d463fd3	0.04840071
151	0xbe45b4e7	-0.1930729
152	0x3da7a20c	0.08185205
153	0x3cf84d05	0.030310163
154	0x3d327a43	0.04357363
155	0x3dade19c	0.08490297
156	0x3d98a2fa	0.0745296
157	0xbd654b20	-0.055979848
158	0x3d81c9b8	0.06337303
159	0xbcfb5828	-0.030681685
160	0x3e273e29	0.16332306
161	0xbd9dbf79	-0.07702536
162	0x3e4b2062	0.19836572
163	0x3c7c70b6	0.015407732
164	0x3dbb774d	0.09153614
165	0xbdaa4025	-0.08313016
166	0xbd7aa4fb	-0.061192494
167	0xbd000aa1	-0.031260137
168	0x3c611e6a	0.013740161
169	0xbd2bd066	-0.04194679
170	0xbe3ce756	-0.18447623
171	0xbd2af594	-0.041738108
172	0xbe03a848	-0.12857163
173	0xbe3330f0	-0.17499137
174	0xbe02815a	-0.12744656
175	0x3d3ed8d1	0.04659349
176	0xbdd15eb5	-0.10223142
177	0xbdb40a9d	-0.08791087
178	0xbe0c7c1a	-0.13719216
179	0xbcafd265	-0.021462629
180	0xbd430312	-0.04761035
181	0x3dba8b4b	0.09108599
182	0xbd953754	-0.072859436
183	0xbb681ddf	-0.0035418195
184	0xbda7d3a4	-0.08194664
185	0x3df4afc1	0.11947585
186	0x3da31a65	0.07964019
187	0x3e45cc02	0.19316104
188	0xbe27976a	-0.16366354
189	0x3cc66bc8	0.024221316
190	0xbe4927c8	-0.19644082
191	0xbd96b179	-0.07358069
192	0xbc7ba0dc	-0.015358176
193	0x3d2113c2	0.039325483
194	0xbe045c8e	-0.12925932
195	0xbdb1b2fb	-0.08676716
196	0x3ccb37c2	0.02480686
197	0x3e06c661	0.13161613
198	0xbe0c8fed	-0.13726778
199	0xbcfeca67	-0.031102372
200	0xbd5bf6cc	-0.05370216
201	0xbdcb37c4	-0.09922746
202	0xbd946508	-0.07245833
203	0x3d0c321e	0.034227483
204	0xbddb1cac	-0.10698828
205	0x3dd4abb4	0.10384312
206	0xbe38eb5a	-0.1805853
207	0x3d203736	0.039115153
208	0xbdc4de1d	-0.09612677
209	0xbda47a72	-0.08031167
210	0xbe00156d	-0.12508173
211	0x3e261519	0.16218986
212	0x3daeee11	0.08541501
213	0xbe3ea2c3	-0.18616776
214	0xbda1b49e	-0.07895778
215	0xbd4a787b	-0.049431305
216	0xbe394421	-0.18092395
217	0xbe01ba14	-0.1266864
218	0xbdc85f0b	-0.09783753
219	0xbd1fde5d	-0.03903042
220	0x3d4edee2	0.050505526
221	0x3e0f9b68	0.14024127
222	0x3dcc0ea7	0.09963732
223	0xbd309aec	-0.043116495
224	0x3c14815b	0.009064044
225	0xbdcc0571	-0.09961975
226	0xbdd5943a	-0.104286626
227	0xbd0289af	-0.031869587
228	0xbe227bd8	-0.15867555
229	0xbd82209b	-0.06353875
230	0xbd92e13d	-0.07171867
231	0xbc47a9ff	-0.012186526
232	0xbcc7fcd1	-0.024412544
233	0xbd4bb657	-0.04973444
234	0xbdffc696	-0.12489049
235	0xbcfc0184	-0.030762441
236	0xbd728a0d	-0.059213687
237	0xbc3b4e81	-0.011432291
238	0xbd962dc3	-0.07332947
239	0xbe4635f6	-0.19356522
240	0xbe35400e	-0.17700216
241	0x3d353d3c	0.04424785
242	0x3ca6d319	0.020364331
243	0x3e04c5ff	0.12966155
244	0x3d6267e8	0.055274874
245	0xbe2ceb8a	-0.16886726
246	0x3d9b71bd	0.07590053
247	0x3dd38a1d	0.103290774
248	0xbccc5d9b	-0.024946978
249	0x3a73ae92	0.00092957274
250	0xbdf82da5	-0.12118081
251	0xbe1907d1	-0.14944388
252	0xbdc2de10	-0.09515011
253	0xbdff2530	-0.12458265
254	0xbd48267e	-0.048864834
255	0xbd078299	-0.033083532

lstm.bias_hh_l0 f4 [256]
0	0xbe3ca1fa	-0.18421164
1	0xbe1b4520	-0.15163088
2	0xbd198349	-0.03747872
3	0x3deba4ea	0.11506064
4	0xbcb4e2b6	-0.02208076
5	0xbda56762	-0.08076359
6	0xbd84063d	-0.06446502
7	0xbe14c172	-0.14526919
8	0xbda9911b	-0.0827963
9	0x3dc6d2cb	0.09708174
10	0xbdfdd112	-0.123933926
11	0xbdf04885	-0.11732582
12	0xbcee2d08	-0.029074207
13	0xbe2c2126	-0.1680952
14	0xbc0ad3dc	-0.008473363
15	0xbe0b3651	-0.13594939
16	0xbe301c2f	-0.17198251
17	0x3c83db4a	0.016095776
18	0x3b4b321a	0.0031005205
19	0xbd6b18de	-0.057396762
20	0xbd87d7cc	-0.06632957
21	0xbd3e0de0	-0.04639995
22	0x3b685b14	0.0035454677
23	0x3d722732	0.05911941
24	0xbd7c420e	-0.061586432
25	0xbe17fc2f	-0.14842294
26	0x3d94182b	0.07231172
27	0xbe449925	-0.19199045
28	0x3e1a9275	0.15094931
29	0x3ae2ca68	0.0017302753
30	0x3b5d04ea	0.0033724853
31	0xbdcdcb6d	-0.10048566
32	0xbb253756	-0.0025209985
33	0x3cc5e6da	0.02415793
34	0x3931e02e	0.00016963549
35	0xbe090c35	-0.13383563
36	0x3c8652e6	0.01639695
37	0x3cc55b25	0.024091313
38	0xbcbe8e9f	-0.023261366
39	0x3cd6ce40	0.026221395
40	0x3e00db36	0.12583622
41	0x3d54a6dc	0.051916942
42	0xbda51252	-0.08060135
43	0xbe440cf3	-0.19145565
44	0xbd659ecc	-0.056059644
45	0x3b95dc5d	0.0045733885
46	0x3c3fd7aa	0.011709133
47	0xbdd90651	-0.10596908
48	0xbdc7c38e	-0.09754096
49	0xbe20a349	-0.15687288
50	0xbd7e8209	-0.06213573
51	0xbe4f8d0e	-0.20268652
52	0x3cfe059b	0.031008532
53	0x3db0178e	0.08598243
54	0xba352c93	-0.0006911244
55	0x3d9b3c7e	0.07579897
56	0xbd302e07	-0.043012645
57	0x3e237934	0.15964204
58	0xbd36b997	-0.044610586
59	0xbe351abc	-0.1768598
60	0x3da0efa6	0.07858209
61	0xbc466f7a	-0.012111539
62	0x3d5ba886	0.053627513
63	0x3e09f285	0.1347142
64	0xbdacfa83	-0.08446219
65	0xbe577e86	-0.21044359
66	0x3d136519	0.035985086
67	0x39d097b7	0.00039785888
68	0x3d31b1b3	0.043382358
69	0xbe082a71	-0.1329744
70	0xbc05c591	-0.008164779
71	0xbe345650	-0.1761105
72	0xbd50c72d	-0.0509712
73	0xbdf8dbe9	-0.121513195
74	0xbcabc51c	-0.020968013
75	0x3d06706a	0.03282205
76	0xbe06fae8	-0.1318165
77	0xbdf1aba0	-0.11800313
78	0xbe3cda84	-0.18442732
79	0xbd5a5ae6	-0.053309344
80	0x3d943327	0.07236319
81	0x38d1394c	9.976569e-05
82	0x3db31696	0.08744542
83	0x3dc6fa58	0.09715718
84	0x3e12c6b1	0.14333607
85	0xbdadaf6c	-0.08480725
86	0xbdae466c	-0.08509526
87	0xbc832e7e	-0.01601338
88	0xbe032470	-0.12806869
89	0x3b81f99b	0.003966523
90	0x3d6d84fa	0.057988144
91	0xbcf768f2	-0.030201409
92	0xbda74c2b	-0.08168825
93	0x3dac1e0d	0.08404169
94	0x3d96cd24	0.07363346
95	0xbd91b1f9	-0.07114024
96	0xbce317a5	-0.027721236
97	0x3d52fa40	0.05150819
98	0xbdd1712b	-0.10226663
99	0x3c1a9a46	0.009436196
100	0xbd609734	-0.0548317
101	0xbe54d454	-0.20784122
102	0x3d43feeb	0.04785053
103	0xbda22cac	-0.07918677
104	0x3e35ab95	0.17741235
105	0xbd1561f6	-0.036470376
106	0xbe15e1ac	-0.14636868
107	0x3d1ea5b2	0.038732238
108	0xbe280177	-0.16406809
109	0xbd1ff828	-0.03905502
110	0x3db86ed3	0.09005513
111	0xbdf7a654	-0.120922714
112	0xbe29fbca	-0.16599956
113	0xbdeb773e	-0.11497353
114	0x3d15fc71	0.0366177
115	0xbd5592ec	-0.05214207
116	0xbe19f028	-0.15033019
117	0xbe22396c	-0.15842217
118	0xbe009b26	-0.12559184
119	0xbe105f5f	-0.14098881
120	0x3e29135d	0.16511293
121	0x3dc06578	0.09394354
122	0xbe24d0cb	-0.16095273
123	0xbcffa005	-0.031204233
124	0xbd9af828	-0.07566863
125	0xbdc58ce0	-0.096460104
126	0xbd16e862	-0.03684271
127	0x3e2147ac	0.15749997
128	0x3ce40360	0.02783364
129	0xbcaf7d5e	-0.021422084
130	0x3e4f1a91	0.20224978
131	0xbd4eb529	-0.050465737
132	0x3dae2568	0.085032284
133	0xbd5db15a	-0.054124214
134	0xbe1689d0	-0.14701009
135	0x3e1ef12e	0.1552169
136	0xbd7ea5de	-0.062169902
137	0x3d9cdce5	0.0765932
138	0x3d13864d	0.03601675
139	0x3d460dce	0.04835301
140	0x3c534819	0.012895607
141	0x3de48fef	0.11160266
142	0xbc7e6d18	-0.01552894
143	0x3c66010b	0.014038335
144	0x3d36cf45	0.04463126
145	0xbbc35c4a	-0.0059619294
146	0xbd6f916c	-0.058488294
147	0x3dedc13a	0.11609121
148	0x3d019710	0.031638205
149	0xbe1ce673	-0.15322284
150	0x3d92ed32	0.07174148
151	0xbdd13ed2	-0.1021706
152	0x3e26769b	0.16256182
153	0x3cef25f3	0.0291929
154	0xbd9a2feb	-0.07528671
155	0x3d951aae	0.07280479
156	0xbe0c1359	-0.13679256
157	0xbc30fb27	-0.010802067
158	0x3d4ca468	0.049961478
159	0xbdfcba1d	-0.12340186
160	0xbc923e23	-0.017851895
161	0xbd44aa88	-0.048014194
162	0x3e342cfe	0.17595288
163	0xbdf7226f	-0.120671146
164	0x3e1bc7f4	0.15212995
165	0xbd8c8e33	-0.0686306
166	0x3cc51b19	0.024060773
167	0x3d8e0e68	0.069363415
168	0xbcfe83b3	-0.031068658
169	0xbe045e11	-0.12926508
170	0xbe35ec6c	-0.17765969
171	0x3da69b83	0.0813513
172	0xbcc2ffb8	-0.023803577
173	0x3ce993c2	0.02851284
174	0xbd933db2	-0.07189502
175	0x3d6abb58	0.05730757
176	0xbe2cf24a	-0.16889301
177	0x3d612677	0.054968324
178	0xbe223e9a	-0.15844193
179	0xbd93213e	-0.07184075
180	0x3dd9593a	0.10612722
181	0x3d8912e4	0.06693056
182	0xbcb166b7	-0.021655424
183	0xbc4bfec5	-0.0124508785
184	0x3d7e0c77	0.062023606
185	0x3d864358	0.065558136
186	0x3e23b958	0.15988672
187	0x3e43e720	0.19131136
188	0xbc293ab2	-0.010328935
189	0x3da22326	0.0791686
190	0xbd94830a	-0.07251556
191	0x3d1f4acb	0.038889688
192	0xbe1ab40e	-0.15107748
193	0x3d9a25d9	0.0752675
194	0x3d28ffb9	0.0412595
195	0x3d2304d9	0.039799545
196	0xbd91a477	-0.07111447
197	0x3c6ce01f	0.0144577315
198	0xbd8123ec	-0.0630568
199	0xbe07c87f	-0.13260077
200	0xbdabf539	-0.08396382
201	0x3cf03d1a	0.02932601
202	0xbc05a95b	-0.008158053
203	0xbd3ba4fd	-0.045811642
204	0xbd953fa9	-0.07287533
205	0xbd858d0a	-0.06521042
206	0xbd5de32e	-0.054171734
207	0xbbb06fbb	-0.005384413
208	0x3dbe5071	0.09292687
209	0xbdaf68be	-0.085649
210	0xbe3ddb39	-0.18540658
211	0x3e3e0223	0.18555503
212	0x3dbfce21	0.09365488
213	0xbd63a0f6	-0.055573426
214	0x3d2c31f6	0.042039834
215	0x3d95e0ad	0.07318244
216	0xbd84747c	-0.0646753
217	0xbe16821e	-0.14698073
218	0x3d2fca99	0.04291782
219	0xbd38802d	-0.045044113
220	0x3dcf5c30	0.10125005
221	0x3da07439	0.07834668
222	0xbd7289be	-0.059213392
223	0xbdd3ac0c	-0.1033555
224	0x3de98a53	0.114033364
225	0x3cbc84f4	0.023012616
226	0x3c8dc7c4	0.01730717
227	0xbd71c72d	-0.05902784
228	0xbe72efe4	-0.23724324
229	0xbe18e07b	-0.14929383
230	0xbcbfeae4	-0.023427434
231	0xbd633e71	-0.05547947
232	0xbde3d1dd	-0.111240126
233	0xbe2c8562	-0.16847757
234	0xbd3fc327	-0.04681697
235	0xbe380ec5	-0.17974384
236	0xbe2b6768	-0.16738665
237	0x3dab4242	0.08362247
238	0x3c8cee07	0.017203344
239	0x3c838035	0.016052345
240	0xbe584b95	-0.21122582
241	0xbe1586bf	-0.14602183
242	0xbd4d3206	-0.050096534
243	0x3e85dd73	0.26145515
244	0x3d586998	0.052835077
245	0xbe2ffb3b	-0.1718568
246	0xbda80266	-0.082035825
247	0xbd6588bc	-0.056038603
248	0xbc8ac468	-0.016939357
249	0xbd2cbf21	-0.042174462
250	0x3d693a82	0.056940563
251	0xbd44c494	-0.048039034
252	0xbd9dfda8	-0.07714397
253	0xbe283ca4	-0.16429383
254	0xbd8b4db5	-0.06801931
255	0xbd069262	-0.032854445

lstm.weight_ih_l1 f4 [256, 64]
0	0xbdefe616	-0.11713807
1	0x3e177513	0.14790754
2	0xbd9786cf	-0.073987596
3	0xbd92837d	-0.07153986
4	0x3da9ea6d	0.08296666
5	0x3d981f9c	0.07427904
6	0x3e14c922	0.14529851
7	0x3da4379a	0.08018418
8	0xbce4e5d0	-0.027941614
9	0x3d8bbabe	0.068227276
10	0x3d8c9254	0.068638474
11	0xbd44809e	-0.04797422
12	0xbe9a93d9	-0.30190924
13	0xbe050b55	-0.12992604
14	0x3dd0ce6e	0.10195623
15	0xbd80dde8	-0.06292325
16	0x3d49908d	0.04921012
17	0xbc3ecfd5	-0.011646231
18	0x3e701f0b	0.23449342
19	0xbc111679	-0.008855456
20	0x3ce0cddd	0.027441913
21	0x3e83f3de	0.25771993
22	0xbe32b709	-0.17452635
23	0x3e3bfc13	0.18357877
24	0xbd7b0bc3	-0.061290514
25	0xbc72587b	-0.014791603
26	0x3da10a19	0.07863254
27	0xbd73e219	-0.059541795
28	0x3de7944a	0.11307581
29	0x3e62b2ea	0.22138563
30	0xbe078aa5	-0.13236482
31	0x3dd1a689	0.10236842
32	0xbe1142a1	-0.14185573
33	0xbd2187cb	-0.039436143
34	0xbdffb01d	-0.12484763
35	0x3d85fcee	0.06542383
36	0x3e15bc31	0.1462257
37	0x3e130875	0.14358695
38	0x3df8e947	0.12153869
39	0xbd385e76	-0.04501196
40	0x3d0f5a1c	0.034998044
41	0x3c12c954	0.008959133
42	0x3e0ca25c	0.1373381
43	0xbce38f22	-0.027778212
44	0x3dc50c81	0.096215256
45	0x3e00a3fc	0.12562555
46	0x3e389b37	0.1802796
47	0x3d9d4e0a	0.076809004
48	0x3d9a6749	0.07539231
49	0x3b81ad78	0.0039574467
50	0xbca0ccef	-0.01962897
51	0x3e363002	0.17791751
52	0x3ddd41bb	0.10803553
53	0xbdaafb89	-0.08348758
54	0x3e3c4f82	0.18389705
55	0x3db8edde	0.090297446
56	0x3c726867	0.014795399
57	0xbe453992	-0.19260243
58	0xbddfa63b	-0.10920378
59	0xbcc7b096	-0.024376195
60	0x3db5026a	0.08838351
61	0xbc8cb9ef	-0.017178504
62	0x3e955d36	0.29172677
63	0xbe157a72	-0.1459749
64	0xbe19ccac	-0.15019482
65	0x3e626446	0.22108564
66	0xbd3ed51c	-0.046589956
67	0x3c9408ad	0.018070543
68	0x3e319ff9	0.17346181
69	0xbc5a84dc	-0.01333734
70	0x3baa7efe	0.005203127
71	0xbd84449f	-0.06458401
72	0xbd0e28d4	-0.034706905
73	0x3e47df2e	0.1951873
74	0xbc14dd62	-0.009085985
75	0x3e18fb99	0.14939727
76	0x3cc6607e	0.024215933
77	0xbdac47cd	-0.084121324
78	0xbd852973	-0.065020464
79	0xbcd33665	-0.025782773
80	0x3d65b575	0.056081254
81	0xbcd3e14a	-0.025864262
82	0x3dd78c0f	0.10524761
83	0x3d4d6d1e	0.05015289
84	0x3dbfa885	0.093583144
85	0x3e885eb3	0.2663475
86	0xbe5e245f	-0.21693562
87	0x3d97a6ca	0.07404859
88	0xbd3dbe2b	-0.046323936
89	0x3dc25387	0.09488588
90	0x3d7996b7	0.06093475
91	0x3d806cbe	0.06270741
92	0xbddb1aa6	-0.10698442
93	0xbda945ea	-0.08265288
94	0x3d5bdfe7	0.053680327
95	0xbd8e4745	-0.06947187
96	0xbe1c3531	-0.15254666
97	0x3d3ea78a	0.046546496
98	0xbd67f68a	-0.056631602
99	0xbdb96cf2	-0.09053983
100	0x3d0dbcec	0.034603998
101	0xbd3cf276	-0.046129666
102	0xbe333ab0	-0.17502856
103	0xbe0b77b1	-0.13619877
104	0xbc8ab9a6	-0.016934227
105	0x3d74ed96	0.059796892
106	0x3e05f408	0.13081372
107	0xbc1dbc54	-0.00962742
108	0x3df83330	0.12119138
109	0x3dcd2748	0.10017258
110	0xbd80c624	-0.06287792
111	0xbd866249	-0.06561715
112	0xbda67ceb	-0.08129295
113	0xbc35ead9	-0.011103355
114	0x3d632706	0.055457138
115	0xbe6a74c9	-0.22896113
116	0xbcabdfeb	-0.020980796
117	0xbd38b987	-0.045098808
118	0x3e0b931d	0.13630338
119	0xbb276423	-0.0025541864
120	0x3da4a547	0.08039337
121	0xbd32a892	-0.043617792
122	0x3e1f1b97	0.15537868
123	0x3e343c0c	0.17601031
124	0xbd1fc883	-0.039009582
125	0xbe1af8ff	-0.15134047
126	0x3d9b8499	0.0759365
127	0xbdd8210e	-0.1055318
128	0xbc90d667	-0.01768036
129	0x3c970d89	0.018439071
130	0xbe2c404c	-0.16821402
131	0xbd5bfbe4	-0.05370702
132	0x3e0b567e	0.13607213
133	0x3e1fea27	0.15616666
134	0x3d351030	0.04420489
135	0xbe2e768c	-0.1703741
136	0x3cfd622a	0.030930597
137	0xbe256f00	-0.16155624
138	0x3e259ed8	0.16173875
139	0x3d37c3d5	0.044864494
140	0x3d2bb91f	0.041924592
141	0x3a949547	0.0011335992
142	0xbd8b4522	-0.068002954
143	0xbe06a416	-0.13148531
144	0x3e060c53	0.13090639
145	0xbd75d8cc	-0.060021207
146	0x3da46efc	0.08028981
147	0x3bbe2a64	0.005803393
148	0x3dfbc441	0.12293292
149	0x3df1e1c9	0.11810643
150	0xbe036524	-0.12831551
151	0x3e271030	0.16314769
152	0x3d31da56	0.043421112
153	0xbe0625c4	-0.13100344
154	0x3e5908c7	0.21194755
155	0xbd3645f5	-0.04450031
156	0x3de557be	0.11198376
157	0x3c074298	0.008255623
158	0xbc9b77b0	-0.01897797
159	0x3d15f6fb	0.036612492
160	0xbda9d9c6	-0.0829349
161	0x3db673bd	0.08908794
162	0xbd116fa8	-0.035506874
163	0xbb587322	-0.003302761
164	0xbcd825b8	-0.026385173
165	0x3bfdc5ae	0.0077445125
166	0x3c36a2a6	0.011147177
167	0xbb8c8829	-0.0042886925
168	0xbe1317cf	-0.14364551
169	0x3dda8350	0.10669577
170	0x3dc91c60	0.09819865
171	0x3d57119f	0.05250704
172	0x3e16aad4	0.14713603
173	0x3c1a5447	0.009419507
174	0xbcbd764a	-0.023127694
175	0xbcd4b3eb	-0.025964698
176	0xbe385f90	-0.18005204
177	0x3e090023	0.13378958
178	0x3e182472	0.14857653
179	0x3e628c7f	0.22123908
180	0xbe42b197	-0.19013058
181	0x3d8c7f9d	0.06860278
182	0x3e194056	0.14965948
183	0x3d8c5024	0.06851223
184	0x3db1ed12	0.08687796
185	0xbc573f97	-0.01313772
186	0x3e3e3ffb	0.18579094
187	0x3e0a510d	0.13507481
188	0xbd404f53	-0.04695065
189	0xbba332b4	-0.0049804095
190	0x3dd0b098	0.101899326
191	0xbe590d6f	-0.21196531
192	0x3d6c0f93	0.05763204
193	0xbc0f9e99	-0.00876584
194	0x3d3b6c3f	0.04575753
195	0x3cdab673	0.026698327
196	0x3d7cf102	0.06175328
197	0x3e0e0dce	0.13872454
198	0x3dc3c588	0.095591605
199	0xbd241c29	-0.040065918
200	0xbd411246	-0.047136568
201	0x3de5dd66	0.11223869
202	0xbb4b6b08	-0.0031039137
203	0x3d8c3740	0.068464756
204	0xbd58d70e	-0.052939467
205	0x3dcb4ef9	0.09927172
206	0x3d1238fe	0.035698883
207	0xbe2c7338	-0.16840827
208	0xbc630919	-0.0138571495
209	0xbc831e0a	-0.016005535
210	0xbd295b41	-0.041346792
211	0xbe2ad3c1	-0.1668234
212	0xbd09b029	-0.033615265
213	0x3e3a8aa3	0.18216948
214	0xbd5dc558	-0.05414328
215	0x3dd51be9	0.10405714
216	0xbd7bc3f6	-0.06146618
217	0x3b45d7b9	0.0030188395
218	0x3e220762	0.15823129
219	0xbe1f1460	-0.15535116
220	0x3dfe6195	0.12420956
221	0x3d6f5bd3	0.05843718
222	0x3ad4f7b2	0.0016248135
223	0xbd82104d	-0.063507654
224	0xbcaef47e	-0.021356817
225	0x3d61e04e	0.055145554
226	0xbde7fbdb	-0.113273345
227	0x3e58a0ba	0.21155062
228	0xbc2419e2	-0.010015937
229	0x3dd0005b	0.10156318
230	0x3d3f925b	0.046770435
231	0x3dec3b78	0.1153478
232	0x3d29e21a	0.041475393
233	0x3e308223	0.17237143
234	0xbdcc5857	-0.09977787
235	0xbcf2dddf	-0.029646812
236	0xbd0ab721	-0.03386605
237	0x3dcad6ce	0.09904252
238	0x3db7c415	0.089729466
239	0xbdf59ce7	-0.11992817
240	0xbdc84166	-0.09778099
241	0xbc3b673d	-0.011438188
242	0x3c53cd33	0.012927341
243	0x3e62d556	0.22151694
244	0xbdccf54f	-0.100077264
245	0xbcf8dd10	-0.030378848
246	0xbd321b50	-0.04348308
247	0x3e05fc51	0.13084532
248	0x3e0abc3c	0.13548368
249	0xbdb6e3d0	-0.089301705
250	0x3dbf2e2a	0.09334977
251	0x3d92a4f9	0.07160372
252	0x3c567d62	0.013091417
253	0x3e43f472	0.19136217
254	0x3cb77120	0.02239281
255	0xbe08fc22	-0.13377431

lstm.weight_hh_l1 f4 [256, 64]
0	0xbdece932	-0.11567916
1	0x3d6b40c2	0.057434805
2	0xbe1d399e	-0.1535401
3	0xbc7b190d	-0.015325797
4	0xbda82909	-0.08210952
5	0x3b0e4204	0.002170683
6	0x3d3a1dfd	0.045438755
7	0xbd893f83	-0.06701567
8	0x3daf8ad9	0.08571405
9	0x3d301c89	0.042995963
10	0x3da1b238	0.07895321
11	0x3e10be46	0.14135084
12	0xbe41ecff	-0.18938063
13	0xbd755909	-0.059899364
14	0x3e065b48	0.13120759
15	0x3b7555a7	0.0037435086
16	0x3c97b33e	0.018518087
17	0xbd66c778	-0.056342572
18	0xbd7c3b69	-0.061580095
19	0xbe1e3337	-0.15449224
20	0xbe30b692	-0.17257145
21	0xbd3f6ee7	-0.046736624
22	0x3c7fa107	0.015602357
23	0x3e23eb8c	0.16007823
24	0x3d9216ac	0.071332306
25	0x3cf50794	0.02991084
26	0xbd10e01f	-0.03536999
27	0x3d4102b9	0.047121737
28	0x3dc2024c	0.09473094
29	0x3e079135	0.13238986
30	0x3e1b697d	0.1517696
31	0x3d33dc64	0.043911353
32	0x3d575359	0.05256972
33	0xbda38af9	-0.07985491
34	0x3ddad54d	0.10685215
35	0xbce22096	-0.027603429
36	0x3d8d01c5	0.06885103
37	0xbdf5476f	-0.119765155
38	0xbd909473	-0.070595644
39	0x3d066a0e	0.032815985
40	0xbd91c2d9	-0.07117242
41	0x3e2756ba	0.16341677
42	0xbe34e360	-0.17664862
43	0x3d64dc20	0.05587399
44	0x3da31fd3	0.07965054
45	0x3dd61f63	0.10455205
46	0x3df81e5c	0.121151656
47	0x3de78e49	0.113064356
48	0x3d0f6848	0.03501156
49	0x3e110c41	0.1416483
50	0xbbe3e003	-0.0069541945
51	0xbc01f3f5	-0.007931699
52	0x3e29e127	0.16589795
53	0xbe46fe06	-0.1943284
54	0xbc8d846c	-0.017275058
55	0xbca1d443	-0.019754535
56	0x3c9f2e33	0.01943121
57	0x3e085516	0.13313708
58	0x3e1d297f	0.15347861
59	0xbdcda75d	-0.10041688
60	0x3e414db8	0.18877304
61	0x3df54fe0	0.119781256
62	0x3cef85f8	0.029238686
63	0xbd688ce2	-0.05677498
64	0xbccafaf4	-0.024777867
65	0x3e0e557b	0.13899796
66	0xbc829290	-0.015939027
67	0x3c655546	0.013997382
68	0xbe1e986b	-0.1548783
69	0x3dc4979c	0.0959923
70	0xbd53d08d	-0.05171256
71	0xbd13ff9e	-0.036132447
72	0xbd9c74b0	-0.07639444
73	0xbdb9822a	-0.0905803
74	0xbd7213be	-0.05910086
75	0x3d7b9135	0.061417777
76	0x3c93b347	0.018029822
77	0xbc2e3f7f	-0.010635256
78	0x3d79cdc9	0.060987268
79	0xbb053b91	-0.0020329694
80	0x3e1af391	0.15131976
81	0x3c00ffd2	0.007873492
82	0xbe0d9cb6	-0.13829312
83	0xbdf4a13e	-0.11944817
84	0x3a5f8d02	0.00085277867
85	0x3dbf33a4	0.093360215
86	0x3e57858d	0.2104704
87	0x3da57146	0.08078246
88	0x3cd312f8	0.025765881
89	0x3e3ccc17	0.18437229
90	0x3ddbab5b	0.10726043
91	0x3e663fdf	0.22485302
92	0x3d724f2a	0.059157528
93	0x3d0a3256	0.03373941
94	0x3aa9a191	0.0012941827
95	0x3dcbd6fb	0.09953114
96	0xbd11810e	-0.035523467
97	0xbdc31916	-0.09526269
98	0xbd9c40b1	-0.076295264
99	0x3e4546a6	0.19265231
100	0xbe498576	-0.19679818
101	0xbe34979d	-0.17635961
102	0xbdb94c1c	-0.0904772
103	0xbc0f2c7c	-0.008738633
104	0x3dc064bb	0.09394213
105	0x3d23c87b	0.039986115
106	0x3e168916	0.14700732
107	0x3b452643	0.003008262
108	0x3d0b13a2	0.03395427
109	0xbd63c52e	-0.055607967
110	0x3ddb5081	0.10708714
111	0x3b7bc6df	0.0038418097
112	0x3d56fb77	0.05248591
113	0x3d53474b	0.051581662
114	0x3e2ff99d	0.17185064
115	0xbc824558	-0.015902206
116	0xbd1d54cf	-0.038410958
117	0xbe078907	-0.13235866
118	0x3c4d2a72	0.012522327
119	0x3c257866	0.010099506
120	0xbe4b8137	-0.1987351
121	0x3db87236	0.09006159
122	0x3e1b9523	0.1519361
123	0xbd13e5e6	-0.03610792
124	0x3d0049b3	0.031320285
125	0x3e47547f	0.19465826
126	0xbd310c77	-0.043224778
127	0xbdbb381b	-0.09141561
128	0xbb88761f	-0.0041644718
129	0xbc36da22	-0.011160405
130	0xbdae88d0	-0.08522189
131	0x3b06abfe	0.0020549293
132	0xbd931875	-0.07182399
133	0xbdf70a2a	-0.120624855
134	0x3c0a66c4	0.008447353
135	0x3db8bfa5	0.09020928
136	0x3cf14c53	0.02945534
137	0x3d8193c4	0.06327012
138	0xbddab592	-0.10679163
139	0xbcfbd31b	-0.030740311
140	0xbd41ffe0	-0.047363162
141	0xbe2f7fb1	-0.17138554
142	0x3e1d2a5c	0.1534819
143	0xbd860fb8	-0.06545967
144	0xbb453eef	-0.0030097326
145	0x3cf41a19	0.0297976
146	0x3d7ae32d	0.061251808
147	0xbe0c7167	-0.13715135
148	0xbd21154b	-0.039326947
149	0x3d4fa40f	0.050693568
150	0x3ce31df2	0.02772424
151	0x3e29b9d8	0.165748
152	0xbdadbb96	-0.08483045
153	0x3e5f104a	0.21783558
154	0x3d0f85b5	0.035039622
155	0x3deb939d	0.115027644
156	0xbcaa799c	-0.020809941
157	0x3baaf288	0.0052169003
158	0xb6f47b1c	-7.2860985e-06
159	0x3db56b53	0.08858361
160	0x3d954614	0.07288757
161	0xbd700a49	-0.05860356
162	0x3d6c39c5	0.05767228
163	0x3cc8e989	0.02452542
164	0xbc64d2b4	-0.013966251
165	0xbe027c5d	-0.12742753
166	0xbd5c542c	-0.05379121
167	0x3d49cdbc	0.04926847
168	0x3e300510	0.17189431
169	0xbd9bbe02	-0.076046005
170	0xbaed0cec	-0.0018085516
171	0xbde0c924	-0.109758645
172	0xbd94ccb8	-0.072656095
173	0xbd0e2fa4	-0.034713402
174	0x3d0f7bc4	0.03503014
175	0x3d8e99ef	0.06962954
176	0x3b1cf3db	0.002394906
177	0xbc9865c9	-0.018603222
178	0x3e03ac93	0.128588
179	0x3dbbd327	0.091711335
180	0x3d3d0a58	0.046152443
181	0xbe52b63e	-0.20577332
182	0x3cd1359a	0.025538255
183	0xbdb645d5	-0.08900038
184	0xbe19cf6b	-0.1502053
185	0x3dc66ad3	0.09688344
186	0x3e54ebf2	0.20793131
187	0xbe1c6498	-0.15272748
188	0xbe54fd19	-0.20799674
189	0x3c81ed3a	0.015860189
190	0xbe2235aa	-0.15840784
191	0xbe371a3f	-0.17881106
192	0xbd408aa0	-0.047007203
193	0x3db74ad3	0.089498185
194	0xbcb22cb4	-0.021749832
195	0xbc8d1357	-0.017221136
196	0xbdf31e3f	-0.11871003
197	0x3e2a377a	0.16622725
198	0xbe2222ff	-0.15833662
199	0x3daedeb6	0.085385725
200	0xbe0db6c5	-0.13839252
201	0xbd86c6df	-0.065809004
202	0xbdce2f86	-0.10067658
203	0x3d8f9b1e	0.07012008
204	0x3e2b5a48	0.16733658
205	0xbc77b24a	-0.015118191
206	0x3e08aa0a	0.13346115
207	0xbd69ec41	-0.057110075
208	0xbd1e3a29	-0.038629685
209	0xbd687188	-0.056748897
210	0x3d2d7beb	0.042354506
211	0xbdca46a9	-0.098767586
212	0xbde843b3	-0.113410376
213	0xbd68c747	-0.05683067
214	0x3cb35feb	0.021896323
215	0x3c69a180	0.014259696
216	0x3d65eb0d	0.056132365
217	0x3d4814dc	0.048848018
218	0x3defb943	0.11705258
219	0x3c4dda7c	0.012564298
220	0x3daa7a1e	0.08324073
221	0xbd4c9402	-0.04994584
222	0x3d089695	0.03334673
223	0x3e064122	0.13110784
224	0xbd9d430a	-0.07678802
225	0x3d0fa032	0.035064884
226	0xbc8b558c	-0.017008565
227	0xbd362897	-0.044472303
228	0xbc53e3ad	-0.0129327
229	0xbe1e4e89	-0.15459646
230	0xbc90348a	-0.017603178
231	0xbd9f9f6f	-0.077940814
232	0xbe1b19b2	-0.1514652
233	0xbc2635dd	-0.010144678
234	0xbb503a11	-0.0031772892
235	0xbc024077	-0.00794994
236	0x3dc276db	0.09495326
237	0xbce05d40	-0.027388215
238	0xbd42e6c1	-0.047583345
239	0x3e0cff15	0.13769181
240	0x3da12ee0	0.07870269
241	0xbc0b437d	-0.008499977
242	0x3e30cfa7	0.17266713
243	0x3e148751	0.14504744
244	0x3de27411	0.11057294
245	0xbe139395	-0.14411767
246	0xbd4b00d7	-0.049561348
247	0x3ab654e5	0.0013910799
248	0xbc6d6cda	-0.014491284
249	0xbd7f62f0	-0.062350214
250	0x3cb10df2	0.021613095
251	0xbcefd836	-0.029277902
252	0xbc01075c	-0.00787529
253	0xbb86bb65	-0.0041116946
254	0xbe22c98c	-0.15897197
255	0xbdb5884c	-0.08863887

lstm.bias_ih_l1 f4 [256]
0	0xbd277d15	-0.040890772
1	0xbe2feb4e	-0.17179605
2	0xbe222d0b	-0.15837495
3	0xbdaeec04	-0.0854111
4	0xbe468dda	-0.1939005
5	0xbdd1ccdc	-0.10244152
6	0xbb6b6d7d	-0.0035923414
7	0xbe3dc0b9	-0.18530549
8	0xbe7b3ddc	-0.24535316
9	0xbcacde46	-0.021102082
10	0xbe1cae52	-0.15300873
11	0xbe2b0c9a	-0.16704026
12	0xbcbdcaa8	-0.023167923
13	0x3d0568d2	0.032570668
14	0xbe3907e1	-0.18069412
15	0xbc6dc611	-0.014512555
16	0xbe147afd	-0.14500041
17	0xbdd45bf6	-0.10369103
18	0xbbdbbac9	-0.006705616
19	0x3dc8695c	0.09785721
20	0xbdb7d1fc	-0.08975598
21	0xbe101efb	-0.14074318
22	0xbdb08106	-0.08618359
23	0xbcf7d1b7	-0.030251367
24	0xbc5a2efc	-0.013316866
25	0x3cde676c	0.027148925
26	0xbccf17bf	-0.025279878
27	0xbd80bc76	-0.06285946
28	0xbdfaecf0	-0.122522235
29	0x3b3f54da	0.0029194863
30	0xbddced9e	-0.107875094
31	0xbe1f2ed3	-0.15545206
32	0x3d70e811	0.058815066
33	0xbc36ecde	-0.011164872
34	0xbe3ad356	-0.18244681
35	0xbd7a81ab	-0.061158817
36	0xbd2b0038	-0.041748255
37	0xbd2b748d	-0.0418592
38	0xbb74e081	-0.003736526
39	0xbdac6110	-0.08416951
40	0xbdd537e6	-0.104110524
41	0xbdc4d5bb	-0.09611078
42	0xbdc27d20	-0.09496522
43	0xbc7240d4	-0.014785964
44	0xbde34bb8	-0.110984266
45	0xbcb753bf	-0.0223788
46	0xbdc0e6ae	-0.09418999
47	0xbdf75918	-0.1207754
48	0xbc928b8b	-0.017888805
49	0x3c7846be	0.015153585
50	0xbdde8ea8	-0.10867053
51	0x3d847365	0.06467322
52	0xbd059d37	-0.032620635
53	0xbabb3193	-0.0014281742
54	0xbd5c1366	-0.053729437
55	0xbe0fa3b4	-0.14027292
56	0xbd0df909	-0.034661327
57	0x3c08cf79	0.008350247
58	0xbd882f5d	-0.06649659
59	0xbde6374a	-0.11241014
60	0xbe4aa9c6	-0.19791326
61	0xbc8ccb72	-0.017186854
62	0xbde5216c	-0.11188015
63	0xbe25c67e	-0.16189
64	0xbd5aba4a	-0.053400315
65	0xbdf15a3c	-0.11784789
66	0xbd932004	-0.07183841
67	0xbda16042	-0.07879688
68	0xbe122a2e	-0.14273903
69	0x3d27b9b0	0.04094857
70	0x3c657497	0.014004848
71	0x3cb7bf2c	0.022430025
72	0xbe64fb20	-0.22361422
73	0x3bc6de30	0.0060689673
74	0xbe5d2baa	-0.21598688
75	0xbdadb1fa	-0.08481212
76	0xbe1ee5a1	-0.15517284
77	0xbda1d2ea	-0.07901557
78	0xbdc429f9	-0.09578318
79	0xbd1f9838	-0.038963526
80	0xbe093a51	-0.13401152
81	0x3bda3b99	0.0066599366
82	0xbd9a756f	-0.0754193
83	0xbbcf6b1c	-0.006329907
84	0xbda00ec5	-0.07815317
85	0xbdf362bf	-0.11884069
86	0xbd73785b	-0.05944095
87	0xbd27e62f	-0.040991005
88	0xbd4bb545	-0.04973342
89	0xbb96bfb4	-0.0046004895
90	0xbe47d981	-0.19516565
91	0xbd31aa95	-0.04337557
92	0x3bd97d79	0.006637272
93	0xbd7ed0b1	-0.062210742
94	0xbd82bdf6	-0.063838884
95	0x3d3471c3	0.044053804
96	0x3b90db2b	0.004420658
97	0x3d9e606b	0.07733234
98	0xbda0a588	-0.078440726
99	0x3ccd26a4	0.02504284
100	0xbe631b39	-0.22178353
101	0xbcd52c7e	-0.026022192
102	0xbe32dfea	-0.17468229
103	0xbe00b4fc	-0.1256904
104	0x3b98fb38	0.0046686195
105	0xbda87e39	-0.082272
106	0x3d7ba701	0.061438564
107	0x3a277686	0.0006388206
108	0xbe16e04c	-0.14734
109	0xbd900211	-0.07031644
110	0xbca5a947	-0.02022232
111	0xbc9c325f	-0.019066988
112	0xbe24a374	-0.16077977
113	0xbe180533	-0.14845733
114	0xbdc7e0fa	-0.09759708
115	0xbdee886b	-0.116471134
116	0xbc9b3ba1	-0.018949332
117	0xbe36d489	-0.17854513
118	0x3ca63089	0.020286815
119	0xbe2a6a6f	-0.16642164
120	0x3d0209e7	0.031747725
121	0xbcedfb61	-0.02905053
122	0xbe0fcced	-0.14043017
123	0xbde9c9c3	-0.11415436
124	0x3c57d9de	0.013174502
125	0x3d0a20f4	0.033722833
126	0x3d1e1a1c	0.03859912
127	0x3daaeea3	0.083462976
128	0xbd251e12	-0.04031188
129	0x3d92c340	0.07166147
130	0x3d97c5a8	0.07410747
131	0x3dbfde8a	0.09368618
132	0x3db7e52c	0.08979258
133	0xbca4c34c	-0.020112656
134	0x3d78d10b	0.060746234
135	0x3dcb2ae1	0.09920288
136	0xbc93132e	-0.017953482
137	0xbbdd0718	-0.0067452304
138	0xbd604cbd	-0.054760683
139	0xbc94223b	-0.018082729
140	0xbd65f23b	-0.056139212
141	0x3d8cfef3	0.06884565
142	0x3d8ab073	0.06771936
143	0x3da3c39c	0.07996294
144	0xbd549e9d	-0.051909078
145	0xbc972a19	-0.01845269
146	0x3d3f1d5b	0.046658855
147	0x3dcf1e6f	0.101132266
148	0x3dec6f7b	0.11544701
149	0x3c502ac6	0.0127055105
150	0x3bc9071c	0.0061348807
151	0xbcb8ec03	-0.022573477
152	0xbd8b0854	-0.06788698
153	0xbdcdf430	-0.10056341
154	0xbdb14c2e	-0.08657108
155	0x3ce25f9d	0.027633483
156	0xbd9c4458	-0.07630223
157	0x3bfa9fe1	0.0076484536
158	0x3d300b94	0.04297979
159	0x3df0f2e1	0.117650755
160	0xbd3a21ad	-0.045442272
161	0x3d532f3d	0.05155872
162	0xbe08c77f	-0.13357352
163	0x3da65ff2	0.08123769
164	0xbdb94639	-0.09046597
165	0x3c569533	0.013097095
166	0xbd8695bf	-0.065715306
167	0xbc2cee01	-0.010554791
168	0x3d2cf620	0.04222691
169	0x3d8fdf11	0.070249684
170	0xba9c71fa	-0.0011935823
171	0x3d9b5165	0.07583884
172	0x3de44195	0.11145321
173	0xbdf4464d	-0.11927471
174	0xbd8d1e67	-0.068905644
175	0x3c96b1c1	0.018395307
176	0x3d9b6ff4	0.07589713
177	0x3d80ecfd	0.06295202
178	0x3d9f085c	0.07765266
179	0x3d9503bb	0.07276102
180	0x3bb19e8c	0.0054205116
181	0x3d11784f	0.035515126
182	0xbdcba84c	-0.099442095
183	0x3d8d5ab3	0.06902065
184	0xbd830ab1	-0.063985236
185	0xbdddcfab	-0.10830625
186	0xbdc6529b	-0.096837245
187	0xbc5009a9	-0.012697616
188	0xbd80787d	-0.06272981
189	0x3b92bdc9	0.0044781906
190	0x3e07e67f	0.13271521
191	0x3d043afd	0.032282818
192	0x3cd8e7f5	0.026477793
193	0xbce78433	-0.02826128
194	0xbd43587c	-0.047691807
195	0x3c9984a7	0.018740011
196	0xbe09fa8a	-0.1347448
197	0xbdcd518a	-0.10025318
198	0xbe2e7e3a	-0.17040339
199	0xbd8e33e6	-0.069434926
200	0xbd832138	-0.0640282
201	0xbdf63ea2	-0.12023665
202	0xbd7efdb8	-0.062253684
203	0xbe455cd1	-0.19273688
204	0xbdc48e94	-0.09597507
205	0x3dafe56e	0.08588682
206	0xbc222bf3	-0.009898174
207	0xbdb37949	-0.08763368
208	0xbbf18ac9	-0.007371281
209	0x3c7d3968	0.015455581
210	0xbe1a9f04	-0.15099722
211	0xbe09e130	-0.13464808
212	0xbd21ed32	-0.039532848
213	0xbdded2b2	-0.10880031
214	0x3d539513	0.05165584
215	0xba6a5f8f	-0.0008940631
216	0xbd99ccdf	-0.07509779
217	0xbd43bef5	-0.047789533
218	0xbd265cbb	-0.04061578
219	0xbe01f6a0	-0.12691736
220	0xbe3a3b84	-0.18186766
221	0xbd9a6647	-0.07539039
222	0xbe178c07	-0.1479951
223	0xbdb8e3e1	-0.090278395
224	0xbe10b4b8	-0.14131439
225	0xbda7cf26	-0.08193807
226	0xbe212497	-0.15736614
227	0xbe191cd6	-0.14952406
228	0xbe2ad7eb	-0.16683929
229	0xbe03ee6c	-0.1288392
230	0xbd930f19	-0.07180614
231	0xbd8dd6f7	-0.06925767
232	0xbe39a140	-0.18127918
233	0xbda7e9a0	-0.08198857
234	0xbdbd013e	-0.092287526
235	0xbb29c3a6	-0.002590397
236	0xbc7697ed	-0.01505087
237	0xbe682edc	-0.22674125
238	0xbd245c3d	-0.040127028
239	0xbd4836ce	-0.04888039
240	0x3d703d3c	0.058652148
241	0xbd9d8403	-0.07691195
242	0xbd9bcbbc	-0.076072186
243	0xbda19993	-0.0789062
244	0xbd258250	-0.04040748
245	0xbce67da0	-0.028136075
246	0xbe1c8760	-0.15286016
247	0xbe0a4286	-0.13501939
248	0xbe0a9042	-0.13531592
249	0xbd41aa9d	-0.04728185
250	0xbcd5f208	-0.026116386
251	0x3c5c52d1	0.013447479
252	0xbc5ca59e	-0.013467221
253	0x3dcb1d39	0.09917683
254	0x3cb2da6e	0.021832671
255	0xbd748b81	-0.059703354
