Competition/TrainAI/model/c70/model_weights_2.pth (torch, 441743 bytes, 18 tensors)

lstm.weight_ih_l0 f4 [256, 34]
0.097201474 -0.013058914 0.07012613 0.21295467 -0.01916424 0.049919043 0.21422778 0.0982226
-0.008760427 0.03928613 -0.1523348 -0.024063697 -0.040924143 0.08015435 -0.07844314 -0.06616443
0.18074723 0.04051442 0.27450168 -0.092419714 -0.08426672 0.11646556 -0.09151614 -0.11826565
-0.0005131656 -0.0074388282 0.03416172 0.06712939 -0.06841596 -0.039578937 -0.05225312 -0.091423556
0.020159125 0.08489521 -0.03284301 0.090740025 -0.13628161 0.20168822 0.1159381 -0.15550847
0.14465705 0.035078272 -0.15306213 0.06297075 0.19147645 0.019890973 0.14585675 0.013567851
0.19741772 -0.032938834 0.22997777 -0.09567154 0.001290019 -0.009026507 0.038007956 0.10659567
0.14008741 0.18119802 0.117044024 0.16802126 0.1368195 -0.04222382 0.11079459 0.14477
0.04538738 -0.11369311 -0.12200079 -0.05292098 -0.010846194 -0.0326056 0.0136757 0.17398284
0.13396242 0.09065974 0.046025597 -0.034687385 0.06985492 -0.097446494 0.06444068 0.155296
-0.01026368 0.0117293615 0.16670227 -0.14532168 -0.033339128 0.072991595 0.037662495 -0.08631987
0.14486013 -0.049780685 0.02268945 -0.16570087 0.054290395 -0.05330461 -0.13556924 0.117030375
-0.06420094 0.07413712 -0.02763456 0.056559145 0.04402548 -0.08286235 -0.06064846 0.07158859
-0.107917726 -0.042060062 0.06729379 0.11292321 -0.029392332 -0.07204297 -0.01066024 0.1459987
-0.07049133 0.029190972 -0.0042035785 0.1076067 0.004393368 -0.01648477 0.1297535 0.10041771
0.13772538 -0.008597381 -0.068250015 0.033173304 0.14732756 -0.044704806 0.009131048 0.052425925
-0.013456965 -0.06435678 0.025985917 0.13548826 0.10003286 0.042513993 0.06750031 0.116684064
0.039720412 -0.0022414948 0.1799684 0.02124595 0.06943766 0.008389195 0.074062414 -0.07797187
0.024791982 0.14066373 0.13188072 0.053999893 0.022202348 -0.03131854 -0.16378862 -0.03048395
0.009650678 -0.03186497 -0.017913772 -0.07480961 -0.06921843 -0.04689794 -0.14597826 0.005764711
-0.052083004 -0.005710163 0.067756824 -0.14637692 -0.08153919 -0.043365266 -0.012413529 0.04446455
0.13841173 -0.15463315 -0.23925538 0.12671566 0.043250617 0.056482393 0.02268263 0.0001094786
-0.144386 0.021494074 0.040928237 -0.09396169 0.06401638 0.19773003 0.008333823 -0.027593572
0.13569841 0.02687626 -0.19307902 0.117495485 -0.09116704 -0.064613976 0.009724665 0.032895353
0.11472699 -0.10368562 -0.007193736 -0.13782074 0.13639238 0.011795849 0.040584166 0.07191369
-0.08664259 -0.09797171 0.034102947 0.0869118 0.19961706 -0.024695786 0.039147817 0.0971913
0.04968738 0.00896047 0.09464421 0.053804316 0.04212131 0.048270643 0.041149788 -0.020035673
-0.0076734615 -0.04194581 0.034176 -0.117257416 -0.03178534 -0.103943445 0.044173174 0.12510675
-0.11736675 0.08790285 -0.15737839 -0.054798905 0.17034194 0.049257956 0.078097306 -0.013527627
-0.07497968 -0.09508621 0.043768376 0.124618545 0.08840367 -0.0113940835 0.0014217172 0.20406608
-0.3616139 0.05471777 0.32024506 0.21942516 -0.06693952 0.36447397 0.3495168 0.115689464
0.19006206 0.2124694 0.17265277 0.19697347 0.24804148 0.14046142 0.46167645 0.3662064
00000000: 9111 c73d 0ef5 55bc 4a9e 8f3d ca10 5a3e
00000010: 53fe 9cbc e977 4c3d 875e 5b3e ee28 c93d
00000020: e587 0fbc 7eea 203d a7fd 1bbe 3b21 c5bc
00000030: 13a0 27bd f727 a43d cca6 a0bd 3781 87bd
00000040: cd15 393e 73f2 253d 7c8b 8c3e 8c46 bdbd
00000050: 0894 acbd 7f85 ee3d d06c bbbd 4335 f2bd
00000060: f685 06ba 6ac1 f3bb 29ed 0b3d 227b 893d
00000070: ab1d 8cbd 861d 22bd 5e07 56bd 463c bbbd
00000080: c024 a53c 8add ad3d 6486 06bd e8d5 b93d
00000090: 688d 0bbe 5b87 4e3e f470 ed3d 9d3d 1fbe
000000a0: fa20 143e 3cae 0f3d 52bc 1cbe cff6 803d
000000b0: 6712 443e 65f2 a23c 795b 153e b14b 5e3c
000000c0: df27 4a3e dfea 06bd 4b7f 6b3e 71ef c3bd
000000d0: db15 a93a eae3 13bc 3bae 1b3d d54e da3d
000000e0: 1373 0f3e f98b 393e c7b4 ef3d c40d 2c3e
000000f0: 691a 0c3e e2f2 2cbd 46e8 e23d 963e 143e
00000100: 1ee8 393d efd7 e8bd 8ddb f9bd abc3 58bd
00000110: 3cb4 31bc 738d 05bd 0b10 603c 8f28 323e
00000120: 722d 093e d0ab b93d 5685 3c3d 5c14 0ebd
00000130: 1910 8f3d 0792 c7bd 7af9 833d ea05 1f3e
00000140: fe28 28bc 822c 403c 00b4 2a3e 35cf 14be
00000150: 9c8e 08bd 9e7c 953d fd43 1a3d 79c8 b0bd
00000160: 3756 143e d5e6 4bbd 3adf b93c 7dad 29be
00000170: 9b5f 5e3d ef55 5abd aad2 0abe 9fad ef3d
00000180: c87b 83bd 34d5 973d df61 e2bc 90aa 673d
00000190: 1054 343d bcb3 a9bd 856a 78bd 0a9d 923d
000001a0: f803 ddbd 2c47 2cbd 54d1 893d 4944 e73d
000001b0: 30c8 f0bc 448b 93bd 4aa8 2ebc af80 153e
000001c0: c25d 90bd e821 ef3c 2cbe 89bb e760 dc3d
000001d0: 3ef6 8f3b 120b 87bc 1ade 043e cda7 cd3d
000001e0: e207 0d3e 08dc 0cbc aac6 8bbd bbe0 073d
000001f0: 09dd 163e 631c 37bd 649a 153c 91bc 563d
00000200: 9a7a 5cbc 7dcd 83bd 6be0 d43c 6fbd 0a3e
00000210: 07de cc3d 2723 2e3d 9a3d 8a3d 0ef8 ee3d
00000220: dfb1 223d 0be6 12bb a349 383e fd0b ae3c
00000230: 5535 8e3d d672 093c 09ae 973d b7af 9fbd
00000240: 8e18 cb3c 270a 103e bd0b 073e fe2e 5d3d
00000250: b3e1 b53c df47 00bd 34b8 27be 7ab9 f9bc
00000260: e11d 1e3c d884 02bd e7bf 92bc c835 99bd
00000270: 64c2 8dbd 0e18 40bd 537b 15be e7e5 bc3b
00000280: fd54 55bd 521c bbbb 17c4 8a3d d5e3 15be
00000290: 05fe a6bd c79f 31bd 1d62 4bbc 7620 363d
000002a0: cebb 0d3e 2758 1ebe 5dff 74be c0c1 013e
000002b0: 8f27 313d 155a 673d ecd0 b93c e097 e538
000002c0: ecd9 13be 5714 b03c 5ea4 273d fd6e c0bd
000002d0: 051b 833d be79 4a3e 968a 083c ea0b e2bc
000002e0: 86f4 0a3e 9a2b dc3c 82b6 45be 79a1 f03d
000002f0: c9b5 babd 5554 84bd 3454 1f3c 47bd 063d
00000300: fcf5 ea3d 2059 d4bd 6eb9 ebbb e120 0dbe
00000310: 72aa 0b3e 6043 413c 953b 263d 7c47 933d
00000320: ac71 b1bd 64a5 c8bd 88af 0b3d d0fe b13d
00000330: 6a68 4c3e d14e cabc 7659 203d 3b0c c73d
00000340: ff84 4b3d efce 123c d3d4 c13d ea61 5c3d
00000350: 6587 2c3d 70b7 453d ae8c 283d da21 a4bc
00000360: a971 fbbb 5fcf 2bbd 22fc 0b3d a824 f0bd
00000370: 5831 02bd 4de0 d4bd eeee 343d fc1b 003e
00000380: fb5d f0bd 6906 b43d cd27 21be d174 60bd
00000390: 1e6e 2e3e b6c2 493d 7bf1 9f3d fba2 5dbc
000003a0: f28e 99bd 8fbc c2bd 7846 333d 0238 ff3d
000003b0: fc0c b53d 40ae 3abc ea58 ba3a b3f6 503e
000003c0: 7525 b9be be1f 603d 29f7 a33e fdb0 603e
000003d0: 9617 89bd 559c ba3e def3 b23e 99ee ec3d
000003e0: a19f 423e 9491 593e e3cb 303e 6ab3 493e
000003f0: 96fe 7d3e 1ed5 0f3e db60 ec3e 687f bb3e

lstm.weight_hh_l0 f4 [256, 64]
-0.08918927 0.05619662 -0.013583475 0.11026815 -0.15822165 0.01754905 -0.08175164 0.07883385
0.049421113 0.09865346 -0.0009511915 -0.00096188963 0.0048709046 -0.027771406 0.060324714 -0.11798018
-0.1778445 -0.13655561 0.025686843 -0.05431869 0.15279564 -0.14846756 -0.15776052 0.061632533
-0.02358665 0.005515436 -0.0040168273 -0.043663178 0.06757518 0.02119893 -0.085089095 0.12723745
-0.16169532 -0.0001278909 0.110202454 0.0044327644 -0.13966447 -0.061795413 0.05971471 0.019588457
0.14214087 -0.070726566 0.0069435146 -0.025412617 -0.046353832 -0.005224304 0.036826037 -0.07976841
-0.09571492 0.013879355 -0.12696585 0.0046069007 0.057129133 0.09370129 -0.07665033 -0.105485834
0.120305955 0.02202046 -0.13621439 -0.0777232 0.09628951 -0.03473093 -0.007250698 -0.10990986
0.12356286 -0.015789064 -0.11217431 -0.18288112 0.05218018 0.1104462 -0.124601535 0.11208824
-0.058741484 -0.067682505 0.04939238 0.036826484 0.13910586 -0.018751174 -0.053352155 0.15572877
0.08830318 -0.16929978 -0.13648364 -0.10692007 0.009979481 0.13515213 0.017115759 -0.1026389
0.0594879 -0.0024862234 0.037231695 0.1270676 -0.009340323 0.038791765 -0.044186108 -0.13688315
0.1463258 0.021651516 -0.049683735 -0.07802153 0.016196052 0.1528656 -0.14746843 0.14408556
0.054644935 0.099836804 -0.0077213864 -0.041879635 -0.12506267 0.10423362 -0.111434385 0.12398019
0.18209243 0.14475743 0.05441077 -0.008526536 0.028568309 0.06909329 -0.11344038 0.1870696
-0.063781 0.0048742467 0.063081525 0.025460502 -0.09219505 0.04976688 0.15763919 -0.18301614
-0.12447419 -0.0840874 -0.09055458 -0.08494958 0.024374934 0.08308964 -0.0018276105 -0.05660752
0.015537174 0.16983667 0.057584904 0.049461458 -0.11758669 -0.034933254 -0.08046108 0.12255773
0.15433203 -0.008006914 0.13367766 -0.05082895 0.05687335 0.089815944 -0.058231186 -0.13642317
0.11420167 0.052149367 0.103094876 0.06061351 -0.046213813 -0.002461467 -0.06420404 -0.048022367
0.035553478 -0.078956924 0.05025725 0.04771281 0.07230187 0.02240592 0.09966353 -0.10952801
0.07332642 0.12098556 0.11726221 0.118074745 0.035833407 0.07799501 -0.07775628 -0.07505662
-0.006444094 0.07688689 -0.110197455 -0.04007214 -0.045638427 0.05064827 0.17714758 -0.06383922
0.034004953 0.12546004 0.08656627 -0.0045661903 0.05954304 -0.07952774 0.10109119 -0.08223442
0.063794 0.0546571 -0.14570025 0.037703194 0.08636991 -0.033024833 0.013716306 -0.15617472
-0.14129846 0.04591817 0.13103504 0.089098945 -0.026950527 -0.07511534 -0.031269528 -0.069157876
0.06909559 0.09905867 0.026031377 -0.007724243 -0.11471712 0.14405572 0.021573197 0.06684165
-0.003427343 0.034177218 0.12226337 0.021068051 0.15846331 -0.17060001 -0.17940864 0.06417702
-0.00014391629 0.07991842 0.07690139 -0.12810856 0.08913392 0.07861824 0.05438456 0.046807997
-0.04107731 0.03313879 -0.01787022 -0.0042037037 -0.036439616 0.14707775 -0.10155036 -0.04294352
0.07977411 0.08250176 0.04274502 0.002550807 0.0587754 -0.02015386 -0.11557379 -0.09551922
0.045780063 0.11430398 0.017905029 0.11969295 0.021236805 -0.13580729 0.025218328 0.06878159
00000000: dda8 b6bd 6d2e 663d 398d 5ebc 45d4 e13d
00000010: db04 22be 06c3 8f3c 676d a7bd a473 a13d
00000020: cb6d 4a3d d30a ca3d 6259 79ba 5227 7cba
00000030: 1c9c 9f3b dc80 e3bc 0c17 773d 989f f1bd
00000040: de1c 36be 3cd5 0bbe 376d d23c 467d 5ebd
00000050: 7676 1c3e e107 18be f98b 21be 6572 7c3d
00000060: ca38 c1bc d5ba b43b 979f 83bb 29d8 32bd
00000070: db64 8a3d 61a9 ad3c 3143 aebd 894a 023e
00000080: 7593 25be 741a 06b9 d3b1 e13d b940 913b
00000090: 3404 0fbe 301d 7dbd 6997 743d f977 a03c
000000a0: 608d 113e 17d9 90bd 6c86 e33b 1f2e d0bc
000000b0: 84dd 3dbd a330 abbb e6d6 163d 9f5d a3bd
000000c0: 2f06 c4bd 3c66 633c 5603 02be 7cf5 963b
000000d0: 3d00 6a3d 76e6 bf3d d9fa 9cbd f508 d8bd
000000e0: f862 f63d 4064 b43c c97b 0bbe 572d 9fbd
000000f0: 6f33 c53d 0542 0ebd 4397 edbb 6c18 e1bd
00000100: 860e fd3d 1158 81bc a5bb e5bd 3045 3bbe
00000110: e2ba 553d 9e31 e23d 172f ffbd 858e e53d
00000120: e99a 70bd 209d 8abd aa4f 4a3d 5ed7 163d
00000130: c471 0e3e 109c 99bc ca87 5abd 5d77 1f3e
00000140: 4cd8 b43d ec5c 2dbe 5ec2 0bbe e9f8 dabd
00000150: fa80 233c 5265 0a3e 5936 8c3c 5834 d2bd
00000160: 96a9 733d e8ef 22bb 4380 183d 021e 023e
00000170: 2708 19bc 1de4 1e3d 7efc 34bd 192b 0cbe
00000180: 6ed6 153e 855e b13c 2c81 4bbd c0c9 9fbd
00000190: 95ad 843c cd88 1c3e f701 17be 2a8b 133e
000001a0: 5ed3 5f3d 3d77 cc3d af03 fdbb fb89 2bbd
000001b0: 6e10 00be 7078 d53d b637 e4bd 53e9 fd3d
000001c0: 7076 3a3e 4b3b 143e d4dd 5e3d e2b2 0bbc
000001d0: 1608 ea3c c880 8d3d 6e53 e8bd 2c8f 3f3e
000001e0: 9d9f 82bd 25b8 9f3b e330 813d 8b92 d03c
000001f0: c2d0 bcbd 5bd8 4b3d 2b6c 213e 9568 3bbe
00000200: 53ec febd 0436 acbd ae74 b9bd 0cfa adbd
00000210: f1ad c73c e72a aa3d 6f8c efba 49dd 67bd
00000220: a28f 7e3c aae9 2d3e 26de 6b3d 1998 4a3d
00000230: 4ad1 f0bd 2c16 0fbd c7c8 a4bd 8cff fa3d
00000240: 3709 1e3e 6e2f 03bc cce2 083e 0432 50bd
00000250: 08f4 683d 6cf1 b73d d383 6ebd 84b2 0bbe
00000260: 91e2 e93d 939a 553d 6823 d33d df45 783d
00000270: b24a 3dbd 9050 21bb 687d 83bd 1ab3 44bd
00000280: 86a0 113d 2bb4 a1bd 8cda 4d3d 826e 433d
00000290: 0113 943d 9f8c b73c 651c cc3d 3950 e0bd
000002a0: 292c 963d 47c7 f73d 2b27 f03d 2cd1 f13d
000002b0: 0dc6 123d d9bb 9f3d af3e 9fbd 49b7 99bd
000002c0: fa28 d3bb e076 9d3d 34af e1bd af22 24bd
000002d0: 5cef 3abd 8f74 4f3d 2d66 353e 23be 82bd
000002e0: c748 0b3d 9978 003e a849 b13d fb9f 95bb
000002f0: 67e3 733d 71df a2bd e608 cf3d 856a a8bd
00000300: 6ea6 823d 20e0 5f3d 7232 15be aa6e 1a3d
00000310: b5e2 b03d 0c45 07bd 5bba 603c 44ec 1fbe
00000320: 8bb0 10be b114 3c3d 0d2e 063e 8279 b63d
00000330: 5ac7 dcbc 12d6 99bd 7a14 00bd a5a2 8dbd
00000340: fd81 8d3d 46df ca3d c13f d53c a61b fdbb
00000350: cff0 eabd 5883 133e 46ba b03c 46e4 883d
00000360: 469d 60bb 69fd 0b3d 3865 fa3d e896 ac3c
00000370: 3544 223e c5b1 2ebe e6b6 37be 3e6f 833d
00000380: 3ce8 16b9 45ac a33d 7a7e 9d3d e42e 03be
00000390: d88b b63d 9a02 a13d 58c2 5e3d beb9 3f3d
000003a0: ae40 28bd 8abc 073d 9164 92bc 39bf 89bb
000003b0: b541 15bd 8d9b 163e a3f9 cfbd 8be5 2fbd
000003c0: 9c60 a33d aff6 a83d 6715 2f3d 712b 273b
000003d0: 79be 703d b519 a5bc f4b1 ecbd 959f c3bd
000003e0: e083 3b3d 3418 ea3d 91ad 923c 9421 f53d
000003f0: cff8 ad3c 1111 0bbe ab96 ce3c 5ddd 8c3d

lstm.bias_ih_l0 f4 [256]
0.11610031 -0.11879055 0.03854955 0.03803663 0.15264016 -0.14089395 0.021806957 0.103826076
0.05028325 -0.025541678 0.084792994 -0.0550424 0.058330867 0.114759855 -0.0048932633 -0.0574949
-0.08904929 -0.054728262 -0.18915756 0.06055714 0.06563105 0.015786164 0.01674911 -0.16301523
-0.06732189 -0.0067098844 -0.07128489 0.13542867 -0.02521766 -0.000494262 0.06883745 -0.12167901
-0.0031662208 -0.011413115 -0.18539898 0.12937321 0.030461084 -0.07797083 -0.05136688 -0.18668015
0.14963022 -0.11541602 0.0018950772 0.15333736 -0.020278543 -0.006657983 -0.06920717 -0.08275879
0.043982025 -0.11679726 0.08743207 0.1674386 -0.14610511 0.15741965 0.20528843 0.15593174
0.060438175 0.05436746 -0.17566378 0.053025775 0.010608698 0.082960606 0.023866177 0.15266663
-0.039135363 -0.052593898 0.022060623 -0.15144283 0.086169094 -0.14597183 -0.16811384 -0.0026237534
-0.05098357 -0.05392626 -0.17482033 -0.02594653 -0.075777285 -0.025289098 -0.040145975 -0.030375855
-0.011949664 0.003640983 -0.035410404 -0.07106536 0.073544 0.16475219 0.016915245 -0.118582405
-0.05041219 -0.22897072 0.09269298 0.039448645 -0.17418677 0.02269615 0.017289914 -0.17957895
-0.076007605 -0.12836158 0.030560944 0.002044023 0.13098408 0.019425534 -0.034324825 0.04438769
0.018460065 -0.112730674 -0.1662685 -0.11002127 0.15131836 -0.13523658 -0.16445774 -0.12654074
-0.036628213 0.01376957 0.09252535 -0.123964556 -0.16759369 -0.08142682 0.12546358 0.14760987
-0.02168942 -0.23177476 -0.17234348 0.051460356 -0.026039928 -0.1806813 0.05203702 0.040269345
0.06580601 -0.036655206 0.12411185 -0.0852731 -0.060732555 0.05398512 -0.13068414 0.09751408
0.013471044 -0.021754906 -0.032066528 -0.04823662 0.07546296 0.046570137 0.052788876 -0.00580668
-0.054378636 0.06206824 -0.10557168 -0.08879119 0.12924974 -0.10803694 -0.022417473 -0.0803147
-0.02637479 -0.07465181 0.09595815 -0.10133884 -0.08447536 0.017195063 -0.12047038 0.08750379
0.029945916 0.041514643 0.055237018 -0.09363756 -0.020732202 0.06967838 0.100151815 0.20606554
-0.064239554 -0.004689753 0.014466737 -0.02559234 -0.029005095 -0.054214902 -0.08374325 0.085150085
-0.012281272 0.02415129 -0.08588948 -0.0070682513 0.15338188 -0.13843435 -0.053218044 -0.056244675
0.1647214 0.025260165 0.08690938 -0.090066485 -0.08433531 -0.09294978 0.16036795 0.115100175
-0.022651639 -0.049801774 -0.09452469 0.079719536 -0.043303713 -0.08776233 -0.097125754 0.05213096
-0.00084489153 -0.16046222 0.28500888 -0.0040919757 -0.12882414 -0.1213919 -0.04747534 -0.0473658
0.016942097 0.09426915 -0.09547912 -0.16759472 0.005707518 0.06773788 -0.0097888205 -0.1011693
0.035222553 -0.1263813 0.039204568 0.10402453 0.022048626 -0.16588266 0.0209352 -0.16861387
0.03143501 0.009966665 -0.1299748 -0.16841353 0.081407204 -0.0415183 0.10970964 -0.07802701
-0.16902436 -0.16937342 -0.121419325 0.09759419 0.00014314926 0.03501037 0.008904981 -0.17489344
0.123131156 -0.09514195 -0.1595255 -0.16046707 -0.1385658 0.186728 -0.1929141 0.018745096
-0.013946317 -0.0063671437 -0.016085226 0.06330057 -0.21201997 -0.2099614 -0.067894 0.12038815
00000000: 00c6 ed3d 7648 f3bd 22e6 1d3d 4ccc 1b3d
00000010: b44d 1c3e 8146 10be 81a4 b23c c4a2 d43d
00000020: cff5 4d3d c83c d1bc f3a7 ad3d 2474 61bd
00000030: 59ec 6e3d 3707 eb3d ab57 a0bb c67f 6bbd
00000040: 795f b6bd be2a 60bd 85b2 41be c30a 783d
00000050: 9269 863d fc51 813c 6e35 893c 77ed 26be
00000060: 0fe0 89bd 97de dbbb d0fd 91bd d0ad 0a3e
00000070: 4495 cebc 5d91 01ba a6fa 8c3d d832 f9bd
00000080: 5f80 4fbb 13fe 3abc 3bd9 3dbe 697a 043e
00000090: 8689 f93c 2caf 9fbd 1466 52bd 1529 3fbe
000000a0: aa38 193e 3c5f ecbd 3d64 f83a 7804 1d3e
000000b0: 301f a6bc 362b dabb 7dbc 8dbd 717d a9bd
000000c0: 7f26 343d 6733 efbd 960f b33d 0675 2b3e
000000d0: 949c 15be 9e32 213e 2137 523e 92ac 1f3e
000000e0: 058e 773d 6ab0 5e3d 35e1 33be 8e31 593d
000000f0: 1bd0 2d3c 40e7 a93d 0083 c33c a454 1c3e
00000100: 674c 20bd b36c 57bd 7bb8 b43c d413 1bbe
00000110: 6c79 b03d a479 15be 0926 2cbe 47f3 2bbb
00000120: 26d4 50bd c8e1 5cbd 1a04 33be d18d d4bc
00000130: 1f31 9bbd 152b cfbc 1b70 24bd c9d6 f8bc
00000140: 86c8 43bc 8f9d 6e3b 800a 11bd b78a 91bd
00000150: 3d9e 963d ccb4 283e d791 8a3c 55db f2bd
00000160: 037d 4ebd 4d77 6abe d1d5 bd3d e794 213d
00000170: 045e 32be 47ed b93c 94a3 8d3c 8be3 37be
00000180: e0a9 9bbd 3871 03be f25a fa3c 04f5 053b
00000190: b120 063e 4c22 9f3c 3098 0cbd decf 353d
000001a0: 9039 973c 57df e6bd 4a42 2abe d552 e1bd
000001b0: 33f3 1a3e 757b 0abe 9c67 28be e593 01be
000001c0: 7707 16bd c399 613c ee7d bd3d 21e1 fdbd
000001d0: ae9d 2bbe 1bc3 a6bd 8679 003e 0b27 173e
000001e0: 03ae b1bc 5d56 6dbe cf7a 30be 18c8 523d
000001f0: b051 d5bc 8504 39be c524 553d 78f1 243d
00000200: 4dc5 863d c523 16bd 5b2e fe3d aaa3 aebd
00000210: b3c2 78bd 801f 5d3d 10d2 05be 76b5 c73d
00000220: a7b5 5c3c 5837 b2bc 3158 03bd c393 45bd
00000230: 538c 9a3d 54c0 3e3d 2639 583d f645 bebb
00000240: 22bc 5ebd 443b 7e3d f735 d8bd 28d8 b5bd
00000250: 0b5a 043e 7942 ddbd d9a4 b7bc 097c a4bd
00000260: f20f d8bc 0ce3 98bd b585 c43d bd8a cfbd
00000270: 6b01 adbd a9dc 8c3c 2db9 f6bd 3035 b33d
00000280: 2351 f53c 420b 2a3d 3640 623d 0dc5 bfbd
00000290: 94d6 a9bc 8ab3 8e3d 651c cd3d d802 533e
000002a0: 0790 83bd 80ac 99bb e505 6d3c 07a7 d1bc
000002b0: 189c edbc 7210 5ebd 9581 abbd 2b63 ae3d
000002c0: 6337 49bc edd8 c53c d3e6 afbd ca9c e7bb
000002d0: 2410 1d3e bcc1 0dbe 2afb 59bd d160 66bd
000002e0: baac 283e 68ee ce3c 8cfd b13d c774 b8bd
000002f0: feb7 acbd 745c bebd 7f37 243e a4b9 eb3d
00000300: ee8f b9bc f2fc 4bbd 2996 c1bd ff43 a33d
00000310: 3c5f 31bd bdbc b3bd dee9 c6bd 4687 553d
00000320: b67b 5dba 3550 24be afec 913e fb15 86bb
00000330: 7aea 03be 519c f8bd 8175 42bd a402 42bd
00000340: 27ca 8a3c 2f10 c13d 8f8a c3bd f39d 2bbe
00000350: 2206 bb3b 28ba 8a3d 4a61 20bc da31 cfbd
00000360: 8645 103d 196a 01be f894 203d d00a d53d
00000370: 529f b43c 25dd 29be 4c80 ab3c 1da9 2cbe
00000380: ffc1 003d 394b 233c 1d18 05be 9974 2cbe
00000390: d2b8 a63d 180f 2abd 73af e03d a0cc 9fbd
000003a0: b914 2dbe 3a70 2dbe b2aa f8bd 76df c73d
000003b0: 561a 1639 0967 0f3d 33e6 113c 4417 33be
000003c0: 302c fc3d c8d9 c2bd a75a 23be 7b51 24be
000003d0: 31e4 0dbe a035 3f3e 468b 45be 518f 993c
000003e0: 187f 64bc 79a3 d0bb 2ac5 83bc bba3 813d
000003f0: c31b 59be 1f00 57be 020c 8bbd 108e f63d

lstm.bias_hh_l0 f4 [256]
0.07691136 0.044563144 0.051552005 -0.07159037 0.1615104 -0.18213944 0.045489207 0.009766275
0.06688156 0.19361624 0.13796593 0.004884258 -0.1282162 0.15749331 -0.101971135 0.012251559
-0.08391852 -0.10712073 -0.17500982 0.016729278 -0.010353757 0.042248175 0.060826074 -0.07080412
-0.10629378 -0.06409732 0.03696022 0.019839564 0.00817008 -0.14110883 0.048627276 -0.019715302
0.01664032 0.013868338 -0.20628913 0.13823916 -0.025841398 0.06043557 -0.038273767 -0.14943759
0.058348566 -0.15627487 -0.0059747645 0.14720073 0.014860895 -0.16791749 -0.16332394 -0.020253547
0.025564257 0.0075197527 0.0898148 -0.057619948 0.039522156 0.014730738 0.007324921 0.033737347
0.040147662 0.06068854 -0.050007824 0.10995594 0.027148409 -0.047186963 -0.025323236 0.16188484
-0.005641689 -0.15403119 0.08779863 0.04194597 -0.086815044 -0.12517257 0.020497171 -0.009489134
-0.0796423 0.010063509 -0.19435853 -0.11368792 0.07779042 -0.0071345186 0.008545117 -0.09900132
-0.14543344 0.17564149 -0.073282115 -0.02161875 0.0067544156 -0.041924257 -0.004284855 -0.15575981
-0.22381023 -0.1790679 0.046738796 0.13312027 -0.09986867 -0.04200544 0.04461896 -0.010246275
0.03518056 -0.12311792 -0.11823552 -0.023579294 0.1798948 -0.0012266578 -0.033666175 0.0682059
-0.20933658 -0.09520573 -0.07443911 -0.12639141 0.12463335 0.048373573 -0.104329154 -0.072451845
0.13577197 -0.0939061 0.11914354 -0.010665633 0.013641943 -0.008331201 -0.028106641 0.13245031
0.020507993 0.005968919 -0.12411942 -0.008913463 0.0047446913 -0.1887396 0.13969351 0.17743883
0.08085365 -0.12294168 0.078013405 0.08700706 -0.036763567 -0.06570172 0.075596265 0.15508413
-0.11095636 -0.026110891 -0.06708045 -0.072640575 0.17269175 0.03911349 0.052281592 0.09193693
0.17602432 -0.096253976 0.020468859 -0.16006958 0.067321554 -0.024326937 0.061929077 0.061603222
0.037048735 0.13611569 -0.11109155 0.076610796 -0.101205625 -0.054554775 0.07097445 0.10539234
-0.09258466 -0.06755113 -0.08916608 -0.04914092 -0.14945556 -0.14516015 0.08027635 0.035675578
0.08101942 0.03591207 -0.09273223 -0.06618904 0.005087968 0.116528615 0.06265369 0.005443843
0.0005600609 -0.006231494 -0.15946916 -0.04200883 0.038477823 -0.1255263 0.007660065 0.03634352
0.13699518 0.11890737 0.10866779 -0.11891853 -0.152969 0.056100965 0.11744381 0.12463224
0.09916128 -0.064700305 0.029934546 -0.017952705 -0.070776336 0.02885233 -0.021871667 0.033913415
0.055571243 -0.15162852 0.1442041 -0.1257383 -0.12919727 -0.08269504 -0.05212449 -0.081424706
-0.10252276 -0.07265671 -0.23559532 -0.18322422 -0.09390797 0.027402975 0.08883686 0.0812421
-0.071849406 0.07976991 -0.14114161 0.0062248125 -0.06370506 -0.07384032 -0.15118538 0.011079031
-0.041042764 -0.05220905 0.014405998 -0.10167715 0.12128775 -0.09279454 -0.025777595 -0.085212424
-0.024332361 -0.0062143924 -0.064331226 0.18915187 0.0799024 -0.02054976 0.01469729 0.007516087
0.02157356 -0.11660199 0.0031580504 -0.1316942 -0.057010576 0.110733904 -0.17385322 0.021420827
0.05065342 -0.032415 -0.025743818 0.14585687 -0.13470756 -0.062012613 -0.056440644 0.23246789
00000000: b483 9d3d d887 363d 3228 533d f99d 92bd
00000010: fb62 253e c382 3abe e452 3a3d ba02 203c
00000020: 33f9 883d 5643 463e f146 0d3e 200c a03b
00000030: 1c4b 03be ed45 213e 3ed6 d0bd c3ba 483c
00000040: 79dd abbd 1d62 dbbd c635 33be d70b 893c
00000050: cea2 29bc 6c0c 2d3d c324 793d c001 91bd
00000060: 8eb0 d9bd 7545 83bd 9a63 173d 9586 a23c
00000070: cddb 053c d57e 10be 652d 473d fc81 a1bc
00000080: 4851 883c 0738 633c 753d 53be 918e 0d3e
00000090: 57b1 d3bc 4a8b 773d f4c4 1cbd 2b06 19be
000000a0: e8fe 6e3d 8506 20be f5c7 c3bb cabb 163e
000000b0: 1d7b 733c 90f2 2bbe 643e 27be c4ea a5bc
000000c0: 226c d13c 4268 f63b d2f0 b73d e502 6cbd
000000d0: fce1 213d 3159 713c e405 f03b 2c30 0a3d
000000e0: e071 243d 8c94 783d 01d5 4cbd 9430 e13d
000000f0: 5766 de3c 1e47 41bd ad72 cfbc 24c5 253e
00000100: ebdd b8bb 5aba 1dbe c5cf b33d 8acf 2b3d
00000110: 16cc b1bd 3d2d 00be afe9 a73c 5078 1bbc
00000120: 811b a3bd 6be1 243c ec05 47be 36d5 e8bd
00000130: 9550 9f3d aec8 e9bb d200 0c3c 34c1 cabd
00000140: 81ec 14be 5ddb 333e ef14 96bd ce19 b1bc
00000150: 2554 dd3b c5b8 2bbd f867 8cbb 807f 1fbe
00000160: 822e 65be 935d 37be 2e71 3f3d ae50 083e
00000170: f287 ccbd e50d 2cbd 5fc2 363d fedf 27bc
00000180: 7e19 103d 3f25 fcbd 7725 f2bd 5d29 c1bc
00000190: 5836 383e cec7 a0ba 8be5 09bd 89af 8b3d
000001a0: 545c 56be 39fb c2bd 8873 98bd c06c 01be
000001b0: c53f ff3d 5e23 463d 86aa d5bd a261 94bd
000001c0: cf07 0b3e d751 c0bd 8701 f43d e8be 2ebc
000001d0: 7582 5f3c 977f 08bc e63f e6bc 0ea1 073e
000001e0: 6100 a83c ec96 c33b 5332 febd c609 12bc
000001f0: 5b79 9b3b f444 41be d10b 0f3e 86b2 353e
00000200: 9996 a53d d9c8 fbbd 7ec5 9f3d c230 b23d
00000210: 6595 16bd a08e 86bd 37d2 9a3d 60ce 1e3e
00000220: 173d e3bd 82e6 d5bc 7a61 89bd 95c4 94bd
00000230: 1bd6 303e 7835 203d 3925 563d 6e49 bc3d
00000240: b83f 343e ce20 c5bd 4fae a73c 48e9 23be
00000250: e2df 893d 4949 c7bc 58a9 7d3d a953 7c3d
00000260: 6ac0 173d e961 0b3e f783 e3bd 1fe6 9c3d
00000270: e544 cfbd d474 5fbd 0d5b 913d f0d7 d73d
00000280: 079d bdbd 3f58 8abd b59c b6bd fd47 49bd
00000290: e10a 19be dda4 14be ed67 a43d 8e20 123d
000002a0: 82ed a53d 8918 133d 65ea bdbd 1f8e 87bd
000002b0: f8b8 a63b 8ea6 ee3d 9450 803d 4462 b23b
000002c0: 0dd1 123a 8f31 ccbb e24b 23be 7311 2cbd
000002d0: ec9a 1d3d f789 00be 4801 fb3b f1dc 143d
000002e0: 7748 0c3e b585 f33d 388d de3d 8f8b f3bd
000002f0: e8a3 1cbe 20ca 653d 6186 f03d 303f ff3d
00000300: 1215 cb3d 9881 84bd 4b39 f53c 8d11 93bc
00000310: 2ff3 90bd b95b ec3c 362c b3bc cbe8 0a3d
00000320: ac9e 633d 8244 1bbe 3daa 133e 8ac1 00be
00000330: 4a4c 04be 045c a9bd 7d80 55bd ffc1 a6bd
00000340: 74f7 d1bd 0bcd 94bd e63f 71be 219f 3bbe
00000350: d252 c0bd 347c e03c 1af0 b53d 4262 a63d
00000360: c825 93bd 685e a33d 6d87 10be 83f9 cb3b
00000370: cc77 82bd 9839 97bd 57d0 1abe d384 353c
00000380: 751c 28bd 28d9 55bd 2307 6c3c 1c3c d0bd
00000390: b665 f83d 100b bebd 892b d3bc da83 aebd
000003a0: a954 c7bc 1aa2 cbbb 17c0 83bd 07b1 413e
000003b0: dfa3 a33d f857 a8bc e7cc 703c 8249 f63b
000003c0: 09bb b03c 06cd eebd 4bf7 4e3b d8da 06be
000003d0: ec83 69bd 75c8 e23d 9406 32be bb7a af3c
000003e0: f679 4f3d 97c5 04bd b3e4 d2bc 815b 153e
000003f0: c7f0 09be f000 7ebd 4e2e 67bd 100c 6e3e

lstm.weight_ih_l1 f4 [256, 64]
0.1879969 -0.08336379 -0.01829325 -0.04348547 0.13822797 0.02775948 0.056379206 0.0023083647
0.053670287 -0.11553929 0.17356321 0.06927512 0.15098684 0.114930436 -0.0054607424 0.050686106
-0.03907415 0.15150252 -0.0708879 -0.1701074 -0.083345026 -0.011673074 0.2004344 0.007118585
0.08257144 -0.21222785 0.15652649 0.15083 0.1289536 -0.052083384 -0.11004577 -0.11307819
0.09017366 -0.18441999 -0.16585799 -0.048577502 0.09145006 0.08927254 -0.17224193 0.065900534
-0.053735606 0.16062042 0.13087085 -0.18494649 -0.12297417 0.13523011 -0.007741631 0.20638268
-0.06858075 -0.06489657 -0.0447169 0.05776174 0.037659045 0.07007238 -0.066538945 -0.077949025
0.0032221759 -0.23093528 0.07119855 0.1467609 -0.00078967353 -0.2581094 0.036971927 -0.13211761
0.09908386 -0.08232073 -0.1514442 -0.09998296 0.064324655 -0.011961876 -0.029639516 0.021662705
0.1387632 0.0147990035 0.12692854 -0.0071126865 -0.027424846 0.18253812 -0.010004168 0.11871569
0.04554141 0.058933802 -0.06396807 0.10634817 0.03646836 0.12379659 -0.0681132 -0.19192101
0.02954482 -0.0782872 -0.058370616 -0.004418563 0.053671766 0.019446652 -0.033524115 -0.050311625
-0.08824796 0.036506724 -0.03636314 -0.044766173 0.16993372 0.12336815 -0.065782495 0.15790467
-0.18677363 -0.038965907 -0.07579192 -0.10764563 -0.10750203 0.057184216 -0.13033836 -0.08939868
0.12198841 0.110623494 0.116442256 0.036118034 0.14403598 0.0409199 -0.06305393 0.025301838
-0.13674678 0.12048642 0.19614147 0.035535164 -0.12430255 -0.043659005 0.12340677 -0.02803548
-0.047130793 0.009353616 -0.12260466 0.04824341 0.1371419 0.18084472 0.073034815 0.07402685
0.0073755956 -0.15075932 0.04951972 0.073592916 0.03261976 0.029432872 0.0980033 -0.015241204
0.17574035 0.2641085 -0.015317722 0.08198344 0.043954823 0.032009725 0.11238478 -0.14684696
0.09183255 -0.11835489 0.039257694 0.12712602 -0.059322342 -0.11434897 0.031845607 -0.07098759
0.10730384 0.0681282 0.037996065 -0.02861656 0.104226194 0.09219353 0.041915726 -0.05771908
-0.078539416 0.14030972 0.118485965 0.0032501507 -0.10466562 -0.095039815 -0.11655645 -0.020103835
0.14507194 0.085033916 0.18188386 0.050264522 -0.055534407 -0.083957925 0.028889593 0.04317788
-0.16404347 -0.07174171 0.19543147 -0.018628085 -0.07359806 0.025702449 0.022014782 -0.20571434
0.032773945 0.074244455 -0.09472345 -0.1678233 -0.03601564 0.023763282 -0.057989717 0.04962682
-0.0931825 -0.018789986 0.097303964 0.11105397 0.16287506 -0.039589774 -0.02218082 0.061624132
-0.116599664 0.026566781 -0.11536226 -0.0034242098 -0.18703648 0.036110174 0.09708142 -0.074
0.07959163 -0.21377063 0.1268377 0.15272383 0.079607986 0.052019835 -0.023926336 0.13627283
0.20018716 0.056234904 -0.013923363 0.03002367 0.0017720239 -0.08126471 -0.031595632 0.0011305865
-0.06539708 0.11621817 -0.023714662 0.04156991 -0.13762532 -0.05198545 -0.13652107 0.102676935
0.05318314 0.07899953 0.12498013 0.023554433 -0.047193345 0.05260635 -0.09962288 0.095509954
-0.112227626 -0.14883022 0.05484301 0.08979153 0.06899853 -0.08466152 0.034964237 -0.14711376
00000000: 4282 403e a2ba aabd badb 95bc d21d 32bd
00000010: a28b 0d3e d967 e33c e2ed 663d ef47 173b
00000020: 60d5 5b3d dd9f ecbd 8eba 313e 1de0 8d3d
00000030: 4b9c 1a3e a660 eb3d 07f0 b2bb 3c9c 4f3d
00000040: 370c 20bd 7a23 1b3e ad2d 91bd a230 2ebe
00000050: ccb0 aabd 6c40 3fbc ad3e 4d3e 0543 e93b
00000060: 371b a93d 4252 59be 7b48 203e 2e73 1a3e
00000070: 6a0c 043e 6355 55bd ad5f e1bd 8a95 e7bd
00000080: f8ac b83d 98d8 3cbe add6 29be 34f9 46bd
00000090: 2b4a bb3d 85d4 b63d 3060 30be dcf6 863d
000000a0: de19 5cbd ae79 243e 0203 063e 9d62 3dbe
000000b0: e2d9 fbbd c379 0a3e 82ad fdbb fb55 533e
000000c0: 1074 8cbd 7ee8 84bd 1129 37bd 9397 6c3d
000000d0: 5f40 1a3d 1c82 8f3d 9245 88bd bda3 9fbd
000000e0: 242b 533b 4c7a 6cbe 8cd0 913d 7d48 163e
000000f0: 1802 4fba ea26 84be e06f 173d d749 07be
00000100: 7bec ca3d c597 a8bd 3014 1bbe dec3 ccbd
00000110: a5bc 833d bffb 43bc 92ce f2bc fc75 b13c
00000120: f117 0e3e 8577 723c 8ef9 013e 8a11 e9bb
00000130: 12aa e0bc 46eb 3a3e 86e8 23bc 3621 f33d
00000140: a189 3a3d 9264 713d b101 83bd 12cd d93d
00000150: d95f 153d 1189 fd3d ef7e 8bbd f186 44be
00000160: fa07 f23c 0a55 a0bd 0716 6fbd 98c9 90bb
00000170: edd6 5b3d 964e 9f3c 9550 09bd 9013 4ebd
00000180: 59bb b4bd 1388 153d 84f1 14bd bc5c 37bd
00000190: 1b03 2e3e 71a8 fc3d f9b8 86bd c3b1 213e
000001a0: 9641 3fbe b79a 1fbd cb38 9bbd 5075 dcbd
000001b0: 062a dcbd ff39 6a3d 6b77 05be a816 b7bd
000001c0: 0fd5 f93d 928e e23d 4779 ee3d 81f0 133d
000001d0: 2b7e 133e a09b 273d 6b22 81bd cd45 cf3c
000001e0: 5907 0cbe 96c1 f63d 4fd9 483e 528d 113d
000001f0: 5692 febd c9d3 32bd b0bc fc3d aaaa e5bc
00000200: 380c 41bd e93f 193c 2718 fbbd e29a 453d
00000210: ed6e 0c3e 5c2f 393e 4793 953d 649b 973d
00000220: fbae f13b a760 1abe 31d5 4a3d e2b7 963d
00000230: 4c9c 053d 351d f13c f4b5 c83d 3eb6 79bc
00000240: 47f5 333e 3b39 873e 2ff7 7abc efe6 a73d
00000250: f909 343d a11c 033d fe29 e63d 0d5f 16be
00000260: b412 bc3d 0c64 f2bd adcc 203d 532d 023e
00000270: fcfb 72bd cb2f eabd 8a70 023d f161 91bd
00000280: 1ec2 db3d cc86 8b3d c3a1 1b3d 476d eabc
00000290: 8b74 d53d f6cf bc3d d3af 2b3d d86a 6cbd
000002a0: 46d9 a0bd 5aad 0f3e c5a8 f23d 7b00 553b
000002b0: ee5a d6bd 3ca4 c2bd 26b5 eebd ccb0 a4bc
000002c0: bd8d 143e 4326 ae3d c33f 3a3e 2ce2 4d3d
000002d0: 0c78 63bd 22f2 abbd dea9 ec3c 4adb 303d
000002e0: 03fb 27be 51ed 92bd 301f 483e ed99 98bc
000002f0: 94ba 96bd f18d d23c 5858 b43c c8a6 52be
00000300: f93d 063d 7a0d 983d 5efe c1bd dfd9 2bbe
00000310: 2385 13bd 37ab c23c a086 6dbd 7e45 4b3d
00000320: 77d6 bebd 75ed 99bc 4d47 c73d 4470 e33d
00000330: b8c8 263e e328 22bd 8db4 b5bc 9669 7c3d
00000340: cecb eebd 94a2 d93c 0c43 ecbd b568 60bb
00000350: 7e86 3fbe 43e8 133d a0d2 c63d 508d 97bd
00000360: f000 a33d b0e6 5abe bee1 013e a363 1c3e
00000370: 8309 a33d c012 553d 2a01 c4bc 1b8b 0b3e
00000380: ddfd 4c3e 9256 663d d11e 64bc 33f4 f53c
00000390: 4143 e83a 1d6e a6bd 6c6a 01bd 3030 943a
000003a0: e7ee 85bd cb03 ee3d 4045 c2bc 3645 2a3d
000003b0: a7ed 0cbe b2ee 54bd 2ecc 0bbe 4948 d23d
000003c0: 90d6 593d 81ca a13d 95f5 ff3d 3af5 c03c
000003d0: cf4d 41bd c279 573d 1507 ccbd b99a c33d
000003e0: 99d7 e5bd f366 18be 10a3 603d 9fe4 b73d
000003f0: 1a4f 8d3d 0563 adbd a936 0f3d fda4 16be

lstm.weight_hh_l1 f4 [256, 64]
0.009787289 0.07566711 -0.02965872 0.15020683 0.13291745 0.13544858 -0.03240418 0.07695016
0.07037367 0.116956085 0.030369986 -0.13555582 -0.06903613 -0.029930344 0.046759255 -0.03119963
0.10333804 -0.032634027 -0.12111676 0.024210578 -0.050608404 0.12746772 0.029036302 0.07653877
-0.03578112 0.019333653 -0.035769437 0.0841079 0.10264507 -0.17566365 0.144309 0.049073447
0.09799608 -0.0059029083 -0.08298782 -0.09295907 -0.042702846 0.037275184 -0.07863041 0.04049852
0.11485153 -0.19552428 0.106283545 -0.005424959 0.08383022 0.1041803 -0.07817059 -0.11101994
-0.02845104 -0.07866647 -0.0027884224 -0.011846789 0.038461715 0.09236549 0.06406174 0.1980686
-0.024320066 -0.05921949 -0.16360979 0.030015284 -0.08367755 -0.038104065 0.035854153 0.14716877
0.08462712 -0.13328142 0.0011963026 0.028492127 0.11803699 0.059325986 0.102448605 0.013650247
-0.13677853 -0.035449028 0.2033622 -0.09046341 0.05517418 -0.02823319 0.009826134 0.07516851
0.020726092 -0.18150802 -0.16334592 -0.15868874 0.09256221 -0.08293606 0.11244533 -0.02476752
-0.08583613 0.07497256 0.09667077 -0.117538184 0.06663683 0.014625682 0.09883348 0.093205616
-0.032635454 -0.13490291 0.10450789 -0.1086991 -0.016742649 -0.0822274 0.09397834 0.029904502
-0.036609996 0.019484837 0.062825866 -0.11217167 -0.10242402 0.07613785 0.02779195 0.044529
0.021312715 0.028494671 -0.007809244 -0.12175045 -0.01949413 0.044700485 0.13556078 0.10331896
-0.121514365 0.060269527 0.033169128 -0.023313254 0.11244657 -0.18823268 0.094661444 0.08118948
0.13248597 -0.1490093 -0.00139208 0.11202143 0.18882976 0.010199026 0.115790434 0.028784791
0.029527733 0.018151281 0.13623239 -0.041116565 -0.08077522 -0.0016355198 0.12381692 -0.0333465
0.15286745 -0.036922097 -0.022979708 -0.14817722 0.0060298345 0.01683273 0.072032735 0.13363056
-0.028463328 0.14357832 0.03729098 -0.16461167 0.05190011 0.053178955 0.11664996 0.014614042
0.100227185 -0.1323699 0.107714705 0.055847555 0.105163194 0.04832005 -0.019935941 0.11929018
0.07645747 -0.024162421 0.13245793 -0.08152601 -0.0911119 0.028784836 -0.14110222 -0.025043737
-0.05724002 0.026772127 0.0626763 -0.0035104186 0.0972041 0.06398925 0.120220035 0.033550832
-0.04933411 0.047969945 -0.09137353 0.050612263 0.012453624 -0.11761874 0.018132525 -0.03887377
-0.10969747 -0.030646272 -0.13157827 0.060457714 -0.012261248 0.034463312 0.05947426 -0.033312265
-0.048964083 0.11392388 0.014717861 0.050489504 -0.08067298 0.22330052 0.08211063 0.03218129
0.08316634 0.083228685 0.009027521 -0.042056035 0.09941284 0.20528273 -0.092952855 -0.13296391
-0.16653623 -0.052653536 0.017293815 -0.10402017 -0.06206734 -0.06781029 -0.023682509 -0.13272692
-0.032595288 -0.14052132 -0.0042153304 -0.11231413 0.019277532 0.010976083 -0.014544681 -0.020160407
0.07157431 -0.0024388402 0.13046294 0.053850207 -0.16597608 -0.062193945 0.014842703 -0.009697143
-0.13043967 -0.1446815 -0.040060002 0.065119214 -0.028318454 -0.02091217 0.052162092 -0.07951405
0.0059661553 0.11039698 -0.0667197 0.09607836 -0.13602711 -0.16681625 -0.009106051 -0.04878083
00000000: de5a 203c 5cf7 9a3d d8f6 f2bc d2cf 193e
00000010: 831b 083e 08b3 0a3e 3fba 04bd 0c98 9d3d
00000020: 1220 903d ac86 ef3d 7aca f83c 25cf 0abe
00000030: d162 8dbd 7b30 f5bc a286 3f3d 5e96 ffbc
00000040: e5a2 d33d 42ab 05bd 100c f8bd 4355 c63c
00000050: c24a 4fbd e686 023e 8add ed3c 5cc0 9c3d
00000060: 398f 12bd 9c61 9e3c f982 12bd c340 ac3d
00000070: 9437 d23d 2ce1 33be bdc5 133e 3d01 493d
00000080: 2bb2 c83d 2f6d c1bb 85f5 a9bd 5361 bebd
00000090: 2ee9 2ebd ddad 183d fb08 a1bd c7e1 253d
000000a0: 4737 eb3d 8437 48be 30ab d93d dbc3 b1bb
000000b0: 2eaf ab3d 7b5c d53d e717 a0bd 6c5e e3bd
000000c0: 2812 e9bc e31b a1bd f7bd 36bb 0919 42bc
000000d0: 088a 1d3d 1e2a bd3d cd32 833d 7fd2 4a3e
000000e0: e03a c7bc 2390 72bd 5389 27be 9de2 f53c
000000f0: 235f abbd 0213 1cbd cedb 123d 69b3 163e
00000100: fc50 ad3d ed7a 08be 41cd 9c3a 5268 e93c
00000110: 61bd f13d ceff 723d 93d0 d13d 49a5 5f3c
00000120: ac0f 0cbe 0033 11bd 2e3e 503e e144 b9bd
00000130: 52fe 613d 4a49 e7bc cbfd 203c f3f1 993d
00000140: c4c9 a93c 3ddd 39be 2744 27be 4d7f 22be
00000150: 4291 bd3d 62da a9bd bd49 e63d 41e5 cabc
00000160: daca afbd 378b 993d 53fb c53d dcb7 f0bd
00000170: e478 883d 8ea0 6f3c 3569 ca3d 96e2 be3d
00000180: c1ac 05bd fd23 0abe 3c08 d63d a29d debd
00000190: e127 89bc d766 a8bd b777 c03d 49fa f43c
000001a0: 5df4 15bd aa9e 9f3c d9aa 803d 43ba e5bd
000001b0: afc3 d1bd 29ee 9b3d f2ab e33c 0a64 363d
000001c0: 0198 ae3c a86d e93c b0e4 ffbb 4d58 f9bd
000001d0: 27b2 9fbc db17 373d 72d0 0a3e e498 d33d
000001e0: 86dc f8bd 2edd 763d 5adc 073d 70fb bebc
000001f0: 634a e63d 11c0 40be dcdd c13d ac46 a63d
00000200: 67aa 073e e595 18be 7476 b6ba 7e6b e53d
00000210: 975c 413e d119 273c 8923 ed3d 15ce eb3c
00000220: 25e4 f13c ffb1 943c 8180 0b3e d869 28bd
00000230: 7b6d a5bd f05e d6ba ba93 fd3d 5796 08bd
00000240: 4989 1c3e a03b 17bd f13f bcbc c5bb 17be
00000250: eb95 c53b cbe4 893c e685 933d 73d6 083e
00000260: ed2b e9bc 3206 133e 6dbe 183d f68f 28be
00000270: 3695 543d 2dd2 593d 2de6 ee3d bc6f 6f3c
00000280: e943 cd3d fa8b 07be 8799 dc3d 68c0 643d
00000290: cd5f d73d 3feb 453d b350 a3bc 694e f43d
000002a0: bc95 9c3d 45f0 c5bc 0da3 073e 1cf7 a6bd
000002b0: e098 babd 2dce eb3c 1a7d 10be 8628 cdbc
000002c0: 8374 6abd 3851 db3c 6f5c 803d 0d0f 66bb
000002d0: f112 c73d cc0c 833d ec35 f63d 996c 093d
000002e0: 9012 4abd 227c 443d 0c22 bbbd ce4e 4f3d
000002f0: 490a 4c3c 18e2 f0bd a98a 943c 1a3a 1fbd
00000300: 11a9 e0bd e40d fbbc 74bc 06be 82a2 773d
00000310: 67e3 48bc 6729 0d3d 489b 733d 7172 08bd
00000320: 908e 48bd ec50 e93d 2f23 713c 15ce 4e3d
00000330: e037 a5bd e4a8 643e 9e29 a83d 87d0 033d
00000340: 1d53 aa3d cd73 aa3d 2be8 133c f342 2cbd
00000350: f698 cb3d a335 523e 115e bebd b127 08be
00000360: 7988 2abe 3cab 57bd c2ab 8d3c 8708 d5bd
00000370: 533a 7ebd 1fe0 8abd d201 c2bc 91e9 07be
00000380: a382 05bd d2e4 0fbe c120 8abb f304 e6bd
00000390: eaeb 9d3c 07d5 333c d04c 6ebc 7027 a5bc
000003a0: 8d95 923d f3d4 1fbb 1498 053e 0992 5c3d
000003b0: a2f5 29be 14bf 7ebd cf2e 733c c4e0 1ebc
000003c0: fa91 05be 6327 14be f515 24bd 395d 853d
000003d0: 1afc e7bc 0050 abbc eba7 553d 43d8 a2bd
000003e0: bd7f c33b d017 e23d 57a4 88bd bbc4 c43d
000003f0: b14a 0bbe e1d1 2abe 8c31 15bc 68ce 47bd

lstm.bias_ih_l1 f4 [256]
-0.120548636 -0.15596633 -0.117493 -0.011560957 -0.18299757 0.033512753 -0.09001131 -0.070588596
-0.016550072 -0.04883905 -0.096012294 -0.13648273 0.12023437 -0.00051433366 -0.07807251 -0.083495766
-0.12849183 -0.1322554 0.078846954 0.0046402933 0.030223686 -0.13531196 -0.1562429 0.038921636
-0.022293236 -0.0033181137 0.05449904 -0.046616234 0.029419947 -0.06867319 -0.046620317 0.04057755
-0.081028596 0.015131268 0.06289901 -0.08269131 0.01599192 -0.054298285 -0.16658309 -0.043972902
-0.0149225965 -0.12474544 -0.038200643 -0.05085924 -0.14713061 -0.0026463203 -0.086935475 0.041559596
-0.07390523 0.0155079635 -0.066839516 -0.12010045 0.014708997 -0.123706676 0.030534608 -0.1731695
0.003307463 -0.19032426 -0.1290313 -0.05371748 -0.16617383 0.07621937 -0.1734933 0.068255864
-0.13632502 -0.19396837 -0.19640833 -0.061148494 0.030653518 0.002710212 0.0569572 -0.10739909
-0.18792413 -0.04037204 0.06470443 0.10089581 0.09744751 0.063756645 -0.086515136 -0.13727355
-0.052496452 -0.12535915 -0.035017364 -0.11741037 0.018172655 -0.04184326 -0.16783805 -0.09147545
-0.19443202 0.06614245 0.058576204 -0.18608348 -0.01776673 0.10910531 -0.06800675 -0.15415424
-0.012694325 -0.11315669 0.042496335 -0.05069173 -0.043133743 -0.1792055 -0.18621033 -0.15611209
-0.12639634 -0.0023175024 -0.11511952 -0.10455638 -0.15346462 0.011528256 -0.0057584383 0.054660797
-0.06876858 -0.006620112 -0.004086909 -0.10398858 -0.124254785 0.0009165133 -0.043964654 -0.11185983
-0.06276068 -0.0055842837 -0.15570007 -0.1744192 -0.15605728 -0.0692289 -0.18634084 -0.08214625
-0.02923968 -0.03957533 0.0056454586 0.062424734 -0.04654697 -0.01965453 0.06674617 0.020909129
-0.072003745 -0.044130072 0.026557077 0.12219769 -0.004576333 0.026824627 0.0664581 -0.14917898
0.018235141 -0.093357354 0.048164614 0.1881124 0.01236246 -0.04495436 -0.027987754 0.109645724
0.042142875 -0.08071912 0.13674791 -0.086905725 0.073100105 0.0729306 0.03957289 0.054329872
-0.081128456 -0.034094956 0.023291007 -0.009106399 0.06383862 0.18605255 -0.114276595 0.037619777
-0.004844486 -0.08297064 -0.027115358 0.061421983 -0.030152727 -0.08971423 -0.08073821 0.108715475
-0.031682044 -0.018404068 -0.006524778 0.008497438 0.12187609 -0.11000007 -0.100314185 -0.019785045
0.16550224 -0.03568327 -0.04821494 0.06526965 0.007859003 -0.058216438 0.11832205 0.053017072
-0.17094867 -0.02617916 -0.09006065 -0.0028473297 -0.028357387 -0.09347213 -2.2992208e-05 -0.058320787
-0.02427713 -0.13213333 0.0045987847 -0.0062757335 -0.051865958 0.034813967 -0.042713307 -0.12998068
0.014186053 -0.13367577 -0.08429133 0.050768666 -0.10854491 0.010913452 0.00332656 0.013269769
-0.11489203 -0.08228447 0.04161352 0.014222687 -0.07027772 -0.06272697 -0.042422365 -0.15234399
0.10642381 -0.18333186 0.090373546 -0.14321063 0.006217114 -0.08307224 -0.1796509 -0.021333868
-0.10270404 -0.0007498641 -0.16969596 -0.08487305 -0.1465721 -0.18144424 -0.13319224 0.027886907
0.023042666 0.06790532 -0.15464608 -0.14031659 -0.16850224 -0.008026117 -0.1042752 -0.13886319
-0.05255482 -0.1831904 -0.1674643 0.022536566 -0.1511657 -0.14653112 -0.09465924 -0.11930538
00000000: 34e2 f6bd a3b5 1fbe 2ca0 f0bd 2b6a 3dbc
00000010: b763 3bbe ab44 093d da57 b8bd c190 90bd
00000020: 0494 87bc 750b 48bd 18a2 c4bd 21c2 0bbe
00000030: 703d f63d 59d4 06ba 7be4 9fbd d4ff aabd
00000040: 5d93 03be f66d 07be 837a a13d 9a0d 983b
00000050: aa97 f73c 388f 0abe 24fe 1fbe 4b6c 1f3d
00000060: 4ea0 b6bc b674 59bb 633a 5f3d aaf0 3ebd
00000070: 1a02 f13c 88a4 8cbd f2f4 3ebd a534 263d
00000080: 52f2 a5bd 23e9 773c 32d1 803d 105a a9bd
00000090: 7d01 833c e167 5ebd c294 2abe ee1c 34bd
000000a0: e87d 74bc 8a7a ffbd 4778 1cbd c751 50bd
000000b0: 68a9 16be e36d 2dbb 3a0b b2bd 653a 2a3d
000000c0: a05b 97bd 1d15 7e3c 28e3 88bd 3af7 f5bd
000000d0: 01fe 703c ed59 fdbd b723 fa3c 5853 31be
000000e0: 05c2 583b 5de4 42be c820 04be dc06 5cbd
000000f0: 7929 2abe e718 9c3d 3aa8 31be bbc9 8b3d
00000100: c998 0bbe a59f 46be 441f 49be d876 7abd
00000110: 161d fb3c d09d 313b f44b 693d 0ef4 dbbd
00000120: 2f6f 40be 275d 25bd c283 843d 76a2 ce3d
00000130: 8f92 c73d d892 823d d92e b1bd 7091 0cbe
00000140: 8506 57bd 265e 00be 5e6e 0fbd d974 f0bd
00000150: d2de 943c d763 2bbd bddd 2bbe 7b57 bbbd
00000160: 3019 47be b175 873d 9aed 6f3d ab8c 3ebe
00000170: 898b 91bc 9b72 df3d 1f47 8bbd 9cda 1dbe
00000180: dcfb 4fbc b2be e7bd a310 2e3d 22a2 4fbd
00000190: 02ad 30bd a681 37be ecad 3ebe d9db 1fbe
000001a0: 0b6e 01be 3de1 17bb c8c3 ebbd a821 d6bd
000001b0: d425 1dbe 03e1 3c3c 48b1 bcbb 00e4 5f3d
000001c0: 8bd6 8cbd 86ed d8bb 7aeb 85bb f7f7 d4bd
000001d0: 4b79 febd 2b42 703a 4814 34bd c416 e5bd
000001e0: ac88 80bd 5efc b6bb d76f 1fbe f29a 32be
000001f0: 7bcd 1fbe e2c7 8dbd 22d0 3ebe 4b3c a8bd
00000200: 0e88 efbc be19 22bd 8afd b83b 14b1 7f3d
00000210: 09a8 3ebd 8902 a1bc 37b2 883d 9f49 ab3c
00000220: b376 93bd bcc1 34bd 3a8e d93c c842 fa3d
00000230: 10f5 95bb 52bf db3c 2f1b 883d 60c2 18be
00000240: dd61 953c 2432 bfbd 4248 453d 89a0 403e
00000250: ea8b 4a3c 1022 38bd 9346 e5bc f08d e03d
00000260: 029e 2c3d 1150 a5bd a507 0c3e a1fb b1bd
00000270: 82b5 953d a35c 953d 2f17 223d 0089 5e3d
00000280: ad26 a6bd 27a7 0bbd c8cc be3c 0133 15bc
00000290: d3bd 823d 8f84 3e3e d909 eabd 3217 1a3d
000002a0: 7ebe 9ebb 83ec a9bd 0721 debc 9e95 7b3d
000002b0: da02 f7bc 18bc b7bd 135a a5bd 38a6 de3d
000002c0: 08c5 01bd 21c4 96bc cecd d5bb d738 0b3c
000002d0: 2c9a f93d b747 e1bd 8671 cdbd 3f14 a2bc
000002e0: 6b79 293e 9f28 12bd 077d 45bd 18ac 853d
000002f0: 0cc3 003c 5c74 6ebd d552 f23d 6e28 593d
00000300: 2b0d 2fbe ae75 d6bc b871 b8bd 449a 3abb
00000310: c04d e8bc 516e bfbd 64df c0b7 c7e1 6ebd
00000320: d5e0 c6bc f64d 07be 67b1 963b aba4 cdbb
00000330: 6671 54bd 1799 0e3d 26f4 2ebd a819 05be
00000340: 9e6c 683c 4de2 08be efa0 acbd cef2 4f3d
00000350: cb4c debd 56ce 323c 6a02 5a3b 7269 593c
00000360: 834c ebbd c384 a8bd f072 2a3d 4606 693c
00000370: c4ed 8fbd ff76 80bd 13c3 2dbd 1000 1cbe
00000380: baf4 d93d 59bb 3bbe c415 b93d cfa5 12be
00000390: efb8 cb3b c721 aabd 68f6 37be 5dc4 aebc
000003a0: 7f56 d2bd 8792 44ba c7c4 2dbe ecd1 adbd
000003b0: ff16 16be 85cc 39be 8c63 08be 1573 e43c
000003c0: f9c3 bc3c f211 8b3d 8b5b 1ebe 27af 0fbe
000003d0: da8b 2cbe fa7f 03bc 3c8e d5bd 2732 0ebe
000003e0: b943 57bd 4496 3bbe c37b 2bbe 9b9e b83c
000003f0: 2ecb 1abe 410c 16be b4dc c1bd 6156 f4bd

lstm.bias_hh_l1 f4 [256]
-0.10069364 0.0025082494 -0.1646242 0.021798313 -0.09055717 -0.14360978 -0.058445152 -0.058850832
-0.024875626 -0.018557694 0.023044975 -0.034511764 0.055485554 0.013028894 -0.15774001 -0.08126062
0.007964846 -0.018205214 -0.06735554 0.09485253 0.0043144776 -0.086466 -0.08013957 -0.09909381
-0.004292107 0.05611265 -0.017523654 -0.0038310734 -0.1255329 0.0790126 -0.062028702 -0.124126524
0.015748717 -0.0077899355 0.070003584 0.02244771 0.0066808504 0.023444936 -0.107929364 0.021301137
0.04369901 -0.14324151 -0.01783403 -0.089246236 0.0077326437 0.043953843 -0.03878969 -0.109605715
-0.09129732 0.12810495 0.030643601 -0.015875407 -0.18160439 0.044510584 -0.088512205 -0.11395746
-0.09666062 -0.062447887 -0.10673825 -0.072332576 0.0070398077 -0.048845835 -0.015573584 0.0678604
-0.17762724 -0.1088195 -0.00271495 -0.11527511 0.03825226 -0.02680009 -0.14806178 0.05906498
-0.21588129 -0.13287488 -0.12151367 0.09831512 0.08980215 0.03455529 -0.14918362 -0.04803578
0.064827055 0.02734687 -0.056220893 0.10970188 -0.08624577 -0.16187854 -0.13689539 0.0360649
-0.16642432 -0.13256149 0.022273729 -0.18016033 -0.1345375 -0.077935286 0.02574194 -0.14512664
0.13250217 0.01269659 0.0039466904 0.025988309 -0.09730255 -0.10079432 -0.11213362 -0.13013765
-0.14485694 -0.15401648 -0.005603529 -0.19237013 -0.17750573 -0.18481718 0.068422005 0.084566474
-0.18807764 -0.10104639 -0.035594292 -0.020372318 -0.19418174 -0.112456165 -0.1593377 -0.016401362
0.009471569 -0.036341816 -0.010427029 -0.10480324 -0.19131762 -0.15964454 -0.012432496 -0.14380226
0.013777918 -0.095848575 0.03797791 0.12199055 0.0062135207 -0.024529988 0.053082813 0.0388296
-0.13999787 0.061883207 -0.029326152 -0.08226548 0.02293254 0.017592495 -0.09016641 -0.06354698
-0.023983214 -0.039115626 -0.072430074 0.042097904 -0.04128327 -0.035633534 -0.029577281 0.044858202
-0.004697109 0.05864574 -0.02648995 -0.09540763 0.14036372 0.10268926 0.084220834 0.09598717
0.029614806 0.008674121 -0.07402947 -0.015063959 0.11109459 -0.025517946 -0.13868159 0.052154027
0.051756304 -0.02596433 -0.044396654 -0.07574667 0.08628744 -0.04893151 -0.13556798 0.14687982
-0.01443641 -0.091156706 -0.05212943 -0.042614046 -0.025319446 0.021281239 -0.07869032 -0.09779906
0.14529034 0.10329824 0.034118164 -0.035836436 -0.052701365 -0.032707684 -0.02041145 0.08941736
-0.04898449 -0.1966826 -0.07274813 -0.045672912 0.03844717 -0.19821534 -0.061464768 -0.039596077
-0.19055861 -0.003017001 -0.043583296 -0.12394171 -0.10300443 0.038378265 0.04096156 0.03445669
0.058368713 -0.16139281 0.009159181 0.01637241 -0.11633293 0.08731047 -0.07257484 -0.001915873
-0.16874479 -0.16116813 0.045457117 -0.081128895 -0.100545086 0.0408334 -0.05956022 0.009519311
0.045009386 -0.13168526 -0.073483154 -0.083136655 0.023965593 -0.07000054 -0.21449782 0.027930982
-0.02044349 -0.0597356 -0.09843139 -0.1632088 0.013921178 0.00687374 -0.006962532 0.0640772
-0.1567266 -0.08819353 -0.19015364 -0.07914354 -0.0028345059 -0.17413865 0.0075126835 0.033268426
-0.12218844 -0.16737252 -0.037402507 -0.12753987 -0.048022572 -0.094511256 -0.106157154 0.06947184
00000000: 7838 cebd 7161 243b 3f93 28be 6092 b23c
00000010: 0a76 b9bd 710e 13be 2f64 6fbd 920d 71bd
00000020: f8c7 cbbc 4e06 98bc d1c8 bc3c 355c 0dbd
00000030: d244 633d 2477 553c 9986 21be f86b a6bd
00000040: fc7e 023c 1a23 95bc b4f1 89bd 0b42 c23d
00000050: 7660 8d3b 1615 b1bd 3720 a4bd b2f1 cabd
00000060: cea4 8cbb 61d6 653d c48d 8fbc bf12 7bbb
00000070: b28b 00be 5cd1 a13d cf11 7ebd 0c36 febd
00000080: 7403 813c b742 ffbb 0a5e 8f3d 43e4 b73c
00000090: 09eb da3b 980f c03c 120a ddbd b97f ae3c
000000a0: bcfd 323d e7ad 12be ac18 92bc bbc6 b6bd
000000b0: 1e62 fd3b f208 343d f0e1 1ebd f678 e0bd
000000c0: 17fa babd f22d 033e 4a08 fb3c 240d 82bc
000000d0: 80f6 39be bb50 363d e345 b5bd 8762 e9bd
000000e0: 01f6 c5bd 5bc9 7fbd 9599 dabd 1a23 94bd
000000f0: 30ae e63b 9212 48bd 5828 7fbc 65fa 8a3d
00000100: eae3 35be c2dc debd 4ded 31bb 5b15 ecbd
00000110: 67ae 1c3d dd8b dbbc 829d 17be 1fee 713d
00000120: fc0f 5dbe 5a10 08be 29dc f8bd 7059 c93d
00000130: 31ea b73d d989 0d3d 97c3 18be 2bc1 44bd
00000140: 0cc4 843d 8b06 e03c e147 66bd 61ab e03d
00000150: 9fa1 b0bd 7dc3 25be 4e2e 0cbe cab8 133d
00000160: 236b 2abe 33be 07be 6577 b63c f37b 38be
00000170: 33c4 09be 899c 9fbd c3e0 d23c 149c 14be
00000180: a6ae 073e 5c05 503c 3d53 813b 6fe5 d43c
00000190: 8f46 c7bd 416d cebd 50a6 e5bd ce42 05be
000001a0: 6155 14be 7fb6 1dbe cf9d b7bb adfc 44be
000001b0: 10c4 35be b740 3dbe d620 8c3d 3031 ad3d
000001c0: 6d97 40be 69f1 cebd 52cb 11bd d9e3 a6bc
000001d0: 94d7 46be 6b4f e6bd 6c29 23be 265c 86bc
000001e0: a42e 1b3c 28db 14bd 21d6 2abc 15a3 d6bd
000001f0: c4e8 43be dc79 23be abb1 4bbc e640 13be
00000200: c7bc 613c 424c c4bd ba8e 1b3d 2ed6 f93d
00000210: ca9a cb3b 1df3 c8bc 5d6d 593d c90b 1f3d
00000220: 9a5b 0fbe 3f79 7d3d 663d f0bc ce7a a8bd
00000230: 06dd bb3c 231e 903c 2ba9 b8bd eb24 82bd
00000240: 7278 c4bc b537 20bd 3856 94bd da6e 2c3d
00000250: a518 29bd 78f4 11bd 0e4c f2bc 3cbd 373d
00000260: 35ea 99bb 8436 703d 7401 d9bc 1365 c3bd
00000270: 82bb 0f3e bf4e d23d f97b ac3d ec94 c43d
00000280: c09a f23c e71d 0e3c c39c 97bd d3ce 76bc
00000290: 8f85 e33d 030b d1bc 8c02 0ebe 769f 553d
000002a0: 6bfe 533d 26b3 d4bc 44d9 35bd 1221 9bbd
000002b0: 78b7 b03d 686c 48bd 55d2 0abe aa67 163e
000002c0: b186 6cbc 5eb0 babd ab85 55bd 118c 2ebd
000002d0: ba6a cfbc fe55 ae3c 6428 a1bd e04a c8bd
000002e0: fec6 143e 078e d33d 7dbf 0b3d 3ac9 12bd
000002f0: 63dd 57bd 7ef8 05bd ea35 a7bc 7320 b73d
00000300: f6a3 48bd 2a67 49be f9fc 94bd 8513 3bbd
00000310: c87a 1d3d f6f8 4abe 7bc2 7bbd 7f2f 22bd
00000320: cc21 43be e1b8 45bb 6684 32bd 27d5 fdbd
00000330: fdf3 d2bd 8732 1d3d 4fc7 273d 7522 0d3d
00000340: 0814 6f3d 2844 25be 6410 163c 6f1f 863c
00000350: f63f eebd d5cf b23d 1ea2 94bd 081e fbba
00000360: 6fcb 2cbe 4209 25be 3e31 3a3d e826 a6bd
00000370: 95ea cdbd ec40 273d 6bf5 73bd e2f6 1b3c
00000380: c35b 383d 80d8 06be 567e 96bd 8d43 aabd
00000390: 7e53 c43c 715c 8fbd 51a5 5bbe 84cf e43c
000003a0: 1b79 a7bc 51ad 74bd 6696 c9bd 3520 27be
000003b0: a715 643c 1c3d e13b f425 e4bb e83a 833d
000003c0: f07c 20be cf9e b4bd a3b7 42be 0216 a2bd
000003d0: 1ec3 39bb 6751 32be f52c f63b 7944 083d
000003e0: ef3d fabd b463 2bbe 5f33 19bd d099 02be
000003f0: 51b3 44bd 1e8f c1bd ec68 d9bd 4147 8e3d
