Competition/TrainAI/model/c30/model_weights_2.pth (torch, 441743 bytes, 18 tensors)

lstm.weight_ih_l0 f4 [256, 34]
00000000: 5dd8 143d b256 25be b37a e8bd a5c1 cc3c
00000010: f1ba 12bd f019 82be 0a25 4fbc 3c03 d7bd
00000020: 873e 12be 10f2 8c3c 949e 7e3e d4b8 d03d
00000030: 3d7a 82bd e24d 91bd 2ad9 1d3d 28da 37bd
00000040: 0f28 873d eb81 a7bd 79c3 76bd a1db 94bc
00000050: 40fb e63b e3ff 2e3d 7559 103e eee6 0bbd
00000060: 65ca fa3c a425 a4bd 2634 9cbd 327a be3d
00000070: 8b72 0f3e c4d5 073e 3938 303d d3a2 e93d
00000080: 6ac9 62bc b24c 0e3e b455 853d 49e4 da3d
00000090: 72b4 02be 9621 35bc fd52 e13d eb47 2b3e
000000a0: 91d8 21bd 2bbf b73d 397d ae3d 139e 813d
000000b0: 222c 093e 1a03 eb3d 991c 6cbd 327b 27bd
000000c0: 83ef 213e 8b0f 9cbd 828b e73d dd57 1138
000000d0: 6ff8 b23d e626 1abe 63ae 283e 30c9 1fbe
000000e0: d2f5 323e a664 193b fcb7 04be 50ff fabc
000000f0: 00af abbd f669 f1bd 79a2 133c 97ea 18bd
00000100: 9b28 983d c252 abbd 9d84 c43c 80d2 a1bc
00000110: 283b 0ebe c000 4e3d eae6 17be 4bd5 ca3a
00000120: 75e3 02be 0813 443d 0aa8 4c3c 066d bbbc
00000130: 4b43 33be 1fbb 3b3d 61ff 12be 7dd6 19be
00000140: 89e0 cb3d 47ea 2cbd 6675 efbd 378a 00bc
00000150: ee23 9ebd 58d3 673d e631 dabc 131c 7c3d
00000160: f275 443d 9761 273e 4845 8dbd 8e27 1e3d
00000170: 77e6 2a3e 8bfa edbd 0280 613d 1c50 ee3d
00000180: 7e60 3f3d 839f b63d ecca 34be b04f 003d
00000190: 4021 6abd 99a1 23bc fa6e 4c3d 1571 afbd
000001a0: 55ce bf3d 2c50 e3bd 6189 a43e 45ad a03d
000001b0: ae09 c43d 7287 c53e 960c 443e 720b 66bd
000001c0: c16a 43be a663 38bc 1815 0abe 4021 8fbd
000001d0: ac56 d5bd 7503 413d c8bf f4bb 4386 8f3e
000001e0: 9e7f 15bd 1cff e5bd 0469 35be bc44 453d
000001f0: e1c3 34be 7a2f 9fbd b2f1 e6bc 83e6 16be
00000200: ed5b 4ebc ae30 59bc 4e79 47be 9101 12bd
00000210: 3fd8 f5bd 566a cdbd c4a5 0dbd 5aeb a23d
00000220: 8b23 eabd 85ab 8b3d 05b3 c83d 6b9a 843e
00000230: 8b37 983e e82b b93e 9e33 333e 8cb5 823e
00000240: 696a 663e 324b afbd f3d9 98bd 3ac3 dcbc
00000250: fc8b 603d 07fa 92bd 025b 98bc 8c21 fcbd
00000260: 3236 f03d 3e6e d9bd 8a84 1f3e 163e 663d
00000270: 9d45 ca3d dd19 febd 31f7 033d 2e40 67bc
00000280: 00ab 09be 2c3c 02be 6eaf 87bc 6073 f0bc
00000290: 6dab fd3c 1c4c 663d c381 163d a9b9 acbd
000002a0: fa59 a73d e6f3 9cbd 5168 4d3e a70f a7bd
000002b0: e837 4abe 71d7 ae3b 21d3 a93c eb68 383e
000002c0: 3c57 c9bb 39af b6bc 360a 22bd eeee a13d
000002d0: 7372 f83d 3623 b53d f4ae 2ebd 4e3d 633e
000002e0: 92d0 7e3e 7c5f b43e 2e02 bdbd 7bbd 4c3e
000002f0: 655e 96bd 6ab7 af3d f64d d13d 90c7 3a3e
00000300: d2bd 31bd 3603 dabd dabd 473d 5fa4 c9bd
00000310: a84e a33d 5ab6 0f3e b577 f83c 08d9 853e
00000320: d606 513e 42cf d4bd 06dc c73d 2b11 d1bc
00000330: 589d 4a3d d4fb 1f3d 2dde 8fbd b398 01be
00000340: aa0c cd3c 3b02 4a3d 5b98 74bc 987a b43d
00000350: 7171 6d3d c874 d93d a41e 9c3d 408d 0a3d
00000360: cfdd cd3d 0d58 073d 0289 0f3e afcb 81bd
00000370: 17ab 35bc 2ff6 a8bc f749 0bbe d89d 0abe
00000380: 3f25 a2bc f645 c23c b4f8 443d ca53 9bbd
00000390: 5448 6bbd d442 14bd 83d6 093e 8a42 083e
000003a0: 973e 52bd 154f 82bc 4075 eabd 19ca c13d
000003b0: 06a3 beba 1915 883c b279 e13c 599f 0b3e
000003c0: 3204 2b3e fdbd 14bf 249f d4be 80e9 8dbe
000003d0: 02e5 b0be 9e33 c2be 3e0f 84be e37a 353d
000003e0: cd3a 8ebe bc41 51be 4994 303d fa1e 81bd
000003f0: b1cd 2abe 1273 b3be 000a b8be 111c d5bd
0.036339153 -0.16146353 -0.11351528 0.02499468 -0.035822812 -0.25410414 -0.012643108 -0.10498664
-0.14281665 0.017205268 0.2486518 0.10191503 -0.06370971 -0.07094933 0.038537182 -0.044885784
0.065994374 -0.08179077 -0.06024501 -0.018171133 0.0070489943 0.0427245 0.14096625 -0.03415578
0.030614087 -0.08014992 -0.07627134 0.09300651 0.14008538 0.13265139 0.043022368 0.114080094
-0.013841966 0.13896444 0.06510487 0.10688073 -0.12764147 -0.011055371 0.11002157 0.16726653
-0.039513174 0.08972009 0.08519978 0.063289784 0.13395742 0.11475201 -0.05764446 -0.040888973
0.15814023 -0.07620152 0.11305906 3.4652523e-05 0.08738791 -0.15053901 0.16472773 -0.1560409
0.17476586 0.0023405938 -0.1296081 -0.03063932 -0.08382988 -0.117877886 0.0090109045 -0.037333097
0.0742962 -0.08365394 0.023989016 -0.019753695 -0.13889754 0.050293684 -0.1483418 0.0015474943
-0.1278208 0.047869712 0.0124912355 -0.022879135 -0.17506139 0.04583275 -0.14355232 -0.15023227
0.09954936 -0.04221561 -0.11692314 -0.007845453 -0.07721697 0.056598037 -0.026635122 0.06155021
0.047964044 0.16345821 -0.0689798 0.03861194 0.16689478 -0.11620053 0.05505372 0.116363734
0.04672288 0.08917143 -0.17655534 0.031325996 -0.057160616 -0.009987258 0.049910523 -0.085664906
0.093655266 -0.11099276 0.32136062 0.078455485 0.09572159 0.385799 0.19145426 -0.05616326
-0.19083692 -0.011254227 -0.13484609 -0.06988764 -0.10416922 0.047122438 -0.007469151 0.2803212
-0.03649866 -0.11230299 -0.17715842 0.048161253 -0.17652847 -0.07772727 -0.028191421 -0.1473637
-0.012595159 -0.013256235 -0.19479868 -0.035646025 -0.12004136 -0.100300476 -0.034581915 0.07955046
-0.114325605 0.06819824 0.0979977 0.25899062 0.29729876 0.3616631 0.17500159 0.25529134
0.2250153 -0.08559264 -0.074634455 -0.02694856 0.054821 -0.07176595 -0.018598083 -0.12311086
0.11729087 -0.1061673 0.15577903 0.056211554 0.09876559 -0.12407277 0.032218162 -0.014114423
-0.13444138 -0.12718266 -0.016563144 -0.02935189 0.030965531 0.056224927 0.036744844 -0.08433849
0.081714585 -0.076637074 0.20059325 -0.08157282 -0.19747889 0.005335741 0.020730557 0.18008773
-0.0061444324 -0.02230035 -0.03956052 0.079069 0.121312045 0.088446066 -0.042647317 0.22191355
0.24884251 0.352291 -0.09228931 0.19994156 -0.07342223 0.08579905 0.10219948 0.1824019
-0.043393917 -0.10645144 0.04876504 -0.098458044 0.07973987 0.14034405 0.030330518 0.26142144
0.20412764 -0.10391094 0.09758763 -0.025520882 0.04946646 0.03905852 -0.070247985 -0.12655906
0.025030453 0.049318533 -0.0149289025 0.088124454 0.057969514 0.106179774 0.07623032 0.033826113
0.10052072 0.033042956 0.14017108 -0.06337678 -0.011088154 -0.020625202 -0.13602434 -0.13536775
-0.019793151 0.023715 0.048088744 -0.07584341 -0.057442024 -0.036196545 0.13460736 0.13306633
-0.05132922 -0.01590685 -0.11448145 0.09462375 -0.0014544434 0.016611623 0.02752385 0.13635005
0.16700819 -0.581024 -0.41527665 -0.2771721 -0.3454972 -0.37930006 -0.2579288 0.044306647
-0.27779236 -0.20435232 0.043110166 -0.063047364 -0.16680028 -0.3504873 -0.3594513 -0.10405744

lstm.weight_hh_l0 f4 [256, 64]
00000000: 596c a2bd 997a 0f3d 7d30 9c3c 09c5 fcbd
00000010: 115f 95bc 9d3d 60be a191 2d3e 338b 25be
00000020: a01b 3d3d 8a72 b1bd f3c3 44be 5833 ae3b
00000030: 08b5 9e3d 4d52 fb3c 3aa5 2b3d 34ec 0dbe
00000040: 2f54 b4bd f77b cb3d e017 453c bcf7 ba3b
00000050: 1bac 193e b427 92bd 5557 44bd c588 1c3e
00000060: 2d92 a3bd 847b b8bd 2a3d 20bd c434 3c3e
00000070: 46cd 17bd d1c3 3cbe 8bc1 fa3d f98d 373d
00000080: a7cf a03a 3051 1abe d94a b3bd 6bdf 3abc
00000090: 97a4 cdbd 78b1 253e 21c8 9dbc 62f4 93bd
000000a0: 7a5a 08be 0a03 133e cead 053e 0606 2d3a
000000b0: 3e82 65bd 9c38 2ebe e54c 3fbd 86d1 4f3d
000000c0: 8a3f 333e 9721 8aba 1ac4 20bd 9767 c1bd
000000d0: 366d a03b 5e81 ba3c 844f 273e 55e3 423e
000000e0: aa5d 05be b23c 32be 1f89 79bd dd2f 4dbd
000000f0: 6d28 693d 6897 0b3e b7e8 103d 6272 813d
00000100: c316 ae3c 1f06 38bd a890 953d 8eab debc
00000110: 10cf 2abd aa42 fdba e9d0 c63d 0fe3 d0bd
00000120: 6463 973d e47e 21be 5d5f 393b 8ddd 2d3d
00000130: 77eb c4bb dab6 113d bd1e 0d3e 60ab 1cbe
00000140: 73e8 0bbd 0d16 72bd d0d6 debb 8ed0 4f3b
00000150: b9bc 44bd d7e3 9cbd 1eb4 d1bd a8e3 04bd
00000160: 4e33 dd3c b690 debd 37e9 7b3c 5633 7f3d
00000170: 8c14 b539 317f c9bd 45e5 9cbd 263d ff3d
00000180: e42c b3bb ccdf 4e3d 9372 6b3c 8f5b 03bd
00000190: d0a6 033e 34ba 353e 216c 32be 4260 8a3d
000001a0: 13f2 99bd 5345 0f3e 42e8 b2bc cd02 1b3e
000001b0: 71c7 03be b85d b73d 9f16 223e 7f68 35be
000001c0: d662 97bd bfc1 0e3e 5c4e b83c 6911 cdbd
000001d0: 78da 81bc ef20 86bd a126 abbc 1b50 053e
000001e0: c415 11bd 6a05 06bd f810 8e3d 180f f13d
000001f0: f7c2 923c 1210 a0bd acfc d639 8e63 053d
00000200: 2747 c2bd 8996 38bd 9362 1fbc 8958 0a3d
00000210: 28dc bf3d 5572 943d be60 933d 7e46 f03c
00000220: cd99 283d 86da e83d 8c28 073d 6ebf cbbd
00000230: 4b59 e4bb fe5c d33d fcd5 f5bc 88ac 163e
00000240: 0fae e93d 9e06 4c3e 6cd2 e1bb 396e f03b
00000250: fd09 c0bc d08f e83d fd40 ebbb aa6b 823d
00000260: 73aa d03d d3db 8f3c 20d2 c63d 1d05 d6bd
00000270: c1e4 673d 3353 313e 54f8 8fbc f2d3 99bd
00000280: 0e84 413e 4317 9e3d 3fb9 d33c 4e6c 41bd
00000290: 214b 2d3d a2d4 2ebe b958 fabc 9e6b c03d
000002a0: 490f bf3d 6392 893d eddd 433e f216 d7bd
000002b0: 645e d33d 551d 32be d2fa edbd 67f2 e93d
000002c0: 74c7 803d 0407 b23d 1392 58be e53e e03d
000002d0: 5f12 1d3e 2359 103e a3ea 973c a017 1d3e
000002e0: 50ac 8abd 508a f33d 03b3 013d 909a 563d
000002f0: 37fc 353e b91d 453d f783 7fbc 7775 0ebd
00000300: dd76 a33c 2302 81bd 27e4 433d 4272 5b3e
00000310: cd80 2a3d 8083 fa3c 9fa7 653d 6922 4d3c
00000320: df2f 11bd 7751 1dbd 4561 fcbd 0a7f dcbd
00000330: d757 1bbd d732 913b e1a7 0abd f865 d4bc
00000340: 9e1f 36bd b8a7 cf3d 976e 37be d88a 14bd
00000350: 075f 413d bf8a 813d ba9e a0bd 18a1 33be
00000360: 3114 543d 6fec e13c babf 353e b7f6 bdbc
00000370: 065c 01be 955f 8cbd 0a9a 5e3b 48f4 893d
00000380: 8a14 0e3d f084 1fbe 0cfd e23d 9c22 0fbc
00000390: 99bb 333d ddc1 fabd a4c8 e13d e646 603c
000003a0: 2b9d 8bbd a550 55bd 6d71 3cbd 7a73 e4bd
000003b0: cf50 04bb b7df 01be 4494 fa3d aaf0 37be
000003c0: 8bab 0a3e 6fa7 2fbc d435 f23c a200 0abe
000003d0: 4cbf a23c b3eb 19bc 5cde 9ebd 0bbb 0a3d
000003e0: 6477 d8bd 8db7 04bd 94a1 103e a5a3 4b3c
000003f0: 211a f33b 422e ee3d 6f06 c83d 5dc7 763d
-0.07930822 0.035029028 0.01906609 -0.12342269 -0.018233808 -0.21898504 0.16950084 -0.16166382
0.046168923 -0.08664425 -0.19215374 0.0053161792 0.07749373 0.030678893 0.04190562 -0.13859636
-0.08805119 0.09935754 0.012029618 0.005705802 0.1500706 -0.07136479 -0.04793485 0.15286548
-0.07986865 -0.09007934 -0.03912083 0.18379503 -0.037061 -0.18434073 0.12243947 0.04481313
0.0012268916 -0.15070033 -0.087545104 -0.011405806 -0.10041159 0.1618098 -0.019260468 -0.07224347
-0.13315764 0.14356628 0.13054582 0.0006600324 -0.05603241 -0.17013782 -0.04670419 0.050736926
0.17504707 -0.0010538575 -0.039249517 -0.09443586 0.0048958315 0.022766765 0.16338927 0.19032033
-0.13024011 -0.17405966 -0.060921784 -0.050094474 0.05692332 0.13631976 0.035378184 0.06320645
0.021251088 -0.044927713 0.073029816 -0.027181413 -0.041701376 -0.0019322236 0.09707815 -0.10199558
0.07392004 -0.15771061 0.00282856 0.042447615 -0.006009515 0.03557477 0.13781257 -0.1529975
-0.034157228 -0.05910306 -0.00680051 0.0031710002 -0.048031542 -0.076606445 -0.10239433 -0.032443672
0.027002003 -0.10867445 0.015375427 0.062304817 0.0003453832 -0.09838713 -0.07660917 0.12462835
-0.005467998 0.050506398 0.014370578 -0.03206974 0.12856603 0.17746812 -0.1742406 0.06756641
-0.07516875 0.13991289 -0.021839265 0.15137787 -0.1286905 0.08953422 0.15828942 -0.17715643
-0.07391898 0.13941096 0.022498302 -0.10013086 -0.015851244 -0.0654925 -0.020892443 0.13018839
-0.035421148 -0.032720007 0.0693683 0.11770457 0.017915232 -0.07815565 0.00041005516 0.032565646
-0.094862275 -0.045065437 -0.009728092 0.03377584 0.09368163 0.072483696 0.071961865 0.029330488
0.0411623 0.11369805 0.032997653 -0.09948622 -0.0069686524 0.10320471 -0.030009262 0.14714253
0.11410152 0.199244 -0.0068915393 0.0073373583 -0.023442263 0.11355555 -0.007179378 0.063681915
0.101887606 0.017560875 0.09708047 -0.10450194 0.05661464 0.17316894 -0.017574467 -0.075111285
0.18898031 0.077192806 0.025845168 -0.047222428 0.042307977 -0.170733 -0.030559884 0.09395526
0.09329087 0.06717374 0.19127627 -0.10502423 0.10320738 -0.17394002 -0.11620106 0.11423188
0.06288043 0.086927444 -0.21149473 0.10949496 0.1533904 0.14096503 0.0185445 0.15341043
-0.06771147 0.118916154 0.03166486 0.052393496 0.17771994 0.04812405 -0.015595428 -0.034779992
0.01995414 -0.06299236 0.047825005 0.21430305 0.04162674 0.030580282 0.05606806 0.012520411
-0.035446044 -0.03840777 -0.1232324 -0.10766418 -0.037925567 0.0044311094 -0.033851508 -0.025927529
-0.044463746 0.10139412 -0.1791328 -0.036265224 0.047209766 0.06325292 -0.07842775 -0.17541921
0.05177707 0.02757856 0.17748919 -0.023188932 -0.1263276 -0.06854168 0.0033966326 0.06736046
0.034687556 -0.15578055 0.11083421 -0.008736279 0.04388008 -0.12244008 0.11024597 0.0136887785
-0.06817087 -0.05207886 -0.04600661 -0.11154838 -0.0020189767 -0.12682997 0.12235311 -0.179629
0.13542001 -0.010721072 0.029566683 -0.13476804 0.019866608 -0.009394574 -0.077572554 0.033869784
-0.10569647 -0.03240161 0.14124137 0.012429153 0.0074188863 0.11629917 0.09766852 0.06024872

lstm.bias_ih_l0 f4 [256]
00000000: 981d 17be 8b81 b9bd 89cd cdbc 6ba6 41be
00000010: 92e2 27be a21a b33d 4e22 db3d 91a1 0fbf
00000020: f9e0 0f3d 0d52 de3b 835c 38bd ca33 5a3e
00000030: 520a d5bb f91a 103d ee58 073d a64d 403d
00000040: 590e 4bbe 64a7 89bd c804 53be 0255 fabd
00000050: a9fe 973d be40 87bd 7bfa 723b 5508 a1bd
00000060: edbb f33d 0f6b 4fbb c985 c53c 9116 a7bd
00000070: 8971 2b3d 291c ecbd 94df ad3c ad15 3a3d
00000080: 0363 8fbd dfe1 0abe c6b8 f1bd 3bce 3e3e
00000090: 7587 cc3e 0b1b 41be 22db 003d 8207 a23c
000000a0: 7d83 9e3d 5626 c4bc 832f 53bd 98d2 d4bd
000000b0: a6bb dcbb f053 32be 41b9 39be 88ac 70be
000000c0: a2de 053d 1d30 4bbd 30ce 22be 66ff e23d
000000d0: a7a4 8a3d 27af 08be 0a9f 83bc 937e 23bc
000000e0: 3476 06be 626d c83d 95d0 1c3e f2db 40bd
000000f0: 5bbb 94bd 1e42 97bd f660 35be a5d8 e3bd
00000100: e5a1 6abd 4c4a adbd 4fa9 fe3c 07c4 4bbd
00000110: 0d60 a63a bc37 74be 9850 853d 079e a7be
00000120: 6a78 9cbc c839 99bd 10ac 6c3c 343a 90be
00000130: 76b3 08be 5e58 9cbd 80bb d2bd 46a1 3e3d
00000140: f2fe eebc 4b2f 82bb 1909 78bd 5e2f 43be
00000150: 46fd 2f3d d99b 34bd 3140 633d 972a a8bc
00000160: 1b96 51bd a5f2 1abd d608 8a3d 9fc7 8fbd
00000170: 83a7 6ebc d11c 93bc b450 1d3d 80a1 d6bd
00000180: 74e3 d1bd 30b0 24be ced5 31bd 454b 463d
00000190: 17eb 20be a7a1 093e b765 f73d 18ff 0dbe
000001a0: 2120 283d f334 793d f5b0 eabd 2991 12be
000001b0: e12a 0dbe f568 20be 7eb1 be3d d3bb 4cbe
000001c0: 6cca 3bbc fc8b b33d e6da a63c d39e 193d
000001d0: a088 9b3a 42c9 04bd 5cc5 91bd 9819 19be
000001e0: 51db 40be 9653 703d 4bae e1bd d844 82bc
000001f0: 2745 02be 7781 693c 00eb ee3d 28c2 7abc
00000200: ae23 2f3d 249d afbd 63a4 c0bd e76d 1abe
00000210: 41b2 c9bd 3d28 263d 5fa0 c8bd f11c 5fbe
00000220: 2a32 ca3d 9be3 fcbc 64aa a33d 6435 59bd
00000230: 0480 163e 1c3f 20be 4289 60bc 8770 d43c
00000240: 83d1 56bd 6dd4 e13b a10b 3b3d 496d 053d
00000250: c927 983d 03b1 8e3d 4dee b43d 6e9c 653d
00000260: d4ba 64bd a705 1fbd 946f a1bd 625d 16bd
00000270: d1fd 3a3e 51a4 223d 3118 353d a612 0cbd
00000280: 4a87 7c3d 94d9 cdbd 3f2e 8f3c 53aa 6bbd
00000290: eefa 27bd 4911 75bd 5c14 b4bb 8790 09be
000002a0: 758a 563d fcba 9b3c 43cf 06bd d0a2 893d
000002b0: d037 2a3c 60f8 863d f80d 7b3d e19b 36bd
000002c0: e318 33bd d2b5 f3bd 657e 143e 4c36 44be
000002d0: c6ce a0bc 27c5 d1bd b6b3 2f3e 943b f43d
000002e0: 3519 eabd 0347 583e b147 04bd db32 d2bd
000002f0: a26d 03be c80f 1b3d 3830 2e3e 4e58 06be
00000300: c38c b5bb b1fa 43be 7276 f0bc 7f55 05be
00000310: 0356 4ebd 9db1 253e fc49 43bd 28ec 0b3c
00000320: 376a 88bd f90b 8bbe 3e1e 2b3d 7714 9c3d
00000330: c870 a8bc 3b27 afbd ff1f 673d c68d a4bd
00000340: 71fe 983c 5bbf 4c3d 1bf6 36be 1a7c 39bb
00000350: be01 a33b dda7 59be 482c 82be 0db5 6cbc
00000360: ddbe adbc 03eb aebc ba22 833a 157b 85bd
00000370: 4e02 26be 5f81 29be 0c66 cbbe 8034 27be
00000380: 0b21 8b3d ab1a 9bbd 9397 873d 86aa 17bd
00000390: a04f b33c c7dc 8ebd 0ca5 1ebe fc21 f4bd
000003a0: 4931 023d 2bf6 b53c 13a9 393d a418 15bd
000003b0: b0a9 cfbc e140 07bd 40df 083d 72da 4dbd
000003c0: 97c6 69bd e7d2 46be 0e6b a73c 9680 6abe
000003d0: 5e99 3f3d 24df 043c 9dc6 b2bd 49f0 443d
000003e0: b71c 37be c16d bb3e 4e8f 3e3e 6931 edbd
000003f0: 403f d4bd c649 20be 3ad4 a6bd 8d22 7abd
-0.14757383 -0.090579115 -0.02512242 -0.1891114 -0.16395023 0.08745314 0.106999025 -0.56105906
0.03512666 0.0067846836 -0.0450101 0.21308818 -0.0065014744 0.035181973 0.033043794 0.04694905
-0.19829692 -0.0672138 -0.20607293 -0.12223245 0.074216194 -0.066041455 0.0037075568 -0.07862917
0.119010784 -0.0031649505 0.024111645 -0.08158601 0.041856322 -0.115288086 0.021224774 0.045430828
-0.07001307 -0.13562725 -0.11802821 0.18633358 0.39947096 -0.18857972 0.03145898 0.01977897
0.07739923 -0.023944061 -0.051558983 -0.1039173 -0.0067362366 -0.17414832 -0.18137075 -0.23503315
0.032683022 -0.04960643 -0.15898967 0.1108387 0.06769686 -0.13348065 -0.016067047 -0.009978908
-0.13131028 0.09786488 0.15313943 -0.047084756 -0.07262298 -0.07385658 -0.17712769 -0.11125306
-0.0572833 -0.08461437 0.031086592 -0.049747493 0.001269342 -0.23849386 0.06509513 -0.32737753
-0.019100387 -0.07481724 0.01444532 -0.28169405 -0.13349709 -0.07634042 -0.10289669 0.04654052
-0.029174302 -0.003972923 -0.06055555 -0.19061038 0.04296615 -0.04409394 0.05548114 -0.02052812
-0.051168542 -0.03782906 0.067399666 -0.070204966 -0.014566305 -0.017958077 0.038407043 -0.104800224
-0.10248461 -0.16082835 -0.04341679 0.048411626 -0.1571468 0.13440572 0.120799474 -0.13866842
0.041046266 0.060841512 -0.11459533 -0.14313187 -0.13785888 -0.15665038 0.09311198 -0.19993524
-0.011461835 0.08766934 0.02036805 0.037504982 0.0011866279 -0.032418497 -0.071177214 -0.1495117
-0.18833663 0.058673464 -0.11019572 -0.015901968 -0.12721692 0.014252058 0.116659164 -0.0153050795
0.042758636 -0.08574894 -0.09406354 -0.15080987 -0.09848452 0.040565718 -0.09796213 -0.21788384
0.09872849 -0.03087025 0.07991484 -0.053029433 0.14697272 -0.15649074 -0.0137046 0.025932563
-0.0524459 0.006891778 0.045665387 0.032574926 0.074294634 0.06967356 0.08834515 0.056057386
-0.055842236 -0.03882375 -0.0788261 -0.03671015 0.18260886 0.039707486 0.044212524 -0.034197472
0.06165246 -0.10051265 0.017478107 -0.05753548 -0.04101079 -0.059830938 -0.005495591 -0.13434039
0.052378137 0.01901006 -0.032912504 0.06720507 0.010389283 0.065903425 0.06129262 -0.04458225
-0.043724906 -0.11899914 0.1450134 -0.19161338 -0.019629847 -0.10242682 0.17158398 0.11925426
-0.11430589 0.21120839 -0.032294933 -0.10263606 -0.1283479 0.037856847 0.17010581 -0.13119623
-0.0055404617 -0.191386 -0.029353354 -0.13020895 -0.050374996 0.16181035 -0.04767798 0.008540191
-0.06660884 -0.27157572 0.041776888 0.07621091 -0.02056159 -0.085524045 0.056427 -0.08034854
0.018676015 0.04998718 -0.1786732 -0.002830273 0.004974573 -0.21255441 -0.2542441 -0.014447463
-0.021209175 -0.021352297 0.0010004856 -0.06517617 -0.16211817 -0.16553257 -0.39726293 -0.16328621
0.06793412 -0.07573446 0.06620707 -0.03702786 0.021888554 -0.06975704 -0.15492648 -0.119205445
0.031785283 0.022212109 0.045327257 -0.036400452 -0.025349468 -0.033020858 0.033416033 -0.050257154
-0.057074156 -0.1941639 0.02043679 -0.22900614 0.04677712 0.0081098415 -0.08729289 0.048080716
-0.17882048 0.36607173 0.18609354 -0.1158169 -0.103636265 -0.15653142 -0.08145948 -0.061068106

lstm.bias_hh_l0 f4 [256]
00000000: dccc b3bd df08 7bbd 4f85 48be f1ef f4bd
00000010: 0e97 2dbd e2ac da3d 0edf 6b3d e462 21bf
00000020: 83c2 063d 5789 8dbb 521d 20be d422 1a3e
00000030: 32ae cfbb 089c 0fbe 0a7b b9bd e311 54bd
00000040: d131 dd3c 21a0 e6bd 161d 16be a998 3cbc
00000050: 11a2 e43d 0868 3b3d dd7a 78bd dc8f 6d3c
00000060: 19c8 6fbd 897b a63d 73d6 093e ab90 efbd
00000070: b535 03be b2b4 63bd f86f 45bc a853 2dbe
00000080: 0e76 edbd 2557 073d 35db 4abd 3d34 293e
00000090: b53a 4f3e 00d3 5c3d b7c3 29be c14c 153d
000000a0: d896 07be 719d a53c 9a79 fcbd ac6e dabc
000000b0: 9302 363d de52 d0bd a249 d8bb 8c18 71be
000000c0: 2262 4cbd f181 c1bd 2cc3 13be 51b8 07be
000000d0: 087f acbd 1e62 51bd 8231 3f3c feeb 223d
000000e0: a0b0 b2bd db47 6a3e 249c d53c 63e5 0dbd
000000f0: 196d 0abe ce4d b9bd a238 38be a53b c5bd
00000100: 7b28 e33d 8195 b0bd eec4 8b3d b33a 3abd
00000110: 9b02 dbbd e967 4dbe 4161 5a3d 0b14 7abe
00000120: c5b5 4abd 31d1 f2bb 6e7a 093d 933e 6abe
00000130: bb2e a73d 912b 32bd 51c8 1dbe b5cc ecbd
00000140: e4f8 14be d9cb 043c d1ae 78bd 5ddb 043d
00000150: a857 f63d aa9a 2ebe 1c86 373e 2fdf 87bd
00000160: fee9 e7bc ff79 45bd 1330 96bd 8286 853d
00000170: 5615 0cbe 2028 ccbd 8fef b43c 36ce 9d3d
00000180: f8e3 f6bc 0cf7 f1bd c209 d9bd 4b25 f23c
00000190: 8ac7 02be a680 bc3b b883 3a3e aeff 84bd
000001a0: 00e4 f4bc 8c6e e8bd 4717 39bd 9d29 6d3d
000001b0: 065f e5bc 82f9 78bb 4c85 b13d 939f bdbd
000001c0: 5e56 1fbe 61d3 9b3c 8c17 9d3d bbcd 22be
000001d0: 4f71 c73d 18f9 10bc f990 ba3c 8eef 64bd
000001e0: 39e0 c9ba 571c 823e 6c62 113d 9e83 183d
000001f0: 05cb 28be ddd5 a7bc 2510 74bd 6c2a 4ebe
00000200: 8f39 fe3d 9e31 8fbd 27bd ee3b d318 a3bd
00000210: 60b1 a73d 18a1 61bc 40bc fabd 1ea0 47be
00000220: fc6a 0ebd 82f3 7fbd a4c1 40bd 9725 033d
00000230: a624 043e dc0b 51bc 702a 2d3d 885c 09be
00000240: 7ee7 d63d c4cc 0f3c 752b 853d 6832 edbd
00000250: 4dcd 943d f9f6 91bd 1338 b13d f022 c73d
00000260: 9ad3 033e d981 2d3d 0a71 403d c087 e7ba
00000270: f179 0a3e cb76 7abd 61e8 bb3d 01cd 4f3d
00000280: 5bc5 ea3d cd7d 1fbe 5700 07bd 8c01 8cbd
00000290: de80 0a3c 6e57 8dbd 23d6 4b3e bc12 8dbd
000002a0: 7213 d0bd 463b 133d 69a2 33be 5fdb e53b
000002b0: 03e5 773d c103 b7bd b4eb b73b c9e7 df3d
000002c0: c5bd 6b3d 764d 9a3d 6ccc 86ba ee52 fbbd
000002d0: 3665 06be 1265 4bbd 42e9 573a 1f78 a33d
000002e0: 6ef2 9abd 69d4 3c3d ff6a 0ebe 0d7f f9bd
000002f0: e580 e8bd 5957 f03c aa55 26b9 760d bcbc
00000300: 0507 873c cac5 d4bd 55fb 0a3c e8a4 843b
00000310: e347 30be e228 6e3e cf32 2abd 396d 413d
00000320: 70b6 07be cf01 cbbd 4a19 233d 5d78 3c3e
00000330: 07d0 31bd 1360 e93c 2432 e3bd a6c6 563d
00000340: e645 c23c 9211 d4bc 1f55 b3bd 46cb 863d
00000350: 08ba 4abe bf0d 39be cce7 7dbe 0d43 6cbd
00000360: 643d c63b b955 2d3c 735f 2fbe b86c e93d
00000370: 45fc 92bd fdc5 563d 7228 c2be 440a 4fbe
00000380: 1c56 be3d 5126 0fbd 10b5 683b e476 df3c
00000390: b45d 0fbe 9f02 9ebb 4d26 cd3c 8917 373c
000003a0: fd7e f43d ed3a 0abe 2161 2c3e 1816 3dbd
000003b0: 67e1 e9bd 0775 593d 8242 f9bd b09a 41be
000003c0: 95b2 b1bd 028d a9bd d232 8f3d f082 a4be
000003d0: f046 ca3c 9f45 6d3d 8d1a 36be bb9c 003d
000003e0: fc53 533d 7837 0b3f fa37 363e 84f0 4cbd
000003f0: 2ed9 173c d3e5 c53c 9b61 83bd 5a01 1fbc
-0.08779308 -0.061287757 -0.19582103 -0.11959828 -0.042380385 0.10677506 0.05758577 -0.6304152
0.032900345 -0.0043193507 -0.15636185 0.15052348 -0.0063379044 -0.14024365 -0.09056671 -0.05177487
0.027001293 -0.11261011 -0.14659533 -0.011511006 0.11163724 0.04575351 -0.060664047 0.014499631
-0.058540437 0.08129031 0.13460712 -0.11697515 -0.12813456 -0.055592246 -0.012050621 -0.16926444
-0.11594783 0.033042092 -0.04952546 0.16523834 0.20237239 0.053912163 -0.16578566 0.03645015
-0.13241136 0.020216675 -0.12327881 -0.0266641 0.04443605 -0.10172056 -0.0066005746 -0.2354452
-0.049898274 -0.094486125 -0.14429921 -0.13253905 -0.08422667 -0.051118962 0.011669518 0.03977584
-0.08725095 0.22878973 0.02607543 -0.03464259 -0.1351818 -0.09048043 -0.17990354 -0.09630517
0.110917054 -0.086222656 0.06824671 -0.045466136 -0.10693856 -0.2005917 0.053315405 -0.24421708
-0.049489755 -0.0074101915 0.033564024 -0.22875433 0.0816321 -0.04349858 -0.15408446 -0.11562482
-0.14548069 0.008105242 -0.060713593 0.032435764 0.12028438 -0.17051187 0.17922252 -0.06634366
-0.028309818 -0.048212048 -0.07333388 0.06519796 -0.13680014 -0.09968591 0.022086887 0.07705347
-0.030138 -0.118146986 -0.10597564 0.029558798 -0.1277143 0.005752641 0.18214309 -0.064940795
-0.029893875 -0.1134921 -0.045188215 0.057901014 -0.027999412 -0.0037990515 0.086680025 -0.09258952
-0.1556029 0.019021692 0.07670507 -0.15898792 0.09738409 -0.008848451 0.022774206 -0.05589252
-0.0015401907 0.25412247 0.035494253 0.037234895 -0.16483696 -0.02048772 -0.05958571 -0.2013337
0.12413322 -0.069918856 0.0072857323 -0.07963719 0.081881285 -0.013771318 -0.12242937 -0.19494674
-0.034769997 -0.062488087 -0.04705967 0.03201827 0.12904605 -0.012759175 0.0422768 -0.13414204
0.104933724 0.008776847 0.065024294 -0.1158188 0.072657205 -0.071271844 0.086532734 0.09723461
0.12873688 0.04236016 0.046982802 -0.0017664358 0.1352308 -0.061148446 0.09175182 0.050732616
0.11463424 -0.15575333 -0.03295931 -0.068362325 0.008453576 -0.069014415 0.19905905 -0.06888339
-0.10159959 0.0359452 -0.17542423 0.0070146765 0.060521137 -0.08936263 0.005612815 0.109328814
0.057554025 0.07534306 -0.0010284311 -0.12271677 -0.13124546 -0.049656935 0.0008236357 0.07981896
-0.07565771 0.046101008 -0.13908003 -0.12182436 -0.1135271 0.029338526 -0.00015862906 -0.022955637
0.01648284 -0.10389288 0.008482774 0.0040479787 -0.17214923 0.23257783 -0.04155236 0.047223303
-0.13253188 -0.09912454 0.03981904 0.1840529 -0.04341128 0.028488195 -0.11093548 0.05243554
0.02371497 -0.025887284 -0.0875647 0.0658174 -0.19797528 -0.1807165 -0.24795455 -0.057681132
0.006049799 0.01057952 -0.17126255 0.113976896 -0.07177023 0.05243491 -0.37921482 -0.2021876
0.09293768 -0.03494865 0.0035508312 0.027278371 -0.14000589 -0.00482209 0.025042677 0.011175045
0.119382836 -0.13499041 0.16833927 -0.04616365 -0.11419945 0.05309012 -0.121708885 -0.18906665
-0.0867664 -0.08278848 0.06992115 -0.32131147 0.024692029 0.057927724 -0.17783566 0.03139947
0.051593766 0.54381514 0.17794791 -0.05003406 0.009268088 0.02415744 -0.06415101 -0.009704912

lstm.weight_ih_l1 f4 [256, 64]
00000000: 63bd 0cbe d675 39be 2f13 c3bd 414d f83a
00000010: b812 cb3d 5d2b 883c d796 01be 779c e6bd
00000020: db8d 91bd 9ef6 0cbe 4bd4 4fbe 9da3 833c
00000030: 5db6 f3bc b720 82bd dea5 1ebd f54a 07be
00000040: 7d81 003e 21b2 ef3c 2d5e b4bd 2596 193e
00000050: b7e1 84bd 0426 f2bd 91d4 263c 3774 1fbe
00000060: e95b 78bd 9fa2 2d3d a116 b53d 266a f7bd
00000070: 95ee 8a3d 4998 ad3d b14e c13b 0d30 093d
00000080: 292f b13d bd83 2d3d eae6 863d 1613 6a3d
00000090: 4368 ef3d 896a 1d3e 77f4 f0bd c7ef d3bd
000000a0: 8c8f 0bbe 46dc 0d3d 1658 b23d a1b2 91bb
000000b0: 1f33 9fbc 5b72 5fbe cdfc 2bbd 78e7 d83a
000000c0: e9fe b6bd 23bd 153e cf0d 82bd d2ed 5dbc
000000d0: f979 1abe 2921 75bd da00 133e 5d51 873b
000000e0: 36b2 5a3c f17c aebc 8ad0 50bd 9916 8cba
000000f0: ebb5 3c3d ba09 2abe 824a d23c 017d 7a3d
00000100: 84cf bdbc 1732 aebd cf49 e63d 6f68 22bd
00000110: eb54 b1bc ec56 26be 7294 3f3c df65 5dbd
00000120: 07a0 58bd a241 b6bd 751f 153c 7647 153e
00000130: 9a53 42bd 8772 8cbd 5f92 4abd c79e 85bc
00000140: 71f2 113e a740 153e 1e57 c03d 6259 5a3d
00000150: 851b f93d 291b 19be dd07 41bd 78fd 7fbd
00000160: f088 e63c facf 9a3c 4621 68bd a95e 6a3d
00000170: 69d7 2fbd ee9b abbd ae78 813c 5a6b 84bd
00000180: c3db 043e 2416 bb3d 0018 c23a ed8d 02be
00000190: db00 503e 5dd0 ed3d da55 9f3d e5fe 5f3c
000001a0: a670 77bd 3afc 1e3e 79db 493e 39de 0fbe
000001b0: 6e10 c1bd acfa d33d 23a2 433e 5300 eb3c
000001c0: f852 37be fb8e 993d 6f14 8cbd 02b3 973d
000001d0: 6db0 14be f593 823d ebb7 4a3d 2b3c 0d3e
000001e0: 31b4 c6bd 480e 5abe b6ac 2e3d b0fc cfbd
000001f0: 922c 84bd 7add 053d 8e3c 473c 279a c0bd
00000200: 90b5 123e 548d 46bd 8c77 3abd ce48 d2bc
00000210: f9c4 4fbe 4bf4 e6bd 1bd0 0ebe 89d0 e73d
00000220: 0000 57bb b18f 09be e1a9 1cbe 9bbf 3e3e
00000230: 66b7 313d 2fa6 8dbc 5fcf 2e3e b749 34be
00000240: de59 04bd c707 b53c d335 f5bd 3d0c 043e
00000250: 1333 0a3e 81c4 99bd 5da4 bc3d 2c63 e2bd
00000260: 1828 02be 362f 343e 8583 763e b846 90bc
00000270: d953 82bd 3bba 1e3e 6b75 c73d 086a 05be
00000280: 5446 873d 2873 04be 25bd 0fbe 3854 fabd
00000290: 077b d13d 6246 25bd d414 0f3d f52c 30be
000002a0: 1781 8abd 8d95 883d 7f9e 1d3d 1f09 5fbd
000002b0: 488f d1bd 21d9 a53d a1f1 39bc f38b bb3c
000002c0: 2f95 cabd 3b16 07bc 7598 da3d c058 813d
000002d0: f5e7 47be 8383 acbd b789 913d e857 ba3d
000002e0: ae28 813d c776 a1be 22aa 8bbd 7b46 483d
000002f0: 38ce 043e 324b 663d 5dee 7fbd 3e13 03bd
00000300: fb2a 113e b5bc 463c e4bf dbbd 4c85 e8bb
00000310: 0324 203d 1def e33d dad1 c23d be4f 7dbd
00000320: aa65 69bc ba14 023e 5ce6 3dbc dbc2 aabd
00000330: c877 9e3d e7d6 9b3d 9318 12bd 1f49 6f3c
00000340: 5440 683d d974 a83d 7703 623d ed2d b43d
00000350: 47d0 ffbd f23e c93d ccb7 a93d 50e9 913d
00000360: 49cf b5bd f62b 0c3d b518 613d de56 6dbd
00000370: 307a 623c e3bd de3c 17b3 8b3d 47fa 8d3d
00000380: 5c2a e93d 57c9 c7bd 8ccd 56bd abd8 003d
00000390: 83f5 0bbe ccf9 e0bd d427 9dbd 5e52 c7bd
000003a0: fdc7 cc3c 84ff 04be 9405 5c3d 204d 3fbd
000003b0: 947e fb3b c1b7 12be 77a8 d0bd 4842 d53d
000003c0: c327 4b3e 25c6 a9bd c93c 4a3d 105c efbc
000003d0: 1cfa 1dbd 3643 6e3d 8cf5 fdbc b12c 9abd
000003e0: da27 adbd 7170 933c 394b 3fbd ed23 96bc
000003f0: 687e a8bd 3972 03bc 5323 65bd 08d4 833c
-0.1374412 -0.18111357 -0.09525143 0.0018943922 0.0991568 0.01662224 -0.12655197 -0.11260312
-0.07107135 -0.13765952 -0.20295827 0.016069228 -0.029750044 -0.06353896 -0.038732402 -0.13212188
0.12549396 0.029259743 -0.08807025 0.14998682 -0.06488364 -0.11823657 0.010182516 -0.15571676
-0.060634527 0.042391416 0.08842207 -0.12080793 0.06783787 0.08476312 0.0058992733 0.03349309
0.08651573 0.042361964 0.06587012 0.057147108 0.11689808 0.15372671 -0.11765378 -0.10348468
-0.13628978 0.034633897 0.08708207 -0.004446343 -0.019433556 -0.21820967 -0.041989136 0.0016548475
-0.08935339 0.14622931 -0.0635029 -0.01354547 -0.15085591 -0.059846077 0.14355794 0.0041295723
0.013348153 -0.021299811 -0.05098013 -0.0010687887 0.046071928 -0.16605273 0.025670294 0.06115437
-0.02317024 -0.08505648 0.112445466 -0.039650377 -0.021646937 -0.16244096 0.011693107 -0.05405223
-0.05288699 -0.08899237 0.009101738 0.14578041 -0.04744301 -0.06857782 -0.049455997 -0.016311062
0.1425264 0.14575444 0.09391616 0.0533079 0.12163452 -0.14951767 -0.04712664 -0.062497586
0.028141469 0.018898 -0.056672357 0.05721918 -0.04293004 -0.083793506 0.015804615 -0.06465788
0.12974457 0.09135082 0.0014808178 -0.12749453 0.20312826 0.11612008 0.07780047 0.013671611
-0.060410164 0.15525904 0.19712628 -0.14049615 -0.09426962 0.10350546 0.19104819 0.028686678
-0.17902744 0.074979745 -0.06839835 0.0740719 -0.14520426 0.06375877 0.049491804 0.13792484
-0.097023375 -0.2129451 0.04264518 -0.10155618 -0.064538136 0.03268192 0.012160433 -0.09404402
0.14327073 -0.048474625 -0.045524165 -0.025669482 -0.20289983 -0.11277064 -0.13946573 0.11319072
-0.0032806396 -0.1343372 -0.15299179 0.18627779 0.043387793 -0.017291157 0.17071293 -0.17606245
-0.032312267 0.022098435 -0.11973157 0.12895294 0.13496046 -0.07508183 0.09211037 -0.11054072
-0.12710607 0.17596135 0.24073608 -0.017611846 -0.06363649 0.15500729 0.097391926 -0.13028729
0.06605211 -0.12934554 -0.14036997 -0.12223095 0.10228544 -0.040350325 0.034931973 -0.1720465
-0.06762903 0.066691495 0.03848123 -0.054452058 -0.10232407 0.08098055 -0.011349113 0.022893881
-0.09891736 -0.008245046 0.1067361 0.06315756 -0.19522078 -0.08423521 0.07106345 0.09098798
0.06306587 -0.31535932 -0.0681956 0.04889534 0.12969291 0.056224056 -0.06248318 -0.032000773
0.14176552 0.012129952 -0.107299596 -0.0070959684 0.039096843 0.111295916 0.09512682 -0.061843626
-0.01424543 0.12703219 -0.0115905665 -0.08337947 0.0773769 0.07609349 -0.035667967 0.014604836
0.056701973 0.08225412 0.055179086 0.08797822 -0.124908976 0.09826459 0.082870096 0.07124579
-0.08877427 0.034221612 0.054955203 -0.05794417 0.013823077 0.027190154 0.06821268 0.06932502
0.113850325 -0.097551994 -0.05244212 0.03145663 -0.13667874 -0.10985145 -0.07673612 -0.09732507
0.024997706 -0.12988096 0.053716257 -0.04670441 0.0076750014 -0.14327909 -0.10188382 0.10413033
0.19839387 -0.08289746 0.049374375 -0.029218704 -0.0385686 0.058169566 -0.031000875 -0.075280555
-0.08454867 0.017997952 -0.046702597 -0.018327678 -0.08227235 -0.008022838 -0.05594189 0.016092315

lstm.weight_hh_l1 f4 [256, 64]
00000000: f0b0 253e 9593 cabd 5b3f f8bd df40 953c
00000010: 6fc8 5b3d a9d4 bdbc 36cb 76bd e382 31bd
00000020: c637 18be 63a2 26bd 60ac 34be 9098 423e
00000030: 4791 6b3c 00a0 f93d 9a19 35be 1027 34bd
00000040: 370e 03be fc4f 373d afb7 af3d 3118 3c3d
00000050: cf96 2a3d 5b11 4fbc ddd2 a0bd 5ef7 0dbe
00000060: 8673 b23c 9a9b 003d dd44 813d 5670 1f3c
00000070: 0344 b43a bbaa a6ba 4051 b6bd 8f75 1ebe
00000080: 8623 99bd f363 5c3c 1ccb e13d a095 943d
00000090: dc40 dc3c e76b 353e 570a fa3c a052 2c3d
000000a0: 363a 95bc 55cd 983c 5c5d 913c 8397 09be
000000b0: 6a92 0e3e e485 593b f817 98bd 5486 f53d
000000c0: 7cfb fabd 0986 893c ef8c 34bd 6bfe 40bc
000000d0: 9388 8abd 8d3e 823d e146 f5bd 40c4 79bc
000000e0: 68d1 5dbd a114 dfbc a1ff 9abd e97d c6bd
000000f0: 3c95 e83d 7af5 2abc 9268 fd3b 26da a7bd
00000100: 2b9e bc3d 2095 983d 594d 1ebe 2bee c4bd
00000110: 2dac 9a3b 4843 a9bc db75 163c cccf 9e3d
00000120: ab88 f4bd 1acf dcbd 8dde e8bc 1eab 353d
00000130: 508a acbd ec65 223e 648f 86bd 8a4a 273e
00000140: f62a 96bd 1b10 443c 47d1 2c3e c028 4bbe
00000150: e720 5dbd f182 4cbd f3c3 34bd 7abb 00be
00000160: 9616 c63b e6d5 9dbd 2791 51bd 3e88 413d
00000170: 2798 3abe c034 39bd 4ddb 8e3c 3601 90bc
00000180: 0f77 17be 247b 95bc 333f 283d 263d efbc
00000190: d037 883d 936d 24bc dc4e 9fbc 4d64 4b3d
000001a0: a4b8 8dbd f77c 91bd 6d16 d23d c932 423d
000001b0: e3f7 eabc ccec 4a3b 87ac ebbd 5492 1b3e
000001c0: fc10 0d3c 9df0 863d 9cbd f6bc 6b4a 01bc
000001d0: f16b 80bd 3227 0fbe 0bc7 9cbc 3a8a 95bd
000001e0: 831f 97bd 8e93 abbd 9709 043e 93d0 963d
000001f0: fddd f7bc 4308 173e 50f3 203e ea44 8a3d
00000200: abf5 9cbd 1306 a83c 73d7 02bd 37a0 543d
00000210: 100b aa3c 3ff0 adbd 2f4c c93d 612f 2bbd
00000220: 66ee 11bc f087 b4bd 9d5d 4cbd ede4 41bd
00000230: 68cd 993d 7a4e 40bd 2c55 c3bc 27e3 543d
00000240: b861 b6bd 68e3 0ebe ba7c 8a3d e08d de3d
00000250: c25f 2e3e d67a bebd 5c28 003e 7312 fe3c
00000260: d1f7 1c3d 0192 d4bd fa93 8e3d 0a94 9fbd
00000270: 70d3 773d ee74 e93d 375d afbd 341e 153d
00000280: c93b 12bd 5c3e d33c d1a3 b23d e336 adbd
00000290: f3b6 f3bd 6afe 2f3d dbbe 2ebd 3f41 613c
000002a0: 9e2d 723d d0eb efba bdfa d13c 5201 febd
000002b0: d137 17be 5d1d b4bd 05e3 da3d 97b4 cdbc
000002c0: b92f 083e 610a 82bd ccc5 953d 4879 173d
000002d0: 5044 08be 309f e5bc 4036 683d 6980 2c3d
000002e0: 5330 ab3d 2f6c 553d 419e 073e ad6a 943d
000002f0: 9914 c83d 1ac5 133c 90a1 35be c143 24be
00000300: 4d7c eabd a688 60bc 9405 3cbc 8869 143d
00000310: 0868 303d 9baa 653d a969 c0bd 4459 adbd
00000320: 5873 37bd 1e14 d6ba 6192 f03c 53f9 9ebd
00000330: c8e4 3ebd 4722 7bbd 7f0a 2c3e c541 83bd
00000340: 3e87 1d3e 2e65 863d d0af a9bc 8e07 093e
00000350: 5c0c f73d ba41 24bd 02db e03d d295 643c
00000360: d56e c5bd 0857 2f3e d60f 123e be6f bc3d
00000370: 317a 413d cbef 2fbe 1d17 8239 b66f 9c3d
00000380: 1bac c53d 0663 5db9 f140 dabd 8622 6cbd
00000390: bda7 283d 819e 10be 8c4a fe3d 703f 4cbd
000003a0: 3fe5 0dbd a03a 2cbc adae e33c 291f abbc
000003b0: 7507 183d 53df 46bd 3075 553e 7084 52bd
000003c0: bdca 993c 2309 c1bd 94ad 3d3e e709 f9bd
000003d0: 3871 853c 89cd b83d c062 f0bc 3473 a7bc
000003e0: 0838 1e3d 3365 463c 4bb0 7dbd 500c 003e
000003f0: 628b efbd e13b 25be 449b 53bd 561e 0c3e
0.16180778 -0.0989143 -0.12121459 0.01821941 0.053657945 -0.023172693 -0.06025239 -0.043337714
-0.14865026 -0.040682208 -0.17643881 0.1900351 0.014377899 0.12188721 -0.17685547 -0.043982565
-0.12798391 0.044754013 0.08579957 0.04592151 0.04164773 -0.012638415 -0.07852719 -0.13863894
0.021783601 0.031398393 0.06311963 0.009731373 0.0013753179 -0.0012715677 -0.08902216 -0.15474533
-0.07477479 0.013451564 0.11025068 0.07255101 0.026886396 0.17716943 0.030522509 0.042070985
-0.018216234 0.018652597 0.017744713 -0.13436703 0.1392304 0.0033191377 -0.07426447 0.11988512
-0.12254998 0.016787546 -0.044079717 -0.011779408 -0.06764331 0.06359587 -0.1197641 -0.015244544
-0.054154783 -0.027231516 -0.075682886 -0.09691984 0.11356589 -0.010434503 0.007733413 -0.081959054
0.09209856 0.07450318 -0.15459193 -0.096157394 0.004720232 -0.020661965 0.009183372 0.07754478
-0.1194013 -0.10781689 -0.028426433 0.044352643 -0.084248185 0.15859193 -0.06570318 0.16337028
-0.07332413 0.0119667305 0.16876708 -0.19839764 -0.053986456 -0.049929563 -0.044132184 -0.12571517
0.006045173 -0.077068135 -0.05116382 0.04724907 -0.18222104 -0.045216322 0.017438555 -0.017578702
-0.14791511 -0.018247195 0.041075896 -0.029203963 0.066512704 -0.01003589 -0.019446783 0.0496562
-0.06919983 -0.07103913 0.10258184 0.047411714 -0.028682655 0.0030963896 -0.11507516 0.15192538
0.008610006 0.06588862 -0.03011971 -0.007891278 -0.06270588 -0.13979796 -0.01913788 -0.07301755
-0.07379057 -0.08377753 0.12894283 0.07364001 -0.03025722 0.14749245 0.15717816 0.067514256
-0.07664045 0.020510709 -0.03194375 0.051910605 0.020757228 -0.08493089 0.09828984 -0.04179323
-0.008906936 -0.088149905 -0.049893964 -0.04733746 0.07509881 -0.04694984 -0.023844324 0.05197444
-0.08905357 -0.13953936 0.06762071 0.10866904 0.17028716 -0.09300773 0.12515396 0.031014657
0.038322274 -0.103794105 0.06961818 -0.07791908 0.060504377 0.11399256 -0.08562701 0.036405757
-0.035701547 0.025786571 0.08722652 -0.084577344 -0.11900129 0.042967238 -0.042662483 0.013748466
0.059125535 -0.001830453 0.025632257 -0.124025956 -0.14767386 -0.08794663 0.10687832 -0.025110526
0.13299455 -0.06349636 0.073131174 0.036980897 -0.13307309 -0.028030008 0.05669236 0.04211465
0.083588265 0.052105125 0.13243963 0.07246909 0.09769554 0.009019161 -0.17737412 -0.16041471
-0.1144949 -0.0137044545 -0.011475939 0.036233455 0.043067962 0.056070905 -0.09395153 -0.08464292
-0.044787735 -0.00163329 0.029366674 -0.077623986 -0.0466049 -0.061311986 0.16800879 -0.06409029
0.15383622 0.06562267 -0.020713717 0.13381788 0.12062904 -0.040101744 0.109792724 0.013951736
-0.0964028 0.17123044 0.14263853 0.09201001 0.04723567 -0.17181318 0.00024812753 0.07638495
0.09651967 -0.00021113091 -0.10656918 -0.05765011 0.041175593 -0.14122964 0.124165624 -0.049865186
-0.034642454 -0.010512024 0.027793253 -0.020888882 0.037116487 -0.048552822 0.20845485 -0.051395833
0.018773431 -0.09425571 0.18523246 -0.12160092 0.016289338 0.09023578 -0.029343963 -0.020440675
0.038627654 0.012109089 -0.061935704 0.12504697 -0.11696507 -0.16136123 -0.051661745 0.13683447

lstm.bias_ih_l1 f4 [256]
00000000: 1027 bfbd a8be 2f3d 8f29 cc3c 482e 48bd
00000010: b043 a0bd 349a debd 7389 74bd 980f 2d3c
00000020: c89b 27be 0a14 323d 07dc 1c3d 9966 6f3d
00000030: 6020 d03d 77b3 2dbe 45ee 24be 7b23 c6bd
00000040: a38d 66bd 930b 95bd db1d 4d3d 799c 1ebd
00000050: e6e5 e33d 3ce8 653b b142 a43d 7916 cc3c
00000060: 2200 3a3c 930d bebd eb19 1fbb cb02 b0bd
00000070: 75b2 a1bd 7c73 21be 5320 c13d dede 1c3d
00000080: 943b 933d b4fe cbbd 61ac 34bd 19ed 3c3c
00000090: 8f64 053d cf04 0bbe dba1 a43d ff9f 29be
000000a0: 87be 04bd 0281 71ba 069c ba3d b26d 0b3d
000000b0: cae6 13be a808 2bbe 212c a23b 2455 02be
000000c0: 4d9e 22be e557 41be 53b3 92bd 62d5 c93d
000000d0: 37b7 c83d 47f4 a33c 8c27 9bbd 43cd ddbd
000000e0: 541b 02be dae2 08be 2639 1bbe 52ec 2f3d
000000f0: 3cc9 06bd decb f6bd dad6 253d 7585 933d
00000100: f220 4a3d e039 3dbd 2ce9 84bd d96d 94bc
00000110: af61 2abe 3814 a73d 11a7 b0bc ff88 933d
00000120: a75b 103d d4a4 153d 24b9 c1bd bc9c d63d
00000130: 4cd9 dcbd c0a9 f5bc 1535 37be 143e c23c
00000140: 4ea2 35bd a48e bebd b62d d9bd eb07 a9bd
00000150: 6364 fabd 1c08 893b 4f3a a23b 24cf c0bd
00000160: f542 19be 9ffa e3bc 207c b8bc 69a0 58be
00000170: b386 21be 4871 ccbd ecbe b93d 5de1 6ebd
00000180: 7fbd db3d ee3e 27be c86b 33be b464 19bd
00000190: 81ab fabd 8412 983d e3a2 e5bd 7849 133d
000001a0: 84ab 83bd 577c 32bd 6cff a23d 8243 11be
000001b0: 1ea1 9dbd 3ed8 533c f87c 09be 3915 fdbd
000001c0: 6f0b 02be 506c 49bd 6d91 a8bd aaaf 7cbd
000001d0: 8360 b4bc e944 3bbe 17f8 51bc 9d19 aebd
000001e0: d3fd cfbd 2b2e 81bd fc4b 683d 654a 873d
000001f0: 79d4 1ebc 8c83 dabd b466 eebd 5520 08bd
00000200: 2352 93bc 625d 883d 1a37 ca3d 3078 303e
00000210: 7e81 66bd 9ab3 47bd c588 9fbd 7b72 ec3c
00000220: 2864 333c 9f44 febd f23a 303e 2552 0b3d
00000230: 2858 54bc 27c0 d03d 2e5c 79bd a801 ac3d
00000240: 1ffc b43d 36a3 55bd 30fa 9dbd 4659 fabc
00000250: 4490 33bd ca74 823d fe78 8ebd 4f46 d9bd
00000260: 9c07 33bd 8cc7 efbd a83b f23c 902b 04be
00000270: 398a c0bd 5b04 59bd b966 193e ec77 f1bd
00000280: 24a7 b83d fef0 013d 276d 0a3e 6681 1ebd
00000290: cfd8 443d fb5a 5e3d 3ae3 b9bd ee35 10bb
000002a0: a0bb f43d 907a bdbd e7bc 1a3e a06b babd
000002b0: 4cfe b23c 247a b3bc cbfd f6bb ce00 c5bd
000002c0: b697 a9bd 73fa d1bd d101 1e3d ea4a 60bd
000002d0: 6f78 c93d 8402 b7bd 9e7c 083e b94d 0dbe
000002e0: eac6 cabb 9c0a 27bb 42a6 a5bd 1458 85bd
000002f0: f787 ec3d 891a f5bc 5704 963d 68c3 493d
00000300: a3ec 0c3d ab06 8cbd 3b8b 1bbe c66f bc3c
00000310: 271b e7bd 5c85 e03d 9d6f 553d c743 dfbd
00000320: d6f7 c9bc 9aac b0bb ff23 643d 17e6 6f3c
00000330: 1cdb 593d bf49 943d 126c 763d 5f71 21be
00000340: fda1 dabd 2249 0abe 46cf 86bd c6c7 05bd
00000350: 4709 073e 1192 dbbd 6041 633d bb85 3bbe
00000360: 554e c83c fa6c c8bd 4fc7 8abd de0e 35be
00000370: 1902 21be e586 d1bc 38be e1bd 0aab e33c
00000380: e911 c53d 2475 6ebc 6df1 20be 61b4 6ebd
00000390: 0a3d 6dbc 5d1b 93bd d948 f43d 9d09 2abe
000003a0: 3f4b 1bbe 4b27 713b 0ea8 033c 4e25 ae3c
000003b0: f7af 1abd b3e0 9ebd 8a4a 0abe a22e 0ebe
000003c0: 85d1 42be a50b 3abd 9b22 c93c ed6a 89bd
000003d0: 8cff 5abc 4617 10bc f5cc 983c c805 dfbd
000003e0: 5022 803d b20c 30bd a8f4 d6bd 3c76 37bd
000003f0: 9620 3e3d 4fcf f7bc b0cc 533d 6ec5 16be
-0.093336225 0.042906433 0.02492216 -0.048872262 -0.0782541 -0.10869256 -0.059701394 0.0105628
-0.1636802 0.043476142 0.038295772 0.058447454 0.10162425 -0.16962992 -0.16106518 -0.09674736
-0.05628742 -0.07277598 0.0500773 -0.038723443 0.11127834 0.003508105 0.08020533 0.02491306
0.011352571 -0.09279933 -0.0024276923 -0.08594283 -0.07895366 -0.1576671 0.094299935 0.03829848
0.07189098 -0.0996069 -0.044109706 0.011531138 0.032566603 -0.13576053 0.08038684 -0.1656494
-0.032408264 -0.0009212644 0.0911179 0.03404016 -0.14443508 -0.16702521 0.004949108 -0.12727791
-0.158807 -0.18881185 -0.0716311 0.09855153 0.098005705 0.020013941 -0.07575902 -0.10830166
-0.12705737 -0.13367787 -0.15158519 0.042949982 -0.032906756 -0.12050603 0.0404881 0.07203189
0.049347825 -0.046197772 -0.064897865 -0.018118786 -0.16638826 0.08158153 -0.021564038 0.07203864
0.035243656 0.036534145 -0.09459141 0.104791135 -0.107836336 -0.02998817 -0.17891343 0.023711242
-0.04434424 -0.0930455 -0.10604422 -0.08253463 -0.122261785 0.004181875 0.0049507986 -0.09414509
-0.14966948 -0.027829466 -0.022520125 -0.21154942 -0.1577404 -0.09982544 0.090696186 -0.058320392
0.10729503 -0.163326 -0.17521584 -0.037449554 -0.12239743 0.074254066 -0.11212709 0.035958737
-0.064291984 -0.04357561 0.07958874 -0.14185908 -0.07696746 0.012929974 -0.13426578 -0.123575635
-0.12699674 -0.04917556 -0.08230863 -0.061690964 -0.022018677 -0.18288006 -0.012815497 -0.08500979
-0.10155835 -0.06307634 0.05671309 0.066059865 -0.009694212 -0.10669622 -0.11640683 -0.03323396
-0.017983502 0.06658436 0.09873791 0.17233348 -0.056275837 -0.048755266 -0.077897586 0.028863182
0.010949172 -0.12415432 0.17209986 0.034013886 -0.012960471 0.101929 -0.060878925 0.083987534
0.08837151 -0.052157603 -0.07713735 -0.030560147 -0.043838754 0.06369932 -0.06956671 -0.106091134
-0.04370843 -0.117079824 0.029569462 -0.12907243 -0.09401364 -0.05298267 0.14980592 -0.117904514
0.090162545 0.03172397 0.13518201 -0.038697623 0.048058327 0.054285984 -0.09076543 -0.00220048
0.11949849 -0.092518926 0.15111123 -0.09102559 0.021849774 -0.021908827 -0.0075375787 -0.09619294
-0.0828089 -0.102528475 0.03857595 -0.054758944 0.09837424 -0.08936027 0.13328788 -0.1379918
-0.006188263 -0.0025488501 -0.08088352 -0.0651094 0.11549371 -0.02991988 0.073250465 0.04925862
0.03440536 -0.06837209 -0.15189831 0.023002516 -0.11284476 0.10962936 0.052108396 -0.109015994
-0.02465431 -0.0053916695 0.05569839 0.01464226 0.053187475 0.072406285 0.060161658 -0.15765904
-0.10675428 -0.1350446 -0.06582503 -0.032661222 0.13187133 -0.10721219 0.05548227 -0.18312733
0.024451414 -0.09786411 -0.06776296 -0.17681453 -0.15723456 -0.025577018 -0.110226095 0.027791519
0.09622557 -0.014554296 -0.15717097 -0.05827749 -0.014479885 -0.071829535 0.11927957 -0.1660523
-0.15165423 0.0036797102 0.008035673 0.021258023 -0.03776547 -0.07757702 -0.13504997 -0.13884977
-0.19025238 -0.04542126 0.024552634 -0.067098476 -0.013366591 -0.008794611 0.018652419 -0.108897746
0.062565446 -0.042980857 -0.10495883 -0.04479049 0.046417795 -0.03025022 0.051708877 -0.14723751
