Competition/TrainAI/model/c30/model_weights_3.pth (torch, 125327 bytes, 18 tensors)

lstm.weight_ih_l0 f4 [128, 34]
00000000: d72f 12be a300 023e 49e3 0c3e b517 29be
00000010: 77d1 083e 9416 103e c0d7 1dbe 77a4 cf3d
00000020: 2bca 193d e473 c63d d711 27bd 14c8 b23d
00000030: dd9c cd3d 2a6e c93d a4a7 90bc 12bb 52be
00000040: 7f3f 263e 262b 9cbd 920c 1d3e f162 283e
00000050: f461 c93d 8cbb 02be d7c3 b9bd d716 0a3e
00000060: 597e 5ebd 1c31 043e 3827 a2bd 0159 28be
00000070: 96aa ebbd 902f b33c 9075 31bd d799 033e
00000080: 72f5 e03d f76f 063e fb37 09be 076b 193e
00000090: b987 c2bd a9d6 12bd baf1 bfbd 94e6 b6bd
000000a0: d462 a43d a818 9abd 137c 0bbe 9da7 94bd
000000b0: d027 f1bd eb34 243c 326e a53c ae33 0abe
000000c0: 5e69 e1bd 139d ffbd c2af 2c3d 35cc f53c
000000d0: 46ed ac3d 6134 84bd 9d1a d0bd f9e8 89bd
000000e0: 51e7 cfbc a5dc 2d3d bb26 543d 047b 94bd
000000f0: b6e4 a2bd 180e d0bd c2db d5bd 0ee1 b6bd
00000100: 6ee6 023e 418b 1dbe f516 ba3d a6dd cdbc
00000110: 43be 3bbd e527 05be b127 923c bf00 113e
00000120: 12ae 4abd 7145 60bd 5989 f9bd 3c6e 32be
00000130: e76a 3abe 7f31 e5bc 0dca 073e 91fa 83bc
00000140: d54f 883d c67b 0b3d 8519 00be 662f 36be
00000150: 147d c43d 8f49 253d 7371 bdbd ffa0 6b3d
00000160: 0461 be3d c9c5 93bc c00f c73d b311 0a3d
00000170: 571e 413e f98e 753d 8074 07be d087 3c3e
00000180: 10c1 373d 5d7b 12be 8cdf 0c3e 027c 2ebe
00000190: 6c0e afbd 1990 1a3e f17c 2f3d d95a 4ebd
000001a0: 05ec 29be fc4b 00be 9538 18be 40ae 153e
000001b0: 3a94 a8bd 8ff0 23bd 8e03 a73d 62c8 693d
000001c0: 73c5 023e 4498 a13d 23b2 a3bc 6183 ea3d
000001d0: ae50 efbd eb72 33be 164a 3d3e 5f36 2bbe
000001e0: d345 6abd c6df 7e3d ecf5 22be b3fc 003d
000001f0: 5b62 c43d 54a4 073e 20e6 02bd d75f 9b3d
00000200: 90e5 cb3b 65c3 a23d c947 9fbc 5bfa 143c
00000210: fe93 313d d5aa 2e3e 49e3 c5bd d85e fe3c
00000220: fb0a 85bb fe9b 96bd 62c3 2bbe 2473 413d
00000230: fa73 0bbe 87de ad3b ad28 813c 0219 1f3d
00000240: 184f 603c dc77 d7bd 4ce6 453d 7f8b 3a3e
00000250: 4a5b 213e 096a a03c 3c35 123d 6ff9 3e3e
00000260: a363 453d 7cd6 9ebc 5e1e 093e 5dcc 0cbc
00000270: 70e2 a93d d7c8 88bd f6d2 8abd 8cee 3dbe
00000280: 961f fcbd 7f6f 3dbd 0764 1c3e 81d9 153e
00000290: fb45 223e 1b04 b83d 6dc1 773d 0fb0 d7bd
000002a0: 90c1 a13d eb69 193e 0de9 303d fc40 3b3d
000002b0: 1f63 9d3d 3fc6 f7bd 23f1 febd ede5 57be
000002c0: 7b75 c3bd cbf4 823c a264 b33d ad6a cebd
000002d0: 4fca b0bd b8c3 843d 7f83 a63d 5694 f0bc
000002e0: 2206 b3bd b1e7 49be b8cc 16be 1b13 0cbe
000002f0: 256c 48be b2b2 09be 1f84 2b3e d3c0 2b3d
00000300: acea 6e3c e66b d5bd ab5f b7bd 5f0d dcbc
00000310: 96ac d23d 7103 043e dc3a 773c a505 f1bc
00000320: 75a5 d6bd 9cea c73d 604e c43d ea3b a63d
00000330: 0db1 f03d 5cbc 933d c8f5 a2bc dfeb 31bd
00000340: b701 44bc c070 d7bd 2473 13be a799 30bd
00000350: 8fce cabd c762 75bc 48e4 a9bc 2027 efbd
00000360: 545d 073e 25d3 623c a4a0 293e 1255 ee3c
00000370: 9717 06be f385 c5bd 062e 2c3e ea3b fdbd
00000380: cd36 4dbe f661 943d 7b59 5e3d 3f2d 033d
00000390: aa53 993d 242c e23d 1bac 243c 26c8 d5bd
000003a0: 23cc ee3b 3e07 4ebc 5e66 e63d 2082 4ebd
000003b0: 238d 95bd e029 e3bb 6755 733b cb87 9abd
000003c0: 9bb0 c4bd 748e b5bd 185f 2bbe 722d d7bc
000003d0: b9f3 48be 617b bfbd 0c38 833d 8c35 fa3d
000003e0: bcab b13b 292b d53d 9d01 62be b01d 4fbe
000003f0: 2e41 4abe 11fc 183d 2295 acbd ded9 c7bd
-0.14276062 0.12695555 0.13758577 -0.1651295 0.13361154 0.14071113 -0.15414333 0.10138791
0.037546318 0.09690073 -0.040788498 0.08729568 0.10039685 0.09835465 -0.017658062 -0.20579174
0.1623516 -0.076254174 0.15336826 0.16443993 0.09833136 -0.12766856 -0.090705566 0.13485275
-0.054319713 0.12909359 -0.07917637 -0.16440202 -0.11507146 0.021873266 -0.043325007 0.12851654
0.10984315 0.13128649 -0.13400261 0.14982234 -0.09498543 -0.035849247 -0.093722776 -0.08930698
0.080266625 -0.07524234 -0.1362155 -0.07258532 -0.11775172 0.010022382 0.020194147 -0.13496277
-0.11006425 -0.124811314 0.042159803 0.0300046 0.08443694 -0.06455303 -0.10161326 -0.06733889
-0.025378855 0.04244675 0.05179475 -0.07250026 -0.079537794 -0.10158938 -0.10442306 -0.089296445
0.12783214 -0.15385152 0.0908641 -0.025130104 -0.045835745 -0.130035 0.017841192 0.14160441
-0.049482413 -0.054753724 -0.121844 -0.17424864 -0.18204843 -0.027977703 0.1326067 -0.01611069
0.06655852 0.034053586 -0.12509735 -0.17791519 0.09594169 0.040353354 -0.09250154 0.057526585
0.09295848 -0.018038647 0.09719801 0.033708286 0.1885923 0.059950802 -0.13228035 0.18411183
0.044861853 -0.14304872 0.13757151 -0.17039493 -0.08547673 0.15094031 0.042843763 -0.050379608
-0.1659394 -0.12528986 -0.14865334 0.14617252 -0.08231397 -0.040024336 0.08154975 0.057075866
0.12770633 0.078903705 -0.019982403 0.1145084 -0.1168531 -0.17524306 0.18485293 -0.1671996
-0.057195496 0.062225126 -0.15914124 0.031490993 0.09589072 0.1324628 -0.031957746 0.075866394
0.0062224343 0.07947425 -0.01944341 0.0090928925 0.043354027 0.17057355 -0.09662492 0.031051084
-0.004060147 -0.07353972 -0.16773751 0.047228947 -0.1361846 0.0053060683 0.015766466 0.03884221
0.013690732 -0.10520908 0.04831533 0.18217276 0.1575748 0.019581812 0.0356953 0.18649839
0.048190724 -0.019389383 0.1339049 -0.008593646 0.08295143 -0.06678932 -0.06778519 -0.1854803
-0.12310712 -0.04624891 0.15272532 0.14633752 0.15847008 0.08985158 0.0604872 -0.105316274
0.07898247 0.14981811 0.043191005 0.04571627 0.076849215 -0.12098359 -0.12448337 -0.21083803
-0.09543892 0.015985867 0.087594286 -0.100789405 -0.08632337 0.06482643 0.0813055 -0.029367607
-0.08741404 -0.1971729 -0.14726532 -0.13679163 -0.19572504 -0.13447073 0.16749619 0.04193194
0.014582317 -0.104209706 -0.08953794 -0.026861845 0.102868244 0.12891938 0.015089717 -0.029421637
-0.10480777 0.09761545 0.09585261 0.081168965 0.1175252 0.07213661 -0.019892588 -0.043437835
-0.0119632995 -0.10519552 -0.14399391 -0.043115284 -0.09902679 -0.014977164 -0.020738736 -0.116773844
0.13219196 0.013844286 0.16565186 0.029093299 -0.13094936 -0.096446894 0.16814432 -0.12364943
-0.20040436 0.07245247 0.054284554 0.032025572 0.07486661 0.110435754 0.010050799 -0.10438566
0.0072875186 -0.012574969 0.11249994 -0.050417066 -0.0730231 -0.006932482 0.0037129761 -0.07545432
-0.09603997 -0.088650614 -0.16735494 -0.026266787 -0.19624223 -0.093497045 0.064071745 0.122172445
0.0054220837 0.10408623 -0.22070928 -0.20226169 -0.19751427 0.037349764 -0.08426882 -0.09758352

lstm.weight_hh_l0 f4 [128, 32]
00000000: acff 113e 14b3 093d f488 16bd e572 c7ba
00000010: 14bc 293d 45ac 393e c0f9 d23d 70a0 24bd
00000020: c233 eabd 1bd0 1bbe be3c 2b3e 8c92 b03d
00000030: 820c 4bbe cced 3cbe 1c2d 7cbd 8c3d 103e
00000040: ba92 adbd f325 a6bd 85f5 373d 6114 883d
00000050: 47e0 673c a771 bf3d 74e3 7b3d 0450 d3bd
00000060: d35e 013d 03ea b33d fc56 08bd ee83 943c
00000070: d406 d93d 5e5d e63d f0e4 d2bd 0d87 15be
00000080: a0a5 99bd bfb2 233e e8de ae3d bc9a a7bd
00000090: 0eb9 1bbe daf5 83ba 0890 36be 1b81 05be
000000a0: b0b0 90bc f2ab bb3d 59cb 1d3e 6042 f1bd
000000b0: 17cb a73d 7e1a d4bd 89a7 f33b b5aa e7bd
000000c0: a14b 44be 7dd8 f1bd e061 ec3d 05bc d4bd
000000d0: a537 ee3d 4b0f 6abd a928 2a3e dba1 03be
000000e0: 4f5a 3f3e 0e7b 1d3e d5ca 513d 6a7c 2d3c
000000f0: 0ac8 a6bd 5f43 2c3e faa0 0bbc 0fa7 503d
00000100: 72c4 32be 66b3 253e df4f ad3d dd96 9fbd
00000110: b32f a1bd 6ff0 8b3d 88e7 253d 6d7c 8abd
00000120: 56a5 c83d cc19 57bc fe95 923c ff7e fe3d
00000130: 9ec1 2f3d 81f0 02be 22cc 99bd 4f37 10be
00000140: dff9 0bbe cebf 0d3d 303e 0f3e 35c2 f13d
00000150: 5010 d7bd cdf2 88bc fa12 0cbe fcc6 bcbd
00000160: d31e 953c acaf e33d d771 003e 540b 06be
00000170: 5f5a a53c 3ea6 3fbe 9de4 d7bd 4fa6 36be
00000180: 0b5a 693c 6565 b3bd bb27 f03d 531d ed3d
00000190: 3f6e ddbd ad4a 1abe e2d2 0d3e ca71 6cbd
000001a0: b71c 9b3c 730e 5e3d 9ff6 4c3e 5187 2fbe
000001b0: 5964 2a3c 2e2f fabc 3393 ed39 b041 2f3c
000001c0: 54c0 f7bd 97b5 19be 476c 0e3e aed4 84bc
000001d0: 957c a23d f9b6 cfbc c168 2b3d 07fe 04be
000001e0: 3d53 54bd cedb 10be 1693 1e3e defc 12be
000001f0: 8f24 9bbd b234 e4bb 1583 e3bb 2361 93bd
00000200: ad00 25be da81 2ebd 6e48 04bb 4058 373e
00000210: 8393 f23d 7e91 613d 10b5 863d af59 823d
00000220: ba6b 1fbd 37ad d13d 9341 023d c113 443e
00000230: 1b83 2bbe 2ec9 32bd 8de6 193e 04fe cabd
00000240: 109d f33d 5d9b 163d cc36 cf3d d08a e23c
00000250: b54c ed3d fa17 963d f4f3 19bd f76d 1a3e
00000260: cd7d a83d 224c 09be 5e95 d7bd 7ce2 003e
00000270: 704b dbbc 6b88 a6bd 7f55 37be c90b 98bd
00000280: 1e48 c53c ec62 1b3e 573f 10be 4530 8d3d
00000290: 75b0 92bd 5f94 03be 940f 88bb 3c94 08be
000002a0: 5937 d6bd 4c3d 20be 4cd2 aebd 9591 17be
000002b0: 3f38 1fbe 1c0e 353e 1ee2 123d 1adf 14bd
000002c0: 3b48 1f3e d9c5 b7bd 72db 45bd 4017 b33c
000002d0: ce08 8b3d 40d0 e1bd 0361 dcbd 9b4c e8bd
000002e0: 8496 1d3e 7471 d83d 9e69 c9bd 92b2 143e
000002f0: b537 003e 8566 ac3d bc33 e13d 976e 4dbe
00000300: b470 2dbc 8c8f 943d ce21 85bc c417 1fbe
00000310: bbf3 d4bd 6257 2e3e 96f7 dbbd 021b a33d
00000320: 9a54 c1bd 9817 38be e82c f6bb d6d6 90bd
00000330: 894b 613d 8037 413e 99c4 23be 79d0 05bd
00000340: 7b8f 543d bd01 97bd de74 453d 48c4 b23d
00000350: 3c76 d9bd c907 0abe c8c5 c83d 2d36 e5bd
00000360: f309 253d 905a 26bc 4312 183e fd9f 463e
00000370: 2ff2 b23c bcb4 183e 9bd1 c73b 7f9c 1cbc
00000380: 95a6 433e a50c b93c 6e13 91bd 0d07 4c3e
00000390: a53e d4bd 5281 07be f9e3 083d f6f8 7a3d
000003a0: d17a 8bbc 1c0b 62bc 14f8 3dbd a5e9 c13b
000003b0: 21ae 623e 59bb f73d 9ddf 0b3e 2c92 1fbe
000003c0: 5617 a2bd ba8e e1bd 88df 8f3d 18f7 37be
000003d0: 326a edbd 8a5c 213e 8e04 613d ee22 013e
000003e0: 98de bf3c 7e34 343e 0405 403d 4b97 59bc
000003f0: 93be 073b 9cda 103e f0d3 d23d 09a9 30be
0.14257687 0.033618048 -0.036751702 -0.0015216736 0.04143913 0.18132122 0.10301542 -0.040192068
-0.11435653 -0.15216105 0.1672239 0.086217016 -0.1982899 -0.18450087 -0.061566457 0.14085978
-0.084752515 -0.08112707 0.04491188 0.06644512 0.014152593 0.09347849 0.061496213 -0.10317996
0.031584572 0.087848686 -0.03328608 0.018129315 0.105970055 0.11248277 -0.102975726 -0.14602299
-0.075022936 0.15986155 0.0853861 -0.0818381 -0.15207312 -0.0010067776 -0.17828381 -0.13037531
-0.017662376 0.09163655 0.15409602 -0.11780238 0.08193033 -0.103566155 0.007435743 -0.11311857
-0.19169475 -0.1180887 0.11542106 -0.103874244 0.11631707 -0.05714349 0.16617073 -0.12854712
0.18686794 0.15378973 0.051218826 0.010588745 -0.08143623 0.16822575 -0.0085222665 0.05094057
-0.1745775 0.16181716 0.084625 -0.07792447 -0.07870426 0.068329684 0.04050401 -0.067620136
0.0979716 -0.013128709 0.017893787 0.12426566 0.042909257 -0.12787057 -0.07509638 -0.14083599
-0.13669537 0.034606747 0.13988566 0.1180462 -0.10501158 -0.016717339 -0.13679114 -0.09217641
0.018203175 0.11117491 0.12543426 -0.13090259 0.020184694 -0.1871576 -0.105416514 -0.17836879
0.014242659 -0.08759574 0.11726328 0.11577859 -0.108120434 -0.15067549 0.13849977 -0.057725705
0.01893459 0.054213 0.20015953 -0.17141463 0.010399901 -0.030540075 0.00045313835 0.010696813
-0.120972306 -0.15010677 0.13908492 -0.016214695 0.079339184 -0.025355803 0.041847948 -0.12987529
-0.051837195 -0.14146349 0.15485796 -0.14354274 -0.075753324 -0.0069642896 -0.0069431164 -0.07196262
-0.16113539 -0.042604305 -0.0020184773 0.17904758 0.11844542 0.055070393 0.06577504 0.06364762
-0.038921095 0.10238116 0.031800818 0.1914816 -0.16749232 -0.04364889 0.15029354 -0.09911731
0.11895192 0.03676926 0.101178735 0.027654082 0.11586896 0.07328792 -0.037586167 0.15081011
0.082271196 -0.13407949 -0.105265364 0.12586397 -0.02676937 -0.081314884 -0.17903708 -0.07424123
0.02408224 0.15174454 -0.14086662 0.06893972 -0.07162563 -0.12849568 -0.0041522477 -0.13337797
-0.104597755 -0.15648383 -0.08536205 -0.14801629 -0.155488 0.17681164 0.035860173 -0.03634558
0.15554897 -0.08973283 -0.048304982 0.021861672 0.06788789 -0.11026049 -0.10760691 -0.11342736
0.15389448 0.105685145 -0.09834598 0.14521244 0.1252125 0.084179915 0.10996196 -0.20061718
-0.010585953 0.07253942 -0.01625147 -0.1553641 -0.103980504 0.17025521 -0.10740583 0.07964136
-0.094399646 -0.1797775 -0.0075126775 -0.07072227 0.055003677 0.18868828 -0.15992965 -0.03266952
0.051894646 -0.073733784 0.048207156 0.08728844 -0.106182545 -0.13479532 0.09803349 -0.11191974
0.04029269 -0.010153428 0.14850716 0.19396968 0.021843998 0.14912695 0.006097985 -0.009558796
0.19106515 0.022589037 -0.07083784 0.19924565 -0.10363511 -0.13232926 0.033420537 0.061272584
-0.017026337 -0.013796594 -0.046379164 0.005917745 0.22136737 0.120962806 0.1365952 -0.15583104
-0.07914607 -0.11013551 0.07025057 -0.17965353 -0.11592521 0.15757957 0.054935984 0.12610981
0.02342157 0.17598149 0.046879783 -0.0132807 0.0020712956 0.14145893 0.1029433 -0.17251982

lstm.bias_ih_l0 f4 [128]
00000000: b258 313b 51a1 143e 65a4 e9bd 816d d6bc
00000010: d042 b5bd c120 fbbd d322 f1bd e520 aabd
00000020: fa0c 15be a140 bd3c 0edf 08bd a1bd 46bd
00000030: a243 13be b8ad fc3d 7baf 023c d04a 4f3c
00000040: 6182 8b3b e547 d13d 9f26 163e 101a c0bd
00000050: e1b6 1dbe 23e0 71bb e9b5 0bbe 793f 1b3e
00000060: 41c2 ff3d c39c 313d 549f 72bc 87c9 8b3c
00000070: b41a c9bc 0a15 f7bd 8f7e 493d 0217 60be
00000080: 492c 093e 24ab fbbd d541 0f3e 00cf d5bd
00000090: 7e6b 543d 9817 7aba 8bd2 37be b5c3 243e
000000a0: 5b0b 70bd 69db d0bc 127f a13d f042 343e
000000b0: 3c39 323d c4be 113e 11f1 c2bd e42f 3a3d
000000c0: e888 243d e893 063c a91c e2bd 0fad 6d3d
000000d0: fd82 233d ea3e 14be d093 34bd 8b26 b5bc
000000e0: 4e52 f8bd 1005 d8bd 944d 30be 209e e63c
000000f0: 7a9a 97bd 586b 34bd 8c29 873c ee14 7bbb
00000100: 78c2 9abd 1946 403e 45b2 0ebc 773a cdbd
00000110: ee28 8c3d 95bc f73b 590d aabd 9374 863d
00000120: 6201 22be 8b74 8b3b 0226 8e3d 455f 213e
00000130: 6950 4bbd 018f 10be c28e 05be a9c2 1e3e
00000140: 4537 1ebc f4a9 70bd 90a3 31be fbb7 423e
00000150: 7cae 0bbe d399 d83d 7684 8fbd 6541 4fbd
00000160: 26de 363e 47f1 b2bd c35f c0bd 879e 10be
00000170: cb1d 443d 3a6f c63d bcf9 70bd def2 ecbd
00000180: 7ab8 0c3e 305f 0dbd e3b4 00be 94fe 7dbd
00000190: fd7f 2abd 0ce8 583a fc71 16bd 5ca6 903d
000001a0: 91c3 3d3e 6504 bdbd bbcb b7bd cd91 9cbd
000001b0: f2e3 cdbd 3a52 1cbe 7cfb 9abd af17 0fbe
000001c0: 1702 55bd c569 58be 5525 603d e749 f0bd
000001d0: 7287 9dbd 2f2f 9e3c 9661 91bd 5f28 433e
000001e0: acc6 963b 6484 9fbd ab09 3b3e d35c 403e
000001f0: d349 ab3d ddd1 983d 74ef fe3d 91a4 4b3e
0.0027060923 0.14514662 -0.11408309 -0.026175262 -0.08850634 -0.12262107 -0.1177422 -0.083070554
-0.14555731 0.023102107 -0.033415847 -0.048520688 -0.14381269 0.12337822 0.007976408 0.012652114
0.0042574857 0.10218791 0.1466317 -0.09379971 -0.15401794 -0.0036907278 -0.13643612 0.15160932
0.12488223 0.04336239 -0.014808495 0.01706387 -0.024548866 -0.1206456 0.04919296 -0.21883777
0.133958 -0.12288502 0.13989957 -0.10439873 0.051860325 -0.0009540259 -0.1795141 0.16090281
-0.05860458 -0.025495248 0.07885565 0.1760366 0.043511614 0.14232928 -0.09518636 0.04545583
0.040169626 0.008213975 -0.11040623 0.05802637 0.039919842 -0.14477125 -0.044086277 -0.022113105
-0.121250734 -0.105478406 -0.17217094 0.028151572 -0.07402511 -0.044047683 0.016499303 -0.0038312036
-0.07556623 0.1877674 -0.008709495 -0.10020917 0.06843744 0.0075603225 -0.08303327 0.065652035
-0.1582084 0.0042558364 0.06940843 0.15758999 -0.049637232 -0.14117052 -0.13042739 0.15503944
-0.009656732 -0.05875583 -0.1734755 0.19015495 -0.1364078 0.10576215 -0.07007687 -0.050599474
0.1785818 -0.08737426 -0.09393265 -0.14122973 0.047879975 0.096891835 -0.058831915 -0.11569761
0.13742247 -0.034514606 -0.12569003 -0.062010363 -0.041625965 0.0008274324 -0.036729798 0.070629805
0.18531634 -0.09229354 -0.089744054 -0.07644997 -0.10053243 -0.15265742 -0.07567498 -0.13973878
-0.052003946 -0.21134098 0.054723103 -0.11732846 -0.0769185 0.019309608 -0.07098691 0.19058369
0.0046013203 -0.077889234 0.18265407 0.1878541 0.0836369 0.07461903 0.12448016 0.19886996

lstm.bias_hh_l0 f4 [128]
00000000: 3a00 0ebe dabb 023d 9c95 8f3d 8ca7 303d
00000010: e6b5 ac3d 4ce7 843d 81bd e33c 3fe5 39be
00000020: 5230 263e dfd4 a93d d2b7 723d 7b4a b63c
00000030: d399 0a3d ec3d 133c ef31 8e3d cfd0 e7bd
00000040: 5083 463d 65fd 3ebe c2ea 2e3e e84e 20bd
00000050: ea72 423a 070d 2dbe 5fbb 033e bfb5 09be
00000060: c535 90bd c5db 4f3e a960 f63d fe48 b13d
00000070: 6dfe 313e 58df 0a3c 9a92 45bd 1f45 73bd
00000080: 90bd f23d 56e1 4d3d 6f65 953d a881 1a3e
00000090: ebf5 aebd 4343 a8bc 0263 103c 5b9d 4b3d
000000a0: 73aa 4a3e aab9 133d a0a4 7ebd 0cce 503e
000000b0: c7ca f1bd ad1c d13d 3754 553e 7118 3bbe
000000c0: f17d 0dbd 3bb5 05be a25f 9bbd 6c85 213e
000000d0: f291 d8bd 04af 6bbd f40f 48be 3b54 78bd
000000e0: 33d3 353e 0443 563e 6c16 113e 97ca 173d
000000f0: df2c 453d c291 4fbd fc11 583d dee3 833d
00000100: 76ad dabd 3d32 413e fb55 4cbe 7f52 f23d
00000110: 27f2 17be d16e ef3d b49c 8e3d beb7 8f3d
00000120: b6c7 21be a060 89bd a1ac 96bd 5e39 89bc
00000130: e70a d7bd 3230 243e b0f0 1e3e ef01 31bd
00000140: dcd7 f83d ec09 2f3c 7e49 f63c 7665 d6bd
00000150: 3c02 98bd 5883 fcbd 5c54 083e d19d 033e
00000160: 59e9 c7bd 9183 cabd 752c 1a3e 701a 9bbd
00000170: 234b fe3a e35d 813d 5ac4 bebd f414 d0bd
00000180: 5f04 3cbc c098 8fbd 2a96 253e a339 b6bd
00000190: cfde 213d 4145 2f3c 3a5c cbbd 14ba 163d
000001a0: fe33 0c3e 922d 87bd ba23 093e 8d95 2abc
000001b0: 9ede e1bc 2c16 153d 1e44 8cbc a69b 62bd
000001c0: c83b b33b a1aa 43be 4a0e 01be 46d0 c93d
000001d0: 636d 063e 1e17 c83d 80cc 04be a544 f63d
000001e0: e823 3dbe 88ce 4f3e 4f3d 453e 3558 01bd
000001f0: dd2c 983d 0a2c fc3d 9e07 3a3e 363b 703d
-0.13867274 0.03191743 0.070109576 0.043128535 0.08433132 0.06489429 0.027800323 -0.18153857
0.1622937 0.08292555 0.059257336 0.022252312 0.033838104 0.008986931 0.06943118 -0.11319124
0.048465073 -0.1865135 0.1708174 -0.03913775 0.0007417636 -0.16899501 0.12864445 -0.13448237
-0.07041506 0.20298679 0.12030155 0.086565 0.17382212 0.008476101 -0.048235513 -0.05939209
0.118525624 0.050263725 0.072947375 0.15088522 -0.08542999 -0.020539885 0.008812668 0.049710613
0.19791584 0.036065735 -0.062168717 0.203911 -0.11806255 0.102105476 0.20832907 -0.18271042
-0.034543935 -0.13057415 -0.075866 0.15773553 -0.10574712 -0.057539955 -0.19537336 -0.060627203
0.17756347 0.20924002 0.1416871 0.03705844 0.048138496 -0.050676115 0.052751526 0.064399466
-0.10677616 0.1886682 -0.19954674 0.11832141 -0.14838468 0.116910584 0.069634825 0.07017468
-0.1579884 -0.06707883 -0.07357145 -0.016750988 -0.10500126 0.1603401 0.15521502 -0.043214735
0.12150547 0.010683518 0.03006434 -0.10468571 -0.07422301 -0.12329739 0.1331343 0.12853171
-0.097613044 -0.098883756 0.15056022 -0.07573402 0.0019401055 0.063167356 -0.09314795 -0.101602465
-0.0114756515 -0.070115566 0.16170564 -0.08897712 0.039519127 0.010697664 -0.099297 0.03679855
0.13691708 -0.06600489 0.13392535 -0.010411632 -0.027571972 0.036398098 -0.017122325 -0.05532422
0.005469773 -0.19108059 -0.12603107 0.09854178 0.13127665 0.09770034 -0.12968636 0.12024812
-0.18470728 0.20293629 0.19261669 -0.03157826 0.07430432 0.12313087 0.18166968 0.058650218

lstm.weight_ih_l1 f4 [128, 32]
00000000: b840 f93c d3e4 63bd 554f dcbc 9c6a c13b
00000010: 4bbc dabc fe28 953c 05d1 093d 4491 12be
00000020: 359d a7bd 94ca 293d 54a6 e63c bd19 233e
00000030: eec4 d23d a34d 223e 70a2 46b9 3d35 063e
00000040: 76a7 ae3d 9d66 003e 0356 b9bd ec9e debd
00000050: 153b 26bd a022 0f3e 9421 043c 83e0 dd3d
00000060: 4426 603d 06a4 41be 715c 8e3c 7c65 c13d
00000070: 1501 d43c 925c e73d 1920 6c3c d726 75bd
00000080: b8cb 1ebd 9772 27be 52be e6bd 428a 973d
00000090: 55f1 303e 9458 1d3d 81b9 d03d acb2 9bbd
000000a0: 625c 27be 99c3 0abd a551 843d 7758 013d
000000b0: b86b 0b3e 450c d83d 1ad8 43bc 841a e5bc
000000c0: 74fa a63c 6715 efbd a677 903d 88b1 383e
000000d0: a7f0 843d 2c66 733b 199f cdbd 50f5 50be
000000e0: a487 2cbc 7c3e f73c d31b b8bd 71cb 10be
000000f0: 39ab 0e3e b68e bbbc bcb9 a83c 9941 04be
00000100: 6cc3 ddbd 2c8a 2dbe ccff e33d fca1 553d
00000110: d6be 83bd 172f 75bd 4292 283e 8849 5e3e
00000120: 1d1f 1dbe 4ef7 fd3d 4e7a 433e 725d 28bd
00000130: 685c b43d a26b a1bd 6a3e fbbd 8572 933d
00000140: b27f f03d 7327 01be 50bd 14be 1551 e63d
00000150: 4a5b 4abd bf39 f6bc 7e3f 0c3d 0bbf 003e
00000160: 58d4 cf3d f424 ebbd aad9 a4bd 2f34 be3d
00000170: 65ce 083e 411b 99bd 6b52 fd3c d761 053e
00000180: 3d4d 2b3d e291 333d 77d5 9cbd abb4 cbbd
00000190: 6e34 02be 0061 aebd 7a52 eb3c e7dd 0dbe
000001a0: 9a6d b03c 2e52 1bbb 464e 133e 5b86 71bd
000001b0: 3d46 13be d2a6 83bd 0fbe a4bd 1405 bbbd
000001c0: 0f37 d23d 37d3 aebd 3854 0e3e 6a61 5e3d
000001d0: 27ac 82bd 710d 963d cad9 3c3e 358a 6e3d
000001e0: cd55 d43d 6352 b5bd b8e2 1abe a48d e7bd
000001f0: 8070 a9bd c65b 193e eca7 ac3d 9b4f 77bd
00000200: 4d9e 0e3e 20ec e33c 9298 12bd 39f2 733d
00000210: 8a6c 02be bf94 293e c2de a5bc 9e64 a43d
00000220: bfd5 70bd 7409 2ebd cd9b dfbd 242a edbd
00000230: b296 1d3d 3f83 ddbd 8bd4 08be 7613 063d
00000240: d7ae 323d a230 293e c48b 01be f5df 153d
00000250: 1da5 26be 7055 923d 2dc2 993d 1f22 0b3e
00000260: 7767 003e 3192 0bbe 7d57 8dbd 6ebe 04bd
00000270: d900 08be 6232 603b 77af b53d a04a a2bd
00000280: 6ce9 ae3d 2dee fa3d b865 60be 040c 5d3d
00000290: eae5 01be ad05 4d3e c665 e0bd b89d c1bd
000002a0: f472 a23d be68 dfbc 7a60 943d 3a79 543c
000002b0: 2dab e8bd e396 9d3c 3cd2 a53d be7b 0b3e
000002c0: 68fc d8bd 3e30 55bd f3a2 30be 3dfa d6bd
000002d0: 331e c93d 38b6 cd3d 3422 be3d 06f5 a2bd
000002e0: fc10 e13d adbe 283e a6bd 12bd 5a97 183d
000002f0: ee22 db3d ed5f 1a3e d5b2 d83c d106 893c
00000300: 0175 183e 9cc5 d93d d0e2 aebd fb95 063d
00000310: 90e3 053e a650 8d3c 535e ad3d 1c9c 3a3e
00000320: 8c7f f43d 460f ea3d 10e8 0d3e 41bc 30be
00000330: c258 0b3e 9653 2e3d b898 80bc 1487 f63d
00000340: 3104 babd 8d7b 02be ac41 1cbd 7a70 06be
00000350: a922 7a3d 074e a93d 2869 cbbc 06b8 a63d
00000360: 9ed7 c53d 479d 493d b5a7 90be 7330 6e3d
00000370: 3495 093e 6d77 363c 8590 473c 26e6 72be
00000380: 73e1 343d 2ec6 2b3e 7dc0 25be 8018 adbd
00000390: df2e 9d3c ef19 9cbd d6bc 8ebd a0f8 633e
000003a0: bf31 15bd ca29 333d ab64 9c3d ff94 a1bd
000003b0: 0512 ac3d bfff 183e 9664 b9bd 477e 0a3e
000003c0: 7ea8 bc3c 1552 4dbd 062e d63d 9dac 933d
000003d0: 1915 a33d 1112 413d 4c0f a1bd e8be 0ebe
000003e0: 7dbb 2fbe 64f4 22be 87b2 cabc 1c48 523e
000003f0: 7d64 f2bd 7b91 0d3e b51f f43b 8b19 d43d
0.030426368 -0.055638146 -0.026893297 0.0059026014 -0.026701113 0.018208023 0.033646602 -0.14313227
-0.08184282 0.04145296 0.028155483 0.15927787 0.102914676 0.15849929 -0.00018943264 0.13106246
0.085280344 0.12539144 -0.090496086 -0.10870156 -0.04058369 0.13978052 0.008064646 0.10833838
0.054723993 -0.18910226 0.017378064 0.09443185 0.025879422 0.11296953 0.01441195 -0.059851494
-0.0387685 -0.16352306 -0.112667695 0.073994175 0.17279561 0.038414553 0.10191632 -0.07602438
-0.16343835 -0.033877943 0.06460885 0.031578507 0.1361531 0.10549215 -0.011953378 -0.027966745
0.020383097 -0.11674004 0.07054071 0.18036473 0.06491213 0.0037139757 -0.10040111 -0.2040608
-0.010530386 0.030181162 -0.08989682 -0.14140107 0.13932504 -0.022895198 0.020596378 -0.12915649
-0.108282894 -0.1694724 0.11132774 0.052156433 -0.064328834 -0.05985936 0.16462043 0.21707737
-0.153439 0.12400685 0.19089624 -0.04110474 0.088066876 -0.078818575 -0.12267764 0.07199577
0.11743106 -0.12612705 -0.14525342 0.11245934 -0.049403466 -0.030056832 0.03424024 0.12572877
0.10147923 -0.114816576 -0.080493286 0.09287297 0.13359983 -0.074759014 0.030923089 0.13025604
0.041821707 0.043840297 -0.07657903 -0.09946569 -0.12715313 -0.08514595 0.028725851 -0.1385418
0.021536637 -0.0023700106 0.14385328 -0.058966022 -0.14382263 -0.06428303 -0.08044063 -0.09131828
0.10264408 -0.0853638 0.13899314 0.05429212 -0.06380492 0.073267825 0.18442455 0.058237273
0.10367928 -0.08853605 -0.15125549 -0.11306313 -0.08273411 0.14976415 0.08430466 -0.060378652
0.13927574 0.027822554 -0.035790034 0.059557173 -0.12736717 0.16560648 -0.02024782 0.08027004
-0.058797594 -0.042489484 -0.109183885 -0.11580303 0.038473792 -0.10816049 -0.13362329 0.032733403
0.04362377 0.16522458 -0.12650973 0.036590535 -0.16273923 0.07145202 0.07507739 0.13587235
0.12539469 -0.13629986 -0.06901453 -0.03240817 -0.13281573 0.0034209718 0.08871358 -0.0792439
0.085406154 0.1225246 -0.21913803 0.053966537 -0.12685362 0.20021696 -0.10956912 -0.094539106
0.07932082 -0.027271625 0.07244964 0.012968356 -0.11360774 0.019236987 0.0809674 0.13621423
-0.10595018 -0.05204796 -0.1724966 -0.10496948 0.09820213 0.10044521 0.092838675 -0.07956891
0.10989568 0.16478987 -0.035825394 0.037253715 0.10700022 0.15075655 0.026452461 0.016726883
0.14888383 0.10633394 -0.08539355 0.032857876 0.1307509 0.01725037 0.084652565 0.18223614
0.1193839 0.114286944 0.13858056 -0.17259313 0.13608077 0.042560183 -0.015697822 0.12037483
-0.09082831 -0.12742443 -0.038148567 -0.13128844 0.06106821 0.08266836 -0.024830416 0.081405684
0.09660266 0.049222257 -0.2825295 0.058151674 0.13435823 0.011136872 0.012180452 -0.23720607
0.044160318 0.16774818 -0.1618671 -0.08451939 0.019187389 -0.07622134 -0.06969611 0.22262812
-0.036424395 0.043741025 0.076363884 -0.07889747 0.084018745 0.1494131 -0.09052388 0.13524733
0.023029562 -0.050127108 0.10457997 0.07210658 0.079630084 0.04713637 -0.07864246 -0.13940012
-0.17161365 -0.1591354 -0.024743332 0.2053532 -0.11835573 0.13825028 0.007450069 0.103564344

lstm.weight_hh_l1 f4 [128, 32]
00000000: 7438 f8bc 25c5 123e 22ed a03d 1697 2d3a
00000010: 6e5c c6bd 9104 fdbd 834d 723c 826e f1bd
00000020: 4e26 54bd a21f d53d aa78 3c3c f199 dbbb
00000030: fc28 093e 96ae bdbc aad2 e23c 020c 3d3b
00000040: 1b2b d83d 324d a3bc f4f1 c7bb 3fcd 2ebe
00000050: fcb5 143e 032b 983d 9b4b d1bd 0cd6 43bb
00000060: 03e3 b7bd 332b 1a3e e8d2 9d3b b11f 27bd
00000070: c261 0abe 57b4 35be b95d 22be bb66 f9bd
00000080: a6bc 433d c5c9 27be 1281 66b9 ed03 903c
00000090: 3568 613d ee4f acbd 9375 09bd 89e5 3fbd
000000a0: 532d 113c a362 1cbe 3dba 81bc 7009 31be
000000b0: cad8 dbbc c12d 3abe af73 083e 7ae4 0a3e
000000c0: 3886 c9bd 49ba 12be 652b 38bd edb6 353d
000000d0: 51b0 c33d 6084 1fbe c6b5 96bd 7092 10be
000000e0: e4b8 593c 81dc 8cbd 9f51 513c 469e 01be
000000f0: 2a02 263e acb1 a83d d96e e8bd 39d7 9b3d
00000100: f570 96bb 7df6 a43d 5fa6 a63d 66bc 06be
00000110: 9e06 2a3e df60 a0bd ccb8 ddbd 12ab 1f3e
00000120: 7419 3dbe 83e1 f93c 7506 28be bb65 ae3b
00000130: b113 a33b 80aa 3fbe 5863 1c3e 2b26 06be
00000140: 1e76 4d3d 73ff dfbd 9a0f 333e a42b 383c
00000150: 685a b73d 9259 b33d 0409 31be 14a8 00be
00000160: 3a48 7bbd ce19 2ebc 362a 413e 0cad abbd
00000170: c0e9 c9bd e408 033e 122c 1c3e a85d 1abe
00000180: 569c 1c3e a200 c23d 62c5 28be 49f1 e63d
00000190: 5eb5 afbb f5b0 b53d 0707 7abd c6a2 173e
000001a0: 2282 efbc eb95 823d ccaf e53d 8474 8c3d
000001b0: ebc8 ecbd 5b1a 92bd c329 cc3d 7e2e 1c3e
000001c0: f975 07be 5029 a13d fd40 df3d bf5f af3c
000001d0: 1ce4 c3bd dad6 123e 0818 b23d 23ad 01bd
000001e0: 2b86 1c3d 34d7 f2bd 15aa 0ebe 5063 113c
000001f0: 46c0 06be d7de 0dbe b7e3 bfbc 55ad cdbd
00000200: 3212 c4bd d0b8 11be 0637 0bbe 5fbf 28bd
00000210: 7883 0a3c 3dfd 9bbd cea8 c5bd 9244 a23d
00000220: 1e73 37bc bde4 133d a0fd e9bd 865d b83d
00000230: 90f9 f93d 0709 5b3d 7c9f 7f3d 9cb4 103d
00000240: 39b3 b1bd ac8d 173e c654 3b3d fee2 ebbd
00000250: 79fa 8fbd 7a1b c2bd d0a0 20be 90b0 bdbc
00000260: c12e 28bd 1d68 383e 7813 143d 7a5c 193d
00000270: c3ee f9bc 2def 0e3a ae56 c7ba 5487 063e
00000280: 4c4b 203e 3994 993d 22f6 ed3d fee0 80bc
00000290: 7517 5dbd 2012 95bd 08ff b8bd afe2 163e
000002a0: 0625 1dbe c1cc 153d a05f 933d 80c5 d3bc
000002b0: f571 5c3d 3ed0 3bbe 0b5d b1bd c12b 053e
000002c0: 2be6 903c e373 9b3d 72f3 babc 7c5a a3bd
000002d0: f24d 9c3d db7a 843c 5627 bd3c e84e 84bd
000002e0: 7fba af3d 5f0e e2bc a29e 223d 58c9 263d
000002f0: 9cb1 c9bc f36c 8f3c d2bf ae3d 2992 b83d
00000300: 7822 11be a5d5 c13d a672 b9bd aa82 ce3d
00000310: aab7 adbb 7921 173d 2dbf adbd 0404 cd3d
00000320: f032 08be ef6b 2cbe c4f5 d2bd 641e 033e
00000330: 7d23 943d 6fa3 35be 5bd2 d33b 2cf0 d83d
00000340: ecf0 2cbe 1c99 743c 74d7 2a3e 3c76 48bd
00000350: 6ecd eb3d a231 423e b700 c73d e5ca 013e
00000360: 6538 db3d c211 143d 5653 823d af97 ff3d
00000370: b33d f73a b296 9d3c 7e34 56bc 4515 263e
00000380: 744d 0b3e 2eea 013e e056 8fbd db58 ef3b
00000390: 89da 93bd 67cf ffbd 80e8 a2bc 7ec6 a33d
000003a0: ff18 0fbe da10 8d3d 3ba5 d93d 9e29 5abd
000003b0: 8bdb bc3d 0a07 06be e861 92bd 3503 333b
000003c0: accd 813d 3e6a 16be 49d3 1e3e d94b 1d3e
000003d0: ace3 d53d f9d0 abbd de68 26be 0b81 223e
000003e0: e856 ae3c e424 ecbc 78f9 a4bc ce79 06be
000003f0: fb1a 11be d89a ad3d e12d a6bd fa2e 0abe
-0.030300356 0.14333017 0.078577295 0.000662194 -0.09685598 -0.123543866 0.014788988 -0.11788656
-0.051794343 0.10406424 0.011503378 -0.006701701 0.1339454 -0.023154538 0.027688343 0.0028846269
0.10555097 -0.01993427 -0.006101841 -0.17070483 0.14522547 0.07430079 -0.10219499 -0.002988222
-0.08978846 0.15055542 0.0048164017 -0.040801708 -0.13513854 -0.17744575 -0.15856065 -0.121777974
0.04778733 -0.16385563 -0.00021982592 0.017579997 0.05503102 -0.08413683 -0.033559393 -0.04684976
0.008860904 -0.15272002 -0.015835876 -0.17288756 -0.026836772 -0.18181516 0.1332538 0.1356372
-0.09840053 -0.14328875 -0.04496326 0.044363905 0.09555114 -0.15577841 -0.07358889 -0.14118361
0.01328871 -0.06877995 0.012775808 -0.12658033 0.16211763 0.08237013 -0.113492675 0.0760941
-0.0045911022 0.080548264 0.081372015 -0.13157806 0.16604087 -0.07830977 -0.10826263 0.15592602
-0.18466741 0.03050304 -0.16408713 0.005322186 0.0049767126 -0.18717384 0.15272272 -0.13100497
0.050161473 -0.10937395 0.1748642 0.0112408735 0.089527905 0.087573186 -0.17288595 -0.12564117
-0.061348177 -0.0106262695 0.18863758 -0.083826154 -0.098590374 0.1279636 0.15251186 -0.1507479
0.15294012 0.09472777 -0.16481546 0.1127649 -0.005362197 0.088716425 -0.061041858 0.14808187
-0.029236857 0.06376251 0.11215171 0.06858161 -0.115617596 -0.07133933 0.09968903 0.1525211
-0.13228597 0.07869208 0.109010674 0.02140796 -0.09564993 0.14339772 0.0869599 -0.031659257
0.03821389 -0.11857453 -0.13932069 0.008873776 -0.13159284 -0.13854538 -0.023424013 -0.10042826
-0.09573783 -0.14230657 -0.13595209 -0.04119813 0.008454196 -0.07616661 -0.096513376 0.07923235
-0.01119688 0.036106814 -0.11425328 0.09002213 0.122058034 0.053475406 0.062407956 0.035328493
-0.08676762 0.14800137 0.045735143 -0.11517905 -0.07030196 -0.09477897 -0.15686345 -0.02315548
-0.041060213 0.18008466 0.03615138 0.03744171 -0.030509358 0.000545251 -0.0015208328 0.13137561
0.15653723 0.07498974 0.11619212 -0.015732285 -0.05397745 -0.07278848 -0.09033018 0.1473491
-0.15346155 0.03657222 0.071959734 -0.025851011 0.053819615 -0.18341157 -0.08660325 0.13004972
0.017687878 0.07590463 -0.022821162 -0.07976243 0.076320544 0.016171863 0.023090046 -0.06460363
0.08580493 -0.027594743 0.039702065 0.04071936 -0.024620824 0.017508006 0.085326806 0.09012253
-0.14173305 0.094645776 -0.090550706 0.10083516 -0.0053014355 0.036897156 -0.084837295 0.100105315
-0.13300681 -0.16838048 -0.10300782 0.12804562 0.07233331 -0.17738126 0.0064642853 0.10592684
-0.1688878 0.014929082 0.16683751 -0.048940882 0.11513792 0.18964246 0.09716933 0.12675054
0.10704116 0.036149748 0.06363551 0.12480103 0.0018862992 0.019236896 -0.013074039 0.16219051
0.13603765 0.12686989 -0.06998992 0.0073042936 -0.07219417 -0.12490731 -0.019886255 0.07996844
-0.13974379 0.0688798 0.10627218 -0.053262345 0.09221562 -0.13088623 -0.071475804 0.0027315144
0.06338057 -0.14688966 0.15510286 0.15360965 0.104438156 -0.08389468 -0.16250941 0.15869538
0.021281675 -0.028826185 -0.020138487 -0.13132402 -0.14170448 0.084768 -0.081142195 -0.13494483

lstm.bias_ih_l1 f4 [128]
00000000: f133 29be f392 de3d e98e 073e e626 f9bd
00000010: 336a 9f3d 416c f63d 28b9 2abe 43d2 cb3c
00000020: d442 92bd 209a 75bd b9ae d03c 0fbe 13bd
00000030: b166 cabd 1336 203e 7f45 dfbc 8488 a5bd
00000040: 09b6 223e cb8e 073e 46fc 323e 695e e2bd
00000050: fca6 db3b c8eb 1f3e 85fe 323c 055d b73d
00000060: 7221 ce3d 2e64 94bd 74f9 883c 004d e3bd
00000070: 3b52 ad3d 6a73 90bd 8c80 5d3d ac80 22be
00000080: 93b7 3fbd 2be5 74bd 51c0 1abe 0035 97bc
00000090: 46b8 07be 6e6a 47bd 3b64 253e 264c 89bd
000000a0: cd98 c43c f2c6 3ebd ad1c e13d 3951 943b
000000b0: 937d 3ebe aa3a e3bd ff5a 043d eeb0 1fbe
000000c0: 89c2 dc3d 501f 0e3e 2901 be3d 6b67 b33d
000000d0: 0591 0abe ba73 00be 8f79 103e 9e1a c13d
000000e0: d715 543d d9f6 d2bd b369 1a3e 7a85 ecbb
000000f0: 9a6e 153d a7ea 9c3d 0150 cc3b dc24 a73d
00000100: 1fff f53d 1eda 85bc ac24 0f3c a57f 2f3e
00000110: 96cd d83d 4bf0 a73d 4e44 d3bc f629 38be
00000120: 0e5d 6fbc 2c2a 233e 762d 0abe f88b b73b
00000130: ce51 b8bd ef95 41be a9b1 2f3d 3c6a 8f3d
00000140: c749 29be 2a0c 1dbe 4065 88bd 8319 153e
00000150: 9c9f 0cbe 249d f7bd 19f7 293e 9e6b 0d3e
00000160: 4dc4 22be ea0c 3b3d 0ecc 143d c9b8 313e
00000170: fbd3 9d3d 7f24 243e 7b38 08be 3186 cfbc
00000180: 7acb a4bd 7cea ddbc b2d3 34be a389 0fbe
00000190: 9763 e43d 308f 65bd f99d be3d 83ea 05be
000001a0: 43f6 50bd 881f 3cbd 05d9 a43c 4504 0bbe
000001b0: ecbd 7fbd 00f5 f43d d95c df3d e225 b6bd
000001c0: 10ca 063e a09b 37bc 8328 1f3e 9f53 163e
000001d0: 85cf 343d 0f1d f0bd 6be4 8f3d 4821 37be
000001e0: 90ea a13d 7dda f03d 39c9 1f3d 3950 8f3b
000001f0: d034 0ebe 99e4 88bd 29ce 07bd a0e6 00bc
-0.1652372 0.10867872 0.1323811 -0.121656224 0.07783928 0.120323665 -0.16672194 0.024880534
-0.07141653 -0.05996144 0.02547394 -0.036069926 -0.09882868 0.15645628 -0.027254818 -0.08082679
0.15889753 0.13238065 0.17479047 -0.110531636 0.0067032557 0.15617287 0.01092494 0.08953289
0.10064973 -0.0724567 0.016720511 -0.11098671 0.0846295 -0.070532635 0.05407767 -0.15869397
-0.04680593 -0.059788864 -0.15112425 -0.01845789 -0.13253888 -0.048685484 0.16151516 -0.06703977
0.023998642 -0.046576448 0.109917976 0.004526284 -0.1860259 -0.11095174 0.032313343 -0.15594837
0.10779292 0.13879132 0.09277565 0.0875996 -0.13531883 -0.12544146 0.14108871 0.09428905
0.05177864 -0.10300989 0.15079384 -0.00721806 0.03648243 0.07661944 0.006235123 0.08161327
0.12011551 -0.016339358 0.008736771 0.17138536 0.105860874 0.08200129 -0.025789406 -0.17984757
-0.014609588 0.15934056 -0.13493904 0.0056014024 -0.08999978 -0.18904851 0.04289404 0.070026845
-0.1653205 -0.15336671 -0.06659937 0.14560513 -0.13732761 -0.12090519 0.16598167 0.13810584
-0.15895195 0.045666613 0.036327414 0.17355646 0.07706448 0.16029547 -0.13302796 -0.025332542
-0.080466226 -0.02708935 -0.1765888 -0.14017348 0.11151808 -0.056044757 0.09307475 -0.1307774
-0.051016103 -0.045928508 0.020123014 -0.13575847 -0.062436983 0.119607925 0.10906381 -0.08893944
0.13163018 -0.0112065375 0.15542798 0.14680336 0.04414322 -0.117242925 0.07025989 -0.1788379
0.07906067 0.11760423 0.03901026 0.004373577 -0.13887334 -0.066842265 -0.033155594 -0.007867485

lstm.bias_hh_l1 f4 [128]
00000000: 4785 23bd 40df 153d 25d0 de3d e9d7 4e3d
00000010: a4fa 12be 4384 a83b 7a29 91bd febe d33d
00000020: aa57 ab3d fde2 223e cf52 f1bd cb4d 21bd
00000030: 1509 e73d 81d1 26be 5644 e33d 13d4 4a3d
00000040: e31b 813c e4de 22bd 6de6 b2bc 93f7 053d
00000050: 0285 c9bd 44d2 023e 8324 d03c 8419 13bd
00000060: b8e1 263e 1be0 a2bc 4e1b bbbc e2b5 68bd
00000070: 00bd 893d 3e0a debd e0f7 c6bd b394 e4bc
00000080: 11da debd 7a1b 12be ba78 e6bd 6680 1d3e
00000090: c9d5 8d3d 4feb 00be 0c5e 2dbe 8c43 17be
000000a0: 7392 283e 4b38 09be 9647 16be 102a 1cbe
000000b0: 5c5e a53d 5403 f43d 0303 70bd ba6f a8bd
000000c0: bd10 40bd b170 6dbd 5587 1a3d 438b cebd
000000d0: 6ff3 d83d 7164 6e3d 1f80 3a3e f9e7 073e
000000e0: 61b8 37bd 4590 b63a eb51 d73d fe60 453d
000000f0: 56d9 0c3d 1acc 2b3e 8eaf 2f3d 14fa 933d
00000100: 860a 003d 0608 0fbc 38e8 76bd 8602 86bc
00000110: c05a 1c3d 93a3 a63d 6a36 d13c a0ba 7d3d
00000120: 274d 8bbd d265 9b3d 6b06 033b bb18 2ebe
00000130: ea7c d83d 545b e83c 6218 22be 3a3b fdbd
00000140: 3169 1dbe f701 8bbd 1590 ecbd 2cef 99bd
00000150: 8a33 3bbd a104 a6bd 1be1 8fbd bdbf 813d
00000160: 868d df3d 4e88 3f3d f4ab 9d3d cbf9 723d
00000170: d936 0c3e 18c3 893d d616 49bd 7777 983d
00000180: bbb2 03bd fb9d fd38 d9fa 983d 3a1c 0abe
00000190: f6e6 81bd 44ba 0e3e 4873 95bd 42a0 d23d
000001a0: 2c8e cfbd 2646 353d fb9f 09be 8584 873d
000001b0: 1d7d 39be d5de deba 8b7b 8fbc ea82 c23d
000001c0: 4202 46bd 5994 243e 6f55 3a3e 2fbc 56bd
000001d0: 984f 283e fd5e 2c3e d025 373e 97e8 b9bd
000001e0: dea6 0c3e 4830 4cbc 9978 6fbd 20c0 0e3e
000001f0: 2c82 72bd 2871 1e3e 13bb 18bc 3a9f b6bd
-0.039922025 0.03658986 0.10879544 0.050498877 -0.14353424 0.00514272 -0.07087989 0.10339163
0.0836633 0.15906902 -0.117833726 -0.03938083 0.11281029 -0.16290857 0.110970184 0.049518656
0.015760368 -0.039763346 -0.021838391 0.03270681 -0.09839822 0.12775522 0.025408035 -0.035913005
0.16297042 -0.019882252 -0.022840168 -0.056814082 0.06725502 -0.10841797 -0.09715247 -0.027902937
-0.108814366 -0.14268294 -0.112534955 0.15381011 0.06925542 -0.12589763 -0.16930407 -0.14771861
0.16462116 -0.1340038 -0.14675745 -0.1525042 0.08074638 0.11914697 -0.058596622 -0.08224435
-0.046890963 -0.0579688 0.03772672 -0.10085156 0.10593306 0.058201257 0.18212937 0.13272084
-0.04485357 0.0013928494 0.105136715 0.048188202 0.034386955 0.16777077 0.04289203 0.07225433
0.031260036 -0.00872994 -0.060280055 -0.016358625 0.038172483 0.08136668 0.025538642 0.061945558
-0.06801825 0.0758778 0.001999284 -0.17001621 0.105707005 0.028363861 -0.15829614 -0.12364812
-0.15372159 -0.06787484 -0.11550919 -0.075163215 -0.04570345 -0.08106352 -0.07025357 0.06335399
0.10915665 0.04676085 0.07698813 0.059320252 0.13692798 0.06726664 -0.049094044 0.07444661
-0.032152873 0.00012093406 0.074697204 -0.1348733 -0.063428804 0.13938242 -0.07297379 0.10284473
-0.10134539 0.044256352 -0.13439934 0.06617073 -0.18114133 -0.0017003665 -0.017514965 0.09497626
-0.048341997 0.16072215 0.18196653 -0.05242556 0.16436613 0.1683311 0.17885518 -0.09077566
0.1373553 -0.012462683 -0.05846462 0.13940477 -0.059206173 0.15472853 -0.009321946 -0.08917089

gru.weight_ih_l0 f4 [96, 32]
00000000: bd49 4bbe a0a5 cabb 38c8 b63d eae9 123e
00000010: 6407 fd3d baa5 bebc ff91 44be be54 d83d
00000020: 12b7 083e 7bf0 f6bd 7b41 23be 721f 943d
00000030: 8c6c f63d d9ca 873d 52d1 2cbd ff45 27be
00000040: f622 403c 0bf3 2abc 5b7f 9b3c 0646 e53d
00000050: 33cb 233e 590b 1ebe 6a11 36be f635 083d
00000060: 9f79 d0bd c008 abbd 1816 3e3e 8e42 41bd
00000070: 6d0e 07be 5951 6b3d 5334 2a3e d81d 013e
00000080: 7a93 333c 89c9 003e 1550 c1bd 7c52 c93c
00000090: 9075 153d c830 363c 8508 22be 01ee 513d
000000a0: 8cbd 873d 1dd9 933d d1b7 21be cdbd 08be
000000b0: cea0 80bb 1fd3 d4bd ba71 913d b8c8 e8bd
000000c0: fb32 57bd 4bff 2dbe e7e5 fb3d 6e35 9cbd
000000d0: 2cb9 343d e4d1 82bd 9037 0e3c 6707 eabd
000000e0: e06b 89bc 1a01 283e cb18 903c 1a98 2bbd
000000f0: c44d 1dbe a6be bdbd 19b0 053d 04cd 293e
00000100: b6d3 7f3d 5d50 683d 9541 01be a28e 83bd
00000110: 21d1 babc 0358 a23d 8cb8 313e 500d 10be
00000120: 1c92 2bbd 4990 2b3e 535a c0bd 0243 b73d
00000130: f9a0 d23d 36b1 2b3e 294d 33bd ea17 8dbd
00000140: 7cea af3d 9879 a339 95f7 e13c a4e8 3fbd
00000150: c146 b23c f37b cd3d 84c9 2abe db50 c8bc
00000160: 51b2 ddbd 367e e0bd 8a95 4bbc 847f 41bd
00000170: ff2f 8fbd 04da c13c 93f2 00bd 894e a23d
00000180: 99c2 9d3d 88f0 3d3e 6f8b da3d 517a 1ebe
00000190: e627 33bd 4939 a83d 35e7 403d b639 153e
000001a0: 9930 92bd 0e5c 1e3e 8a55 4d3e b3c7 34bd
000001b0: a9a4 123e beb1 f5bd 9e01 f93d 3ec6 9cbc
000001c0: a7d9 a23d 8582 3d3d d729 833d 89d9 b43d
000001d0: 2a83 0ebd dc3c 1abe 0fee b0bd eebe ccbd
000001e0: 3bc5 123d 291b 533d 5d3f 0d3e beff 92bd
000001f0: 7193 acbd 90e3 db3d e085 583d 846b 3abe
00000200: 35fd 893d a12c d33c 045b f6bd c989 ba3d
00000210: fd44 1abe 281c 093e bdcd 13be b9d7 38bd
00000220: 25e8 6dbc f563 15be 1bdc ab3d c28d 15bc
00000230: 717f 2fbe f03b df3d 51e6 91bd dd09 c8bd
00000240: c7b9 76bd 91eb 30be be66 823d 2729 9dbd
00000250: e7b6 9abd f3e5 e3bc 7c53 d63d d8c4 ccbd
00000260: a116 23be 94f9 ea3d 4d83 82bc 608f 9e3c
00000270: 5bdf 403d a732 233e 7c82 2c3e d4e8 ffbd
00000280: 6c51 1ebe 81af e33d 4cae 34bd 3653 1cbe
00000290: a24d f2bd f9ac a33d af10 cebd 16f6 0bbe
000002a0: d734 cb3d d46f 16be 7b14 31bd 1a32 ddbd
000002b0: c2d3 553d a290 6b3c ff6a 09be 585f 9c3c
000002c0: 638d ffbd 1ac4 91bc caff b33d 15f0 20be
000002d0: 15df 05be 79c0 85bd 3af6 b63d b140 27bd
000002e0: 54d5 8abd ac73 373e 765d 4ebd 6aa1 f9bd
000002f0: a690 fb3d e5ef 84bd d3b8 9b3d e3db 33bc
00000300: 41fb f3bd 0828 013e e0d4 bf3d 9ca1 0f3d
00000310: 7769 fd3d 92be dabd a6db 0c3e f7c4 153d
00000320: 806a 963d 26d8 8abd b26d 05bd 0dec 243e
00000330: 8fdb 583d 63d8 bb3c 968e 11be 2734 313e
00000340: 1f48 e0bd 0f7c 213e e84e e83d 61fc 953d
00000350: 2690 b63d 763d 14be 6637 00be f68a 31bd
00000360: b294 273e 5ee2 f5bd e5b0 6e3d 7539 0b3e
00000370: c494 bb3d 0f32 3dbd b050 093e 26c5 b2bd
00000380: 4f40 a33d 3572 5f3d 1244 56bd 19e1 88bd
00000390: 1231 183d 8b09 dabd f08f b1bd e2f9 07be
000003a0: ca2f eb3d 4236 d7bd 65ff 2abd 7c26 8b3c
000003b0: 8625 833d af19 673d f3a2 183e 3b30 8c3d
000003c0: 41d2 153e 46a0 6abd 8b67 19be 55c9 ecbc
000003d0: 08fd 1d3e cb45 003e f51a e7bd 7e46 0abe
000003e0: fa09 dbbd 8d0a 043e c926 2ebe df64 0a3e
000003f0: 39d9 17bc 6b62 43bd dd57 c3bd 13de 103e
-0.19852348 -0.006184295 0.089249074 0.14347044 0.12354925 -0.023272384 -0.19196318 0.10563038
0.13351086 -0.12057587 -0.15942948 0.0723256 0.120324224 0.06630487 -0.04219181 -0.16335295
0.011727085 -0.0104339225 0.018981626 0.111949965 0.15995483 -0.15434016 -0.1778008 0.033254586
-0.101794474 -0.08351278 0.18563116 -0.047182612 -0.13189097 0.057450626 0.16621523 0.1260904
0.010960454 0.1257688 -0.094391026 0.024575464 0.03648907 0.011120029 -0.15823562 0.05125237
0.0662795 0.072191454 -0.15792777 -0.13353653 -0.0039254194 -0.10391831 0.0710177 -0.11366409
-0.052538853 -0.16991918 0.1229971 -0.076273784 0.044121906 -0.0638769 0.008680239 -0.11427193
-0.016775072 0.1640667 0.017589947 -0.041893102 -0.15361696 -0.09264879 0.032638643 0.16582114
0.062457763 0.056717265 -0.12622674 -0.064236894 -0.022804799 0.07926943 0.17355555 -0.14067578
-0.041887388 0.16754259 -0.09392228 0.089483276 0.10284609 0.1676682 -0.043774758 -0.06889327
0.08589646 0.00031180377 0.027583877 -0.046852723 0.021762254 0.10033407 -0.16678435 -0.024452617
-0.10825027 -0.10961573 -0.01242579 -0.04724075 -0.069915764 0.023663528 -0.031481337 0.07925136
0.07703132 0.18548787 0.10671126 -0.15476348 -0.043739222 0.08214051 0.047095496 0.14572796
-0.071381755 0.15464804 0.20052162 -0.04413576 0.14320625 -0.11996792 0.121585116 -0.019137498
0.0795167 0.04626705 0.06404465 0.08830554 -0.034793057 -0.15062279 -0.08639156 -0.099973544
0.035832625 0.051539574 0.13793702 -0.07177685 -0.0842656 0.107367635 0.05286205 -0.18205076
0.067377485 0.025778117 -0.120290786 0.09108312 -0.1506538 0.13389647 -0.14433952 -0.045127604
-0.01452068 -0.14588912 0.08391591 -0.009128036 -0.17138459 0.10900104 -0.071240075 -0.09767506
-0.060235765 -0.17277361 0.06367253 -0.07673865 -0.07554417 -0.02781961 0.10465142 -0.099984825
-0.15926601 0.114733845 -0.01593175 0.019355476 0.04708801 0.15937291 0.16846651 -0.1249558
-0.15460747 0.11117459 -0.044111535 -0.15266117 -0.118312135 0.07991976 -0.10061776 -0.13668093
0.09922188 -0.14691097 -0.043232422 -0.10800572 0.0522039 0.014377745 -0.13419722 0.019088432
-0.12478139 -0.017793704 0.08789022 -0.15716584 -0.1307338 -0.06530852 0.08933683 -0.04083318
-0.0677897 0.17915219 -0.0503821 -0.121889904 0.12283449 -0.06491069 0.07603612 -0.010977718
-0.11913157 0.12612927 0.093667746 0.035066232 0.123736314 -0.1068088 0.13755664 0.036564793
0.07344532 -0.06779508 -0.032575317 0.16105671 0.052943762 0.02293033 -0.14214548 0.17305051
-0.10951256 0.15769981 0.11343175 0.07323528 0.08914213 -0.1447657 -0.12521133 -0.043345414
0.16365317 -0.12006067 0.05827417 0.13596137 0.09159234 -0.046190318 0.13409686 -0.08729009
0.0797125 0.054552276 -0.05231101 -0.06683559 0.037156172 -0.106463514 -0.08670032 -0.13278916
0.114837244 -0.10508396 -0.04174747 0.016986124 0.064036414 0.05642098 0.1490591 0.06845137
0.14630987 -0.057281755 -0.14980905 -0.028904596 0.15428555 0.12526624 -0.112844385 -0.13503453
-0.10695262 0.1289465 -0.17006983 0.13515042 -0.0092680985 -0.04770128 -0.09538243 0.14147215

gru.weight_hh_l0 f4 [96, 32]
00000000: b17a aebd 9a9c c03d b2ae 71bd 89d8 133e
00000010: ac47 13be c814 14bb 10f7 16bd 1305 8b3d
00000020: e7f3 bf3d d565 de3d f538 623d 87e1 1dbe
00000030: e926 46bd 3fea c9bd 848a d3bd fd11 0a3e
00000040: a811 373c 5f87 94bd 7197 90bd 9fc3 70bd
00000050: c8b1 083e ff00 bb3d 1592 2d3d 4af0 de3d
00000060: 25c3 113e 40ec 2f3d c53f 8ebd 9bd1 243e
00000070: 61fe b03c 5b06 4e3d dbd8 083e 6996 123e
00000080: 5d31 363e 87e1 143e 7726 543c 3f56 103e
00000090: 2206 fc3c 293d e4bc 504e 203e 5574 273e
000000a0: ad0d 613d bd85 0b3e e26a 093d e4fd ffbc
000000b0: 8543 9d3b a08b 5a3d 12fb 45bd b368 33be
000000c0: 6dcb 20bb 55e0 31bc ccb9 8dbd 9f20 653d
000000d0: 2144 f2bc bef8 8f3d fa16 f6bd 7c29 ce3d
000000e0: f462 40bd c484 d53d 5e41 a73d 7169 0f3d
000000f0: 7625 83bd c307 af3d a093 9cbd 75ef 85bd
00000100: e0d5 2ebe 7859 b53b e706 1dbd ea4d 413d
00000110: 5fbc c03c 47ea eebc b28b 37bd b2d8 383e
00000120: 7230 273e cca5 cdbb 5e00 39be db1d 593d
00000130: 6c87 233e 0401 493d dc6b 8abd b8e9 b0ba
00000140: 58b9 f63d 8ba0 903d 3bc2 ddbd 327b 96bd
00000150: a9bf 2f3e 9246 5e3d 9b5b 0dbd a258 363c
00000160: 7d57 553c 89b9 97bd 1cb6 053e f9c6 cb3d
00000170: c605 8a3d 3a1f dfbd 0c49 10be 9c11 1ebe
00000180: bfb0 d5bd f124 cb3c 4555 0e3e 36b6 c23d
00000190: 2f5c 413e 04bc ac3d b267 b33c 95f2 3dbe
000001a0: 3b1b 06be 7771 933d 45d0 12bd 33af 033e
000001b0: 8c84 c0bc 6115 033e 0268 2abe 0fda 723d
000001c0: 4844 f93d f393 883d f9f5 28be 5816 563d
000001d0: 71ec 7e3d ff2a b43d 4ec9 e53d d9bb 253e
000001e0: 27b8 853d 8fa4 94bd ec59 9b3d e040 16be
000001f0: 2207 0ebc 1e74 a33d 3138 493d 056f ca3c
00000200: 873f c5bc 9850 963d fd31 463d c35b debd
00000210: b02c 91bd 5bd6 bfbd 610b 8c3d ea81 2a3d
00000220: 2994 c1bd b480 08be 3e41 523d 1606 f43d
00000230: 8361 193e 0a02 053d c1db e1bd e4ed 7ebd
00000240: 9b7b 043d 806f d4bd 69d5 83bb cc9a 7bbd
00000250: 36e1 f83d 7b13 9d3d 5964 07bd f93f d7bd
00000260: a076 ca3d a0e4 dcbd 4879 85bd fa09 cf3d
00000270: 4fc3 353e 8d20 953d 3577 443d 3d94 0cbd
00000280: d865 04bd 4988 c63d 476b ffbc b502 c63d
00000290: 0ef1 d9bc f469 4c3e dc7c 833d ad42 2dbe
000002a0: 760a 0abe c4b5 2d3e 1369 633d 7c50 6abc
000002b0: eb70 34bd 50e8 8c3d 5cfb bd3d 0b02 94bd
000002c0: afad 8b3d ea07 19be 013e c9ba d584 0c3e
000002d0: 1217 f43d 4318 e93d a919 0ebe 2b00 4e3d
000002e0: 30d9 073e b662 4a3e a387 013e 80bb ee3d
000002f0: 0486 0e3c aa77 06be 830b 42be c97f 6b3d
00000300: 9cbc 9b3d 6f68 9abd a1c0 f43c d174 3f3e
00000310: 33ef 373c a8ac 883b 7754 27bd 6b44 de3b
00000320: 9406 bbbd 3a50 cb3d a5d9 e33c 3f08 f63d
00000330: 82e8 0bbe 076a ab3d 4d9f bb3d d604 bdbd
00000340: f62c c6bd b27f c53d 2b6c e7bd 68ab b33d
00000350: 148a abbd 283e b7bd f75d b4bd 6092 863d
00000360: 0a2c 173e 6d5d 72bc 7d9f 84bd 4738 8ebd
00000370: 9c15 8e3d 32b1 fc3d 5eda 7ebc 3634 f0bd
00000380: 0fef 853d 2697 3f3c b16a 823d 4bae e83d
00000390: 83df 453e c51e 9fbd b47a dfbd 1a78 fc3d
000003a0: 2671 fabc 362e 053e 3f62 21be 7fb6 023e
000003b0: 0e8a 783d e995 b7bd 0304 f93c 53dc 93bd
000003c0: fb8a 0a3e b96d 193d e0ab 04be d9c2 3dbe
000003d0: fee5 c8bd 1ea3 1f3c 4b83 333d c89d de39
000003e0: 9810 153e 40e0 d43d 2df6 193e 1f5d cabd
000003f0: 4531 333e a263 023e f84a 01be 4bdd f7ba
-0.08519495 0.094048694 -0.059004493 0.1443807 -0.1438281 -0.0022595394 -0.03685671 0.06788077
0.093726926 0.10859267 0.0552301 -0.15418063 -0.04837695 -0.09859132 -0.10329154 0.13483424
0.011173643 -0.072523825 -0.07060135 -0.05878031 0.13349068 0.09131049 0.042375643 0.10885675
0.14234598 0.042949915 -0.06945757 0.16095583 0.021605672 0.05029903 0.13363974 0.1431519
0.17792268 0.14539157 0.012948624 0.140954 0.030764643 -0.027861195 0.15654874 0.16352971
0.054944683 0.13625236 0.033549197 -0.031248994 0.0047993087 0.053355813 -0.048335142 -0.17520408
-0.0024535314 -0.010856708 -0.069202036 0.055939313 -0.029573502 0.07029866 -0.12016101 0.10066506
-0.04696937 0.10425714 0.08166765 0.035012666 -0.064036295 0.08546402 -0.07645345 -0.065398134
-0.17073774 0.005534347 -0.03833666 0.047193445 0.023527322 -0.029164447 -0.04481096 0.18051413
0.16327074 -0.006275868 -0.18066546 0.053006988 0.15969628 0.049073234 -0.06758854 -0.0013497388
0.1204707 0.07061871 -0.10828062 -0.073477164 0.17162956 0.05426652 -0.03451119 0.01112953
0.013021347 -0.07408435 0.1305775 0.099500604 0.067393824 -0.10894628 -0.14090365 -0.15436405
-0.10434102 0.024797888 0.13899715 0.0950741 0.18882822 0.08434299 0.021900032 -0.18549569
-0.13096325 0.07199376 -0.035843153 0.12859802 -0.023500703 0.12801124 -0.16641238 0.059289988
0.12171227 0.06668844 -0.16500081 0.052267402 0.062237207 0.08797263 0.112200364 0.1618494
0.06529265 -0.072579496 0.075855106 -0.14673185 -0.008668693 0.07981132 0.049125854 0.024711141
-0.024078144 0.07339591 0.048387516 -0.10857346 -0.070886016 -0.09367057 0.06838108 0.041627802
-0.094520874 -0.13330346 0.05133175 0.11915223 0.14978604 0.032472648 -0.11028243 -0.06223859
0.03234444 -0.103728294 -0.004023243 -0.061426923 0.121523306 0.07669731 -0.033054683 -0.10510249
0.09885907 -0.10785794 -0.06517273 0.10109325 0.17750286 0.07281599 0.047965247 -0.03432106
-0.03232369 0.09693963 -0.031179084 0.09668485 -0.026604202 0.19962293 0.064202994 -0.16919966
-0.13480553 0.1696387 0.05552013 -0.0143014155 -0.044053 0.068802476 0.092764586 -0.07226952
0.06820237 -0.14944425 -0.0015353562 0.13722546 0.11918463 0.11381581 -0.13876976 0.05029313
0.13266444 0.19764218 0.12649398 0.116568565 0.008698944 -0.13131586 -0.18949704 0.057494912
0.07604334 -0.075394504 0.029877009 0.18696906 0.011226463 0.004170973 -0.040852036 0.0067830584
-0.09132114 0.099274114 0.027813742 0.120132916 -0.13662913 0.083698325 0.091612436 -0.09229438
-0.09676544 0.096434966 -0.11299928 0.087729275 -0.08375946 -0.08947402 -0.08806985 0.065708876
0.14762893 -0.014792782 -0.064757325 -0.06944328 0.069377154 0.12338485 -0.0155549925 -0.117287084
0.065397374 0.011693751 0.06368006 0.11361369 0.19323544 -0.07769541 -0.10912076 0.12327595
-0.030571532 0.1300591 -0.15760134 0.12764929 0.060678534 -0.0896414 0.03039742 -0.07219758
0.1352958 0.037458155 -0.1295619 -0.1853136 -0.098094925 0.00974348 0.043826383 0.00042460696
0.14557111 0.10394335 0.15035315 -0.09881043 0.17499264 0.1273332 -0.12626255 -0.0018910555
