Competition/TrainAI/model/c30/model_weights_.pth (torch, 72411 bytes, 10 tensors)

lstm.weight_ih_l0 f4 [128, 34]
00000000: 10db c43c 53d9 dfbd cf70 bdbd 640d c6bc
00000010: 0f83 233e 3df0 ad3c dacc d8bd 95ce 2f3c
00000020: da74 4b3c 7dc9 f2bd ef76 17bd 57f2 61bd
00000030: 81cf 01be 26c4 a5bd 8219 133e 1728 1bbe
00000040: 4beb 85bc eadb cdbd 47f3 80bd 76c9 eabc
00000050: 877e e2bd be5e efbd 0573 3bbe c12b ebbd
00000060: c9f2 fabd 1eca 973d 7c69 bf3d 5152 743d
00000070: ba9a b13d bc2e 09bd bda9 1e3d 3ec8 1c3e
00000080: 0c0b b9bd b311 9d3d 5158 9d3d ef2e 863b
00000090: 6e2f 743d ae46 d23d 9f84 e2bd 4881 823d
000000a0: fd22 d73d c9f1 123e 1edb 3d3d 80ae fcbd
000000b0: 4443 d83d 4733 c23d 3907 03be 38d8 0b3e
000000c0: a5d1 f23d 1988 1c3e d181 72bc 4c2c c83d
000000d0: 5855 18be 19f1 e63d cf45 8dbd a3f0 fb3d
000000e0: ea25 193e f44c f2bd 1467 a3bd d7f0 97bd
000000f0: 58f2 06bd 154f e73d 5dc8 083e 3c44 253e
00000100: 7e90 2fbd 8a28 99bd 4bc7 c8bd 45a1 10bd
00000110: b53a 3c3d 1476 44be dcff edbd 72a6 1ebd
00000120: 2db3 de3d a3e9 c1ba 5e3e 8bbd aa53 2c3d
00000130: b11c a5bd 16fe da3d d2c2 a2bd 16bc a53d
00000140: bf6f 82bd 6f82 e33d 64e1 4c3d 3095 ff3c
00000150: f392 2b3d 6b3e 85bd 94de dbbd a9e5 0dbd
00000160: 0ec0 113e 66fd fd3d 08e9 21be 09a6 c63d
00000170: 749a a1bd 314a fd3c 6017 553d 9223 68bd
00000180: a991 e73c 42f8 883d b55f 04be 1ee4 913d
00000190: 9a47 b53d f022 f03c cfaf b03d 27d5 6a3b
000001a0: ea48 243e 61e8 943d d251 c63d 9dc4 d83d
000001b0: df47 99bd bba5 1c3e e133 8dbd 48c8 00be
000001c0: 3410 e8bd 2ee5 2dbe ff7b 07be 5ba4 4b3d
000001d0: 4116 313d e915 68bd fe4e 40be 6a20 37bd
000001e0: 8470 6b3d a5da c2bd b872 e5bb d194 353e
000001f0: 8e2f 013d 2e8f d9bd 4e08 443e b2ff 12be
00000200: 48d8 13be 85d0 133e f3b1 053e 936a 21bd
00000210: 77a4 c23d 70e3 05be 5edf fa3d 35c3 cabd
00000220: 1a6a 0dbe b601 dabd 5123 8c3c 1df4 9f3d
00000230: af6d f93d b568 103e 55ff 3b3e 7004 9e3d
00000240: 7886 b83d cc99 ba3d f6f6 1bbe 75bc c9bc
00000250: db36 99bc 8f8b aabd 2b52 623d f1e0 953d
00000260: 5153 803c 50de 30be 5fe9 70bd 6e24 353e
00000270: 46de bdbd b79f 313e ea7f aa3d f743 243e
00000280: 16be c1bd 7992 1abd 747a 2cbd edc6 7f3c
00000290: ac5a b03d 5221 27be 95f7 dd3c 3529 90bd
000002a0: 38c5 c73d 86ec 07be 0dd3 9f3d 2650 85bd
000002b0: 4630 f03d deb4 ea3d 20ef 233e 2770 1fbe
000002c0: 47c7 bd3d 23eb 1fbe 7398 81bd 02d9 733d
000002d0: 3d68 c4bc 50af 8cbd d2fe e7bd 451d 10be
000002e0: 8696 843d c7f9 2e3c a0a8 23bd d39b d5bc
000002f0: 3aac 983d 86e6 9a3c 335f b3bd 7cfb d0bd
00000300: 38a0 403d 8fa7 df3d ebed 07be 535b 543d
00000310: 5b42 1c3e 9880 14be 4b11 93bd 2be8 a23d
00000320: bf4c 34bd 0542 013e 9385 30be 5836 a7bc
00000330: 10d5 d93d ccb5 c83d 35b7 19be ec0e 03be
00000340: 23d9 0cbe 5f5c 343c 0762 f0bd b3f7 43bc
00000350: d5eb fdbd 7e10 99bd 5c6f e93d 6a67 c33c
00000360: 0ece 49be 936a f63c 4cdd a73c b1a0 3fbe
00000370: c1c3 413e c2d8 4cbe 4dbb b23c 1e33 20bd
00000380: 7828 113e b4c4 e4bd 30c9 1e3e 8e48 4d3d
00000390: 6833 16bc d5be 1bbe 652a 173d 56e1 48be
000003a0: c15d dd3d b592 87bd af65 88bd d875 273d
000003b0: 50a4 43bd acf8 653d 0eda 083e 8f18 2cbd
000003c0: e3bd 283e 4aa8 eebd f764 efbd 77ac 9fbd
000003d0: 0256 9dbc 5457 f73d 45c9 0ebe 1533 f53d
000003e0: cf8e 593c 4b62 a5bd 07d9 1ebe 75b1 0fbe
000003f0: 98cc 663d ffa3 043e 95f8 0abd ef7c 7c3c
0.024030238 -0.10930123 -0.09250032 -0.024176307 0.15967964 0.021232719 -0.10585947 0.010730405
0.012417996 -0.11854837 -0.03697866 -0.055162754 -0.12676813 -0.08094053 0.14365199 -0.15152012
-0.016347548 -0.10051711 -0.062964015 -0.028660517 -0.110592894 -0.116879925 -0.18305595 -0.11482955
-0.12253339 0.07411598 0.093462914 0.059648816 0.0867209 -0.033491835 0.038736094 0.15310761
-0.0903531 0.076693915 0.07682861 0.0040949504 0.059615545 0.10267387 -0.11060452 0.06372315
0.1050472 0.14350046 0.046351545 -0.12337971 0.10559705 0.094824366 -0.12795724 0.136567
0.11856393 0.15286292 -0.014801458 0.09774074 -0.14876306 0.112764545 -0.068980806 0.12301757
0.1495587 -0.11831084 -0.07978645 -0.074189834 -0.03294596 0.112943806 0.13357683 0.1613931
-0.042862408 -0.07478435 -0.09803637 -0.03531005 0.045954425 -0.19185668 -0.11621067 -0.038732953
0.10874019 -0.0014794361 -0.06799005 0.042071976 -0.08062113 0.10692994 -0.07947315 0.08092515
-0.0636897 0.111088626 0.050019637 0.031199068 0.04188819 -0.06506046 -0.10735813 -0.03464285
0.1423342 0.124018475 -0.1581155 0.096996374 -0.07890788 0.030919166 0.052024245 -0.056674547
0.028267698 0.066879764 -0.12927134 0.07123588 0.088515475 0.029313534 0.08627283 0.0035832615
0.1604344 0.07270885 0.09683575 0.10584376 -0.074844114 0.15297596 -0.06894661 -0.12576401
-0.113312155 -0.16981956 -0.13230895 0.04971729 0.043234114 -0.05666152 -0.18780133 -0.044708647
0.05748035 -0.095143594 -0.007002201 0.1773255 0.031539492 -0.106230125 0.19143793 -0.14355353
-0.14437973 0.14435013 0.13056163 -0.039408278 0.095040254 -0.13075042 0.12249635 -0.09900514
-0.13810006 -0.106448576 0.017106684 0.07810233 0.121791236 0.14102443 0.1835912 0.0771569
0.09010023 0.09111366 -0.15230927 -0.024625996 -0.018702915 -0.083274 0.055254143 0.07318295
0.015664728 -0.17272305 -0.05881631 0.17689678 -0.09270911 0.17346083 0.08325179 0.16041552
-0.09460084 -0.037737343 -0.042108968 0.015611392 0.08611044 -0.16321304 0.027095595 -0.070391096
0.09754413 -0.1327382 0.078039266 -0.06509428 0.117279574 0.11460279 0.16009188 -0.15570126
0.09266525 -0.15617041 -0.063279055 0.059533127 -0.023975486 -0.06869376 -0.113279 -0.14073665
0.064740226 0.010679669 -0.039955735 -0.02607528 0.074547246 0.01890875 -0.08758392 -0.10204217
0.047027797 0.10920631 -0.13274352 0.051844906 0.15259688 -0.1450218 -0.07181033 0.07954439
-0.044018503 0.1262284 -0.17238455 -0.020411655 0.106363416 0.098003 -0.15011294 -0.12798661
-0.13754706 0.011008351 -0.11737447 -0.011960912 -0.12398497 -0.07473849 0.11398193 0.023853023
-0.1970751 0.030080115 0.020491265 -0.18713643 0.1892233 -0.20004562 0.021817828 -0.03911125
0.14175594 -0.11170331 0.15506434 0.05011802 -0.00916753 -0.15209515 0.036905665 -0.19617209
0.10808898 -0.06619779 -0.066600196 0.04088387 -0.047764122 0.056145355 0.13364431 -0.04201561
0.16478686 -0.11653192 -0.116891794 -0.07796567 -0.01920605 0.120772034 -0.13943966 0.11972634
0.013278677 -0.080753885 -0.15512477 -0.14032538 0.05634746 0.12953185 -0.033928473 0.015410646

lstm.weight_hh_l0 f4 [128, 32]
00000000: 2ae1 613d 3bc3 cd3d 23fc f13d 088a cc3c
00000010: a70b c5bd 2a21 09be 491c 1abe 1c15 b93d
00000020: d838 0abd 442b 30be 6c0a 393e 1bd0 d53d
00000030: 4c3d 7f3d aca5 45be 3cb4 25be 9d23 c73d
00000040: 925c f93d 3075 5b3b 4713 393e d197 bbbd
00000050: e4d1 a4bd 5fbf aa3d 2865 0e3e 6408 20be
00000060: 32be 80bd b154 973d 8de1 fe3d 60ba 26be
00000070: 851c 1abe b962 a0bb 2fe3 2c3e 3405 a2bd
00000080: 99d3 f2bd 9f76 833c a669 3abe 1ff0 e9bd
00000090: c2fe 7b3d d9ee 1e3d c2bd 08be 24d3 ff3d
000000a0: 5839 95bd 2c9a 63bb 62c0 423d 22e5 e93c
000000b0: b8ea 29be 2aab 453d 8f6c edbd 2b4d 853d
000000c0: e677 e8bd ef4e 153e 2006 82bb 81f8 8c3d
000000d0: af02 82bc 94ad 6f3d cfdf e9bd 116a dc3d
000000e0: 0e0a 063e 5d09 4f3e f021 503c 2d08 c13d
000000f0: ad80 0bbe 016c 163e ed74 c03c ff0d 1dbe
00000100: 9efa 09be 9039 833d 150e 10be 13ed d3bd
00000110: de62 ab3d 8ed0 53bd 6f7c 2c3d 907f babd
00000120: 4e70 ec3d b18f 04be c033 c1bd 7cd7 433e
00000130: 4f80 a83c 5354 19be 0379 12be 3629 babd
00000140: 04f8 c13d bc20 193e 80db bc3d 1046 b6bc
00000150: cfe9 85bc 1a58 733d 2d4e dabd 344a 25be
00000160: 298b ba3c 7855 f63d 89aa a83d b618 313e
00000170: 1494 17be 3c02 493d 1405 0d3d faf6 0b3d
00000180: eabf 0b3e 446b 063d 9ac9 953d ded1 e73c
00000190: 3cad a5bd 7771 27be 54a2 b5bd 6128 19be
000001a0: 717c f83c 3a18 09be fcfe 0c3c b739 d5bd
000001b0: 1770 293e 1ff4 f9bc e6e0 103e 38d3 183e
000001c0: 3725 fd3d c115 403d 0cfb c13c c3ef c93d
000001d0: 26e5 3ebe 0d8a 11be e44a 3fbd 216c 86bd
000001e0: b29f abbd 9619 ff3c 5f8c 6abd bcc2 98bd
000001f0: 7ba1 5cbc dfbb 1dbe 87ef 15be acbd c13c
00000200: ff2c 18bd 0e6d 2e3e 7c48 963d be48 273e
00000210: 1f41 07be 66d7 583d 06db f1bd 431f e53d
00000220: b417 c6bc f27f 303e 91e0 1cbe 2be9 19be
00000230: d869 d13d 9b3b a6bd c154 383e 910a 213c
00000240: 905d d73c 8605 8d3c 3c33 e2bd dbfe 14be
00000250: 9ed5 c6bc a5d5 4a3c 5473 bcbd fbf1 11be
00000260: d2ea 033d 8017 0ebe ece2 413d 98e6 31be
00000270: 9c12 123e 600e f7bd a9ee 273e 5fbc d23d
00000280: cbad 00be d3dd ffbd 73a0 be3d 50a7 b8bc
00000290: dd53 c13d 554c 23be 6ad7 e6bd c7f2 393d
000002a0: 7402 0cbe 3a94 01bd 12fc 1d3e cdde 19be
000002b0: 6b4d abbd 4b04 17be 4960 05be d04d 1f3e
000002c0: 2a50 a73c 371f 4a3d d631 093e b8f8 8a38
000002d0: 7c2b c83b e87b 92bd a2e5 21be 5620 dabd
000002e0: 61ec ccbd 8125 21be e676 283d 9056 bfbd
000002f0: 04cd 05be 1bb6 2fbe d9d5 90bd ed8e 82bc
00000300: 01be 50bd 76b4 6cbd 7a3e 3d3e 1fc9 13be
00000310: d17e e53d dc3e c8ba b315 023e 7443 a7bd
00000320: a978 c6bc a264 393d c9d2 b4bb 5c78 2f3b
00000330: 178e 87bd cc8e 3abe 7568 75bd 790e 013d
00000340: 3cd5 34bd 8b86 493d 4852 223e 932d cdbd
00000350: af2b 0abe cf32 343d 5036 36bc dab5 033e
00000360: 81a9 0f3b 0882 f23d 40ad 893d 00e4 b9bc
00000370: 0e1c cbbd 8f23 e03c 9f5e 89bd 3e80 a43d
00000380: c6a2 a63d f2e8 ff3d 4622 e1bc a29c f53c
00000390: 7700 473e ac1f fe3c 0f04 313e ea38 dbbd
000003a0: 90c7 0dbe 8574 ac3d d9f8 653c 07a8 73bd
000003b0: 523d 71bd e118 e3bd 4634 fc3d 76ab 82bd
000003c0: 63e9 b23d 82df a63d 373c 543d f34f 013e
000003d0: a849 363d feff 0abc f75a 57bd 0cd2 bd3d
000003e0: 1b42 b73d 004c 4a3e f669 5f3d ef1b 0b3e
000003f0: 48a2 0ebb a397 3d3d 5834 84bd bea0 b6bd
0.055146374 0.10047003 0.118156694 0.024968162 -0.09621363 -0.13391557 -0.15049852 0.090372294
-0.033745617 -0.17204005 0.18070382 0.104400836 0.062314317 -0.1930148 -0.16182035 0.097235896
0.121758595 0.0033486597 0.1807376 -0.09159816 -0.08047846 0.083372824 0.13905776 -0.15628201
-0.06286277 0.073892005 0.12445364 -0.16282034 -0.15049942 -0.004894581 0.16883539 -0.07911149
-0.11856765 0.016047774 -0.18204364 -0.114227526 0.061522253 0.038802 -0.13353637 0.12491444
-0.07286328 -0.0034729345 0.04754675 0.028551642 -0.16593444 0.048258938 -0.115929715 0.06508859
-0.11350994 0.14580892 -0.0039680153 0.06883336 -0.01587042 0.058515146 -0.11419641 0.10762418
0.13089773 0.20218416 0.012703404 0.094253875 -0.13623305 0.14689638 0.023493255 -0.1533737
-0.13474509 0.064074636 -0.14067872 -0.10347953 0.08368467 -0.051712565 0.042110857 -0.09106362
0.11544858 -0.12945439 -0.09433699 0.1912517 0.020568995 -0.14973573 -0.14303975 -0.090898916
0.09471133 0.14953893 0.09221554 -0.022250205 -0.01634684 0.059410192 -0.10659442 -0.16141587
0.022771435 0.120280206 0.08235652 0.17294583 -0.14802581 0.049074396 0.03442867 0.034171082
0.13647428 0.03281714 0.07313843 0.028298315 -0.080896825 -0.16351877 -0.08868852 -0.1495681
0.030332776 -0.13388148 0.008605715 -0.10411399 0.16546665 -0.030511914 0.14148292 0.14924324
0.12360614 0.046895746 0.023679279 0.09860184 -0.186421 -0.14212818 -0.04670228 -0.06563593
-0.08380069 0.03114013 -0.057262775 -0.07459018 -0.013466234 -0.15403698 -0.14642154 0.023650013
-0.037152287 0.17033789 0.07338044 0.16336343 -0.13208435 0.052939795 -0.118093535 0.11187603
-0.024181224 0.17236307 -0.1532004 -0.15030353 0.10225266 -0.081168376 0.18001081 0.009829179
0.026289731 0.017214548 -0.110449284 -0.14550345 -0.024271782 0.012380038 -0.092016846 -0.14252464
0.032206364 -0.13876152 0.04733555 -0.17373121 0.14264911 -0.12063289 0.16399635 0.10289835
-0.12566297 -0.124934815 0.09307947 -0.022540718 0.09439824 -0.15947087 -0.11271556 0.045397546
-0.13672811 -0.0316355 0.15428188 -0.15026398 -0.08364376 -0.14747731 -0.13025011 0.15557027
0.020423967 0.049346175 0.13397917 6.62668e-05 0.0061086994 -0.071525395 -0.15810254 -0.10650699
-0.10006023 -0.15736963 0.041129015 -0.09342682 -0.13066489 -0.17159311 -0.07072038 -0.015937293
-0.05096245 -0.05778929 0.18480864 -0.1443219 0.11205829 -0.0015277523 0.1270359 -0.081671625
-0.024227457 0.045261987 -0.0055182916 0.002677462 -0.06618898 -0.18218535 -0.05991407 0.031507943
-0.04414867 0.049200576 0.158517 -0.10018458 -0.13493226 0.043993767 -0.011121348 0.1286234
0.00219211 0.11841208 0.06722498 -0.022691727 -0.099174604 0.027360706 -0.06707501 0.08032273
0.08136515 0.12495603 -0.027482163 0.029981915 0.19433771 0.031020962 0.17286704 -0.10704215
-0.13845658 0.08420662 0.014036381 -0.059486415 -0.05889637 -0.1108873 0.12314658 -0.0638036
0.08735921 0.081480995 0.051815238 0.12628154 0.044503838 -0.008483885 -0.052576985 0.09268579
0.089481555 0.19755554 0.05454441 0.13584875 -0.0021764208 0.04628719 -0.06455296 -0.08917378

lstm.bias_ih_l0 f4 [128]
00000000: 60e5 44be 68f4 893d 5d9c b33d 4521 05be
00000010: f126 393e 46e4 a43d acb7 b9bd debc b9bc
00000020: 8849 1d3e cda0 7cbd 9deb 77bd 9bea 0fbe
00000030: 049e 043e 7da9 1ebe 9ce0 013c f098 18be
00000040: f86e 3dbe 132e 403e 3c14 f6bd d94a 763d
00000050: 53ba e73d 1f57 103e 7b7a edbd 1c0a 503e
00000060: 84ce ac3c 84b9 09be 6944 8b3c 4d54 18be
00000070: 3666 11be 5a6a 2fbe 741c 033d 708e c8bd
00000080: ecd9 9e3d 4d6c 98bb e0b9 63bc 6549 06be
00000090: 5636 f2bd daa0 e13d 0e29 fe3d a0ae c9bd
000000a0: 08f6 11bd 4d4f 023e c1d9 233d 4673 32be
000000b0: 5c6e 0d3d 535f 14be 1703 f7bd 228f c0bd
000000c0: 9ade 30be f15c 4f3a 9d21 223e 37ed 09be
000000d0: 6fa5 14be b890 0fbe 42aa 9c3d eb76 183e
000000e0: 091d e73d 734d 203e 93c2 003e f9d9 32be
000000f0: 208f 683b d109 c03c 2a48 d93c 36da 313e
00000100: 6719 963d 9315 1ebe dafd 10be b2f4 2bbe
00000110: 6cfe fd3d d367 0bbe 937b 233d 6ba8 8ebc
00000120: 023d aabd addd 0c3c b0bc bc3d 40de 0ebe
00000130: 896f d33d f19e 99bb e314 883d 3874 e03c
00000140: 7697 28be b032 a33d 5b59 d23d 484a 4ebc
00000150: 846b 97bd 9d90 ef3d 0a4e 053e 8889 46be
00000160: 7345 973b ffa6 0abe 28b9 e3bd c222 2a3d
00000170: bab9 083e 8ea2 1ebe 3a2d 0a3e d24d 2cbe
00000180: 87bb 3abd ec55 aa3d 8916 dd3c 7abc b7bc
00000190: 970f cc3c 3872 9bbd 0c7f 133d 15bf ec3d
000001a0: f8ea e93d dc69 a73c a900 003d 520e 32be
000001b0: faaa 5ebc ca34 3abe 3867 ecbd 715b ef3d
000001c0: 2968 38be 540e 1f3e 2078 65bc d5b4 923c
000001d0: 027d 1d3e d0b9 4c3e e202 41bb 5c82 2d3e
000001e0: 48f6 97bd 3186 01be c65d f6bd dc0f 2b3e
000001f0: 6bdb 9bbc 4e7a 36bd 570f 043e 08a5 313e
-0.19228125 0.0673607 0.08770058 -0.13000973 0.18081261 0.08051352 -0.09068236 -0.022673067
0.15360081 -0.06167679 -0.060527433 -0.14054339 0.12950903 -0.15494342 0.007927086 -0.14902091
-0.18499362 0.18767576 -0.12015578 0.060129974 0.113148354 0.14095734 -0.11595627 0.20316356
0.021094568 -0.13449675 0.017000394 -0.14875908 -0.14199147 -0.17130414 0.032009557 -0.09792793
0.07756409 -0.0046515823 -0.0138992965 -0.13113935 -0.1182677 0.11017008 0.12410174 -0.0984776
-0.035635024 0.12725563 0.04000259 -0.17426786 0.034529075 -0.14489488 -0.12061136 -0.094023004
-0.17272416 0.00079102727 0.15833135 -0.13469397 -0.14516233 -0.1402005 0.076496616 0.14889114
0.11284835 0.15654545 0.12574224 -0.17465962 0.00354857 0.02344218 0.026523668 0.17368397
0.07329064 -0.15437917 -0.14159337 -0.16792563 0.12402043 -0.13613825 0.03991277 -0.017414292
-0.083124176 0.0085977735 0.09215677 -0.13951969 0.10324008 -0.0046881367 0.06644609 0.027399167
-0.16464028 0.07968652 0.102709495 -0.012590952 -0.07393554 0.11697505 0.13018051 -0.19388402
0.0046164333 -0.13540266 -0.111193 0.041537054 0.13352099 -0.15491697 0.13493815 -0.16826561
-0.045588996 0.083171695 0.026988285 -0.02242874 0.024909778 -0.07590145 0.036009833 0.115598835
0.1142177 0.02043622 0.03125063 -0.17388275 -0.013590569 -0.181842 -0.11543125 0.11687363
-0.18008484 0.1553281 -0.014005691 0.017908493 0.15379718 0.19992757 -0.0029451181 0.1694426
-0.07420021 -0.12648846 -0.120296046 0.16705269 -0.019025525 -0.044550233 0.12896477 0.1734811

lstm.bias_hh_l0 f4 [128]
00000000: dea5 11be e67f b53d 4500 813d 6d98 f33c
00000010: a5de 323e 9f42 01be 6ab8 553d 54a2 28be
00000020: c419 4d3d 30f9 2fbd e1ed c1bd b710 b1bd
00000030: c1e4 10be 3af4 fb3c 9f8c 863d 8792 14be
00000040: a306 2ebe 2220 6ebd 1990 ba3d 3cf1 14be
00000050: 2839 fc3d 6633 0e3d 811f 123e 3972 cf3c
00000060: 0416 0fbd 544a 25be 5a46 243e 10ae 363e
00000070: ea1b e2bd 60a2 163e b26b 1fbe 4979 b2bc
00000080: 4dbd 4a3e e028 093e 161c 32be 0ccc aabd
00000090: 4153 353e 2b0f 463e e516 13bd c8af 0abe
000000a0: 2602 023e c321 9dbb 90d4 b7bc fd6b 63bd
000000b0: f868 6c3d 13f8 2a3d 24b9 663c 1f83 ec3c
000000c0: ba6d c63d 5953 1b3e 87d1 9d3d 8008 e73d
000000d0: b6fe de3d f3e9 fb3d 7732 66bd db98 0c3e
000000e0: 379e ffbc 49d6 85bc 4c08 a3bd eea1 1cbd
000000f0: 0f15 0dbe e783 26bd 7c58 9c3d ec85 bebb
00000100: c833 0dbd 4a56 babd d178 1fbe 553e 293d
00000110: c4c9 b33d fa29 1f3e 4628 1d3e d594 12bd
00000120: 7c5c 98bd 5d2a 243c d42b 8dbd b1d8 02bd
00000130: b9a3 ae3d 7029 17be 7999 1fbe a80f 2abe
00000140: fb2e 07be 5095 2bbe 9156 b53d 478b 543e
00000150: cfb3 db3d ed0f 9bbd 0e7c 2c3e ceb8 e63d
00000160: ae2e 743d 65b7 833d 0771 39bc a578 2fbe
00000170: eef0 fcbd 5164 04be 2629 f1bc be8f f13d
00000180: bc26 fabc 3197 1fbc df3c 1ebe 0790 673d
00000190: 6434 0dbd 4106 f5bd 3693 9cbd 81c4 04bd
000001a0: 2398 383e 573d 803d 553b c73d 80cc b6bc
000001b0: 92bb 0dbe 6c49 ee3d 8b2c 283d 5d8d 15be
000001c0: 4625 19bd 13db 923d 4c07 11be 0e2c 373e
000001d0: 55e8 5b3b c723 16bd a084 0ebe ac76 39bd
000001e0: bbe6 f33d 1ba4 f2bd 2935 043e 61e3 e0bd
000001f0: 723e 2b3e 9244 06be d50b 893d cb62 5fbd
-0.1422343 0.08862285 0.062988795 0.029735768 0.17467745 -0.1262307 0.052177824 -0.16468173
0.0500734 -0.042962253 -0.094692 -0.08645766 -0.14149763 0.030756105 0.0656979 -0.14509021
-0.16994719 -0.058136113 0.09109516 -0.14545149 0.12315589 0.034716986 0.1426983 0.02532302
-0.034933105 -0.16141635 0.16042462 0.17839837 -0.110404804 0.14710379 -0.15568426 -0.021786349
0.19798775 0.13394499 -0.17393526 -0.083397 0.1770754 0.19341724 -0.035910506 -0.13543618
0.12696132 -0.0047952845 -0.022440225 -0.055522908 0.057717294 0.04174049 0.014082227 0.028871117
0.096888974 0.15168513 0.0770598 0.11280918 0.10888426 0.12300482 -0.05620047 0.13730185
-0.031203372 -0.01633753 -0.07960567 -0.038240366 -0.13777564 -0.040653136 0.076340646 -0.0058143046
-0.03447321 -0.090984896 -0.15573432 0.04131921 0.08778718 0.15543357 0.15347394 -0.03578647
-0.07439515 0.010019866 -0.06893125 -0.031944934 0.08527321 -0.14761901 -0.15585889 -0.16607535
-0.13201515 -0.16756177 0.08854402 0.20756255 0.10727655 -0.07571397 0.16844198 0.112657174
0.05961483 0.06431464 -0.011318452 -0.17135866 -0.12350641 -0.12928893 -0.029438566 0.11794995
-0.030536048 -0.009740637 -0.15452908 0.05653384 -0.03447379 -0.119640835 -0.07645266 -0.032413963
0.18026786 0.062617 0.097281136 -0.02231431 -0.13841084 0.11635098 0.041058104 -0.14604707
-0.037389062 0.07170691 -0.1416294 0.178879 0.0033555229 -0.036655214 -0.1391778 -0.04527919
0.11909243 -0.11847707 0.12910904 -0.10980869 0.1672304 -0.13112095 0.0669171 -0.054537576

lstm.weight_ih_l1 f4 [128, 32]
00000000: ac04 d2bd bd81 3b3e 0587 fb3c de41 a3bb
00000010: 735b 5d3d 1988 893d a8ea cfbd 3383 12bd
00000020: 3418 273e af5a 5abd be2e 0a3e 4485 25bd
00000030: 4bb7 853d 22ae 163e 8ce1 bebd cb3e d93d
00000040: b098 14be 39f7 4b3d d6e1 c53d bdd9 39be
00000050: a486 fabc c806 01be 04e9 e83d 2c3d 163e
00000060: 004f 19be 4e8d ecbd c214 37be fb16 a0bc
00000070: b772 26be 7b6a 8c3d 4115 313e 6902 503d
00000080: bc03 143e 8ebe 073e 939a 193c 3b23 f3bd
00000090: 6c5d e93d 1f72 f03d 9c84 8bbd d8a4 3a3e
000000a0: eafd 0a3e 2ce6 f73c 83e4 aebc 6e84 a4bc
000000b0: ec35 953d fd9c be3d 215b e13d a674 1c3d
000000c0: 0d1a 1c3e ac5f a5bd 12e8 013e 2c94 ae3d
000000d0: be2b 53bd 1763 9e3c c30b f23d 7d92 03bc
000000e0: 7418 b63d 10f9 c2bd d9a7 9bbd 3656 d23c
000000f0: 0486 293d 4881 6a3b 49ae 38be e6ed 23bd
00000100: 516e 44bd f3ba 1ebc d7a8 3d3e ccf5 843d
00000110: 1002 2cbd a85a c13c 851e 0b3e 0e4a 04be
00000120: 6f84 963b dc9a af3d 7e45 31be 2867 3b3d
00000130: b4c3 8ebc 6054 b53d ce0b 933c 4a96 033e
00000140: e583 10bd 92be 2a3d db6f 15bd fd31 3a3c
00000150: 2e82 0b3d fe96 c63d f54d 913d db29 a03c
00000160: 4591 cebc 1261 3bbe fc02 9d3c fca4 f43c
00000170: cfe6 a5bd 1acc 00be 21aa ef3d 76f8 60bd
00000180: 805a 1bbe 0ca7 9f3d dd1b dd3d e0a9 553d
00000190: 79fe 0a3e 984a 41bd 65db 95bd 9897 d93d
000001a0: 26e6 6c3b 107a b0bd c35a e13d 3423 babd
000001b0: 71d6 f43c abe7 f13c 940a a13d f197 cf3d
000001c0: 5cd1 95bd 4c72 debd a6a8 393e 9e78 123e
000001d0: ded1 813d 9629 0b3d 2867 b0bd d14b 07be
000001e0: d31a 2d3d 237f 50bd f9f4 0a3e 330d 76bd
000001f0: 14fc 383e 3520 ee3d a6e6 093e 0ab5 903c
00000200: f004 14be 299e a43d bd11 18be 1f4e 163e
00000210: 9ed3 edbd 1bc5 30be 45b6 313e fa5e 8ebd
00000220: 1c85 34bc 98ab 403e ad42 63be f628 703d
00000230: 34d3 b53b 2ef9 28bc 5a69 413e 11b8 dbbc
00000240: 9b42 163e 30c6 3bbe 9d76 c6bd 0b5f 8bbd
00000250: 34e6 84bd 11d8 313d f066 47bc e994 5cbe
00000260: 312c 40be 2fd0 d3ba b61f 06be 73fb fbbd
00000270: 57ca 34bd e230 9b3d 4d64 f0bd 4b13 1d3d
00000280: cd01 8f3d 32cd f6bd 74bc 0ebe b3bb be3c
00000290: 4e3e 00bd ce45 eabd 9b28 453c b030 8c3d
000002a0: 078d cfbb 66db e2bd e9be 5ebd 1c19 d6bd
000002b0: ac6b e2bc b535 b93c 5511 2fbe d7bb 42be
000002c0: 6203 8b3d 5056 a1bc 39cf 97bd fd25 a5bd
000002d0: 2cb4 103e 242c 083e 56b9 d9bd 8d64 9f3d
000002e0: 2fb8 2f3c bca9 f5bc 1078 f73d 28f8 0d3e
000002f0: de8f 11be babe e8bd eb01 473e ddbd 563d
00000300: 9dc3 ab3d 9e88 b3bc 6590 d2bd 5d50 223e
00000310: c938 2cbe 2f2c 9a3d 4f91 4bbd 6466 a93d
00000320: edc7 05bd 565e cf3d 8499 69bd 0025 ccbd
00000330: a64d 02be e32d d33d d669 4abd 5c7d 46bc
00000340: 4c39 df3d c06f bb3d a0aa c9bd f8ee b1bd
00000350: aa64 b2bd 71a6 48bc 276c 193e a07d d23d
00000360: 8406 a73d 5261 203d 4857 843d 253a 50bc
00000370: 45b2 a83c 6317 fdbd 6c60 923d d595 edbd
00000380: 009a 603d 4dab 833d 39a6 6bbc b761 4b3d
00000390: 2254 f73c c2cd ea3d 8e25 d93d e1b9 383e
000003a0: 2b51 383e 9d1c a7bb 27e0 1ebe a677 0c3c
000003b0: 1a8a 363e b220 5ebd 9343 d8bd 7c09 fa3c
000003c0: b02d 0a3e f294 ff3d dd7e 3c3e 84a3 3ebe
000003d0: 08b4 4e3d 0ac7 f5bc 822a 96bd 31df 073e
000003e0: 07f2 01be c119 41bd d239 b3bd 40a9 10be
000003f0: 2b5b 34be e71a f2bd c091 9abc e4fe 00be
-0.10254797 0.1831121 0.03070403 -0.004982217 0.05404229 0.06715412 -0.10152179 -0.035769653
0.16317827 -0.05330914 0.13494393 -0.040410295 0.06529101 0.14714864 -0.093203634 0.1060768
-0.1451137 0.049796317 0.096622154 -0.18149467 -0.03058178 -0.12600243 0.11372569 0.14671773
-0.14971542 -0.11550389 -0.17879012 -0.019542208 -0.16254698 0.06856247 0.17293264 0.05078355
0.1445455 0.13256285 0.009375232 -0.11871954 0.11394772 0.11740517 -0.068124026 0.18226945
0.13573423 0.030261122 -0.021349197 -0.020082679 0.072856754 0.09307287 0.110037096 0.038197182
0.15244313 -0.080748886 0.12686184 0.08524355 -0.051555388 0.01933436 0.118186496 -0.008030531
0.08891383 -0.09520161 -0.07600374 0.025675874 0.041387573 0.0035782624 -0.18035235 -0.0400218
-0.04795677 -0.009688127 0.18521439 0.064921945 -0.041994154 0.023602799 0.13585861 -0.12918875
0.004593424 0.08574459 -0.17311665 0.045752674 -0.017427303 0.08853984 0.017949965 0.128503
-0.035282034 0.04168565 -0.036483627 0.011364457 0.034059696 0.09696768 0.07094947 0.019551208
-0.025215754 -0.18298748 0.019166462 0.029863827 -0.08100664 -0.12577859 0.117023714 -0.05492445
-0.15171242 0.077955335 0.1079633 0.05216396 0.13573636 -0.04719028 -0.07317237 0.10624617
0.0036147921 -0.086170316 0.110036395 -0.09088746 0.02988741 0.029529413 0.07863346 0.101364024
-0.07315323 -0.10861644 0.1813074 0.14303824 0.06338857 0.033975206 -0.086134255 -0.13212515
0.04226191 -0.050902497 0.13570012 -0.06007118 0.1806491 0.11627237 0.13466892 0.017664451
-0.14455009 0.08037979 -0.14850517 0.14678238 -0.116126284 -0.1726269 0.17354687 -0.06951709
-0.011018064 0.18815458 -0.22193404 0.058632813 0.005548859 -0.010313315 0.18887845 -0.026821168
0.14673845 -0.18337321 -0.096905924 -0.068052374 -0.0648922 0.043418948 -0.012170538 -0.2154118
-0.18766858 -0.0016160066 -0.13098034 -0.123038195 -0.04413828 0.07577683 -0.11737881 0.038348477
0.06982765 -0.12050857 -0.13939077 0.023282861 -0.03130942 -0.114390954 0.012033607 0.06845224
-0.0063339504 -0.11077003 -0.054381285 -0.10454008 -0.027639233 0.022608617 -0.17096455 -0.19016968
0.067877546 -0.019694477 -0.074125715 -0.08063886 0.1413123 0.13298088 -0.10631053 0.077828504
0.010725065 -0.029988162 0.12083447 0.13864195 -0.14215037 -0.11364503 0.19434325 0.05242716
0.0838692 -0.02191573 -0.10281447 0.15850969 -0.16818537 0.075279586 -0.049699124 0.082714826
-0.032661367 0.10125415 -0.05703117 -0.09967995 -0.12724933 0.103114866 -0.04941734 -0.012114849
0.108996004 0.09152174 -0.09846997 -0.08688158 -0.087106064 -0.012246714 0.14982663 0.10277867
0.0815554 0.039155312 0.0646196 -0.012709175 0.020592818 -0.12357976 0.07147297 -0.11600844
0.054834366 0.064291574 -0.014382892 0.049653735 0.030191485 0.114650264 0.10602866 0.18039657
0.17999713 -0.0050998465 -0.15515195 0.008573448 0.17826119 -0.0542304 -0.10559764 0.0305221
0.13493991 0.12479581 0.1840777 -0.18617064 0.05046466 -0.030002136 -0.073323265 0.13268735
-0.12689982 -0.0471437 -0.08751263 -0.14127064 -0.17612903 -0.118215375 -0.018868327 -0.12597233

lstm.weight_hh_l1 f4 [128, 32]
00000000: 0ce9 0f3c df0f 9dbd f5f9 d93d 6189 663d
00000010: a016 033e 7b73 433d 2f10 2b3e 8c51 c03d
00000020: 93aa a7bd eb3c a1bd 197b 973d 66fc 863d
00000030: 91e9 7d3d 55e7 35be db7b a83d 3c66 b93a
00000040: 2f02 fabd 3edd e43d c162 8a3d 6e5f a43d
00000050: f4e7 ccbd b8a4 203d 7a49 0d3e 19b8 903d
00000060: effc d7bd ea7f a4bd db02 b13d 098a febd
00000070: f0c1 f63d 0777 41be e490 f4bd b053 633d
00000080: d283 323b b547 bdbc 789a 053d 9bc6 b33d
00000090: 63cc 823d 1907 fabd 9219 25be 4316 b53c
000000a0: 4fdb 26be 3a40 e13d fee3 32be 14b4 15be
000000b0: 80b6 1ebd b73c ee3d 936a 293e 2c3c 043e
000000c0: 897e d63d 7c8d 18bd 8f68 333e f9b0 133e
000000d0: 51ee 2c3d 10fe 17be 0b19 16be ed8f b13c
000000e0: 5cfe a6bd 8130 743c 283e 9cbd 788d e7bd
000000f0: 7e6d bd3d 217b acbc 30ee dd3a 42af 2abd
00000100: f1e0 d0bc ac34 07bd e917 1dbe 024d 0bbd
00000110: 84a8 1f3e 5df4 ed3b 1f43 cabd 5d2b 0fbe
00000120: 4a35 1bbd ce91 24be f9b5 30bd ff39 85bd
00000130: 9d5b 28be b4fe 033e efea d6bd 6ca7 8f3d
00000140: 7e4b 243e 23b5 043e a1c6 583d c62f b3bd
00000150: 6cc6 83bd daec ff3d 96c1 27be b120 35bd
00000160: 5aa2 213e 64aa a4bd bbca 16be 6fd0 6dbd
00000170: 09c0 343e 9a4e a1bd f1a5 963d c8a4 5bbd
00000180: 0557 ccbd 9c3c 58bc 2a40 c5bb 1501 11be
00000190: 2ae3 593d 661e 16be 7b2a 5fbd 99aa e7bc
000001a0: 439e be3d 6ad2 19be ee69 3dbe 0cfa babd
000001b0: 697f fa3d 907d fa3d 0db0 e6bd 53b6 e53d
000001c0: 9ddb 0c3e 8c04 af3d 4080 503d 9f09 443d
000001d0: 601c f9bb 1a04 2c3d 80a1 853d 9ed7 6e3d
000001e0: e898 083e 2193 113e 7dea 673d 36d9 ed3d
000001f0: 0f9c d53d 9af5 39bd 21de ba3c d87e 1bbd
00000200: 5361 01be 315c 0bbd efe4 883d 1409 a1bd
00000210: f09f 50bd 6524 3a3d 59ec 253e 8932 ec3d
00000220: 2ebc 02be bb37 5ebc bef3 19bd 220d e13b
00000230: b88b 32bc 0d54 153e 1379 d03d e75d bcbd
00000240: 073b 15bc 4704 eb3c 5649 01be 44e6 a6bd
00000250: a277 283e 4d8c cf3c aa89 f0bd e62b 06be
00000260: 373b 04be 16f1 083e 0bab 213e 62a1 fe3d
00000270: 5443 283e c1f7 81bd 5f34 c93d 2c23 c63d
00000280: c854 cb3d 9eca 67bb 5f9f 1fbd e543 283d
00000290: 794f a8bc 7779 49bc 2e93 2d3d 171a 59bc
000002a0: 7b86 273e 91be 273d 8a7a 38be f1f4 b83d
000002b0: 1292 e33d 1730 b2bd 1112 a6bd 10c1 20be
000002c0: b1d6 15bd 83a7 f43d f165 b03d 169e 76bd
000002d0: a49c ca3d 8f48 02be c8f2 bbbd 9c51 63bd
000002e0: 6c53 c03d 0488 09be 338b d1bd c355 6c3d
000002f0: 7592 11be 361d 023e 9477 163d 8f2d f33c
00000300: f706 7e3d bb4a 903b 8842 e73c 3b15 7ebd
00000310: 898b edbc c972 88bd 0b30 2e3e 6939 003e
00000320: 2d4b 1abe 5cfe a83c 2164 533d f251 1fbd
00000330: 151a 31bd df22 003e d2bf 7abd 2387 fa3a
00000340: 8f27 023e 2f5d aabc 74a0 8d3d b8e6 273e
00000350: c5b0 2dbd 1d08 3d3d 35a6 ebbd 8172 e83c
00000360: f9b5 82bd 908e 8e3c 2ec4 1a3e cbc7 eb3d
00000370: 61aa 1a3d c2f5 a4bd b72b fcbd fc43 fd3d
00000380: 29eb bbbd c20d b5bd e468 473d a88b 15be
00000390: 0d79 cfbd 0e1a 0e3e d099 103d 7b2b 343d
000003a0: e0ff 243e ba14 1c3e b85d 2ebe 9098 07bc
000003b0: 4769 9ebd e03e 223d bb52 b2bd 1c29 c03d
000003c0: 596b 973d 2ebe ac3d 44f9 4b3d 799a 9d3d
000003d0: 3a47 ca3d 1c0c 2a3e 5181 223e 98e5 ddbd
000003e0: b440 cb3d 78dd 20bc d65b b8bd ef86 d2bd
000003f0: 83ea fd3d 8803 3dbe b9b7 f13d 226d 393d
0.00878359 -0.07669043 0.10643379 0.05628336 0.128016 0.047717553 0.16705392 0.09390554
-0.08186831 -0.07872947 0.07396526 0.0659111 0.061990324 -0.17764027 0.082267486 0.0014144848
-0.12207448 0.11175011 0.06757117 0.08026014 -0.10005179 0.039219588 0.1379756 0.07066364
-0.1054629 -0.0803221 0.08643123 -0.12428672 0.120487094 -0.18893062 -0.11941698 0.055499732
0.0027239216 -0.023105482 0.032618016 0.08778115 0.0638664 -0.12208385 -0.16123036 0.022105342
-0.16294597 0.10998578 -0.17469785 -0.14619476 -0.038748264 0.11632674 0.16544561 0.12913579
0.104733534 -0.037244305 0.17520355 0.14422978 0.042219464 -0.14843011 -0.1465799 0.021675074
-0.08153984 0.014904142 -0.07629043 -0.1130628 0.092493996 -0.021054806 0.0016931947 -0.041671045
-0.025497885 -0.033009216 -0.15341152 -0.034008987 0.15591627 0.0072617964 -0.098760836 -0.13981386
-0.037892617 -0.16071245 -0.043142293 -0.065052025 -0.16441198 0.1289013 -0.10494029 0.07014355
0.16044423 0.12959723 0.052923802 -0.087493464 -0.0643433 0.12496348 -0.16382441 -0.04422063
0.15784588 -0.08040312 -0.14725773 -0.058060106 0.1765138 -0.0787632 0.073558696 -0.053623945
-0.09977535 -0.013198044 -0.006019612 -0.14160569 0.053195156 -0.14660034 -0.054483872 -0.02827959
0.0930753 -0.15021673 -0.1849744 -0.09129724 0.12231333 0.122309804 -0.11264048 0.11216416
0.13755651 0.08545789 0.05090356 0.047860738 -0.0076022595 0.0419961 0.06524944 0.058311097
0.13339579 0.14216281 0.05662011 0.11613695 0.104301564 -0.04540024 0.022810997 -0.037962765
-0.12634782 -0.034023467 0.066842906 -0.0786306 -0.05093378 0.045444865 0.1620344 0.11533076
-0.12767097 -0.013563092 -0.037585966 0.0068680206 -0.010897569 0.14582844 0.10179343 -0.09197598
-0.0091083115 0.028688563 -0.12625632 -0.081493884 0.16451886 0.025335455 -0.11745007 -0.13102683
-0.12913214 0.13373217 0.15787904 0.12433125 0.16431934 -0.063460834 0.09824442 0.09674677
0.0992828 -0.0035368572 -0.038970347 0.041080374 -0.020545708 -0.012297026 0.04237669 -0.013250849
0.16359894 0.040953223 -0.18015495 0.09031094 0.11111845 -0.08700579 -0.08108915 -0.15698647
-0.0365817 0.11946013 0.08613194 -0.060209356 0.09893158 -0.12722991 -0.09177166 -0.05549775
0.093909115 -0.13430792 -0.10231628 0.057698976 -0.14216025 0.12706456 0.036735132 0.02968481
0.06201836 0.00440344 0.028229967 -0.062031966 -0.0289972 -0.066625185 0.17010514 0.125219
-0.1506774 0.0206291 0.051609162 -0.03889651 -0.043237764 0.12513302 -0.06121809 0.001911376
0.12710403 -0.020796387 0.0691537 0.16396606 -0.04240491 0.046150316 -0.11506311 0.028374912
-0.06382365 0.017401963 0.15113899 0.11512717 0.037760142 -0.08054687 -0.123130254 0.123664826
-0.091757126 -0.08840515 0.048684016 -0.14604056 -0.101305105 0.13877127 0.035302937 0.04398678
0.16113234 0.15242282 -0.17027938 -0.00827612 -0.07734924 0.039610744 -0.08707186 0.09382841
0.07393522 0.084347114 0.049798265 0.07695479 0.09876867 0.16606182 0.15869643 -0.10834807
0.099244505 -0.009818427 -0.09001891 -0.10279643 0.12398245 -0.18458378 0.118026204 0.045270093

lstm.bias_ih_l1 f4 [128]
00000000: 8a3f 7d3d 225f 213d 2c71 05be 82a2 79bb
00000010: f3ba 3fbd 9c8c fdbd 99bf 21be 283e ba3d
00000020: 5396 2abe e2b4 23be 6966 053e beaf a2bc
00000030: a9f3 4a3d c7ba aabd 94af 05bd d567 17bd
00000040: ab6b 0c3e bada 34bd 4722 263c 933a 04be
00000050: e25d bebd 41ba 733d 30b2 133a bda3 753c
00000060: 565a 22bd edb7 b9bc 0fae d9bd b5b1 013e
00000070: 2b57 0dbe a891 ccbc 06e9 843c 5353 9bbd
00000080: 1110 913d eafc 83bd 4669 363d 1231 803c
00000090: a7d5 dbbd 8765 33be 5ee5 22be da2a 743d
000000a0: fbd1 afbd 788e f53c f642 ec3d dc0f 00bd
000000b0: 2bea 8ebd ff97 473c 2cf3 6abd 2c0a b4bd
000000c0: 395a ca3d 6b00 063e 99fd c73c 5694 723d
000000d0: 9048 c23d 7390 32be bb69 2abe dda4 9b3c
000000e0: 6eb3 fb3d 989e e63d ccdd 0e3d 1c69 6d3d
000000f0: d963 2f3d 6bd2 8e3d 9f39 fc3d 6617 39be
00000100: b1c5 b2bd dc3c debd dfb8 e1bd e905 003e
00000110: 135e 20be 49f0 333e 4a33 3c3a 185f a93d
00000120: eeaa bb3d 1229 213e 8c99 cd3d 82eb 14be
00000130: 5ab2 72bc a36f a53c 3334 fe3d 8614 cf3d
00000140: 6e1a 0c3c d706 c8bd c402 02bd 3651 2fbe
00000150: 1de7 ff3d 943b fb3d b99c b33d df56 ddbd
00000160: 5859 243c 4066 0f3b a3d7 063e a0ca 253d
00000170: 2e3a 26be 1f19 fa3c 341a d73d b33c d03d
00000180: 7e89 6d3c 0520 d5bd 453d f93d 99ad e7bd
00000190: 1847 79bd a677 03be aeac 1c3e bbac 643d
000001a0: 40df a3bd 80fc 61bd 6a36 a5bd 80df 94bd
000001b0: 511a 80bd 709d ebbd 0804 35be f0c6 a0bb
000001c0: c1f5 8dbd ea2d b23d 6b67 e43c a572 373e
000001d0: 1284 263e 5019 a3bc 9ae0 1f3e 7b36 253e
000001e0: c9f8 1cbe b6df 173b 2ca2 1dbe 2dde 0d3e
000001f0: 3cfa eebc 5f77 22be f802 1d3e d06c debd
0.061828174 0.039397366 -0.13031453 -0.0038091247 -0.046809148 -0.12380335 -0.15795745 0.090938866
-0.16658907 -0.1598697 0.13027348 -0.019859191 0.04954878 -0.08336406 -0.032638147 -0.036964256
0.13712947 -0.044153906 0.010140008 -0.1291297 -0.092952505 0.059503797 0.0005634157 0.0149926515
-0.039636932 -0.02267071 -0.10628902 0.12665446 -0.13802783 -0.024971798 0.016224395 -0.07584252
0.070831425 -0.06444724 0.04453399 0.015648399 -0.1073411 -0.17519198 -0.15907809 0.05961118
-0.085849725 0.029975161 0.11536209 -0.031265125 -0.06978258 0.012182235 -0.057360813 -0.08791003
0.0988049 0.13086097 0.024412917 0.059223495 0.094864964 -0.17437916 -0.16641895 0.018999511
0.12290083 0.11260718 0.03487949 0.05796157 0.04281983 0.06973728 0.12315678 -0.18075332
-0.08729113 -0.10851452 -0.110215895 0.12502255 -0.15660886 0.1757213 0.00071792735 0.08270091
0.091634616 0.15738323 0.10039052 -0.14542964 -0.01481303 0.020194834 0.124123 0.101113364
0.008551223 -0.097669296 -0.03174092 -0.17120823 0.12495253 0.12267223 0.08770127 -0.10807585
0.010031067 0.0021881014 0.13168196 0.04047644 -0.16233131 0.030529557 0.10503045 0.101678275
0.014498113 -0.10406498 0.12169889 -0.11312408 -0.060858816 -0.12838611 0.15300247 0.05582879
-0.08001566 -0.055172443 -0.08067019 -0.07269192 -0.062550195 -0.11504638 -0.17677319 -0.0049065277
-0.069316395 0.08700164 0.027881345 0.17914827 0.16261318 -0.01990953 0.15613022 0.16134064
-0.15329279 0.0023174114 -0.15393895 0.13854285 -0.029172055 -0.15865849 0.15333164 -0.10860598

lstm.bias_hh_l1 f4 [128]
00000000: 30f3 c9bb 4d54 13be 6b7d fd3d 698d 963d
00000010: 06f8 d3bd 1e09 fd3d f1d4 25be ace0 863d
00000020: 227e 0f3e 39a9 19bd f2f9 10be bcfe 37ba
00000030: 89bd e0bd ab6d fa3d 7f5a 08be a797 b33d
00000040: ae35 cf3d c47d cf3d c0bc a13d 043e 213e
00000050: 840c e3bd e18e 263d dda5 b2bd d40d ca3c
00000060: f421 18be 0c8a 25be 4294 ff3d 6b49 e93d
00000070: 6425 c13d 05c3 393e f069 dcbd 286f 183e
00000080: d7b1 29be fc30 aebd d62c bcbd 18d0 cc3d
00000090: c9db 2c3d 9922 20be ef84 ccbc f245 073d
000000a0: cba6 3a3d 1238 1ebd 7b82 0a3e ed49 103e
000000b0: 7027 24be 1da7 b4bd 87c0 32bc 7544 42be
000000c0: 9fc4 b73c e7cf 093e 0f29 af3d 5eed 093e
000000d0: 5bc8 17be 4121 f9bb 2bd1 173e 12ba f03c
000000e0: dd0e ca3c 0ec2 07be fc61 383d bd65 243e
000000f0: 8dfc b03d 033a d7bb 5091 d93d 1314 5bbc
00000100: 4836 ec3c 5fa1 d73c 19e8 93bd dcb3 143d
00000110: d824 073d a290 353d 86d5 46bd 1bdb b0bd
00000120: 417c 8abd 0b7c 16be 5b17 0bbe 9105 273d
00000130: 071b a93d d1fd febd 74c1 4b3c 1844 293e
00000140: 3cdb 073e 22f2 413d 0235 00be eaba 4c3d
00000150: 43ce 73bd 565e 68bd 110c 8f3d 0f18 e3bd
00000160: 5c3e 1abd ee29 f83d a5fc 2bbe 3f76 1fbe
00000170: 03da 50bd eed1 7cbd 1cbc a13d f961 19be
00000180: cb1e 6dbd c290 13bd beab e1bd bf35 313d
00000190: f0aa 02bd 3697 c73d b1fc 5cbc 0ef5 f63c
000001a0: c828 ac3d 12ec 37be 393f c33d 93c1 18be
000001b0: 6337 bf3d 76c2 37bd 38f8 e2bd 89da 05be
000001c0: 6ca6 cbbd 6095 18be ed7d 8abd 6306 f6bd
000001d0: 6d35 07be 7ca8 05bd f415 a3bd 9da1 373d
000001e0: b99f 303e 7955 99bd 7d65 20bd a3ea b53d
000001f0: cb59 04be 04b6 ca3d efa5 293d 7e2a 1fbc
-0.0061630234 -0.14387627 0.12377437 0.073511906 -0.10350041 0.123552546 -0.16194512 0.065858215
0.1401296 -0.0375149 -0.14157847 -0.00070188544 -0.10973651 0.12227949 -0.13315772 0.0876916
0.101176605 0.1013141 0.07897329 0.15746313 -0.110863715 0.040663604 -0.08723042 0.024664797
-0.14856702 -0.16165942 0.1247945 0.113909565 0.0943096 0.181408 -0.107623935 0.14886153
-0.16571747 -0.08505437 -0.09188239 0.10000628 0.04220179 -0.15638198 -0.024965731 0.03302569
0.045569222 -0.03862769 0.13526337 0.140907 -0.16030669 -0.08820937 -0.01091016 -0.18971427
0.022432623 0.13458215 0.08552753 0.13469455 -0.14822523 -0.007602841 0.14825885 0.0293856
0.02466529 -0.1325762 0.04501532 0.16054435 0.0864192 -0.006568195 0.10623419 -0.013371485
0.028834477 0.026322065 -0.072220035 0.03630434 0.03299412 0.044327386 -0.048543476 -0.08635541
-0.06761981 -0.14695756 -0.13583128 0.040776793 0.08257108 -0.124507554 0.01243626 0.16529882
0.13267225 0.047350056 -0.12520221 0.049982943 -0.05952288 -0.05673059 0.06984723 -0.11088573
-0.037657127 0.121173725 -0.16795595 -0.15572451 -0.050989162 -0.061723642 0.07897207 -0.1497878
-0.057890695 -0.036026724 -0.11019085 0.043264147 -0.0319013 0.09745638 -0.013487981 0.030146148
0.08406216 -0.17961147 0.09533543 -0.14917593 0.09336736 -0.044863187 -0.110825 -0.13071646
-0.09943852 -0.14900732 -0.067623 -0.12012937 -0.13203974 -0.032631382 -0.079631716 0.04483186
0.1724843 -0.07487006 -0.039159287 0.08882644 -0.12924878 0.09897998 0.041418012 -0.009714721

fc.weight f4 [4, 32]
00000000: efee d03d d24a bc3a 6867 183e 3105 d6bd
00000010: c80e 11be 8635 05be bcd2 153e e2fd 183e
00000020: 5f8e 9ebd d9f3 7b3d f4cf fe3d b32e 5ebd
00000030: dc22 ccbd b00f e43d ab42 d13d c2af 03be
00000040: b3ae 1dbe d7df c4bd 0a25 11be 864b c5bc
00000050: 0f92 263e 73fa 03be 87b5 18be f9c0 f2bc
00000060: f619 7e3b 0d2d 86bd b797 d43d 862f 273e
00000070: cffc 04bd 2bbf 133e fc7d 3fbd f804 773b
00000080: b9a9 7fbd 0463 29bd 4878 c33d 8cb7 ff3d
00000090: c228 273d a046 4d3c 7505 093e e6f0 14bd
000000a0: 4f82 203e 954e 90bd 5750 60bd 91b7 c23d
000000b0: f23f 0abe f202 913d 12b7 7a3c 6d3c 953d
000000c0: ab86 ed3c 5822 c3bd 0a0e b4bd 7066 c03d
000000d0: 9816 c43d 169f 27be 39d7 163e 97e2 12be
000000e0: 79e3 203e ea09 15be 2307 033e ae02 e837
000000f0: 5b20 c13d ffe9 31bd b466 e9bc abb2 08bc
00000100: d1c4 22be 348d 0c3a de5d 91bd cccf 4e3d
00000110: 4f65 6bbc 3743 453e 5533 3d39 79f2 0bbe
00000120: 37fd 593d bfa8 e7bc 58ba 203d 9f18 023e
00000130: 63f1 16bd 4b70 c9bd c07a 6d3d 28bc 27bd
00000140: 9988 213e 4a13 073e 9f2c 5ebd 1912 163d
00000150: cdd5 38be b5ea b4bd 2126 f83d 7326 88bd
00000160: cdcb 8abd 32b0 a33d 7bd6 bcbd 96e0 883d
00000170: 9abe 0d3e 534a 273e 06ad b13d 53bb 153e
00000180: f41e 01be 2052 ef3d d019 a23d ec45 c23c
00000190: b6dd 693d 6b89 9d3d 4bc6 193d db51 bc3d
000001a0: 17ec abbd 9e69 14be 687f 323e aeec c43c
000001b0: b0a4 1d3e 691b 043d 8a8d b2bb 4c88 d4bd
000001c0: cb69 0e3e 08b6 ab3d cd1b 21be 0cb5 0ebe
000001d0: 00bb 1dbe 1a06 4bbd 1ed7 c03c c35a 4c3d
000001e0: f70f cabd 86df 4fbd 5db7 0c3e f35a fb3d
000001f0: 8811 d23d 8ecc 123c f5e4 a13c 0619 20be
0.10201823 0.001436556 0.14883196 -0.10450209 -0.14165795 -0.13008699 0.1463117 0.14940599
-0.07741999 0.061511848 0.12442008 -0.054243755 -0.099675864 0.11135805 0.10217794 -0.12860015
-0.15398674 -0.096130066 -0.14174286 -0.024083864 0.16266654 -0.12888508 -0.14912997 -0.029633032
0.0038772798 -0.065515615 0.103805 0.16326723 -0.03246766 0.14428394 -0.046751007 0.003769217
-0.06241772 -0.041354194 0.09544426 0.12486181 0.040810354 0.012529045 0.13380988 -0.03636255
0.15674709 -0.07046238 -0.054764118 0.09507669 -0.13500956 0.0708064 0.015302436 0.07286916
0.028994879 -0.09528035 -0.0879174 0.093945384 0.09574622 -0.1636928 0.14730538 -0.1434425
0.15711774 -0.14554563 0.12795691 2.7657803e-05 0.094299994 -0.043436047 -0.028491355 -0.008343379
-0.15895392 0.0005361617 -0.07097982 0.05049114 -0.014367416 0.19263922 0.00018043567 -0.13666715
0.05322 -0.028278707 0.03924021 0.12704705 -0.036851298 -0.09835871 0.05797839 -0.040950924
0.15774764 0.13190952 -0.054241773 0.036638353 -0.18050309 -0.08833829 0.121166475 -0.066479586
-0.06777153 0.07992591 -0.092205964 0.06683461 0.1384224 0.16336946 0.0867558 0.1462224
-0.12609464 0.11685586 0.079150796 0.023714982 0.057096206 0.07692226 0.037542623 0.091953
-0.0839464 -0.14493415 0.17431414 0.024038639 0.15394855 0.032252703 -0.0054490017 -0.10377559
0.13907544 0.08384329 -0.15733261 -0.13936251 -0.15403366 -0.049566366 0.023540076 0.049891245
-0.09866326 -0.050750278 0.13741823 0.122732066 0.1025725 0.008959902 0.019762496 -0.15634546

fc.bias f4 [4]
00000000: 6927 b2bc 63a4 1c3e 6c46 f8bd e85b 62bd
-0.021747308 0.15297084 -0.12122807 -0.05526343
