Competition/TrainAI/model/c30/model_weights_1.pth (torch, 239847 bytes, 10 tensors)

lstm.weight_ih_l0 f4 [256, 34]
000000 78 83 2a 3e 90 2d 58 3e 61 b2 25 be e1 c1 bc 3d
       0.16651714 0.2111113 -0.16181327 0.09216667
000010 d2 f0 10 be 31 49 4c bd 2d d2 4d 3b 23 97 96 3d
       -0.14154366 -0.04987449 0.0031405792 0.07353046
000020 27 7a 65 be 20 6a cb 3d 8e a8 12 3e 59 e9 16 3e
       -0.22409879 0.09932351 0.14322111 0.14737453
000030 4f 68 b4 3d 91 15 4d 3e 30 29 0b bd ad 51 67 3d
       0.08808958 0.20027758 -0.033974826 0.056474376
000040 7a c2 96 3b 86 89 a4 bd 4a 88 63 bd 17 f1 f3 bb
       0.00460082 -0.08034043 -0.055549897 -0.0074445116
000050 d7 f0 8e bd 20 8e 05 bb e1 b1 49 3d 64 b2 59 bc
       -0.0697953 -0.0020378903 0.049241904 -0.013287161
000060 15 ee ca 3d c5 6f 1f bd 76 29 dd 3c e8 a6 2b bc
       0.09908692 -0.03892495 0.02699731 -0.010476805
000070 bf a1 33 bd 94 17 eb bc a1 2f 65 3d 12 46 82 bd
       -0.043855425 -0.028697766 0.055953626 -0.06361021
000080 00 0a 3b 3d 74 bf d6 3d c7 43 5b 3c 00 9e 68 bd
       0.045663834 0.104857355 0.013382859 -0.056791306
000090 74 58 fc bc bb 8e 44 bd 02 57 0a 3e 0f 34 a2 3d
       -0.030803896 -0.04798768 0.13509753 0.07920086
0000a0 07 36 95 3d 70 d4 fa 3d c7 c2 30 3e b6 cd 7e 3d
       0.072856955 0.122475505 0.17261802 0.0622079
0000b0 ff 95 ed 3c d6 1d 36 3d 25 73 38 3d 95 04 17 3e
       0.029002188 0.044462048 0.045031685 0.14747842
0000c0 cc f3 d3 3d 4d de 97 3b ac e4 01 3d 36 22 4d bd
       0.10349235 0.0046346546 0.03171222 -0.050081454
0000d0 a3 c3 0d 3e df 28 a9 3d 25 8f 2e 3e 12 43 86 bd
       0.1384416 0.08259749 0.17046793 -0.065557614
0000e0 71 a9 3d 3e b0 81 86 bd 78 c8 75 bd 7b f8 aa bd
       0.18521668 -0.06567705 -0.060005635 -0.08348175
0000f0 01 aa a2 bd 0f 1e b7 3d ac 09 5c 3d 7a 86 73 bd
       -0.07942582 0.0894128 0.05372016 -0.05945442
000100 56 4d 29 3b a6 06 b6 bd e9 50 a6 3d 28 a2 35 bd
       0.002583345 -0.08887987 0.08120901 -0.044344097
000110 c2 d0 aa 3d 1b 6b 24 3e 02 6a b0 3c 44 9b b4 3d
       0.08340599 0.16056482 0.021534923 0.08818677
000120 5c 3f e8 3d f8 fe 3a 3e 57 5b 84 3d 55 9b 8d 3d
       0.1134021 0.18261325 0.06462734 0.06914393
000130 14 c7 1e bc 6f 8a 9a 3d 99 e2 6a 3d d1 66 6a 3b
       -0.009691019 0.07545935 0.057345007 0.003576685
000140 61 8d 86 3d 24 b4 b7 3e 2f 0d 33 3e 31 95 be bc
       0.06569935 0.35879624 0.17485498 -0.0232645
000150 c1 ab 63 3e 54 1c 5c 3d 08 52 9f 3d f7 73 25 be
       0.22233488 0.053737953 0.07779318 -0.16157518
000160 ff 48 71 bc 7d 5e ac bc 0b 88 15 3e 9b 1b da 3c
       -0.014726876 -0.02104115 0.14602678 0.026624491
000170 39 f8 bd 3d f9 4e 36 bd e6 fd 4c bd 35 46 ae 3d
       0.0927586 -0.044508908 -0.050046824 0.08509485
000180 c7 4e 46 3e f3 aa ad 3c ed 92 79 3d c8 ef 8b 3d
       0.19365989 0.021199679 0.060931135 0.06832844
000190 48 01 16 bd 14 89 a6 bd 67 e8 1a 3e 28 e7 e8 bd
       -0.036622316 -0.08131614 0.15127717 -0.113722146
0001a0 ee 72 9a bd 69 84 f5 bd 9c 9d 5a bd a3 22 6a 3d
       -0.07541452 -0.11988146 -0.053372964 0.05716194
0001b0 b2 17 6e bd ee 0b 85 bd c0 7f a6 bd 1e de 7b 3d
       -0.058128066 -0.06496416 -0.08129835 0.061491124
0001c0 9a c3 a9 3d 40 26 33 3e 7b f2 e3 bc 7a de 98 3c
       0.08289261 0.1749506 -0.027825585 0.018660773
0001d0 54 20 64 bb 3a da 0f be 9a 25 80 3d 41 61 d6 bc
       -0.0034809308 -0.1404809 0.06257172 -0.026169421
0001e0 51 12 e5 3d 6a ac 38 bd 90 45 3a 3d 64 fd 34 bc
       0.11185134 -0.045086302 0.045476496 -0.011046741
0001f0 f9 d4 17 bc 05 17 57 3d ed 41 63 bc 9c f6 bf 3d
       -0.009267085 0.052512188 -0.013870698 0.09373209
000200 9f fa e8 bd e4 fc 8e 3d c8 ce 00 3e 08 38 e4 3d
       -0.11375927 0.06981829 0.12578881 0.111434996
000210 1d 7b 94 3d 18 6a e8 3c e4 cb 50 bd a8 8d eb 3c
       0.072500445 0.028370902 -0.050975695 0.02875407
000220 b1 73 d9 3a 91 21 85 be 1a 74 85 bb 91 ed 16 3e
       0.0016590265 -0.26002172 -0.0040726783 0.14739062
000230 c1 f0 cb be 6d 51 ee be 03 08 4c 3e 97 17 66 be
       -0.39832118 -0.46546498 0.19924931 -0.22469936
000240 75 71 f8 be a6 1d 85 be 11 de 87 be 83 42 dc bd
       -0.4852406 -0.25999182 -0.2653661 -0.107548736
000250 cb 7f 65 bd 3b c8 ac 3d b8 19 7e 3d c2 27 36 3e
       -0.056030076 0.084366284 0.062036246 0.17788604
000260 cd 83 2b bf 80 79 d9 3d 30 67 0d bf f4 fb 14 be
       -0.6699799 0.106188774 -0.55235577 -0.14549237
000270 3c fe cb 3b e8 f9 79 3c de 91 ca 3d 94 61 ba bd
       0.0062253755 0.015257336 0.09891103 -0.09100643
000280 2e 1b 3c 3b 6e e9 c0 bd 3d 51 bf 3d 1c 04 81 3d
       0.0028702724 -0.09419523 0.09341667 0.06299612
000290 93 14 8d be 32 ea 80 3e dc de 66 be 4b c6 8c 3d
       -0.2755476 0.25178677 -0.22545952 0.06873759
0002a0 75 6c 2c 3d cf eb 6f 3d 5a cb 5d 3c e5 2f 19 bc
       0.04209562 0.058574494 0.013537252 -0.009349798
0002b0 28 a3 d9 bd 22 d2 60 3d 22 6a 95 3d 01 f8 5d 3e
       -0.10626823 0.0548879 0.07295634 0.21676637
0002c0 2f fb 26 3e cd f6 fd bb 8e c1 ab 3d df 5a a2 3d
       0.16306756 -0.007750368 0.08386527 0.079274885
0002d0 c4 02 c6 3d 8e 78 7d 3d d7 86 15 3d fe b2 84 bd
       0.09668496 0.061882548 0.036505546 -0.064794526
0002e0 c3 48 ab bd 38 f1 fc bc 2d 7e 52 bb c6 35 0e be
       -0.083634876 -0.03087674 -0.0032118664 -0.138877
0002f0 c8 93 d1 3d cf 0e 07 3e 33 63 15 be 6f a0 0d be
       0.10233265 0.13189243 -0.14588623 -0.13830732
000300 92 92 06 3e bd 78 55 bd 3e e4 fc bd 19 6f 45 3d
       0.1314185 -0.052117098 -0.12348221 0.048201654
000310 7f 58 11 bd 68 e5 74 bd bd fd bb 3d 83 ac 3f be
       -0.035484787 -0.05978909 0.09179256 -0.18718152
000320 30 58 71 3d 61 51 b7 bc 20 93 72 bd 18 78 e7 3d
       0.058921993 -0.022377672 -0.05922234 0.11302203
000330 85 cd 6a 3d ee 5e ef 3c 10 7a 1a 3d 00 10 11 be
       0.057324905 0.02922007 0.037714064 -0.1416626
000340 5f 09 b5 bd 14 9c 0f bd 81 5c e8 3c 18 ff fb 3c
       -0.08839678 -0.035060957 0.028364422 0.030761287
000350 16 d7 38 3d ae 62 1e 3d 11 09 8b 3d 21 7c 29 3e
       0.045126997 0.038668327 0.06788839 0.16551258
000360 35 02 c5 bd 45 20 d0 bc 1c 7c 9a 3d 58 45 33 be
       -0.096195616 -0.025406012 0.07543203 -0.17506921
000370 37 55 18 bd bb d6 e4 bc bd 0c 3a 3c cc 44 c4 3d
       -0.037190642 -0.027934423 0.011355576 0.095834345
000380 35 65 a3 bd 65 c4 56 3d 82 b8 00 be 87 c4 07 be
       -0.07978288 0.05243339 -0.12570384 -0.13258563
000390 d9 bf eb 3c c9 e0 a6 3d 06 ec a3 3d f5 dd 17 3e
       0.028778004 0.08148343 0.08004002 0.14830764
0003a0 1e 2a dd bd 3c 73 b8 3d 06 1f 0a be c6 a7 e5 3d
       -0.10799049 0.09006354 -0.13488397 0.11213641
0003b0 38 7e bb bd 78 c8 92 bc 14 cc 49 3e d1 71 be bd
       -0.09154934 -0.017917857 0.19706756 -0.092990525
0003c0 50 56 d7 bc 1e ec 8d 3d b2 7a 9d bd df df 4f bd
       -0.026286274 0.069298014 -0.07689418 -0.05075061
0003d0 66 cb 0f 3d 03 97 03 be 01 75 ff bd ff 8e e0 3d
       0.035106085 -0.12850575 -0.124734886 0.10964774
0003e0 2f b8 80 bc 43 c7 a0 3d a5 da 29 bc 26 31 f8 3d
       -0.015712826 0.07850506 -0.01036707 0.12118749
0003f0 b7 14 62 3c c2 e1 68 3c 05 f7 28 3e 71 21 17 be
       0.013798884 0.014213981 0.1650048 -0.1475885

lstm.weight_hh_l0 f4 [256, 64]
000000 97 1a 25 be f0 e5 3e 3d da 23 20 bd 73 e0 64 3e
       -0.16123424 0.046606004 -0.03909669 0.22351246
000010 74 d4 a4 bc 36 57 24 3e e0 41 80 bd 99 00 32 be
       -0.020120837 0.16048893 -0.06262565 -0.1738304
000020 ff a0 3e bd 01 d3 19 3e d6 16 96 bc a8 bb 90 3d
       -0.046540257 0.15021898 -0.018321436 0.070670426
000030 5a 6a de 3d 92 a6 4b bd ed 9b 82 3d 81 ee f2 bd
       0.10860129 -0.0497194 0.06377397 -0.11861897
000040 5e 5b 11 bd b3 1a 2f 3e fe 46 b6 3c a0 b0 d9 bb
       -0.035487525 0.17100029 0.022250649 -0.00664337
000050 f5 d4 d9 bc b9 5a d1 3d 67 30 9d ba b1 6f c1 3d
       -0.026590804 0.10222382 -0.0011992574 0.094451316
000060 8c e5 7d 3d 00 44 03 bb fe 0a 54 3d 4c ba 3e 3c
       0.06198649 -0.0020029545 0.051768295 0.011641096
000070 8d a6 3d 3c 63 ca 02 3e 13 df c2 bd 69 c8 1a be
       0.011575353 0.12772517 -0.09515204 -0.15115513
000080 91 b2 b0 3c 86 59 e6 3d 02 e7 58 be 1b d0 8f 3c
       0.021569522 0.11247544 -0.21181872 0.017555287
000090 75 18 45 bd 97 95 08 3e 02 ae a4 bc 93 95 29 3e
       -0.048119027 0.13338314 -0.020102505 0.16560964
0000a0 ea 43 d9 3c b7 29 99 3c 81 97 3c bd a1 d4 87 bd
       0.026521642 0.018696649 -0.046042923 -0.066323526
0000b0 57 de e6 bb 6f 6c 29 be 48 ab 05 3e 2c fa 7a 3d
       -0.007045548 -0.1654527 0.1305362 0.06127374
0000c0 9e a1 1c be 10 15 c5 3b 94 58 a0 bd d1 ec 20 bd
       -0.15296027 0.0060144737 -0.07829395 -0.039288346
0000d0 1d 70 04 bc 7e 58 2a be d6 1b f8 3c ab 5c aa 3b
       -0.0080833705 -0.1663532 0.03028671 0.005199035
0000e0 4d b2 0f be 60 9d 9b bd be 93 fb 3d dc 8f cf bd
       -0.1403286 -0.07598376 0.12284039 -0.10134861
0000f0 c4 59 01 3d a4 5a 4e 3d 98 f6 23 3e 6a 12 75 bd
       0.031579748 0.05037941 0.16012037 -0.059832014
000100 e7 43 d8 bb 77 4c 70 bc ff 46 81 bd 1a 62 90 3d
       -0.0065998915 -0.014666668 -0.063123696 0.070499614
000110 8b 47 ba bd 7c 6a 82 bd 07 24 86 3d 3d 95 b8 bc
       -0.09095677 -0.063679665 0.065498404 -0.0225321
000120 07 54 8b bc f0 ed a9 bb fb 5d bd 3c 07 af 30 be
       -0.01700784 -0.005185835 0.023116102 -0.17254268
000130 f3 b1 0c bd e3 a4 9b bd 5b 13 8c bd f8 f9 55 bd
       -0.034349393 -0.07599809 -0.06839629 -0.052240342
000140 5c ab b9 bc 6e 32 82 3e f5 68 ad bd d0 a3 48 3d
       -0.022664718 0.254291 -0.084672846 0.04898435
000150 64 c8 31 bc bb 88 14 be 8e c0 b9 bd 8d 26 b4 bd
       -0.0108509995 -0.14505284 -0.0906993 -0.087964155
000160 0d 44 08 be 4c c8 35 bd 34 26 d3 bd 9a 3c 0c bf
       -0.1330721 -0.04438047 -0.10310021 -0.5477997
000170 b5 ce 24 3c 4b 09 50 3d 68 dd 29 3e 9b 39 07 bc
       0.010059048 0.050790112 0.16588366 -0.00825348
000180 4a dc d6 bd 2e eb 84 bd ef f1 e7 3e c0 f9 8a bd
       -0.104912356 -0.064901695 0.45301768 -0.06785917
000190 b8 7f 26 3e 7c c7 c1 3c f2 7d 8a ba 52 c7 53 3d
       0.16259658 0.023654692 -0.0010566099 0.05170376
0001a0 44 c8 05 bf 9e 4f e7 bd b0 b1 2b 3c 23 6f 01 be
       -0.52258706 -0.11294483 0.010479376 -0.12640052
0001b0 af a8 39 bd fb ec ec 3d 7d 94 70 bd 11 f0 8c bd
       -0.045326885 0.11568638 -0.05873536 -0.068817265
0001c0 a4 ea 6d 3c 18 89 fe 3d c2 30 25 be ba 06 05 3e
       0.014521275 0.12428492 -0.16131881 0.12990847
0001d0 b3 c6 b0 bd 6f 4b 1c 3d ba d7 c1 3d 8d b2 b8 bc
       -0.08631649 0.038157877 0.09464975 -0.022546077
0001e0 17 d8 51 bc ba 7c 74 bd 8a 3a 62 3d 84 ca ba 3d
       -0.0128078675 -0.05968926 0.05523161 0.09120658
0001f0 f1 86 b9 bb 76 24 fc bd 59 b4 c8 3c 33 36 81 3d
       -0.005661838 -0.12311642 0.024500059 0.06309166
000200 47 17 fc 3c e3 7d 16 bb d5 48 43 bd 3d 10 e8 3c
       0.030772818 -0.0022963218 -0.04767688 0.028328056
000210 aa fd 04 be cd 75 93 3d 65 99 8d bd 9d 6b 00 3d
       -0.1298739 0.07200203 -0.06914023 0.031352628
000220 f9 aa bf bd aa 31 10 3e 37 90 8c bc 98 c9 ce 3d
       -0.09358782 0.14081445 -0.01715861 0.10097045
000230 38 29 aa 3d 3e bd b3 3d c1 e1 b6 3d 3c 0b d1 3d
       0.08308643 0.087763295 0.08929778 0.10207221
000240 ff de e8 3d 22 25 29 3d 52 29 e1 3d 72 57 88 bc
       0.11370658 0.04129518 0.10994209 -0.01664326
000250 cf ce 5a 3d 59 c3 57 3d 3c 50 3a be 94 a1 90 be
       0.053419884 0.052676532 -0.1819467 -0.28248274
000260 7f 3c 5b 3e e6 4a 1f bd 12 32 eb 3c 5d a2 60 bd
       0.21409796 -0.038889788 0.028710399 -0.05484234
000270 64 39 ae bc c4 4b 38 3e d6 e8 76 be 7d 93 00 bd
       -0.0212676 0.17997652 -0.24112257 -0.031390656
000280 03 50 8e bd bf e9 a7 3d a2 ab 09 be 58 22 88 3d
       -0.06948855 0.081988804 -0.13444379 0.066471756
000290 5c 15 8a 3d c3 3b 24 3d e9 38 9d 3d 3c ad c4 bd
       0.06742355 0.040096056 0.076768704 -0.09603354
0002a0 1b 93 81 3d 2c f8 aa 3d 7b 09 04 be ff eb 69 3d
       0.06326886 0.08348116 -0.12894242 0.05710983
0002b0 c6 d5 27 3d bc 7d 1c be c5 7f c6 3d d1 ff 1e bd
       0.040975355 -0.15282339 0.09692339 -0.038818184
0002c0 10 33 2e bd fe 0b 14 be 90 f6 50 bd 31 25 1b 3e
       -0.042529166 -0.144577 -0.05101639 0.15150906
0002d0 19 77 ec bc b5 2b 6c 3d 9e 0f 69 bc 50 22 a0 bc
       -0.028865384 0.05765887 -0.014224915 -0.019547611
0002e0 42 da 2b be dd ca fe bd 0e 9d d8 bd 75 cc 10 bd
       -0.16782477 -0.12441037 -0.10576831 -0.035351235
0002f0 32 4b 9b 3d be 67 2b 3c dd 28 f6 bd cd 17 4f be
       0.07582702 0.010461746 -0.12019513 -0.20223923
000300 4c ee bf 3d c9 ae 76 3d 08 f6 6a 3d f0 e7 83 bd
       0.093716234 0.060225282 0.05736354 -0.06440723
000310 f7 60 19 bd 9b 67 9b bd 89 dc 5c 3d b9 ff ae 3d
       -0.03744599 -0.075881205 0.053921256 0.08544869
000320 84 b0 a2 3e 4f 19 c6 bc 8d 9b 5e bd b4 71 e2 3d
       0.31775296 -0.02418199 -0.054347564 0.110568434
000330 c3 dd 41 3d f9 a9 df 3d 25 fb 3b be ef d4 37 bd
       0.04733063 0.109210916 -0.18357523 -0.044880804
000340 5c 38 b4 3d 7e f9 3c be 73 c5 a8 3c c9 87 a2 3d
       0.08799812 -0.18454549 0.020601964 0.07936055
000350 ac 3c 81 bd 10 21 10 3e 76 26 f7 3d c3 10 4c 3e
       -0.063104 0.14075112 0.12067883 0.19928269
000360 ee 54 bc 3c 82 11 ea ba 75 5b 08 3e 40 80 13 3d
       0.022989716 -0.0017858001 0.13316138 0.03601098
000370 67 1e b1 3d 36 08 b7 bd de 42 e8 bd b8 3c 53 3a
       0.08648377 -0.08937113 -0.11340879 0.0008058059
000380 9b e6 52 3d 03 fb 62 bd 11 d8 c0 bd 56 92 42 3d
       0.051489454 -0.055415165 -0.094162114 0.047502838
000390 dd 57 09 3e 75 f7 7a bd d3 a6 40 3e f4 22 6c bd
       0.13412423 -0.06127115 0.18813638 -0.05765052
0003a0 e6 9f 5a bd 89 f5 03 be 75 04 45 bd cd b5 b1 bc
       -0.053375147 -0.12886633 -0.048099954 -0.021693135
0003b0 66 ce 66 3d 22 49 27 be d5 f9 e5 3d 39 e0 2f 3e
       0.05634918 -0.16336492 0.11229292 0.17175378
0003c0 aa 7f ec 3d 0c 10 02 be 49 d4 8a 3d f9 aa b8 bd
       0.115477875 -0.12701434 0.067787714 -0.090169854
0003d0 a7 05 af 3d d7 0b 59 3d e8 64 4a be 73 cb 0f 3e
       0.08546 0.052989807 -0.19765055 0.14042453
0003e0 dc c8 0e 3e 56 a0 1c 3e cb 79 96 bb a5 60 ed bd
       0.1394381 0.15295538 -0.0045921556 -0.11590699
0003f0 02 ee 4d be 74 dc c0 bd 3d a5 84 3d 78 8d 15 bd
       -0.20110324 -0.09417048 0.06476829 -0.03651187

lstm.bias_ih_l0 f4 [256]
000000 86 7a 75 bd e6 9d 3d bd c0 6b 10 3c 8a dd 12 3b
       -0.0599313 -0.04629316 0.008814752 0.002240988
000010 90 bc 38 3d dd 60 21 bd 09 a2 e7 3c 02 cb 28 3e
       0.045101702 -0.039399017 0.028275507 0.16483691
000020 76 eb 92 3c 44 09 07 be a1 6e 73 be 92 a5 33 3e
       0.017934542 -0.13187128 -0.2377267 0.17543629
000030 5d d1 4c bd f2 32 a7 3d f7 c9 0f 3d dc 2a 07 3e
       -0.050004352 0.08164014 0.035104718 0.13199943
000040 77 0e 22 bd 64 aa b1 bd 68 6d c9 3d bf 7c 68 3d
       -0.039564576 -0.086750776 0.09835321 0.056759592
000050 4a 7b 2e 3d 0c d9 6e 3e 4f 71 f9 bd 18 c3 3e 3d
       0.042598046 0.23324984 -0.12179815 0.046572775
000060 30 4a b8 bd 8e cd 21 3e c5 96 a8 bc a9 cd 25 bc
       -0.08998525 0.15801069 -0.020579705 -0.010119834
000070 d4 41 a9 3c d0 11 ed 3b f8 b5 47 3c c4 46 86 3d
       0.020661272 0.0072347894 0.012189381 0.06556466
000080 cb 0a 3d be f5 a4 dc bd 3d 6e 7d 3e ee 5f 3f be
       -0.18461148 -0.107736506 0.24749084 -0.18688938
000090 cf e4 b3 bd 5f b0 84 3e 50 aa 0b be 56 90 25 bd
       -0.08783876 0.2591581 -0.13639188 -0.040420853
0000a0 64 a2 39 bd 59 0a 2d be 54 3c 0e 3a ec 88 54 3d
       -0.045320883 -0.16898479 0.00054258597 0.05188839
0000b0 8b 98 8b bd 67 d1 10 3d c8 14 25 be 37 08 5b be
       -0.06816205 0.03535595 -0.16121209 -0.21389852
0000c0 b8 6a 2d 39 ba 52 73 bd 46 02 60 3c 0a 96 40 3b
       0.00016538322 -0.059405066 0.013672417 0.0029386305
0000d0 c8 bd 25 bc 22 b2 02 bd 40 d9 e6 bd 4a be 19 3e
       -0.010116048 -0.031908162 -0.11271906 0.15013996
0000e0 ef 47 78 bd 44 fa c5 3d 62 f3 49 be 1a 13 12 be
       -0.060615476 0.09666875 -0.1972175 -0.14265099
0000f0 13 af de bc f0 1e f2 3c 66 19 0a 3e 0e a5 c1 bd
       -0.027183091 0.029555768 0.13486251 -0.0945531
000100 24 a9 3f 3d 7c 07 84 bc 86 2a 3e 3c e6 cb 39 bd
       0.046792164 -0.01611685 0.011606818 -0.04536047
000110 b4 45 a4 3c 52 e5 d8 bd 20 52 1a be 4a 96 f1 bd
       0.020052768 -0.105906144 -0.1507039 -0.117962435
000120 36 f4 d7 bd da 40 25 bd 23 aa 8b bd ed 74 38 bc
       -0.105446264 -0.04034505 -0.068195604 -0.011258346
000130 9a 18 f6 bd 0f 49 61 bd fc c8 a7 bd 07 3e 56 bc
       -0.12016411 -0.055001315 -0.081926316 -0.013076312
000140 79 c9 af 3a 4a 9d 4f bd 48 13 04 be 6a e9 9c 3d
       0.0013411484 -0.050687112 -0.1289798 0.07661708
000150 ca b4 11 bd b8 40 17 bc 3a 74 84 be 1f 5d 22 3e
       -0.035572805 -0.009231739 -0.25869924 0.15855835
000160 c7 75 47 3b 69 9f aa bd ff 5f fe bc 06 0e 5e 3e
       0.003043519 -0.08331186 -0.031051634 0.21685037
000170 0d bd aa 3d 9d cf a3 bc 3d c4 98 3c 88 8c 58 bd
       0.0833684 -0.019996459 0.018648261 -0.052868396
000180 12 21 b6 bd 35 72 e8 bd 7b 81 a3 be 70 89 61 bd
       -0.088930264 -0.11349908 -0.31934723 -0.05506271
000190 1e b7 84 3c 9b ee 87 bd ed 15 4e bd 31 cb cf bd
       0.016200598 -0.06637307 -0.05031388 -0.101461776
0001a0 c4 57 86 3d c1 3d b9 bd 10 9d 0a bc 54 70 05 be
       0.06559709 -0.09044982 -0.008460298 -0.13031131
0001b0 30 7d 55 bd 01 46 10 be 72 87 33 bd 54 fa 46 bd
       -0.05212134 -0.14089204 -0.043830343 -0.048578575
0001c0 1d 41 9d bb 2d d0 2a be 6e 63 85 3c 9b fb 97 3d
       -0.004799022 -0.16680975 0.016282763 0.07421037
0001d0 d5 92 b7 3d 32 72 8b 3d 53 b7 c9 bd f7 7d 2b bd
       0.08963553 0.068088904 -0.098494194 -0.041868176
0001e0 88 02 3d 3b df ed 43 3c ab ca dc 3d 06 df b7 3d
       0.002884062 0.011958568 0.10780843 0.08978085
0001f0 7f ae f1 bd c5 9f f7 bd c0 8c 0b be fa a6 68 bd
       -0.118008606 -0.120910205 -0.1362791 -0.056799866
000200 6a 40 68 bc 72 f8 c1 bd f9 72 e5 bd 84 03 25 be
       -0.014175514 -0.09471215 -0.1120357 -0.16114622
000210 7b 77 90 3d a6 cd 74 3d 67 be 7f 3d f2 42 67 bc
       0.07054039 0.059766434 0.06243744 -0.014115082
000220 f7 ba 9b bd c5 ed 78 be b8 10 f0 bd 29 5f b8 bd
       -0.0760402 -0.24309452 -0.11721939 -0.09002525
000230 89 d9 34 be e9 68 5e 3d 53 22 02 3d 1b 01 b7 bd
       -0.17661108 0.05429927 0.031771015 -0.08935758
000240 a0 d6 13 3e 88 ca d1 3d a3 5d 37 3d 30 63 34 bd
       0.14437342 0.10243708 0.044767033 -0.044039905
000250 b6 b0 74 bb d5 db f8 bd 32 b2 a7 3d 95 57 fd 3d
       -0.0037336773 -0.12151305 0.08188285 0.123702206
000260 f9 e4 d5 bd 1e 01 59 3d 3c df 07 be 11 3a be bc
       -0.10444064 0.05297958 -0.13268751 -0.023221048
000270 40 ce e1 3d 6a 21 20 3d 2c 4e 4e 3e 50 fa 0c be
       0.11025667 0.039094366 0.20147008 -0.13767362
000280 91 9a 68 3d df 79 ca bc a2 0f 86 3e 38 4f 15 be
       0.05678803 -0.024716316 0.26183802 -0.14581001
000290 22 43 4c 3d fe 8e ec bd fb ca b7 3d 7b 71 ab bc
       0.04986871 -0.11550711 0.08974262 -0.020928135
0002a0 40 62 3e bd 00 69 57 3d dd 02 45 3e cd 3f f7 3b
       -0.046480417 0.05259037 0.19239374 0.0075454474
0002b0 28 4e cb 3d 13 88 01 bd 4b 06 5c bc 97 a1 c2 bd
       0.099270165 -0.03162391 -0.013429235 -0.09503477
0002c0 d1 47 0d 3e 62 4e a9 3c da 16 5a 3d da a5 20 be
       0.13796927 0.020667259 0.05324445 -0.15688267
0002d0 7d 3f ae 3d 93 1c f3 3c d7 0a 0f be 67 1c 4b bb
       0.08508203 0.029676711 -0.13968979 -0.003099227
0002e0 aa b9 51 3d 1c 83 cc bd bd 7e e1 3d 05 6d eb bc
       0.051202454 -0.09985945 0.110105015 -0.028738508
0002f0 57 8d 14 be 9f d2 b7 ba c0 d0 9c 3d c0 a3 ea bd
       -0.14507042 -0.0014024562 0.076570034 -0.11457014
000300 bc bc 16 3d a6 62 e0 3d 41 6f 9e bd 48 ca a7 bd
       0.036801085 0.10956316 -0.07736064 -0.08192879
000310 a0 d9 9e 3d fa 81 29 3d 4c 84 0e be 91 d4 ea bd
       0.077563524 0.04138372 -0.13917655 -0.11466325
000320 f3 27 96 bd ed 63 6a be 04 12 b0 bd 65 d2 6a be
       -0.073318385 -0.22889681 -0.08597186 -0.22931822
000330 1a 9e 9a bc 38 94 2a bc 25 08 aa 3c a9 62 8b bd
       -0.018874217 -0.010411315 0.020755837 -0.06805927
000340 3c 30 10 3c 08 47 ad bc b3 21 66 bc 40 50 10 be
       0.0088005625 -0.021152034 -0.01404612 -0.14093113
000350 23 69 58 3d 7b 86 1c 3d e0 e1 10 be 67 d8 33 3e
       0.05283464 0.038214188 -0.14148664 0.1756302
000360 aa 51 60 3c 16 07 a8 bd eb 5e 0b bd 8d 82 fb 3e
       0.013691345 -0.082044765 -0.034026068 0.4912304
000370 31 c2 ab 3d 97 89 02 be 9b c0 12 be d3 63 46 bd
       0.083866484 -0.12747799 -0.14331286 -0.048435044
000380 3b 86 98 3d f0 4b fd bc 2f 79 57 be c2 51 2e be
       0.074474774 -0.030919999 -0.21042322 -0.17023376
000390 1e 1d 32 3d 65 7d ae 3d 2e 56 f0 b9 02 47 33 be
       0.0434848 0.08520011 -0.00045840576 -0.17507556
0003a0 63 cb 8a b9 10 35 23 be c6 f5 41 3e fc 33 47 3d
       -0.00026472946 -0.1593821 0.18941411 0.04863356
0003b0 98 0c b2 3b 34 c4 97 bd 59 eb 9d 3d 65 ea 37 bc
       0.00543363 -0.0741047 0.07710905 -0.011225318
0003c0 ef 71 85 3d da a1 49 be e7 b7 cf 3d 40 cc b5 3c
       0.06515872 -0.19690648 0.101424985 0.02219212
0003d0 01 26 9b bb 9e 86 e2 bd 45 b4 d1 bd 5d 8d ae 3c
       -0.004734755 -0.110608324 -0.10239462 0.021307642
0003e0 85 60 8a be 19 09 8c 3d f0 01 e2 3d 75 92 ae bd
       -0.27026764 0.06837673 0.11035526 -0.08524028
0003f0 49 bc 81 bd 9a 34 03 be 77 96 51 bd be 9d e3 bd
       -0.06334741 -0.12813035 -0.051168885 -0.11114071

lstm.bias_hh_l0 f4 [256]
000000 9d 72 9c bd 4e cf ad bd 28 3f 48 3c 52 bd 3f 3d
       -0.07639048 -0.08486806 0.012222089 0.04681141
000010 de f0 47 bd 02 0c 58 3b 49 19 84 3c 70 48 7f 3d
       -0.048813693 0.0032966142 0.016125338 0.06232494
000020 2a bb 8d bd 5f 0f a6 bd ab cf 32 be 9c 1d 6f 3e
       -0.06920464 -0.081084006 -0.17462032 0.23351139
000030 cd 0d bc bd 4a ca 53 3e 39 17 12 3d d8 93 10 3e
       -0.0918232 0.20682636 0.035666678 0.14118898
000040 fb c4 ee bd 3a bc cd bd 84 e3 f8 bd 77 b0 f7 3d
       -0.11658665 -0.10045667 -0.1215277 0.12094205
000050 23 78 95 bd 6c cd 8e 39 3b 9e a5 bd e9 21 04 3e
       -0.07298305 0.00027237402 -0.08086821 0.1290356
000060 e4 82 1e 3d 3b 93 38 bd 99 31 d4 bd 19 32 c0 bd
       0.038699046 -0.045062285 -0.103610225 -0.09384555
000070 26 76 9a 3d 01 8e 32 3d 2b 8e 04 3d 82 b7 87 3d
       0.07542066 0.043592457 0.032362144 0.06626798
000080 8d 16 74 bd 26 54 97 bd a9 cc 41 3e f2 fc 29 bb
       -0.05959182 -0.07389097 0.18925728 -0.002593812
000090 66 ad 55 bd 5f b3 40 3e 97 ef 3a 3c 0c dd 08 3e
       -0.05216732 0.18818425 0.011409662 0.13365573
0000a0 77 ca ef bc db 88 48 be 87 25 64 bd 47 76 ea bc
       -0.029271347 -0.19583456 -0.05569985 -0.028620852
0000b0 db dd a4 bd 4d 65 25 bc d8 52 87 bd 1b 19 e2 bb
       -0.08050128 -0.010094953 -0.06607598 -0.0068999655
0000c0 b0 7b 95 3d d6 b5 32 be 93 3e e0 3d 54 05 1c 3c
       0.07298982 -0.17452177 0.10949435 0.009522755
0000d0 ad 2d cd bd ae aa 89 3d 7d 66 78 be 66 41 cd 3d
       -0.100184776 0.06722008 -0.24257846 0.100222394
0000e0 32 d1 49 bd 64 1d a5 bd 14 c1 f8 bd 83 6b 4e be
       -0.04927177 -0.080622464 -0.12146202 -0.201582
0000f0 c8 67 66 bd 36 e7 fb bd 0d 6d ed 3c e2 1a b2 3d
       -0.056251317 -0.12299959 0.028982664 0.08696534
000100 d6 33 4a 3d 9a 53 ab bd e9 99 31 3d 27 bb 17 3d
       0.04936584 -0.08365555 0.04335967 0.037043717
000110 c2 72 50 3d 43 94 df bb 08 b1 b0 3d 68 26 3c be
       0.05089069 -0.006823094 0.08627516 -0.18374026
000120 59 a2 6e be 52 50 4d be 05 1a e2 bd c4 b0 07 be
       -0.23304118 -0.20050171 -0.11040119 -0.13251024
000130 44 78 3b be 2c 9a 51 3d bb 7a 5a 3d ba ec fa bd
       -0.18307596 0.05117242 0.0533397 -0.12252183
000140 18 df e1 3d 1e fa b4 bd 8c 7d e1 bd 81 bd 8c bd
       0.1102888 -0.088367686 -0.11010274 -0.068720825
000150 84 a3 4a be c0 c3 8b bd 74 89 f5 bd 5a d4 9c 3d
       -0.19788939 -0.06824446 -0.11989108 0.0765769
000160 a2 fb b5 bc b9 a1 e7 bc 3d 1f 1e 3d ab 18 8b 3d
       -0.022214714 -0.028275358 0.03860401 0.067918144
000170 d2 09 b0 3d 19 1b 33 be 55 c2 b7 bd c3 da 89 bd
       0.08595623 -0.17490806 -0.08972613 -0.067311786
000180 0d e9 24 3d c8 a7 33 bd 28 a4 9e be b4 6a 56 bd
       0.040261317 -0.04386118 -0.30984616 -0.052347854
000190 4d 2a e9 bd bf 4a 0b 3e 85 97 e8 3c 55 92 3a be
       -0.11385021 0.13602732 0.028392563 -0.18219884
0001a0 19 8d 2d 3d d5 46 2d be 7d 98 5e 3d 07 79 66 3d
       0.04237089 -0.16921552 0.054344643 0.056267764
0001b0 e2 03 e2 bd 54 3c da bd cf 44 38 bd a2 b0 e8 bd
       -0.11035897 -0.10656038 -0.044987496 -0.11361815
0001c0 3b 22 ab bd 37 e7 cc 3c 2e 31 bc 3c 7d 88 91 3e
       -0.08356138 0.025012596 0.02297267 0.28424445
0001d0 f9 7e a1 3d 68 ff ce 3d b4 b2 9b bb 1c a9 00 be
       0.07885546 0.101073086 -0.0047515277 -0.1256451
0001e0 24 78 1d 3d 31 23 53 3d ff 6d 53 3d d2 dc 16 3e
       0.038444653 0.051547233 0.051618572 0.14732674
0001f0 93 e3 56 bd e9 e0 0e 3d 56 94 6d 3d 1c 08 30 3d
       -0.052463125 0.03488246 0.058002792 0.042976484
000200 6c 74 1e be 45 86 59 bc fc 68 69 bc 79 98 9d 3b
       -0.15474099 -0.013276641 -0.014246222 0.004809436
000210 ee 11 04 3d ef af b1 bc 98 39 60 bd ca a3 96 3d
       0.03224366 -0.021690337 -0.054742426 0.07355459
000220 da 87 37 bd 7c 88 71 be 7e 54 d8 3c f9 0f c0 bd
       -0.044807293 -0.23587221 0.026407477 -0.093780465
000230 28 73 57 3d b0 2f 75 bd 28 31 c2 bd eb cc 0b bd
       0.052600056 -0.05985993 -0.09482032 -0.034130972
000240 fc a0 19 bd 80 c1 a2 3d 59 05 5a 3e 8c c2 38 3e
       -0.037507042 0.079470634 0.21291102 0.18042964
000250 5c c9 2c bd ae 73 db 3c 70 5e ed bd 9d 46 61 3e
       -0.04218422 0.026788559 -0.11590278 0.21999593
000260 98 59 8d bc 19 83 db bd ce f8 20 be 89 68 a7 bd
       -0.017254636 -0.10718364 -0.15719911 -0.081742354
000270 16 ae bc 3d 6d f4 a1 3d 6b 41 3b 3d f8 a4 82 3b
       0.09212892 0.07907949 0.045716684 0.003986951
000280 b2 11 0c bd 8b d6 1c bd dd eb a5 3d eb 8f 64 bc
       -0.034196563 -0.03829054 0.08101628 -0.013950328
000290 1f 5e 72 3d d0 bb d1 bd 93 6a a9 bc d1 3e 05 bd
       0.059171792 -0.102409005 -0.020680701 -0.03253061
0002a0 c1 a9 28 bc e0 c0 6f 3d 80 17 5c 3d e7 0d 1c bc
       -0.010294379 0.05853355 0.05373335 -0.009524799
0002b0 a8 19 02 3e 67 db e7 bc cb a7 29 bc 87 a7 31 bd
       0.127051 -0.028302861 -0.010354946 -0.043372657
0002c0 85 0a ad 3c 92 17 50 bd 7d 05 20 3e 76 28 6a bd
       0.02112318 -0.05080373 0.15627094 -0.057167493
0002d0 c7 06 34 3b 03 77 1f be 38 a5 42 bd 9b 29 02 3e
       0.002746986 -0.15572743 -0.047520846 0.12711184
0002e0 61 6c fe 3d c0 89 95 3d a4 0f 95 bd d7 a8 4a 3d
       0.124230154 0.07301664 -0.07278374 0.049477424
0002f0 65 b2 03 be 92 d2 9d bd 74 e7 dc 3d 5e 8c 1b bd
       -0.12861021 -0.07706179 0.10786334 -0.03797566
000300 52 38 cb 3d fc 8f 0c bd f9 ec 0f bd c9 41 1f be
       0.099228516 -0.034317 -0.035138104 -0.15552439
000310 3f e9 2b 3e 3e 41 cc bd 2c 71 27 3c 43 25 bd 3c
       0.16788195 -0.099733815 0.010219853 0.023089057
000320 f8 a2 4b bd 1a c1 67 be a2 9b 4e be ae 9b 34 bd
       -0.049715966 -0.22632256 -0.20176557 -0.04409378
000330 a0 fe ab bd 48 7f e1 3a c5 90 d5 bd ed 29 58 bd
       -0.08398175 0.001720407 -0.10428003 -0.05277436
000340 ae 8e 7c 3d 6e ae 64 3d 48 47 50 bd bd b3 7f bd
       0.061659507 0.05583041 -0.05084923 -0.06242727
000350 f2 dd bf 3c e1 1f 61 bd 2b e8 1e 3d 39 a7 c9 3c
       0.023421261 -0.054962043 0.03879563 0.02461587
000360 b7 65 54 3e 0e 2b a5 bd e1 2d ac bd 64 15 08 3f
       0.20741926 -0.08064853 -0.08407188 0.5315764
000370 db 3b 1c 3d a7 4d cf bd c4 67 92 3d fe 0b 20 3c
       0.03814302 -0.10122233 0.07148698 0.009768484
000380 9b d6 73 bd d4 bd ce 3c 32 60 a8 bd e8 3f a9 bd
       -0.059530836 0.025237001 -0.08221473 -0.08264142
000390 59 71 f4 3a d0 89 09 3d f1 4b bc 3b 22 9e 51 be
       0.0018649503 0.033578694 0.0057463576 -0.20470479
0003a0 39 99 59 3d 0a 9a 89 3d db 42 0a bd 56 16 63 3d
       0.05312464 0.06718834 -0.033755165 0.055441223
0003b0 57 d3 b7 bd 58 79 0f 3e 5e 71 5f 3d 62 94 95 bd
       -0.08975857 0.14011133 0.054551475 -0.073036924
0003c0 e6 e0 a2 3d b6 23 05 bd 36 d1 0e 3e 1f 32 38 3e
       0.07953052 -0.03250476 0.13946995 0.1798787
0003d0 86 0a b6 bd 42 fe 86 bd a3 07 58 be 1f 52 c7 3b
       -0.08888726 -0.065914646 -0.21096663 0.0060827876
0003e0 4f 38 19 be 53 bb cc 3d 72 92 c0 bd ce 0b 85 bd
       -0.14962886 0.09996667 -0.09402932 -0.06496392
0003f0 21 3b e2 3c 72 44 81 bd 52 0e 44 bd eb c1 8c 3b
       0.027616085 -0.06311883 -0.04786522 0.0042955778

lstm.weight_ih_l1 f4 [256, 64]
000000 eb c7 1e 3e 81 a6 35 be b3 00 2e 3e 32 28 12 be
       0.1550595 -0.17739297 0.16992454 -0.14273146
000010 01 98 07 3d 7c 77 3d 3d e1 52 a7 3d 59 6f bc bc
       0.033103947 0.046256527 0.08170105 -0.023002313
000020 b9 da 95 3c f3 c6 c6 bc 19 37 d3 bd 0d a8 2d 3e
       0.018292772 -0.024264788 -0.103132434 0.16958638
000030 18 32 44 be cd 23 1d be 13 06 80 bd 08 99 4a 3e
       -0.19159734 -0.15345688 -0.062511586 0.1978494
000040 be 3c ce bc d7 ac f0 bc 1b 6d 1a be 22 5d 1f 3c
       -0.025175449 -0.029379291 -0.15080683 0.009726794
000050 7c ee 1d 3e 0e 38 c3 3c ae 73 9f bd 19 e2 4e bc
       0.15423006 0.02383044 -0.07785736 -0.012627148
000060 0f c6 68 3e 31 9a 23 3e ac a2 04 3d 09 31 2a 3e
       0.22731803 0.15976788 0.0323817 0.16620268
000070 5d 42 a5 bd e3 8d d8 3d 90 aa 15 3e 89 61 38 3d
       -0.080692984 0.10573938 0.14615846 0.04501489
000080 02 40 1d bb 2e 99 0a be c6 8a a2 3e 28 c8 ba bd
       -0.002399445 -0.13534996 0.317465 -0.09120208
000090 c1 bf 42 bd 97 df 0a 3e 71 b9 1c bb 7a eb 24 3d
       -0.047546152 0.13561855 -0.0023914243 0.04026363
0000a0 43 1c 50 be 0b 58 28 be a4 8d da bd 8c 80 14 3e
       -0.20323281 -0.16439836 -0.10671547 0.14502162
0000b0 f9 ca 1d be 1f 44 f2 3d be b8 d9 bd 30 3f 0f 3e
       -0.15409459 0.11829399 -0.1063094 0.13988948
0000c0 e6 50 f7 be 33 77 f9 3d 62 cd 82 3a 81 15 32 be
       -0.48303908 0.121809386 0.0009979422 -0.17391016
0000d0 ae c4 77 3d df a5 88 bd 22 d9 01 be f6 e0 24 3e
       0.060490303 -0.066722624 -0.12680486 0.16101441
0000e0 08 45 28 3e ea 13 6c 3d dd 2f 75 be a1 1f aa bd
       0.16432583 0.05763618 -0.2394404 -0.08306814
0000f0 1a b4 a6 bc dc cf 9d 3c cb 2f f6 bd 2a 67 0c be
       -0.020349551 0.019264154 -0.120208345 -0.13711229
000100 bf 9b 7b b9 4b 99 81 bd 34 bf 4d 3d 36 db 33 3d
       -0.00023995245 -0.063280664 0.050231174 0.043910228
000110 8d 3f 37 3e a8 a7 92 bd 2f 93 cd 3c a3 4b 23 3e
       0.17895336 -0.07160884 0.025094597 0.15946822
000120 39 50 20 3e 73 a9 63 3d d2 83 dd bd 31 07 9f 3d
       0.15655603 0.05558152 -0.10816158 0.077650435
000130 d8 f0 71 3c 37 57 04 be 09 14 84 bd 65 7c bb 3c
       0.014766894 -0.12923895 -0.06449134 0.022886464
000140 97 e2 22 bd 1d e3 9f bd 5d de 1e bd 1e b9 f9 3c
       -0.039766874 -0.0780699 -0.03878628 0.030483779
000150 38 91 49 3e 17 53 06 be 92 7c 1b be 97 45 20 be
       0.19684303 -0.13117634 -0.15184239 -0.15651546
000160 a4 6d 25 3e 55 2f a1 3c 33 8e 6a 3d d6 c7 15 3f
       0.16155106 0.01967589 0.057264518 0.5850805
000170 93 70 f1 bd b0 4c bc 3d 91 c6 d5 3d 3f d6 35 3e
       -0.1178905 0.091943145 0.10438264 0.1775751
000180 33 b9 02 3e 1d 36 f5 bd b8 f2 0c bf 8a 5a 43 be
       0.1276596 -0.11973212 -0.5505786 -0.19077507
000190 79 5b 6e be ce 1f 96 3d a1 2c 1b 3e 36 65 4e 3e
       -0.23277082 0.07330285 0.15153743 0.20155796
0001a0 54 86 9c 3e 32 bd 36 be fc 07 20 be c6 42 33 bd
       0.30571234 -0.1784561 -0.15628046 -0.043764852
0001b0 53 7b a2 bd 2a 7d f1 3d 93 48 0f 3d 53 61 a1 3d
       -0.079336785 0.11791451 0.03498132 0.07879891
0001c0 40 04 30 bd 1d 00 ea 3b 38 12 b4 bd c5 bb 05 be
       -0.042972803 0.007141127 -0.087925375 -0.1305991
0001d0 7e 30 0e 3e 2f 6c 00 3d b9 17 8a bd ab e3 97 3d
       0.13885686 0.031353172 -0.06742806 0.07416471
0001e0 d1 b6 1b bd 31 c8 18 3e e9 10 07 be 04 3d 76 be
       -0.038016144 0.14920117 -0.13190044 -0.24046713
0001f0 fa e4 cd bc f7 a4 05 bd 7f 82 b5 3c 9d 06 fb bc
       -0.025133599 -0.032628026 0.022156952 -0.030642802
000200 45 c2 7a 3d c7 e8 03 be 0a 07 ac 3c 46 68 04 be
       0.061220426 -0.12881766 0.02099945 -0.12930402
000210 7f 41 18 bd a1 79 63 bd 70 9a d1 bc 3d d0 1f 3d
       -0.037171837 -0.055535916 -0.025586337 0.03901695
000220 1e 34 09 3e 68 de d3 3c 34 30 b5 bd 32 9c 52 3e
       0.13398787 0.025862888 -0.08847085 0.20567396
000230 29 92 71 3d e5 fa 92 3d 50 63 01 be 66 48 c1 bc
       0.05897728 0.071767606 -0.12635541 -0.023594093
000240 9e 40 f7 bb 46 32 c9 bd 18 55 e0 bc af 14 27 3e
       -0.0075455448 -0.09824042 -0.027384326 0.16316484
000250 39 41 1c 3e f4 fc 0e be 82 07 8d 3d 15 44 a1 3d
       0.15259255 -0.13963681 0.068861976 0.07874314
000260 62 86 5a 3e ae 44 31 3e 0b 1b 8a 3d 78 78 b1 3e
       0.21340325 0.17311355 0.06743439 0.34662223
000270 bf 9f ee bd d3 54 ad bd fd 01 2a 3e 3f 24 1f 3d
       -0.11651563 -0.084634446 0.16602321 0.038852926
000280 71 73 e3 3c 12 59 ed 3c f0 16 85 ba 45 1e 7f bc
       0.027765008 0.028973136 -0.0010153931 -0.015571182
000290 7a 35 ea 3d 39 a7 d3 3c 02 97 01 3e ca a9 1a 3d
       0.11435981 0.025836574 0.12655261 0.03775958
0002a0 60 2c b0 3d 89 89 09 3d 43 82 78 3c 28 a6 98 bd
       0.08602214 0.03357843 0.015167776 -0.07453567
0002b0 f3 5d 10 be ec 2a 7b 3d ad 2e dd bc d6 2a e6 3d
       -0.14098339 0.06132023 -0.026999796 0.11238639
0002c0 13 c8 3e bd b5 b9 b2 bc 17 db 96 bd 60 13 17 3d
       -0.046577524 -0.021817068 -0.07366007 0.03688371
0002d0 12 54 fa bb 5e 2f 11 be cc 3a a7 bd 2d 51 15 bd
       -0.0076394165 -0.14178225 -0.081655115 -0.03645437
0002e0 cf 9b 8f bd c7 2c 37 3e 38 7b 49 be 8b c3 f7 3d
       -0.0701214 0.17888175 -0.1967591 0.12097844
0002f0 16 8c 3b 3d 8a 1d 81 3d 0a 9b 4d 3b d4 3c db bd
       0.045787893 0.06304462 0.0031372928 -0.107049614
000300 8f 06 7d 3d 19 b7 c5 3c 43 3a 92 3d 71 51 19 be
       0.061773833 0.02413516 0.07140019 -0.14972474
000310 67 bb 18 3e 5e db f1 bd 7b 30 0b 3e 11 8d 9b 3d
       0.14915238 -0.11809419 0.13592713 0.07595266
000320 11 36 0c 3e c3 44 10 be 93 a9 8f 3d 74 b2 8f 3d
       0.136925 -0.1408873 0.070147656 0.07016459
000330 0d 20 c4 bc 47 94 b8 bc fd 2e c7 bd 0d 43 0b 3e
       -0.023941064 -0.022531642 -0.09725759 0.13599797
000340 ec 90 16 3d de 27 2f 3e 58 2e 57 3d a3 07 85 bb
       0.036759302 0.17105052 0.05253443 -0.0040597483
000350 9d dc 92 3c 46 be 66 3c 5e 15 c3 bd ed 2e 3d be
       0.017927462 0.014083451 -0.0952556 -0.18474932
000360 a8 fe b8 3d d7 cd 14 3e 49 f2 07 3e db 55 03 3f
       0.09032947 0.14531647 0.13276018 0.5130288
000370 3a a9 3b 3d b9 ca cb 3d 03 48 90 3d b7 99 86 bd
       0.045815684 0.09950776 0.07044985 -0.065722875
000380 91 aa 00 bd f8 ca b4 bd b7 25 82 be b3 7d 37 bd
       -0.031412665 -0.08827776 -0.254194 -0.04479761
000390 01 04 6e 3e 4e c4 f6 3c 17 e7 e8 38 9c dd 24 be
       0.23243715 0.030122902 0.00011105666 -0.16100162
0003a0 c3 dc 8c 3d f9 73 a6 bc 1e b4 1a be bf a0 42 bd
       0.068780445 -0.020318972 -0.15107772 -0.04751658
0003b0 8a 62 be bb 84 e6 84 bd bd 71 07 bd b2 e3 0e bd
       -0.0058100866 -0.0648928 -0.033067454 -0.034885116
0003c0 8a 37 25 3d 94 ff 38 bc 80 a7 56 bb 9c 00 38 3d
       0.04033617 -0.011291403 -0.0032753646 0.044922456
0003d0 03 82 21 3e c6 32 e1 3b f6 27 29 3c cb 86 07 3e
       0.15772252 0.0068725077 0.010324469 0.13235013
0003e0 d9 9b 10 bd 52 7a 0f 3d 4e e6 76 3d 03 94 9b be
       -0.035304878 0.035028763 0.06027823 -0.3038636
0003f0 a6 84 be bd 0d 5d 66 3d 90 a6 bb bd 86 ca 39 be
       -0.093026444 0.056241084 -0.09162629 -0.18143663

lstm.weight_hh_l1 f4 [256, 64]
000000 b7 2a 0d be a9 09 36 be 35 8e 13 bb f6 28 1f 3d
       -0.13785826 -0.17777123 -0.0022515182 0.038857423
000010 39 7b 18 3e 46 e7 bd bd ad ee 85 bc f4 c5 02 bb
       0.14890756 -0.092726275 -0.016349161 -0.0019954415
000020 29 66 3a bc ed 07 9c bc ef dc 79 3c 8f 15 56 bd
       -0.011376896 -0.019046748 0.015250429 -0.052266654
000030 6a 8e 10 3d cb 3a ee 3c 14 39 95 bd 88 cc 4b be
       0.035292067 0.029080769 -0.072862774 -0.19902241
000040 06 4d d7 3d 4a 3f 79 3d fc 0b 0e bd 84 45 30 bc
       0.10512738 0.060851373 -0.034679398 -0.010758761
000050 f3 6a f0 bd 15 e4 0b be 0a a4 8a bd bf 78 f7 bd
       -0.11739149 -0.13661225 -0.06769569 -0.12083577
000060 b1 4c e8 3d 7c d2 b8 3c 84 d5 ce 3d 99 05 85 bd
       0.11342753 0.022561304 0.100993186 -0.06495208
000070 c4 19 3b 3e 53 f8 3e bd 1f b2 23 3c d6 1f e0 3d
       0.18271548 -0.04662354 0.009991198 0.10943572
000080 6e 19 98 bc 3d 70 02 be 6e e4 2f 3e e3 a9 01 be
       -0.018566813 -0.12738128 0.17176983 -0.12662463
000090 d7 00 12 bd 59 3b 28 3d ef 23 03 be 24 a8 31 3e
       -0.035645332 0.041072223 -0.12806676 0.17349297
0000a0 4a 39 13 3e ad b2 3a bc 6a d6 bb bb d0 27 43 bd
       0.14377323 -0.011395139 -0.0057323473 -0.04764539
0000b0 ab 1e a7 3c 5d 46 64 bd 0e 0b 89 3c b6 51 0c 3e
       0.020400366 -0.055731166 0.016728904 0.13703045
0000c0 30 a3 c8 3d ce c7 dc bc a6 97 b9 bd 2f c9 12 3d
       0.097967505 -0.026950743 -0.09062128 0.035836395
0000d0 20 22 08 3e 36 09 97 bc 09 18 b6 bd c2 62 11 be
       0.13294268 -0.01843701 -0.08891303 -0.1419783
0000e0 6e e3 bd bc 6f cb 41 be b2 70 03 bc 56 16 d9 3d
       -0.023179736 -0.1892526 -0.008022474 0.10599963
0000f0 9f 58 80 bc bc 3d 1f bd 07 8f 09 be 6f 98 e2 bc
       -0.015667258 -0.038877234 -0.13433467 -0.027660577
000100 96 68 1e be 31 24 b4 bd e5 a3 f9 bd 87 7e 3b 3e
       -0.15469584 -0.087959655 -0.121894635 0.18309985
000110 f8 3e 01 3e ad 84 49 3d 7d 19 34 be 5b dd f2 3d
       0.12621677 0.049198795 -0.17587848 0.118586265
000120 37 3a f0 3d 83 6a e1 bd 6c ac b7 3d 17 f5 83 bd
       0.117298536 -0.110066436 0.08968434 -0.064432316
000130 06 25 8a ba c0 70 0c 3e d2 ae 1d be 0c d2 d2 bc
       -0.0010539598 0.13714886 -0.1539872 -0.025734924
000140 5c e1 17 3e 8d 66 b2 bd 1c d5 19 3e 89 37 30 3e
       0.14832062 -0.08710966 0.15022701 0.17208685
000150 3a 90 1a bd 81 0b bd 3c 07 43 2f be 1f 20 5b bd
       -0.0377352 0.023076775 -0.17115413 -0.05349743
000160 b2 36 04 3e 76 00 0b 3e dd 95 a5 3c 00 af eb bd
       0.1291149 0.13574395 0.020213062 -0.11507988
000170 df 73 e4 3d d0 ed a5 3d 03 6e a1 3d a2 5d ff 3d
       0.11154913 0.08102 0.07882311 0.12469031
000180 ac eb ac bc 65 71 6d 3d 3f 7e 52 3c c7 d1 4f 3d
       -0.02110847 0.05796947 0.012847482 0.05073717
000190 b1 7f b6 bd b2 3f b1 3d fa 63 87 bc 44 47 ed 3d
       -0.08911074 0.08654727 -0.016527165 0.115858585
0001a0 e2 d5 1f 3d ac 4e 3a 3e ca b1 bb bd 39 00 93 bc
       0.039022334 0.18194073 -0.0916477 -0.017944442
0001b0 ef 16 28 3d d4 73 eb 3d ab 3c c9 bb fd 88 da 3a
       0.041037496 0.11496702 -0.0061412654 0.0016672906
0001c0 e4 b8 24 3e ab 41 37 3c 2a 6f 36 be d1 bc 1f bc
       0.16086155 0.01118509 -0.17815843 -0.009749607
0001d0 22 78 6f bd 5d 53 72 bc 93 11 b5 bd 4c 40 b9 bc
       -0.058464177 -0.014790383 -0.08841243 -0.022613667
0001e0 1b 42 aa 3c b2 44 63 bd 51 a9 1b 3e 65 b3 86 3d
       0.020783475 -0.055485435 0.15201308 0.065771855
0001f0 6c 55 c8 bd 23 eb 2c be dd 9c 07 be 91 76 07 3e
       -0.09781918 -0.16886573 -0.13243432 0.13228823
000200 dd 3d 55 3d f1 38 50 bd 86 73 67 bd b6 ff fd 3d
       0.05206095 -0.050835554 -0.056506656 0.124022886
000210 b1 16 2c bd a9 bc 24 be 44 8e d4 bd fc 08 0c 3e
       -0.042013828 -0.16087593 -0.103786975 0.13675302
000220 3d 7c 96 3c 4b b9 c2 bd 9e 86 0d 3e c6 e2 38 3d
       0.018369788 -0.09507998 0.13820884 0.045138143
000230 50 58 4b 3d a7 d0 15 3e 3b be 31 be 8e 77 e4 bc
       0.04964477 0.14630376 -0.17357723 -0.02788904
000240 4f 5c 24 3e 9d 4a 11 be 91 85 a2 3c 38 dd 63 bd
       0.16050838 -0.14188619 0.01983908 -0.055630893
000250 53 94 21 be fc 74 24 be 9a 29 13 3d 87 29 20 be
       -0.15779237 -0.16060251 0.035928346 -0.15640841
000260 c2 a7 c0 3d 68 a9 da 3d d9 41 9d 3d 8c 1e 97 3d
       0.09406997 0.10676843 0.07678575 0.07378873
000270 b1 8e 88 3d 44 9a 03 3d 6d 38 2d 3e 7b 16 cb 3c
       0.06667841 0.03212954 0.16916056 0.024790993
000280 40 d0 f5 3d 62 fd e3 bd 3f 97 90 3c 79 9b 19 be
       0.12002611 -0.11132313 0.017650245 -0.15000714
000290 2f 9d 08 3d 47 cc 01 3e aa c4 86 3b 9f 9b 95 3d
       0.033353027 0.12675582 0.0041127997 0.07305073
0002a0 4b 45 45 bd 3f ff 39 3d 5e cf af bd 77 e3 04 be
       -0.048161786 0.045409437 -0.08584474 -0.12977396
0002b0 96 8f e8 3d 08 52 db 3d 06 aa 02 bd 1e 32 3d 3d
       0.11355512 0.107090056 -0.03190043 0.046190374
0002c0 d6 2e ea 3d 76 5f 34 bc 6a 4b 36 bd 87 7c 6a 3d
       0.114347145 -0.011009088 -0.044505514 0.057247665
0002d0 a2 0a 4a 3c 23 8b 09 be 5a 3a 80 3d e1 77 3b be
       0.012331637 -0.13431983 0.0626113 -0.18307449
0002e0 12 0f de bd 8a 64 fc bd 6d 43 c3 3d e5 a0 35 3e
       -0.10842718 -0.12323864 0.09534345 0.17737158
0002f0 e2 71 23 be f1 3e ea bd 41 5e 14 3d 4d 99 bd 3d
       -0.15961412 -0.11437786 0.0362227 0.092577554
000300 cd e0 80 bd a0 5a 0a be b8 db 5d 3c ec f3 d3 3c
       -0.06292877 -0.13511133 0.013541155 0.025873147
000310 83 44 a4 3d 19 d3 8f bd 4d 79 c1 bd fb 1b b5 3d
       0.0802088 -0.070226856 -0.094469644 0.088432275
000320 ea 31 41 bd 34 00 29 be 60 2c 2d 3e 4c 39 1d 3d
       -0.047166742 -0.16503984 0.16911459 0.03838472
000330 53 a1 77 bc 44 be 17 3c 34 48 30 be 41 8a 60 3d
       -0.015114146 0.009261671 -0.17215043 0.05481935
000340 09 0c 0c 3e 74 ed c2 3c 05 42 e1 3d cf d8 19 bc
       0.13676466 0.023794867 0.1099892 -0.00939007
000350 04 7d 3f be 89 cd 1c be 0c b9 92 3d b5 74 a1 bd
       -0.18700033 -0.1531278 0.07164201 -0.07883588
000360 e9 b5 b5 3d 73 e4 c9 3c d4 24 8a 3c 23 87 c0 bd
       0.08872587 0.024645066 0.016863264 -0.09400775
000370 66 05 4d 3d c6 cf b7 bd dd 85 9f bd f5 a7 b8 3c
       0.050053976 -0.089751765 -0.07789204 0.022541026
000380 db 72 cf bb 0e 13 bf 3c 4d 4e 1a bd 5c ca f4 bd
       -0.0063308305 0.023324516 -0.03767233 -0.119526595
000390 d2 ef 40 be fb 2b 5a bd 2c 3c 92 bd 45 71 39 3e
       -0.18841484 -0.0532646 -0.07140383 0.18109615
0003a0 f7 e5 bd bc cd 87 48 bd 86 e4 67 3d 64 6a 17 be
       -0.023180945 -0.048957635 0.05661442 -0.14786679
0003b0 a9 4f 5a 3b 61 39 c8 3d 88 4e 8e bd ff 6f c4 3d
       0.0033311641 0.09776569 -0.069485724 0.09591674
0003c0 16 f4 3a 3e 07 4c 3c 3d d1 17 8d 3d 19 f7 da bd
       0.18257174 0.045970943 0.06889308 -0.106916614
0003d0 89 22 07 3e e8 20 0e bd 8b 09 17 3c 7a eb b2 bd
       0.13196768 -0.03469935 0.009218584 -0.0873632
0003e0 67 2c 00 3d cc 54 01 be d0 07 b2 bc 28 64 a9 3c
       0.031292345 -0.12630004 -0.02173224 0.020677641
0003f0 04 38 64 bd 61 b2 6d bd e6 ed 91 3d f9 6b 22 3e
       -0.055717483 -0.058031444 0.07125454 0.15861501

lstm.bias_ih_l1 f4 [256]
000000 b0 6c 24 be e2 a4 1e 3d 55 80 18 bd f6 66 12 bd
       -0.16057086 0.038731463 -0.037231762 -0.035742722
000010 a0 eb 00 be d6 7c 26 bd 79 1b 17 3a b7 24 50 bd
       -0.12589884 -0.040646397 0.00057642866 -0.050816264
000020 79 f8 0e be 1b 86 da bd 84 60 d3 bd 80 83 1e be
       -0.13961972 -0.1067011 -0.10321143 -0.15479851
000030 b1 c1 2d 3d e1 31 c9 bd 79 5d bd bd e8 13 db bd
       0.042421047 -0.09823967 -0.09246344 -0.10697156
000040 c9 4d a2 3d 1a 53 91 bd 69 b0 c4 bd 9b a0 15 bc
       0.079249926 -0.070959285 -0.0960396 -0.00913253
000050 87 50 33 bb 2f 57 11 be e9 02 47 bd ef d2 f5 bc
       -0.002736123 -0.14193414 -0.04858676 -0.030007808
000060 60 9a 36 3d 3f 7a 90 3d f0 21 78 bd ff e3 db bd
       0.044580817 0.070545666 -0.06057924 -0.10736846
000070 47 72 d7 bd ff 14 91 bd 3e 69 9a 3d bf a0 a7 bd
       -0.105198435 -0.07084083 0.075396046 -0.08184957
000080 39 ed 0f bd 30 b1 2e be 36 80 2d 3d 3b 80 5c bb
       -0.035138343 -0.17059779 0.0423586 -0.0033645767
000090 b3 ae 0c 3d c8 ff 56 be 03 f3 66 3d ae f5 83 3d
       0.034346294 -0.2099601 0.056384098 0.06443344
0000a0 36 2c 4f 3c 15 93 b0 bd 9e a7 0c be 85 bd d0 bd
       0.012644818 -0.08621804 -0.13735816 -0.10192398
0000b0 18 34 d4 bc 10 60 ec bd 9a 1e 1e be c5 af 38 bd
       -0.025903746 -0.1154176 -0.15441361 -0.045089502
0000c0 7d ee 0c 3c d5 99 f4 bd e7 05 01 be 39 09 c8 bb
       0.008601782 -0.11943404 -0.12599908 -0.006104615
0000d0 d1 07 2c be 86 74 2f be 3d 1c d4 bd 44 2d 26 be
       -0.16799857 -0.17134294 -0.103569485 -0.16228205
0000e0 42 7c be bd cb df 0d be f8 4d 05 be db 23 df 3d
       -0.09301044 -0.13854901 -0.13018024 0.10895511
0000f0 e9 b1 97 bd ee 82 46 bd 5a 2c d1 3b fe b9 2e be
       -0.074069805 -0.048464708 0.006383461 -0.17063138
000100 4b 17 96 bd 8e 40 f6 bd 9e c1 0a 3d 0e 96 f3 bd
       -0.073286615 -0.120240316 0.033876054 -0.11893855
000110 c8 7e 4e bd d0 51 49 3d e9 34 01 be 57 c9 01 be
       -0.050413877 0.049150288 -0.1261784 -0.12674461
000120 34 2f 13 bd 59 33 db bc 86 5e e1 3c a8 eb e3 bd
       -0.03593369 -0.026757883 0.027510893 -0.11128932
000130 a8 9e 70 3d cf a1 cb bd 87 21 af bd a7 b5 03 bd
       0.058745056 -0.09942972 -0.08551317 -0.03215566
000140 ee 17 04 be ba 9e a7 bd 29 26 b5 bd 97 d0 23 be
       -0.12899753 -0.081845716 -0.08845169 -0.1599754
000150 ac 0c 42 be e5 ea 56 bd e8 eb 8f bd 48 60 66 3d
       -0.18950146 -0.052470107 -0.070274174 0.056244165
000160 c7 e1 be bd 56 2b 13 be db da 56 3c 1b d6 14 be
       -0.09320407 -0.14372 0.013113703 -0.145348
000170 e0 54 17 be 90 92 40 be b7 c3 ff bd de c9 3d bc
       -0.14778471 -0.18805909 -0.124885015 -0.011583773
000180 96 c6 04 bd 1b cc f1 bc 85 37 25 be 6d 9d 2c be
       -0.03241595 -0.02951627 -0.1613446 -0.16856928
000190 30 90 f0 bc 05 45 ee bc 8b ab c0 3a a2 75 c0 bd
       -0.029365629 -0.029085645 0.0014699561 -0.09397437
0001a0 0d ff cc bd 98 a5 b8 bd 33 00 23 3d 29 93 81 bc
       -0.100095846 -0.090159595 0.039795112 -0.015817242
0001b0 c5 4f 86 bd f4 23 6f bd 48 09 11 bd a4 a3 d6 bc
       -0.065581836 -0.058383897 -0.035409242 -0.026201077
0001c0 5e 30 7e 3c 1a 16 1d bd b5 48 0a 3d b4 ad 96 bc
       0.015514461 -0.038351156 0.033760745 -0.018393375
0001d0 21 eb 9f bc 6d 87 ef bd ff 4e b5 bd 12 33 42 be
       -0.019521298 -0.11695752 -0.08852958 -0.18964794
0001e0 20 83 63 bd 72 9f fa bd bf 65 4a 3d 53 c8 a5 bd
       -0.055544972 -0.12237443 0.04941344 -0.080948494
0001f0 b8 71 40 bc b9 d6 83 bd a1 3f a9 bc b5 da e5 bc
       -0.011745863 -0.064374395 -0.020660223 -0.02805839
000200 ea 4c 84 bd 63 fd 94 bd 65 04 8d 3d de e8 d5 3d
       -0.06459983 -0.07274892 0.06885604 0.104448065
000210 28 b2 79 bd e6 1a 54 bc f1 05 7a 3d a3 1b fd 3c
       -0.06096092 -0.012945866 0.061040822 0.030896967
000220 cd 75 23 3e e6 e3 73 3d 10 6b 43 bd f1 85 1a bc
       0.15962906 0.059543513 -0.047709525 -0.009431348
000230 8b d9 bd bd 85 61 06 3d b9 96 e5 3d e8 d3 93 bc
       -0.09270009 0.032807846 0.11210389 -0.01804538
000240 f1 24 e3 bd 8d ad b7 bd 9b 51 62 3d ec 9d 61 bc
       -0.110910304 -0.08968649 0.055253606 -0.013770562
000250 57 c2 53 bd 2a 29 7d 3c 13 35 6f bb e3 2b 7d 3d
       -0.05169901 0.015451709 -0.003650014 0.06180943
000260 57 31 01 3d 3a 04 0f bd 08 1d b1 bd b2 25 9a 3d
       0.031541195 -0.03491614 -0.086481154 0.07526721
000270 64 93 f0 3c ae da 4a bd 42 7a f3 3d e1 a2 c0 bc
       0.029367156 -0.049524955 0.11888553 -0.023515167
000280 67 12 e1 3d 0c 70 07 be 6d bf 4d bd 66 89 27 3d
       0.10989838 -0.13226336 -0.050231386 0.040902518
000290 47 58 5e bd b5 ed c5 3c b6 db 01 3d a0 4e 90 3d
       -0.054283407 0.0241612 0.031703673 0.070462465
0002a0 20 ad b4 3d ba 23 d2 bc 7c 00 73 be 1d 4b 97 bd
       0.088220835 -0.025651801 -0.23730654 -0.073873736
0002b0 14 7f b1 3d ec 65 a0 bd ad fe b6 bb c7 eb b5 bd
       0.08666816 -0.0783194 -0.005584559 -0.088828616
0002c0 79 d0 b3 3d 7a 42 6d bd d2 b3 c8 ba 64 c1 3a bd
       0.087799974 -0.057924725 -0.001531238 -0.045594588
0002d0 fc 34 45 bd af aa a9 3d ed 6a d4 bd 2d 0d 96 bd
       -0.048146233 0.082845084 -0.10371957 -0.07326732
0002e0 be 13 79 bd f8 c0 83 3d 75 ed 2a bd 35 36 fc 3d
       -0.060809843 0.0643329 -0.041730363 0.12315027
0002f0 f0 d8 83 3d ed 84 c0 bd 8c ad a9 3d de 2b c9 bc
       0.06437862 -0.094003536 0.082850546 -0.02455705
000300 3b 09 f1 bd 31 29 eb bd d1 88 04 be bb 35 ef 3c
       -0.11769339 -0.11482466 -0.12942816 0.029200425
000310 df ec bf bd 78 c0 00 be 8b a1 04 be 5a 26 2a 3d
       -0.093713515 -0.12573421 -0.12952249 0.04154048
000320 3a 5c 41 bd fa d6 88 bd 31 e4 7f bc be ec 4d 3d
       -0.047207095 -0.066816285 -0.01561837 0.050274603
000330 9d 16 bc bc c4 f5 19 3d 0a 79 e7 3c 85 fa a8 bc
       -0.022960002 0.037587896 0.028255958 -0.02062727
000340 1a 12 bf 3c c4 8d 3f be d0 be 38 be ff ed 0a be
       0.023324061 -0.18706423 -0.18041539 -0.13567351
000350 94 2a 8f bd de 70 79 bd 7a 7d 07 be 91 6f 00 be
       -0.06990543 -0.060898654 -0.1323146 -0.12542559
000360 66 83 ac bc 9f ef 80 bd d5 fd 8e 3c 06 a8 b1 bd
       -0.02105875 -0.06295704 0.01745502 -0.08674626
000370 97 23 2c be f1 7b 7c bc 39 d9 84 3b c3 fc af bd
       -0.16810451 -0.015410409 0.0040542153 -0.08593132
000380 1e 47 d6 bd 06 03 46 be 4a 10 27 be 47 5c 18 bc
       -0.10462783 -0.19337091 -0.16314808 -0.009299344
000390 40 21 fe bd fa e7 45 bd 0c 9c f8 bd b5 43 90 bb
       -0.12408686 -0.048316933 -0.121391386 -0.0044026026
0003a0 d3 74 23 be 3b 50 da bd f4 f5 47 bd e6 e2 5f be
       -0.15962534 -0.10659834 -0.048818544 -0.21863899
0003b0 41 45 26 bd 7f 38 89 bd 19 7a f5 bd df 8f 3c bd
       -0.04059339 -0.06700229 -0.11986179 -0.046035644
0003c0 bd c9 5f be e3 05 7f bc 9a b8 1e be fc fb 3d be
       -0.21854301 -0.015565368 -0.15500107 -0.18553156
0003d0 8e 0c cd bd 29 a3 2f be 00 31 2f be 0e 6b 0f 3c
       -0.1001216 -0.17152084 -0.17108536 0.008753551
0003e0 8b 87 db bd 89 3d 3d 3d de 33 95 3d f7 a2 2f bd
       -0.10719212 0.046201263 0.072852835 -0.042880025
0003f0 e2 c6 1d 3b f7 0b 42 be 83 c5 27 bb f2 08 f6 3c
       0.0024074842 -0.18949877 -0.0025599904 0.030033562
