Competition/TrainAI/model/c30/model_weights_0.pth (torch, 72423 bytes, 10 tensors)

lstm.weight_ih_l0 f4 [128, 34]
00000000: 2ff1 a7bd aced 8ebd 50ec f2bc 9f55 0c3e
00000010: 5c2d 483d d42c 313d 15ae ddbd 5ac2 1abe
00000020: 3821 d4bc aefb 993d 92be 0ebe 781b 8dbc
00000030: fef6 c13d 5aeb b73d a028 04bd 38ee c2bc
00000040: d6ba 06be 88ed f5bc 95c5 253e f02e 82bd
00000050: 99a7 2dbe 25e9 c8bd 21a1 e8bd 1a3f 1dbe
00000060: e579 103e a8ee edbc 00d8 5e3b 7159 253e
00000070: a9ab 023e 8666 c93d 3ddc 04be 2059 51bc
00000080: 1089 bbbc 826e 833d 733d ecbd 1af3 a6bd
00000090: 6823 813d 9b06 06be 26ad ae3d 3afc 9cbd
000000a0: d051 2abd 40ad e3bb 5843 4fbd 1847 3cbd
000000b0: e6b0 0ebe 16a6 963d 9e44 bf3d 7d01 15be
000000c0: da41 1ebe fff2 313e c2a7 bcbd 90fe cdbd
000000d0: a862 e23c 8e18 db3d dae3 9abd 2184 1d3e
000000e0: 40ad 95bb 40c0 31be a05d 9dbc 8e51 8c3d
000000f0: fd39 c5bd 0afb 26be 62a3 26be cafa 1cbe
00000100: 3062 583d 8b3c 0c3e 5855 9d3c c566 81bd
00000110: 91ba 073e 86d1 c93d 620e cb3d 6e31 c73d
00000120: 46a5 9f3d e8f4 f13c 48fb 483d 0bb3 04be
00000130: ee62 b43d eecf b83d 73e1 d2bd 200b 5c3d
00000140: f292 d93d 8cb5 8a3d 2a47 e83d 3097 653c
00000150: 9289 a33d c0e6 5d3b 0e25 c03d c1f0 12be
00000160: 37c0 febd d15f 143e 78ac 423d bb55 1a3e
00000170: 75ee 2dbe c963 a1bd 5b21 1e3e 8700 27be
00000180: 85b6 ffbd ac2d 49bd 3151 c9bd 76d9 b73d
00000190: 600a 25bd 3a63 fc3d b27c b73d 9a50 c63d
000001a0: 76b2 883d 4a43 cc3d 5ac7 1ebe e246 a43d
000001b0: 0ea3 e23d da7e fb3d b146 263e 9d4b 163e
000001c0: c8b4 50bd 42cc 14be 96b2 29be e56c a0bd
000001d0: 9317 283e 6f4a 24be 55c7 a5bd 4c27 c4bd
000001e0: 50e7 23be a88b 863c c827 e2bd b5c7 2ebe
000001f0: e2d4 c13d 20b6 30bd a448 6fbd 96c0 ffbd
00000200: b237 9c3d 6220 933d a480 72bd 6e1b b23d
00000210: 4a08 5abd c0b4 4ebb 4575 a8bd 5589 a0bd
00000220: 9b31 113e 3a0c b23d 1eea ac3d 0a0b a83d
00000230: 60fd eb3c 48c9 8e3c 87f8 073e dd39 e7bd
00000240: 5c52 f3bd 68c0 743d 081d c53c 8943 093e
00000250: 6bc8 e8bd 252e b4bd 8334 16be daef f83d
00000260: 80bc 97bc b205 1abe 9236 d6bd 40ea 2e3b
00000270: 5037 b2bc a42f 13bd 9a42 a4bd 991e 18be
00000280: cc37 45bd 0cd3 3bbd 8a4d 33be f97d bcbd
00000290: d70d 2cbe 00e4 283b b05a 0fbd ce2f fe3d
000002a0: 888c 50bd b08a 4c3c c824 83bc 484c d5bc
000002b0: d05e ff3c 8dbb 0e3e 657f e4bd afbd 18be
000002c0: 6e82 9a3d 804b 7c3b f33b 13be 7082 e9bc
000002d0: e08a 4ebd ac08 0dbd 13e6 233e 8047 3ebd
000002e0: 2fa2 2b3e 182f 23be e062 37bc 18e5 d4bc
000002f0: 16ea cd3d bd68 09be 4e60 56bd 828b d1bd
00000300: 6ea0 a13d 3023 7f3c db8e 0d3e 0d20 163e
00000310: f207 8b3d 1a88 a1bd 8685 d0bd 9b4f 17be
00000320: b0c6 50bd 2986 0f3e cf7d 2ebe 70fa 78bc
00000330: 67b0 053e d427 383d e079 acbc f718 a1bd
00000340: 2da7 1a3e 1afa f63d 6ac1 d33d 12a4 6bbd
00000350: 38cc e7bc 5a60 e63d 084a e2bc 4057 87bd
00000360: ec5a 18bd 089b 0ebe 6811 613d 6ebd 1ebe
00000370: e0e2 8cbb 5050 e7bc 84ad 8bbd b40f 2f3d
00000380: 606e 493c dfff 2c3e 80b4 e93a 12fa f9bd
00000390: e0b0 7c3c d669 a23d 134c cfbd 2c74 0a3d
000003a0: 7065 c1bc 0b9e 013e 8a0c f63d efac 153e
000003b0: 10b2 4a3c 2d39 0abe e08d b9bc afe0 c8bd
000003c0: c00b c73c 5a49 e83d a7c5 153e ac55 453d
000003d0: 93da d2bd d978 adbd eef1 20be 30d7 5e3c
000003e0: 484f 113d 606b 9f3b 0340 2a3e 7110 123e
000003f0: 5010 86bd f201 eebd fd17 8fbd 6fe6 b0bd
-0.08200299 -0.06978926 -0.029653698 0.13704537 0.048871383 0.043255642 -0.10824219 -0.15113202
-0.025894746 0.07518707 -0.13939884 -0.017225012 0.09470938 0.089804366 -0.032265306 -0.023795232
-0.1315721 -0.03002049 0.16188653 -0.06356609 -0.16958465 -0.09810094 -0.11358858 -0.15356103
0.14108999 -0.029044464 0.0034003258 0.161474 0.12760796 0.09834008 -0.12974639 -0.012777597
-0.022892505 0.06417562 -0.11535158 -0.08151837 0.06305581 -0.13088457 0.08529119 -0.07665296
-0.04158193 -0.0069481432 -0.050601333 -0.045966238 -0.13934669 0.07355897 0.093392596 -0.14551349
-0.15454808 0.17377852 -0.09211685 -0.100583196 0.027634934 0.10698043 -0.075629905 0.15382434
-0.004567772 -0.17358494 -0.019209683 0.06851493 -0.09630201 -0.16306701 -0.16273263 -0.15330043
0.052828014 0.1369497 0.019205734 -0.0631843 0.13254763 0.098544165 0.09914853 0.09726225
0.07795195 0.029535726 0.049067765 -0.12958924 0.08807932 0.090240344 -0.10296907 0.053721547
0.10623731 0.067729086 0.113416985 0.014013097 0.07985224 0.0033859462 0.093820676 -0.14349653
-0.12439006 0.14489676 0.04752776 0.15071766 -0.16985495 -0.07880361 0.15442412 -0.16308795
-0.12485985 -0.04911582 -0.09829939 0.08977024 -0.040293097 0.123236135 0.089593306 0.09683342
0.06674664 0.09973772 -0.15505734 0.08021332 0.110662565 0.122800544 0.16237904 0.14677282
-0.050953656 -0.14531043 -0.16572031 -0.0783327 0.16415243 -0.16044019 -0.0809466 -0.09577808
-0.16006207 0.016424015 -0.11042744 -0.1706837 0.09464432 -0.043142438 -0.058418885 -0.12487905
0.076278105 0.07183911 -0.059204713 0.08696638 -0.05323056 -0.003154084 -0.082254924 -0.07838694
0.14179079 0.08693738 0.08443092 0.082052305 0.028807342 0.017429963 0.132784 -0.112903334
-0.11880943 0.059753805 0.024061695 0.13404669 -0.11366352 -0.08797864 -0.14668469 0.12155123
-0.018522501 -0.15041235 -0.10459627 0.0026689917 -0.02175489 -0.035934106 -0.08020516 -0.14855422
-0.048148915 -0.045855567 -0.17510048 -0.09203715 -0.16802154 0.0025770664 -0.034998596 0.12411462
-0.05091527 0.012484238 -0.01600875 -0.02603735 0.03117314 0.13938732 -0.11157111 -0.14916109
0.07544409 0.003849715 -0.14378338 -0.02850458 -0.05042541 -0.0344321 0.16005735 -0.046454906
0.16761087 -0.15935934 -0.011193007 -0.025988147 0.10054414 -0.1341886 -0.052337937 -0.10231687
0.07891928 0.015572354 0.13824026 0.14660664 0.06788625 -0.078872874 -0.101817176 -0.14776461
-0.050970733 0.14016022 -0.1704018 -0.015196428 0.13055573 0.044959858 -0.021054208 -0.0786609
0.15102835 0.12059422 0.10339625 -0.057529517 -0.028295621 0.11248846 -0.027623191 -0.066084385
-0.037196085 -0.13926327 0.05494824 -0.15501949 -0.0042995065 -0.028236538 -0.06820205 0.042739585
0.012294382 0.16894482 0.0017830282 -0.122059 0.01542303 0.07930343 -0.10121932 0.033802196
-0.02360794 0.12657945 0.120141104 0.1461675 0.012371555 -0.13498373 -0.02265066 -0.0980848
0.024297595 0.11342116 0.1462618 0.048177406 -0.10295596 -0.084703155 -0.15717289 0.013601109
0.035476 0.004865095 0.16625981 0.14264084 -0.0654608 -0.11621465 -0.06986997 -0.08637702

lstm.weight_hh_l0 f4 [128, 32]
00000000: 1238 9d3d 28be 403d a0b8 493c 4a49 c03d
00000010: 2d09 31be 602d 88bc 84ae 14be 3bd8 2a3e
00000020: b8bc 733d fa70 29be 9aba ba3d ec67 19be
00000030: 4055 193c 3669 e93d 20cc 0b3d db82 0a3e
00000040: 8bbb 2b3e f84a 0f3d 65b5 1cbe e0ec 693c
00000050: b9a7 263e e8ac 0fbd c63a a63d ca9b a3bd
00000060: 82bd b33d 6017 0dbd f8f5 843c cd00 e4bd
00000070: 06ad c83d 6076 ff3c aeab b03d 389b c83c
00000080: 77c4 143e 70f6 7fbd 00d1 cabc caac 26be
00000090: 60f1 853b 5afd 27be b8e1 a7bd 08c1 0c3d
000000a0: 289a 37bd 5eb6 ef3d d0b2 2bbe ce62 aa3d
000000b0: 264f f43d 9ecd 9e3d b655 d73d 8873 96bc
000000c0: d560 84bd 965f 853d fb0f 283e c002 2cbc
000000d0: a05e 783c 3230 9f3d af8f 30be fe63 eb3d
000000e0: 8025 07bc e672 a03d 7077 8fbc 8447 c8bd
000000f0: 8016 06bc bf5e 063e 5a16 dc3d f6c6 fa3d
00000100: 33ab e5bd c490 2f3d d030 febc d3a7 1dbe
00000110: 90ea 123d 81df 9dbd 3995 133e b435 10be
00000120: 5801 8fbc 48b9 49bd c7f4 07be 789b 833c
00000130: d0b3 093c 3a95 9c3d ac8b 6c3d a4ec 01be
00000140: b026 073d e04f 4fbd 8d47 b5bd 76cf 01be
00000150: a6a2 843d ec37 babd c2de 993d 20d3 803b
00000160: d044 a2bc 100b 273d c6c3 e53d 00a7 21bb
00000170: 318c 12be 9215 31be 0181 0c3e 4d92 073e
00000180: c263 17be 7ef6 c73d a388 223e c55f aabd
00000190: 2220 10be 6393 163e 503d 7a3d 24c0 ffbd
000001a0: 0002 b83c 1225 8f3d 3006 0ebd 0092 c93c
000001b0: e3d0 30be b51e 023e 5a4e eb3d e6be b03d
000001c0: 22c8 f93d 5763 103e 5022 8dbc 84ab 10bd
000001d0: de50 b23d 35a8 133e 3da4 95bd ff34 213e
000001e0: 46d3 19be 70e5 8f3d 8f8a 9ebd 7860 58bd
000001f0: 9ec1 25be ffb9 08be 0007 a63b b101 2cbe
00000200: 9091 33bc f0c6 68bd 801b 8a3a 1ab7 e73d
00000210: 40c2 8bbb 7f85 03be 7c7b 7b3d 20cd 83bd
00000220: 9ec0 cb3d df7d 283e a8a5 a33c d0b7 41bd
00000230: 006e 56bc c010 92bb dbb8 30be 5275 e13d
00000240: 6977 03be 6c4d 79bd e01b 443d 6f5b 22be
00000250: 6ce5 503d d6b9 b63d 7cc7 dabd b78c 8dbd
00000260: 9d82 343e 1c15 593d 08b6 983c 407b efbc
00000270: 809b 053b b003 1cbd d74c 9cbd 4076 303d
00000280: 9c94 0d3d 45a4 143e b2a0 cbbd aaec cdbd
00000290: f104 02be d635 b8bd 98de b1bd 5158 1ebe
000002a0: 008d af3a 40c2 c7bd b429 2c3d a7ae 30be
000002b0: fd95 efbd f02c efbc 82ae eb3d d342 c3bd
000002c0: bf5b 183e b4f7 853d 0043 e7bc 76c0 fe3d
000002d0: a41e e5bd 1c23 32bd ab39 d1bd c025 d03c
000002e0: 0297 68bd 9cc8 8dbd dc13 043d 8c90 89bd
000002f0: 3058 2fbe 1efa fd3d 148e 4abd 5269 c53d
00000300: cab5 a03d d6ab 8d3d a441 4c3d 8807 f0bc
00000310: 7c6a 203d c441 dabd 1030 473c 886f 38bd
00000320: b8bd 933c 00a1 ab3c e9ba fcbd c05e 50bb
00000330: a0e2 babb 3039 753c 09a1 99bd bc99 8c3d
00000340: 500e a3bd c301 8ebd a86b 02bd e00b 64bc
00000350: bf53 1f3e 484a 803c 4322 26be 11ec 8cbd
00000360: 20f9 b2bb 0c5c 713d 009b 673c c030 743b
00000370: 49d5 1b3e bc1f 163d 6086 8e3b 2605 993d
00000380: 20f0 5d3d ec41 c7bd 264e 8a3d d59e 233e
00000390: a188 2abe e89e 813d 0452 073d 344c 05be
000003a0: 653d 2ebe 0029 7e3d 00a5 d3bc 9427 533d
000003b0: dff7 203e 4df8 213e 92ec d7bd e562 8bbd
000003c0: 88dc 89bc 9c39 a8bd b851 00be d0ab 73bc
000003d0: 6081 7cbc 9533 d3bd d2d6 9a3d e0ca 42bc
000003e0: 2034 d1bd 6643 863d f2db c73d 4014 0cbb
000003f0: 0246 f23d 60dc 9d3c 9c92 09be 5092 dc3c
0.0767671 0.047056347 0.012312084 0.09388979 -0.17288657 -0.016623199 -0.14519697 0.16684048
0.059506148 -0.16547003 0.09117623 -0.1498105 0.009358704 0.113970205 0.034130216 0.1352648
0.1677076 0.034983605 -0.15303572 0.014277667 0.16274919 -0.035077006 0.08116679 -0.07988699
0.0877638 -0.03444612 0.016230568 -0.11132965 0.097986266 0.031184375 0.08626495 0.024488077
0.1452807 -0.06249088 -0.024757862 -0.16276851 0.004087612 -0.1640524 -0.08197349 0.034363776
-0.04482475 0.11704706 -0.1676743 0.08319627 0.11929159 0.07754062 0.10514395 -0.018365636
-0.06463782 0.06512372 0.16412346 -0.0104987025 0.015159279 0.077728644 -0.17242311 0.11493681
-0.008248687 0.07834415 -0.017513007 -0.097792655 -0.008184075 0.1312208 0.10746451 0.1224498
-0.11214294 0.04286267 -0.031029135 -0.15396051 0.035868227 -0.077086456 0.14412393 -0.14082986
-0.017456695 -0.049248964 -0.13276969 0.016065344 0.008404687 0.0764565 0.05775039 -0.12687927
0.03299588 -0.050613284 -0.08851538 -0.12676796 0.06476335 -0.090926975 0.07513191 0.003931418
-0.019808203 0.040782034 0.112189814 -0.002466619 -0.14311291 -0.17293385 0.13721086 0.13239403
-0.14784148 0.097638115 0.15872435 -0.08319048 -0.14074758 0.14704661 0.06109363 -0.1248782
0.022461891 0.069894925 -0.03467387 0.024605751 -0.17267184 0.12707026 0.11489554 0.08630161
0.121963754 0.14100395 -0.017228276 -0.03531982 0.087068304 0.14419635 -0.073067166 0.15742873
-0.15022 0.070261836 -0.07741272 -0.052826375 -0.1618714 -0.13352202 0.0050667524 -0.1679752
-0.010959998 -0.056830347 0.001053676 0.11314221 -0.0042650998 -0.12843893 0.06139706 -0.06435609
0.09948848 0.16454266 0.019976452 -0.047294438 -0.0130877495 -0.004457563 -0.17258017 0.11008705
-0.1283852 -0.06086485 0.047878146 -0.15855192 0.051000044 0.08922164 -0.1068258 -0.06911605
0.1762795 0.052998647 0.018641487 -0.029233575 0.0020386875 -0.038089454 -0.076318435 0.043081522
0.034565553 0.14515789 -0.099427596 -0.10054906 -0.12697197 -0.089946434 -0.086850345 -0.15463378
0.0013393462 -0.09753847 0.04203196 -0.17254125 -0.1169853 -0.029196233 0.11507894 -0.0953423
0.14878748 0.06541386 -0.02823019 0.12439053 -0.11187485 -0.043490514 -0.102160774 0.025408626
-0.056784637 -0.06923029 0.032245502 -0.06717023 -0.17123485 0.12401222 -0.049451903 0.09639229
0.078471735 0.06917541 0.049867287 -0.029300466 0.03916405 -0.10657075 0.012157455 -0.04502824
0.0180348 0.020950794 -0.12340338 -0.0031794757 -0.0057032853 0.014967248 -0.07501418 0.0686526
-0.07961714 -0.0693393 -0.03184095 -0.013918847 0.1555929 0.01566042 -0.16224007 -0.068809636
-0.005461827 0.058925673 0.014136076 0.0037260503 0.1521808 0.036651358 0.004349515 0.07471685
0.05418408 -0.097293705 0.06753187 0.15978558 -0.16653682 0.06329137 0.0330372 -0.1301735
-0.17015608 0.06205082 -0.025835514 0.051551417 0.15719555 0.15817375 -0.10543169 -0.06805972
-0.01682879 -0.08214113 -0.12531173 -0.014872506 -0.015411705 -0.10312573 0.07560505 -0.0118891895
-0.1021502 0.06555824 0.09758748 -0.0021374375 0.11829759 0.019270122 -0.13434833 0.026925236

lstm.bias_ih_l0 f4 [128]
00000000: 0e63 d8bd 50ff 94bc 2aaf 0abe 644d 03be
00000010: c557 1f3e 2465 2b3d 3acf e23d 9204 19be
00000020: 0a2a f13d 1011 29be f234 823d 2680 e53d
00000030: c47f 29be 68e3 09bd 4f17 343e c8d2 81bc
00000040: 69bb 20be bcf6 0ebd cea9 d13d dca5 1dbe
00000050: eddc 30be be3d ebbd d111 abbd e0f1 043c
00000060: c294 853d a4aa 373d f089 bebc 946c 10bd
00000070: 48a0 1cbe bec4 61bd 2eac f8bd c626 d73d
00000080: aa00 df3d cca3 4cbd 90e8 1a3c 70bc 53bc
00000090: a091 a3bb 0d6a 233e 7423 05bd 75ca 073e
000000a0: da4d c83d 8a82 f53d 5c1c 3b3d f349 13be
000000b0: 0241 9e3d 7bcc 10be 950b 2ebe c258 ed3d
000000c0: 4830 4abd 28a9 203d 1f06 023e a8d7 9c3c
000000d0: d819 12bd fe8c be3d 18bc 99bd 4c54 3f3d
000000e0: 8da2 283e e9d8 1c3e 4657 27be 04d6 16bd
000000f0: 51bc 2c3e cd99 b8bd 0004 3eb9 d80d 09be
00000100: ee1c 08be 80e1 bebc f6ae d43d 3a7c 873d
00000110: 4897 803c 766b fc3d 28d7 bcbc 6088 d83b
00000120: fcd8 f4bd 10de dfbc 6742 2e3e ead2 60bd
00000130: adac 013e baad a13d 083c 653d 52c5 ebbd
00000140: 2a4e b93d 8831 bdbc eac3 863d 1e62 d13d
00000150: c51f e4bd 5bff 03be c61b 9ebd 164d cf3d
00000160: 1c57 4a3d 00c4 cc3c e610 0cbe cee4 a53d
00000170: 7030 5f3c 323a bc3d bc5e 843d ba4a 1fbe
00000180: 5041 46bc d40a 873d 0c6e 2c3d 8019 64bb
00000190: cc66 febd e08f 4cbc d8cb 523d a598 253e
000001a0: d06a 413c 7a0f f5bd 4ccc 8f3d e012 f7bd
000001b0: 1002 4abc 7931 153e 612a 2bbe 8e7c dabd
000001c0: 399a 2abe c069 68bb e25f 88bd 091f 0a3e
000001d0: 6c46 6d3d 80d5 bcbb 9460 583d 68bc ab3c
000001e0: 10a2 e43c ccbd 1bbd 0c59 283d 8dde b9bd
000001f0: 881d cbbc a03c 2a3d 7f82 1b3e 8018 71bd
-0.10565768 -0.018188149 -0.13543382 -0.12822491 0.15560825 0.041844502 0.110746816 -0.1494315
0.117755964 -0.16510415 0.06357755 0.11206083 -0.16552645 -0.033664137 0.17587017 -0.015847579
-0.15696491 -0.034903273 0.10237466 -0.15395302 -0.17271776 -0.11486386 -0.083530076 0.008114308
0.06522514 0.04484047 -0.023259133 -0.0352598 -0.15295517 -0.05511927 -0.12142216 0.10505442
0.108887985 -0.049960896 0.009454861 -0.012923345 -0.004991725 0.15958424 -0.032504514 0.13260825
0.09780474 0.11987789 0.045681342 -0.14383678 0.07727243 -0.14140503 -0.16996606 0.11589195
-0.04936245 0.03922382 0.12697648 0.019145802 -0.035669178 0.09304236 -0.07506579 0.04671125
0.16468258 0.1531712 -0.16341886 -0.036825195 0.16868712 -0.0901371 -0.00018121302 -0.13384187
-0.13292286 -0.023300886 0.10384934 0.06615491 0.015697137 0.12325184 -0.023051813 0.006608054
-0.11955449 -0.027327567 0.17017518 -0.054888643 0.12663527 0.07894464 0.055965453 -0.11512245
0.09048112 -0.023094907 0.065803364 0.102237925 -0.11138872 -0.12890379 -0.07720141 0.10122125
0.04939948 0.024995804 -0.13678321 0.08100282 0.013622388 0.091907874 0.06463382 -0.1555585
-0.012100533 0.06593862 0.042097136 -0.0034805238 -0.12421951 -0.012485474 0.05146393 0.1617151
0.011805251 -0.119658425 0.070213884 -0.12064147 -0.012329593 0.14569654 -0.16715385 -0.10668288
-0.16660394 -0.0035463423 -0.06658913 0.13488401 0.057928488 -0.005762756 0.05282648 0.020963863
0.027909309 -0.0380228 0.041100547 -0.09075651 -0.024794355 0.041561723 0.15186499 -0.058861256

lstm.bias_hh_l0 f4 [128]
00000000: fc55 1c3d c2f6 ed3d 3ea1 01be e073 a83c
00000010: 4a9c 02be fc90 b6bd 13b3 9abd d846 aabd
00000020: 90f7 05bd b8b5 76bd 58e3 b5bd 8433 433d
00000030: 1e52 06be 0e31 8fbd 330d 83bd beb7 0cbe
00000040: 5df6 053e 5a3d a6bd 809d d1bb 7864 89bc
00000050: 1fa8 1b3e d7f4 c5bd e0aa 51bc bad7 da3d
00000060: 55e2 113e 28a3 cfbc 2605 de3d 9789 febd
00000070: e0bb 95bb 08fc 8e3d 195e 113e a45b 7c3d
00000080: 4ece 96bd f1ce 2c3e 38bb 833c ce9e debd
00000090: a768 bbbd e91f e9bd 8516 1f3e 1530 1ebe
000000a0: d5fd 263e 9081 45bc 035c 0ebe 4c8e 9bbd
000000b0: 16b9 e63d 867c 11be 4c98 34be f670 873d
000000c0: 2c14 5a3d e029 70bc 5e46 b03d 0036 f23b
000000d0: 80e5 41bb 5336 0f3e a9d6 33be 80f7 fdbc
000000e0: d269 dd3d ae63 34be 3017 6a3d eb26 b8bd
000000f0: 568e 1dbe 7f06 e1bd 583c 28bd 7079 c4bc
00000100: 5b96 053e 5319 1d3e 2e37 db3d 30f5 5a3d
00000110: 0a42 c03d 4580 e6bd c23c 86bd 3331 27be
00000120: 7cff 8bbd e06b 73bc 89bd 123e a8f9 cdbc
00000130: 0b25 0a3e 58b1 58bd 204c 2bbc 786b a6bd
00000140: faeb a43d 18c8 573d 6df7 043e 356a 28be
00000150: bd44 1cbe 0052 a73c 316c 34be 0f0f 2e3e
00000160: 98b2 423d bd06 0f3e 3661 f63d 46f7 90bd
00000170: 808d 323c 1814 85bd 046b 073d 8e2d fcbd
00000180: cff5 0c3e 6443 48bd 6034 cc3b f9f7 dbbd
00000190: f8bb 2ebd 12cb dd3d 3bb9 13be baa0 d43d
000001a0: afd5 aebd 6251 ef3d 2a68 c73d 7844 2bbd
000001b0: 483b 223d 02cb 2cbe 9046 843c 7ca4 4cbd
000001c0: ff7a c5bd fb81 1dbe 00b8 d53b 4d2f 2f3e
000001d0: 487a 00be f8d9 2c3d 8692 60bd b345 1c3e
000001e0: 1d9c 9cbd bec1 813d 8894 82bc 16a5 f2bd
000001f0: 5d0c 113e 2620 b33d 700a 59bc 8059 093c
0.03816794 0.11619331 -0.12659165 0.020563066 -0.12754932 -0.08914372 -0.07553687 -0.083142936
-0.032706797 -0.060231894 -0.08881253 0.04765655 -0.13117263 -0.06991778 -0.06399002 -0.13741967
0.13082261 -0.08117171 -0.0063969493 -0.01677154 0.15200852 -0.0966584 -0.012797087 0.10685678
0.14246495 -0.025346354 0.10840826 -0.12428587 -0.0045695156 0.06981665 0.14196052 0.061610833
-0.07363568 0.16875817 0.016080484 -0.10870133 -0.0915082 -0.113830395 0.15535934 -0.1544803
0.16307767 -0.012054816 -0.13902287 -0.075955 0.11265771 -0.14207658 -0.17636222 0.066133425
0.053241894 -0.014658421 0.086071715 0.007391691 -0.0029586256 0.13985567 -0.17562355 -0.031001806
0.10811199 -0.1761615 0.05715102 -0.08991798 -0.15386328 -0.10987567 -0.041073173 -0.023983687
0.13045637 0.15341692 0.10703884 0.053456485 0.09387596 -0.11254934 -0.065545574 -0.16327362
-0.06835839 -0.014857262 0.14330114 -0.02514346 0.13490693 -0.052903503 -0.010455161 -0.08125967
0.080528215 0.05268106 0.1298501 -0.16446765 -0.15260597 0.020424843 -0.17619397 0.16997932
0.0475336 0.13967414 0.1203026 -0.07078414 0.010897994 -0.06497973 0.033061042 -0.12313376
0.13765644 -0.048892394 0.0062318295 -0.107406564 -0.04265973 0.10829748 -0.14426129 0.10382219
-0.08536851 0.116854444 0.097366646 -0.041813344 0.039607316 -0.16874316 0.016146928 -0.049961552
-0.096426 -0.15381615 0.0065221786 0.17107888 -0.12546647 0.04220006 -0.054827236 0.15260963
-0.07646964 0.063357815 -0.015939966 -0.11847894 0.14164872 0.08746366 -0.013247117 0.008383155

lstm.weight_ih_l1 f4 [128, 32]
00000000: 7012 ed3c b80a 8b3d 8c81 123d 543d 73bd
00000010: 63ee 0abe 7890 20bd 1654 16be 3018 70bc
00000020: ffc7 173e 0839 a2bd a0ca 2abd c46d 32be
00000030: 486b 95bc 4433 1dbe c0ec 09be 1203 bb3d
00000040: 0478 16bd 86f1 ae3d 8fe0 123e 13b8 0f3e
00000050: c217 edbd 8dbe cfbd 8ecf 10be 882a 50bd
00000060: a006 c7bc 59b5 00be 7a06 fabd cba8 183e
00000070: f8b6 cf3c 80e8 dabd fc08 7a3d 4f3f 0fbe
00000080: 006f c63c 00cc f1ba 04f2 2abe 4208 a13d
00000090: b9d2 1abe 31dd 313e fe0c 9b3d 6849 283d
000000a0: c2b9 cc3d 962e a43d 07b5 013e dade a23d
000000b0: 1ce4 5abd b609 d63d 3e40 9c3d 63f5 1ebe
000000c0: 0ca4 79bd b85e 34bd f30d bcbd d2d7 1bbe
000000d0: 96fc f03d c096 63bb 8e4b 10be 8ae9 c13d
000000e0: 5e1b 7fbd 6ee1 29be 55b3 17be 8cc2 923d
000000f0: 3caa 38bd b0fd 8e3c 1eee dc3d 5571 2bbe
00000100: 1e3f a43d 5022 36bd fc4d 743d c06b 11bd
00000110: ce70 19be 5a9d a33d 326b c43d 76f1 a63d
00000120: c369 b6bd 5306 99bd b409 633d 0091 913a
00000130: c0ce 123c 300f 14be f821 f3bd bcff 18bd
00000140: 773f 04be ea37 62bd 20f1 a6bb 7454 1cbe
00000150: 4055 af3b a0c5 febb 802c a2ba dc43 33be
00000160: 6ef9 813d f735 2c3e 5e0b a63d 388a 513d
00000170: 582d f6bc 5834 37bd f602 8b3d 30cc a9bc
00000180: 1300 2d3e aade f03d 5862 fc3c 6efb bf3d
00000190: dc3b 073d b052 c8bd 5acb d8bd 58ec 073d
000001a0: 52d0 f73d 6f9e 87bd fe8d e63d 00bd 353d
000001b0: 6e98 84bd 7030 26be 94c4 453d 7a0c de3d
000001c0: 6b19 083e 2f42 aebd 7030 6a3d e857 45bd
000001d0: 48a3 95bc 60d2 3f3c 844c cdbd 6876 963c
000001e0: 8c21 05bd e70c 34be f82c 5c3d c093 033c
000001f0: 96e5 903d 9bfd 1bbe bd07 d6bd c019 99bb
00000200: 3c76 fcbd 16fc b73d 0849 40bd b217 1abe
00000210: a6c9 d73d 9ea8 a83d 8693 95bd 8381 0e3e
00000220: b42a 0dbe 404b 3c3d 1ee5 20be e823 693d
00000230: 7a79 e13d b801 c5bc c92d 1f3e 2019 7f3c
00000240: 8c4b 203d abb8 343e 8008 9c3c 70a4 bc3c
00000250: 0257 9f3d 7081 7e3c 50b3 16bc 9b5d 243e
00000260: d9cc 243e 9135 203e 404a 2b3d 5e7d f33d
00000270: d69f 873d abd9 97bd 4ab0 f83d b2f2 e43d
00000280: e28a e53d 4036 91bd 6617 68bd 29df 2e3e
00000290: 9367 8ebd 0195 103e 2265 9e3d 4a3f 953d
000002a0: 18de 363d 303b 0abd 60e3 ccbb 7f08 313e
000002b0: b7ba 173e 1ff3 2cbe 3403 253d 88ed 10bd
000002c0: 7c3b 083d b846 a93c 3516 c6bd 40e8 f5bb
000002d0: 7712 093e b44e 24bd 9d0d a4bd 1e87 c23d
000002e0: baa8 ff3d bf63 89bd 46dc 8dbd dddb 1cbe
000002f0: 3c60 42bd 4096 22be 0646 de3d 3bac f5bd
00000300: ad34 143e b638 72bd c191 2f3e 6fcf 9abd
00000310: 7860 923c a475 4cbd de9a 9ebd 9bfd 113e
00000320: 53da 133e 2068 3cbc e1ce b2bd d2f2 02be
00000330: 3afe e03d 3ec8 d63d 99a7 1c3e 00aa 37bb
00000340: 809e 34bb f6f9 f0bd 26e7 c63d 38ae b23c
00000350: c016 683d 58c5 b13c a8f9 d33c 6675 e73d
00000360: f77b 29be 085a d83c 2559 323e 8560 2e3e
00000370: 980f 2dbd 583a 9cbc f440 11be 4545 b6bd
00000380: 90d2 ddbc 8439 353d 80a3 c83a 88f8 283d
00000390: 2f94 063e 65cb 123e 44ec 453d c228 b63d
000003a0: f458 4f3d aa48 9e3d 0a3f 98bd 0306 023e
000003b0: ac4c 24bd 9fa8 9abd 6847 9bbc e065 f9bb
000003c0: b082 193c 600d 74bc 5488 11bd c563 173e
000003d0: 4059 493d a484 2bbd 8d68 093e 9ce8 c7bd
000003e0: 6fe1 213e 8ed6 fe3d b0e7 08be 20ef 20bc
000003f0: 8caa 7b3d e022 633d a34b 2a3e 2420 d0bd
0.028939456 0.06789154 0.035768077 -0.05938466 -0.135675 -0.039200276 -0.14680514 -0.014654204
0.14822386 -0.07921034 -0.041697145 -0.17424685 -0.018239632 -0.15351588 -0.13469219 0.09131445
-0.03673555 0.08542161 0.14343475 0.14035062 -0.11576797 -0.101437666 -0.14141676 -0.05082181
-0.024295151 -0.12569179 -0.122082666 0.1490814 0.025355801 -0.10688877 0.061043724 -0.13988994
0.02422285 -0.0018447638 -0.16693884 0.07862903 -0.15119447 0.17369534 0.075708374 0.04108563
0.09996368 0.08016698 0.12666713 0.07952662 -0.0534402 0.10451071 0.07629441 -0.15523295
-0.060947463 -0.044035643 -0.09182348 -0.15219048 0.11766927 -0.0034727305 -0.14091322 0.09468372
-0.06228196 -0.16589901 -0.14814503 0.07166013 -0.045084223 0.017454952 0.10787605 -0.16742451
0.08019851 -0.044466317 0.059644684 -0.03550315 -0.14984438 0.07988997 0.095907584 0.08151524
-0.08906891 -0.074719094 0.055429175 0.0011105835 0.008960426 -0.14458919 -0.118717134 -0.037353262
-0.12914835 -0.055229105 -0.0050946623 -0.15266591 0.0053507388 -0.0077750236 -0.0012372881 -0.17506355
0.06346403 0.16817461 0.08107637 0.051157206 -0.030050918 -0.044727653 0.06787674 -0.020727247
0.1689456 0.1176122 0.030808613 0.09374128 0.03301607 -0.097813964 -0.10585661 0.03318438
0.12100281 -0.06622016 0.112575516 0.044369698 -0.06474386 -0.16229415 0.048283175 0.108422235
0.13290946 -0.08508717 0.0571751 -0.048179537 -0.018266335 0.011707872 -0.1002436 0.018367007
-0.032502696 -0.17583047 0.053753823 0.008030832 0.0707504 -0.15233462 -0.10450695 -0.004672259
-0.12327239 0.089836285 -0.046944648 -0.15048102 0.10536508 0.08235286 -0.073035285 0.13916592
-0.13785821 0.0459702 -0.15712401 0.05691901 0.11009498 -0.024048671 0.1554481 0.015569955
0.039134547 0.1764857 0.019047022 0.023027629 0.07780267 0.01553379 -0.009198025 0.16051333
0.16093768 0.15645434 0.041818857 0.11889146 0.06622283 -0.07414564 0.121429995 0.11179103
0.112081304 -0.070904255 -0.05666294 0.17077316 -0.06953349 0.1411934 0.07734133 0.07287462
0.0446454 -0.03374785 -0.006252691 0.17288397 0.1481732 -0.16889618 0.040286258 -0.035382777
0.033259854 0.020663604 -0.096722044 -0.007504493 0.1338595 -0.04011412 -0.08010409 0.09498428
0.12483354 -0.06708478 -0.069267794 -0.15318246 -0.047455058 -0.15877628 0.108532 -0.11995741
0.14473219 -0.059136115 0.17145444 -0.07559096 0.017868266 -0.04991688 -0.07744382 0.14256899
0.14438753 -0.011499435 -0.08730865 -0.12787941 0.1098599 0.10487412 0.15298308 -0.0028024912
-0.0027560294 -0.11766426 0.09712057 0.02181159 0.05666232 0.021700546 0.025875881 0.11301689
-0.16551195 0.026410118 0.17416818 0.17029007 -0.0422512 -0.01907079 -0.14184934 -0.08899931
-0.027077943 0.044244304 0.0015307516 0.041252643 0.13142465 0.14335401 0.048321024 0.08894493
0.05062194 0.07728703 -0.07433899 0.12697606 -0.040112182 -0.07551693 -0.018954948 -0.0076110214
0.009369537 -0.014895767 -0.035530403 0.14784153 0.04915738 -0.041874543 0.13418789 -0.097611636
0.15808652 0.12443267 -0.13369632 -0.009822637 0.061441943 0.05545318 0.16630416 -0.1016238

lstm.weight_hh_l1 f4 [128, 32]
00000000: 9446 6d3d 46e1 a53d 3c17 41bd 9892 823d
00000010: d452 1dbe da69 b6bd ccbd 12be d741 213e
00000020: 6de0 083e 48cc 873c f074 2c3d 6489 f2bd
00000030: 2097 5d3d 135a 02be 28ec 333d 0b18 8fbd
00000040: aa7a f6bd 48b2 67bd a233 a33d 6715 103e
00000050: dabe bd3d 0b81 8ebd dc08 853d c44a 91bd
00000060: f099 8d3d 601c f8bd a611 b23d c4a8 623d
00000070: 002c a6b9 48d4 1c3d d8c3 05be 59d1 13be
00000080: 6831 8d3c 846d 17bd 681d 20be 9a22 af3d
00000090: 2e1e 833d d04c 6e3d 7269 dc3d e268 f33d
000000a0: b0c9 eebd 5404 103d 5222 de3d b3cf b1bd
000000b0: a484 5cbd d276 b93d 90f2 623d 835f 1e3e
000000c0: c9c5 e2bd cfa4 213e 5f9d f5bd c02e cd3c
000000d0: 35c9 f8bd 2aa5 c43d 36c9 e53d 4f56 00be
000000e0: 1480 913d ab54 073e 4e4c f73d a61c e5bd
000000f0: 0893 d9bc 7b52 143e 61c7 d5bd 6683 a13d
00000100: cf25 1c3e 8011 7a3b c1e3 c2bd 089f f8bd
00000110: e7f4 1e3e d01e 413d d661 be3d f8af 763d
00000120: ff15 2e3e ec32 25be ac73 31be 650e 153e
00000130: 6039 9d3b 0074 c73c 61e4 f7bd 6021 a93b
00000140: 0afd dc3d c885 c3bc 522b cebd e019 5fbd
00000150: 6e4c 2bbe 8002 a1ba 2131 fdbd 8832 e6bd
00000160: 4080 c13b 7969 063e 2200 be3d 3781 033e
00000170: a013 a9bb 9f1c 023e b3f4 2e3e cd54 103e
00000180: 61d8 d6bd 877c 013e 55b4 85bd 4211 f73d
00000190: 294b c0bd bfb5 1c3e 4a74 b43d fc8e 153d
000001a0: 2ccb 813d 00a4 04be 412a 253e f4b6 11be
000001b0: d8ad 15be f3cb dcbd e2a8 22be a21a aa3d
000001c0: 2290 ad3d 2df7 043e 1567 22be b366 ebbd
000001d0: 4820 80bc 52a3 74bd 88b8 3d3d a5d8 b0bd
000001e0: 5c2e 08bd bf4c 063e 6824 6a3d 5de2 273e
000001f0: 2893 953c b0c1 0dbe fe91 b93d b7ef 173e
00000200: 7879 06be 80ef b3bd 8031 423c 4879 e3bc
00000210: e349 273e 4100 2e3e f69c ee3d 44f5 07be
00000220: f5b1 c4bd 535b 223e c235 bf3d 804d 283b
00000230: 05a3 9cbd 684c 743d 1682 9a3d f23c efbd
00000240: 6366 b5bd b2a9 9a3d 108a 283c 3ab2 ee3d
00000250: a973 d8bd 5057 fe3c 8943 333e 8666 c03d
00000260: 2eb1 bf3d b675 823d 30ec 2abc 53a8 333e
00000270: dc08 183d 5832 1abe 13dc 0d3e ba56 b8bd
00000280: b958 1d3e e00c ea3b afe1 033e 8059 6b3d
00000290: f0e7 0ebc c0d6 103d 5828 5c3d 7ed8 c93d
000002a0: 34ec 2f3d fa9e c73d d0d8 35bd 3c9e 2fbe
000002b0: a322 0bbe 6baa 283e 98d6 f6bd 24d1 573d
000002c0: f638 ec3d 7869 8fbc 4e1c c93d 77b4 96bd
000002d0: 1bbb 193e 4620 d73d cc9c 7d3d 126f cb3d
000002e0: 04e6 10be f03c 3abd a0dc e03c 036f 203e
000002f0: 5c54 263d 8fd3 2bbe 94ff 16be 0f5d e6bd
00000300: 6350 d7bd 00b4 5039 7d91 2cbe 237f 2e3e
00000310: a125 1abe 020a d7bd 2c91 2fbd 22bc c73d
00000320: 7b12 30be 009c 2039 1634 9c3d 4825 c43c
00000330: abd2 8ebd c7c8 243e e6ab df3d 7783 143e
00000340: f06d 2ebe 6000 02bd 350a c2bd c015 4fbc
00000350: e85e 1b3d eadd a13d 8450 223d 006c 2cbc
00000360: 7671 af3d b84f 7b3d 6923 333e fa6e 06be
00000370: e66d fb3d ce3b d83d 524c a63d cebd 843d
00000380: 5978 9abd 4a5c ba3d 40db d4bc 2a24 d13d
00000390: c82c 8fbd 00fa 32be f473 08bd e8ee 833c
000003a0: 7eb6 a03d 6d03 d0bd 3076 0ebd d10e 143e
000003b0: a027 a9bb 4377 b4bd 1631 993d 82a2 e63d
000003c0: 8056 f9bb 6034 2fbc c007 303c fc36 123d
000003d0: 1a51 d93d 5895 553d b05b 8a3d 80bc 80bd
000003e0: b8b7 10be 40d9 333d 30dc 0d3d 73c7 b7bd
000003f0: 0ae1 cb3d 27f1 28be 9876 953c a052 5abc
0.057928637 0.08099608 -0.0471413 0.06375617 -0.15363628 -0.08906908 -0.14330214 0.15747772
0.13366862 0.016576901 0.042103708 -0.118426114 0.054099202 -0.12729673 0.043926388 -0.06987008
-0.12035115 -0.056566507 0.079688326 0.14070664 0.09264918 -0.06958207 0.064958304 -0.070943385
0.06914127 -0.12114787 0.086947724 0.05533673 -0.0003169477 0.038288385 -0.1306299 -0.14435329
0.017235473 -0.036969677 -0.15636218 0.085515216 0.06402241 0.058178723 0.107622996 0.11885239
-0.116595626 0.035160378 0.1084639 -0.086821936 -0.053837433 0.09055866 0.055407107 0.15466122
-0.11072881 0.15785526 -0.11992907 0.025046706 -0.12147752 0.09601815 0.112200186 -0.12532924
0.07104507 0.13215892 0.12075101 -0.11187105 -0.026559368 0.14484589 -0.10438419 0.078863904
0.15248798 0.0038157403 -0.09516097 -0.12139708 0.1552311 0.047148526 0.092960045 0.06022641
0.17000578 -0.16132706 -0.17329282 0.14556272 0.0047980994 0.024347305 -0.12104107 0.0051614493
0.10790451 -0.023867503 -0.100668564 -0.054468036 -0.16728374 -0.001228407 -0.12362886 -0.11240107
0.005905181 0.13126172 0.09277369 0.1284226 -0.00515981 0.1270623 0.17085533 0.14094849
-0.1049049 0.1264516 -0.06528536 0.120638385 -0.09389336 0.15303706 0.08811243 0.036513314
0.0633758 -0.12953186 0.161294 -0.14229947 -0.14617097 -0.10781088 -0.15884736 0.08305861
0.08474757 0.12984915 -0.15859635 -0.11494198 -0.015640393 -0.059726067 0.04631856 -0.08635072
-0.033247337 0.13115214 0.057163626 0.16394944 0.018258646 -0.13843417 0.09061049 0.14837538
-0.13132274 -0.087859154 0.011852622 -0.027767792 0.1633678 0.16992284 0.11651032 -0.13277155
-0.09604255 0.1585515 0.09336425 0.002568096 -0.07648281 0.05964318 0.07544343 -0.11681546
-0.08857419 0.07551898 0.010286823 0.11655088 -0.105689354 0.031047493 0.17506231 0.09394555
0.09359966 0.06370108 -0.010432288 0.1754468 0.037117824 -0.15058267 0.13853483 -0.09000917
0.15365876 0.007142648 0.1287906 0.0574584 -0.00872229 0.03536105 0.053749412 0.09855746
0.04294987 0.09747119 -0.04439622 -0.17150205 -0.13587432 0.1647126 -0.12052649 0.052689686
0.11534302 -0.017506346 0.09819852 -0.0735864 0.15012781 0.105042025 0.06191711 0.09933294
-0.14150244 -0.04546827 0.027448952 0.15667348 0.040607795 -0.16779922 -0.14745933 -0.11248218
-0.105133794 0.00019903481 -0.16852374 0.17040686 -0.15053417 -0.10499956 -0.042863056 0.0975268
-0.1719455 0.00015316904 0.07627122 0.023943558 -0.069737755 0.16092215 0.10921459 0.14503275
-0.17034125 -0.03173864 -0.09474603 -0.012639463 0.037932307 0.07903655 0.039627567 -0.010523796
0.08566563 0.061355323 0.17493977 -0.13128272 0.12276821 0.10558282 0.08120026 0.06481515
-0.07542486 0.09099634 -0.025983453 0.10211976 -0.06990963 -0.1747818 -0.033313707 0.01610513
0.078473076 -0.101569034 -0.03478068 0.14458777 -0.0051621944 -0.0881181 0.074800655 0.11261465
-0.0076091886 -0.0106936395 0.010744035 0.03569697 0.10611172 0.05214438 0.06755769 -0.062859535
-0.14132583 0.043908358 0.034633815 -0.08973589 0.09955032 -0.16498242 0.018245026 -0.013325363

lstm.bias_ih_l1 f4 [128]
00000000: 205a 8fbc 5ecd 1dbe 7232 1ebe 10e5 bfbd
00000010: b6b4 853d 7491 2fbe cc58 b1bd 4856 c3bc
00000020: 3958 313e 5319 1e3e 1c80 93bd c0d9 31be
00000030: 02b1 e1bd 1663 25be 2d8b c6bd 6038 4d3d
00000040: 9040 5b3d fe2c b83d de02 c7bd a011 ff3b
00000050: 47d9 343e 0a17 af3d 0865 2b3d ea58 8c3d
00000060: 7b02 083e 98e6 4dbd e8ae c63c bafe a93d
00000070: 9091 6d3c b48e 91bd bc3f 0fbe e82f 4a3d
00000080: 44be 6f3d bd18 253e c496 04bd 5303 20be
00000090: d9c2 063e e7d4 bebd 5c8d 1b3d f086 b63c
000000a0: c050 99bc b0e2 09be 4b8e 243e cfb2 ddbd
000000b0: 9376 d2bd 69f1 c4bd 6287 cc3d fe63 8f3d
000000c0: 4eaf b63d 54be 7cbd 231a 323e 889b b1bc
000000d0: dede 2fbe b296 c43d aff8 163e 8656 cd3d
000000e0: 00e4 3839 af7f 17be d07d 1abd a80b b0bc
000000f0: 56cd cf3d 84a3 75bd 4cfc 5d3d 4c5f 843d
00000100: 907c 84bd fe83 f1bd 5fc1 25be 920f 31be
00000110: 6e4d 27be f89f aabc 6696 cfbd 0268 f9bd
00000120: 28ff 28be f06f 46bc 1883 7f3d f422 29bd
00000130: b70d 2b3e 20c0 713d 1acb c43d f608 9ebd
00000140: 3826 bfbc 23d4 233e 80cd f63a 6ed1 33be
00000150: f6b1 1dbe 0099 403a 17f0 b0bd 16c2 85bd
00000160: 40db 9a3b 271b 093e acb2 75bd 7746 9cbd
00000170: f0a9 f23c 4ed0 0bbe 6550 1d3e 1607 97bd
00000180: d88c 30bd a05f c83b c0a4 24bb da86 953d
00000190: 370a cfbd fb2e 333e d4ea 123d 58a3 cf3c
000001a0: 0c0b 28bd 440e 3bbd 1e7c b5bd c3e2 c3bd
000001b0: 4abc e5bd aee5 17be 4676 fc3d db0d 123e
000001c0: c897 eabd 8c97 1c3d 326c 94bd a096 22bc
000001d0: a4a1 52bd d828 863c 40de da3b 48e4 adbd
000001e0: c8c6 3fbd 961b ad3d a5c3 2b3e 99b0 0f3e
000001f0: dba6 e7bd 75a3 293e 7049 2c3d 48f1 82bc
-0.01749903 -0.15410373 -0.15448931 -0.09369862 0.065286085 -0.1714533 -0.08659515 -0.023844853
0.1731881 0.15439348 -0.07202169 -0.17368221 -0.1102009 -0.1615108 -0.096945144 0.05010259
0.05352837 0.089929566 -0.09717344 0.0077840835 0.1766101 0.08549316 0.041844398 0.068528965
0.13282196 -0.05026874 0.024253324 0.08300538 0.014500037 -0.071072966 -0.13989156 0.049362093
0.05853106 0.16122718 -0.032370344 -0.15626268 0.13160266 -0.09317952 0.037976608 0.02228114
-0.018715262 -0.1346538 0.16069905 -0.10825121 -0.102765225 -0.09616358 0.0998676 0.07001494
0.089201555 -0.06170495 0.17392783 -0.021680608 -0.17174861 0.09599055 0.14743303 0.10026269
0.00017632544 -0.14794801 -0.03771764 -0.021489933 0.101465866 -0.059970394 0.054195687 0.06463489
-0.06469071 -0.11792754 -0.16187046 -0.17291096 -0.16338131 -0.020828232 -0.10136108 -0.12178041
-0.16503584 -0.012111649 0.06238088 -0.0412931 0.1670445 0.059021115 0.09609051 -0.07716553
-0.023333654 0.15998892 0.0018829554 -0.1756036 -0.15399918 0.00073470175 -0.086395435 -0.065311596
0.0047258437 0.13389264 -0.059984848 -0.076306276 0.029622048 -0.1365368 0.153627 -0.073743984
-0.04310307 0.006114915 -0.0025122613 0.073011115 -0.1010937 0.1749839 0.03586848 0.025346443
-0.04102616 -0.0456679 -0.08861564 -0.09564736 -0.11217554 -0.1483371 0.12327246 0.14263098
-0.11454731 0.038230464 -0.07247199 -0.009923607 -0.051423684 0.016376898 0.0066793263 -0.08490807
-0.046820432 0.08452527 0.16773851 0.1403221 -0.11311122 0.1656626 0.042062223 -0.015984192

lstm.bias_hh_l1 f4 [128]
00000000: 2c46 2bbd 5967 143e 01dd 2c3e 629a df3d
00000010: dbc7 233e 7ef2 adbd 0512 cabd 669d 13be
00000020: 1346 88bd 594b 013e 71a0 0dbe 9d72 053e
00000030: 8a1f e93d 072a 2ebe 044a 163d 7a35 05be
00000040: 943a 343d ed2d 063e 00a4 433c 7f11 16be
00000050: 9fe8 b2bd d800 a9bc d196 2c3e 0e42 ed3d
00000060: dcaa 1dbe 2c64 523d 20fc 1f3c 4f30 273e
00000070: 1269 24be b56e 91bd 7ab8 ae3d 5056 383d
00000080: f1f2 163e 44f4 233d 9052 0dbc 8813 ec3c
00000090: 2a6a f6bd 1660 18be 5e0c 99bd 2025 31bd
000000a0: bcbe 0dbd 805d 3f3c 2ff1 013e 448f 1e3d
000000b0: bd9d c2bd 9111 1a3e beb7 34be 4662 81bd
000000c0: 80d9 c13b 5bc2 a6bd 3709 25be 9d91 2dbe
000000d0: 8e05 dd3d d8b4 033d ea3f d7bd c03f d63c
000000e0: 204b cfbb d93f 0c3e ee72 fabd 3a03 8f3d
000000f0: ffef 233e d287 c03d 1a74 b73d 9061 1b3d
00000100: eb46 81bd 842b ffbd 187d f53c 7433 14be
00000110: a23b 75bd fc4e 2bbe 971a 343e f851 f93c
00000120: 763d ef3d 737b 113e 56cc c23d 2682 903d
00000130: 107d 403c 4ec1 22be 9f8a 14be e0b0 153c
00000140: 97f9 84bd 8a35 bf3d b8c0 d9bc dad3 f83d
00000150: b32c d7bd 403d 2cbc f7e7 1a3e 5db3 c1bd
00000160: 4b6e 233e 7610 e73d 7b14 b1bd 7963 d4bd
00000170: d636 b23d b99b 0bbe 30c9 943d ce59 e63d
00000180: b261 f03d 70fd cb3c 747c 56bd d079 7ebd
00000190: f796 04be b2e0 02be fa64 c5bd 1a84 86bd
000001a0: 5065 5cbc 403e 58bb f95f f5bd 5f97 303e
000001b0: 5ce9 71bd 4830 1c3d 40a5 343b 2bb9 12be
000001c0: 12d8 7cbd 8d7e 15be e1b8 253e 0d08 2d3e
000001d0: c46b 4fbd 481c 1bbe 7997 a7bd 008e b4bd
000001e0: fd3c 80bd c0ac 1c3d 1053 063d 45e2 2c3e
000001f0: 02cf 803d 1abf bc3d 1c76 123d 666e fc3d
-0.041814968 0.14492549 0.16881181 0.10918118 0.15994208 -0.08493517 -0.09866718 -0.14415511
-0.066539906 0.12626399 -0.13830735 0.13032003 0.11382969 -0.1700822 0.03669168 -0.13008681
0.044001177 0.13103457 0.011940956 -0.14655112 -0.08735775 -0.020630285 0.16854407 0.115848646
-0.15397209 0.051365063 0.009764701 0.16327022 -0.16055706 -0.07101194 0.0853128 0.04500419
0.14741112 0.04002787 -0.008625641 0.028817907 -0.12031968 -0.14880404 -0.07473062 -0.043248296
-0.034605727 0.011680007 0.1268966 0.038710847 -0.095027424 0.15045764 -0.17648217 -0.06317572
0.0059158206 -0.08142539 -0.16116796 -0.16950078 0.10792075 0.032154888 -0.105102375 0.026153445
-0.0063260943 0.13696231 -0.12228952 0.06983037 0.1600952 0.09400906 0.089576915 0.03793484
-0.06312355 -0.12459472 0.029966876 -0.14472753 -0.059871323 -0.16729349 0.17588268 0.030434594
0.116816446 0.14207248 0.0951163 0.07056074 0.011748567 -0.15894052 -0.14506005 0.009136409
-0.06492918 0.09336384 -0.026581153 0.121497825 -0.105065726 -0.01051265 0.1512755 -0.09458039
0.15960042 0.112824365 -0.086464845 -0.103705354 0.087018654 -0.13633622 0.07264936 0.11247598
0.11737384 0.024901122 -0.05236478 -0.06212789 -0.12948214 -0.12781027 -0.096384004 -0.06568165
-0.013451889 -0.0032996088 -0.11981196 0.17245243 -0.05906044 0.038131982 0.0027564317 -0.14328448
-0.0617295 -0.14599057 0.16183807 0.16897602 -0.050639883 -0.15147507 -0.08183188 -0.08816147
-0.062616326 0.038250685 0.03279406 0.1688319 0.062894836 0.09216137 0.03575717 0.12325744

fc.weight f4 [4, 32]
00000000: c058 0fbc f78c 31be 428c d3bd 685b adbc
00000010: 8617 d73d 180f 033d 7679 af3d 69c5 2a3e
00000020: e623 08be a6b2 983d c106 313e 2edc a43d
00000030: 3471 1f3d 4273 e13d a9c8 0e3e c026 8e3c
00000040: 59a1 083e d77e 193e 7890 1cbd ecb1 87bd
00000050: 967c d2bd b0f4 833c ccf3 3abd 3367 20be
00000060: a846 8bbc 0223 ce3d ad32 2d3e 4e65 a13d
00000070: 77a0 23be 7034 e93c 586d 88bc 9836 003d
00000080: 20fe a0bd 820b 0dbe b2ad 8a3d bbf6 e6bd
00000090: 6092 febb c046 2abe fb11 b0bd 0243 a53d
000000a0: d924 1b3e 3cfa 3fbd a0a5 12bd fa45 f1bd
000000b0: 0030 a5ba 88df 743d 7865 a53c 7771 003e
000000c0: a112 00be 2062 8dbb 0aeb f83d b8fa 613d
000000d0: 882e 203d c608 11be 4d8f 093e 0709 d4bd
000000e0: e316 1dbe 7034 25bd 5af0 bb3d e5c3 09be
000000f0: d09d 753c ca35 c63d a737 15be 5868 0fbe
00000100: 4ac8 24be c396 273e 0202 f43d 283f 96bc
00000110: c400 95bd dbb4 19be 6f37 103e 683e fdbc
00000120: 1de3 c6bd 5e19 a93d 6c35 93bd 6fa2 8dbd
00000130: 701e 45bc 6fc5 2b3e 39a4 043e a46e 063d
00000140: e4e7 49bd f0a9 12bc dbaf 12be b814 763d
00000150: 42c7 983d 980b 24bd d26b 2abe 006f d4bb
00000160: 1206 b83d 08c2 313d 90d9 a53c d591 153e
00000170: f5e2 a0bd f73d 06be 6875 123d d90e 153e
00000180: 6063 34be d1a6 e4bd 5012 483c ee71 a03d
00000190: e4e7 03bd de6f a03d b892 cdbc a4d1 9dbd
000001a0: 843f abbd c8b4 2bbd 8f60 0ebe d8d9 8d3d
000001b0: d6a5 b03d 00c1 2d3b 8c46 8f3d b84f c53c
000001c0: 0ddd 30be 6c5b 4ebd b537 1b3e aaac d43d
000001d0: a87b a53c 0bf3 06be 8fbe 07be 80e2 dabb
000001e0: f0fd 1b3c 1ab8 be3d 1011 53bc 2c87 edbd
000001f0: 9788 00be 21c9 2d3e 8d68 09be 606a 493d
-0.008749187 -0.1733893 -0.103294864 -0.02116175 0.105025336 0.031996816 0.08568089 0.16676868
-0.13294944 0.074559495 0.17287733 0.080498084 0.03892632 0.11008312 0.13943733 0.017352462
0.13342799 0.14989792 -0.038223714 -0.06625733 -0.10277669 0.016107887 -0.04564266 -0.15664367
-0.017001465 0.10065271 0.16913863 0.078806505 -0.15979181 0.028467387 -0.016653702 0.031302065
-0.078609705 -0.13773921 0.06771411 -0.11277529 -0.007768914 -0.16628551 -0.085971795 0.08069421
0.15150775 -0.0468695 -0.035802484 -0.11780925 -0.0012602806 0.05978349 0.020189986 0.12543283
-0.12507106 -0.004314676 0.12154205 0.055170745 0.039106876 -0.14163503 0.13433571 -0.10353284
-0.15340762 -0.04033321 0.09176703 -0.13453634 0.014991239 0.09678228 -0.14572011 -0.14004648
-0.16092029 0.16366105 0.119144455 -0.018340662 -0.07275537 -0.15010397 0.14083646 -0.030913547
-0.09711287 0.082567915 -0.07187924 -0.069157474 -0.012031183 0.16774534 0.12953271 0.03282036
-0.049293414 -0.008951649 -0.14324896 0.060078353 0.074598804 -0.04005012 -0.16642693 -0.006482959
0.08985533 0.043397933 0.020245343 0.14606412 -0.078557886 -0.13109575 0.0357565 0.14556445
-0.17616034 -0.1116463 0.012211397 0.0783423 -0.03220357 0.07833837 -0.025094375 -0.077060014
-0.08361724 -0.041920453 -0.13904022 0.06926316 0.08625381 0.0026512742 0.069958776 0.024085864
-0.17271824 -0.050380155 0.1515797 0.103844956 0.020200565 -0.13178651 -0.13256286 -0.006679833
0.009520993 0.09312458 -0.012882486 -0.115980476 -0.12552105 0.16971256 -0.13418789 0.049173713

fc.bias f4 [4]
00000000: 6169 343e 6b8d d3bd 83ee 03be ce28 d2bd
0.17618324 -0.10329708 -0.12883954 -0.10261689
