Competition/TrainAI/model/s100/model_weights_1.pth (torch, 241895 bytes, 10 tensors)

lstm.weight_ih_l0 f4 [256, 36]
00000000: 95ce fe3b 41e3 a73d ca33 1dbe 7a3c d83d
00000010: 6c9f 9b3c 3c60 e9bd fa93 e4bd 055f 19be
00000020: 14c6 7fbe 713c e03d 9b63 de3d fbf4 913a
00000030: cdf4 a53d b7f0 cf3d 7985 183e ff19 2fbb
00000040: 452a 303d e8a7 39bd 4683 ecbd 134b b53c
00000050: ed07 0c3e 9818 a9bd 526b 2b3e faef cb3d
00000060: bf26 7bbd 9d81 a9bb 7eb7 30bd 0833 08bd
00000070: 836a 013d 491a 083e 1467 7dbc 6dff 973d
00000080: 2c38 d7bd bc11 013e 91e3 aebd 96b8 0c3e
00000090: 628e 283e ff53 edbd 46a5 a0bd fb5b be3d
000000a0: f6d3 423c 35cf a63d 1188 093e eff6 fb3d
000000b0: a3ae 1a3e 1336 4ebb 994e 52bc c4b1 e9bd
000000c0: 2892 29bd 1ee5 d03c 7c5f 363d f788 f6bc
000000d0: 5ff8 443c 905f 7ebe 2780 243d c3b0 5e3d
000000e0: 18b1 be3d 2618 213e a2dd 953d f76a 4d3d
000000f0: 55f5 8b3d 558c 183d 8802 b13c 3160 1abe
00000100: 2cd1 b33d c27d d4bd bc86 0d3d dfde 21bc
00000110: bc03 f43c 13c6 40be 283b d2bd 8a56 febc
00000120: a75f 8f3d 2c13 e63d dcc8 f3bd e58b 243c
00000130: 9c43 6c3d 995d 383e 2519 e23d fb54 283e
00000140: fcb1 debc 1c3a 4dbd c0ae 1a3e f5b6 de3d
00000150: c534 22bc 0cfa 423e 2d71 003d 1662 5cbd
00000160: 6766 893d 5525 9ebd 2048 d7bd 3c5e 283e
00000170: e839 c7bc 223a 223d f7b6 b53d a14d 3e3e
00000180: dfbf 203e 6fdc 253e 2a00 87bd 0c27 3cbd
00000190: 8142 8f3d 06a7 9dbd 4269 2c3c 5e5f 4b3e
000001a0: a483 01be 3cc2 f13c 14f6 e83c 6024 96bd
000001b0: 48c0 4d3d c10a 023d dc45 a6bd 7619 e53d
000001c0: 55e9 653e a8f6 d4ba b9bb 0cbb 0833 d63d
000001d0: 3a4c 5c3b 8b1e 4c3d 7dab adb9 4ff7 b8bd
000001e0: 1a6a f33b 8c94 71bd 81da f2bd ad08 ee3d
000001f0: dfc9 8abd e74a ec3d eaac dfbd bd7b b63d
00000200: 318e 0bbd 1497 83bd 6f9a 35be 6727 483d
00000210: 13f7 eb3d b5fa 073e 5d35 d63c c2fc 0bbe
00000220: 0579 9a3c a3bd 7d3d c25c db3a 1eae 563d
00000230: c2ab d43d 9764 8d3d 1368 1bbe 09eb 31be
00000240: a1b6 bfbd ecfe 07bb 4c4e 12be 30bf 5bbe
00000250: 20b7 6bbe 97ef e7bd d6d0 d8bd 8fc7 0dbe
00000260: 7f92 16be fb04 8e3e f3c5 fb3d 8e2e 8abd
00000270: b991 d63d 7b6d 033c 5204 8abd a136 11be
00000280: 8355 3abe d945 00be 8420 27be ea89 b13d
00000290: bcaf 66bd 01e9 b0bd f4aa 933d b3e6 613e
000002a0: 4169 4abd 3f41 983d 950e ee3c 2c72 bebc
000002b0: 382f 1fbe a06c 09be e06c ddbc d836 583d
000002c0: 67b3 933d 2d95 0abc 70ed 81bd 3f09 febc
000002d0: 5201 32be 6cc7 233e b7a9 c03d 32b8 3b3c
000002e0: 7bcb 14be 80e4 103e c0ca 92bd a67e 383d
000002f0: 1eed cdbb 362a 1dbd 1198 ca3d 0dc7 f73d
00000300: ca8a 39bd 9771 0a3d 0c4e b13d e1d1 da3d
00000310: 91df e9bd bc77 be3d 01df 86bc 78f1 b8bd
00000320: 041e b93c dee6 38be 151b 12bd eeaa 0cbe
00000330: 7cd4 823d e30a e33c f69f 05be 1193 d33b
00000340: 0987 a53b 62cc 46bb cdc5 253e 1a7d 1abd
00000350: 9494 8cbd 3458 e5bd 12c2 3a3e 1e1c 963b
00000360: f0a6 753d 2d6b 103c 0bda 83be ab3e 923e
00000370: 9a1e 4a3e 3620 513e 933f 963e 5d4d 343d
00000380: aff5 9d3c 8b1e c73d 69c9 e6bd bf82 d8bd
00000390: 9905 2b3d dca3 17be 1754 84be 2414 d7bc
000003a0: fa09 903e ea20 29be 3ad2 9b3e 4ed6 633e
000003b0: e6a3 61bd fa13 2b3e 0909 573e 6aaf 503e
000003c0: 493a 0a3d 28c7 663e f885 5abc ddd0 66be
000003d0: 9da2 dd3d ba1b 7fbe 0ff6 843d 88da b03d
000003e0: dbf6 b5bd 0a99 de3b 8a48 9fbe 0c3f 83be
000003f0: 9ef1 da3d 68b0 e33d 7085 3cbd 1fb2 133e
0.0077760913 0.08197642 -0.15351787 0.1055841 0.018996917 -0.113953084 -0.11161037 -0.14977653
-0.24977905 0.10949028 0.10858842 0.0011135632 0.08103333 0.101533346 0.14894666 -0.0026718376
0.04300906 -0.045326144 -0.11548476 0.022130525 0.13674898 -0.08256644 0.16740158 0.09957881
-0.061316248 -0.005172922 -0.04314374 -0.033251792 0.031595718 0.13291277 -0.01546647 0.074217655
-0.10508761 0.12604421 -0.085394986 0.13742289 0.16460565 -0.115882866 -0.078440234 0.09294888
0.011891356 0.0814499 0.13430811 0.12302958 0.15105681 -0.0031465336 -0.012836122 -0.11410859
-0.04139915 0.025499877 0.044524655 -0.030094607 0.012022107 -0.24841142 0.040161278 0.05436779
0.09311122 0.15731868 0.07317664 0.050150838 0.06833903 0.037243206 0.021607652 -0.15075757
0.08780131 -0.10375549 0.03455232 -0.009879797 0.029786937 -0.1882556 -0.102651894 -0.031047124
0.07000666 0.112341255 -0.11903545 0.010043119 0.057681665 0.18004455 0.11039952 0.16438667
-0.027184479 -0.050104246 0.15105724 0.1087474 -0.009900277 0.19040698 0.031357933 -0.05380448
0.06708985 -0.07721964 -0.105118036 0.16442198 -0.024319604 0.03960622 0.088727884 0.185843
0.15698193 0.1619737 -0.06591828 -0.045935676 0.069951065 -0.07697873 0.010523142 0.19860598
-0.12647873 0.029511563 0.028437652 -0.07331157 0.0502322 0.031748537 -0.08118793 0.11186497
0.2245229 -0.0016247826 -0.0021474196 0.10458952 0.003361477 0.049833816 -0.000331249 -0.09031545
0.00742842 -0.058979556 -0.118580826 0.116227485 -0.06776785 0.11537724 -0.109216526 0.0891032
-0.03407115 -0.064253 -0.17734693 0.048865702 0.11521735 0.13279231 0.026148492 -0.13670638
0.018856535 0.06194843 0.0016736018 0.052412145 0.10384323 0.069039516 -0.1517642 -0.17374815
-0.093610056 -0.002075131 -0.1428768 -0.21459651 -0.23019075 -0.11324995 -0.10586707 -0.13845657
-0.14704321 0.27738175 0.12293615 -0.06747161 0.10477013 0.008021708 -0.06739105 -0.14180996
-0.18196683 -0.12526645 -0.16320997 0.08668883 -0.056319937 -0.08638192 0.07210341 0.22060661
-0.049416784 0.0743432 0.029059688 -0.0232478 -0.15545356 -0.13420343 -0.027029455 0.052786678
0.07211953 -0.008458418 -0.06344116 -0.031010268 -0.17383316 0.15994042 0.094073705 0.01145749
-0.14530747 0.14149666 -0.07167578 0.045042656 -0.00628437 -0.038370334 0.098922856 0.12098513
-0.045298375 0.033799734 0.086574644 0.106845625 -0.11419595 0.09300181 -0.016463758 -0.090304315
0.02259732 -0.18056819 -0.03567036 -0.1373708 0.063881844 0.027715152 -0.13049302 0.0064567407
0.005051498 -0.0030334224 0.16188736 -0.037716962 -0.068642765 -0.11198464 0.18238094 0.0045809885
0.059973657 0.008814615 -0.2575229 0.28563437 0.19738236 0.20422444 0.29345378 0.044019092
0.01928219 0.097226225 -0.11268885 -0.10571813 0.041753385 -0.14808601 -0.25845405 -0.026254721
0.28132612 -0.16516462 0.30433828 0.2224972 -0.055087946 0.16706839 0.2099954 0.20379415
0.03374699 0.2253691 -0.013337605 -0.22540613 0.10822032 -0.2491292 0.064922445 0.086354315
-0.088849746 0.006793146 -0.3111003 -0.25634038 0.10690616 0.11117631 -0.046025693 0.14423417

lstm.weight_hh_l0 f4 [256, 64]
00000000: f7ad babd 15d8 2abe d3ab 87bd 19de a43d
00000010: 472a 3d3e 962b a8bd cd7e c6bd f29e adbc
00000020: e80b aabd d50a 5f3c 3765 cb3d 8787 d4bd
00000030: f96d 4dbe c4d5 b43d aca5 42be 06dc f0bd
00000040: 54a5 f5bd 563a 7a3c b686 0a3e ef13 713d
00000050: 63dd ce3c 8ca7 73bc 7bde 09be c36f cdbc
00000060: 38b2 fc3c c97a c8bd 0c93 203e ec26 76bd
00000070: 20c7 4e3d 5a9f 823d f1a5 53bc ab72 173c
00000080: 44c1 0d3e 3a16 a4bd edce 49bd 72e5 36bd
00000090: bac8 a9bd 0e65 29bc 86be aebd 0282 26bd
000000a0: d256 043c 78e9 62bb 012f 05be 29a9 06be
000000b0: 7e3a e93d d41a 993d d61f 07be e167 463d
000000c0: 3182 68bc afcd 83bd 6ce1 053e f84a 86bd
000000d0: 0264 a63d 3a99 213d 0cea fa3c 6597 683b
000000e0: 9fd1 0f3e 8258 0c3e 3d06 053e da97 87bd
000000f0: 2181 8f3d a635 df3d 9cac 1fbc 6a9b 22bd
00000100: a88a 1a3d abbf fe3c 55e3 cf3c 461c c23d
00000110: f23d b4bd f63c 013d 0fc9 e63d 62db f53d
00000120: 635f c83d 9098 943d 15f0 9c3d 6a4c a53d
00000130: 276c 40be 96ff 653c ceb2 ae3d 7668 57bd
00000140: f717 5a3e d7dd dd3d df92 29bc ed5b ca3d
00000150: 3aea 92bd 4f02 3f3e bb73 abbc 465f 813c
00000160: bd87 9f3c 6685 08be d0ac 10be d6fd 393d
00000170: fb96 eb3d 887c 053e 6683 01bd da50 4c3e
00000180: f532 4abc c16d 243c 1fe6 1abe 674f 003e
00000190: 4283 6d3d 948d aabd 06cf 41be bd6b 413e
000001a0: db6d 123e f892 cabd b871 353e 26df c03d
000001b0: 87c4 853d 5812 913d 0c81 24be b4de 5bbd
000001c0: 61e4 9d3d 2817 0bbd 9220 403c 3c9d e83d
000001d0: 09f3 263d 2eae 4e3d 3d25 babd d064 31be
000001e0: 075d 9abd fa84 323b 7cff 173e 63cf 03be
000001f0: d076 863d 0c65 243d 993c 703d f7d0 373d
00000200: b28f f43b 1635 73bd ebc5 b9bd fd90 ad3d
00000210: 9ff8 833d a414 b2bc 8daa 8fbd 7b3f 833d
00000220: 6fce 6f3e 943e 133e ec13 f33a c9b0 2cbd
00000230: 35f8 383d 633f 3bbe 5ff0 e2bb 89e6 d1bd
00000240: 29d8 31be 5ca1 4cbd bbb2 133e 5203 a7bd
00000250: ea2e d43d 0a29 8a3d 4208 14be cbfd bd3d
00000260: b34c 97be 8f3b c0bd 0835 94bd c94f 673e
00000270: dbd6 2e3c c004 8d3d 0233 763b a11a 52be
00000280: f28f 103e ff4c 493c 7fd7 083e 6215 d2bb
00000290: 2809 4c3d d591 523d 261c e0bd cb2a bc3d
000002a0: 42b6 073d fbdf 9dbd 4e43 1ebd c6fd 913d
000002b0: 3ac8 68bb 12ec cf3c d3e8 13be fdbf 3a3c
000002c0: b0d6 eebc 0913 133d 717b fabc 62a4 213e
000002d0: 5bdb 703e 7801 b8bd 22fc 19be 89c2 193e
000002e0: c01b 65be 01e0 07be bf40 f7bd bf6a 21be
000002f0: 2907 353e af0b bf3c bb35 d3bd c94e 193e
00000300: 482a aa3d 09e5 bd3c d7a6 f0bd 5cfd 0fbd
00000310: 62b5 033c 5889 08bc f754 ddbc 55a6 ce3c
00000320: 32e5 8abd ad8f c83b afd0 c83d b3c9 c83a
00000330: 1255 763d 29b0 ecbd 5eb8 393e ea39 babc
00000340: 7108 61be c3e5 0cbe 51b8 453d 7b7b 003e
00000350: 19a2 233b 1d14 d5bb c2cc 9b3d a634 203e
00000360: 7648 1d3e 9d3e 2f3d a7e0 74bd c7a8 10be
00000370: 37ba 14be ebb4 b2bc 8002 22be 86a1 84bd
00000380: af9a 92bd 9a08 cebb 4422 61bd 81fc 25be
00000390: 981e 553a 0f3a 29bd db1d dd3d 04d2 7dbd
000003a0: f7a0 e6bd 2cf4 1f3d 6835 dcbc 6ebf 5dbd
000003b0: 4292 7fbc d0ed a4bd dcfe d0bd 0825 b63d
000003c0: 588c 763d 45b6 0c3d 3a5d b43d 1d46 6ebe
000003d0: 342e 3b3d 8a54 0dbd 5087 223e 246c f4bd
000003e0: 5ec3 fb3d a3a6 8cb9 febf 1f3e 67ae 8fbd
000003f0: 1ef1 a8bd 3570 113e 6cbe 413d 48d1 c4bd
-0.091152124 -0.16683991 -0.0662457 0.08050174 0.18473159 -0.08211438 -0.09692154 -0.021193955
-0.08303052 0.013613422 0.099314146 -0.10377412 -0.20061482 0.08829835 -0.19008511 -0.11760716
-0.119944245 0.015272697 0.1352795 0.0588569 0.02525205 -0.014871489 -0.13463776 -0.025077706
0.0308467 -0.097890444 0.15681094 -0.060095713 0.05048287 0.0637805 -0.0129179815 0.009243648
0.13843256 -0.08012052 -0.049269605 -0.04465241 -0.08290239 -0.010339035 -0.08532433 -0.04065133
0.00807734 -0.0034624022 -0.13006212 -0.13150467 0.113881096 0.0747582 -0.13195738 0.04843891
-0.014191196 -0.064357154 0.13074273 -0.06557268 0.08124544 0.03945277 0.03062918 0.0035490629
0.14044808 0.13705638 0.12990661 -0.0662076 0.07007051 0.108989045 -0.009745743 -0.039698996
0.03772989 0.031097254 0.025376955 0.09478049 -0.08800878 0.031552278 0.11268818 0.120047346
0.097838186 0.072556615 0.076629795 0.080712155 -0.18791257 0.014037987 0.08530198 -0.052589856
0.21298204 0.10833328 -0.010349958 0.09880815 -0.071735814 0.18653224 -0.020929208 0.0157925
0.019473905 -0.13332137 -0.14128423 0.045408092 0.115034066 0.13035786 -0.031619452 0.19952717
-0.012341251 0.010035933 -0.15126847 0.1253029 0.057986505 -0.08327785 -0.1892663 0.18888755
0.14299719 -0.09891313 0.17719162 0.09417562 0.06531625 0.07083577 -0.16064852 -0.053679183
0.077095754 -0.03395763 0.011726515 0.11358115 0.04075912 0.05045908 -0.09089134 -0.17323613
-0.07537275 0.0027239905 0.14843553 -0.1287208 0.065656304 0.04013543 0.05865154 0.04487702
0.007463419 -0.0593768 -0.09070953 0.0847492 0.06443905 -0.021738358 -0.07014952 0.06408592
0.23418592 0.1437934 0.0018545366 -0.042160783 0.045158584 -0.18285899 -0.006925627 -0.10249049
-0.17367615 -0.04995857 0.14423649 -0.0815493 0.10360511 0.06746109 -0.14456275 0.09276923
-0.29550704 -0.0938636 -0.072366774 0.2258903 0.010671343 0.068856716 0.0037567024 -0.2051797
0.14117411 0.012286424 0.13363455 -0.0064112404 0.04981342 0.051408608 -0.10942869 0.091878496
0.0331328 -0.077087365 -0.038638406 0.071284816 -0.0035519735 0.025381122 -0.14444284 0.011398313
-0.029155105 0.035906825 -0.03057644 0.15785363 0.23521177 -0.08984655 -0.15037587 0.15015616
-0.22373867 -0.13269044 -0.12072896 -0.15763377 0.17678513 0.023321 -0.10312983 0.1497146
0.08308846 0.023180502 -0.11750572 -0.03515373 0.0080388505 -0.008333527 -0.027018053 0.025225798
-0.06781997 0.006120643 0.09805428 0.00153189 0.060139723 -0.115570374 0.18136737 -0.022732694
-0.21975876 -0.13759522 0.04827148 0.12547104 0.0024968444 -0.006502642 0.07607414 0.15645084
0.15359673 0.042784322 -0.059784558 -0.14126883 -0.1452416 -0.021814784 -0.15821266 -0.06476121
-0.0715841 -0.0062876465 -0.05496432 -0.16209604 0.0008129864 -0.041315135 0.1079671 -0.061967865
-0.1126117 0.03905122 -0.026880935 -0.05413764 -0.015598835 -0.08053172 -0.102048606 0.08893782
0.060192436 0.034353513 0.08806844 -0.23268934 0.04569836 -0.03450445 0.1587193 -0.11934689
0.12293123 -0.00026827035 0.15600583 -0.070156865 -0.082491145 0.1420296 0.04730074 -0.0961023

lstm.bias_ih_l0 f4 [256]
00000000: 0b5a 36bc 39b4 6a3d 1cb2 583d d1f6 eebd
00000010: 6ab8 b93d 975f d4bc ca0b 8a3d f2b3 df3d
00000020: b1ef 0bbe a1ff 5abe c1b5 4b3c 4f56 0dbd
00000030: 58e7 34be 65bb 18be cfda 1d3e b56c 77bd
00000040: fa7f 373d 2f01 a9ba 7939 94bc 87ae 543d
00000050: 0591 5abd 3829 a6bd 8a82 833c 5baa 4a3d
00000060: 2ceb a43a 7152 ca3c 898d c8bd f439 86bd
00000070: a6a1 30bd 4fee d73b d00f 16be c68f c13c
00000080: e9e5 3a3d 544e b8bc 459c 16be 3d44 5a3d
00000090: 9acf 06be 5a2e 03bd 6990 1e3d 19ba 7bbe
000000a0: 0784 62be 6cd2 bc3d 9451 73bd 80fa 91bd
000000b0: e6a2 0fbe 25aa 01be 49ac f9bd f85b aebd
000000c0: 0a48 de3d bb49 d8bd a325 e8bb e5ec ac3d
000000d0: e920 1abe 9714 24be 8f08 a6bd 9edf e43b
000000e0: bf32 0c3d 30c6 733b 9b74 d83c 1355 bfbd
000000f0: a4f9 34bd 4d80 12be d5e4 afbd 812f 3cbc
00000100: 33d8 1dbe 6ea1 65bc 00c2 bc3c bdf2 e3bd
00000110: 6668 cebc 107d eabd 45f5 9bbd efd0 13be
00000120: 6424 89be e9e1 f1bd 445e 29be 39b0 abbd
00000130: 6c8d 05be 7791 673d dc68 f83d 84ee cbbc
00000140: 3780 20bd 92fd 653d 5c7b 97bd 17a6 8c3d
00000150: 26f1 b0bd 738d 1abc 14ae 0bbc 6d70 e1bd
00000160: 811e 6abd 1c0f 093d cfe6 233d 3cda babd
00000170: dbbb cb3d 5197 01bd d797 26be ec8f fdbd
00000180: 55ac 3abe 4865 963d 41db 53bd 46fa 89bc
00000190: ec42 123d d7bd 0d3e 1943 1bbe 3609 a1bd
000001a0: c050 56be d156 babd b8ab 763d fbab f63c
000001b0: 2e9c 0a3e 8f39 4fbd 907e d53c de11 9a3d
000001c0: c9ec 88bd aa42 ecbd db2a 9cbd 52d7 a6bd
000001d0: 1ea6 eb3c c53a 10be 1db7 10be 7142 463c
000001e0: e382 b3bc 89c2 54bd 3a43 b7bd f9fb b1bd
000001f0: d4fe 14be 73ed 25be e3f0 c7bc db82 03be
00000200: 1ece 1bbd eeec 0a3e 581b 223e f43c 5abe
00000210: 6f04 403c f56a f53d 385e 97bd 2817 be3d
00000220: 6c43 1fbd 3ff4 0abd bd7d f5bd ef3f c63b
00000230: befb 40bd 7564 0a3d 9086 6b3d 01cf 0e3e
00000240: 6551 11bd 0584 a53d 75dc e4bd 8367 26bd
00000250: 4ea6 4c3d 4255 bdbc b42f fcbd 6c1c 913d
00000260: 7b7c 1b3d 406d f2bc 73a2 68bc 2feb 903d
00000270: bae5 ae3d ed15 9ebd 4925 663b 039a 263c
00000280: 99dd b33d 325c 2e3d 7db2 9ebd d014 e7bd
00000290: 818d 063e d450 8dbd 423d 5d3e ca9c 07bd
000002a0: 76d1 2c3e 3125 013d d183 c5bd a027 943d
000002b0: 98ab 0bbd 1e86 1b3d f774 f2bd 3c39 053e
000002c0: 3ad8 823d e2cf 8d3d e8b7 9b3b 2a77 0bbe
000002d0: 0c0a 183d bf08 1cbe 2df7 ac3d 1576 9cbd
000002e0: 8e0f 0f3e 49cb e7bb 2952 c7bd ce55 fbbc
000002f0: 1506 653d 51cb 70bc d49c e13d c90b 55bd
00000300: 60ed f7bc 1fbb 3bbe 5657 bebd b6ca f2bd
00000310: 3509 093e 142a 7dbd c188 0fbe a9f2 a2bd
00000320: d2e7 85bc e15b 053c ed3b 7fbe e116 4abd
00000330: 4b89 51be e3aa 6d3d 6be8 8dbd 7af5 803c
00000340: 6e1d 0b3c 5869 cebd 9a0e 38be 923f 86bd
00000350: 1f56 0bbd 93c1 e5bd 4f34 03be a1de 47bd
00000360: 022a 2a3b 9cad 06be 8cdf 0ebd 95d2 63be
00000370: b2ea 163d 8406 6f3d 6b83 36be 8d00 3ebd
00000380: 2ac5 60bd 873d 20be ef7c 19be 2e15 c7bd
00000390: cac5 fb3c c415 18be 99c8 ddbb 9be8 a5bd
000003a0: 84ae d8bd f359 5c3d 178f 4c3d 5456 03be
000003b0: 884b c9bd 432b 633d 6438 14be e835 0bbe
000003c0: 1d75 15be 328e 1dbd 0989 1fbe 1f6c 883d
000003d0: 2a6f 863d cb01 933c c995 56bd d7e6 af3c
000003e0: 1d6e 83bd 21a3 debc 0c73 afbd e7c9 39be
000003f0: a6d5 4fbe 9e03 ddbd 61b4 913d 2415 e3bd
-0.011129866 0.05730078 0.052904233 -0.1166817 0.09068377 -0.025924487 0.0674053 0.10922994
-0.13665654 -0.21386577 0.01243347 -0.03450614 -0.17666376 -0.14915235 0.154155 -0.060406405
0.044799782 -0.001289403 -0.018093811 0.051924255 -0.053360958 -0.081133306 0.016053457 0.04947887
0.0012582294 0.024697514 -0.09792621 -0.065540224 -0.04312291 0.006589688 -0.1465447 0.023628127
0.045629416 -0.022498287 -0.1470805 0.053287733 -0.13165131 -0.032026626 0.03871194 -0.2458271
-0.22120677 0.09219822 -0.05940397 -0.07127857 -0.14026985 -0.12662561 -0.12191064 -0.085136354
0.10853584 -0.10560938 -0.007084565 0.084436215 -0.15051617 -0.1602348 -0.08107101 0.006984665
0.034228083 0.0037196986 0.02642279 -0.093423985 -0.04418339 -0.14306755 -0.08588568 -0.011485935
-0.15414505 -0.014015539 0.023041725 -0.11130283 -0.025196265 -0.11449635 -0.07615141 -0.1443517
-0.26785576 -0.11810667 -0.16539866 -0.08383221 -0.1304223 0.05653521 0.12129375 -0.024894007
-0.039184775 0.056150027 -0.07396576 0.068676166 -0.086397454 -0.009433138 -0.00852539 -0.11007772
-0.057157997 0.033461675 0.040015038 -0.09123656 0.0994794 -0.031638447 -0.1626886 -0.123809665
-0.18229802 0.073435366 -0.05172277 -0.016842972 0.035708353 0.1384195 -0.15162314 -0.07863085
-0.20929241 -0.0909859 0.060222358 0.030111304 0.1353614 -0.050592 0.026061326 0.07522939
-0.06685788 -0.11536153 -0.076253615 -0.08146538 0.028765734 -0.14084919 -0.14132352 0.012100802
-0.021912998 -0.051943336 -0.08948369 -0.08690638 -0.14550334 -0.16203861 -0.024406856 -0.12842886
-0.038038366 0.13566944 0.15830743 -0.21312314 0.011719807 0.11983291 -0.07391018 0.092817605
-0.038882658 -0.033924337 -0.11986873 0.006050102 -0.04711508 0.03378721 0.057501376 0.13946153
-0.035478014 0.08081821 -0.11174861 -0.04062606 0.049963288 -0.023111943 -0.12313786 0.07085499
0.03796051 -0.02959311 -0.014198887 0.07076108 0.085399106 -0.07719026 0.0035117439 0.010168555
0.08782501 0.042568393 -0.07748888 -0.112832665 0.13139917 -0.06900182 0.21605399 -0.03310851
0.16876778 0.03152961 -0.096442826 0.0723412 -0.03409919 0.0379697 -0.118387155 0.13010114
0.06388898 0.06924416 0.004752148 -0.13619676 0.037118956 -0.15237711 0.084455825 -0.0763971
0.13970777 -0.007073794 -0.09732468 -0.030680563 0.055914003 -0.014696912 0.11016241 -0.052013192
-0.030264556 -0.183331 -0.09294002 -0.1185507 0.13382418 -0.061807707 -0.14017011 -0.0795644
-0.016345892 0.008139581 -0.24925204 -0.049338225 -0.2046253 0.0580243 -0.06929096 0.015742052
0.008490903 -0.100786865 -0.1797432 -0.06555094 -0.03401768 -0.11218562 -0.12812923 -0.0487963
0.002596498 -0.13152164 -0.03488116 -0.222483 0.036844917 0.058355823 -0.1782357 -0.046387244
-0.05487553 -0.15648471 -0.14989065 -0.097208366 0.030733962 -0.14852053 -0.006768298 -0.081010066
-0.10580161 0.05379672 0.04994115 -0.128259 -0.098288596 0.05546118 -0.14474636 -0.13594782
-0.14595456 -0.038465686 -0.15579619 0.066612475 0.065641716 0.01794519 -0.05238894 0.021472378
-0.06417487 -0.027177395 -0.08566865 -0.18143426 -0.20296344 -0.107917055 0.07114483 -0.11088017

lstm.bias_hh_l0 f4 [256]
00000000: 9ede 1f3d 1e35 153e 1f99 3abd fff0 a3bd
00000010: 7714 81bd 4403 52bd bac9 303e 3fd5 033e
00000020: 3e74 28bd 0eb1 25be 8756 783d e0a1 8a3d
00000030: e611 10bd fdb9 53be dd65 503d d63e 273c
00000040: d16c fbbc 45be 0d3d 69ea 07bd aedd 22be
00000050: 007d f3bd 775e 0d3e 32d5 a5b9 4fe3 a53c
00000060: 69bf 05bd f8fc 2c3e 3b0c 23bd f04a 82bd
00000070: 9413 42be 69e1 85bd fcf4 88be d3f0 d43d
00000080: 82a4 12be b790 d03b 1889 603d 3aee 1dbe
00000090: 8a97 83be 8ae4 843d 6fc3 aabb 00da d2bd
000000a0: 79df 44be e52e 893d 296e 22bd 2d54 80bb
000000b0: bb94 c0bd df34 42be b3a4 1bbe 528d 06be
000000c0: a29c 373c 6a3e 1ebe 73c8 603d f993 22bd
000000d0: bc87 b9bd 7da0 8bbd ef6b bfbd 496a 9cbd
000000e0: b73a 37be 16cd edba 1e89 d9bd 636a 38bd
000000f0: cdb2 52be 8a4d 3d3d c5f1 42bd 1b68 663c
00000100: f32d dcbc 854a 5e3b b1b9 0abe 0542 693d
00000110: 0c54 fa3d 1288 0a3d 8f96 4cbe 2d16 d8bd
00000120: 050f 95bd 4824 fa3c b18e 98bd 6b48 993c
00000130: 8d63 07bd fd11 4dbd 6fb4 26bd 0c68 8bbc
00000140: 66d8 85bd 710f febc d550 60bd bf9f 4abb
00000150: e4bb 81bd f96e fdbd ec23 68bd bd7a bc3c
00000160: 6ee6 ffbd 4858 723c bb7c 0ebe 434e 97bd
00000170: ede3 44bd df49 17be 7aad 04bd 605f 01be
00000180: b418 84bd cd12 3d3d c03d 27be 8e2d 17bd
00000190: 3ab4 d6bd ffbe 46bd 5981 47be e0b5 053d
000001a0: cad5 e0bd 00ab 6c3a bc7d eb3c 6f24 173d
000001b0: 8bda 973d 82d2 9fba c6d5 87bc 71e3 fabc
000001c0: 2105 523d 13c5 4cbe 1f3f ce3c 21c0 57be
000001d0: be95 08be 8610 94bd 5ee6 d8bd 54e9 85bd
000001e0: b1cc d33b ee11 22be 87bd 673d 06ef 4abd
000001f0: 0ec0 d4bd 7ed8 713d d4a5 ba3d c128 983c
00000200: daef edbd dac6 233d e243 3f3e 3743 413c
00000210: 7902 c4bd d537 903d 5804 efbd b85f 1e3d
00000220: 183b 883b aa9d 223d 3ba0 f5bd e5a5 b4bd
00000230: 3c85 43be ed5b 543d dce5 20be d031 abbd
00000240: c95c 1bbc 2532 77bb c3d0 c8bc a34d 28bd
00000250: 1784 09be f2b9 973d 04ad 13be a4cf b33d
00000260: 5fac a1bd 5284 15be ac14 4e3d 2ba7 463d
00000270: 2da4 963d a1c2 06be 6823 e1bd d093 013d
00000280: 51f8 42bd 5779 a93d efd3 903b 2242 0d3d
00000290: 267c c2bd f671 9cbc 8cc7 4d3e df0e 833d
000002a0: 1a0a 153e 1b5f cc3c 5e31 1cbe 222b 503d
000002b0: 5d90 e43d 7c2b 5bbd 01cd 49bd bf0d e03d
000002c0: 0a54 2c3e e131 1cbe e15e 49bd 753b 01be
000002d0: b169 7f3d 8e4c 783d c552 013d cf87 223c
000002e0: 412f c53d 505f 86bc 70ce 6fbd cb8e 80bd
000002f0: 944b e93d 1f7c 4fbc a52c 7d3d c6f2 843d
00000300: d327 00be 8ac3 17bd b38c 80bd 6ef6 07be
00000310: 6fa2 0d3e 2bd7 babc 0604 7bbd 8422 713d
00000320: f036 cb3d b976 41be dff6 7dbe 494b c3bc
00000330: 66e0 bbbd 1ee6 15bd dfe2 21be 9d29 0c3d
00000340: 6a15 c3bc 562c a0bd a135 96bd be9b 70bb
00000350: aebd c43d 316a 7d3d 2e3a 913d 2533 50bd
00000360: 4081 0abe 679f b4bd 5e1a 52bd 3a46 3fbd
00000370: 6856 14be 17b7 d6bb df72 0bbd 9cdd 953d
00000380: 4d21 efbd b1dd 33be 79d7 923a 2911 133c
00000390: 1b2b 1f3d a1cf 12bd c5fa 94bd 1a5e 23be
000003a0: a43c ddbd 4ce8 32ba caaf f63b e921 5abd
000003b0: 4a4a 973d f528 6fbd ec3e 3fbe d172 99bd
000003c0: 15ae a2bd 022e d8bc 9066 8fbc b964 c93c
000003d0: aa27 a7bc 1628 10bd 1978 7cbd c125 3d3d
000003e0: 1753 43be a01c 833d e080 753c d5a1 22be
000003f0: 6948 25bd 9a6e bc3b 2718 8c3d 320f ad3b
0.039030664 0.14571044 -0.045556184 -0.08004951 -0.063027315 -0.051272646 0.17264453 0.12874316
-0.041126482 -0.16180822 0.060629394 0.067691565 -0.03517332 -0.20676418 0.050878394 0.010207852
-0.030691536 0.034605283 -0.033182535 -0.15904877 -0.11889076 0.13805567 -0.00031630095 0.02024999
-0.032653246 0.16893375 -0.039806586 -0.063619494 -0.18952781 -0.06537134 -0.26749408 0.10397496
-0.14320567 0.0063649076 0.054818243 -0.15422907 -0.25701553 0.06488903 -0.005211286 -0.102954865
-0.19225873 0.066983975 -0.03965584 -0.0039162845 -0.09403368 -0.18965481 -0.15199547 -0.13139847
0.011206778 -0.15453497 0.054878663 -0.0396919 -0.090590924 -0.0681772 -0.093467586 -0.0763746
-0.17893492 -0.0018142785 -0.10621856 -0.045023333 -0.2057602 0.046216525 -0.04759385 0.014062907
-0.026877379 0.0033918929 -0.13547398 0.056947727 0.12223062 0.033821173 -0.19979309 -0.10551105
-0.072782554 0.030534878 -0.07449091 0.01871129 -0.033053923 -0.050065983 -0.04069942 -0.017017387
-0.06535415 -0.031013222 -0.054764587 -0.003091797 -0.063346654 -0.12374682 -0.056674883 0.023007745
-0.12495123 0.014791556 -0.13914768 -0.07387974 -0.04806893 -0.14774273 -0.032392003 -0.12634039
-0.06450024 0.046160508 -0.1633215 -0.03690868 -0.10483594 -0.04852199 -0.19482936 0.032644153
-0.10978277 0.00090281665 0.028746478 0.03689998 0.07414731 -0.0012193474 -0.016581427 -0.03062603
0.051274423 -0.19997053 0.025176583 -0.21069385 -0.13338372 -0.07229714 -0.10590814 -0.065386444
0.00646361 -0.15827152 0.05657723 -0.049544357 -0.10388194 0.059044354 0.091136605 0.01857412
-0.11618014 0.03998456 0.18678239 0.01179581 -0.09570784 0.07041899 -0.116707504 0.038665503
0.004157435 0.03970114 -0.11993452 -0.08820704 -0.19093794 0.05184548 -0.15712684 -0.0835911
-0.009482571 -0.0037719097 -0.024513608 -0.041089665 -0.13429295 0.07408513 -0.14421469 0.08779839
-0.07894205 -0.14601257 0.050312683 0.048499268 0.07355533 -0.13160183 -0.10993081 0.031635106
-0.047600094 0.08275097 0.0044197957 0.034486897 -0.09496336 -0.01909731 0.20095652 0.06399321
0.14554635 0.024947694 -0.15253207 0.050822385 0.111603476 -0.053508267 -0.049267773 0.10940122
0.16828933 -0.15253402 -0.04916275 -0.12620337 0.062356655 0.060619883 0.031573076 0.009920075
0.096281536 -0.01640287 -0.058546484 -0.062772356 0.113913685 -0.01266387 0.061810154 0.06491618
-0.12515192 -0.037051715 -0.06276836 -0.13277599 0.13831495 -0.022807678 -0.061283134 0.058870807
0.09922588 -0.18892945 -0.24801205 -0.02383961 -0.0917366 -0.03659641 -0.158092 0.034219373
-0.023813922 -0.078209564 -0.07334448 -0.0036713923 0.09606491 0.06186885 0.07091175 -0.050830025
-0.13525867 -0.08819466 -0.051294677 -0.046697833 -0.14486086 -0.0065525877 -0.034045096 0.07317659
-0.116762735 -0.17565037 0.0011203132 0.008976259 0.038859468 -0.03584254 -0.07274393 -0.15953866
-0.10802582 -0.0006824776 0.00752828 -0.053254995 0.073872164 -0.05838867 -0.18676347 -0.074926026
-0.0794336 -0.026389126 -0.01750496 0.024584161 -0.020404655 -0.03519448 -0.06163797 0.046178583
-0.19074665 0.06401944 0.0149843395 -0.15882047 -0.04035226 0.0057504894 0.06840544 0.0052813524

lstm.weight_ih_l1 f4 [256, 64]
00000000: 9c8a 8f3e bfde 8d3d 295a ffbd bce9 e0bd
00000010: 44e7 113e 6124 1ebe 96de debc 6c82 9d3d
00000020: a8d4 36bd e762 2cbe 83ae 1dbd 4269 6ebe
00000030: 1f12 ed3c 23e0 87bc 0b2d f43c d7ec 72be
00000040: 7a59 83bd 36ef e4bd 212a 62bd 74df eebd
00000050: 8510 bb3d b168 77be 6bdb a23d e87d bd3d
00000060: 94b2 6fbd 221e f33d 3047 2ebb 0a74 323d
00000070: bbc7 c2bd 1d8d 21be ed41 6c3e b4b0 373c
00000080: 3571 2d3d e250 323e 861c 563d 532a 25be
00000090: f0e2 243e d8a9 333e f198 593e d3e2 44be
000000a0: f37d 5d3e ba7c 6d3e 3cb4 2fbd 9e65 6c3c
000000b0: 1f01 03be 9618 6bbd ec0b c5bd ed0f 3d3e
000000c0: 7621 dabc 8065 5dbc d499 0bbe 2518 823e
000000d0: 70b0 9d3d cb78 633d 78d3 78be c328 09bd
000000e0: 10ea a13d 39ee e33b db50 eb3d de6f 73bd
000000f0: f5b6 1fbe 68b1 2f3e ef28 14bd a00f 59bc
00000100: 15a1 0e3d 6284 b03d 6914 06be b696 a33d
00000110: 59e5 903d 612d d2bd 597f 63be 91c8 f0bc
00000120: 71b2 0dbe 3f13 823c 4a3e 5dbb 2aa9 b3b7
00000130: e321 7c3d c3d1 8c3d ff33 f43d 4a02 f5bd
00000140: 2575 6d3d 4bbc cdbd 88a1 e0bd 5598 7ebd
00000150: 3a64 0f3e 26b4 a6bd 43a0 35be 4e03 babd
00000160: 2c85 1fbe 0071 e73d 0fd7 f43c 04c9 fd3c
00000170: 433f ef3c 7e62 35bc 6435 5fbc b2d4 d0bd
00000180: 1385 823d 05e6 053e f266 b9bb a1a3 86bd
00000190: 7664 be3d 4303 0d3e 3562 07bd bd3b 2c3b
000001a0: 76a6 d33d 58ca 473e cb25 5dbd 2a2c 6b3d
000001b0: 0d8a b1bd defa 6ebb 7e04 e2bd d00f ea3d
000001c0: 48e5 40be fc6b bfbd 451c e93c 5cf4 583e
000001d0: 2115 34bc 2cad a03d 674d 13be 2652 143e
000001e0: cf65 783b 1ca9 bd3d d600 463e 0bcb 0cbe
000001f0: 732d fabc e0b6 923d 0a93 27bd 648c 99bd
00000200: 72b9 fd3c ef1f e7bc 7ac9 90be 31ef 953d
00000210: f219 4c3e cb6b fe3d 47a6 3abe 2089 c13c
00000220: 2ee6 f03c ca0d 03bd bea6 153d 3cc8 4f3b
00000230: 112d 483c ad07 ff3d f9e2 033d 1192 8cbc
00000240: 2e31 34be 78a8 f8bd 4fc8 88bd 3adb 463b
00000250: 0a82 f63c 559d bebd 0115 15be ff24 1ebe
00000260: 77c6 a7be 8137 6c3d bcae b03c 292a 043e
00000270: ccd0 28be bf4e 033c 9126 fdbd 9e0a e3bd
00000280: 64a1 2cbd 4e31 d6bd bc00 5ebb 7b34 cdbc
00000290: 1a34 d83d c913 a43d 4ebe 03bd 1e13 02be
000002a0: 4410 3fbd 16c7 013d 2ebd 98bd fef8 87bb
000002b0: 788b 453d 8e92 cfbd be85 f0bd 54f6 253e
000002c0: e3a7 25be a8ff 09be 531f 3fbe 454a 4c3e
000002d0: bb07 92bd 5e6b 853d 2a0b 6ebc a8c8 8b3c
000002e0: ec77 993d 012a f83b 2af6 193e 3bdf 6a3c
000002f0: bfde 3cbe 78a5 073e 56a2 663d 48fe 10be
00000300: 394f 6d3e ca30 9d3d 15f3 29be 025e 243d
00000310: 88b2 c03d ed7d cfbd a3ae 1d3b 5a04 a53d
00000320: 8e43 58be cc66 453d c410 e23d d730 efbd
00000330: 021e 3a3b d389 903d 5aa6 aa3d 1f0e aebc
00000340: 4162 d6bd 547a a7bd 617f e7bd b315 5ebd
00000350: 6cad 543e 032a e3bd 1700 d23b 1584 82ba
00000360: 07a2 b4bd 120c 393b 820a 1e3e 2315 67be
00000370: 86eb c03d 8b24 41bd a9a5 22bd 4432 34be
00000380: 7f12 2a3e 13c2 fbbd 3f51 efbd e9b1 2ebe
00000390: 85f0 3e3e d1d1 793c 179e 813d 5bd8 373c
000003a0: dc78 0c3d eef8 3c3e 3711 14bc c803 08be
000003b0: fc13 3fbe 7368 8fbd 6fd9 6d3d bbb1 a63d
000003c0: 3bc4 233e c735 093e e8c0 febd 862d 0bbe
000003d0: 8113 90bd 4e75 003e 6f0a 353a 8a2e 413e
000003e0: f071 373e c491 0b3e e2fb e0bb 3838 13bc
000003f0: bd93 88bd ca81 e03d 5dc3 e03c 3c9b b3bd
0.28035438 0.06927251 -0.124683686 -0.10982081 0.14248377 -0.15443565 -0.027205747 0.076908916
-0.0446364 -0.16834603 -0.038496505 -0.2328234 0.028939305 -0.016586369 0.029806634 -0.2372316
-0.06413551 -0.11178438 -0.05521596 -0.11663714 0.0913401 -0.2416103 0.07952007 0.0925253
-0.058519915 0.11870982 -0.0026592724 0.043567695 -0.09510752 -0.15776487 0.23072024 0.011211563
0.04234429 0.17413667 0.052273296 -0.16129427 0.16102195 0.17545259 0.21249749 -0.19227152
0.21630077 0.2319211 -0.042896494 0.014428524 -0.12793396 -0.057396494 -0.096214145 0.18463106
-0.026627284 -0.013512969 -0.136329 0.25409046 0.076996684 0.05553512 -0.24299419 -0.03348614
0.07905972 0.0069558886 0.11490031 -0.059432857 -0.15597136 0.17157519 -0.03617185 -0.013248354
0.03482159 0.08619 -0.13093723 0.0798773 0.070749946 -0.102625616 -0.22216548 -0.029392513
-0.13837601 0.015878318 -0.003375905 -2.1417236e-05 0.061555754 0.068759464 0.1192398 -0.11963327
0.057973046 -0.1004568 -0.1096831 -0.062156994 0.14003077 -0.08139829 -0.17736916 -0.090826616
-0.15578145 0.1130085 0.029887704 0.03097964 0.02920497 -0.011070846 -0.013623569 -0.101968184
0.06373038 0.13076027 -0.005658024 -0.065741785 0.09296505 0.13770775 -0.033052642 0.0026280724
0.10334484 0.19510782 -0.05399112 0.057415165 -0.08668909 -0.0036465446 -0.11036013 0.11428797
-0.18837464 -0.09346768 0.028455863 0.21186966 -0.010991366 0.0784553 -0.14384995 0.14484462
0.003790248 0.09260771 0.19336256 -0.1374933 -0.03053925 0.07163787 -0.04091171 -0.074974805
0.030972216 -0.02821347 -0.28278714 0.07321013 0.19931772 0.124229036 -0.18227492 0.023624957
0.029406633 -0.031995572 0.03653597 0.0031705042 0.012217776 0.12452636 0.03219888 -0.017159494
-0.17596886 -0.12141508 -0.06678831 0.0030343072 0.030091304 -0.093073525 -0.14558794 -0.154438
-0.32768604 0.05767012 0.021567695 0.12906708 -0.164859 0.00801438 -0.123608716 -0.110860094
-0.0421461 -0.10458623 -0.003387495 -0.025049439 0.105568126 0.08011586 -0.03216391 -0.12702605
-0.04664637 0.031684004 -0.07457958 -0.004149555 0.04822871 -0.10135375 -0.11744259 0.16207248
-0.16177325 -0.13476431 -0.18664293 0.19950207 -0.07130381 0.06514619 -0.014529029 0.017063454
0.074935764 0.0075733666 0.1503531 0.014335449 -0.18444346 0.13246715 0.05630716 -0.141595
0.23174752 0.076753214 -0.16596635 0.040128715 0.09409052 -0.1013144 0.002406039 0.080574706
-0.2111952 0.048193738 0.11038354 -0.11679237 0.0028399234 0.07057538 0.0833251 -0.021246968
-0.10467959 -0.08177629 -0.113035925 -0.054219913 0.2076928 -0.110919975 0.006408702 -0.0009957576
-0.08819967 0.0028235954 0.15433696 -0.22566657 0.094199225 -0.04715399 -0.039708767 -0.175973
0.16608618 -0.12292876 -0.11685418 -0.17060055 0.18646438 0.015247778 0.06328981 0.011221017
0.034294948 0.18454334 -0.009037307 -0.13282692 -0.18659967 -0.07002344 0.05806869 0.08139368
0.15992825 0.1339942 -0.12439138 -0.13591585 -0.0703497 0.12544748 0.0006906157 0.1886541
0.17914557 0.13629824 -0.0068659643 -0.008985572 -0.06668804 0.10962255 0.027436906 -0.08769843

lstm.weight_hh_l1 f4 [256, 64]
00000000: 8442 103d ab43 94bc 5169 d5bd 2e64 a3ba
00000010: ec88 94b9 bf11 d83d 2ed4 24be 9af2 02bd
00000020: 9bbf 46bc 7bf9 163d caab db3c eccd 323c
00000030: 66a3 443e 5450 043e cfb8 9e3c c83f 90bd
00000040: 85e8 0bbe dcf0 1e3e fafb 913d 925b 4e3d
00000050: 59ec aebb e200 0b3d d42e e83d 8e00 173d
00000060: f198 943d 321a 2cbd b2bd 3c3d a963 8abb
00000070: 5e23 b9bd 43f0 de3c 6762 29bc caea 663c
00000080: cc84 3e3d 3e1e 9eb9 44d4 293e 98d4 223e
00000090: 55a8 90bd 618e 2bbd f7ee 0a3e 3904 3f3d
000000a0: 0ade 8ebd 00c6 5fbe b7b2 95bb 71a7 213e
000000b0: da2e 53be 0e47 f5bc e850 07be 41c8 1e3e
000000c0: 9fdf 783e 5d8e eebc 4027 a93d 971a 133e
000000d0: 498d 1a3e cad1 163d dddd c0bd 082e 3fba
000000e0: f908 733c 9be1 d63d 2423 873d 9c71 ff3c
000000f0: 1d16 40bd 93b6 073e 4383 f6bc 795f 16be
00000100: e04a 4dbe ec08 1a3e d5ed 7fbd 30d4 13be
00000110: 80f3 e93c 03b0 0c3e db97 0bbd 53e0 81bd
00000120: 6678 cd3c 6a67 063e b709 41bd a484 103e
00000130: 3730 57bc 1345 3638 6cb1 113d 2c24 103e
00000140: 2aa9 78bc ec7d 543d 9942 a5bd 333f 873d
00000150: faa7 633d 76aa 84bd 9e90 b03c edf0 d13b
00000160: 5ec7 253e f785 6dbd 86d8 90bc 3a8c a0bc
00000170: e16e 873d 173c c6bd f766 0fbe 5d0b c53c
00000180: 6803 393c be43 2f3c fbea 75bd 4151 c63d
00000190: 4a2d ebbd f868 debc 29d6 273e 34ff d03d
000001a0: 2b05 17be 7cb2 91bd dc13 023e 10aa fc3d
000001b0: e59c d43d 5a57 7c3c 2a3a 763c dafc 113e
000001c0: 9f22 603d 113f 97bc 9cae 503e 7ab3 013e
000001d0: 71ac a03d e886 013d 3a84 03bd 2422 1f3e
000001e0: 8d80 0b3d 8878 103e 5a4f 993d 14c9 cbbd
000001f0: d583 81bc b833 083c fd84 e7bc cf1b 33bd
00000200: 3eb9 f3bd ac3a 1a3e 28a2 07bc f236 1c3d
00000210: 935c cfbc 0c99 c73c f9f0 1fbe e4b2 d13d
00000220: d5b2 063d d1d4 213d 5d71 b33d 1b8d 963c
00000230: 623b 6f3d 7d54 ebbc b81b f5bb 47e9 4ebc
00000240: 7126 ccbd ee86 8dbc 1bbc 1e3d a17d f63d
00000250: fb05 b4bd 9a9d 223d 7373 45bd 8b33 ab3d
00000260: 5a30 3f3b 4726 283d 994d a73d 1b94 133d
00000270: 0232 9d3d d94b b6bd 64e8 133d 836a fe3c
00000280: 065c 493c 6111 233d 2d80 6bbd 93eb a3bd
00000290: e0bb 5f3d f9da aabd d37b 1e3e 3f55 21be
000002a0: 0834 82bd 0f21 913c ac8a 253e fbae 4bbd
000002b0: 3c85 043d e243 57bd 7e98 25be 441f 993d
000002c0: de60 eb3d 1a95 0f3d 81dc 4bbd 1767 183e
000002d0: 99d4 af3d d3a0 bd3b b509 703d a2e2 2a3e
000002e0: ec4e 85bd 0235 193e fa1d 20be c5b4 77bb
000002f0: 298c c53d 5098 053e be01 48ba 0b6f 14be
00000300: 39a9 0dbe ba41 a5bc 735f f3bd 3675 96bd
00000310: ae3b 993b f74c 243e d0c7 efbd 4b28 c13c
00000320: 0f4b a03d 402c 103d fc7c abbd 0a88 503e
00000330: e728 213e 956f 8a3c 4128 ff3c 4ccd 6c3d
00000340: bdee 873d d8ef d63d 8567 9bbd 4306 1e3e
00000350: bafa aa3d f0a8 b83d 200d 50bc f1c7 463e
00000360: 8a57 493d 5543 83bd bbad 43bd 2210 393e
00000370: fa15 6dbd dd0c 22be e85f 2fbc fd3a 9ebd
00000380: 1212 19be d79a 23be 9dec 543d 698d 0c3e
00000390: 5a53 44bd c7c9 c6bd c443 5f3d 1d50 95bd
000003a0: e7e6 cabd 9f92 dabd 2dde 1e3e cd12 103e
000003b0: e434 98b9 70f9 f3bb d1f2 4cbe 5f9e 5a3e
000003c0: 85cf 50bd d983 a0bd 2fdd 213e fce1 6a3d
000003d0: 69f0 e73d 7cfe 233e 457b 1abd 1876 e43d
000003e0: 96d7 8ebc 4def 853d 2747 703c 86b2 27bc
000003f0: 6f3c 7f3d f44f 1dbd 4880 e93c a866 37be
0.035219684 -0.018098673 -0.10420478 -0.0012465769 -0.00028330775 0.1055026 -0.16096565 -0.031969644
-0.012130643 0.036859017 0.026815314 0.010913353 0.19202957 0.12921268 0.019375233 -0.07043415
-0.13662918 0.15521568 0.07128139 0.050380297 -0.0053382334 0.03393639 0.11337057 0.036865763
0.07255734 -0.04201717 0.046079345 -0.004223306 -0.09039949 0.027214175 -0.010338402 0.014094064
0.046513364 -0.0003015864 0.16584879 0.1590141 -0.07063357 -0.04188383 0.1356772 0.046634886
-0.06975944 -0.21852875 -0.0045684236 0.1578653 -0.20623341 -0.029941108 -0.13214457 0.15506078
0.24304055 -0.029120618 0.082594395 0.14365612 0.15092959 0.036821164 -0.09417317 -0.0007292931
0.014833682 0.104922496 0.065984994 0.031182103 -0.04689609 0.1325324 -0.030091887 -0.14684857
-0.20048094 0.15042466 -0.062482674 -0.14436412 0.028558493 0.13739018 -0.034080368 -0.063416146
0.025081825 0.13125387 -0.047128405 0.14113098 -0.013134054 4.345651e-05 0.035569593 0.14076298
-0.015177051 0.0518779 -0.08069343 0.06603851 0.055580117 -0.06477825 0.021553334 0.0064068944
0.16189334 -0.057989087 -0.017681371 -0.019598115 0.06612945 -0.0967943 -0.14004122 0.02405327
0.011292316 0.010697303 -0.060038548 0.09683467 -0.114832476 -0.027149662 0.1639029 0.10204926
-0.14748065 -0.07114121 0.12702888 0.12337124 0.10381488 0.015401686 0.015028516 0.14256611
0.054720517 -0.01846269 0.20379108 0.12666121 0.078453906 0.031622797 -0.032108523 0.15540367
0.034058142 0.14108479 0.07485838 -0.09950462 -0.015809933 0.008313112 -0.028261656 -0.043727692
-0.119005665 0.15061444 -0.008278407 0.038138337 -0.025312698 0.02436497 -0.15619268 0.10239199
0.03288539 0.0395096 0.08761857 0.018377831 0.05840624 -0.02872681 -0.007480111 -0.01262886
-0.099682696 -0.017276254 0.03875361 0.120356806 -0.08790203 0.03970108 -0.048205804 0.083594404
0.0029173107 0.04105213 0.081690975 0.036029916 0.07675554 -0.089011855 0.036110297 0.031056648
0.0122900065 0.039811496 -0.057495285 -0.080039166 0.05462253 -0.08342547 0.15476923 -0.15755175
-0.063575804 0.017715959 0.1616618 -0.04972742 0.032353625 -0.052554972 -0.16171452 0.074766666
0.11493085 0.035054304 -0.049770836 0.14883076 0.08585472 0.005786994 0.058603007 0.16688016
-0.06509194 0.14961627 -0.15636435 -0.0037796956 0.09645874 0.13046384 -0.0007629654 -0.14495485
-0.13834085 -0.020172942 -0.1188344 -0.07346575 0.004676304 0.16044985 -0.11708033 0.023578783
0.07826816 0.03519845 -0.08373448 0.20364395 0.1573826 0.01689891 0.031147124 0.057812974
0.066373326 0.10494965 -0.07588104 0.15432076 0.083486035 0.09016597 -0.012698442 0.19412209
0.04915575 -0.06409327 -0.047773104 0.1807256 -0.057882287 -0.1582522 -0.010704018 -0.07726095
-0.149483 -0.15977035 0.051983465 0.13725819 -0.047931053 -0.09706455 0.054507986 -0.07290671
-0.099073224 -0.10672497 0.15514441 0.14069672 -0.00029031106 -0.0074455068 -0.20014502 0.21349476
-0.050979156 -0.07837648 0.15807031 0.05734442 0.113251515 0.16015047 -0.037715215 0.11155337
-0.017436784 0.065397836 0.014665402 -0.010235434 0.062313493 -0.038406327 0.028503552 -0.17910254

lstm.bias_ih_l1 f4 [256]
00000000: 3941 fcbd fa93 82bd 114d 64bd 6596 15be
00000010: f232 20be ba67 22be b453 1ebb 5863 0bbe
00000020: 8950 fcbd 33b6 4bbd da7d 4ebd 534d 62ba
00000030: 0c50 14bd cd00 9e3d 0531 35bd be0b 183c
00000040: e5dd 0fbe b38e e5bc e772 4bbc 1352 03be
00000050: 0c8a 553d 9db0 61bd 17ad c93c 6941 0dbe
00000060: 899d 0abe b327 52be 4580 f5bd bb2d 8ebd
00000070: a9f3 28bd 497b 64be 5d5a 883d 45ad acbd
00000080: 8e8d 38be 0f84 debd c80c 1ebe 32d8 d0bd
00000090: b982 a43c 1b21 aabd eb2d 20bd 238d 22be
000000a0: 276b 4d3c e1f6 4abe 13e6 19bd ed6a 3bbe
000000b0: d7f0 ffbd 3cdf 41be 5c1a 77be ddc5 4bbe
000000c0: 3fe2 67bd 83b0 d7bd 73b1 3cbe 8704 1fbe
000000d0: 3ee7 66bd 4f54 c0bd 139a 9abd e7ae 03be
000000e0: d22e dabd 4c57 27be 4885 ffbc 93cb 24be
000000f0: 64be 04be d7f6 f83b 976f 50bd d26f efbd
00000100: 3afa 1abc e735 04bd da2b 793d 86f0 133c
00000110: 1840 afbd eec7 9a3c 1d9b 91bd 5a69 b5bc
00000120: edf3 f1bd a57f 9cbd bc4f 61bc 0a48 80bd
00000130: 6854 6dbc 22bb 64bd e94d eebd 66de d9bc
00000140: dd26 0fbe 5019 993c 8b17 3d3d a15c 463d
00000150: c391 b0bd 789f aebd 9a8f debd 8cb7 cb3d
00000160: 59c5 85bc 05db 6cbb 2096 623d 02d1 24be
00000170: 51d5 30bd 4292 6ebd 615f 32bc 9d75 92bd
00000180: 95d6 c4bc 758a 63bd d70c db3a 2af7 eabd
00000190: 7e82 ef3c f792 3d3d 4e78 af3c e2e3 11be
000001a0: 9776 55be 6977 abbd 449a 54bd 46a1 c0ba
000001b0: bf1d f2ba cbff 9fbc 6726 51be 54e4 1fbe
000001c0: d680 b83c 29a5 a33b d396 013c 0a4a e6bd
000001d0: dd2c 0b3d e441 1d3d d2d3 923d ca9f f8bc
000001e0: 8ca1 25be 5cbb 9dbd 01ff fdbd 6414 a5bd
000001f0: 4734 52be f48d 59bd b1da 16be 11af ed3c
00000200: a66f 87bd ad43 873c f0b5 9ebc d0ef acbd
00000210: 74e2 a1bd bbe4 c9bc cd4e 903d 2f57 1c3c
00000220: 740e d9bc 5423 4dbd f5d0 8abd c967 843d
00000230: 2328 a1bd c8f9 b9bd 8ea7 97bc 481d 20be
00000240: 0d58 503c 81d3 173e e80f f63b 340d 91bc
00000250: bbb4 d9bd 7001 8a3d 5ee4 9e3a 3661 86bd
00000260: ed62 103e 22e1 97bc 5964 153e 6f82 dfbd
00000270: 7210 c6bd f0ca e3bd 5482 493d 2960 19bd
00000280: 6dba a9bd 6f02 92bd bb3b 93bd 9cc5 aabd
00000290: 9a9e 84bc 9593 b3bd 4185 d93d df5b c3bc
000002a0: d979 943d b396 e0ba 1d70 cebd 13a8 1d3e
000002b0: 98e8 cabc bcd9 3abd 9d0b 06bc dbd5 f5bd
000002c0: c2c7 a4bd 306f a6bd 2455 81bc 5a6e 31bc
000002d0: f7c9 6fbd 9b10 ff3c 6c96 19bc 7967 e13b
000002e0: 01c2 86bd be9d ebbb 1431 d3bc 1570 15bc
000002f0: 8bfa 32be 6c39 c03b da13 70bd 9776 fbbd
00000300: aa4c 3bbe 1546 07be c62e 48bd a4a7 08bd
00000310: 04d2 253d 375f f0bd 4da6 b4bd d91d a0bd
00000320: eb75 08be b837 6fbc 7477 673c 95e2 36be
00000330: d7a2 2cbe dfc9 433d 30c7 43be 5c86 e9bc
00000340: 48ce 82bd e470 e43c 669c a7bd 5421 993b
00000350: cf16 c5bd 8cea 413c 478d 68bd ab76 fabd
00000360: ff42 03bd 4b43 4ebd f34e 103c 1a79 66bd
00000370: 5952 7fbc 3500 0cbe 35c5 e13c 0f09 ebbc
00000380: 426b 85bd ac69 f13c cb22 b0bd d970 e23c
00000390: 95ac 893c fccc 44be ea8b 16be c968 ec3c
000003a0: e5d2 46bd ce02 e03b 7c6f ab3b 4eef bdbd
000003b0: c905 6cbd 998f b53c 9897 17bd 0f3a 02be
000003c0: 6f0c 8f3d 3ecd 08be 072b 3abe aa68 03be
000003d0: f798 9cbd fe6b 23be 8249 20be acc7 f13c
000003e0: d789 ba3c c454 ffbd 811c 2fbe 5e64 7cbd
000003f0: 49c0 1cbe ce0b c1bd 6471 8aba 011d 793d
-0.12317128 -0.063758805 -0.05573756 -0.14608152 -0.15644434 -0.15859881 -0.0024158778 -0.13612115
-0.12320048 -0.049734306 -0.05041299 -0.0008632738 -0.03620915 0.077149965 -0.0442362 0.009280143
-0.1404949 -0.028022146 -0.012417532 -0.12824278 0.052133605 -0.055100072 0.024618668 -0.13794483
-0.13536657 -0.20522957 -0.11987356 -0.06942316 -0.041247997 -0.22312655 0.066578604 -0.08431486
-0.18022749 -0.10865032 -0.15434563 -0.10197486 0.020081865 -0.083070956 -0.03910629 -0.15874152
0.012537754 -0.1982074 -0.03757293 -0.18302508 -0.124971084 -0.18932813 -0.24131149 -0.19899698
-0.05661225 -0.10531714 -0.18427067 -0.15529071 -0.056372873 -0.093910806 -0.075489186 -0.12859689
-0.106534615 -0.16341895 -0.031191483 -0.16093282 -0.12963253 0.007597785 -0.05088767 -0.1169125
-0.009459073 -0.032277968 0.060832836 0.009029513 -0.08557147 0.018894162 -0.07109664 -0.022144962
-0.11814103 -0.07641534 -0.01375192 -0.0626374 -0.014485456 -0.055842526 -0.11635954 -0.026595306
-0.13979669 0.018688828 0.04616503 0.04842818 -0.08621552 -0.0852651 -0.108672336 0.09947118
-0.016329454 -0.0036141288 0.05531895 -0.16095355 -0.043172184 -0.05824495 -0.010886998 -0.07151339
-0.024028102 -0.055551965 0.0016712201 -0.11472924 0.029237028 0.046282735 0.02141967 -0.14247087
-0.2084602 -0.08372385 -0.05190493 -0.0014696501 -0.0018472 -0.019531151 -0.20424806 -0.15614444
0.022522371 0.004994054 0.007909494 -0.112445906 0.03397833 0.038392916 0.07169308 -0.03034963
-0.16174906 -0.077017516 -0.12402154 -0.0806053 -0.20527755 -0.053113893 -0.14731862 0.029014142
-0.06613092 0.016511763 -0.019373864 -0.08444178 -0.07904521 -0.0246452 0.0704628 0.009542271
-0.02649615 -0.05008252 -0.06778137 0.06465108 -0.078689836 -0.09080845 -0.018512513 -0.1563617
0.012716305 0.14826776 0.0075092204 -0.017706491 -0.10630175 0.067385554 0.0012122502 -0.0656151
0.14100237 -0.018539969 0.14589061 -0.1091355 -0.096711054 -0.11122692 0.049196556 -0.03744522
-0.08287511 -0.071293704 -0.07189127 -0.08338472 -0.016188908 -0.087683834 0.10621119 -0.023847518
0.07249803 -0.0017134756 -0.10079978 0.15396146 -0.024769112 -0.045617804 -0.00818148 -0.1200368
-0.08045913 -0.08126676 -0.015787669 -0.0108295325 -0.058542218 0.031135848 -0.009374242 0.00687879
-0.06579972 -0.007190435 -0.025780238 -0.009120961 -0.17478387 0.00586622 -0.058612682 -0.122784786
-0.18290964 -0.13210328 -0.04887273 -0.033363 0.04048349 -0.11736911 -0.08820782 -0.07818193
-0.13326232 -0.014600687 0.014127601 -0.17859872 -0.16858993 0.04779994 -0.19118953 -0.02850645
-0.06387001 0.027885862 -0.081841275 0.0046731625 -0.09623491 0.0118357055 -0.056775358 -0.12229665
-0.032046314 -0.050357144 0.008807885 -0.056267835 -0.015583598 -0.13671954 0.027559856 -0.028690843
-0.065145984 0.029469334 -0.08600386 0.0276417 0.016805926 -0.1921882 -0.1470181 0.02885856
-0.04854097 0.006836272 0.005231796 -0.09274159 -0.057622705 0.0221632 -0.037009805 -0.1271746
0.069847934 -0.13359544 -0.18180476 -0.12832895 -0.07646363 -0.15959165 -0.15653041 0.029514156
0.022770805 -0.1246734 -0.17100717 -0.061619155 -0.15307726 -0.0942608 -0.0010562357 0.060818676
