Competition/TrainAI/model/s100/model_weights_2.pth (torch, 443791 bytes, 18 tensors)

lstm.weight_ih_l0 f4 [256, 36]
00000000: d89c 92bd 57b9 593d 58c9 413c 87f1 a4bd
00000010: c15a 803c 4a72 10be a187 1ebd bda7 88bd
00000020: fa13 9abd 16fc bf3d 0c93 92bd 9f54 773d
00000030: f893 923b 1878 c13d cfdd 62bc 278f 02bd
00000040: 418e c73d 4aa5 0cbe 4f14 62bd 3b28 1bbd
00000050: 69c5 d63b 1d86 2d3d 34a0 18bd dd25 e6bd
00000060: 254c 773d 0f1a 6bbd d98b a2bc be1c 40bd
00000070: bfc2 d7bc adba 0c3e dc6f b43d d980 a0bb
00000080: 99c6 1f3c 68b2 3dbc a5dd 913d cf68 0cbd
00000090: a84a 753e 5763 dd3d f498 1d3d 3ea7 25be
000000a0: 0f04 90bd 0ad8 d0bd 60bb cfbd 1b66 aabd
000000b0: 6090 40be 80c1 87bd 3ff4 bebd 980e 8ebc
000000c0: 06b3 60be 0767 273c 2605 07bc c495 483a
000000d0: a6ea f23d 9aed 40bd 5a9d 9ebd f1d9 dabd
000000e0: f37a 563e 10a7 3bbe 3197 bc3d a808 773c
000000f0: 6047 2bbd 6435 e4bd 75af 0ebe 0948 623d
00000100: 1616 88bd 386d 663d 1e39 893d 609c 84bd
00000110: 40d0 de3b 8f42 2dbd c8ce ccbd 1b41 eb3c
00000120: 3d71 843d d6a5 543d 298c 46be 05b8 fe3b
00000130: 34de 02be 6590 783e cbbf af3d e037 b7bd
00000140: dcec 6a3c 66dd a33d 281e 1e3c 9093 7abe
00000150: 5cdc 10be fe98 03be 0965 8ebd dca2 383e
00000160: 7cf3 efbd bf68 6a3e 37b4 febc eed7 79bd
00000170: 8780 083e c809 acbd 4f67 b4bd 6184 693d
00000180: a3f7 19be 8bac 15be d087 02be 0d31 7fbc
00000190: a747 49be aaac 883d 80bb 38be eda9 573d
000001a0: 20a9 2b3c 84d3 6fbc 830e 95bd b552 22be
000001b0: df18 943d c285 b63b c0ec b5bc dcef 263e
000001c0: 0df2 493e 1ef5 3e3d a9a1 123e a605 c53c
000001d0: afd7 e4bb b682 bcbd d014 08bd 7378 3abc
000001e0: fea5 40be 9555 47bd 0b84 2a3d b945 503d
000001f0: bdb7 863a 7807 fbbb 15e4 e63d df22 783d
00000200: 7429 ffbc 0eb1 aebd 76a2 1e3d 1445 253d
00000210: 2b38 de3d cadf f43d 5fc2 dabc c839 82bd
00000220: 48e2 003d 078d b63a 3ba1 d53d 6c76 d8bd
00000230: c38e 0c3d d22a 713d 28c2 383e 57e0 70bd
00000240: fc10 69bd df7f 083e 720e 813b e3db 38bd
00000250: a071 653d ee29 59bc 05f9 04bd f658 04be
00000260: 6528 0a3e 362a a0bd 5498 633c c7c6 bf3d
00000270: eb2e b2bd 0c2c d8bd 4a76 08bd 7b1f d0bd
00000280: 0deb 213d c5ae afbd 5a17 aabc 89dd 94bd
00000290: d6b0 06bd d120 2b3e f2ed 223e 27f8 7dbd
000002a0: 2c60 43bd 5c66 923c 7956 773d 3e77 383e
000002b0: cf89 af3d 9984 7ebd 5ad4 e13c 051a 1cbd
000002c0: 47de 9abd 2168 40be e9a9 463c b0c8 d33b
000002d0: e55e b53d 5107 08bd c56e 69bd ddba 2e3d
000002e0: 7347 983d 55cb ae3b aa00 1cbd 3e04 3abd
000002f0: 006e 8fbd 62d5 a03d 3592 c63c d585 84bd
00000300: e1d5 d4ba 8970 cabd 1a7b 32bd e57e b2bd
00000310: 1eca bf3d f579 0fbe 976d 933d 3104 b43d
00000320: 50c8 063d b7dc 86bd e010 e53d 6ee6 123e
00000330: 5fbe 9b3d d639 86bc e001 dcbb 44b2 41be
00000340: 577e b13d 551c 653d 7d6a 3c3d 7406 f33d
00000350: ea6a 883d a999 8fbd b9cc 80bd a207 a23c
00000360: dc0a 42be 4c97 20be a8de 9c3d 6866 15be
00000370: fe4a 173a 5336 943d 21d6 d13c eed2 cb3b
00000380: 98c1 b33b d195 c8bc 293a 3c3e d88f 8bbc
00000390: b6be ab3d adde 99ba 6f22 03ba d0cf 4cbd
000003a0: c569 bdbd 2e2e 3ebd c20e 93bd dfe9 82bd
000003b0: c28d ef3d 7a8c c93d a73d e53d f2ae 973c
000003c0: e862 f53d 3315 163e 0d58 bc3d 2610 6c3c
000003d0: fec0 0e3e fa6d f13d 52fd 313c 0e1b 633d
000003e0: ab9a cbbd dd98 5f3d d4ed 513d b71f 1e3e
000003f0: 5f7d 3cbd 280c 0c3d 3d27 083e b059 30be
-0.07158822 0.05315527 0.011827789 -0.0805388 0.015668275 -0.14106098 -0.038703565 -0.066726185
-0.075233415 0.093742535 -0.07156953 0.060383435 0.0044732057 0.09446734 -0.013846829 -0.031874802
0.0974393 -0.13734928 -0.05519515 -0.037880164 0.006554295 0.04236423 -0.037262157 -0.112376906
0.06037535 -0.0573979 -0.019842075 -0.04690241 -0.02633798 0.13743086 0.08810398 -0.0048981723
0.009751939 -0.01157818 0.071223535 -0.03427964 0.2395426 0.10809963 0.038475946 -0.16177079
-0.07032024 -0.10197456 -0.10143161 -0.08320256 -0.18805075 -0.06628704 -0.0932393 -0.017340943
-0.21943292 0.010217435 -0.008240974 0.00076517113 0.11861162 -0.047101595 -0.07744856 -0.106861
0.20945339 -0.18325448 0.09208525 0.015077747 -0.041816115 -0.11142996 -0.13934119 0.05524448
-0.066448376 0.056256503 0.06700347 -0.06475139 0.0067997277 -0.042299803 -0.10000378 0.028717568
0.06466911 0.051915966 -0.19389404 0.0077734017 -0.12780076 0.24273832 0.085815035 -0.08946204
0.014338698 0.08001213 0.0096507445 -0.24470353 -0.1414656 -0.1285133 -0.06952865 0.18030876
-0.11716363 0.2289152 -0.031091793 -0.060996942 0.1333028 -0.08400303 -0.08808767 0.057011012
-0.15035872 -0.14616601 -0.12747121 -0.015575659 -0.1965624 0.06673558 -0.18040276 0.05265229
0.010477334 -0.014637832 -0.072781585 -0.15851863 0.07231306 0.0055701444 -0.022207618 0.16302437
0.19721241 0.04662048 0.14319481 0.024050545 -0.0069837193 -0.09204619 -0.033222973 -0.011381256
-0.18813321 -0.0486656 0.041629832 0.050847743 0.0010278147 -0.0076608025 0.11273972 0.06058013
-0.031147696 -0.08529864 0.038729154 0.04034908 0.10850557 0.11956747 -0.026704011 -0.06358677
0.0314658 0.0013927527 0.10431143 -0.10569462 0.034315836 0.058878727 0.18042815 -0.058807697
-0.056900963 0.13330029 0.0039384896 -0.045131575 0.056016564 -0.013254626 -0.032464046 -0.12924561
0.13491972 -0.07820551 0.013891298 0.09364086 -0.08700355 -0.10555276 -0.033315934 -0.101622544
0.039530803 -0.085782565 -0.020763088 -0.07268817 -0.032883488 0.16711737 0.15911081 -0.062004235
-0.04769914 0.017871074 0.0603852 0.18014237 0.08571207 -0.062138174 0.027567077 -0.03811075
-0.07561927 -0.18789722 0.012125471 0.006463133 0.0885599 -0.033210102 -0.056990404 0.042658675
0.07435503 0.0053342977 -0.03808657 -0.045414202 -0.07003403 0.078531995 0.024239639 -0.06470839
-0.0016238057 -0.09884746 -0.04357443 -0.087156095 0.09364723 -0.14011367 0.07198637 0.08789862
0.032905877 -0.06585067 0.11184859 0.14345714 0.0760467 -0.016385 -0.0067140907 -0.18915659
0.086666755 0.055935223 0.045999993 0.11866465 0.06661017 -0.0701173 -0.06289048 0.01977903
-0.18949455 -0.15682715 0.07659656 -0.14589846 0.00057713676 0.07236924 0.0256148 0.006220213
0.0054857247 -0.0244855 0.18381561 -0.017036363 0.083859846 -0.0011739336 -0.00050023844 -0.050002873
-0.092486896 -0.04643076 -0.07180549 -0.063922636 0.1169696 0.09841247 0.111934 0.018516038
0.119817555 0.14656524 0.09196482 0.014408147 0.13940808 0.117885545 0.010863619 0.055445723
-0.0994161 0.05458914 0.0512522 0.15441786 -0.046018 0.03419128 0.13296218 -0.17221713

lstm.weight_hh_l0 f4 [256, 64]
00000000: 2b57 f0bd c565 12be 527f ffbd ad68 77bc
00000010: 1c80 5ebd 0122 093d c34d 3abd 4277 663d
00000020: 4544 a4bd 844b b9bd 4e81 94bd e39d 22be
00000030: 8d10 0fbe ec76 1bbe 215f 123e e5ec b23c
00000040: 6d90 b33d 4e1f abbd 206d ab3d 35b9 e6bd
00000050: 1659 f33d b434 03be 84d7 fdbc b9da a83d
00000060: d020 01bd 04a8 e23d 8a74 cc3d 871f 90bd
00000070: e428 143e 599a a6bd b547 1a3e 704c 083e
00000080: 463c a5bb cd85 6dbd 469b 403d 072f bdbc
00000090: 94a7 af3d b672 2ebd 9de5 e23c dd2e c1bd
000000a0: 68ff 593d 6879 583c 00e4 84bd a367 253d
000000b0: a477 adbd dfaf 0d3e b42b 343d c99a 313e
000000c0: 56e8 19bd 1cff 02bd d487 683d 335a e03d
000000d0: 8e2a 093e 2198 ca3d 1383 8b3d 7755 a2bd
000000e0: 50a6 3fbe ede5 4cbd bc68 9bbd 200b 0cbe
000000f0: 45a5 11be aafc daba 2c4a 013d 821a 1ebd
00000100: 1dab ef3d b9df 90bd e97f d9bd 07f2 e43d
00000110: 4807 a03d cf52 f6bd 57f4 aabd f2e9 af3d
00000120: 31f7 543d 2158 55bd eb2f 6d3d c520 d23d
00000130: 8386 0fbe ab44 193c 7c09 6e3c 046d 083d
00000140: c491 a2bd 18b8 a93c a5d3 1dbe df0f 56bc
00000150: 7bc1 19be 9125 a3bd c9a6 e83c a7d4 463c
00000160: a830 82bd 860b 0e3e ae13 403e 1e82 72bd
00000170: 7a24 68bd b4e8 a2bb 6656 d83d dd95 15bd
00000180: 9e23 003e 8394 043d 354e 3b3d 38b3 0d3d
00000190: 51e3 96bb 8eb5 9a3d 8197 5abe a235 933d
000001a0: 4f14 1abe 7eaa 64bd 95f5 dfbc a6b9 713c
000001b0: cd1f 35bc b1f7 81bc 1a53 ff3c 1c0a c43d
000001c0: 0f3f dc3c 3257 8bbd 2093 8c3c b88d 9dbd
000001d0: 4d4f 273d 9019 e3bd d8c4 473c bb2c d8bd
000001e0: 12a3 883c 934e 13be 261e d4bc fd3a d7bd
000001f0: bb73 5fbd 8506 64be 68ec 1e3d 0985 61bd
00000200: 5cbd a73d daab 1ebd 05f9 603d bd69 12be
00000210: 1cfc cabd e006 513a 43e7 463d 4db8 8a3c
00000220: 12cf 1b3e 9b0e 26bd 7b86 70bd 3bc1 95bd
00000230: 42dc e0bd 3eac 18be 912a ea3c 26be 333d
00000240: b5a0 af3d 5044 dcbd 8312 8bbd 4bd3 d6bc
00000250: edc3 a63d 576b db3d 51b3 3ebe 6ef3 2c3d
00000260: 1c7b 1ebe aa25 5abd ba23 b93d 50e0 57be
00000270: 9717 acbd 2594 023e 1ff9 d5bd c23f 0f3e
00000280: 2fb2 e6bd 57b9 843d 71c0 0a3d a4ff e23c
00000290: b888 073d 38d8 bf3d 8e82 b1bd 041b 07be
000002a0: 3bca 77bc 7986 dfbd c1e7 0a3e 3eac e03b
000002b0: 6755 5dbe 4adf d63d e582 04bd 0818 a9bd
000002c0: da4f 9e3d 02ab e03c d9a6 89bc fbf6 d0bd
000002d0: eb83 fabd 8f91 3b3d ffb0 af3c 8372 bdbd
000002e0: a966 a33d eaa0 c2bd 3d8d 82bc 1f8a 1bbd
000002f0: 2b5c 81bd 29c7 ab3c 09b2 7f3c 867b 27bd
00000300: a484 02be 3c31 c3bb dffe 55bd e3b3 9ebd
00000310: afa3 903d e9be d9bd 4f7f 8b3b 8641 dabc
00000320: dac3 8ebd b243 f03d 4596 0c3e 1136 ee3c
00000330: 27a4 033e c497 e9bd a9aa c5bd acfd 103c
00000340: 808a 653d bc55 103e 247f 4bbd 450b ddbd
00000350: 001f 6dbc b2d5 c0bd c02c d43c da23 1bbd
00000360: af6e e03d dca4 a33d d29f 48bd 75f7 543d
00000370: 7e79 113e 0afe 3a3e ad03 9b3d ba15 1e3e
00000380: ad9e e63d 74aa 00be 1ba7 16be 5bf4 5cbd
00000390: fce8 2a3d c65a 523c fc96 19be b02d c53d
000003a0: c9bf ac3b 737f 903d ac63 0c3e e39c 17bd
000003b0: 38da cbbd 798e 2abd c231 f53d 9034 0d3c
000003c0: 8192 e3bd 9619 54bc a8c6 fc3c 39d1 0c3d
000003d0: 5a49 043e 03d0 dfbd f754 843d cc32 2c3d
000003e0: 69b4 89bd 8b96 b9bb 8a7c 453d 89c4 cdbc
000003f0: 6474 3f3c 0e57 343c c019 003e feb5 033d
-0.11735376 -0.14296634 -0.12475456 -0.01510064 -0.054321393 0.033479694 -0.045484316 0.056266077
-0.08020834 -0.090476066 -0.072512254 -0.15880542 -0.13971157 -0.15182084 0.14294101 0.021841476
0.087677814 -0.0835558 0.08370423 -0.11265794 0.11882226 -0.12813073 -0.030986555 0.08244843
-0.031525433 0.11067203 0.099831656 -0.07037263 0.14468724 -0.08134908 0.15066417 0.13310409
-0.0050425855 -0.05798893 0.04702308 -0.023093713 0.08576885 -0.042589866 0.027697379 -0.094327666
0.05322209 0.013212539 -0.064888 0.04038204 -0.08470085 0.13836621 0.04398699 0.17344202
-0.03757509 -0.031981573 0.05677016 0.10954704 0.1339514 0.098922975 0.0681211 -0.079264574
-0.18715787 -0.05002396 -0.07588336 -0.13676119 -0.14223202 -0.001670738 0.031564876 -0.0385995
0.11702559 -0.07073922 -0.106201 0.111789756 0.07813889 -0.12027513 -0.083473854 0.085895434
0.051993553 -0.052086 0.057907026 0.102601565 -0.14016156 0.009354751 0.014528628 0.03330709
-0.07937959 0.020717666 -0.15412767 -0.013065307 -0.15015213 -0.079661496 0.028399842 0.012135661
-0.06356937 0.13871583 0.18757507 -0.05920612 -0.05667541 -0.004971588 0.10563354 -0.036519874
0.12513587 0.032368194 0.04572888 0.034594744 -0.004604735 0.0755416 -0.21346857 0.07187964
-0.1504681 -0.055826657 -0.027338782 0.014753735 -0.011054945 -0.015865179 0.031167556 0.09572241
0.026885537 -0.068037406 0.017159998 -0.07693046 0.04084711 -0.1108886 0.012192927 -0.10555407
0.01667932 -0.14385442 -0.025893282 -0.10509298 -0.05455373 -0.22268112 0.038799673 -0.055058513
0.08190414 -0.03873811 0.054924984 -0.14298148 -0.09911367 0.0007973742 0.048560392 0.016933585
0.1521571 -0.040541273 -0.058722 -0.073122464 -0.10979511 -0.14909455 0.02858475 0.04388251
0.08575574 -0.10755217 -0.0679064 -0.0262238 0.081428386 0.10713833 -0.18623091 0.04222434
-0.1547665 -0.053258575 0.090400174 -0.21081662 -0.08402937 0.12751825 -0.10447907 0.13989165
-0.112644546 0.06480663 0.033874933 0.02770979 0.03308937 0.09367412 -0.086674795 -0.131939
-0.015123899 -0.109143205 0.1356497 0.0068564704 -0.2161461 0.10491808 -0.032351393 -0.08256537
0.07730074 0.027425293 -0.016803192 -0.10203358 -0.122321926 0.045793112 0.021446703 -0.09250357
0.07978565 -0.09503348 -0.015936488 -0.03797352 -0.06316408 0.02096899 0.015606412 -0.040889286
-0.12745911 -0.005956797 -0.052245017 -0.077491544 0.0706247 -0.10632116 0.0042571197 -0.026642572
-0.069709495 0.11731662 0.13729198 0.029078515 0.12855588 -0.114059 -0.096516915 0.008849543
0.056040287 0.14095205 -0.049681798 -0.10793165 -0.014472723 -0.09415759 0.025900245 -0.037875988
0.10958611 0.07990429 -0.04898054 0.051993806 0.14206502 0.1826097 0.075690605 0.15437976
0.11260734 -0.12565023 -0.14712183 -0.053943973 0.041726097 0.012839025 -0.14999002 0.09627855
0.005271886 0.07055559 0.13709897 -0.037014853 -0.09953731 -0.04163978 0.11972381 0.008618489
-0.11111928 -0.012945553 0.030856445 0.034379218 0.12918606 -0.10928347 0.06461518 0.04204063
-0.06723864 -0.005663698 0.048214473 -0.02511813 0.0116854645 0.011007084 0.12509823 0.032155983

lstm.bias_ih_l0 f4 [256]
00000000: c015 1bbe 0698 ba3c 1c83 0d3c 74cd 0a3d
00000010: 7cff 053c 2370 5fbd 7e39 463d f39c 333e
00000020: f4cc 8bbc f5b2 30be 179b 99bd 81b4 17bc
00000030: eb46 20bb 529f 10bc 87e4 89bd 854e 0ebe
00000040: 0c97 01be 3e38 fe3c f84a e1bd 088f e63d
00000050: 997a 92bd 8508 5fbe 66cf 06be 4d15 35be
00000060: e2d7 ed3d fa99 c2bd 1ee9 2f3d 8cc8 e8bd
00000070: b4f4 bd3d 9630 bbbd b06d 15be 86d9 51bb
00000080: fe8e 6dbd 86c0 52be f4d0 99bc edb0 05be
00000090: 27ee c33c 2e2e 0e3d 1ec9 483d 07cd 843d
000000a0: 4c54 ccbd b855 1abd 46e4 c83c 39e0 0abe
000000b0: fc40 11bd a252 52bd 250d 11be f709 ecbd
000000c0: f7a4 dfbd 342d 7e3d aa8c f93b 04ce febd
000000d0: af83 803d 5867 fabd a07a adbd 0ecc 0e3e
000000e0: 92ba a13a f1f5 db3a 06e8 97bd 5f1d 0dbd
000000f0: d09b 1a3e 5ce8 b3bc ed94 a2bd 10a7 89bd
00000100: 73d9 f1bd 3057 213d 9805 723d 5455 b83c
00000110: 22e8 17be ce4c cc3c 2be7 c8bd d161 4e3c
00000120: 9281 bd3c 724a 97bd 8850 d13d db20 79bd
00000130: 3cf1 a43a 4d72 f8bd 998e a73d a40e 0bbd
00000140: effc 46be 2e30 c0bd 2e4d 7cbb 6655 99bd
00000150: 2fd3 a53c a0d8 093d 1ce7 e5bb 3a23 2dbe
00000160: a685 c2bc 4627 38be b5ca 03be 6c3f 09be
00000170: cf9c a73d 50e8 0bbd 4102 13be 9192 143e
00000180: 559a 1fbd aa23 46bd 6d74 23be e178 b8bd
00000190: 5cda 543c 9ef9 e8bd f3c6 2bbe dd27 5f3b
000001a0: 2211 0c3d 9e24 2b3e 8403 acbd 99a5 1bbd
000001b0: 66dc cabc d649 eb3d c1c6 f7bc 145c 43be
000001c0: fcbe af3d b34f e7bc 136b f8bd de40 7fbd
000001d0: a4f6 2dbe 92c6 b3bd dd97 e33d 378e d5bd
000001e0: eb67 6fbc 320f febd ded8 bebc 806c 2bbe
000001f0: b312 cb3d 92b0 bfbb 78bf 93bd c3d7 2dbc
00000200: ccbc 77bd 8dfa 3d3e f323 dbbc 6f0e 5a3d
00000210: 45a9 603c bd8a 393a e66d 133e a71a 293d
00000220: ac28 e0bd 7608 f53d 6342 bc3c 75aa b7bd
00000230: abdb e8bd 0b14 ac3d ecc9 033e c2e3 e13c
00000240: 8b3c eabc 1ddd e93d d62c 3b3c 97c5 f73d
00000250: 6503 10be 02b9 103c d5af 93bd efab 3b3c
00000260: 2ca2 b03d 1c66 3bbd 4d8c 803d 28d1 003d
00000270: 51f3 ad3c edae e4bd 2425 f73d 16fa e9bc
00000280: a5bb 8db9 8824 0fbe 3f6d 46bd cfb1 903c
00000290: 6494 20be 2dec 28be b77f e53c 9b32 573d
000002a0: a39f cfbd 8481 ba3d 3891 cb3b 889e 85bc
000002b0: cc40 7cbd c310 403e 51ea 103e e595 63bc
000002c0: ddb8 563d 23c8 c1bd abf5 453e a89e 043e
000002d0: 3ef6 afbd 8a8e b03d 1d42 f63d dee2 073e
000002e0: 70a3 fe3d b6d3 8a3d 69f7 ae3d 6ea4 c7bd
000002f0: 15ab 633d 2c7d da3d 31db 073e beef cebd
00000300: 444c 36be e334 6ebd baf3 28be f363 72bd
00000310: 31f9 acbd 31db 5c3c cee4 f7bd 57a5 73bd
00000320: c1f3 7f3d 4fcb 9cbc 3bb2 6cbc 070c c0bc
00000330: 1429 6ebd 6dd5 cc3c a796 3cbe 5033 0d3d
00000340: c094 22bd 8f8e a83c 1c95 20bd 32b1 92bd
00000350: 815a 863d 38fc b1bc 330b 2fbd bd10 2d3d
00000360: 885d 453c 9d29 0bbe 3a09 0abd dc5b 473d
00000370: df65 a5bd 9b96 fa3c eea8 1f3d 48d9 63bd
00000380: 54e7 76bd dae2 7ebc e300 0d3e dcec 573c
00000390: 1882 5ebd 55f8 d83d 4764 84bc 5e76 a5bd
000003a0: 3d6e 213c ff89 b3bc 71c0 6a3d d28b c9bd
000003b0: f645 13be 2baf 10bd ddf1 c6bd f6ec 06be
000003c0: 15a6 ba3d 4d62 0e3e 7cc4 21be 13de aa3c
000003d0: a049 6fbc 9803 9c3d 96c1 19be 9050 b5bd
000003e0: 94a2 8ebd 7a6b 6abd b443 5fbd c27d 24bc
000003f0: f0c9 e9bd 6367 34be 8253 11bd 1bc6 31be
-0.15145016 0.022777569 0.008637216 0.03388734 0.008178588 -0.0545503 0.048394673 0.1754034
-0.017065503 -0.17255767 -0.07500284 -0.009259344 -0.0024456333 -0.008827047 -0.06733041 -0.1389714
-0.12655276 0.031032678 -0.11000627 0.1125775 -0.0715229 -0.21780594 -0.13165054 -0.17683907
0.11613442 -0.09502025 0.042946927 -0.11366376 0.09275189 -0.091401264 -0.14592624 -0.0032020523
-0.057997696 -0.20581254 -0.018776394 -0.13055773 0.02391727 0.03471201 0.049019925 0.06484418
-0.09977016 -0.037679404 0.024522912 -0.13562097 -0.035462365 -0.051348336 -0.1416517 -0.11525338
-0.109201364 0.062054828 0.0076156454 -0.12441638 0.06275117 -0.122267425 -0.084706545 0.13945028
0.0012338927 0.001678167 -0.07417302 -0.03445184 0.150985 -0.021961384 -0.079385616 -0.06721318
-0.11809053 0.03938979 0.059087366 0.022501625 -0.14834645 0.024938967 -0.09809717 0.012596563
0.023133073 -0.07387246 0.10220438 -0.06082235 0.00125841 -0.12131176 0.08181495 -0.03394951
-0.19432424 -0.093841895 -0.003849815 -0.074869916 0.020242302 0.033653855 -0.007016076 -0.16907969
-0.02374537 -0.17983732 -0.12870295 -0.134031 0.08184206 -0.034157097 -0.14356329 0.14509036
-0.038965542 -0.048373856 -0.15962382 -0.09007431 0.012991514 -0.11375736 -0.16775112 0.003405086
0.034196027 0.16713187 -0.08399108 -0.037999723 -0.024763297 0.114886925 -0.03024614 -0.19078094
0.08581349 -0.028236246 -0.12129798 -0.06231772 -0.16988617 -0.08778109 0.1111295 -0.10427516
-0.014612178 -0.12405242 -0.02329677 -0.16740608 0.09915676 -0.0058499062 -0.07214254 -0.010610524
-0.060482785 0.18552609 -0.02675054 0.05323642 0.013712232 0.00070778636 0.14397392 0.041285183
-0.109452575 0.119645044 0.022980874 -0.08968059 -0.11370023 0.084022604 0.12869996 0.027574424
-0.028593322 0.11419127 0.011424264 0.12098234 -0.14063795 0.008833172 -0.07211272 0.011454566
0.08624682 -0.045751676 0.0627676 0.031449467 0.021234186 -0.11166177 0.12067631 -0.028561633
-0.00027033422 -0.1397878 -0.04844403 0.01766291 -0.15681607 -0.16496344 0.028015 0.052538496
-0.1013787 0.091067344 0.00621238 -0.016310945 -0.061585233 0.18756394 0.14151885 -0.013890718
0.052422393 -0.09462001 0.19331996 0.12951148 -0.08591889 0.08620937 0.12024329 0.13270137
0.12433517 0.06778662 0.085432835 -0.09748159 0.05558308 0.10668406 0.13267209 -0.10104321
-0.1780253 -0.058155905 -0.16499224 -0.05917735 -0.08445967 0.013479994 -0.12104188 -0.059483852
0.06248832 -0.019139914 -0.01444679 -0.023443235 -0.058144644 0.025004113 -0.18416844 0.034472764
-0.03969264 0.02057579 -0.0392047 -0.071627036 0.06560231 -0.021726713 -0.04273529 0.04225229
0.012046225 -0.13590093 -0.033700205 0.04867159 -0.08076071 0.030589392 0.038979463 -0.055627137
-0.060279205 -0.015557015 0.1376987 0.01317903 -0.054323286 0.105942406 -0.016161097 -0.080792174
0.009852943 -0.021916388 0.057312433 -0.09841122 -0.14382157 -0.035323303 -0.097141005 -0.13176331
0.09113709 0.13904686 -0.15797609 0.020857846 -0.014604956 0.07617873 -0.15015253 -0.08853257
-0.06964603 -0.057231404 -0.054507926 -0.010039749 -0.1141547 -0.17617564 -0.03548003 -0.17360727

lstm.bias_hh_l0 f4 [256]
00000000: 70d5 9fbd 4490 243e a00c 08bd 6bf3 07be
00000010: f8d1 37be a720 20bd 6be9 0fbd 2c42 37bd
00000020: 1458 cbbc 68b0 c9bd 5633 3fbe e2b2 703d
00000030: 247d f23d 7ae5 6f3d 5ab6 10be 71d3 47bb
00000040: 8028 0dbe 5336 9ebd 9fa6 31be 9dc1 f139
00000050: e56c 813c 6b15 dcbd 61a4 e0bb 036b 99bd
00000060: 6a32 b4bc 1b20 3a3d 895b cdbd 0ea4 72bd
00000070: 7229 ebbb 511a 093d 0d53 fcbd 5206 2dbd
00000080: 69be 12bd 2def 08be 4ece 3dbe 3f03 7cbe
00000090: f097 22be 8d72 b7bd f571 00be 71eb 013d
000000a0: 5064 31bd a950 06be c404 75bd 4034 9fbd
000000b0: f94a 47be fcfe 803d 23c1 c1bd b153 65bd
000000c0: 970a 1f3d bcad 443c 1d78 9bbd 2de7 b4bd
000000d0: c8fd 403d 84a3 ccbd afb5 a6bb 86b3 993c
000000e0: 4196 08bd 982e 4dbc a0a4 e33d d9e2 a4bd
000000f0: 026a c1bc 919b c9bd c2f5 26be 3afe 30bd
00000100: 8fa5 30be ab9a cabc ced6 77bd 8a33 80bd
00000110: 3657 b8bd 72d1 10be 9913 cfbd 1616 7bba
00000120: 2587 09be f3d5 3bbd e4e1 debb 8db5 ccbc
00000130: 5498 bcbc 31ff 06be 3f1a f33b 690f 1fbe
00000140: a1e5 6bbe 203c 23be f12a 24be fd31 dfbd
00000150: c761 8d3c d8c8 5ebd bf4f 78bd 7699 faba
00000160: b373 b5bd 8f7d 2bbe db12 42be 21ba 2fbe
00000170: f522 263d 699a ca3d 9f9c 06be e5cd f23d
00000180: f936 f7bc 2e8d 9fbd 8193 323d 2fdd 88bc
00000190: 4a84 dcbb d361 f4bd c1a7 9fbd 7b52 3f3d
000001a0: 640e af3c 617d 053e 3f11 86bd 0bb8 2ebd
000001b0: 27b2 47be fdd3 f9bd 3964 9cbd ed69 40be
000001c0: e615 b33d 595c 933d e676 64bd c9a6 393d
000001d0: 867a cebd c09c 163d 4a37 fa3c 4aa3 e33b
000001e0: a68a 04be 2904 a2bd e084 29be 3213 24be
000001f0: 1a07 2a3e c80a 0abe e4c8 193d 68d0 04be
00000200: 10d7 1dbe e388 8ebc 9f45 943d ebc5 06be
00000210: 5d50 cdbd 7ede 053e ac08 03bd 5872 c2bd
00000220: 1c7c dbbd d20c 97bd c3c7 4cbc 1248 113d
00000230: c727 c03d 7294 dcbd 9aa7 303e ac57 afbd
00000240: 86fc f2bd bff9 973d 144d eb3c 62b3 9f3d
00000250: 0e66 533d 26aa 0c3e f939 063e 946c e23d
00000260: 102d 993d 7280 6abd ecee 223e ac12 b03b
00000270: 4121 21bd 5097 283d f1c5 cebc c65a f1bd
00000280: 6bf6 00bd 008e 04be d1f5 243d 5ddf bcbd
00000290: c680 f23b efa0 92bd 8112 903c 7f31 b33d
000002a0: a577 abbd acc7 913d fc41 783d 7e3a 303e
000002b0: 38dc 46be 7a3f 333c aaec 063d d6a6 093e
000002c0: 1ff8 4cbd f056 0bbe c9c3 053e e135 bcbd
000002d0: 6de4 353d c737 143c 1dd9 f63c 1652 8b3d
000002e0: 4ad7 d53d 9495 efbd 33c2 e5bb 6a6e 2c3d
000002f0: 41cb fd3d da24 cabd a142 eb3d d4c9 f6bd
00000300: 573e 453c 1b79 febc a298 15be b505 913d
00000310: 2db0 9e3c 4bd9 7d3d 66d0 1c3c 3cb5 0bbe
00000320: 27c5 05bd 0ce0 383b fc2c 15bd bd8a 00be
00000330: b2dd 0abd 4e08 af3d 099d 01bd d7ef af3d
00000340: e377 15be 4ee8 4cb9 4b24 18be 3b42 a3bc
00000350: 7849 cc3d af68 4abe b511 80bd bc65 50bd
00000360: a3d0 88bd 052c 1e3d 092a eabd 97f0 a7bd
00000370: ce98 70bc 2892 0abe 230d 00bc 338d 20be
00000380: 8d64 513d 65b4 343e 2c4f 973d 7174 52bd
00000390: e8db 07bd 14ba f63c 8a8c 0cbe 24fa 0e3e
000003a0: 03cb c2bd 026c 8abd 8714 e4bd d59f 02bd
000003b0: cab6 043d 6d55 bc3c d755 cabd 68fb fdbc
000003c0: 7fcf 5d3d 7ad2 d23c 07da 6bbd a602 b53d
000003d0: c413 1cbc 9e89 2d3d 1489 aebd 1f99 ebbc
000003e0: 3bdd 13be 96c5 70bd 4098 0a3c 2836 8b3d
000003f0: ae59 89bd 20ab 6b3d 3a8a 37be 763c a7bc
-0.07804382 0.16070658 -0.033215165 -0.1327645 -0.1795119 -0.03909364 -0.035134714 -0.04474084
-0.024822272 -0.098481 -0.18671927 0.058764346 0.11840275 0.058568455 -0.14132062 -0.003049102
-0.13784981 -0.07725205 -0.17348717 0.00046111355 0.015798995 -0.10746273 -0.006855533 -0.07491114
-0.021996696 0.045440774 -0.100272246 -0.059238486 -0.0071765715 0.033472363 -0.12320528 -0.042242356
-0.03582612 -0.13372488 -0.1853573 -0.24610613 -0.15878272 -0.08957396 -0.12543471 0.031718675
-0.043308556 -0.13116707 -0.059818998 -0.07773638 -0.19462194 0.062986344 -0.09460666 -0.055988017
0.03882846 0.012004312 -0.07591269 -0.08833156 0.047117025 -0.09992126 -0.0050875763 0.018762361
-0.03334642 -0.012523316 0.11115384 -0.0805108 -0.023610119 -0.09844125 -0.16304687 -0.0432112
-0.17250656 -0.024731955 -0.060507588 -0.0625983 -0.09001009 -0.14142397 -0.1011116 -0.0009578181
-0.1343046 -0.045858335 -0.0068018306 -0.024988914 -0.023021854 -0.13183285 0.0074189003 -0.15533222
-0.23036815 -0.15940905 -0.16032006 -0.108982064 0.017258538 -0.05439076 -0.060622927 -0.0019119221
-0.088599585 -0.16747116 -0.18952505 -0.17160846 0.04056068 0.09892733 -0.13145684 0.118556775
-0.03017758 -0.077906 0.043597702 -0.016707031 -0.0067296373 -0.11932721 -0.077956684 0.04670952
0.021369167 0.1303611 -0.06546258 -0.042655986 -0.19501553 -0.12198637 -0.076363035 -0.18790407
0.08744411 0.07195348 -0.055777453 0.045325074 -0.10081963 0.036770582 0.030543942 0.006946956
-0.12943515 -0.0791095 -0.16554594 -0.16022947 0.16604272 -0.13480675 0.0375451 -0.12970126
-0.15414071 -0.017399257 0.07239842 -0.13161437 -0.10025094 0.13073155 -0.031990692 -0.094944656
-0.10717031 -0.07375492 -0.012498799 0.035469122 0.09382587 -0.10770501 0.17251435 -0.08561644
-0.11864571 0.07420682 0.028723277 0.077978864 0.051611 0.13736781 0.13108052 0.11055866
0.07479298 -0.0572514 0.15911454 0.0053733196 -0.039338354 0.041159928 -0.02524087 -0.11784892
-0.031485002 -0.12944794 0.04027349 -0.09222291 0.007400605 -0.07159602 0.017586948 0.08749675
-0.0837243 0.071181625 0.060609803 0.17209813 -0.19419944 0.010940427 0.032940544 0.13442549
-0.050041314 -0.13607383 0.13062967 -0.09189964 0.044407297 0.0090465015 0.030132825 0.06802766
0.10441454 -0.11698452 -0.0070116757 0.042097487 0.12392283 -0.0987031 0.11487318 -0.120502144
0.012038789 -0.031063607 -0.14609006 0.07081167 0.019371117 0.061974805 0.00957117 -0.13643354
-0.032658722 0.0028209714 -0.036419854 -0.12552924 -0.03390283 0.08546506 -0.0316439 0.08590668
-0.14596514 -0.00019541496 -0.14857595 -0.019929042 0.099749506 -0.19766496 -0.06253377 -0.05087827
-0.06680419 0.0386162 -0.11433799 -0.08200186 -0.014684869 -0.13532317 -0.007815632 -0.15678863
0.051121283 0.1764694 0.07388148 -0.05138058 -0.033168703 0.030118026 -0.13725486 0.13962609
-0.09511378 -0.06758882 -0.11136728 -0.03189071 0.032400884 0.022989953 -0.09879654 -0.031003669
0.05415296 0.025735129 -0.057580974 0.08838396 -0.009526197 0.04236757 -0.08522239 -0.028759537
-0.14439861 -0.058782183 0.008459151 0.06797439 -0.06706558 0.057536244 -0.17923823 -0.020414572

lstm.weight_ih_l1 f4 [256, 64]
00000000: 2b3a 35be ce80 89bd 51fd a5bd 933a d53c
00000010: 92f6 03ba 427e 433d 39ee 1d3e 23b5 b7bd
00000020: 7349 353d 7e1c 8b3d 8d82 02be 4843 ebbd
00000030: e458 b0bd 6593 29be d3ad 123e 9e2b d23d
00000040: 9444 cf3c abeb 583d 4b53 2fbe dfe8 e1ba
00000050: a8b1 243c 1686 0c3e ec4d 203a 0528 46bd
00000060: febe 04be e4b5 10be c67c 043e 0ef7 273c
00000070: 39cb a23b d68e 4c3c 9cd0 3f3e 1f70 36bd
00000080: 9ad7 08be 7e1c 6fbe 0ba9 9b3c 584b 37be
00000090: 4ed5 1cbe b59e 283e 451b 19be aa90 753c
000000a0: 0453 b83c 2b6b ff37 6afe 343e 1be2 a63d
000000b0: 3a43 f4bd b766 b5bc 06ca 2e3e dae6 46be
000000c0: 3388 b53d ad53 b53c a58f fd3d d15b 8dbc
000000d0: 593c be3d 6c57 353e b55a 8cbd 1366 42be
000000e0: c141 a63c a036 2cbe f3f0 0e3e 66ed 18be
000000f0: a82b a6bd 5503 8a3d cfb5 e33d 7406 2ebd
00000100: 69f5 633d 70be 7cbe 70a1 6fbd 841c e5bc
00000110: 5a40 88bd e43f c9bb f30e a23c e129 d2bc
00000120: c988 8cbe cbac ec3c 1f09 ddbd d800 0dbe
00000130: 11f5 5dbc d85b 27bd c7ca a4bc aa94 76bb
00000140: 1f6e b93d 91da 3f3d 42ba 043e 7317 963c
00000150: b329 383e aec3 85be 055b 08be 26cc 0abc
00000160: 87db ad3d aac8 65bd 2b28 e5bd 9799 d03c
00000170: 1222 c73d e1c7 333d bb40 b73d d90c 163e
00000180: 463b 033e 26a8 4e3e 19dc ef3c 7160 a1ba
00000190: 8304 213d 4016 91bd f6ee 813d 2c41 1abe
000001a0: aa39 e4bd 9116 98bd 5125 f9bd 2a6a 51bd
000001b0: cf21 473e 92e1 20be f1bd 4a3d ce2b dbbc
000001c0: a622 c8bd f0f1 e83d 2394 d7bd 1370 2fbc
000001d0: c704 ea3d f21a 573e 00a5 17be f6c8 623d
000001e0: 79c8 7ebe bcb4 edbd 7d84 4f3e e3a0 753d
000001f0: 5836 3bbe 2551 6cbc 5970 4abb e1cd 1fbe
00000200: 79ea 84bd c39b 0c3d a2cb 19bb f36f 673d
00000210: c5cc 283d bea6 05bd fcc8 f43d 9da7 5d3d
00000220: 8c9c 093e 161e 31be 8365 06bd ab21 b33c
00000230: 0427 a53c 085f 6d3d 0180 3f3c f318 0ebe
00000240: 3f2c 0d3d 63e2 ef3c b15d a03c 15cc 1b3d
00000250: 77ad 1c3e 30b8 063e 7435 2c3d c388 a73d
00000260: cfd2 94b9 80fa d4bd 9990 aebd 1909 a9bd
00000270: dc3f 1bbd a7e3 a0bc a71d de3b e508 22be
00000280: 6e81 57bc 26fc ba3c 977d 003e f2e7 973e
00000290: 3453 7f3c d225 1abc 164e cfbc 5c43 2b3e
000002a0: 1b76 d33d 5ef3 c6bc 1a63 24be 742c 2cbb
000002b0: 8b88 3abe 1f88 edbc aa24 373d ad0f 333e
000002c0: c945 333d 4a70 113a 3a3e 2dbe 2fbe 29bd
000002d0: c8f6 34be 7a75 d5bd c653 8b3d 4b10 123c
000002e0: 7cf3 0e3c 7a8f e6bd 5c83 e03d 9d74 cabc
000002f0: 2a50 f4bd fd9b 2bbc 9978 1abe 199f 10be
00000300: 77a7 81bd cc86 dd3d 9f81 d7bd f590 233b
00000310: 9247 ebbc bec1 193e def2 1e3d c728 8fbd
00000320: b7db 72bd 6e9a bebc da69 1fbe 3526 5cbd
00000330: 8546 9cbd e938 18be e521 9f3d 31ab 89bc
00000340: 873a 43bc dbd3 b5bd b6f9 24be 1a10 42bd
00000350: 2d83 1c3e 68e9 8ebd 1875 01be 6098 423e
00000360: c70c b5bb 4b9a 8b3d 3d32 073e 13c7 c2bc
00000370: f6bf 03bb 8c25 103d 67b5 9b3d 9b04 9b3d
00000380: 91fb aebd 6cca 683c 1837 41bc 0eec 57bd
00000390: bd8a 00be 0b31 3f3e 15b8 0cbd 82c3 aabd
000003a0: 8c72 7dbd 543d dcbd d362 c43d 304a 26bd
000003b0: 4ad2 6e3c 1186 e33d bfea 60bb 53cc 363e
000003c0: 2a2a 043e ab93 53bc 1c3d aa3d d43f 1a3d
000003d0: 9bfb 353e ff95 143e ad50 a53d 6ec0 efbd
000003e0: 2852 33bd 046a 3cbe 1c7c 3c3e 2633 1b3e
000003f0: 1b7c f7bd 8bfd a73d c9b2 88bd 685b 0fbd
-0.1769797 -0.06714021 -0.08104957 0.026028907 -0.0005033995 0.04772783 0.15422906 -0.08970096
0.0442595 0.06792544 -0.12745114 -0.11487442 -0.086107045 -0.16560133 0.14324121 0.102622256
0.025301255 0.052959125 -0.17121617 -0.0017235539 0.010052122 0.13723025 0.0006115127 -0.04837801
-0.12963483 -0.14131886 0.12938222 0.0102517735 0.0049680737 0.012485227 0.18731922 -0.04454052
-0.13363495 -0.23350713 0.019001504 -0.17899835 -0.15315744 0.16466792 -0.14951809 0.014988104
0.022500522 3.0448273e-05 0.17675176 0.08148595 -0.11926885 -0.022143705 0.17069253 -0.19424
0.088638686 0.022134626 0.12380914 -0.017255696 0.09288854 0.1770913 -0.068532385 -0.1898425
0.020295026 -0.16817713 0.13959102 -0.1493431 -0.081137955 0.06738917 0.111186616 -0.042486623
0.055653963 -0.24682021 -0.05850357 -0.027967699 -0.06652899 -0.0061416496 0.019782519 -0.025654735
-0.2744811 0.028890988 -0.10792755 -0.13769853 -0.013547198 -0.040859073 -0.020116223 -0.0037625232
0.09054207 0.0468393 0.12961677 0.018321728 0.17984657 -0.26125854 -0.13315971 -0.008471524
0.08489137 -0.05609957 -0.11189302 0.025463862 0.09723295 0.04389179 0.08947893 0.14653338
0.1281558 0.20181331 0.029279755 -0.0012312067 0.039310943 -0.07084322 0.06344406 -0.15063924
-0.11143811 -0.07426179 -0.12165321 -0.051126637 0.1944649 -0.15711048 0.04949755 -0.026754286
-0.09772234 0.11374271 -0.10526302 -0.010707873 0.114266925 0.21006373 -0.14809036 0.055367433
-0.24881162 -0.11606738 0.20265384 0.059967887 -0.18282449 -0.014423643 -0.0030889718 -0.1560588
-0.064900346 0.034328233 -0.0023467322 0.056503247 0.04121091 -0.03262972 0.11952397 0.054114927
0.13438624 -0.17296633 -0.032811653 0.02186664 0.020160206 0.057951957 0.011688233 -0.13876705
0.034466024 0.029282754 0.019575926 0.038036425 0.15300547 0.131562 0.042043164 0.08180382
-0.00028385824 -0.103993416 -0.085236736 -0.08253688 -0.037902698 -0.019639803 0.006778437 -0.15823705
-0.013153417 0.022825312 0.12547909 0.29669148 0.015583802 -0.009408431 -0.025305789 0.16724914
0.10325261 -0.024285968 -0.16053429 -0.0026271613 -0.1821615 -0.028995572 0.0447127 0.17486449
0.043767724 0.00055480434 -0.16918269 -0.04144114 -0.17672265 -0.104227975 0.06803088 0.008915017
0.008725043 -0.11257835 0.10962555 -0.024713809 -0.119293526 -0.010474202 -0.15085067 -0.14123191
-0.063307695 0.10816726 -0.1052277 0.0024958227 -0.02872065 0.15015313 0.038805835 -0.069901995
-0.059291568 -0.023266997 -0.15567723 -0.053747375 -0.07630638 -0.1486546 0.07770137 -0.016805263
-0.0119158095 -0.08878299 -0.16110882 -0.047378637 0.15284415 -0.069781125 -0.12642324 0.19003439
-0.005525205 0.068165384 0.13202758 -0.023776567 -0.0020103431 0.035192057 0.07602959 0.07569238
-0.08544076 0.014208417 -0.0117929205 -0.052715354 -0.12552924 0.18671052 -0.03435524 -0.083380714
-0.06187682 -0.10753885 0.09589162 -0.040598094 0.014576504 0.111095555 -0.0034319607 0.17851381
0.1290671 -0.012913625 0.08312437 0.037658527 0.17771761 0.14510344 0.08072028 -0.11706625
-0.043779522 -0.18399817 0.18406719 0.1515623 -0.12084218 0.08202656 -0.066747256 -0.03499928

lstm.weight_hh_l1 f4 [256, 64]
00000000: 4853 3cbd 36a9 093c c204 493d 794d 18be
00000010: c335 cabc 7b61 283e 24c2 b3bd a5f3 1e3d
00000020: 7259 22be 74dd 0bbd 3a5b e0bc 8417 45bd
00000030: 1bce 85bd e756 b43c b3bf f73c 785c 443e
00000040: f1df 07be 59d4 cc3d 2627 3c3e 76fa b4bc
00000050: 47f3 293e f568 f83d c3f7 d1bd 49ac a1bd
00000060: 28ed 0b3e 4bb9 49bd 36b4 3f3e 993a 623d
00000070: f207 23bd 02e3 b23d 712d 18be 06ba c43d
00000080: 53a0 413d 8986 1f3e 138e 483d ab2e d53d
00000090: f6e2 203e 00b2 a83d 1695 f2bc c042 0fbd
000000a0: fc78 0b3e 8885 6b3d 9fb0 be3d fcc5 d93d
000000b0: 3903 5bbb 605e 103e 70c2 05bd fa2e 303e
000000c0: cac6 a0bd 5700 20be 9c5b 1b3e 539a fbbd
000000d0: 01b0 a4bc ad0c 3a3d 9f93 7ebc 8c29 13be
000000e0: aa09 6e3d a957 4d3b e7c9 313c 099c 513d
000000f0: e960 27be 1583 203d bd1c 18be 2ade 7e3d
00000100: 7c4e d83d fe80 fc3d 0955 52be 8e75 dcbb
00000110: 23c0 02be 39c0 273e af37 593c 5217 e2bc
00000120: 0b5d 64bd 9397 8dbd b113 b4bd d6ae 2c3e
00000130: 154d e93c b866 e0bc 2044 b43d 02aa 143e
00000140: 2118 103d 2556 fb3b 0e28 85bd 25bd a1bd
00000150: e8ac abbd 1f4c a43d 2445 94bd 3ffa e7bd
00000160: 0ff6 afbd c75b ef3d d502 0cbe 1588 b4bd
00000170: e1bd c4bd d6be e33b 4b81 aabb 7cc7 cf3d
00000180: 61e1 06be 8742 c63d 0490 94bc 2d24 673d
00000190: 4d9f 283d 8303 a53c d21a b33d 3fb6 7abd
000001a0: 2b81 f63c 92d7 b33c 0f05 073d d069 3abc
000001b0: 09fa 0d3e 522f 9cbd c059 da3d 171a d0bc
000001c0: 99ec 19be 25f4 ad3d 1038 41be 194b b63d
000001d0: d1b8 2ebe 5fb3 023d ab7f ddbd 8491 a7bc
000001e0: 1c8d 9d3d 92e9 edbd bd86 cf3d d4df 6a3d
000001f0: 9cc2 29bb f137 ffbd 4500 b3bd 20ae d6bd
00000200: 491b b43c 819c 293c 89b1 80ba 9cd5 31be
00000210: 24ec e73c aadd 9a3b 34eb 183e ee7e 503d
00000220: f2ac 57bd cb98 debd e3b1 353e 8bf6 713c
00000230: 6fbd 843d e1d3 273e b776 803d d6cf 623d
00000240: da6a 353e ce5e b1bd 6d82 a4bd bbfe a839
00000250: 4c26 76bd 697d 96bc 860d 35bc 6978 1c3d
00000260: bc01 be3d f666 8bbd a6b0 203e cfcc 94bc
00000270: e223 183e 401a 463d c02f edbc 678e 883c
00000280: b6fc f13c dedf aabb 608e c53c 4946 9bbd
00000290: ebd4 113b edd6 c63c 671a 243d 9a6d 13bc
000002a0: c4a0 acbc 1d08 e13d 20a4 ecbd 07c7 a0bd
000002b0: 24ba 85bd 6dc2 2d3e 80dc fbbc af50 9ebd
000002c0: ec0d 0ebe ea9a 313d baf9 6a3d 1c8f 49bd
000002d0: dfd9 ebbc 44d9 debd 75db 213e 62fd 813d
000002e0: 933a ad3d d944 563c 2839 053c f472 87bd
000002f0: 3f49 26be 31d7 3cbc e251 363e 04aa 3a3d
00000300: 4438 34be 894a b9bd 1bf6 033e 92a7 d93b
00000310: 4a61 d73c bd36 403e d047 9d3c 1436 a93c
00000320: 20b1 89bd addb 713d 175a 913d 10bb 6f3a
00000330: 2d95 1bbe 80c3 733d 6e95 32be a655 69bc
00000340: f6e2 1b3e 8e5a c53d d488 ff3d 4683 4abd
00000350: 2649 95bb 18e4 e4bc e56c dcbb f728 83bd
00000360: 9a28 f3bc 4b87 04be d636 133e 21a4 00be
00000370: ec5a b0bd 486e 1d3e 5673 da3d d53f 1b3d
00000380: 553f 3c3e 4098 963d 4591 543d abc2 203e
00000390: 4512 ab3a ace8 233e f7be 553d 6c02 cf3d
000003a0: 4ba1 c6bc 584b 6abd 0f50 cc3c 4c0b 18bc
000003b0: e17a b23d ea66 373e 025e 463d 4a92 613c
000003c0: e47e 37be 220b c33d 5ac8 663c 24e3 3dbe
000003d0: 7810 ea3d 71d7 22be c431 d03d 00d0 09be
000003e0: df73 0ebe 4a55 ffbd 0994 0fbe 48a4 c83d
000003f0: 17c5 bbbd 42b8 503d 29b1 1f3e e0bc e8bd
-0.04597786 0.008402159 0.049076803 -0.14873303 -0.024683839 0.16443436 -0.08777264 0.038806576
-0.15854433 -0.03414674 -0.02738725 -0.04811813 -0.06533452 0.022014095 0.030242776 0.19175899
-0.1326902 0.100014396 0.18374309 -0.022092085 0.16596709 0.12129394 -0.10252335 -0.07894189
0.13664687 -0.049248975 0.18721089 0.055231664 -0.0398025 0.087347046 -0.14861085 0.09605794
0.047272038 0.15578665 0.048963618 0.10409292 0.15711579 0.08237076 -0.029612105 -0.034975767
0.1362037 0.057500392 0.093110316 0.10633466 -0.003341867 0.14098501 -0.032656133 0.1720542
-0.07850416 -0.1562513 0.15171665 -0.122852944 -0.020103456 0.045422245 -0.015538125 -0.14371318
0.058114685 0.0031332767 0.01085136 0.051174197 -0.16345562 0.03918751 -0.14854713 0.06222359
0.10561845 0.12329291 -0.20540251 -0.006727881 -0.12768607 0.16381921 0.013257905 -0.02759901
-0.055752795 -0.06913676 -0.08792818 0.1686357 0.028479138 -0.02739273 0.08802056 0.14517978
0.03517926 0.0076701813 -0.065017805 -0.078974046 -0.083825886 0.080223314 -0.0723975 -0.113270275
-0.08591854 0.11687427 -0.13672955 -0.08815018 -0.09606529 0.0069502397 -0.005203401 0.101454705
-0.13171913 0.09680658 -0.018135078 0.056430984 0.041167546 0.020143276 0.0874535 -0.06120896
0.030090889 0.021953378 0.03296381 -0.011377767 0.13864912 -0.07626213 0.1066165 -0.025403066
-0.15031661 0.084938325 -0.18869042 0.089010425 -0.1706269 0.031909343 -0.10815366 -0.02045513
0.0769293 -0.116168156 0.10133121 0.057342365 -0.002590335 -0.12461842 -0.08740286 -0.104824305
0.021985667 0.010352255 -0.0009818535 -0.17366642 0.028310843 0.0047261314 0.14933473 0.0509023
-0.052655168 -0.10868987 0.1774364 0.014768253 0.06481444 0.16389419 0.06272643 0.05537399
0.17716542 -0.08660661 -0.08032689 0.00032233246 -0.060095116 -0.018370347 -0.0110505875 0.03820077
0.092776746 -0.068067476 0.15692386 -0.018164067 0.14857438 0.048364878 -0.028953433 0.016669465
0.029539447 -0.0052146753 0.024115741 -0.07581765 0.0022252153 0.024272406 0.04006424 -0.008998299
-0.021072753 0.109878756 -0.11554742 -0.078504615 -0.06529644 0.16968699 -0.030744791 -0.07730233
-0.13872498 0.04336063 0.057367064 -0.049208745 -0.028790412 -0.10881284 0.15806372 0.06347157
0.08458438 0.013077938 0.008131303 -0.066137224 -0.16238879 -0.011525915 0.17804673 0.045572296
-0.17599589 -0.090474196 0.1288685 0.0066422904 0.026291508 0.18770881 0.019199282 0.02065567
-0.06723237 0.05904739 0.070972614 0.0009145001 -0.15193625 0.059512615 -0.17439815 -0.014241612
0.15223297 0.096364126 0.1247727 -0.0494416 -0.004555839 -0.027940795 -0.0067268484 -0.06404298
-0.029682446 -0.12942235 0.14376387 -0.1256261 -0.08611092 0.153741 0.1066653 0.03790267
0.18383534 0.07353258 0.051896352 0.1569926 0.0013051709 0.16006726 0.05218407 0.10107884
-0.024246832 -0.05720076 0.024940519 -0.009280037 0.087148435 0.17910352 0.048429497 0.013767788
-0.17919499 0.09523608 0.0140858535 -0.18543679 0.114289224 -0.15902497 0.10165742 -0.13458252
-0.13911389 -0.124674395 -0.14021315 0.09796959 -0.09168451 0.050956972 0.15594925 -0.1136415

lstm.bias_ih_l1 f4 [256]
00000000: 246f 5c3d 34c6 5cbd 2530 19bc b916 bbbd
00000010: fb19 9e3b ab49 21be 30c0 493d ae41 9ebd
00000020: 9ae4 babd 69a0 e0bd a8c2 0cbe 6770 bfbb
00000030: a1e6 a1bc 17ab acbd cb5d 1bbe 422b 4dbb
00000040: fbf6 13be c5af 2abe 86b1 5e3d 1e3b 00bc
00000050: 5e50 35ba 6577 dbba f34c 0a3d 1344 39bd
00000060: abd9 63bd ea1e 1fbd b05b 0bbe 0ad6 1ebe
00000070: 9893 26be 4a04 553d cc67 2d3d 50ef 92bc
00000080: 97d6 eebd 2246 74bd 1b85 843d cc86 29be
00000090: a2de 03be 4553 173c 0ecc 31bd 3028 1abe
000000a0: d1a1 5d3c e149 06be 239d f0bd f1cf b6bd
000000b0: eb70 01bc c8c7 16be 925a 00be 993c 53bd
000000c0: cb40 afbd 6c39 10be b707 0abc 81d8 253d
000000d0: 3e26 cfbc c731 023e b2c6 dabd 1f3d dfbc
000000e0: 3b61 4d3c ad13 a6bc 0bc2 1ebe 22de 40be
000000f0: 711f 14be 6e45 4cbd 934e 17bd 01da 9d3d
00000100: d8f7 03bd 5193 2e3d 5d34 2abe 5404 c23c
00000110: c57a 0abe 42fb 53bd 17a5 003d d283 0abd
00000120: 4a78 99bd 8bf1 28bd c7f1 0cbd a29b 04be
00000130: 7f27 c3bd 466d d23c d93e 55be 3833 e4bd
00000140: bc93 b7bb ed09 44be ca61 b9bd 6683 babc
00000150: bbde 5abe 3946 7cbd 5e8f 9dbc 8814 49bc
00000160: 84bd babc 44f5 1fbe c570 a63b c73f 3ebe
00000170: 579a 433d 3268 19bc 8b45 a53b 158e cd3d
00000180: 978b 073d 7ef4 0f3d 453d ab3d d746 1abe
00000190: 110c ccbc cb8c b5bd a1b6 f6bd 3790 09be
000001a0: 66c1 8cbd 21d2 2cbe 19fb 2dbb 1daa 2bbe
000001b0: 0aaf 6e3d d024 42bd 9836 02be f970 1fba
000001c0: 2996 c03c 3257 323b 12b8 c93b 6ed5 573c
000001d0: 0d8d c4bd 818c 0e3e ebd0 023d 4099 0cbd
000001e0: 1439 333d ed79 04be 4958 5ebc 795e b1bd
000001f0: d984 48bc 9ee3 e4bd 2cda 6e3b 802c 8cbc
00000200: 19e5 5c3d 9844 5a3c c963 0e3e bb28 313d
00000210: 3398 d0bc 8f6e a7bd d4d1 abbc 5095 0fbe
00000220: ecc5 023d 5f78 433e e7b3 233c f8e1 52bd
00000230: ff9c 0ebd 5ad2 86bc b5e8 ac3c 5eff 43bd
00000240: 7833 863d a398 683d 7e08 b0bb 498c e8bc
00000250: bf4c 51bd 1859 20be 5a66 5d3d fb90 9bbc
00000260: a53c 293e 3e93 e53b 8af4 163e 1551 8b3d
00000270: 6402 02bc 1c40 46bd 60af d93d 126f 26bd
00000280: 0726 27bd 0c81 e4bc 92e0 bfbc cc46 c9bc
00000290: 4eec abbc ecfd 503d 1b2f e33d 4d64 98bd
000002a0: 78aa e13d 59dc 073e 70ff 80bc 58e6 383e
000002b0: 32d6 fabc 3fcd da3d 0563 a9b8 fc8a be3d
000002c0: 0415 2b3d 5bd6 debd e64d 333c 96e6 7f3d
000002d0: 0613 ae3d ba3f 053e f864 e938 9115 983c
000002e0: a9ef d6bd 9869 03bd cd44 733d b9f2 3cbd
000002f0: 9974 12be a137 313e 07c2 ca3d 270e ac3b
00000300: 27a9 bdbd 2369 f4bd 38cc 813d ef48 1abe
00000310: 71c0 32bc c28a 10be 08e0 b9bd 10de adbd
00000320: 03d6 9c3d df32 1cbe 7974 48bd 773c 2d3d
00000330: 7798 563d 794b f5bc 8d77 f5bd e34d 623d
00000340: 1d80 b0bd f2a7 7e3c a51e 23be 8b42 8abd
00000350: 402b 823b dee1 04bd 9ca9 10be a5aa 6abd
00000360: 95d5 53be 0da9 afbd b107 d4bd 314a 163c
00000370: 4e60 49bc f879 0dbe 874e 18be 1d44 b8bd
00000380: c91f 5abe 4180 463d 180b 9fbd 952a 9d3d
00000390: a989 943c e13a cbbd 93a5 833c 6752 a8bd
000003a0: cf8b 16bb fe1b eabd 2d88 d6bd f3e3 1ebe
000003b0: 33e5 c2bd 2acd ffbd 4aef 39bc 02f5 d13c
000003c0: d72e 07be 6af1 27be ad48 29be a425 3cbc
000003d0: 36ad e13d e6b0 90bd 6429 79bd 8ce6 a5bc
000003e0: 297f edbc a5d5 debc be08 c6bd 49f2 073d
000003f0: 19c4 0cbe 2351 9abd 4634 843d 3812 c4bd
0.05381693 -0.05389996 -0.009349857 -0.091351934 0.0048248745 -0.15750758 0.04925555 -0.07727371
-0.091256335 -0.10968096 -0.1374613 -0.005842257 -0.019763293 -0.0843107 -0.15172498 -0.0031306301
-0.14449684 -0.16668613 0.05436852 -0.007826595 -0.00069165777 -0.0016743956 0.03376479 -0.045230936
-0.055627506 -0.03884784 -0.13609195 -0.15511337 -0.1626724 0.052006043 0.042335317 -0.017936379
-0.116620235 -0.059637196 0.064707 -0.16555327 -0.12877896 0.009236162 -0.043407492 -0.15054393
0.01352735 -0.1311412 -0.117487215 -0.089263804 -0.007900457 -0.14724648 -0.1253455 -0.051571462
-0.0855728 -0.14084405 -0.008424691 0.040489677 -0.02528679 0.12714301 -0.106824294 -0.027250824
0.012535389 -0.020273054 -0.15503709 -0.18834737 -0.14465119 -0.0498709 -0.03694017 0.077075966
-0.032218784 0.04262096 -0.16621538 0.023683704 -0.13523395 -0.05175329 0.031407442 -0.03381712
-0.074936464 -0.04124598 -0.034410264 -0.12949994 -0.09529018 0.025686871 -0.20824756 -0.11142582
-0.005602328 -0.19144411 -0.09051855 -0.022767734 -0.21374027 -0.061590407 -0.019233402 -0.012272961
-0.022795446 -0.15620905 0.005079361 -0.18579017 0.04775461 -0.009363221 0.0050436906 0.100368656
0.033092108 0.035145275 0.083612956 -0.15066086 -0.024908097 -0.08864745 -0.120465524 -0.1343392
-0.06872825 -0.16877033 -0.002654737 -0.16764112 0.0582724 -0.04739839 -0.12716138 -0.0006082203
0.023509102 0.0027212617 0.006155976 0.013173444 -0.09597216 0.13920785 0.03193752 -0.034325838
0.043755606 -0.12937136 -0.0135708535 -0.08660597 -0.012238705 -0.11176227 0.0036445959 -0.017111063
0.053929422 0.013322018 0.13905253 0.043251734 -0.0254632 -0.08175384 -0.020974077 -0.14021802
0.031927034 0.19088887 0.0099916225 -0.05148503 -0.034817692 -0.016457725 0.021107057 -0.04785096
0.06552786 0.05678619 -0.005372106 -0.028387206 -0.05109858 -0.15658987 0.05405269 -0.01899003
0.1652704 0.007006078 0.14741722 0.068025745 -0.00793514 -0.048400983 0.10629153 -0.04063327
-0.04080775 -0.027893566 -0.023422513 -0.024569891 -0.020986702 0.05102341 0.11092969 -0.07441006
0.110188425 0.1326765 -0.015746802 0.18056619 -0.030619714 0.10683679 -8.076992e-05 0.09303853
0.04176809 -0.10880729 0.010943865 0.062475763 0.08499722 0.13012591 0.00011129113 0.018564971
-0.1049493 -0.032083124 0.059391785 -0.046129916 -0.14302291 0.17306377 0.09900289 0.0052507105
-0.09260779 -0.11934116 0.0633778 -0.15066884 -0.010910139 -0.14115432 -0.09075934 -0.08489621
0.07658007 -0.15253781 -0.048939202 0.042293992 0.052391496 -0.029943215 -0.11985693 0.05525006
-0.08618186 0.015542971 -0.15929659 -0.06750973 0.003972441 -0.032441966 -0.14127201 -0.057291646
-0.20686944 -0.08577166 -0.103530295 0.009172962 -0.012291027 -0.13816059 -0.14873706 -0.089973666
-0.21301188 0.048462156 -0.07765788 0.076741375 0.018132048 -0.0992334 0.016070163 -0.08218842
-0.0022971516 -0.1143112 -0.10475192 -0.15516643 -0.095163725 -0.12490304 -0.011348555 0.025629524
-0.13201462 -0.16400686 -0.1653163 -0.011483584 0.110193655 -0.07064991 -0.06083049 -0.020251535
-0.028991299 -0.027201483 -0.09669636 0.033190046 -0.1374668 -0.07535007 0.06455283 -0.095737875
