Competition/TrainAI/model/c50/model_weights_2.pth (torch, 441743 bytes, 18 tensors)

lstm.weight_ih_l0 f4 [256, 34]
0	0x3e02607d	0.1273212
1	0xbdb4b473	-0.088234805
2	0xbc8d47ad	-0.017246092
3	0xbd0e42cb	-0.034731667
4	0xbcf6b917	-0.030117555
5	0x3dbc6217	0.09198397
6	0x3d82f2a2	0.06393935
7	0x3da45914	0.08024803
8	0x3db96fe7	0.09054547
9	0xbe01e2b1	-0.12684132
10	0x3d18877c	0.037238583
11	0xbcd2c110	-0.025726825
12	0xbd0c74dc	-0.034291133
13	0x3e1ea905	0.15494163
14	0x3ce656ff	0.028117655
15	0xbdcc2505	-0.099679984
16	0xbd4d39bb	-0.050103884
17	0xbd977df7	-0.07397073
18	0xbd808dec	-0.062770694
19	0x3e02697e	0.12735555
20	0x3d337141	0.04380918
21	0xbd92c31b	-0.0716612
22	0x3be4c962	0.0069820145
23	0x3def2e08	0.11678702
24	0x3e08e209	0.13367476
25	0xbcc62b02	-0.02419043
26	0x3db6bb76	0.08922474
27	0xbe45f402	-0.19331363
28	0xbdaa6d40	-0.08321619
29	0xbe34cdd4	-0.17656642
30	0xbcaaf110	-0.0208669
31	0x3d439fe8	0.04775992
32	0x3db75c2e	0.08953129
33	0xbd7376a8	-0.05943933
34	0x3d493a61	0.04912794
35	0x3d71dace	0.05904656
36	0xbe1381a0	-0.14404917
37	0xbd792ffa	-0.06083677
38	0x3d98d364	0.074621946
39	0xbe3089c7	-0.17240058
40	0xbd61d85d	-0.05513798
41	0xbc743c78	-0.014906995
42	0xbe0e4772	-0.13894442
43	0x3d8cbb45	0.06871656
44	0x3e33164d	0.17488976
45	0xbc9de454	-0.019273914
46	0x3e240321	0.16016819
47	0x3de4c7d2	0.11170925
48	0x3db328ec	0.087480396
49	0xbe411fd7	-0.18859802
50	0x3ade1d4f	0.001694599
51	0xba282408	-0.00064140605
52	0xbd828fe5	-0.06375102
53	0x3d0c40d7	0.034241524
54	0xbcb11086	-0.021614324
55	0x3e043497	0.12910686
56	0x3e2724da	0.16322652
57	0x3dfa54c1	0.12223197
58	0x3e00e44c	0.12587088
59	0x3dc2d62d	0.09513507
60	0xbd5e54f3	-0.054280233
61	0x3e08f694	0.13375312
62	0x3e24b7eb	0.16085784
63	0x3e0e5911	0.13901164
64	0x3d604492	0.054752894
65	0xbe26b79e	-0.16280982
66	0x3e04ab32	0.12955931
67	0xbdaf00ff	-0.08545112
68	0xbd55a364	-0.052157775
69	0x3dd7a393	0.10529246
70	0xbde1c087	-0.1102305
71	0x3e2d3acb	0.16916959
72	0xbd347bf2	-0.044063516
73	0xbdf1673d	-0.11787269
74	0x3e0e2602	0.13881686
75	0xbe4db228	-0.20087492
76	0xbdea082c	-0.1142734
77	0x3cb2430a	0.021760482
78	0x3c5cfa42	0.0134874005
79	0x3d12fae1	0.035883788
80	0x3d92457e	0.07142161
81	0xbcc8458f	-0.02444723
82	0x3c99c089	0.018768566
83	0xbd3a457d	-0.045476425
84	0x3d6e4c5a	0.058178283
85	0xbdaa4320	-0.08313584
86	0x3d598baf	0.05311173
87	0x3e3417f3	0.17587261
88	0x3cd13cbb	0.025541654
89	0x3dff6627	0.12470656
90	0xbe5e9826	-0.21737728
91	0x3c94069c	0.018069558
92	0x3dad6f52	0.08468498
93	0x3e0a6d5d	0.13518281
94	0xbdecfd2e	-0.11571728
95	0xbdf04e9f	-0.11733746
96	0xbde28747	-0.11060958
97	0xbe135911	-0.14389445
98	0x3da9f022	0.08297755
99	0xbdb2c2a4	-0.08728531
100	0xbde6e941	-0.112749584
101	0x3e0aaf7a	0.13543501
102	0xbdff91b2	-0.12478961
103	0xbdcd102f	-0.100128524
104	0x3d672864	0.056435004
105	0xbded1c8f	-0.11577713
106	0xbd9c8c03	-0.076438926
107	0x3d3684a4	0.04456009
108	0xbe068c2c	-0.13139409
109	0xbbc6a558	-0.006062191
110	0xbe0d67b5	-0.13809092
111	0x3cea722c	0.028618895
112	0xbd3b6da6	-0.045758866
113	0x3d410ccc	0.047131345
114	0xbd60ae61	-0.0548538
115	0xbdcf8066	-0.10131912
116	0xbd8babc2	-0.068198696
117	0x3d0d4f19	0.03449926
118	0xbdc31ef8	-0.09527391
119	0x3d0ad965	0.03389873
120	0xbe113913	-0.14181928
121	0x3d9d0499	0.076668926
122	0xbd642b45	-0.055705328
123	0xbe0a1965	-0.1348625
124	0xbd10fbe8	-0.035396487
125	0xbdbf7f29	-0.09350426
126	0x3d2a676a	0.04160253
127	0xbd12bb90	-0.035823405
128	0xbde0dc5c	-0.1097953
129	0x3d8c851e	0.068613276
130	0x3da6612b	0.08124002
131	0x3d93ea4e	0.072224244
132	0x3ca6df93	0.02037028
133	0xbd278e42	-0.040907152
134	0xbb2b54db	-0.0026143107
135	0xbd3e7652	-0.046499558
136	0xbd082818	-0.03324136
137	0x3e399a3e	0.18125245
138	0x3dd1c04e	0.10241757
139	0x3e726585	0.23671539
140	0xbdedee20	-0.11617684
141	0xbe629d39	-0.22130288
142	0x3d7c27c7	0.061561372
143	0xbda9b237	-0.08285945
144	0xbe130216	-0.14356264
145	0x3ddcbe50	0.10778487
146	0xbabf86fb	-0.0014612371
147	0xbe776824	-0.2416082
148	0x3e289b81	0.1646557
149	0xbc0ee27f	-0.008720993
150	0xbdef4be7	-0.11684399
151	0x3d06af9c	0.032882318
152	0x3d86178c	0.0654746
153	0xbdbd9c33	-0.09258308
154	0x3dfea9e7	0.1243475
155	0x3e00128b	0.12507074
156	0x3bc7b33e	0.0060943654
157	0xbdac37be	-0.084090695
158	0xb9d9f3e4	-0.00041571178
159	0xbc808b4e	-0.015691426
160	0xbda74d14	-0.08168998
161	0xbd83a680	-0.06428242
162	0x3c1d2db0	0.009593412
163	0xbe2606c8	-0.16213524
164	0x3df1a4de	0.11799024
165	0xbe3fa8a2	-0.18716672
166	0x3d8a3ea0	0.06750226
167	0x3d4605e9	0.04834548
168	0xbda5b1d3	-0.08090558
169	0xbd9b9788	-0.07597262
170	0xbc9f92be	-0.019479152
171	0x3e4628b2	0.19351462
172	0x3db43884	0.08799842
173	0x3dbc85c1	0.09205199
174	0xbe138b18	-0.14408529
175	0xbdc12be8	-0.094322026
176	0xbcfa2b21	-0.030538144
177	0xbdc8f9cf	-0.09813272
178	0xbd53dbf9	-0.051723454
179	0xbb4ed52f	-0.0031560173
180	0xbdce7ce6	-0.10082416
181	0x3e17be61	0.14818718
182	0x3cbcd9eb	0.02305313
183	0x3dab50bd	0.08365009
184	0x3d582c5e	0.052776687
185	0xbde24369	-0.11048014
186	0x3d687795	0.056754667
187	0xbe50d4a5	-0.20393617
188	0xbdd3a51f	-0.10334229
189	0xbd05901d	-0.03260814
190	0xbe013e47	-0.12621413
191	0xbdba3aa2	-0.090932146
192	0x3e02c298	0.12769544
193	0x3e1fb482	0.15596202
194	0x3ceed775	0.029155472
195	0x3d43551c	0.04768859
196	0xbd8430eb	-0.06454643
197	0x3df7e5a9	0.12104351
198	0xbd009f62	-0.031402
199	0x3d82bead	0.06384025
200	0x3da1a41d	0.0789263
201	0xbcdb786a	-0.026790816
202	0xbdbb0524	-0.0913184
203	0x3d983de3	0.07433679
204	0xbd931f39	-0.071836896
205	0xbd160505	-0.03662588
206	0xbd9efcfa	-0.07763095
207	0x3d2de825	0.04245772
208	0x3d225915	0.039635736
209	0xbda39ee2	-0.07989289
210	0x3d9a185b	0.07524177
211	0x3d7b5564	0.06136073
212	0xbd919804	-0.07109073
213	0xbd2fbfc9	-0.04290751
214	0x3cb3f055	0.021965185
215	0x3d370e34	0.04469128
216	0x3db92ced	0.09041772
217	0xbd6e6d79	-0.05820987
218	0x3d1ce419	0.03830347
219	0x3dd363ff	0.10321807
220	0x3dd802ae	0.10547386
221	0x3d21c3db	0.039493423
222	0x3d5461b7	0.051851
223	0x3e0b15fe	0.13582608
224	0x3dc50656	0.09620349
225	0x3e1de25f	0.15418385
226	0x3bbf2c64	0.005834149
227	0xbd832691	-0.0640384
228	0x3c9afa5a	0.018918205
229	0xbd15670a	-0.03647522
230	0x3dcefe64	0.10107115
231	0x3dd9efb7	0.10641425
232	0x3df44599	0.11927337
233	0x3d3da0b2	0.04629583
234	0xbcd0ddfd	-0.025496477
235	0x3dc69212	0.096958295
236	0x3bce2540	0.0062910616
237	0x3d95d66c	0.07316288
238	0x3dba11de	0.09085439
239	0xbe09b501	-0.13447954
240	0x3c8c2e43	0.017111903
241	0xbe204736	-0.15652165
242	0xbe1f1ba8	-0.15537894
243	0xbe853053	-0.2601343
244	0xbdc09dc1	-0.09405089
245	0xbde2eef8	-0.11080736
246	0xbe931007	-0.28723165
247	0x3e06c13c	0.1315965
248	0x3dd760c7	0.10516506
249	0xbbb21c93	-0.005435535
250	0x3e42a500	0.19008255
251	0x3d44b58c	0.0480247
252	0xbe0a49fd	-0.13504787
253	0x3c966042	0.018356446
254	0xbe811f0d	-0.25219002
255	0x3c2032eb	0.009777765

lstm.weight_hh_l0 f4 [256, 64]
0	0x3cd3c07f	0.025848625
1	0x3dd30ca0	0.103051424
2	0x3d16dc6d	0.03683131
3	0x3d97226a	0.07379611
4	0x3d974a89	0.07387263
5	0x3e067512	0.13130596
6	0xbd360388	-0.04443696
7	0xbd9e770a	-0.07737549
8	0xbe1c0fdf	-0.1524043
9	0x3e040e2a	0.12896028
10	0x3dffb9c3	0.12486603
11	0xbb478d6b	-0.0030449282
12	0x3e278b22	0.16361669
13	0x3d00f7dd	0.03148638
14	0x3cbd2173	0.023087239
15	0xbda42633	-0.080150984
16	0x3ce4c416	0.027925532
17	0xbc606252	-0.013695316
18	0x3d113e30	0.035459697
19	0x3d973dfc	0.073848695
20	0x3d10682c	0.035255596
21	0x3e08d3c0	0.13362026
22	0x3e191fab	0.14953487
23	0xbe1e39bf	-0.15451716
24	0xbd691671	-0.056906167
25	0xbc86f423	-0.016473835
26	0x3dee11b2	0.11624469
27	0x3d6497cd	0.05580883
28	0xbdc96f07	-0.0983563
29	0x3dde6443	0.10858967
30	0xbd5381f7	-0.051637616
31	0xbd9c7c54	-0.07640901
32	0xbdae1247	-0.0849958
33	0xbd81c145	-0.06335691
34	0xbda9d8a3	-0.08293273
35	0xbd1e15a2	-0.03859485
36	0x3db0c1dc	0.08630726
37	0xbe19fadd	-0.15037103
38	0x3dd7cb49	0.105368204
39	0xbe13f1ab	-0.14447658
40	0xbdf7a343	-0.120916866
41	0xbd2c0461	-0.041996364
42	0x3de6d103	0.112703346
43	0x3d63ff27	0.055663254
44	0xbc796fa5	-0.015224372
45	0x3ce28c01	0.02765465
46	0x3d9cb398	0.07651442
47	0x3d037eca	0.032103337
48	0x3db1e3d6	0.086860344
49	0xbce49e02	-0.027907375
50	0xbcc9227d	-0.024552578
51	0xbbce220d	-0.0062906803
52	0x3d89111f	0.06692719
53	0xbd82a097	-0.06378286
54	0x3e210a9f	0.15726708
55	0x3d0bc7a1	0.034125928
56	0x3c98a1b3	0.018631792
57	0x3d9e7c90	0.07738602
58	0xbd370fc4	-0.04469277
59	0xbdbfc525	-0.09363774
60	0x3dd3fb12	0.10350622
61	0xbdf73220	-0.120701075
62	0x3db60dbb	0.08889338
63	0xbe0793ec	-0.13240021
64	0x3dd80827	0.1054843
65	0x3d46fb98	0.048579782
66	0xbdd5c65d	-0.104382254
67	0x3db5ea11	0.08882535
68	0x3c8865f1	0.016650172
69	0x3d8b803c	0.06811568
70	0x3cd41333	0.025888061
71	0x3c5b8ec9	0.013400742
72	0x3dff935d	0.12479279
73	0xbd29286c	-0.041298315
74	0x3e14fc84	0.14549452
75	0x3dd61197	0.10452574
76	0xbdc50ed2	-0.096219674
77	0xbcf0bcca	-0.029386897
78	0x3d156629	0.03647438
79	0xbdcfb425	-0.10141782
80	0x3d35a952	0.04435093
81	0xbbe0eeb8	-0.006864395
82	0x3d99c722	0.07508685
83	0x3e21f552	0.15816239
84	0xbcc3b45b	-0.023889711
85	0x3e18b1d9	0.14911593
86	0x3d9a53ef	0.0753554
87	0x3add3ca4	0.0016879034
88	0x3d304129	0.04303089
89	0xbcd58be1	-0.026067676
90	0x3e422f60	0.18963385
91	0x3cf763de	0.030198988
92	0x3d820bee	0.06349932
93	0xbe0bf697	-0.13668285
94	0xbd0ffac9	-0.035151277
95	0x3cc2e747	0.023791922
96	0x3d035c3f	0.032070395
97	0x3e3f67d5	0.18691953
98	0xbd786e24	-0.060651913
99	0xbe23c936	-0.15994725
100	0xbd738fcf	-0.05946332
101	0x3d8eb239	0.06967587
102	0xbd0894bc	-0.03334497
103	0x3d981c27	0.07427245
104	0xbcc4a57f	-0.024004696
105	0x3dea1923	0.11430576
106	0x3c2cd30f	0.010548367
107	0xbd3ad02c	-0.045608684
108	0xbde402cd	-0.11133347
109	0x3e3c5cb0	0.18394732
110	0xbe0c3284	-0.13691145
111	0xbd37731d	-0.044787515
112	0x3dde75e4	0.108623296
113	0x3e0da4a0	0.1383233
114	0xbd4b64f7	-0.049656834
115	0x3d5529fd	0.052041996
116	0x3dcec6f8	0.10096544
117	0xbd227208	-0.03965953
118	0x3dc0d06d	0.09414754
119	0x3bce52e1	0.006296501
120	0x3d2045fc	0.039129242
121	0x3ce244a1	0.027620615
122	0xbc3642a5	-0.011124288
123	0xbcc40963	-0.023930257
124	0xbacba620	-0.001553718
125	0x3d854181	0.065066345
126	0x3d16838f	0.036746558
127	0x3db370f8	0.087617815
128	0x3d692a68	0.056925207
129	0x3c81fcae	0.015867557
130	0xbd94aba4	-0.072593
131	0x3e0ad3bc	0.13557333
132	0xbda708b1	-0.08155955
133	0xbc3070af	-0.010769053
134	0xbc967edc	-0.018371038
135	0x3dba3c08	0.09093481
136	0xbd08a6a2	-0.03336204
137	0x3d1401a9	0.036134396
138	0xbd5b4a45	-0.053537626
139	0xbbcdddc4	-0.00628254
140	0xbe05ce04	-0.1306687
141	0x3db0286d	0.086014606
142	0x3dea96a6	0.11454515
143	0x3bb08399	0.0053867814
144	0xbd79a03b	-0.060943823
145	0x3dc9be61	0.09850765
146	0xbd1d7b33	-0.03844757
147	0x3d524136	0.05133172
148	0x3bd6dd18	0.006557118
149	0x3e33f342	0.17573264
150	0xbe35455a	-0.17702237
151	0xbdaaf8be	-0.08348225
152	0xbe010669	-0.12600102
153	0x3e803c84	0.2504617
154	0x3d1c9be7	0.038234618
155	0x3e5921b2	0.2120426
156	0xbe2e4685	-0.17019089
157	0xbe121235	-0.14264758
158	0x3e20ef73	0.15716343
159	0xbb3e9877	-0.0029082575
160	0xbd352c10	-0.044231474
161	0x3e40c554	0.18825275
162	0x3bc302b2	0.005951249
163	0xbe11a46f	-0.14222883
164	0x3d8c2af9	0.06844134
165	0x3e2e75e2	0.17037156
166	0xba196fad	-0.0005853128
167	0x3e199a2b	0.15000217
168	0x3c9a6316	0.018846076
169	0xbdc3143a	-0.09525342
170	0x3d0a9929	0.03383747
171	0x3e13ba57	0.14426552
172	0xbba6a264	-0.0050852764
173	0xbe099932	-0.13437346
174	0xbcefe5db	-0.029284408
175	0x3d697f2a	0.05700604
176	0xbd462d2b	-0.04838292
177	0x3d7bdd20	0.061490178
178	0xbe370a09	-0.17874922
179	0x3c6c0687	0.014405853
180	0xbd045fec	-0.03231804
181	0xbbbf58c0	-0.0058394372
182	0x3e2cc1c6	0.16870794
183	0xbdb6681d	-0.08906577
184	0x3dd88fac	0.10574278
185	0xbe06bdef	-0.13158391
186	0x3dbe829e	0.09302257
187	0x3e25df4f	0.16198467
188	0xbd9d9c67	-0.07695847
189	0x3d595d7d	0.053067673
190	0x3cc16db9	0.02361189
191	0xbe0eb08d	-0.13934536
192	0x3dc30d6b	0.09524044
193	0xbcdfa058	-0.027298138
194	0x3e05aae8	0.13053477
195	0xbc7a4328	-0.0152748
196	0x3cdb71b4	0.026787616
197	0xbddf74c7	-0.109109454
198	0xbcb430d0	-0.021995932
199	0xbc7fe9b3	-0.015619683
200	0x3d4118b3	0.047142696
201	0xbda4dcf7	-0.08049958
202	0x3dd4f576	0.103983805
203	0x3c489542	0.012242617
204	0x3dd82d69	0.10555536
205	0xbde84f86	-0.11343293
206	0xbd97aae7	-0.07405644
207	0x3d9ac29b	0.07556649
208	0xbc2554db	-0.010091032
209	0x3d665b41	0.05623937
210	0x3e04aa67	0.12955628
211	0xbc28bfda	-0.010299647
212	0x3c3e7c24	0.011626277
213	0x3dc37054	0.09542909
214	0xbd9fac69	-0.077965565
215	0xbe26e01d	-0.1629643
216	0xbe1f8c44	-0.15580851
217	0x3cb322ba	0.021867145
218	0x3d53d1db	0.051713806
219	0x3e06c831	0.13162304
220	0xbd23758b	-0.03990702
221	0xbb8f9905	-0.004382255
222	0x3e1120aa	0.14172617
223	0xbd44a050	-0.04800445
224	0xbd25ba05	-0.040460605
225	0x3dc58a5c	0.096455306
226	0x3d80eb54	0.06294885
227	0xbe19bad2	-0.15012673
228	0x3dd5ad90	0.10433495
229	0x3dab1b7e	0.08354853
230	0x3d1e9b01	0.038722042
231	0x3be04d37	0.006845142
232	0x3dcf6124	0.1012595
233	0xbe0eb4ba	-0.13936129
234	0xbd9302e3	-0.07178285
235	0x3e0d421a	0.13794747
236	0x3cfaebc6	0.030630004
237	0x3da93652	0.08262314
238	0x3e274132	0.16333464
239	0x3df8d846	0.12150626
240	0x3e0327cf	0.12808155
241	0xbaea3b51	-0.0017870461
242	0xbddfee61	-0.10934139
243	0xbdc3173c	-0.09525916
244	0x3e4cb2e8	0.19990122
245	0x3cf01d57	0.029310865
246	0xbc487098	-0.012233876
247	0x3cc5cdae	0.024145927
248	0xbe466802	-0.19375613
249	0xbd0cf722	-0.03441537
250	0xbd3a203e	-0.045440905
251	0x3e1910cf	0.14947818
252	0xbdfbeaa1	-0.12300611
253	0x3d82e3fb	0.0639114
254	0xbe098e64	-0.13433224
255	0xbcb51f2a	-0.022109587

lstm.bias_ih_l0 f4 [256]
0	0x3e0c5bf9	0.1370696
1	0xbc9e3144	-0.019310601
2	0xbe3ce5a4	-0.18446976
3	0xbd7c4bfd	-0.061595906
4	0xbc4c2825	-0.012460743
5	0xbdcc1211	-0.099643834
6	0x3da4f8b9	0.080552526
7	0x3d9f993d	0.077929
8	0x3e208c29	0.15678467
9	0x3dc1e0d1	0.094667085
10	0xbde1eca5	-0.110314645
11	0xbc90f3dc	-0.017694406
12	0xbd78cccd	-0.06074219
13	0x3dc5d0e0	0.0965898
14	0x3e0703b4	0.13185006
15	0x3d2ca694	0.04215105
16	0xbd578355	-0.052615482
17	0xbdd9f071	-0.10641564
18	0xbbe7e833	-0.007077241
19	0xbd9f5dfa	-0.077815965
20	0x3d7e6abb	0.062113505
21	0xbce99371	-0.028512688
22	0xbc211749	-0.009832212
23	0x3e13a193	0.14417104
24	0x3c5a580d	0.013326657
25	0xbd94766c	-0.0724915
26	0x3db8cfb6	0.09023993
27	0xbd51ba89	-0.051203284
28	0xbe2b1577	-0.16707407
29	0x3dd58a92	0.10426821
30	0xbd7185ef	-0.05896562
31	0x3d42a853	0.047523808
32	0xbdc63c61	-0.09679485
33	0xbca033ee	-0.019556012
34	0xbd849677	-0.064740114
35	0x3d00196d	0.031274248
36	0xbd7dec69	-0.061993036
37	0xbb47c6ca	-0.0030483478
38	0xbca60f42	-0.020270947
39	0xbdf10293	-0.11768069
40	0xbcfdc5fa	-0.030978192
41	0x3d3cd31a	0.04609976
42	0x3d83334a	0.06406267
43	0xbd97b8b8	-0.07408279
44	0xbd929ffb	-0.0715942
45	0xbe54bdac	-0.20775479
46	0xbd4f4cc3	-0.050610315
47	0xbe4cf6c3	-0.20016007
48	0x3dc97950	0.09837592
49	0x3d786f4b	0.060653012
50	0x3d1c24a9	0.0381209
51	0xbe181c89	-0.14854635
52	0xbd54fe25	-0.052000184
53	0x3cc4ecf1	0.024038764
54	0xbd132d97	-0.03593215
55	0xbc16606d	-0.009178263
56	0xbbb6ff8a	-0.005584662
57	0xbc22306d	-0.009899241
58	0xbe09607a	-0.13415709
59	0xbd377607	-0.044790294
60	0x3d5ab04f	0.053390797
61	0x3d0964a4	0.033543244
62	0xbd151df3	-0.036405515
63	0xbc880f3d	-0.016608829
64	0xbb0fb5af	-0.002192836
65	0xbcb31381	-0.021859886
66	0xbdf5acf3	-0.11995878
67	0xbe12885b	-0.14309828
68	0xbb853ee4	-0.004066335
69	0xbdf2de08	-0.11858755
70	0x3d3d1200	0.046159744
71	0xbe003160	-0.12518835
72	0x3e526671	0.20546891
73	0x3e29e332	0.16590574
74	0xbc2dfcfa	-0.010619396
75	0xbda8671e	-0.08222793
76	0xbc163446	-0.009167736
77	0xbe16658f	-0.14687179
78	0xbc7fa2ea	-0.015602807
79	0xbe348544	-0.17628962
80	0xbe145a65	-0.14487608
81	0x3cf611bf	0.030037759
82	0xbddfde66	-0.10931091
83	0x3e090caa	0.13383737
84	0xbd5bf377	-0.053698983
85	0x3bd98a6d	0.006638816
86	0xbd2d8841	-0.04236627
87	0xbdc83b81	-0.097769745
88	0x3c9fd499	0.019510554
89	0x3db1a092	0.086732045
90	0xbd4f0382	-0.050540455
91	0xbd335c17	-0.043788996
92	0x3d9023a4	0.07038048
93	0xbdedd0e8	-0.11612111
94	0xbdcf1d8d	-0.10113058
95	0xbde512b5	-0.11185209
96	0xbcc6e72c	-0.024280153
97	0xbd51f9dc	-0.051263675
98	0xbddf2854	-0.10896364
99	0xbc9b8ffe	-0.01898956
100	0xbd8a5985	-0.06755356
101	0x3c6b5cbf	0.014365374
102	0xbb3cf412	-0.0028832
103	0x3ca68090	0.020324975
104	0x3d7f4ac4	0.06232716
105	0xbe2671a8	-0.16254294
106	0x3d2a22e5	0.041537184
107	0xbde3993e	-0.11113213
108	0x3bdee4e4	0.006802188
109	0xbdc6b28e	-0.09702025
110	0xbe321ad9	-0.17393054
111	0x3ce33ea6	0.027739834
112	0xbe12b793	-0.1432784
113	0xbe1b7451	-0.1518109
114	0x3e00ed22	0.12590459
115	0xbdfaa89b	-0.1223919
116	0x3ad133a7	0.0015960828
117	0xbc60503c	-0.013691004
118	0x3c2edcba	0.0106727425
119	0x3b8dfbca	0.004332994
120	0x3d178d94	0.037000254
121	0x3c189913	0.0093138395
122	0x3d9af6df	0.07566618
123	0xbe21269a	-0.15737382
124	0x3b37f3e5	0.0028068956
125	0x3d89a6b7	0.067212515
126	0xbcebd927	-0.02879007
127	0xbdf3b07e	-0.118988976
128	0xbdc97217	-0.09836214
129	0x3e08162e	0.13289711
130	0x3d55e0a5	0.05221619
131	0x3d64b85b	0.055839878
132	0x3d064831	0.03278369
133	0xbb30eff0	-0.0026998483
134	0xbc3a774b	-0.011380981
135	0xbd9afb81	-0.07567502
136	0xbe645e80	-0.22301674
137	0x3c0215f1	0.007939802
138	0x3e292d62	0.16521218
139	0xbdd897ac	-0.10575804
140	0xbd31420d	-0.04327588
141	0xbd56ed7e	-0.052472584
142	0xbd185e69	-0.03719941
143	0x3b527f82	0.0032119458
144	0x3d571bad	0.052516628
145	0x3d10b6a6	0.035330437
146	0x3c68ccb4	0.014208961
147	0x3c1c59d8	0.009542905
148	0x3d45af56	0.048262917
149	0xbcdde3ec	-0.02708622
150	0x3e0ae83f	0.13565157
151	0xbe14fbbf	-0.14549159
152	0xbe2f95b3	-0.1714695
153	0xbd0da61b	-0.03458224
154	0x3de498dc	0.11161968
155	0x3dde4e4c	0.10854778
156	0xbd56ee80	-0.052473545
157	0xbd87a190	-0.066226125
158	0xbd18891c	-0.037240133
159	0xbe30bc38	-0.172593
160	0x3bd5010d	0.0065003694
161	0x3c82437f	0.015901325
162	0x3d9c5abc	0.07634494
163	0xbe11e00f	-0.14245628
164	0xbcd71cd8	-0.026258871
165	0x3d1f6850	0.03891784
166	0xbd7f180b	-0.06227879
167	0xbc4a6d71	-0.012355194
168	0x3d72c0d2	0.05926592
169	0xbcc90976	-0.024540644
170	0x3cbd364b	0.023097178
171	0xbdcfb8f2	-0.101426974
172	0xbce75fae	-0.028243866
173	0x3b8badf6	0.004262681
174	0x3de089dd	0.10963795
175	0xbd3a3f55	-0.045470554
176	0xbe2aa591	-0.16664721
177	0xbda18c5e	-0.07888101
178	0x3d96d57b	0.07364937
179	0xbc826d8d	-0.015921379
180	0x3b634edc	0.0034684455
181	0x3d6785ee	0.05652421
182	0x3db77143	0.0895715
183	0xbe33f727	-0.1757475
184	0x3e16163e	0.14656922
185	0xbdc246e1	-0.09486175
186	0x3da761e3	0.08172967
187	0xbd0348c4	-0.032051817
188	0xbbc56095	-0.0060234764
189	0xbe03eb6f	-0.1288278
190	0xbdca010e	-0.098634824
191	0x3e1e5e36	0.15465626
192	0xbd9facf0	-0.07796657
193	0xbdc6522f	-0.09683644
194	0xba43faa1	-0.0007476006
195	0xbd6fb03d	-0.058517683
196	0x3cf67735	0.03008614
197	0x3ab242ca	0.0013600227
198	0xbdcbb9d9	-0.09947557
199	0x3dd60d31	0.10451735
200	0x3e070d24	0.13188607
201	0xbd4468dd	-0.047951568
202	0x3cceb3b3	0.025232172
203	0xbd0523db	-0.032504898
204	0xbe7e445c	-0.24830765
205	0x3dd85850	0.10563719
206	0x3dc6c3cd	0.09705315
207	0x3cbc6b70	0.023000449
208	0xbd15e1c8	-0.036592275
209	0xbe464d96	-0.19365534
210	0x3d1bd6c0	0.0380466
211	0x3e27e788	0.16396916
212	0xbe871137	-0.2638032
213	0xbd365ed3	-0.044524025
214	0xbcaa1e70	-0.020766467
215	0xbde2fa0f	-0.11082851
216	0x3be5e7c7	0.0070161554
217	0x3e08f282	0.1337376
218	0xbc73dfb0	-0.014884874
219	0xbdd188cf	-0.10231172
220	0xbdb30152	-0.08740486
221	0xbc7608cf	-0.015016749
222	0xbca57afc	-0.020200245
223	0x3e102f5b	0.14080565
224	0xbc408ac5	-0.011751835
225	0x3dbd067b	0.09229752
226	0x3d0c40a2	0.034241326
227	0xbdc0803c	-0.09399459
228	0x3c5fc709	0.0136582935
229	0xbe3218f0	-0.17392325
230	0xbe35ee28	-0.1776663
231	0xbc60ba23	-0.013716253
232	0x3cba87aa	0.022769768
233	0xbdc61f31	-0.09673918
234	0xbdcd5733	-0.100263976
235	0xbe238c48	-0.15971482
236	0xbcab2115	-0.020889798
237	0xbe3e7912	-0.18600872
238	0x3e963961	0.29340652
239	0xbe18cc54	-0.14921695
240	0x3e1058d6	0.14096388
241	0x3de58421	0.11206842
242	0xbdd1721f	-0.10226845
243	0xbd64d3aa	-0.05586592
244	0xbdedcd17	-0.116113834
245	0xbd3a3b96	-0.04546698
246	0x3c1a95d1	0.009435133
247	0x3c1945f0	0.009355053
248	0x3db63324	0.08896473
249	0xbde34778	-0.11097616
250	0xbdd7fe24	-0.1054652
251	0xbbaa08a6	-0.0051890193
252	0xbd5698a4	-0.052391663
253	0xbd952b4d	-0.072836496
254	0xbb1b3bf6	-0.0023686863
255	0x3d8e6122	0.0695212

lstm.bias_hh_l0 f4 [256]
0	0x3cfe6a4d	0.031056548
1	0x3b2bf5e9	0.0026239103
2	0xbe49811a	-0.19678155
3	0x3d340045	0.04394557
4	0x3d7c904c	0.06166105
5	0x3cfac095	0.030609408
6	0x3d81989e	0.063279375
7	0xbd998d65	-0.07497672
8	0x3de3efbd	0.11129711
9	0xbdc6b581	-0.09702588
10	0xbd50dc77	-0.0509915
11	0xbdc54365	-0.09631995
12	0xbda5e6cc	-0.08100662
13	0x3c4364e7	0.011925912
14	0xbce14b5e	-0.027501758
15	0xbdf5e110	-0.12005818
16	0xbd73dcb4	-0.05953665
17	0x3d0af760	0.03392732
18	0x3c5295ba	0.01285308
19	0xbdc5cb1e	-0.09657882
20	0xbd983412	-0.074318066
21	0x3d1906cb	0.037359994
22	0x3d7639ab	0.06011359
23	0xbc317e56	-0.0108333435
24	0xbe027dfc	-0.12743372
25	0x3d0d7e47	0.034544256
26	0x3c440f1e	0.011966495
27	0xbe11564f	-0.1419308
28	0xbe1e0d39	-0.15434732
29	0x3daae96e	0.083453044
30	0x3d5361ba	0.05160687
31	0x3d4547ff	0.048164364
32	0xbdba357f	-0.09092235
33	0xbd47cf61	-0.048781756
34	0x3d380661	0.04492796
35	0xbd4c52bf	-0.0498836
36	0xbd93690c	-0.071977705
37	0x3c57286b	0.013132195
38	0xbd6e1323	-0.05812372
39	0xbd4b4861	-0.049629573
40	0xbdb29eb0	-0.087216735
41	0xbd884e22	-0.06655528
42	0x3da10fb8	0.07864326
43	0x3d0dfedd	0.034666885
44	0x3c13b85b	0.009016122
45	0xbcc8430d	-0.024446035
46	0x3dc56369	0.096381016
47	0xbd1c602e	-0.03817766
48	0x3de62bba	0.11238809
49	0x3dd7edba	0.105433896
50	0xbd39c6b6	-0.04535552
51	0xbe2d8d05	-0.16948326
52	0x3d978e59	0.074001975
53	0x3d5812ce	0.05275231
54	0xbdfe9243	-0.12430241
55	0x3c9ae188	0.01890637
56	0xbdf25da8	-0.1183427
57	0xbd0d99dc	-0.03457056
58	0xbe21a05f	-0.15783833
59	0x3c8ee1ff	0.017441748
60	0xbd812f1d	-0.06307814
61	0xbda84252	-0.082157746
62	0xbc5e6720	-0.013574392
63	0xbd4c24a9	-0.04983965
64	0x3d693850	0.05693847
65	0xbd9d02b9	-0.07666535
66	0x3d8c9c4b	0.06865748
67	0x3d2cb9fd	0.04216956
68	0xbe1aa333	-0.15101318
69	0x3d24f594	0.040273264
70	0x3c497f2a	0.012298385
71	0xbe6301f1	-0.2216871
72	0xbcc9b4d0	-0.02462235
73	0xbca9c1db	-0.02072232
74	0x3c864750	0.016391426
75	0xbdab151c	-0.08353636
76	0xbe50dc3e	-0.20396516
77	0x3d5193e4	0.05116643
78	0xbd3444b2	-0.044010825
79	0xbb33f455	-0.0027458866
80	0xbcf266a5	-0.02958996
81	0xbdb7588c	-0.08952436
82	0xbbc849da	-0.0061123194
83	0x3e584ed8	0.21123827
84	0xbc52c3c2	-0.012864055
85	0xbd9e74ee	-0.07737146
86	0xbd98976a	-0.07450755
87	0x3c46df69	0.012138226
88	0x3dd8cdd0	0.105861306
89	0x3e500ece	0.20318148
90	0xbd7d478f	-0.06183582
91	0xbe1092ea	-0.14118543
92	0x3d44c4d1	0.04803926
93	0xbe3894c2	-0.18025497
94	0x3d9358cf	0.07194673
95	0xbd45acc4	-0.048260465
96	0xbc97788d	-0.0184901
97	0xbcea1a5f	-0.028577028
98	0xbc2775a0	-0.010220915
99	0x3c765db4	0.015036989
100	0x3d0ae903	0.033913624
101	0xbe0389f0	-0.12845588
102	0x3cf5126b	0.029916009
103	0x3cbd6278	0.023118243
104	0x3d0b327d	0.033983696
105	0xbde198f7	-0.11015504
106	0xbe2a1148	-0.16608155
107	0xbd0bd9c6	-0.03414323
108	0x3d94cb4d	0.07265339
109	0xbe3b85a4	-0.18312699
110	0xbe327b2c	-0.17429799
111	0xbe222c78	-0.15837276
112	0x3db17fb9	0.08666939
113	0xbdd378c1	-0.10325766
114	0x3c2600b9	0.010132008
115	0xbc1f6880	-0.009729505
116	0x3e15e439	0.14637841
117	0xbd84793b	-0.064684354
118	0xbdad9d7e	-0.08477305
119	0xbde97d02	-0.114007965
120	0xbc830968	-0.015995696
121	0x3cb2922e	0.02179822
122	0x3e094937	0.13406835
123	0xbcd8bffb	-0.02645873
124	0x3d9f9c0e	0.07793437
125	0xbd618530	-0.055058658
126	0x3d98cfc2	0.07461502
127	0x3d3a1059	0.045425747
128	0x3d3c1a27	0.04592338
129	0x3dc8fb25	0.09813527
130	0xbc10daf8	-0.008841269
131	0xbdbf5e30	-0.09344137
132	0xbdbb3658	-0.091412246
133	0xbda06b68	-0.07832986
134	0xbd152a94	-0.03641756
135	0x3daf0d65	0.08547477
136	0xbe01f7ab	-0.12692134
137	0xbd43c6df	-0.04779708
138	0x3dc140df	0.09436201
139	0xbe16d678	-0.14730251
140	0x3e1329c4	0.14371401
141	0x3b7cc0bd	0.003856703
142	0xbe29c8ae	-0.1658046
143	0x3d8f0e84	0.069851905
144	0x3dc816d1	0.09769977
145	0x3dcca05a	0.09991522
146	0x3d7a5db2	0.06112451
147	0xbe375291	-0.1790259
148	0xbd9bf4b4	-0.07615033
149	0x3c5cbab5	0.013472249
150	0x3c4ffd62	0.0126946885
151	0xbe249a13	-0.160744
152	0x3d1fdae9	0.03902713
153	0xbcd21cc1	-0.025648477
154	0x3da3c430	0.07996404
155	0x3deb0efa	0.11477466
156	0xbb471ca0	-0.0030382052
157	0xbce447ce	-0.02786627
158	0xbd90435f	-0.070441
159	0xbe243c0c	-0.16038531
160	0x3d6c02d0	0.05761987
161	0xbdd81937	-0.10551684
162	0x3d604ea8	0.054762512
163	0xbc46aa8b	-0.012125622
164	0xbdf854d8	-0.12125558
165	0xbc9fde15	-0.019515077
166	0xbd101e81	-0.03518534
167	0x3d6e2da3	0.05814899
168	0x3cadf700	0.021235943
169	0x3d24d325	0.040240426
170	0xbd874590	-0.06605065
171	0x3d069f5f	0.032866832
172	0x3e35f6b4	0.17769891
173	0xbb43d095	-0.0029878963
174	0xbc2922c1	-0.010323227
175	0x3e236c1e	0.15959212
176	0xbe1b191b	-0.15146296
177	0xbe14ff78	-0.14550579
178	0xbcd20d88	-0.025641218
179	0x3d2799c2	0.04091812
180	0xbd92c573	-0.07166567
181	0x3d6cd088	0.05781606
182	0x3da647d7	0.08119171
183	0xbd414bdd	-0.04719149
184	0x3d9ba4b3	0.07599773
185	0x3dfcd913	0.12346091
186	0x3e199eac	0.15001935
187	0xbd302497	-0.043003645
188	0xbd60d560	-0.05489099
189	0xbe357876	-0.17721733
190	0xbdc6ae2d	-0.0970119
191	0x3d9258a1	0.07145811
192	0xbdb262d1	-0.08710254
193	0xbbafa1ec	-0.0053598788
194	0x3db15392	0.08658518
195	0x3caa0755	0.02075545
196	0xbd0168d0	-0.031594098
197	0xbe0d88f6	-0.13821778
198	0xbdea4c22	-0.114403024
199	0x3dfecd33	0.124414824
200	0xbd3d6b0b	-0.046244662
201	0xbe1c65b6	-0.15273175
202	0xbde335cd	-0.11094246
203	0xbe2d995c	-0.16953033
204	0xbe417d57	-0.1889547
205	0x3dad0a50	0.084492326
206	0xbdc846a2	-0.09779097
207	0x3d1e59c0	0.03865981
208	0x3cdf3a51	0.027249487
209	0xbdcc990c	-0.09990129
210	0xbd821109	-0.063509054
211	0x3bd70b77	0.006562646
212	0xbe897303	-0.2684556
213	0xbd13c62f	-0.036077674
214	0xbc4fc35d	-0.012680856
215	0xbcf3e969	-0.029774385
216	0x3e0186e4	0.12649113
217	0x3b85e53c	0.0040861648
218	0xbe21afc2	-0.15789703
219	0xbd7b613b	-0.061372023
220	0xbbf494d4	-0.0074640308
221	0x3d72f106	0.05931189
222	0x3c75ebb2	0.015009807
223	0x3d8453f7	0.064613275
224	0x3b831b05	0.0040010237
225	0x3d86a850	0.06575072
226	0xbe05d17c	-0.13068193
227	0xbdf34500	-0.11878395
228	0x3d852b81	0.06502438
229	0xbd60db68	-0.054896742
230	0xbe2d181f	-0.16903733
231	0x3d1745bd	0.036931742
232	0x3cd69c8c	0.026197694
233	0x3d10d90a	0.035363235
234	0xbdc38044	-0.09545949
235	0x3ce8731e	0.028375205
236	0x3dd21a64	0.1025894
237	0x3c67969f	0.014135032
238	0x3e4539e8	0.1926037
239	0xbd996458	-0.07489842
240	0xbca5524f	-0.02018085
241	0x3ccce54a	0.025011677
242	0x3b4cc9cc	0.003124821
243	0xbe95afe2	-0.2923575
244	0xbdac06fd	-0.083997704
245	0xbddecc36	-0.10878794
246	0xbd116a27	-0.035501625
247	0xbe3184d6	-0.17335829
248	0xbd3d91ce	-0.04628163
249	0xbdefd331	-0.117102034
250	0xbc3be36f	-0.011467799
251	0x3bf3d8c0	0.00744161
252	0x3cff3b3e	0.031156179
253	0x3da65339	0.08121342
254	0x3d1fa246	0.038973115
255	0x3cce2af9	0.025166975

lstm.weight_ih_l1 f4 [256, 64]
0	0x3dca7ba1	0.098868616
1	0x3d2f59fe	0.042810433
2	0x3c40946f	0.011754139
3	0xbcbf56b8	-0.02335678
4	0xbd9f1fe7	-0.07769757
5	0xbd92b02a	-0.07162507
6	0x3e19f971	0.1503656
7	0xbd862936	-0.06550829
8	0x3e4d1408	0.20027173
9	0xbd514620	-0.051092267
10	0xbd15e071	-0.036590997
11	0xbcff3337	-0.03115235
12	0x3d99fd72	0.07519044
13	0x3d3c0d99	0.045911405
14	0xbd177e25	-0.036985535
15	0xbd7dff9b	-0.062011342
16	0x3dbe673e	0.09297036
17	0x3d7a3d03	0.06109334
18	0x3d593edb	0.05303846
19	0x3e2112bf	0.15729807
20	0xbc23114d	-0.009952855
21	0x3d5a71f8	0.053331345
22	0x3d4123ec	0.0471534
23	0xbd32e080	-0.04367113
24	0x3ba689cd	0.005082345
25	0xbdfba7fd	-0.122879006
26	0x3e35028c	0.17676753
27	0x3c13d479	0.009022825
28	0xbdbdffd5	-0.09277312
29	0x3d9a696d	0.075396396
30	0xbd5082b1	-0.050905887
31	0xbdcfc33a	-0.101446584
32	0xbce61ab9	-0.028088914
33	0x3d748838	0.05970022
34	0xbd9a277c	-0.07527062
35	0xbd9125b3	-0.07087269
36	0xbd32e3a5	-0.04367413
37	0xbd9aac25	-0.07552365
38	0xbc9508b1	-0.018192621
39	0xbda8239a	-0.082099155
40	0xbcec5986	-0.028851282
41	0xbe1fb145	-0.15594967
42	0x3cb51f1d	0.022109563
43	0xbd168154	-0.03674443
44	0xbe1f0cbd	-0.15532203
45	0x3e01d132	0.12677458
46	0xbe3c75b9	-0.18404283
47	0x3d194bc6	0.03742578
48	0x3e28d2f3	0.1648672
49	0xbdc753ef	-0.09732806
50	0xbe22e450	-0.15907407
51	0xbdb39492	-0.08768572
52	0x3e27ff52	0.1640599
53	0xbe46b981	-0.19406702
54	0xbda94028	-0.0826419
55	0xbd4d9106	-0.050187133
56	0xbe5d6c5e	-0.2162337
57	0xbe323692	-0.1740363
58	0xbdcddbc3	-0.10051682
59	0x3d015f2c	0.031584904
60	0xbd341cdc	-0.043972835
61	0xbdc6ec02	-0.09712984
62	0xbc0deca0	-0.008662373
63	0xbdc4ba9d	-0.09605906
64	0x3e7926cd	0.24331208
65	0x3d98a6bd	0.07453678
66	0xbbe62e16	-0.007024537
67	0xbcf480a5	-0.029846499
68	0xbe1c2e10	-0.15251946
69	0x3dad9917	0.08476465
70	0x3d50e3e7	0.050998595
71	0x3dbb9519	0.091592975
72	0xbd3a74c0	-0.045521498
73	0xbe15f747	-0.1464511
74	0x3e1fc58c	0.15602702
75	0x3d311b7b	0.043239098
76	0xbce47c6f	-0.027891366
77	0xbe065907	-0.13119899
78	0x3d917784	0.07102874
79	0x3d209cf7	0.039212193
80	0x3ceccc12	0.028905902
81	0x3dd859ae	0.1056398
82	0x3d6b5af0	0.05745977
83	0xbd967507	-0.0734654
84	0x3da95711	0.0826856
85	0x3dde68f7	0.10859864
86	0xbd535440	-0.05159402
87	0xbe4d632f	-0.20057367
88	0xbdd35dae	-0.10320602
89	0x3c830b9d	0.015996749
90	0xbce49a54	-0.02790562
91	0x3dc2d218	0.095127285
92	0xbdc72bf3	-0.097251795
93	0xbc7a8d73	-0.015292513
94	0x3e0c2063	0.1368423
95	0xbd0265f1	-0.0318355
96	0xbd387443	-0.04503275
97	0xbc0f82be	-0.008759199
98	0xbd440dac	-0.0478646
99	0x3dafd12b	0.085848175
100	0x3e85d10f	0.26136062
101	0x3ddadce0	0.1068666
102	0xbd64a7b1	-0.055823985
103	0xbc955a39	-0.018231498
104	0x3d3f9f4a	0.04678277
105	0xbd58a024	-0.052887097
106	0xbca38a82	-0.019963507
107	0x3e3352d6	0.17512068
108	0xbdd43eb9	-0.10363526
109	0x3d1de2a2	0.038546212
110	0xbe2b3d04	-0.16722494
111	0x3db2c967	0.08729821
112	0x3db94e82	0.09048177
113	0x3e6f3e70	0.23363662
114	0x3d94fbfd	0.072746255
115	0xbcbc9acd	-0.023023034
116	0x3db8c18c	0.09021291
117	0x3d356f3f	0.044295546
118	0x3d2cbdd9	0.04217324
119	0xbdb598a9	-0.08867008
120	0xbe85de82	-0.26146322
121	0x3d6bcd85	0.057569046
122	0x3d201cf2	0.039090104
123	0xbc4e9833	-0.012609529
124	0xbe1977a9	-0.14987053
125	0xbe1e2587	-0.15444003
126	0xbe48d04a	-0.19610706
127	0xbe0cdd59	-0.13756312
128	0x3e0a1f1c	0.1348843
129	0x3e1a6185	0.15076263
130	0xbd782b11	-0.060587946
131	0xbc7757f9	-0.015096658
132	0xbe36f90c	-0.17868441
133	0xbdf87f58	-0.12133664
134	0xbe0bdd60	-0.13658667
135	0x3d98cffe	0.07461546
136	0xbe4a5f14	-0.19762832
137	0xbc380c19	-0.011233353
138	0x3e3533c9	0.17695536
139	0x3d8c2681	0.068432815
140	0x3e32305b	0.17401259
141	0xbe01b2ee	-0.12665913
142	0x3ad1bbfa	0.0016001456
143	0x3e5182b3	0.20460014
144	0xbb1b21ec	-0.0023671342
145	0xbd215f19	-0.039397333
146	0xbe1be5da	-0.152244
147	0x3ce4bd8b	0.027922412
148	0x3d0c53ed	0.034259725
149	0xbd63dfce	-0.05563336
150	0x3ddf5733	0.10905304
151	0xbe3780ab	-0.17920177
152	0xbde14b4c	-0.1100069
153	0xbdcb9c56	-0.09941928
154	0xbd2a82d3	-0.04162867
155	0x3df778f1	0.120836146
156	0x3d4c0f53	0.0498193
157	0x3d06de9a	0.032927133
158	0x3e33b28f	0.17548583
159	0xbd1ded1b	-0.0385562
160	0x3d6e3f21	0.058165673
161	0x3d2c43c7	0.042056825
162	0xbd3da279	-0.046297524
163	0xbe26220b	-0.16223924
164	0xbd41b3f4	-0.047290757
165	0x3dca600a	0.09881599
166	0xbe177629	-0.14791168
167	0x3e3345c3	0.1750708
168	0x3dcaf833	0.099106215
169	0xbd99761a	-0.07493229
170	0x3d2f060c	0.042730376
171	0x3c95dd7e	0.018294092
172	0x3c210f43	0.009830299
173	0x3d1a2f36	0.03764268
174	0xbdef69f3	-0.1169013
175	0x3e2ec347	0.1706668
176	0x3db9f03b	0.090790235
177	0x3af109e1	0.0018389785
178	0xbe396582	-0.18105128
179	0xbb7b19a3	-0.0038314841
180	0x3d45b5e3	0.048269164
181	0x3e0ba86e	0.1363847
182	0x3d6d98ab	0.058006924
183	0x3d85507c	0.06509492
184	0xbe19ce17	-0.15020023
185	0xbd5ef92f	-0.05443686
186	0x3cb70ea8	0.022345856
187	0x3dca1833	0.09867897
188	0x3dd0bbc0	0.101920605
189	0xbdbfb599	-0.09360809
190	0x3e300159	0.17188014
191	0xbdf7a698	-0.12092322
192	0x3cfaef4c	0.030631684
193	0x3e4ebcd4	0.2018922
194	0xbcb44a3c	-0.022008054
195	0x3cdb8d2d	0.026800716
196	0x3d2ed064	0.042679206
197	0x3d76267f	0.060095306
198	0xbe1eab00	-0.15494919
199	0xbcfaf19a	-0.030632783
200	0x3e8df8ec	0.27728975
201	0x3db8499e	0.08998416
202	0xbd368817	-0.04456338
203	0xbdd6fb7b	-0.10497185
204	0x391e60e3	0.00015104147
205	0xbd41427c	-0.047182545
206	0x3d1c835e	0.03821122
207	0x3e04417c	0.12915605
208	0xbe06552d	-0.1311843
209	0xbc112cd8	-0.008860789
210	0x3cc6708a	0.024223585
211	0xbe11015a	-0.14160672
212	0x3de8e902	0.11372568
213	0x3de17b84	0.11009887
214	0xbd69bb8e	-0.05706363
215	0xbe56d3bb	-0.20979206
216	0x3cb2ced9	0.021827148
217	0x3e2e0dc0	0.16997433
218	0xbd2b0bd1	-0.041759316
219	0x3e1dd75e	0.15414187
220	0xbcc868ca	-0.02446403
221	0x3d9fdd26	0.078058526
222	0x3d7b0e6b	0.061293047
223	0xbd57c5e2	-0.05267895
224	0xbe1342a5	-0.14380892
225	0x3d83fd98	0.064448535
226	0xbddeed7b	-0.108851396
227	0x3d29866e	0.041387968
228	0xbd889a20	-0.06670022
229	0x3db23428	0.08701354
230	0xbdb0f048	-0.0863958
231	0x3ce035fc	0.027369492
232	0x3bb3cee1	0.0054873084
233	0xbd332f90	-0.04374653
234	0xbc1de4d1	-0.009637074
235	0xbcfc0885	-0.030765781
236	0xbcecce4c	-0.028906964
237	0xbc45198c	-0.012030017
238	0xbd61b3d4	-0.055103138
239	0x3e11aee8	0.14226878
240	0x3e2321ba	0.15930834
241	0x3ddb2a4b	0.10701426
242	0x3c354155	0.01106294
243	0xbdd9dd0f	-0.10637867
244	0xbd170b22	-0.03687585
245	0x3e48c346	0.19605741
246	0xbd277d2b	-0.040890854
247	0xbc49e051	-0.012321548
248	0xbdbc8377	-0.092047624
249	0xbd5199b2	-0.051171966
250	0xbe3623a5	-0.17787035
251	0x3d1c7e3a	0.038206317
252	0x3dada06d	0.084778644
253	0x3dabb519	0.08384151
254	0xbe0f05bb	-0.1396703
255	0x3c5a0874	0.013307679

lstm.weight_hh_l1 f4 [256, 64]
0	0x3e06baf0	0.13157248
1	0x3da8ae48	0.082363665
2	0xbd536a6d	-0.051615167
3	0x3e35e08d	0.1776144
4	0x3e1c30aa	0.15252939
5	0xbd0cd2e1	-0.034380797
6	0x3d1b2ffc	0.03788756
7	0xbdaab005	-0.08334354
8	0x3de10953	0.109881066
9	0xbdd4769c	-0.103741854
10	0x3d90ad86	0.07064347
11	0xbc6ef5dc	-0.014584985
12	0xbda15098	-0.078767
13	0xbe489be5	-0.19590719
14	0xbe184e86	-0.14873704
15	0x3e045b5f	0.1292548
16	0xbcef9fb4	-0.029250957
17	0x3d5f19f5	0.054468114
18	0xbbb6d4bc	-0.005579559
19	0xbd002c71	-0.031292383
20	0xbe0f0e1c	-0.13970226
21	0x3d6f3da8	0.05840841
22	0xbd92ef90	-0.07174599
23	0xbc51aab0	-0.012797043
24	0x3cca13e7	0.024667693
25	0xbd3c3872	-0.045952268
26	0x3e365a12	0.17807797
27	0xbdde40c1	-0.108521946
28	0xbdc8ca56	-0.098042175
29	0xbde3b04c	-0.1111761
30	0x3e0d2800	0.1378479
31	0x3c92bde3	0.01791281
32	0xbd49c78b	-0.049262565
33	0x3b60048c	0.0034182398
34	0xbcde694b	-0.027149817
35	0x3e5186d5	0.2046159
36	0x3d58ffd9	0.05297837
37	0x3e05ad01	0.13054277
38	0xbe3b40af	-0.18286394
39	0x3d63fcd7	0.05566105
40	0xbe18ffab	-0.1494128
41	0x3e1a52ec	0.15070695
42	0x3bff7060	0.0077953786
43	0xbbac0734	-0.005249882
44	0x3d54d4b3	0.05196066
45	0xbb21df85	-0.0024699878
46	0x3c4ca910	0.0124914795
47	0x3e56e7d0	0.20986867
48	0xbd8c6f63	-0.06857183
49	0xbdc5df3a	-0.09661718
50	0xbd5366e8	-0.05161181
51	0x3d3dea3b	0.046365958
52	0x3d853340	0.06503916
53	0x3dfbf3fc	0.12302396
54	0xbe109056	-0.1411756
55	0x3d85bc4f	0.06530058
56	0xbd3072bf	-0.04307818
57	0xbdeccd98	-0.115626514
58	0xbcb7bc06	-0.022428524
59	0x3e0aaa6a	0.1354157
60	0xbd71d95f	-0.05904519
61	0xbdb42667	-0.08796387
62	0xbc8bb36f	-0.017053334
63	0x3d3026bf	0.0430057
64	0xbd2c47b8	-0.042060584
65	0xbd25851d	-0.04041015
66	0x3d940b85	0.0722876
67	0xbd9b5897	-0.075852565
68	0x3d48e80b	0.04904942
69	0x3de68d3e	0.112574086
70	0xbd2dd3e6	-0.04243841
71	0x3d498cae	0.04920643
72	0x3d6867f1	0.05673975
73	0x3c1ff7b0	0.009763643
74	0xbb76abc8	-0.003763901
75	0x3dc8aacf	0.09798204
76	0xbe0fa45e	-0.14027545
77	0xbd9e0252	-0.07715286
78	0xbe192a51	-0.14957549
79	0x3e171d9b	0.14757387
80	0x3db48cae	0.08815895
81	0x3d63aff7	0.055587735
82	0x3e5f12b7	0.21784483
83	0xbdfb1e12	-0.12261595
84	0xbdad577a	-0.084639505
85	0x3de51a6b	0.111866795
86	0xbe2159f4	-0.1575697
87	0xbc4dc103	-0.012558225
88	0x3e27f32c	0.16401356
89	0xbe20d310	-0.15705514
90	0xbd950262	-0.07275845
91	0xbcc6e994	-0.0242813
92	0x3e1c7b7a	0.15281478
93	0x3dda4dc3	0.10659363
94	0x3daf0eb3	0.085477255
95	0x3dc23704	0.0948315
96	0xbc3a93c4	-0.011387769
97	0x3d7e0694	0.062017992
98	0x3d88b4a0	0.066750765
99	0x3b88a090	0.004169531
100	0xbc9da0ad	-0.019241655
101	0xbb5eb390	-0.003398154
102	0x3d8366ec	0.06416115
103	0x3c0e9695	0.008702894
104	0xbdef694c	-0.11690006
105	0x3d9dfaa2	0.0771382
106	0x3e2f00a9	0.17090096
107	0xbe2eddac	-0.17076749
108	0x3d75c6c3	0.060004007
109	0x3d3bc9d5	0.04584678
110	0xbd907cbb	-0.070550404
111	0x3cf6b71e	0.030116614
112	0x3dd7415f	0.105105154
113	0x3ca1ef69	0.01976748
114	0xbd820836	-0.06349222
115	0xbddd2eea	-0.10799964
116	0xbdf612fc	-0.1201534
117	0x3e57dd06	0.21080408
118	0x3daf6ad2	0.08565296
119	0x3db96bfd	0.090538
120	0xbd824152	-0.06360115
121	0xbddda5ce	-0.1082264
122	0xbdcd334d	-0.100195505
123	0x3d876ba7	0.0661233
124	0xbc1ab2e4	-0.009442065
125	0xbdfc47a4	-0.12318352
126	0xbd8a81cd	-0.06763039
127	0xbca8ad05	-0.020590315
128	0x3d17e8c1	0.037087206
129	0xbd8478d6	-0.0646836
130	0xbe017c1c	-0.12645
131	0x3d44143c	0.04787086
132	0x3e1ba36c	0.15199059
133	0x3c1b7bec	0.0094899945
134	0x3dfcf414	0.12351242
135	0x3d4df42d	0.050281692
136	0x3d9870af	0.07443368
137	0x3a08d7d7	0.0005220151
138	0xbda124b3	-0.07868328
139	0xbd889be8	-0.06670362
140	0xbe44c9a3	-0.19217543
141	0xbc52606e	-0.012840373
142	0xbdee5bc4	-0.11638597
143	0x3acca6ba	0.0015613653
144	0xbd3fd114	-0.04683025
145	0x3db9bf19	0.09069652
146	0xbdce0712	-0.10059942
147	0x3d0d34ce	0.034474187
148	0xbcb208cc	-0.02173271
149	0xbd715bc8	-0.05892542
150	0xbbe34e4b	-0.0069368235
151	0x3d86075d	0.06544373
152	0xbe11d5f6	-0.14241776
153	0xbe4fc514	-0.20290023
154	0x3d3a3150	0.045457184
155	0x3dec1286	0.115269706
156	0x3cf3737b	0.029718151
157	0xbdb6ca52	-0.08925308
158	0x3e11a244	0.14222056
159	0xbd9a60c5	-0.075379886
160	0xbe053577	-0.13008676
161	0x3e06ed89	0.1317655
162	0x3e448f2b	0.19195239
163	0x3d9f5a6b	0.07780918
164	0xbe18e738	-0.14931953
165	0x3e1f4357	0.15553032
166	0xbd835261	-0.06412197
167	0xbe230cc6	-0.15922841
168	0xbdff14ea	-0.12455161
169	0x3caa731a	0.020806838
170	0x3b519b16	0.0031983308
171	0xbdb9493f	-0.09047174
172	0xbe1bdd4b	-0.15221135
173	0xbd40f400	-0.047107697
174	0x3d2e86f1	0.04260916
175	0x3e0fe885	0.14053543
176	0xbc65da64	-0.014029119
177	0x3d8685f5	0.06568519
178	0xbe21a61d	-0.15786023
179	0xbd9d04e0	-0.076669455
180	0x3d2315ba	0.039815642
181	0x3e092693	0.13393621
182	0xbce5422a	-0.027985651
183	0xbe1f2e79	-0.15545072
184	0xbbccf711	-0.0062550385
185	0x3d0f7d18	0.035031408
186	0xbd7b697e	-0.061379902
187	0x3e25056a	0.16115347
188	0x3bd890d3	0.0066090613
189	0xbb98cd4e	-0.004663146
190	0xbd335944	-0.043786302
191	0xbd41f95e	-0.047356956
192	0x3dbd4b71	0.09242905
193	0xbc88d0aa	-0.016701061
194	0x3dbe9492	0.09305681
195	0xbd58d7f6	-0.05294033
196	0xbdd7d9f0	-0.10539615
197	0x3cdad937	0.026714904
198	0xbdba5edc	-0.09100124
199	0xbd196643	-0.03745104
200	0x3d301ba0	0.042995095
201	0xbda3f978	-0.08006567
202	0xbd16c9da	-0.036813594
203	0xbd01dd3b	-0.031705122
204	0xbe2bde07	-0.16783915
205	0xbe1b7359	-0.1518072
206	0xbcd577c0	-0.026058078
207	0xbd86bd39	-0.0657906
208	0x3ca08ace	0.019597437
209	0x3d2733c8	0.040820867
210	0x3d881d46	0.066462085
211	0x3cdefd04	0.027220257
212	0x3ca3eeb5	0.020011285
213	0x3dbfe36b	0.093695484
214	0xbcac9609	-0.021067636
215	0xbd829b2b	-0.06377252
216	0xbd38b2b7	-0.04509231
217	0x3d757b27	0.0599319
218	0x3d662e8d	0.056196738
219	0x3db39fea	0.087707356
220	0x3ca5a245	0.020218978
221	0xbd256297	-0.040377226
222	0x3e056fec	0.13030976
223	0x3d5e34fa	0.05424974
224	0x3e0171a5	0.12641008
225	0x3bd4b897	0.0064917314
226	0x3d9e078d	0.07716284
227	0x3da8f5f0	0.08250034
228	0xbe123118	-0.1427654
229	0xbe27f729	-0.16402878
230	0xbcc4f376	-0.024041872
231	0xbe377877	-0.17917047
232	0x3d53266e	0.05155032
233	0xbd25bd61	-0.04046381
234	0x3ddc50f6	0.107576296
235	0xbde22b9e	-0.110434756
236	0x3bc7c861	0.006096885
237	0xbdf7301a	-0.120697215
238	0xbd2348b2	-0.03986425
239	0x3c00811f	0.007843285
240	0x3d2a498e	0.041574053
241	0xbdce411c	-0.100710124
242	0x3cde71c7	0.027153863
243	0xbcafa7b1	-0.021442266
244	0xbdf5c3b0	-0.12000215
245	0x3ce9707d	0.028496021
246	0x3d26a510	0.04068476
247	0xbdfa069d	-0.12208293
248	0xbdc1c39d	-0.094611384
249	0x3db53e59	0.088497825
250	0x3d9d787d	0.07688997
251	0x3c692d99	0.014232063
252	0xbda81ff1	-0.08209217
253	0x3c9aae81	0.018882038
254	0xbd12ca17	-0.03583726
255	0x3d8da9ee	0.06917177

lstm.bias_ih_l1 f4 [256]
0	0xbd0fd538	-0.03511545
1	0xbe548668	-0.20754397
2	0xbce26a31	-0.027638527
3	0xbca6a71d	-0.020343358
4	0xbd62937c	-0.055316433
5	0xbd3f4aad	-0.046702076
6	0x3b595a1f	0.0033165289
7	0xbd2a7b66	-0.04162159
8	0x3d8e5699	0.06950111
9	0x3bf96acf	0.0076116095
10	0xbdd3cbb1	-0.103415854
11	0xbce22bc4	-0.02760876
12	0xbc1cd5ec	-0.009572487
13	0x3da75bde	0.08171819
14	0x3d2d9b7a	0.042384602
15	0xbd8176cb	-0.06321486
16	0x3ce6166e	0.028086867
17	0xbdcf2629	-0.101147
18	0x3d64fcbe	0.055905096
19	0x3cf897c0	0.030345798
20	0x3d251cf6	0.040310822
21	0xbd9d2a34	-0.07674065
22	0x3c954694	0.01822213
23	0x3bca6ebe	0.0061777523
24	0xbdbc3dab	-0.0919145
25	0xbd8a8949	-0.06764466
26	0xbdd0454c	-0.10169467
27	0x3cae6353	0.021287596
28	0xbda2e00d	-0.079528905
29	0x3d5bc1f8	0.05365178
30	0xbdc2d743	-0.09513714
31	0xbd15e93f	-0.036599394
32	0xbe12699b	-0.14298098
33	0xbddbc6da	-0.10731287
34	0xbd75b8c0	-0.059990644
35	0xbccef1e7	-0.025261832
36	0x3d821011	0.06350721
37	0xbdfa4a0d	-0.12221155
38	0x3d3fc199	0.04681549
39	0x3ce09782	0.027415995
40	0xbe08750e	-0.13325903
41	0xbca5641e	-0.020189341
42	0xbd9fa1a2	-0.07794501
43	0xbdb97e69	-0.09057314
44	0x3bf70edc	0.007539613
45	0xbba69d5e	-0.0050846776
46	0xbe1d925e	-0.15387866
47	0x3e018fc4	0.12652498
48	0x3841e620	4.6229106e-05
49	0x3e0ea544	0.13930231
50	0x3d145819	0.03621683
51	0x3d9d59a4	0.07683113
52	0x3dbf5e3f	0.09344148
53	0xbdffb770	-0.1248616
54	0xbcdfe5e6	-0.027331304
55	0x3cd749f2	0.026280377
56	0xbdbce110	-0.09222615
57	0xbe20f019	-0.1571659
58	0xbe33acb8	-0.17546356
59	0x3d01f0be	0.03172373
60	0x3d2a2591	0.041539732
61	0xbd99e323	-0.07514026
62	0xbd6f885e	-0.05847966
63	0xbd1166ae	-0.035498314
64	0xbdfef014	-0.12448135
65	0x3baee7d7	0.005337696
66	0xbe3924d1	-0.1808045
67	0xbe366243	-0.17810921
68	0x3df31c6f	0.11870658
69	0xbde1ee55	-0.11031786
70	0xbde7da68	-0.113209546
71	0xbc1cb6a7	-0.009565032
72	0xbd91b531	-0.07114638
73	0xbd66f26d	-0.05638354
74	0xbe54ad67	-0.20769273
75	0x3dc95953	0.0983149
76	0x3d1ea2c7	0.038729455
77	0x3d103db8	0.03521511
78	0x3d010990	0.03150326
79	0x3ce2daa8	0.027692154
80	0xbd9bbdac	-0.076045364
81	0x3d6f04b4	0.058354095
82	0xbcce5d58	-0.025190994
83	0xbdb2685a	-0.0871131
84	0x3d56e218	0.052461714
85	0xbdb86101	-0.09002877
86	0xbddc63f5	-0.10761253
87	0xbd889577	-0.06669133
88	0x3c903190	0.017601758
89	0xbe1b1ea1	-0.15148403
90	0x3ccb058d	0.02478292
91	0xbcc76da4	-0.024344273
92	0xbdbcc1ba	-0.09216638
93	0xbda3718c	-0.07980642
94	0xbdd72a77	-0.105061464
95	0x3da234dd	0.07920239
96	0x3d30c82b	0.043159645
97	0x3caccd44	0.021093972
98	0xbe0be924	-0.13663155
99	0xbd018bd3	-0.031627487
100	0x3d695817	0.056968775
101	0x3d4ca804	0.04996492
102	0xbdc3ef79	-0.0956716
103	0x3d3fcb50	0.046824753
104	0xbd553383	-0.05205108
105	0x3d0a926b	0.03383104
106	0xbdb4abe0	-0.08821845
107	0x3ca8a2ec	0.0205855
108	0x3d742706	0.05960753
109	0xbd9f4c94	-0.07778278
110	0xbd8d2a79	-0.06892867
111	0xbce86324	-0.028367586
112	0xbcc64ad1	-0.024205597
113	0xbc14bef7	-0.009078733
114	0x3caf1d8f	0.0213764
115	0x3d8d9330	0.069128394
116	0xbdaa5698	-0.08317298
117	0xbdf8b034	-0.12142983
118	0x3d28a9db	0.04117761
119	0xbd0c1f5b	-0.03420959
120	0xbdf4db96	-0.11955945
121	0xbd64f6b9	-0.055899356
122	0x3c596dc8	0.013270803
123	0xbccf486c	-0.025303088
124	0xbdc35d9b	-0.09539338
125	0xbdfb0e90	-0.12258637
126	0x3c759313	0.0149886785
127	0xbe551b65	-0.20811231
128	0xbd9bc53e	-0.0760598
129	0xbcb9a461	-0.02266139
130	0xbe25480c	-0.16140765
131	0xbdb33164	-0.08749655
132	0x3d172316	0.036898695
133	0x3e2e1d70	0.17003417
134	0xbdb75b2f	-0.08952939
135	0xbd706694	-0.058691576
136	0xbd29994a	-0.041405953
137	0x3d86bb75	0.06578723
138	0xbce0a77e	-0.027423616
139	0xbe00a5bb	-0.12563221
140	0xbdfcc93d	-0.12343071
141	0xbd163679	-0.036673043
142	0xbd1711a6	-0.036882065
143	0xbcb97728	-0.022639826
144	0x3bc288ef	0.005936734
145	0x3d63d066	0.055618666
146	0xbb6e6d51	-0.0036381076
147	0xbc6595af	-0.014012738
148	0x3e34e61b	0.17665903
149	0xbd9d1800	-0.07670593
150	0x3e0e89c8	0.13919747
151	0x3d1d949d	0.038471807
152	0x3cd08de8	0.025458291
153	0x3d317ab1	0.0433299
154	0x3d6b56f8	0.057455987
155	0xbdd5e6a0	-0.10444379
156	0xbdadb6fe	-0.084821686
157	0x3ca73289	0.02040984
158	0xbc9c01d2	-0.019043837
159	0xbdd04c8b	-0.101708494
160	0x3e02c496	0.12770304
161	0x3e20e482	0.15712169
162	0x3d9a85f8	0.07545084
163	0xbd9d52ba	-0.076817945
164	0x3d9c73ab	0.076392494
165	0x3d4a1aeb	0.049342077
166	0x3d2a8f2e	0.041640453
167	0xbdb822a3	-0.089909814
168	0x3d412cbf	0.047161814
169	0x3d306c8c	0.04307227
170	0xbdb2e3b4	-0.08734837
171	0x3d9d73bb	0.076880895
172	0xbe0ce6bb	-0.13759892
173	0xbd95369e	-0.07285808
174	0x3d0eb1eb	0.034837645
175	0xbdb28518	-0.08716792
176	0xbbfb8460	-0.0076756924
177	0x3daf1567	0.08549004
178	0x3c8712ab	0.016488394
179	0x39fca4a3	0.0004818785
180	0x3d2d29df	0.04227626
181	0xbce6d426	-0.028177332
182	0x3bf3abb7	0.0074362415
183	0xbde1087f	-0.109879486
184	0xb92c4040	-0.00016427133
185	0x3d3261d4	0.043550327
186	0xbc87ef73	-0.01659367
187	0x3e01c05f	0.1267104
188	0x3d9c3d67	0.07628899
189	0xbc2bfdd4	-0.010497529
190	0x3d52241c	0.051303968
191	0xbdbc5230	-0.091953635
192	0x3d346bbb	0.044048052
193	0xbe30941b	-0.17243998
194	0xbe08307e	-0.13299748
195	0xbdefffce	-0.11718713
196	0xbd09e837	-0.033668723
197	0xbdcfee6b	-0.101528965
198	0xbe155b2e	-0.14585564
199	0x3b13d6ff	0.0022558568
200	0x3bf85e24	0.007579582
201	0xbdb78807	-0.08961492
202	0xbd29cf52	-0.04145748
203	0xbdfc02b7	-0.12305205
204	0xbbdd3e56	-0.006751816
205	0x3dcf6ff8	0.10128778
206	0xb8c72ad4	-9.497037e-05
207	0xbe06b46b	-0.13154761
208	0xbdd20855	-0.102554955
209	0x3df0ea61	0.11763454
210	0x3d6a5300	0.05720806
211	0xbbfd8a7c	-0.007737456
212	0xbd64a1e4	-0.055818453
213	0x3b8be1f5	0.0042688795
214	0xbe432ff3	-0.1906126
215	0xbde36d04	-0.111047775
216	0xbe0b36a2	-0.1359506
217	0xbe454cb9	-0.19267549
218	0xbd855d92	-0.06511988
219	0xbe3e1eb2	-0.18566397
220	0xbe0ec5a9	-0.13942589
221	0x3b17d540	0.0023167878
222	0xbdb0860c	-0.086193174
223	0xbc780834	-0.0151386745
224	0xbddbaff9	-0.107269235
225	0xbe0a572e	-0.13509819
226	0xbcf04afa	-0.029332627
227	0x3bc3d2c5	0.0059760534
228	0xbe1f3caf	-0.15550493
229	0xbd9d1e78	-0.07671827
230	0x3d12e14a	0.035859384
231	0xbdaf242c	-0.08551821
232	0x3d07ab9b	0.03312264
233	0x3d0c2fa1	0.03422511
234	0xbe06f15f	-0.13178013
235	0x3cd00091	0.025390895
236	0xbd67d224	-0.05659689
237	0x3af81422	0.0018926898
238	0x39d73d96	0.0004105388
239	0xbdb5b60c	-0.08872613
240	0xbe369d26	-0.17833385
241	0x3e0241a5	0.12720354
242	0xbe0b7dad	-0.1362216
243	0xbd8d143e	-0.068886265
244	0x3d6ccb15	0.05781086
245	0xbdf0c648	-0.11756569
246	0xbdac2211	-0.08404935
247	0xbd8089ed	-0.06276307
248	0xbe20483b	-0.15652554
249	0xbdc388f4	-0.09547606
250	0xbdb3de66	-0.087826535
251	0x3d00e913	0.031472277
252	0x3c068fd3	0.008213001
253	0xbddbdfb5	-0.10736028
254	0xbe03b1c6	-0.12860784
255	0xbe267027	-0.1625372
