Competition/TrainAI/model/c50/model_weights_1.pth (torch, 239847 bytes, 10 tensors)

lstm.weight_ih_l0 f4 [256, 34]
00000000: dc1f 3dba b1a2 f2bd 5e45 ff3d 2a78 c03d
00000010: acfc e63c f0bb 46bd d25a aa3d d7cf 983d
00000020: e23d dfbc 7358 c53d 3444 153c f7b9 4ebc
00000030: dcc0 99bb 8d52 cb3d 9aee 893d 49d1 b1bc
00000040: 87c6 4a3e 67c8 97bd 32fc ee3d 4dd4 353e
00000050: 90e1 46be fcbc 333e 33c3 c7bd 41f4 173e
00000060: efcd 8439 ea46 2ebd 868e b1bd f2dd 32be
00000070: a6f1 abbb 944a 12bc 3b4d f73d 7683 d4bd
00000080: 4d79 16bd b693 8e3a 8740 63bd a17c 403c
00000090: 5363 3c3c f29c f53d ea45 ff3c a3fd d13c
000000a0: e95c dabc 4536 6dbd 371c 2abd ad06 803d
000000b0: 129c 043e 2864 da3d ca8b 5abd ce0d 733d
000000c0: b54a f23d dede 1f3e 2f64 25bd bad8 083e
000000d0: a60b ea3c 4e3a 683d a5fb 453d 49ac 4d3d
000000e0: ecc7 e23d fb30 fbbd c696 0e3e 5fec 1abe
000000f0: ae46 94bd 1f59 a4bd cc43 68bd 6e3f cdbb
00000100: 68e2 f4bb 9cf1 1fbc 7215 a9bd 95db d13c
00000110: 1842 be3b c1c0 29be 5d60 47bd 8693 14bd
00000120: 0380 38be 096a cabd dc02 01be 44fd 1bbe
00000130: 2ae0 8bbd ae3b 003d 32f0 1a3e 2dbd 23be
00000140: e813 223e 5668 1e3d 912e 72bd 2212 ba3d
00000150: 4f68 eabd b1cd c03b 7dbf 71bd c198 61bd
00000160: 7489 71bd 06c6 d23c 2d44 0ebe 0a95 913d
00000170: 98e9 073e 8616 133e 6263 8ebc 859d 9b3c
00000180: e528 c7bd ecee 28be 3c9d bbbd ed8f 6c3d
00000190: 926f d13d 43e6 483c fa83 f2bc 08d0 51bd
000001a0: ae90 42bc b60e 613d a962 453e 057a 0c3e
000001b0: 5f0c 64bd e66d 3f3e c3ed 96bc 9c19 193d
000001c0: 2918 0ebe 5f78 b93d 9362 f13d 13bd b93d
000001d0: 53f6 bd3d 446e f63d 2d14 953e 01db e63d
000001e0: f490 823e 9c4c ee3d 6fa9 5d3d fb4a 133e
000001f0: 2626 993d 8baf 133c 372c 4d3e 92d3 e83d
00000200: 4d88 b43c 839e cdbd d414 92bd bb84 713c
00000210: e6c6 ef3d 96aa 233d 503b 453d 563b 80bd
00000220: fb14 3bbe 4191 5cbe ee6d ba3d db09 8fbd
00000230: eaef 20be 73bc 56be b1ba 0a3d 2dec 1a3c
00000240: 2f21 54be 7905 99bd d62d d63c 4a92 0f3e
00000250: 2180 12be ff60 543d 5c7a 95bd 69b1 263e
00000260: 9477 273d 8100 413e ae56 b7bd fb3d 00bd
00000270: f65c 8dbd f815 f8bd 4086 1c3d d61b 92bc
00000280: 323b 1dbd 61e4 20bc d352 f63c 1fee 99bd
00000290: c939 4b3e caf2 afbd 9794 e73c 5293 bc3d
000002a0: d074 ccbc e23d f4bd c076 913d 7f26 c53d
000002b0: 0092 cfbd 0a2e 203c 596e a83e 4078 4e3c
000002c0: b05b abb9 753f ca3d 477c 9cbb afec 053e
000002d0: 8eb2 47bd 1502 3f3c 8d8b 843d 3272 793d
000002e0: f66e f13c 10e3 e9bc 978e 1c3e def2 1bbd
000002f0: 6bf7 fb3d 8313 e33d 2609 1cbe ef54 c13d
00000300: 5301 bc3c ad64 863c 8c41 e63d 0442 e8bd
00000310: 6ba9 42bc 1f4e 1ebe 52a3 02bd 8cbb 3d3d
00000320: 1774 18be 2b0f 043c 3850 e33d 2997 cfbd
00000330: ba67 453d d09c 2bbe 34f9 35be 43c4 2cbe
00000340: aea5 53be 9ac2 4dbe ceb0 d0bd 3423 1c3a
00000350: bc87 06be 73cb a33d 2411 173e ea58 483e
00000360: fabf 34bd 875e 193d 981e 053e b70e 12be
00000370: 9a14 c4bd 3994 dbbd bb9c 35be 1d1a ea3d
00000380: ae70 353e 6f3e 4f3b 4044 993d d922 1f3e
00000390: bc73 42be 9d87 553d 1593 d4bd a960 e73d
000003a0: 7108 573c 07c3 db3c 3489 d33c cc2f a43d
000003b0: ea56 9ebd 1e7e e6bd 0526 a33d ffbd 383d
000003c0: b09d 7b3d 0cc4 dbbb 52bd 3b3e 41b2 043e
000003d0: a872 fcbd 0ba0 dd3b 65af 0c3e a05d 833c
000003e0: 6835 343c 0612 053d 6bd4 c6bd f8d2 cebd
000003f0: a7f9 e3bd b0fb e0bc 0e16 353e 6909 503d
-0.0007214525 -0.11847437 0.124644026 0.093979195 0.028196655 -0.048519075 0.08318104 0.07461517
-0.027251188 0.09636011 0.009110499 -0.01261758 -0.00469218 0.09927855 0.06734963 -0.02170624
0.19802295 -0.074112706 0.11669196 0.17756768 -0.19421983 0.1755256 -0.09754028 0.14839269
0.00025330434 -0.042548098 -0.08669762 -0.17467478 -0.0052473126 -0.008928914 0.120752774 -0.10376637
-0.036736775 0.0010877762 -0.05548146 0.011748464 0.01149829 0.119928256 0.031161267 0.025633639
-0.026655631 -0.057913084 -0.041530814 0.06251273 0.12950161 0.106636345 -0.05335597 0.059339337
0.118306555 0.15612361 -0.040378746 0.13363925 0.028570008 0.05669623 0.04833569 0.050213132
0.11073288 -0.12265202 0.13924703 -0.15129231 -0.072400436 -0.08024811 -0.05670528 -0.006263665
-0.007473279 -0.009762194 -0.082560435 0.0256174 0.005806219 -0.16577436 -0.048675884 -0.0362735
-0.18017583 -0.09883506 -0.12598747 -0.15233332 -0.06829865 0.031306915 0.1513069 -0.15990134
0.15827906 0.03867372 -0.05912644 0.0908549 -0.114456765 0.0058838953 -0.059020508 -0.055077318
-0.058968976 0.02572919 -0.13893194 0.07108505 0.13272703 0.14364061 -0.017381374 0.01899601
-0.09724597 -0.16497391 -0.091608495 0.057754446 0.102263585 0.01226193 -0.029603947 -0.051223785
-0.011875315 0.05494567 0.19275917 0.13718422 -0.05567586 0.18694267 -0.01842392 0.03737794
-0.13876404 0.09056162 0.1178638 0.09069266 0.09275498 0.1203275 0.29116955 0.112722404
0.25501215 0.11635706 0.054116663 0.14384072 0.07477979 0.009014021 0.20036398 0.11368479
0.02203765 -0.10039999 -0.07132879 0.014741118 0.11707859 0.039957605 0.048152268 -0.062613174
-0.18269722 -0.21539785 0.09102999 -0.06984302 -0.1571652 -0.20970325 0.03386945 0.009455723
-0.20715784 -0.07471747 0.026144903 0.14020649 -0.1430669 0.051850315 -0.07298729 0.16278614
0.040885523 0.18847848 -0.0895208 -0.03130911 -0.069024965 -0.12113565 0.03821397 -0.017835539
-0.03838653 -0.009820075 0.03006879 -0.07516121 0.19846262 -0.0859123 0.028269095 0.092077866
-0.024958044 -0.11925866 0.07102728 0.09626483 -0.10135269 0.009776602 0.3289669 0.012601912
-0.00032683974 0.09875385 -0.004775557 0.13078569 -0.048754267 0.011658211 0.0647193 0.06089992
0.029471856 -0.028550655 0.15288769 -0.038073413 0.123030506 0.11087706 -0.15237865 0.09440028
0.02294985 0.016405428 0.11242971 -0.113407165 -0.011881213 -0.15459488 -0.031894036 0.046321437
-0.14888035 0.008060257 0.11099285 -0.101362534 0.048194624 -0.16759038 -0.17770845 -0.16871743
-0.2066867 -0.20093766 -0.10189973 0.00059561734 -0.13137716 0.07997789 0.14752632 0.19565168
-0.044128396 0.037443664 0.12999952 -0.14263426 -0.09574242 -0.107216306 -0.17735569 0.11430762
0.17718765 0.0031622907 0.07483721 0.15540637 -0.18989462 0.052131284 -0.10379616 0.11297733
0.013124571 0.026826395 0.02582226 0.08016929 -0.07731421 -0.11254524 0.07966236 0.04510307
0.06142968 -0.00670672 0.18333939 0.12958623 -0.123265564 0.0067634634 0.13738783 0.016035855
0.010999061 0.03248789 -0.09708484 -0.10098833 -0.11131602 -0.027463764 0.17684194 0.050790224

lstm.weight_hh_l0 f4 [256, 64]
00000000: f4c9 5fbc a642 33bd 5b11 0fbc d42e 51bd
00000010: 1dfa 7bbe 813c c0bd ce6f 113e 01c7 5bbe
00000020: 4dbc fabd 2cef e03d 1c68 083d ce15 2a3e
00000030: 4a15 c7bd d138 303e 2e4d 843d 357b 943b
00000040: f57e 0d3d eff7 47be cd71 21be c315 86be
00000050: 0e84 813d 6f1e c9bd 37c5 a03c 122b 48bd
00000060: 2212 dc3d 782d 14be fa04 98bd be0c 7abd
00000070: 6d4c 8b3d 40c9 3e3d f890 b6bc 4474 24bc
00000080: ff34 28be 8a73 0a3e 9cb2 8abd ec4d 0fbd
00000090: a7b6 7c3d 2592 923d ad42 043e 1b51 7fbd
000000a0: 94d6 123e 1a79 303e 2896 bcbc 5316 aabd
000000b0: e312 ce3d 1975 88bd 5c7a 03be 9f03 20be
000000c0: 65ca 023d 8763 c63d f42e 433d 0ff7 b8bd
000000d0: 45b0 6b3d 7574 17be 306f 20be 87b9 aabc
000000e0: 77dc b6bd 6f81 74bd 4e46 f43d 9d89 273e
000000f0: 1442 e8bd ffb9 153d 7db7 7bbc 034a 403c
00000100: 19ed 4f3d 403b a9bb e815 84bc 8978 e9bc
00000110: 8382 4cbd cab2 743d ee3f b9bc 13a5 89bd
00000120: 3815 71bc 4468 14be 6e4a 17be f651 8d3a
00000130: 1f5f e3bd ad6c 0f3e 0770 073e 61f7 7b3d
00000140: 6a8a 023c a7eb 863d 77ee ef3d 199b 56bd
00000150: 5180 023d 928a 22be df36 8bbd 5c43 5b3e
00000160: 9561 3dbc 4a6a 01be b7e9 f0bb 837f e6bb
00000170: eb96 6fbd 4873 bc3d 0b8d b1bc 8745 92bd
00000180: f5d8 113e eb8b 673d 7d51 c2bb f28a 29be
00000190: b73e 6abe baad e53c d15f 6bbd a59f 4c3d
000001a0: 3999 0abd 9383 edbd 4092 6c3d 012e de3d
000001b0: 89e8 7f3d 7e84 bbbd 9c18 00be 7587 04be
000001c0: 2f1a 6b3d d7a9 5d3c 230a 193e dd5d b4bd
000001d0: f19b 2f3d 3a98 2fbe c425 663e f6ef 043e
000001e0: 2425 293d 5a2d cc3d 1553 0b3e 0263 b93d
000001f0: 711f 323e 066c cfbd b58f d2bd 11ee 083e
00000200: 2757 27be 8ac0 213e 5ab1 943d b80e d1bd
00000210: dc54 993d 0041 93bd ec77 4d3c 5635 ef3c
00000220: 7ee8 b73d 7485 a63d 9037 063d 867c c4bd
00000230: 0649 063d a1b8 a7bd 2ce3 f13c a430 bc3c
00000240: 3ea4 4fbd 8877 ddbd 66ab 3cbd c998 6d3d
00000250: d69e 0b3e 9aae 8dbc 974a 793d 75aa a93d
00000260: 6962 0dbe c7fd 07bd e697 083c fe1b 453c
00000270: 17fa 33bd ff9f febd 473f babc 64c5 1fbd
00000280: 1172 ffbd 9aac 173d f6a0 a63d 6376 323d
00000290: f4cb a13d 905a 7d3b d228 b9bb 5ab7 bd3d
000002a0: f2bb 1bbe 6329 febb b85d d0bd d0b6 523d
000002b0: 3bcf 48be 2504 13bd 1e15 873d 9659 113e
000002c0: 6431 ea3d c080 5f3d ecb0 a0bd 446f 54bd
000002d0: d122 4bbd e89d 6d3d 665f 13be 9e61 f73d
000002e0: 1243 d33d 6e5c abbd c5b3 f53d 1edf 09be
000002f0: 356d 28be 8c45 a53d f1d1 3b3e 617c 07bd
00000300: 05b1 623c f6d3 ec3c b75c 633e 14cb 58bc
00000310: 8768 833c 39e4 66bd 4ca7 92bd 85fb b9bd
00000320: 7313 203e b9ca 2a3e a001 01be b919 143d
00000330: 1b83 ffbd 1885 d3bd 804d 923d 6bdc b03d
00000340: 4474 cbbd 1192 1bbe e37c e6bd fb04 0bbc
00000350: bfd7 f73c 75e7 a5bc 4095 393d 701d d0bd
00000360: c1a1 cf3d 4e7d ffbc c52f 02be 30c1 e13d
00000370: 3f3e 743d aa57 16bd d713 cb3c 8c3d 63bc
00000380: ffc2 a43d 6946 4d3d 5da2 6abe 8f42 ffbd
00000390: 1acf 9a3d a867 af3d 5887 963d 6807 9bbd
000003a0: a67a 86bd a10f a3bd 5eb5 093e b038 103d
000003b0: 84e7 4b3d 4395 debd 9328 9a3c d6d2 eebd
000003c0: f055 f3bd 52fc ccbd f886 363d 4192 053c
000003d0: 50c6 b9bd e8fe 73bd 3892 703c d9ce 37bd
000003e0: c832 16bd db23 28bd 747e 453d c957 7dbd
000003f0: 7984 c1bc 9f14 833d af01 3c3e 7ff4 183d
-0.013658989 -0.043764733 -0.008732165 -0.05107005 -0.2460713 -0.0938654 0.14202806 -0.21462633
-0.12242947 0.109831184 0.03330241 0.1660988 -0.097208574 0.17209174 0.06460033 0.004531289
0.034544904 -0.19528173 -0.15766068 -0.26188478 0.063240156 -0.09820258 0.01962529 -0.0488692
0.10745646 -0.1447047 -0.07422824 -0.06104731 0.068016864 0.046578646 -0.022285923 -0.0100374855
-0.16426466 0.13520637 -0.06772348 -0.03498642 0.06169763 0.07156781 0.1291606 -0.062333208
0.14339668 0.17233697 -0.023020819 -0.08305039 0.10062196 -0.066629596 -0.12839645 -0.15626381
0.0319313 0.09686952 0.0476522 -0.09031498 0.05754115 -0.14790519 -0.15667415 -0.02084042
-0.08928769 -0.05969375 0.11927472 0.16361089 -0.113407284 0.036554333 -0.015363571 0.011736396
0.050763223 -0.005164534 -0.016123727 -0.028499858 -0.049929153 0.05974082 -0.022613492 -0.067209385
-0.014714532 -0.14492899 -0.14774486 0.0010781873 -0.11102127 0.140063 0.13226329 0.061515216
0.007967571 0.06587916 0.117154054 -0.052394006 0.031860653 -0.15873173 -0.06797575 0.21412414
-0.01155891 -0.12638202 -0.0073520797 -0.0070342436 -0.058493536 0.09201676 -0.0216737 -0.071421675
0.14242919 0.05652992 -0.0059301243 -0.1655691 -0.22875486 0.02803694 -0.057464425 0.049956936
-0.03383753 -0.115973614 0.057756662 0.10848618 0.062477622 -0.0915613 -0.12509388 -0.12942298
0.057398017 0.0135292625 0.14945273 -0.088069655 0.042873327 -0.17147914 0.22475344 0.12982163
0.041295186 0.099695876 0.13605912 0.09052087 0.17394806 -0.10128026 -0.10281316 0.13372065
-0.1634184 0.15796104 0.072603896 -0.102078855 0.07486889 -0.07190132 0.012540799 0.029200237
0.08979891 0.08130923 0.032767832 -0.095940635 0.032784484 -0.08189512 0.02952727 0.022972412
-0.050693743 -0.108138144 -0.046061896 0.058007035 0.1363481 -0.01729517 0.06086215 0.08284465
-0.13807072 -0.033201005 0.008336997 0.0120306 -0.043939676 -0.124328606 -0.022735251 -0.039006606
-0.12472928 0.03702984 0.081361696 0.043569934 0.07900229 0.0038658716 -0.005650618 0.09263487
-0.15208414 -0.0077563985 -0.101741254 0.051443875 -0.19610302 -0.035892624 0.06595825 0.1419433
0.11435202 0.054566145 -0.07846245 -0.051863924 -0.04959375 0.05801192 -0.1439186 0.12079166
0.10315527 -0.08367239 0.11997179 -0.13464019 -0.16447909 0.08069906 0.18341805 -0.0330776
0.01383615 0.028909665 0.22203337 -0.013232011 0.016041053 -0.056369994 -0.071608156 -0.09081177
0.1563242 0.16678895 -0.12598276 0.036157344 -0.12476178 -0.1032812 0.07143688 0.086357914
-0.09934285 -0.15192439 -0.11254289 -0.008485074 0.030254243 -0.020251969 0.04530835 -0.10161865
0.10138274 -0.03118768 -0.12713535 0.11023176 0.059629675 -0.036704697 0.024789734 -0.013869654
0.08045005 0.050115976 -0.22913499 -0.12463867 0.07559033 0.08564693 0.073500335 -0.07569772
-0.06566362 -0.07961965 0.13448092 0.03521031 0.049781337 -0.10868313 0.018818175 -0.116613075
-0.11881626 -0.10009064 0.04456231 0.008152545 -0.09071028 -0.05956927 0.014683299 -0.044875
-0.036669523 -0.04104982 0.0482163 -0.061851297 -0.023622738 0.064004175 0.18360017 0.037342545

lstm.bias_ih_l0 f4 [256]
00000000: 69cb adbc 9aa4 bc3d f8b1 79bc b588 9ebd
00000010: 56b8 09be 953a d3bd 9f4a 01be b09d 9c3a
00000020: 8c2c 293d 51bd ebbd e84c 4a3b 9ba4 08be
00000030: d1dd 723d e935 86be 6972 4cbe f65e 4e3e
00000040: 7fb1 25be a6a5 c23d cfb7 f23d c462 143d
00000050: 0a6a 5a3d 62cc 983c d3d1 86bd 44e3 fc3d
00000060: d800 f7bd ae85 3f3d 1430 543d 69c2 993b
00000070: ac9d c73c efec f8bb 874b 32be db15 c9bd
00000080: ea36 d4bd 16be 40bd 13fc 343e 1948 40bd
00000090: e952 2fbd 552d 2fbd f13e cb3d 44d5 a63d
000000a0: 4193 e6bc 9b67 f7bd c0bf cf3c 8cd3 45bd
000000b0: e378 11be 7364 343d 7c7f b1bc 697f 1f3e
000000c0: 74ac d8bd 50c1 0e3d b482 6f3c 8279 93bd
000000d0: 4076 5b3d 2e66 213a 118e 933e 1c6f f4bd
000000e0: 19c1 1cbe 3632 aa3d 3032 74bd fed8 0d3d
000000f0: 840d 883e b23c 12be ce52 cd3d 720e fc3d
00000100: 7eac 4cbe dcb2 8f39 b150 e53d 784d 0f3c
00000110: bce0 863d f170 d23d bf47 4abe 4d91 86bc
00000120: b096 9bbc 0ea2 b43d 9da4 e3bd 9dfb 843d
00000130: 363e 4fbe 15e9 68be d50b 00be 70ea 0bbe
00000140: ee80 9d3b 7351 10bb c7e6 4d3c 30c4 913d
00000150: f51d 13bd cf37 40be 49de 163e 5bb0 3cbe
00000160: 424e debd 7a9a 553d 9403 0ebd 42d9 dbbd
00000170: 92a6 d43d c889 683d 084a 123d 47b9 0d3d
00000180: 26ee ceb9 fcb9 0cbd 603f f6bc f8b9 503d
00000190: fd46 193d 817d c2bd 1e32 8cbd 7010 89bc
000001a0: 502c 48bd d7c0 00bd 09a6 7ebd 9316 39be
000001b0: 6b74 76bd 0d4b 003d 1c4b b73d 5705 2ebd
000001c0: a6ad 11be 7000 903d 8f21 ec3d dd0a 2bbd
000001d0: 6343 ba3b 9021 33bb 9119 cf3d 5c7b 4ebe
000001e0: dfcd af3d 39e2 8a3d ef59 0f3e bc43 72bd
000001f0: 81f3 143e c003 2cbe 9623 12bd 08ed 4fbd
00000200: 1110 acbd 1204 9f3d 8e2f 78bc 0def df3d
00000210: 313f 17be 4a9b 8cbd 7461 c73c 7ca7 f53d
00000220: cbdd 52bd fb6d e23d 3423 92bb 6a3e 1dbd
00000230: 1b0f e43d ef69 89bd c8cd 69bb cf90 1e3d
00000240: 00dd ebbb e8ef 1d3d 18f8 05be a59a 98bd
00000250: 9a01 febd e4f1 8f3c 97df dcbd 0381 a0bc
00000260: ac4f 063e cbd9 29bd a74d e93d a8e7 9cbd
00000270: e065 ccbb f7ad 9bbc 861c 32bc 80c9 b53d
00000280: bbe9 f2bb 2599 fb3d 6619 c03c 8df1 c13c
00000290: ed2b 033e e044 913d 4d95 9abc 2600 5cbd
000002a0: 13a1 cd3d 2c97 bb3d b2f8 85bb 9277 ebbd
000002b0: b9d9 84bc 7103 d8bd 143b 113e 713d 103e
000002c0: d789 883d 1216 babd d173 d2bd 2419 983d
000002d0: af2e 8fbd 789b e8b9 c736 07be ff3c 2bbe
000002e0: 9125 123d fe86 333d c774 3b3e c983 01be
000002f0: cfa9 4bbe 92ec 273e 59d2 30bd 100d 04bd
00000300: 33b3 30bd 06e2 103b c576 1bbe e3a4 a43d
00000310: 4672 06be 3f22 993d 0974 7cbd c31a 3a3d
00000320: 8084 463d 0619 863d 3535 5dbe 5232 d5bc
00000330: 6766 2fbe ca83 b9bb 1b48 e2bd 20c0 193d
00000340: 62ad 74be da2d 2d3d 620d a53d 003c c8bd
00000350: 0e84 2ebe 8838 1abe 1d45 d03d 30cc cbbd
00000360: 4523 1cbe 4c1b 2b3d 3b64 66bd 3b4c e4bd
00000370: c6f2 c83c a4b8 b0bd 6383 43bd 75b6 4abd
00000380: e8f4 7ebd e368 8b3d 1db4 babd c3de 4cbd
00000390: 4505 90bd bcc0 bbbd 410a cbbd 7d6a a43d
000003a0: 8e46 9c3d d5fe 383e 0c50 32be 981c 8fbd
000003b0: 7c61 113c 0737 983d 2fda 0cbe 077a b3bd
000003c0: 4af4 fabc f668 a7bd 05cb 29bd e863 10be
000003d0: 7795 de3d dbd2 80bd 030f a2bc 0c40 7bbe
000003e0: 64fe 57bd 1d02 b8bd dfb3 633e c9ae da3d
000003f0: faa8 213e e9e6 ea3d b865 2d3d bc06 323d
-0.021215158 0.09211083 -0.015240185 -0.077409185 -0.13449225 -0.10313908 -0.12626122 0.001194885
0.04130225 -0.115107186 0.0030868594 -0.13344042 0.05929357 -0.26213005 -0.19965519 0.20153412
-0.1618099 0.09504251 0.11851465 0.036227003 0.053323783 0.018652145 -0.065829895 0.12348035
-0.12060708 0.046758346 0.051803663 0.004692365 0.024367176 -0.007596604 -0.17411624 -0.09818622
-0.103620365 -0.04705628 0.17674284 -0.046943758 -0.04280368 -0.04276784 0.099241145 0.08146146
-0.028146388 -0.12080308 0.025359988 -0.04829745 -0.14206271 0.04404111 -0.021667235 0.15575947
-0.10579768 0.034852326 0.014618564 -0.0720091 0.05357957 0.00061568886 0.28819326 -0.11935255
-0.15308036 0.08310358 -0.059618175 0.034630768 0.26572812 -0.14280966 0.10025559 0.12307443
-0.19987676 0.00027408346 0.11197031 0.008746497 0.065858334 0.10275448 -0.19753931 -0.016426707
-0.018992752 0.08819972 -0.11115382 0.06493304 -0.20238575 -0.22745164 -0.12504514 -0.1366365
0.0048066294 -0.0022021204 0.012567229 0.07117498 -0.03591724 -0.1877129 0.14733233 -0.1842665
-0.1085477 0.052149273 -0.03467138 -0.10734798 0.10383333 0.056772023 0.035715133 0.034600522
-0.00039468816 -0.034357056 -0.030059516 0.050958604 0.037421215 -0.09496594 -0.068454966 -0.01673147
-0.048870385 -0.031433906 -0.062170062 -0.18075018 -0.06016962 0.031321574 0.08949873 -0.04248556
-0.14226398 0.070313334 0.11529838 -0.041758407 0.0056843027 -0.0027333237 0.10112298 -0.20164245
0.08584189 0.0678143 0.1399915 -0.059146628 0.14546014 -0.16798306 -0.03567847 -0.05076316
-0.08401502 0.07764448 -0.015148057 0.10934267 -0.147702 -0.068655565 0.024338461 0.11994836
-0.05148105 0.11056133 -0.004459763 -0.0383896 0.11135694 -0.06709658 -0.0035675634 0.03871232
-0.007197976 0.03855887 -0.13082922 -0.07451371 -0.12402649 0.017571397 -0.10784834 -0.019592768
0.1311633 -0.04146747 0.11391764 -0.076613724 -0.0062377304 -0.019003851 -0.010871058 0.08876324
-0.0074131167 0.122850694 0.02344961 0.02367475 0.12809725 0.07093215 -0.01887002 -0.05371108
0.10040488 0.09159693 -0.0040884847 -0.114974156 -0.0162171 -0.105475314 0.14182693 0.14085938
0.06666916 -0.09086241 -0.102759965 0.0742667 -0.06991326 -0.00044366322 -0.1320449 -0.16722487
0.035680357 0.04382991 0.18306266 -0.12647928 -0.19888996 0.16398838 -0.043169353 -0.03223902
-0.043139648 0.0022107377 -0.15182026 0.08039262 -0.1312953 0.07477235 -0.061634097 0.04543568
0.048466206 0.065477416 -0.21602328 -0.026024971 -0.17128907 -0.0056614624 -0.11048909 0.03753674
-0.23894265 0.042280056 0.08059193 -0.09777069 -0.17042562 -0.15060627 0.10169432 -0.09951055
-0.1524783 0.04177408 -0.05624793 -0.11147352 0.024529826 -0.086289674 -0.047732722 -0.04949041
-0.06224528 0.06807115 -0.09116385 -0.05001713 -0.07032255 -0.091676205 -0.09914065 0.080281235
0.07630645 0.1806596 -0.17413348 -0.06987876 0.00887334 0.07432371 -0.13755105 -0.08763509
-0.030634064 -0.081743166 -0.04145338 -0.14100611 0.10868352 -0.062902175 -0.019782549 -0.2453615
-0.05273284 -0.08984778 0.22236584 0.10677869 0.15787116 0.11469824 0.042333335 0.043463454

lstm.bias_hh_l0 f4 [256]
00000000: b5a9 af3d 334d a5bd 6bb9 6f3d 5c53 fdbd
00000010: de78 26be 4fa3 17be 6981 03bd e290 e7bd
00000020: 3769 f5bc a172 ad3d 3674 f63d e163 72be
00000030: 60ac 9b3c 6da5 67be cf96 e2bd 26b0 203e
00000040: 3bc5 69bd d73c 0a3e 0c9d cebd 755c 5d3e
00000050: e979 16be c622 45be d0eb bb3d 5594 55bd
00000060: 9495 ecbd 305b eb3c 6a34 373d cdbc 01be
00000070: 5092 64bd 84e7 a5bc a504 ffbd 242e 94bd
00000080: e85d eabd fd25 2bbe c6d4 003e 9f91 97bc
00000090: 359d 9abc fcee 93bd e901 40bd febe a13d
000000a0: a156 ae3d ad20 11be 84da f0bd 77d8 173c
000000b0: 58b2 1cbe 5e62 13be 5c02 17be 1eb5 8fbc
000000c0: 6772 3fbe 92ab 09be 3425 88bd 17a9 b2bc
000000d0: d93d cc3d f99e 9dbd e1c5 c53d 2faf 49bd
000000e0: adbd 77be ce68 82bd ad95 083e b79d 7e3c
000000f0: 2f53 5a3e 8293 0dbe b937 9c3d 1cdd 073e
00000100: 8286 13be 7ade 1fbe 81b1 8abd e829 083c
00000110: 4a28 b7bd 939d d6bd caf7 9cbd 6753 89bd
00000120: 9b57 1a3d ea42 19be 872c bf3d 78d3 e43c
00000130: 1baf b3bd ceb5 d2bd d7f1 aa3c 4673 143d
00000140: af03 813b 9de0 edbd 08ca 90bd b8c1 babb
00000150: 1597 47be ad73 1bbd 58dd 95bc 056d 82bd
00000160: a72e 31be f0d9 17be 360d 543d 8d84 aabd
00000170: a0ee db3d b07a 7c3d aba3 813c 8225 12be
00000180: 89a0 b8bd bcd6 d53c f093 de3d 4152 14be
00000190: 947a 743d 2629 873c 9f8f f23c cfad ab3c
000001a0: 6952 f93a 74ce 713d bbe6 01be c01e 03bd
000001b0: 30fd afbd 6696 b93c 569b 18be 2d69 0cbc
000001c0: 5c00 c43c 6ca3 48bc f8e4 0ebd 4c26 f2bd
000001d0: c868 fc3d 2573 25ba 6526 0c3e 9f5a 6dbd
000001e0: 0352 cf3a 9833 223d 9cb5 273b 1080 1f3e
000001f0: 8ac2 e03d 6bed 83bd 9f85 88bb 9529 46be
00000200: 9fc3 a0bd fb38 113e ce0e 963d fd4c 1d3e
00000210: 1872 c8bd dfb8 9c3c 8e93 debd 5592 1c3e
00000220: 7c0d 323d e59c c43d 4cb0 6dbd 1101 64bc
00000230: 60a1 413c 09fa 8cbd 3bb3 3dbd 9dde 83bc
00000240: 3bb2 24bd f9b0 5e3d e67c 813d 33cb 1e3e
00000250: 80d7 8bbc fba9 2f3d 1592 073d b987 19be
00000260: 0466 013d 24c8 bf3d fd62 47bd 4ef9 39be
00000270: 9ad0 6e3d 436d eabd 5797 c33d 03ad adbc
00000280: 8d7c 40bd f360 2e3e bfd0 cdbc 61be d5bd
00000290: 3c88 433d c062 10bc cb60 e7bd ea77 eabc
000002a0: 22ee 03be 2c3e d0bc 84cb fa3d f16b 4a3c
000002b0: f159 dabd b9e4 13bc b99c 303d da34 233e
000002c0: d27c 42bd d1f4 193d 2b7f f33d 9030 bd3d
000002d0: 7c3a e03b cd06 98bd 7e5b 1dbe bd61 4cbe
000002e0: 99c8 673d f60f 783d 7989 5b3c d62f 3bbd
000002f0: 3bfd 10bd 9e88 293e 3d9b 3bbd 2aad 14be
00000300: 3105 0d3c 5b6b 0cbd 593f bdbd 318c 99bd
00000310: 54af 92bc 1dd8 773d ba61 06be c3eb 35bc
00000320: 5148 92bd 6051 7abd fcd6 d8bd 7a10 ae3d
00000330: d03b 25be c77f 723c 79bc 9fbd 562d dfbd
00000340: 621b 53be 90bd 563e 852f bf3c 1f06 623d
00000350: 7a07 18bd 02f6 50be 7814 053e 65b2 1dbe
00000360: c3b5 013d acc9 b23a 5a55 8b3d e6a8 693d
00000370: 444c 34bd ee63 7f3d c9d8 b3bd f131 16bc
00000380: e9cb 06be 5be5 243d b8cb 8bbc e870 383c
00000390: 1335 ccbd 2eb6 a03d fb83 a43c f0b3 c7bd
000003a0: d7e3 04be 32f9 b93d 1060 20be b58a ecbc
000003b0: 2d1f 1cbd cbf5 c73d e3ad a1bd b670 bbbc
000003c0: a401 6f3c d20d b63d dcb9 01bd d383 813d
000003d0: de53 fbbd b7a3 0fbe 9034 003e 622f adbd
000003e0: 9aec 313e 99fd c33d 8b7a cd3d e04c 9e3c
000003f0: 0f10 f83d 52eb 8b3e 7740 a33d da94 193d
0.08577291 -0.08071365 0.058526438 -0.12369415 -0.16257045 -0.14808391 -0.032105837 -0.11306931
-0.029957397 0.08469129 0.12033884 -0.23670913 0.019003093 -0.22621699 -0.11063921 0.15692195
-0.05707286 0.13499771 -0.10088548 0.21617301 -0.14694943 -0.19251546 0.09175837 -0.052143414
-0.11551967 0.028730005 0.04472772 -0.12669678 -0.055803597 -0.020251997 -0.12452058 -0.07235363
-0.114436924 -0.1671371 0.12581167 -0.018502055 -0.01887379 -0.07223317 -0.04687682 0.07897757
0.08512617 -0.14172621 -0.117604285 0.009267918 -0.15302408 -0.14392993 -0.14746994 -0.017542418
-0.18695985 -0.13444355 -0.06647721 -0.021809144 0.09972734 -0.07696337 0.09656883 -0.049239334
-0.2419345 -0.06367646 0.13338347 0.015540532 0.21320795 -0.13825801 0.07627816 0.1326794
-0.1440678 -0.15612212 -0.067721374 0.0083107725 -0.089432314 -0.10479274 -0.076644495 -0.06705361
0.037681203 -0.14966932 0.09334665 0.027932867 -0.08773633 -0.10288583 0.020867271 0.036242746
0.0039372067 -0.11615107 -0.070697844 -0.0056993626 -0.19491227 -0.037952114 -0.018294021 -0.0636845
-0.17302953 -0.1482923 0.05177041 -0.08326063 0.107388735 0.06164044 0.015825113 -0.1427212
-0.09014995 0.02610337 0.108680606 -0.14484502 0.059687212 0.016499113 0.0296095 0.020956902
0.0019021753 0.05903478 -0.12685673 -0.032011747 -0.085932136 0.022654723 -0.14903006 -0.008569998
0.023925953 -0.012245994 -0.03488633 -0.11823711 0.12324673 -0.00063114084 0.13686521 -0.05794775
0.0015817288 0.039599985 0.0025590425 0.15576196 0.109746054 -0.06441768 -0.0041663195 -0.193518
-0.07849812 0.14181893 0.073270425 0.153614 -0.09787387 0.019131122 -0.108679876 0.15290196
0.04346989 0.09600238 -0.058029458 -0.01391627 0.01181826 -0.06883628 -0.046313506 -0.016097361
-0.040209036 0.054367993 0.063226506 0.15507202 -0.017070532 0.042886715 0.0330983 -0.1499318
0.03159143 0.09364346 -0.048678387 -0.18161508 0.058304407 -0.11446621 0.0955035 -0.021200662
-0.04699378 0.1702917 -0.025123952 -0.104367025 0.047737345 -0.008812606 -0.11297759 -0.028621633
-0.12883809 -0.02542027 0.12245849 0.012354837 -0.10661686 -0.0090267 0.043118212 0.1593813
-0.04748232 0.03758699 0.1188949 0.09237778 0.0068429094 -0.07423172 -0.15366933 -0.19959159
0.05658779 0.060562097 0.013399475 -0.045699917 -0.03539775 0.16556022 -0.045802344 -0.14519182
0.008607195 -0.03428207 -0.09240598 -0.074974425 -0.017905869 0.060508836 -0.13123217 -0.011103573
-0.071426995 -0.06111276 -0.1058788 0.084992364 -0.16136098 0.014800972 -0.0779962 -0.10897319
-0.20615914 0.2097075 0.023338089 0.05518162 -0.037116505 -0.20406345 0.1299609 -0.15400083
0.031667482 0.0013640425 0.06803389 0.05704584 -0.044018045 0.06235116 -0.08781583 -0.00916718
-0.13163723 0.040257793 -0.017064914 0.011257388 -0.099710606 0.07847248 0.020082464 -0.09751117
-0.12977539 0.09080733 -0.15661645 -0.028874734 -0.03811567 0.09763678 -0.078944944 -0.022880893
0.0145877935 0.08889355 -0.03167139 0.063239716 -0.12271856 -0.14027296 0.12520051 -0.08456303
0.17375413 0.09569854 0.10033139 0.019323766 0.12112438 0.27327973 0.0797128 0.03749547

lstm.weight_ih_l1 f4 [256, 64]
00000000: d15f a139 d0d9 663d c3f2 d7bd 9d8c 2cbe
00000010: c891 973e 1028 21bd 95ad a93a 3972 8dbc
00000020: 32ec 393b 2d1d a43c dea2 fdbc 7931 373c
00000030: 50b3 01be 78a2 143d a500 97bc 131f c43b
00000040: 4035 0abe 55dd 233e 644a 1fbd d454 9bbe
00000050: c591 fdbd f79d cdbd 4ea3 35be b4d1 483e
00000060: e1ff 1f3e cb19 1abd 6508 30be 5e96 123c
00000070: 69e3 613d 4207 fa3d 95ea 62bd 3a45 20bd
00000080: a12f c03d 00c1 e73d 936c 373e 28d7 57be
00000090: ed58 0cbd b8b7 80bd c050 35bd a306 2cbe
000000a0: 5b0f 313e c463 37be b1a4 aabd 7d19 15bd
000000b0: 2afe 9bbd c8ef bebc a165 ab3d 692d 5e3d
000000c0: 16f4 1b3e 6711 a23d cc76 bd3d 0fbc 39be
000000d0: d0b0 f23c 5310 b73c 812b 103e ad60 033d
000000e0: 6042 ba3b cff3 c83c 1bd8 263c 9361 d23d
000000f0: 68b6 343e 29aa 5d3d 2fa9 15be 09d3 09be
00000100: b022 013e 312c cdbd 83f9 0abe a739 e6bd
00000110: f90a 293c adc4 33be bcda 3f3d bb5e 1fbe
00000120: 8ebb 903c c613 813d b2d2 26be c009 ba3d
00000130: 173c 27bd 59a0 733c 1348 35be 7253 2c3c
00000140: ca69 2e3c 1228 c93c 8a08 053e 06ca a63e
00000150: 4582 3f3c e95e 08bd 60df 32be 9f45 49be
00000160: 2301 dabc 6b66 5fbd 0dc4 4abe c446 4cbe
00000170: ca72 4bbd 2d8b 4a3e 0c98 363c bd3d f23d
00000180: dd2f b5bd 9d38 97bd b267 8e3e 5cfe 0f3e
00000190: d163 efbd cb78 743d af55 143e 44a6 53be
000001a0: 26b7 e13d 2d91 ee3d 46aa 733d 841e 223e
000001b0: 41ed 923d f02a 1bbe 43c2 0b3e ecc7 1bbd
000001c0: 2b98 da3d 2a43 8c3c 3369 4a3e 801f a93c
000001d0: c8f3 81bd 88a9 c7bd dee4 1f3e 966f 4cbe
000001e0: 01d9 17be 340c 48be f840 a0bc e122 7f3c
000001f0: 96c8 553e 5330 823d 7f13 27be ecb1 16be
00000200: 48c7 a03d 3b0f f5bc 8f15 39bc 195e 00be
00000210: de68 c63d 1632 1dbd 9f3f 67be f901 7dbd
00000220: 248b 21be 133f 7bbc daa5 14be fd52 1fbe
00000230: cb98 8ebc 2f3a 043e fb64 cebd 4a62 14be
00000240: 03bf f63d 65e3 99bb bf4f 7e3d e775 01bf
00000250: 9e3b f2bd faa2 db3b 1c75 2ebe 611d 2b3e
00000260: d425 be3b 9a23 25bd 7abf 533c 1c3d 2c3e
00000270: 3c9a 9bbd 3731 053e c532 373d b4da 443d
00000280: 743f adbc 9a2d 22bd 161c 4a3e 3604 e03d
00000290: 25a8 83be 5f72 2e3e 233d 4f3d d7cf 0abd
000002a0: fdfa 76bc bfac 01be b73c 6abc 50df 34be
000002b0: 3a9d 733e de1d f2bd 66d7 16be 145c 653b
000002c0: 7602 7b3d c739 283e 9dbe 763d 41a3 213e
000002d0: d443 0fbe 42e2 d23d 6762 fdbd ebf0 b33b
000002e0: df0d 043e 8ef2 4f3d 251b afbd a9bd 473e
000002f0: b062 983d 5984 94be 097c abbc bf04 b4bd
00000300: b692 803d 94b4 283e 7a0a 4bbe fc75 08be
00000310: 6423 0ebe 356d 0e3c fff9 7cbd 73b5 6fbc
00000320: c64f cbbc 8e34 443d 3aee 0ebe 71f7 f3bd
00000330: 1bef 003c 6ac1 5a3d a84f 083d 6d3b 81bc
00000340: 2874 dcbd 0667 3f3e 2096 d33d cddd 11bc
00000350: d486 15bd 7826 38be 3c0b 87bd 8b62 023d
00000360: 8f4d b73c 8577 2fbb 9eb1 a4bd 086f 863e
00000370: 45f1 f7bd 564e 293e ae1f cfbd b789 3a3e
00000380: 44fa 4f3d 7058 12be 2ec9 5f3e 995b aebc
00000390: 5e05 1d3d ab69 073e 63e4 06bc 210f 39bd
000003a0: 30a7 3c3d 40be 4bbd bff5 9bbd 9cf7 8ebd
000003b0: 9007 68bc a6be 0cbe b879 8d3d 61a5 30be
000003c0: 46c6 033e 11bf 633e c2d2 583d 03c2 183d
000003d0: 6243 11be 83ee 213e 5630 083b f68f 12be
000003e0: 8c4c 453e e08f b2bc 3740 4bbe 6411 293e
000003f0: df86 953d 0580 81be 4ac9 84bd 9f9e 0d3d
0.00030779702 0.056360066 -0.1054435 -0.16850515 0.2960341 -0.039344847 0.0012945408 -0.01726638
0.0028369543 0.020033443 -0.03096145 0.011181229 -0.12666059 0.036287755 -0.018432925 0.0059851496
-0.13496876 0.160024 -0.038889304 -0.30338156 -0.12381319 -0.10039895 -0.17738077 0.19611245
0.15624954 -0.037622254 -0.17190702 0.008946983 0.055148516 0.122084156 -0.055399496 -0.03912852
0.093840845 0.11316109 0.17912512 -0.2107817 -0.034264494 -0.062850416 -0.044266462 -0.16799407
0.17291014 -0.17909151 -0.08332194 -0.03640126 -0.07616837 -0.023307696 0.083689936 0.054242525
0.1522983 0.079134755 0.09251174 -0.18138145 0.029625326 0.022346651 0.14079095 0.03207462
0.005684182 0.02453032 0.0101833595 0.10272517 0.17647707 0.054117355 -0.1461532 -0.1345941
0.12610888 -0.100181945 -0.13571744 -0.11241465 0.0103175575 -0.17555495 0.04683946 -0.1556348
0.017667558 0.063025996 -0.16291311 0.09083891 -0.04082879 0.014869773 -0.17703275 0.010517942
0.010645339 0.02455524 0.12991539 0.32576007 0.0116887735 -0.03329364 -0.17468023 -0.19655465
-0.02661187 -0.054541033 -0.1980135 -0.1994887 -0.04967002 0.19779654 0.011144649 0.11828182
-0.0884702 -0.07383845 0.27813488 0.14061874 -0.1168896 0.05968551 0.1448581 -0.20668894
0.11021261 0.11648784 0.059488557 0.15831953 0.07174159 -0.15153098 0.13648324 -0.038032457
0.10673555 0.01712187 0.19766693 0.020644903 -0.06345326 -0.097491324 0.1561465 -0.19964442
-0.14828874 -0.19535905 -0.01956223 0.015572281 0.20877299 0.06356873 -0.16316031 -0.1471631
0.0785051 -0.029914489 -0.011296644 -0.12535895 0.096879706 -0.038377844 -0.22582863 -0.06176946
-0.15775734 -0.015334862 -0.14516392 -0.15559001 -0.017406842 0.1291282 -0.10077854 -0.1449062
0.12048151 -0.004696297 0.06208777 -0.5057053 -0.11827777 0.006702778 -0.17036861 0.16710426
0.0058028493 -0.040317155 0.01292407 0.16820186 -0.07597777 0.13007055 0.044726152 0.048060134
-0.02114842 -0.03959427 0.19737276 0.10938303 -0.25714222 0.17035817 0.050595414 -0.033889618
-0.015074489 -0.12663554 -0.014296702 -0.17663312 0.23790446 -0.11822103 -0.14730605 0.003499751
0.061281644 0.1642829 0.060240377 0.15784933 -0.13990718 0.102970615 -0.123722844 0.005491366
0.12895916 0.050768428 -0.08550099 0.19505943 0.07440698 -0.29007223 -0.020933168 -0.08789968
0.06277983 0.16475135 -0.19828215 -0.13326257 -0.13880688 0.008693029 -0.061761852 -0.014630663
-0.024818312 0.047901683 -0.13958064 -0.1191243 0.007869507 0.05340711 0.03327909 -0.015775407
-0.107643425 0.18691644 0.103313684 -0.008902979 -0.036505535 -0.17983425 -0.0659394 0.03183226
0.02237585 -0.002677412 -0.0804169 0.26256585 -0.121065654 0.16533789 -0.10113464 0.18216597
0.05077578 -0.14291549 0.21854088 -0.021283912 0.038335197 0.13223903 -0.008233163 -0.045180444
0.04605788 -0.049741983 -0.07615232 -0.069808215 -0.014161959 -0.13744602 0.06907982 -0.17250587
0.12868604 0.22240855 0.05293537 0.0372944 -0.14185861 0.15813641 0.0020780764 -0.14312729
0.19267482 -0.02179712 -0.19848715 0.1651054 0.07301115 -0.25292984 -0.06483705 0.0345751

lstm.weight_hh_l1 f4 [256, 64]
00000000: 0e73 e73b 50b9 0ebd 5f3c 6abd 1be9 353d
00000010: 3898 e83d 22f0 25be ffd8 eebd 0c87 66bc
00000020: b530 3d3e ab20 2f3d cb4e f8bd 7ade d1bd
00000030: 5f26 b63d 600a 2abd 323d ea3d aaa3 283e
00000040: c881 e53d 1780 f5bd 32e8 94bc 480a febd
00000050: edc6 383c 939c 753c ecbc 30bd bd6f a93d
00000060: 4905 993c 38d0 8dbd 80a1 ea3d 649c e53d
00000070: c117 a5bd ddc3 e1bd c05a 11be f34f 85bd
00000080: a138 eb3d 5d0a 233e aa97 3bbd a35d 093e
00000090: e5d9 60bc 2e5e 303b 330d ecbd 1904 4e3d
000000a0: 9208 a5bc f6f6 413d 3636 6c3d c021 2e3d
000000b0: 15b3 563d c6c3 35bd 39ef 393d ea30 7abd
000000c0: 0204 8c3d ffee 3b3c 237e 0d3c 9b02 0d3d
000000d0: 6f3a 18be 10c6 963d 64c0 363d 9f84 a03d
000000e0: e311 3bbe e06b 003e 6ce7 69bd 2619 a73c
000000f0: 4c46 07bd ec8d 283e 028c b43c 1adc 9abd
00000100: 54e3 ffbd b27a ff3d 1622 0fbe 9683 9abd
00000110: 69e0 0c3e 140c 96bc f7f2 ab3c dd4d 27be
00000120: c7fb e73d d4e8 09be 3ee3 9fbd 499e aabc
00000130: 8c35 acbb 2829 3b3d 46ea 29bd 9350 ecbc
00000140: 26cd 08bd 6597 7a3c 4864 b1bd 213f 3fbd
00000150: 547f d43c 70ca e4bd c64d 0abe 5219 013e
00000160: 4665 793d 8000 e83d 5328 e4bb 737c e7bc
00000170: b633 30bc f4b6 f13c 1b34 f7bd ae4c 3abd
00000180: 3a0b 73bd 71a5 3d3e d796 97bd 2a2b 31bd
00000190: 2391 883c 59d8 803d 3492 35be 8bbe 203d
000001a0: b46e 2c3d 1a75 45bc 2b62 1a3e 5124 a3bc
000001b0: fe0a b6bd 3963 bbbb c40e 573c 99ba 983d
000001c0: e6db 163d 25e9 ffbd 4912 dabd 8a4b 113d
000001d0: 7a07 dcbd ceff 673d e791 1abe 6738 c7bb
000001e0: c51b b4bd 9920 69bc e07d c8bd 3053 2bbd
000001f0: fb4e a6bd a4a9 153d 3439 6b3d f333 16be
00000200: 4422 1dbe 6274 783d 01a2 ab3c 819c f6bd
00000210: 2468 de3d 44e4 253d e537 5a3c 6b21 e5bd
00000220: f1a5 e6bc baa4 2fbc d0fa 10be 2514 bbbc
00000230: b7a6 ddbc 35a0 1f3d f62f bc3d c01b 433c
00000240: db83 f03d 0765 83bd 8b31 1e3e f9a5 c83d
00000250: 234e 833c 17de 3f3c 4499 1cbe fabf 293e
00000260: 7134 563d 7bd8 f4b8 32d7 9b3c faf3 7e3d
00000270: bccb 1dbd d7a9 a83d 1ced 163d 8bfe c53c
00000280: 7462 fa3d 43dc da3d 3603 f0bc c5ac 29bd
00000290: 36de 0e3d 8e48 053e 109f 48be 2f9f 4fbd
000002a0: 6a11 503d 1c56 34bd a869 8d3d 9b21 683d
000002b0: ac69 813c 02a0 343d c6f8 bf3d df96 d53d
000002c0: fea2 1e3c 9a9c 05be f641 9bbd c2ae bcbd
000002d0: eea4 44be 7f62 c8bd 0180 eebc 1f69 2bbd
000002e0: 0e27 2fbe 4f4a 5f3d 4d98 43be 0bd5 3abd
000002f0: e84e 873c aec6 943c 7bbc a03d 1ba7 5fbb
00000300: 56f6 e5bd b45f 313a b47d 20be 6900 da3d
00000310: 002a b83d 6360 643d 25da a43a d86a adbd
00000320: 01ab 043d 4461 243d 3390 313c 2698 42be
00000330: 80e4 2c3c c926 75bd 1fe1 5c3d 1f13 543c
00000340: 0a73 003e 2011 e1bd 0e7d b0bd fbc4 b63d
00000350: 9af8 07be 4ce7 90bd 650c 3fbe 8851 193e
00000360: d7f3 12bc 71dc d63a 32d2 09bc a807 0bbe
00000370: 6075 dabc a14d 673c aa38 94bd 575e 253e
00000380: c706 863d d70a 903d 193a 923b e0df 88bd
00000390: c2ba cbbd 6793 843d 51d3 c8bd 9078 123e
000003a0: ee32 1bbd 61e6 5f3c 41a9 d2bc 1fb6 e7bd
000003b0: eb9f 0c3c 4211 8abd 8315 c0bd ff54 24bd
000003c0: e2c7 52bc c706 02be eff6 40bd a541 353d
000003d0: bf95 2fbd 623d 2c3d 9c7a 0f3d d9af bf3d
000003e0: 1bfe f5bd 4d1f a1bb 0fd0 9abd 9806 203e
000003f0: 0279 0ebe f3f2 b93d 3be8 373e 8ac5 68bd
0.007063276 -0.034844697 -0.05718648 0.04441176 0.113571584 -0.16204885 -0.116624825 -0.014070284
0.18475612 0.042755764 -0.121244036 -0.10247512 0.088940375 -0.0415138 0.11437453 0.16468683
0.112063944 -0.11987322 -0.018177126 -0.12404305 0.011277896 0.0149909435 -0.04314892 0.082732655
0.018679278 -0.0692448 0.11456585 0.1121147 -0.08061171 -0.11023686 -0.14194775 -0.0650939
0.114854105 0.15921922 -0.045798935 0.13414626 -0.013723825 0.0026911604 -0.11525955 0.050296877
-0.020145688 0.04735466 0.057668887 0.042512655 0.05241688 -0.044376157 0.045394156 -0.061081804
0.06836702 0.011470555 0.00863603 0.034426313 -0.1486604 0.07361996 0.04461707 0.078377955
-0.18268542 0.12541151 -0.057105467 0.020397734 -0.033026025 0.16460389 0.022039417 -0.07561512
-0.12494531 0.12474574 -0.13977847 -0.07544629 0.1375748 -0.018316306 0.020989878 -0.16338296
0.113273196 -0.13467723 -0.07807015 -0.02082743 -0.0052554067 0.045693547 -0.041483186 -0.028847015
-0.03339877 0.015294884 -0.08661705 -0.046691064 0.025939621 -0.111714244 -0.1350623 0.12607315
0.060887598 0.1132822 -0.006962815 -0.028257584 -0.010754516 0.029506184 -0.12070485 -0.045483284
-0.05933688 0.18520142 -0.07401817 -0.043254055 0.01667077 0.06291265 -0.17731553 0.039244216
0.042097762 -0.012051845 0.1507651 -0.019914778 -0.08888815 -0.0057186154 0.013126079 0.07457466
0.036830805 -0.12495641 -0.10648019 0.03547243 -0.107436135 0.05664044 -0.1509472 -0.0060797217
-0.08794359 -0.014228963 -0.09789634 -0.04182738 -0.08120533 0.036538735 0.0574276 -0.14668255
-0.15345103 0.060657866 0.020951273 -0.120415695 0.10859707 0.040500894 0.01331899 -0.111880146
-0.028155299 -0.010720426 -0.14158177 -0.022836754 -0.027057035 0.038971145 0.09188835 0.011908472
0.117438994 -0.06415754 0.15448587 0.09797282 0.01602847 0.011710665 -0.15292841 0.1657714
0.052296106 -0.00011675149 0.019023512 0.062244393 -0.038524374 0.082355194 0.03684722 0.024169227
0.1222581 0.10686543 -0.029298406 -0.04142453 0.034879886 0.13015959 -0.19591928 -0.05068892
0.050797857 -0.044027433 0.06904918 0.056672674 0.015797459 0.044097908 0.09373622 0.10429167
0.009682415 -0.1304802 -0.075809404 -0.0921302 -0.1920354 -0.09784412 -0.029113771 -0.0418483
-0.17104742 0.054514226 -0.19101067 -0.04561333 0.016517118 0.018161144 0.0784845 -0.0034126702
-0.112286255 0.0006766275 -0.15672952 0.106446095 0.08992386 0.055755984 0.0012577219 -0.084676445
0.032389645 0.040131822 0.010837602 -0.19003353 0.0105525255 -0.05985144 0.05392563 0.012944012
0.12543884 -0.109895945 -0.08617602 0.0892429 -0.13278428 -0.070753664 -0.18657072 0.14972508
-0.008969269 0.0016392601 -0.008411931 -0.1357714 -0.026667297 0.014117629 -0.0723737 0.16149269
0.065442614 0.070333175 0.004462492 -0.06683326 -0.099477306 0.06473427 -0.098059304 0.14303803
-0.037890367 0.013665766 -0.025715472 -0.11314034 0.008583049 -0.06741573 -0.09379103 -0.04012012
-0.012865039 -0.12697898 -0.047110494 0.044252057 -0.04286742 0.042050727 0.03502904 0.09359712
-0.120113574 -0.0049170614 -0.07559215 0.15627515 -0.13913348 0.09079542 0.17959683 -0.056829013

lstm.bias_ih_l1 f4 [256]
00000000: f8fd bb3b 2f9e 03be 5624 1bbe b493 08be
00000010: 3889 0bbd 51d1 02be e218 ee3d eb64 aebd
00000020: 7c5c cabc 8d2b fc3c a607 c3bd 48c7 ff3c
00000030: 8288 43be 84bf 7f3c 50e6 01be 45d7 e7bd
00000040: 79fb cebd b70d 973a ff97 1f3d d9ce 3ebe
00000050: 8834 23bd ded6 ecbd 8ce0 6e3d c62e d4bd
00000060: 1a3d 023b 9f54 093d 7547 9dbd 4d08 833d
00000070: 942f acbd 8d9b 1f3b a948 44be 3847 28bd
00000080: d277 acbd bfb3 9dbd ad8f d1bd 65a8 bcbd
00000090: 9068 7a3d 1e49 aabc 62b0 a3bc 0470 a6bc
000000a0: cd5e 08be 925f 9cbd a1e9 27be 6f93 abbd
000000b0: 0380 9d3a 08a0 38be d609 4bbe 0c96 25be
000000c0: d045 f53c 2bf3 a73d 049f 29be 332c 24be
000000d0: 6757 213d dc6b 42bd 1276 ccba f6ca bd3d
000000e0: 715d b4bd 12c6 6b3d cb53 c9bd 1ce6 a1bc
000000f0: 8e63 633d 9e21 a2bd d2f3 00bd 075e 45be
00000100: fed8 463d a684 e0bd c990 08be 0b4b 5dbe
00000110: 6639 92bd 90f8 92bd efa2 00bd 5368 11be
00000120: e757 f5bd b347 cebd 49a3 0dbd c157 48be
00000130: b0d6 87bd 5537 45be 2abb 0ebe b24b 89bc
00000140: 3c31 643c bc13 6c3c b11d 3c3d 0ddd 23bc
00000150: 5943 0cbd a7f4 b4bd ebfe a03c da79 1ebe
00000160: fd68 bdbc 3f1e 4f3d 59fb 9dbd 9873 7bbb
00000170: bd61 86bc be8b a8bd 9497 63be c897 c9bc
00000180: 9a9b 51bd fcb2 19bd 2d60 ecbd a2fe 46be
00000190: 3d51 5ebc ee60 34be 218e 373d eaab 1bbe
000001a0: f3fc ccbd bdd9 4abd d0aa 203d 30df 083d
000001b0: b51e e43b d62e 0ebe 212e 22be a0f2 15bd
000001c0: f9d2 a03d 7834 29be 4625 5bbe eed1 eabd
000001d0: 2899 d1bd ab47 babd c9a0 b7bc 5df0 303d
000001e0: 5143 8cbd 2d69 4d3c 1626 193d 7242 953d
000001f0: fcb2 633d 8bcf 823c 46eb f6bd e48b ffbc
00000200: eae6 843d 347f 943d 5fdf 0f3c 648f 69bd
00000210: 0267 bbbd b5a0 f83c e8ba 933d a63e 8cbb
00000220: 87bb 343d ff1a 533d 0fe1 7ebd 689d 06be
00000230: 755f 303d 311a 493c 97a6 913c d99d df3d
00000240: cc66 8dbc 3f9c d4bc c263 a6bd 5abf b5bd
00000250: 80d6 0e3e b968 913d ebbe b3bd 20d1 45bd
00000260: bb92 e53d 4d69 323d c3d8 863d ef71 fe3d
00000270: b451 fe3d 0edb aa3c 24a3 b9bd 1a64 babd
00000280: 0515 733d 4d7d 97bd 445e 80bd 514f aa3d
00000290: e7d0 a5bd 064c 08bd fe76 bb3c 2332 55bc
000002a0: 3daa cebd f3cf 8e3d f418 d73d e426 e3bd
000002b0: 1781 443c 5a20 aa3d d0ff b73d db65 3c3d
000002c0: c4cc eb3d 2dca b2bd c501 dd3c fdc1 2f3c
000002d0: b4a4 28b9 933f ebbd 6ec3 323c e8a7 9abd
000002e0: 7ef8 863c c328 20ba d408 12be 7adc 813d
000002f0: 7b91 bc3d 1df7 34bd 53d0 51bc 4dc1 453d
00000300: 2cdb 91bd 4e4a 95bc c757 0c3d c2e2 3bbe
00000310: bedf d9bc 77e2 14be ef2f 3fba 2417 5cbd
00000320: f2fc 35be 3167 00be 41e2 693d ba7c 2c3d
00000330: 4b21 8a3c c620 5eba b490 f8bb a619 a5bd
00000340: 1ccc 23bd 02e9 b4bb 4057 85bc 79ea e1bd
00000350: 9a9b 76bd 603d 17be 4ed5 333d 14f1 4abd
00000360: 8e3e 2ebe 9527 d0bc 3b93 f8bd 64b8 5cbd
00000370: ea07 913c 6171 8c3b 6c23 0abe 3e55 9c3c
00000380: bd89 92bd 9c16 15be b4c5 37be b8ac 19bd
00000390: 72b0 0cbe f637 46be a6a2 13bd e9d1 88bd
000003a0: c7b4 36bd 63f9 893c 520c b3bd f53d 99bd
000003b0: 8341 e63c f172 4dbc c2c0 173d d40b 25be
000003c0: f068 c23d 0de9 18be 3e7e 5dbe 4088 6dbd
000003d0: 1ebe 053c b0ba 3cbe 4a10 2dbd 93f1 b73d
000003e0: 6b15 29be 292d 9339 7f50 25be 0c6c 45bd
000003f0: c59a 53bd 879f 94bd 0f29 9e3d 12a5 1fbe
0.0057370625 -0.12853311 -0.1515058 -0.13337594 -0.03406641 -0.1277516 0.1162584 -0.08515342
-0.024702303 0.030782485 -0.09522943 0.031222954 -0.19095042 0.015609626 -0.12685513 -0.11320356
-0.10106558 0.0011524473 0.038963314 -0.18633594 -0.03984502 -0.1156442 0.058319613 -0.10360484
0.0019872845 0.033527967 -0.07679645 0.063980676 -0.08407512 0.002435419 -0.19168343 -0.041083544
-0.084212914 -0.077002995 -0.10232482 -0.09211806 0.061134875 -0.020786818 -0.019981567 -0.020317085
-0.13317414 -0.07635416 -0.16397716 -0.0837773 0.00120163 -0.18029797 -0.19827971 -0.1617052
0.029940516 0.082006775 -0.16564566 -0.16032486 0.039389994 -0.047466144 -0.0015599153 0.09267227
-0.08806885 0.05756194 -0.09830435 -0.019763045 0.055514865 -0.07916568 -0.031482525 -0.1927415
0.048546784 -0.10962801 -0.13336481 -0.21610658 -0.07139854 -0.07176316 -0.031405386 -0.14199953
-0.11979657 -0.10072269 -0.03457955 -0.19564725 -0.06632745 -0.19259389 -0.13938585 -0.016759727
0.013927754 0.014409002 0.045926753 -0.010001433 -0.034243915 -0.08835726 0.019652804 -0.1547617
-0.023121351 0.050565954 -0.077139564 -0.003836846 -0.016404027 -0.08229779 -0.22225791 -0.024608508
-0.051173784 -0.03752421 -0.115417816 -0.19433072 -0.013569173 -0.176151 0.04481328 -0.15202299
-0.10009184 -0.049524058 0.0392254 0.033415973 0.0069616684 -0.13885054 -0.1583791 -0.03660834
0.0785274 -0.16523921 -0.21400937 -0.11465822 -0.1023429 -0.09095701 -0.022415536 0.04319798
-0.06848777 0.012537283 0.037389837 0.07288064 0.055590615 0.015968105 -0.120565936 -0.031194635
0.06489356 0.072508246 0.008781283 -0.057021514 -0.091505066 0.030350069 0.07213384 -0.004279929
0.044124153 0.051539417 -0.06222635 -0.13145983 0.043059785 0.012274311 0.017779632 0.10918779
-0.017260931 -0.02595341 -0.08124496 -0.08874388 0.13949013 0.071000524 -0.08776649 -0.04829514
0.11209627 0.043557454 0.06584313 0.12424075 0.124179274 0.020856407 -0.0906432 -0.09101124
0.059346218 -0.07396946 -0.0626798 0.0831591 -0.080964856 -0.033275627 0.022883888 -0.013012442
-0.10091064 0.06973257 0.10502806 -0.11091402 0.011993668 0.08306952 0.08984339 0.045995574
0.11513665 -0.08729968 0.026978383 0.010727403 -0.00016083085 -0.11486735 0.010910852 -0.07551557
0.016475912 -0.00061095896 -0.1426118 0.06340881 0.09207436 -0.044180978 -0.012806016 0.04828005
-0.07121882 -0.018223908 0.0342634 -0.1834822 -0.026595946 -0.14539514 -0.00072932144 -0.053733006
-0.17772272 -0.12539364 0.05710054 0.042111136 0.016861578 -0.00084735116 -0.0075856093 -0.08061533
-0.039989576 -0.0055209408 -0.016276956 -0.1103105 -0.060206987 -0.14769506 0.043904595 -0.049546316
-0.1701605 -0.0254095 -0.12137457 -0.053886786 0.017703969 0.0042859768 -0.13490075 0.019083615
-0.07155178 -0.14559406 -0.17946512 -0.037518233 -0.13739184 -0.19357285 -0.036043786 -0.06680662
-0.044605996 0.01684255 -0.08742584 -0.074825205 0.02810741 -0.012539611 0.037049063 -0.16117793
0.094926715 -0.14932652 -0.21630189 -0.057991266 0.008163003 -0.1843059 -0.042251863 0.089816235
-0.16512077 0.00028071672 -0.16143988 -0.048198745 -0.05166127 -0.0725699 0.07722675 -0.15590313
