Competition/TrainAI/model/s/BILSTMGRU_weights.pth (torch, 815791 bytes, 26 tensors)

lstm.weight_ih_l0 f4 [256, 36]
000000 fc a2 88 ba 15 f8 ef 40 a3 f2 04 bf 1b d5 73 3e
       -0.001042455 7.4990335 -0.51932734 0.23811762
000010 a5 09 ce 3e 16 a2 8c 3d 20 e0 99 3e 3d 0a 97 3e
       0.40241733 0.06866853 0.30053806 0.295
000020 3a 19 be 3d 4c 3d a9 3e 27 0e 01 3f 94 64 83 3e
       0.09282155 0.33054578 0.5041222 0.25662673
000030 0f 69 ba be e5 4f f2 be 1c db c3 be 3c b7 a5 3f
       -0.36408278 -0.4732658 -0.38253105 1.2946544
000040 33 30 c3 3e a0 4e a5 3f 75 35 12 3f 6a fa 98 3e
       0.3812271 1.291462 0.5711282 0.2987855
000050 e2 d2 b1 3d 19 dd c6 be 08 82 40 bc 43 d6 c6 be
       0.08682801 -0.3884056 -0.011749752 -0.38835344
000060 b8 bd e1 3e 66 07 94 be 23 42 d4 3e 7e 32 aa be
       0.44090056 -0.28911895 0.41456708 -0.33241647
000070 18 ac ac 3e 8b 0f cb be 7b e9 04 3e c0 6b b9 be
       0.33725047 -0.39660296 0.1297969 -0.3621502
000080 bc 86 24 40 8c b5 74 3f 9e 34 2a 3c d1 37 72 be
       2.5707235 0.9558952 0.0103885215 -0.23654105
000090 34 8f a5 3d db 5a 0a 3e 94 d5 fb bd 73 21 6a 3d
       0.080839545 0.13511221 -0.12296596 0.057160806
0000a0 16 d8 60 be ff d8 6d be 25 09 d1 3a 4a 48 22 bd
       -0.2195743 -0.23227309 0.001594816 -0.03961972
0000b0 a1 3d 14 be 36 49 ff 3d 49 0a 92 3d d8 48 2e 3e
       -0.14476635 0.12465136 0.07130868 0.17019975
0000c0 72 a4 4e be 28 ee 1a be fc b0 d5 bd 8b ca 56 be
       -0.20179918 -0.15129912 -0.10434148 -0.20975702
0000d0 cc 14 c0 bd 2b cd 90 be 60 70 c8 3c 4d a7 8c be
       -0.09378967 -0.2828153 0.024467647 -0.2747139
0000e0 00 03 69 3e 16 20 6b be 4e 54 b3 bc 83 53 62 bd
       0.2275505 -0.22961459 -0.021890786 -0.055255424
0000f0 f7 5c 4b bd 1f d0 02 3c 37 89 2b be 5d c6 38 3e
       -0.049649205 0.00798419 -0.16751562 0.1804442
000100 b6 62 95 be de 07 4f 3e 2d 3b bc 3c 46 06 48 3c
       -0.29176873 0.20217845 0.022977436 0.012208527
000110 e1 3f 4d 3d 8b d7 2d 3e dc 5e 34 3d 18 fa 84 3c
       0.050109748 0.16976754 0.044035777 0.016232535
000120 cf 28 1e 3c bb eb b8 be a9 a8 78 be 08 2c 80 be
       0.009653284 -0.36117348 -0.24283089 -0.25033593
000130 4a 81 36 be d4 37 92 bd 06 67 c9 be 3a 89 26 be
       -0.17822757 -0.071395546 -0.39336413 -0.16263285
000140 79 6c 1c bd 15 ac 8e 3e b1 73 b5 3e 18 da 10 bd
       -0.038189385 0.27865663 0.35439828 -0.03536424
000150 7d 8a a5 3d 5d e2 34 3e 02 b0 62 3e 1f 83 45 bf
       0.08083055 0.17664476 0.22137454 -0.771532
000160 a8 70 d5 bd 45 87 2d bf 39 81 40 bd 62 68 7f 3e
       -0.10421878 -0.6778453 -0.046998236 0.24942163
000170 cc a6 1f 3e 5c 17 8b 3c b6 f2 f1 3e d7 e9 f7 3e
       0.15590972 0.016978912 0.47255486 0.48420593
000180 86 dc 0c 3d bf 72 c2 3e 09 09 08 be 85 f4 7a 3e
       0.034389995 0.3797817 -0.13284697 0.2450734
000190 5c df 0d 3f 73 87 29 3e 6d 89 a3 3e 04 f8 10 3f
       0.55418944 0.16555576 0.31940785 0.5662844
0001a0 04 8d 91 3d bd 09 7e be fc 2f 69 be 03 69 95 3e
       0.07106975 -0.24808402 -0.22772211 0.2918168
0001b0 b7 94 28 be d0 da 19 3e ce 34 96 bd e4 a5 eb 3a
       -0.1646298 0.15024877 -0.073342904 0.0017978516
0001c0 99 b0 f0 bd 36 ce 6a be db de 45 3e 06 74 31 be
       -0.11752433 -0.22930226 0.19323294 -0.17329416
0001d0 03 02 77 be 3a 77 9a bd 2b 32 8a bd a3 3e 3e 3e
       -0.24121861 -0.07542272 -0.0674785 0.18578582
0001e0 d7 d8 a3 bd aa 5b e6 3d 6c 7d ec 3c dc a7 76 be
       -0.08000343 0.11247952 0.0288684 -0.24087471
0001f0 c6 d2 52 3e 71 52 64 be 86 ec 33 3e c7 d1 e9 bd
       0.20588216 -0.22297074 0.17570695 -0.11416965
000200 94 ef 79 bc 34 d2 02 be bb 8a 86 3e c3 91 2b bc
       -0.015254874 -0.12775499 0.26277718 -0.010471764
000210 78 4a bb bd 46 dd b3 3d 45 f5 d0 bb 54 07 88 3d
       -0.09145063 0.08782439 -0.0063768947 0.06642023
000220 59 70 84 3e 7c f6 ba bc ec e0 22 bc bf 99 15 3e
       0.25866964 -0.022822611 -0.009941321 0.1460943
000230 68 2a bf 3d 7e 6d 0b bb 2e 67 1d bd e5 fe 02 3c
       0.0933426 -0.002127498 -0.038428478 0.007995342
000240 18 d4 d3 bb 06 a7 13 be 8c ec d3 3e 80 ee f5 bb
       -0.0064644925 -0.14419183 0.41391408 -0.007505238
000250 37 14 16 3e c1 d0 be 3d 4b d5 b9 bd 6a c1 e4 3b
       0.14656149 0.093171604 -0.090738855 0.0069810646
000260 be 9b 22 3e 0c f6 ce 3c 7b c5 cd bd 27 e6 28 be
       0.15879723 0.025263809 -0.10047432 -0.16494046
000270 32 ef 1c be ce 48 89 be 6f cf a8 be b7 cd 2f be
       -0.15325621 -0.26813358 -0.3297076 -0.17168318
000280 7d 8a 25 3e be 5f 53 be 7b 31 89 bb d3 8d 07 3e
       0.1616611 -0.20641991 -0.0041868067 0.13237695
000290 bf 19 4e be 2e 7d 0c be b6 e7 d0 bd b5 90 97 3d
       -0.20127009 -0.13719627 -0.10200445 0.074006476
0002a0 bc 94 a7 3d da 35 d0 3d 28 bc 17 3d d2 50 be bd
       0.08182666 0.10166521 0.037044674 -0.09292759
0002b0 38 45 f2 bd ac 9e fb bd d1 88 16 be 00 05 68 bc
       -0.11829609 -0.12286124 -0.14700629 -0.014161348
0002c0 60 ac b6 3c ff e4 b4 be e1 8f 0a 3f d2 1b 01 3f
       0.022298992 -0.3533096 0.5412579 0.50433075
0002d0 3c 14 b1 3c cc c3 de 3d fd d3 df ba 65 3b 2e be
       0.021616094 0.10877189 -0.0017076727 -0.17014845
0002e0 bb 7c af 3e 8b 67 ab 3e f8 71 d7 bc 19 16 ae 3e
       0.3427485 0.33477435 -0.026299462 0.34001234
0002f0 7d bf b5 3e 84 98 b2 bd 1a c6 83 3d 57 a8 40 3e
       0.35497656 -0.08720496 0.06434269 0.18814217
000300 72 5f 6e be 67 80 a7 bc 80 74 48 be 1a 12 b9 bb
       -0.23278597 -0.02044697 -0.19575691 -0.00564791
000310 65 0f 3f 3e 21 46 ca bc 6b d5 58 3e f3 01 74 3e
       0.18658216 -0.024691643 0.21175162 0.23828869
000320 88 3a 00 3e 7d 61 86 bd 81 35 68 bd bc b5 96 3e
       0.12522328 -0.06561563 -0.05669165 0.29435527
000330 02 08 97 bd 5b fb 0e 3e 06 62 67 3d 61 fb 5e bc
       -0.07374574 0.13963072 0.056489967 -0.013609738
000340 38 49 24 3e 2b 52 7b bd b3 70 ce ba 03 15 99 bd
       0.16043556 -0.06135766 -0.001575014 -0.07474711
000350 d1 1e 14 be 8e fa 48 be 93 83 95 3e 37 ec 6e be
       -0.1446488 -0.19626829 0.29201946 -0.23332296
000360 e9 c0 6e bd 34 b4 f4 3d 65 61 55 be 79 89 1d 3c
       -0.058289442 0.119484335 -0.20837934 0.009615296
000370 33 6f c9 3e a8 c1 e5 3e cd 47 1b 3e 71 cf d4 3e
       0.3934265 0.4487431 0.15164109 0.41564515
000380 ed 1d c8 3e 17 0b b9 3e cf ce cb 3b 36 8e 87 bd
       0.39085332 0.36141273 0.006219722 -0.066189215
000390 8c fb 26 3e 55 21 3b 3e 20 1f 6f be 78 bd 0c 3f
       0.16306895 0.18274434 -0.23351717 0.54976606
0003a0 f9 22 8e 3e 7e 65 c4 3e 22 e9 b6 3e 26 cf 74 3d
       0.27761057 0.38358682 0.3572474 0.059767865
0003b0 87 ea d4 ba f8 23 78 3e 53 a8 7e be ed e5 f8 bc
       -0.0016244211 0.24232471 -0.24868898 -0.030383075
0003c0 f6 d2 a1 3e 72 b2 44 bd f7 55 3e 3e 32 63 2c be
       0.31606263 -0.04802174 0.1858748 -0.16834715
0003d0 b2 a7 1e be 43 e7 d0 bd 16 fc 4e be ed 4f c4 3e
       -0.15493658 -0.1020036 -0.2021335 0.3834223
0003e0 db 67 ba 3c ee a5 a4 be 58 93 ca be 72 f8 b2 be
       0.0227546 -0.32157844 -0.3956554 -0.34955174
0003f0 30 2e d6 3d 87 fb 02 bd 36 93 cc 3d e2 10 bc be
       0.10458028 -0.031978156 0.09989016 -0.3673163

lstm.weight_hh_l0 f4 [256, 64]
000000 98 07 45 40 09 6a 98 bd 2b b9 f9 bd fb 08 0a 3d
       3.0785885 -0.074420996 -0.12193521 0.03369997
000010 8b 4a 0e be ba 18 66 3e 9d a3 e5 be 22 38 d9 3d
       -0.13895623 0.2247037 -0.4485139 0.106064096
000020 da 40 a8 be bc 62 6e 3e 8a 12 14 be e0 02 6f be
       -0.32861978 0.23279852 -0.14460197 -0.2334094
000030 1e 85 a5 3e 4b c2 8b bd 11 42 9c 3e 7f 67 a6 3d
       0.32328123 -0.06824168 0.30519155 0.08125209
000040 fb be 9c bd 61 c6 ba bc f6 50 77 3e 92 19 6f bd
       -0.07653614 -0.022799673 0.24151978 -0.058373995
000050 ff 20 70 3c f2 be 0f be df e3 e5 bd 55 9e 44 3f
       0.014656304 -0.14037684 -0.112251036 0.76804096
000060 a8 ac 93 bf 34 03 7e 3c 68 07 86 bd 0c 3a dc 3e
       -1.1537066 0.015503693 -0.065443814 0.43013036
000070 9d bc b0 bd 98 6f 82 be 79 73 d2 be 42 80 fa bf
       -0.08629725 -0.25475764 -0.41103724 -1.9570391
000080 dc f6 41 bc 44 05 ed 3c 59 55 b1 3c d7 e3 06 3f
       -0.011838641 0.028933175 0.021647142 0.52691406
000090 91 81 46 bf 22 c1 8a 3d 78 a5 99 3e 79 4d d0 bc
       -0.7754145 0.067751184 0.30009055 -0.025427567
0000a0 ef 93 57 3e 34 d3 ad be f4 f7 14 bd 98 56 46 3e
       0.21052526 -0.33950198 -0.03636928 0.1936897
0000b0 f7 68 de 3c 86 ec e5 be 4a b9 62 be 0a dd be bc
       0.02714966 -0.44907016 -0.22140995 -0.023298759
0000c0 8f c7 2f be 49 5e 0b be 90 42 d5 3e a8 e5 4a 3d
       -0.1716597 -0.13610186 0.41652346 0.049535424
0000d0 41 93 86 3c aa c5 eb 3d 02 e2 f9 bc dd 58 9c 3e
       0.016427638 0.11512311 -0.030503277 0.30536547
0000e0 a3 8a 3e be 7b da 89 bf 38 61 cc bd 0f 4b 6d bf
       -0.18607573 -1.07698 -0.099794805 -0.92692655
0000f0 c1 10 06 3e bf 34 bc 3f 7f ac 91 3d 35 12 b7 be
       0.13092329 1.4703597 0.07112979 -0.35756078
000100 13 d1 d7 bc 89 09 68 be 52 bc 5f bc 7e d3 e0 3d
       -0.026344812 -0.22659887 -0.013655739 0.10977839
000110 b7 f2 01 be e1 3c 0c be cd 9f ad 3d e4 72 bb 3d
       -0.12690245 -0.13695098 0.08477745 0.09152773
000120 6f 7f bc 3d 65 80 3a bc 4a 6a 87 3d 2f 7e fb 3c
       0.092039935 -0.011383151 0.0661207 0.030699817
000130 04 8f 97 3d 38 bb 06 be f3 0c f8 3b 05 a4 61 3e
       0.07400325 -0.13157356 0.007569903 0.22035225
000140 96 08 2a 3e 01 71 e1 bd b5 5a 08 3e 2b 44 20 be
       0.16604838 -0.11007882 0.13315852 -0.15651004
000150 20 c9 41 bb ac 06 87 3c 99 90 02 be 8c 66 35 3e
       -0.0029569343 0.016482674 -0.12750472 0.177149
000160 13 36 a6 3c dd 99 20 3d f9 97 c0 bd e1 39 8c bd
       0.020289456 0.039209235 -0.094039865 -0.06846977
000170 72 bf 38 bd 3f f1 83 bd 81 e3 0b bd 11 4a 84 be
       -0.04510445 -0.064424984 -0.03415251 -0.25837758
000180 64 2b 6b bc 90 5c 9f 3c c2 c9 ac 3c 36 34 9c 3d
       -0.014353607 0.019453317 0.0210923 0.07627146
000190 f1 ba e8 bd cd 55 74 3e e9 a8 d3 3d 3c 5b d7 3c
       -0.11363781 0.23860855 0.103349514 0.026288621
0001a0 6b c8 b8 3d d7 3d ff bd e6 29 16 be e4 df cd 3c
       0.09022602 -0.12462967 -0.1466442 0.025131173
0001b0 2a 33 9b bd 8a 17 d5 bd 59 55 51 3c 34 24 ec 3c
       -0.07578118 -0.1040488 0.012776696 0.028825857
0001c0 3e 58 d5 3b 56 ad 92 be 88 4c 03 be 01 6f 58 bd
       0.0065107634 -0.2864787 -0.12822163 -0.052840237
0001d0 9c ac b0 3d fa cd 45 3d 93 7d 99 3d 31 69 19 bc
       0.086266726 0.048292138 0.074946545 -0.0093634585
0001e0 f5 31 e5 bd b6 24 39 3e 2d 0a 95 bd 79 d9 fd 3d
       -0.11191169 0.1808041 -0.072773315 0.12394995
0001f0 3f 16 db 3d 63 3f 45 be 68 05 87 3d 42 10 9e 3d
       0.106976025 -0.19262461 0.06592828 0.07717945
000200 6d 7f 1e bf df d0 8a 3f 38 5e 52 bf 28 ae 8b bb
       -0.61913186 1.0844992 -0.82175016 -0.0042627044
000210 cd 66 8f 3d 78 52 44 3e 2c df 1a be 79 d3 70 3e
       0.070020296 0.19172084 -0.15124196 0.2351817
000220 95 34 05 3d 53 f1 b1 3d 17 00 75 3f 2c 01 56 3c
       0.03252085 0.08688607 0.9570326 0.013061803
000230 0e fd 2a 3d d0 09 8f bf 35 23 96 3c 1b 03 8a 3f
       0.041745238 -1.117487 0.018327335 1.0782198
000240 e7 dc b8 3e e9 d8 98 3c 61 fc e8 bd ef 32 45 bd
       0.36106035 0.018658118 -0.113762625 -0.048144277
000250 6f 19 32 3f 7c 9e 04 be c2 59 7a 3c e1 cf d8 3e
       0.6957006 -0.12951082 0.015280189 0.423461
000260 2a e2 81 3f 8e af a4 3d 72 88 84 bd 79 c6 27 3e
       1.0147145 0.08041297 -0.064713374 0.16384305
000270 31 fe b4 bd 63 fc 25 3d 65 c6 70 3e ac 5f 56 bf
       -0.08837546 0.040523898 0.23513182 -0.83739734
000280 ce 39 70 bd c1 e6 be 3d d9 ce 14 3d a9 c6 65 3d
       -0.058648877 0.093213566 0.036330078 0.05609766
000290 bc 16 4c bf 08 b0 8b 3f 55 cc 65 3e 64 1d 70 bd
       -0.7972219 1.0913095 0.22441228 -0.05862178
0002a0 9c a4 98 3f f2 c3 fa be ea 34 03 be b4 42 ba bd
       1.1925235 -0.4897762 -0.12813154 -0.09094754
0002b0 f0 ac c7 bd d0 45 1a be cb a6 d0 3b 97 c9 bd 3d
       -0.09749782 -0.15065694 0.0063675395 0.09266966
0002c0 d2 70 94 bf 6d a5 a6 bf e9 35 c6 be 76 d8 d8 bd
       -1.159693 -1.3019234 -0.38713005 -0.10588162
0002d0 a9 ef 96 3d 71 09 4d 3f 01 bf b9 3d ad 67 72 3e
       0.0736993 0.8009253 0.09069634 0.23672362
0002e0 a0 ae 93 3d 4b 52 06 3d f7 65 01 3d 2c 12 5b 3f
       0.072110415 0.032793324 0.031591382 0.85574603
0002f0 50 c3 d3 3d ff 3e 17 be 3d c1 08 3f 7c be 79 be
       0.10339987 -0.14770125 0.5341986 -0.2438907
000300 d4 9e 62 3e a5 8c 82 bd 79 dc 50 3e 1f 57 09 3d
       0.221309 -0.06374482 0.20396604 0.03353035
000310 fc 5f 18 bd a3 5e 56 bd 8d 9b 4e 3e 6e a8 56 3d
       -0.037200913 -0.052336346 0.20176525 0.05240672
000320 7f 0a 92 be 0f 8b a7 3d c3 c3 34 be 32 65 97 bd
       -0.28523633 0.0818082 -0.17652802 -0.07392348
000330 7b 11 f0 3d 2a 48 f6 3d 83 ca a1 3d ad 9d 95 be
       0.11722084 0.12025483 0.07899954 -0.2922186
000340 47 0d bb bd 86 16 28 bd ac 44 51 bd b7 ba a0 3b
       -0.09133392 -0.041037105 -0.05109088 0.0049050706
000350 35 17 72 be 59 f5 b6 bd 19 fd 4f 3b 20 7f a0 bd
       -0.23641665 -0.08933515 0.0031736551 -0.07836747
000360 bc 8d 64 be 60 8f a2 bd f4 82 4b bd e1 84 37 bb
       -0.22319692 -0.07937503 -0.049685434 -0.0028002786
000370 b6 a6 55 bd ca 4e a0 bd b8 54 84 bd 04 cb bc bd
       -0.05216094 -0.07827528 -0.06461471 -0.0921841
000380 26 04 87 3c ab a9 da bd fa b4 c8 3c a8 2e 6a 3d
       0.01648147 -0.10676893 0.024500359 0.0571734
000390 57 8b 97 bd cc eb 91 be 2f 55 6d 3e 07 e9 24 bd
       -0.07399624 -0.2850021 0.23177026 -0.040261295
0003a0 86 7f fb bd 97 91 ba 3b 2f 6f a5 bc 9f 47 38 3d
       -0.122801825 0.005693625 -0.020194618 0.04499018
0003b0 de 4d de 3c b6 e6 52 bb 8b 72 2e be 8b ba c0 bd
       0.02713674 -0.0032180971 -0.17035882 -0.0941058
0003c0 66 a7 78 3e ed e5 72 3e 8a 37 81 3e 00 5f 72 3c
       0.24282607 0.23720522 0.25237685 0.014793158
0003d0 0a 5d a6 bd a4 9f 9c bd 53 83 06 be dc c1 63 3e
       -0.081232145 -0.076476365 -0.13136034 0.2224192
0003e0 24 73 f6 bd 4b a6 cc bd a7 20 70 3e d6 57 26 3c
       -0.1203368 -0.09992655 0.23449956 0.010152778
0003f0 69 4c 76 bd 81 23 42 3e 6a f1 f3 bc a3 d0 0f 3e
       -0.060131464 0.18958856 -0.029778201 0.14044432

lstm.bias_ih_l0 f4 [256]
000000 c5 a9 48 3e a9 c7 69 3e 78 70 8e 3f ee 4e 81 be
       0.19596012 0.2283007 1.1128073 -0.2525553
000010 cf 0c a9 3c 31 91 8b bd 41 c5 87 3e 9c 42 48 3e
       0.02063599 -0.068148024 0.2651768 0.1955666
000020 f5 6f c7 bd 05 6d 82 bc 70 c7 4b 3f 01 e9 26 bd
       -0.09738151 -0.015921125 0.7960119 -0.040749554
000030 71 80 41 3e 4e d7 7c 3e 2e 51 87 3c 5b 01 36 3e
       0.18896653 0.24691507 0.016518202 0.17773955
000040 a7 e3 11 3e a9 f1 02 3e 10 d7 21 3d 7d 80 de 3d
       0.14246999 0.12787499 0.03951174 0.10864351
000050 a7 44 fd 3e 05 0b 77 be 54 75 dc bd d2 ed 3f bd
       0.4946644 -0.24125297 -0.10764566 -0.046857662
000060 49 bd 72 3f 1c 62 8a 3c f0 10 a1 be 58 3e 24 bd
       0.94820076 0.016892485 -0.31458235 -0.040098518
000070 05 79 7c bd cb 9f 1a bd a9 9f d8 bd 13 f4 45 bf
       -0.06163885 -0.037750047 -0.10577328 -0.7732555
000080 fc 2a 1d 3d 33 e9 b2 ba aa d1 24 be ec a7 23 be
       0.03837107 -0.0013649821 -0.16095605 -0.15982026
000090 29 18 c2 be 79 f8 1a 3e b2 3b f3 3b 9e 0e 19 3e
       -0.37909058 0.15133847 0.0074228877 0.14946982
0000a0 fc ac 6a 3e 69 5d 32 3d 0b c7 bd bd 38 dc c2 bd
       0.22917551 0.043546114 -0.0926648 -0.0951466
0000b0 3e b6 bd bd a1 d2 26 bd 5c e2 e3 bb e8 aa 82 bd
       -0.092632756 -0.040728215 -0.0069544744 -0.06380254
0000c0 7c cd 63 bd 03 bd cb bd 65 07 fd 3e 55 fa 04 be
       -0.055615887 -0.099481605 0.49419704 -0.12986119
0000d0 11 7a 94 bd fe 69 cc bd bb e6 24 be 41 f0 2a 3d
       -0.07249845 -0.09981154 -0.16103642 0.04173303
0000e0 b8 08 38 be 79 92 9c be da 8d 15 3d 26 58 01 bf
       -0.17972076 -0.305805 0.036512233 -0.5052513
0000f0 26 f0 16 3a 50 c3 af bd e5 2f e6 3e d0 e6 ee 3c
       0.0005757831 -0.08582175 0.44958416 0.029162794
000100 df 46 48 bf a1 68 a3 3d 26 56 07 3f d5 ee a7 bd
       -0.7823314 0.07978941 0.5286583 -0.081998505
000110 2e dd 3b bc 98 14 2e bd 41 1c 1e 3e a4 f1 1c 3e
       -0.011466308 -0.04250011 0.15440466 0.15326554
000120 5e 5a 02 3d 3e b3 d7 3d 7e cc 30 3e f3 97 9f bd
       0.031824462 0.105322346 0.17265508 -0.07792654
000130 4c 84 a7 bd 24 71 04 3b 3e 35 cc bd e2 47 95 3f
       -0.081795305 0.0020209039 -0.09971093 1.1662562
000140 ce 34 36 be 6e fc 53 bd 80 16 0e be d2 c8 fd 3d
       -0.17793581 -0.051754408 -0.1387577 0.12391819
000150 ef 5a cc bc 0c ce 92 bc b6 c0 98 3c 46 51 13 be
       -0.024945704 -0.017920516 0.01864658 -0.14386472
000160 60 40 51 be 63 85 25 be e9 e7 fb bc 75 21 51 3b
       -0.20434713 -0.16164164 -0.030750232 0.003191081
000170 8c 6c 09 3d 94 d7 cc bc 9a 36 55 be e5 cd 0b bc
       0.033550784 -0.02500514 -0.2082161 -0.008532976
000180 2c cd 39 3d 83 d6 9d 3c 2b bd bf bb ab 14 ce bd
       0.045361683 0.019267326 -0.005851408 -0.10062536
000190 62 e8 97 be 04 80 73 3e 71 1e 4b 3d 42 3a 2e 3e
       -0.29669482 0.23779303 0.049589578 0.17014411
0001a0 dc be 4b 3d f1 87 18 3d b5 7b 95 bd bd 25 54 3d
       0.049742565 0.03723902 -0.07298986 0.051793803
0001b0 0c 23 05 bd 2e ab 5d bc e8 e0 95 bd 50 62 5a bd
       -0.032504126 -0.013529582 -0.07318288 -0.053316414
0001c0 83 4a 37 3e bc 75 12 3f a9 ea c0 3d 78 bb 69 bd
       0.17899518 0.572109 0.09419758 -0.05706355
0001d0 5b 0b 16 be c8 75 3f be e8 cf 46 3d 86 94 71 bd
       -0.1465277 -0.18697274 0.04853812 -0.058979534
0001e0 c8 ed bc bd 35 05 4e bd 37 fe d2 bd d4 b7 e9 be
       -0.09225041 -0.050297935 -0.10302394 -0.45648062
0001f0 d2 4d b3 bd 6b 50 45 bd b1 b6 50 3e 83 d0 65 be
       -0.087550774 -0.048172396 0.20382191 -0.22442822
000200 ec 83 8a be 59 1d 6b 3e 30 cc 27 be e1 4a 08 bd
       -0.27053773 0.22960414 -0.16386485 -0.033274535
000210 d3 c9 98 3d 82 0f ec bd cd 49 1b 3e 03 e1 70 3c
       0.0746037 -0.115263954 0.15164872 0.0147020845
000220 fb dd 1b 3e 23 83 df 3c b0 4e d1 3d 8a 28 34 3e
       0.15221398 0.02728421 0.102200866 0.1759359
000230 00 50 9e 3d 72 e1 7a be 21 9f cc bd 84 14 3b 3e
       0.077301025 -0.24500063 -0.09991289 0.18269545
000240 28 9a 8d 3e 4e 40 d0 bb 65 4b df 39 0e f5 b8 bd
       0.27656674 -0.006355322 0.00042590048 -0.090311155
000250 e9 d2 c7 3d 0c d6 c6 3d ed 58 84 3d e8 ae a7 3d
       0.09757025 0.09708795 0.06462274 0.081876576
000260 f7 e2 38 3e 03 5e 31 3e 9a a2 c1 bd c3 3d ba 3d
       0.1805533 0.17321019 -0.09454842 0.09093811
000270 05 d2 01 3e af b2 ee 3d be bc 0d 3e 87 13 12 be
       0.12677772 0.11655175 0.1384153 -0.14265262
000280 0d 3b 42 bb a3 82 ba 3d 8e ba 8a bd 8f 7f 5d 3d
       -0.0029637248 0.09106948 -0.06773864 0.054076727
000290 24 d3 08 3e 5c df ae bc 1d 6e 05 bd b0 b7 ce bc
       0.13361794 -0.02134674 -0.032575715 -0.025234073
0002a0 69 d1 81 3e 4a 89 df bd 2a 4d d6 3d db 76 c2 bc
       0.2535508 -0.10914858 0.104639366 -0.023738315
0002b0 01 02 fa bd c9 ab d3 3d 8e c1 40 3c 67 54 72 bc
       -0.122074135 0.103355 0.011764897 -0.014790631
0002c0 05 e2 09 be a7 91 32 be 62 55 f8 bd c0 18 99 bd
       -0.13465126 -0.17438374 -0.121256605 -0.07475424
0002d0 49 ef f6 3d ea 55 d8 3d ce a1 7e 3d 09 4c 0a be
       0.12057359 0.10563262 0.062166028 -0.13505568
0002e0 95 93 c9 3d f5 92 c2 3d 56 db 80 bd 60 a7 29 3e
       0.09842602 0.09500686 -0.06291835 0.16567755
0002f0 ae c8 24 3c fd 8d ce bb d6 fd e7 3d fa 66 e0 bb
       0.010057611 -0.0063035474 0.11327712 -0.0068482133
000300 44 b5 b1 bd 22 08 8f be 7e 15 7e 3d 2b 1f e7 bd
       -0.08677152 -0.27935892 0.062032215 -0.11285242
000310 07 5f fa 3c 1f b2 85 b9 59 be 72 3e 18 a8 10 bd
       0.03056289 -0.00025500447 0.23705424 -0.035316557
000320 90 23 20 3e 14 8f a6 bc 49 36 bf 3e 2b 8b 54 39
       0.15638566 -0.020331897 0.37346104 0.0002026974
000330 9a 8c 7a be d2 3f e3 3d 47 a5 b2 3d 48 d0 75 3e
       -0.24467698 0.11096157 0.087229304 0.24005234
000340 57 5c fa 3e bc e0 b7 3b f9 49 23 3b 65 47 b5 3c
       0.48898575 0.005611507 0.0024915917 0.02212877
000350 72 72 3b be a5 c0 43 3c e9 96 f2 bc 7a 92 27 bf
       -0.18305376 0.0119477855 -0.029612975 -0.6545788
000360 d7 79 1a 3e 58 f6 7f 3f e7 20 c2 bc 9e 02 ae 3d
       0.1508554 0.99985266 -0.02369733 0.08496593
000370 70 76 b5 bc 83 f6 b9 bd da 98 cb 3f 5b 3d 05 3e
       -0.022151202 -0.090802215 1.5906022 0.13011687
000380 d1 ba 98 bc f3 7b 8f 3d cb f2 07 3e bf 87 ef bd
       -0.018643769 0.07006063 0.13276212 -0.116958134
000390 80 a9 7c bf c0 46 8f 3e 23 59 48 3e 15 a0 ec 3d
       -0.98696136 0.27983665 0.19565253 0.11553971
0003a0 aa 81 0e 3d 3c bc a8 3f 5b ad 2f bd 2d a1 f4 3c
       0.034791626 1.3182445 -0.042889934 0.02986201
0003b0 28 66 4b be 0b 35 ac 3e 5c 10 a6 bd 2d d3 8c bd
       -0.19863188 0.3363422 -0.08108589 -0.06876216
0003c0 71 87 89 3e 30 b2 59 3c 35 87 2b 3e 86 b5 0a be
       0.26861146 0.013287112 0.16750796 -0.13545808
0003d0 27 a6 fa bd 53 66 ba 3d 7e 24 4e be 46 48 aa bd
       -0.12238722 0.09101548 -0.20131108 -0.08314566
0003e0 78 74 8c be 3c e9 5a bf 58 c3 22 bd 2f 7d 3d be
       -0.2743261 -0.8551214 -0.039737076 -0.18504785
0003f0 00 f2 d0 bd 47 d1 2d bf 08 24 a4 3e cc a6 5a 3f
       -0.10202408 -0.67897457 0.3205874 0.8541076

lstm.bias_hh_l0 f4 [256]
000000 3b 67 5c 3e 4c 72 15 3d 56 db 91 3f db b8 32 be
       0.21523754 0.036485955 1.1395061 -0.1745333
000010 df da 12 be 9e f0 d4 bd a1 cf 17 3e 08 a8 f4 3c
       -0.14341305 -0.103974566 0.14825298 0.02986528
000020 da 16 ce 3b ca 4a 83 bd 2e 35 40 3f ee a6 41 be
       0.006289345 -0.06410749 0.75081146 -0.18911335
000030 fd 2e 4c 3e ee 8a 70 3e 28 08 b7 bd 79 55 28 3e
       0.199398 0.23490497 -0.089371026 0.16438855
000040 2e 52 f3 3d 07 b9 e6 ba 60 3c 9a 3d 97 ad 95 3c
       0.11880909 -0.001760275 0.07531047 0.01827125
000050 d7 a7 d1 3e 60 6f 28 bd 4b 54 22 be 17 8f 10 bd
       0.40948364 -0.04112184 -0.15852468 -0.03529271
000060 53 fa 5a 3f c4 3e f9 3d 4a 05 19 be fb 26 8a bc
       0.85538214 0.12170175 -0.14943424 -0.01686429
000070 95 03 02 bc ea 1d 84 bc d9 54 59 bd 05 91 2a bf
       -0.007935424 -0.016127545 -0.053059433 -0.6662753
000080 6a db 2e 3e 47 75 03 be 60 b1 9c bd dc 83 3c bd
       0.17075887 -0.12837707 -0.07651019 -0.04602419
000090 49 24 f2 be 38 3a cb 3d 0c 86 1e 3d 2b 36 61 bd
       -0.47293308 0.09923214 0.038702056 -0.0549833
0000a0 f1 26 8c 3e 0c a7 2e 3e b3 6b e5 bd 0a 5d 02 be
       0.2737346 0.17055911 -0.112021826 -0.12730804
0000b0 6e cb eb bc 5c e5 85 bd 67 b9 cd 3c ef 09 e5 bd
       -0.028783526 -0.065378875 0.02511282 -0.11183535
0000c0 06 96 59 bd 91 09 ac 3d cd 76 f6 3e f3 9e 0f be
       -0.05312159 0.08400262 0.48137513 -0.14025478
0000d0 c0 95 2c be ae 54 b8 3d 69 2e 25 be d6 74 a5 bc
       -0.16854 0.09000526 -0.16130985 -0.020197313
0000e0 16 ea 19 be 85 46 0d be be 00 d1 bd b6 10 ea be
       -0.15030703 -0.13796432 -0.1020522 -0.45715874
0000f0 74 e8 5d 3b c3 30 19 3d 55 ce 15 3f d2 6d 04 be
       0.0033860477 0.03740002 0.5851796 -0.12932518
000100 b1 5d 29 bf 99 ca f4 bd c7 3e 05 3f 53 2b 6e bd
       -0.66158587 -0.11952705 0.52048916 -0.058146786
000110 1c 3e 86 ba 29 7d 45 be a1 98 4c 3e ee a8 41 3e
       -0.0010241899 -0.19286026 0.19980098 0.18912098
000120 69 6c 4b be 12 bc 45 bd 1b d7 04 3e 8e 8c bb bd
       -0.19865574 -0.04827506 0.12972681 -0.09157668
000130 13 3d 5d be 9f 37 66 3d 9c 82 96 3d 4d ef 92 3f
       -0.21605329 0.05620539 0.073491305 1.1479279
000140 64 18 1e be 23 ab 14 be c8 ae 5b be 6d c2 99 3d
       -0.15438992 -0.14518408 -0.21453393 0.07507787
000150 1a ff 46 bd ec cc 7c bd b2 83 89 bd 05 f0 f4 bd
       -0.048583128 -0.061718866 -0.06714572 -0.119598426
000160 e5 be ab be 41 f0 43 3d d5 de 83 bd 60 95 c4 3c
       -0.33544078 0.047836546 -0.06438986 0.023997009
000170 98 a7 1e 3d e8 5a 95 bd 9e fe 5e be e2 55 b0 bd
       0.03873405 -0.072927296 -0.21776816 -0.08610131
000180 48 e4 2a 3d 0f 73 86 bd 4a 0e b0 bd cb ee bc 3d
       0.041721612 -0.065649144 -0.085964754 0.09225234
000190 e3 2e 1e be d7 f3 2f 3e e6 4c 2f 3d 87 01 e3 3d
       -0.15447573 0.17182861 0.042797945 0.11084276
0001a0 5a 21 1f 3e 51 b8 4c 3e 54 d4 2d bd 0f 53 9c bb
       0.15540066 0.19992186 -0.04243882 -0.0047706435
0001b0 da 63 c6 bd b0 6b d6 3d a3 9f ef bc a0 28 70 bd
       -0.09687014 0.104697585 -0.029250925 -0.058632493
0001c0 2b 6f fe 3d 0a ab d8 3e 2c c2 41 3e 6d 0d f3 bd
       0.12423547 0.42317992 0.18921727 -0.11867795
0001d0 d2 ac fd bd 43 15 0f bc 09 16 94 bd 51 42 94 bd
       -0.123864785 -0.0087330965 -0.07230765 -0.07239211
0001e0 21 c4 44 3d 1c 8a cd bc b7 a1 1c be 44 b5 23 bf
       0.048038606 -0.02509027 -0.15296064 -0.63948464
0001f0 44 8c bb 3c db fa 0c bd 21 0e 3b 3e e3 ec 1e be
       0.022894032 -0.034418922 0.18267109 -0.15520053
000200 57 60 89 bd cb 66 74 3e 9f e3 4b 3d 28 39 ca bd
       -0.067078285 0.23867337 0.049777623 -0.09874183
000210 2e 7f 0c bd 5c 69 6a be 61 62 1c 3e 92 3f 6c 3d
       -0.034300976 -0.22891754 0.15271904 0.057677813
000220 d9 79 1a 3c ce 15 2c 3d 97 7e fb 3d ec c8 64 bb
       0.009428465 0.042012982 0.122800045 -0.0034909798
000230 ed 58 51 3e 6c 72 a2 bd fe f7 32 bc 36 74 6b 3e
       0.20444079 -0.079319805 -0.010923384 0.2299355
000240 8d 36 6c 3e 19 ce 07 be 1d a5 2f bc ab 29 a1 3c
       0.23067684 -0.13262214 -0.010720518 0.01967319
000250 29 c1 eb 3d dd 07 fa 3c 8c 27 1f 3e 46 e7 ac 3d
       0.11511452 0.030521328 0.1554243 0.084425494
000260 81 73 7b 3e 02 6b d2 3d e1 ef 70 bd 52 8c d7 bd
       0.2455578 0.10274316 -0.058822516 -0.10524811
000270 44 f7 ae ba fc b0 13 bd a1 7a c1 3d 0b 30 2f be
       -0.0013348837 -0.036057457 0.09447218 -0.1710817
000280 b6 6f e5 bd 5a 04 76 bd 71 c0 45 3d a7 98 99 bb
       -0.11202948 -0.060062744 0.04827923 -0.004687387
000290 45 b6 37 3e 7f 0f b5 3d 39 89 94 bd 91 2d 8a b9
       0.17940624 0.08840846 -0.07252736 -0.0002635536
0002a0 dd 55 5d 3e 5a d3 87 be 1d 8d f9 bd b0 c9 a0 3d
       0.21614785 -0.26528436 -0.12185118 0.07850969
0002b0 73 19 a9 bc 1b 75 16 3e 18 b7 db 3c bb fe 07 3c
       -0.020642018 0.1469311 0.026820704 0.008300479
0002c0 4e 1e 35 be f3 6b 82 be 69 c9 46 bd be 6c e6 bd
       -0.17687342 -0.25472984 -0.048531923 -0.1125121
0002d0 0e 0a 04 3e a4 7f 17 3e 50 35 16 3c 3f ef 67 b9
       0.1289446 0.14794785 0.009167984 -0.00022119003
0002e0 13 d4 fc 3d 5b 74 53 bb af a8 1d be e6 d6 90 3e
       0.123451374 -0.0032265398 -0.15396379 0.28288954
0002f0 7d 5a c3 bd ef 63 4a 3d 10 86 38 3e a7 65 23 be
       -0.09538744 0.04941171 0.18019891 -0.15956746
000300 f1 2f 5f be 50 e9 97 be 1a 3c 2d bd 74 1e 82 3c
       -0.21795632 -0.2967019 -0.042293645 0.015883662
000310 f7 6f 65 bd 10 32 00 bd 6d 8b 5c 3e fe d3 2d be
       -0.05601498 -0.031297743 0.21537562 -0.169754
000320 82 30 cb 3d af 32 1d 3e 11 65 be 3e 09 51 f2 3b
       0.099213615 0.15351366 0.37186483 0.007394914
000330 f0 2a 40 be dd d5 60 3e f4 53 c9 3d bf 66 81 3e
       -0.1876638 0.21956582 0.09830466 0.25273702
000340 8d 3a 03 3f a9 5e ba bb 56 36 34 be 33 b3 05 3c
       0.51261216 -0.005687554 -0.17598853 0.0081604
000350 cc 09 3d be 78 65 82 3b 80 8c b4 bd 18 02 52 bf
       -0.18460768 0.003979381 -0.08815861 -0.82034445
000360 25 02 91 3e 63 40 82 3f 01 54 70 bd 4c 5f 9b bd
       0.2832195 1.0175899 -0.058673862 -0.07586536
000370 e8 ff 01 be 6a 69 80 3d 00 5c bd 3f 36 b0 28 bc
       -0.12695277 0.06270106 1.4793701 -0.010295918
000380 1a 63 19 3e 2a 8e ec 3c ab d4 fc 3d 75 79 7c bd
       0.1497921 0.028876383 0.12345251 -0.061639268
000390 3c be 8d bf 3e cc 33 3e da 78 0b 3e 4b 82 86 3d
       -1.107368 0.17558381 0.1362032 0.0656782
0003a0 d1 ab b3 3d 19 7b 9a 3f f7 c1 b4 3d 70 b0 49 3e
       0.08773006 1.2068816 0.08826058 0.19696212
0003b0 f6 7c 71 be 8f d3 97 3e 0d 85 5f be ec fa 0a be
       -0.23582825 0.29653594 -0.21828099 -0.13572282
0003c0 74 f2 b0 3e 25 42 ca bc c9 93 3c bc ed d0 d9 bb
       0.34559977 -0.024689743 -0.011509844 -0.0066472203
0003d0 29 72 fa bd 1f 2c c3 3d 56 26 a8 bd 20 fe 36 be
       -0.122288056 0.095299 -0.08210437 -0.17870378
0003e0 bc de 2e be 72 ef 57 bf d5 0a 7c 3a 81 f2 15 be
       -0.17077154 -0.8434974 0.0009614651 -0.14643289
0003f0 02 24 9d be ca 0c 3d bf f6 d4 96 3d 26 a8 51 3f
       -0.30691534 -0.7384764 0.07364838 0.818972

lstm.weight_ih_l0_reverse f4 [256, 36]
000000 5b ae 45 3e f3 26 d8 bc ff 07 ab 3d b3 d9 fc bd
       0.19304793 -0.02638576 0.083511345 -0.1234621
000010 26 44 a6 bd 58 37 dd 3d 7c a6 99 bd 39 c1 c5 bd
       -0.08118467 0.108015716 -0.075024575 -0.09655995
000020 03 d2 94 3d 52 77 07 be c4 92 20 3e 99 2f 8e 3d
       0.07266619 -0.13229111 0.15680987 0.06942672
000030 17 4b 95 be 78 06 0e be 20 27 9e 3d d9 0e 88 3d
       -0.29158852 -0.13869655 0.07722306 0.06643457
000040 48 6f 23 3d b4 7c 3e bc d3 a2 80 3d ab 8e 24 3e
       0.039901048 -0.011626411 0.06281056 0.16070049
000050 8f 72 d6 3d 63 4f aa 3d fc 12 8d 3d cb e8 cc 3d
       0.10471069 0.08315923 0.068883866 0.10005339
000060 4d b0 18 bd ec 0f 9a bd b4 e6 e2 bd e5 48 6f 3e
       -0.03727751 -0.07522568 -0.110791594 0.23367651
000070 ec c9 de bd ab 94 ed 3c 5b f7 5d bd 5c 62 a2 bd
       -0.10878357 0.029001554 -0.054190975 -0.07928917
000080 16 66 f0 bd 6b cf 21 3d 98 89 ab b9 5c fe 12 be
       -0.11738221 0.03950445 -0.00032718177 -0.14354843
000090 96 53 6a bd 25 0f a5 3e b5 4c fe 3d ef b8 00 3e
       -0.05720862 0.32238117 0.124169745 0.12570547
0000a0 54 aa 23 3f 67 ad 07 3f be 7e 9c bb d7 35 1c 3f
       0.63931775 0.52998966 -0.004775851 0.61019653
0000b0 3a 88 0f 3f bc 4c b9 bd af 3c e2 3d 19 d4 f7 bd
       0.5606724 -0.09047839 0.11046731 -0.12101001
0000c0 96 27 a4 be 72 43 8b be 2a cc 16 be cd b3 cf 3e
       -0.32061452 -0.27199894 -0.1472632 0.40566865
0000d0 3c 39 99 3e fd 44 17 3f 07 23 9b 3e 83 58 35 be
       0.2992648 0.5908964 0.3030016 -0.17709546
0000e0 83 09 f5 3d 92 6b 1d bf 24 27 3b 3e 21 9a 47 be
       0.11964705 -0.61492264 0.1827665 -0.1949239
0000f0 ad 7b f9 be 67 14 8b be 5d c8 66 be 3b 1c 84 be
       -0.4872717 -0.27164003 -0.2253737 -0.25802788
000100 16 27 b2 3e c5 cc b5 bc 93 7b 55 3e 5a b0 da 3e
       0.34795445 -0.022192368 0.20847921 0.4271267
000110 82 dd 64 3d 6a 1a 97 3e 19 54 f8 3c 47 c0 b7 bb
       0.05587531 0.2951234 0.030313538 -0.005607638
000120 dc 48 3c 3e 60 f9 0f 3d 00 e4 b7 3d 75 4b b0 3d
       0.18387169 0.035149932 0.089790344 0.08608142
000130 f2 b0 0c 3e cf c3 af bc 93 4a 01 3e d3 7c 14 3e
       0.13739374 -0.021455674 0.12626104 0.14500742
000140 66 51 19 3e 9e 52 73 bc 82 a8 d1 3d ef f5 e9 3c
       0.14972457 -0.01485124 0.102372184 0.028559653
000150 c0 9d f9 3d 1a b4 18 3d a8 79 42 be 9d 29 12 3e
       0.121882915 0.037281133 -0.1899172 0.14273687
000160 12 9a 7e 3d c5 64 04 3e 6e 34 ee 3d 15 7c f0 3d
       0.06215865 0.12929066 0.11631094 0.11742417
000170 d7 a3 d3 3c 66 a7 2f 3e a0 f2 6c bd db d8 7d bc
       0.02583496 0.17153701 -0.057848573 -0.015493597
000180 f4 9d 8a 3e 8f 80 cb 3d 60 d1 10 3d 04 d8 ad bd
       0.27073634 0.0993663 0.035355926 -0.08488467
000190 06 2f 27 be 6a d5 bf 3b 43 6f a3 3d 4a ea b3 3d
       -0.16326532 0.0058542984 0.07980206 0.087849215
0001a0 e8 0e a3 bb 69 a4 17 3e ce 48 2a 3e c5 6d 23 3e
       -0.004976142 0.14808811 0.16629335 0.15959843
0001b0 47 9e 3e be 5d 9b 9c 3d e3 84 54 bd af 94 0c be
       -0.18615066 0.07646821 -0.051884543 -0.13728593
0001c0 5b bb b7 3d b2 66 4f 3e ec e5 28 bd 16 bd 4d 3d
       0.08971282 0.20254019 -0.041234896 0.050229155
0001d0 b7 e5 2c 3e d1 05 9c 3c 74 c9 d8 bc 1f 69 39 3d
       0.16884504 0.019045742 -0.026463248 0.045266267
0001e0 7a 9c 0b be 26 9d cb bb 38 e3 ce bb 63 42 c4 bc
       -0.1363391 -0.006213802 -0.0063137077 -0.023957437
0001f0 0e 1c 27 be 0d 8d 11 3d dd a9 6c be 86 68 3d be
       -0.16319296 0.035534907 -0.23111673 -0.18496904
000200 76 b4 ac 3d 42 93 0b be 3a c2 b3 bd 17 4b 89 be
       0.08432858 -0.13630393 -0.0877728 -0.26815102
000210 56 63 22 be dd bb ae bd 48 13 0d bc b7 af d1 ba
       -0.15858206 -0.08531926 -0.008610554 -0.0015997802
000220 34 6c 2a 3d 2c a9 c7 bd d8 ed f0 3c 20 30 93 bd
       0.041607097 -0.09749064 0.029410288 -0.071869135
000230 27 e0 85 bd 7b 34 76 3e af 90 e3 3d 86 34 1e bd
       -0.06536894 0.24043457 0.111115806 -0.03862431
000240 92 03 04 be 97 9c 13 3e 8b a1 74 be ae 69 b4 3e
       -0.12891987 0.14415203 -0.23889749 0.35236877
000250 57 46 5f be ef 06 e4 be 4b db d6 3e 79 f7 3c bd
       -0.21804176 -0.4453654 0.41964182 -0.046134446
000260 64 ec a2 be 77 00 25 bc 81 59 60 bd 12 8b 5a bc
       -0.31820977 -0.010070912 -0.054772858 -0.013338821
000270 5c ed b3 3c 22 76 b9 bc c9 c8 04 be 28 03 a1 be
       0.021963768 -0.022639338 -0.12967218 -0.3144772
000280 1a 3e 76 3d 06 a4 a3 be 39 1b 22 3d c6 bb 6e 3d
       0.06011782 -0.31961077 0.039576743 0.058284543
000290 78 a4 3b 3e 46 b6 87 3e 85 b2 82 bd ce 08 fc bd
       0.18324459 0.2650625 -0.06381706 -0.12306367
0002a0 e2 d8 bd 3d 42 14 68 bd 7f 74 86 bd 24 7d fa 3d
       0.09269883 -0.056659944 -0.065651886 0.122309
0002b0 46 db a9 bc 39 f7 5a 3d a6 ca 44 be 99 a4 c5 be
       -0.02073444 0.053458426 -0.19217929 -0.3860214
0002c0 5c 6d af bd bf 83 69 3e bf a1 e7 be 4d 5f 9c be
       -0.085657805 0.22804163 -0.4524059 -0.3054146
0002d0 c9 b3 ef 3c 4e c0 14 3e 55 d3 ce 3d 19 3e de 3d
       0.029260533 0.14526483 0.10098902 0.10851688
0002e0 0a f7 1c 3e b2 3c ae 3e 86 59 d5 3c cd 7b 25 3e
       0.15328613 0.34030682 0.026043665 0.16160508
0002f0 dc 8b 66 3e f3 7e 51 3d d2 b0 9e bd 1c 99 bf bd
       0.2251429 0.05114646 -0.077485695 -0.09355375
000300 ad 1a d9 bd b0 70 4b be 4d 63 65 be 8d c2 5a 3e
       -0.10600791 -0.19867206 -0.22401161 0.21363278
000310 13 20 34 be e1 ea d8 3d 38 df 6a bc 75 16 e5 bc
       -0.1759036 0.105916746 -0.014335446 -0.02796481
000320 f0 a3 2b 3e f1 3f 45 be 2b d6 9d be b8 08 39 be
       0.16761756 -0.19262673 -0.3082746 -0.18069732
000330 78 40 89 3c d0 e0 32 be 40 9a 8d 3d ca 42 79 bd
       0.016754374 -0.17468572 0.069141865 -0.06085471
000340 34 a2 b6 be ae 41 a3 bd db b1 ef bd fe e9 99 bd
       -0.35670626 -0.07971512 -0.11703845 -0.075153336
000350 5e 94 eb bd 7b 48 17 be ca 74 4b 3e 2d b7 55 3e
       -0.11502908 -0.14773743 0.1986877 0.20870657
000360 59 2e 3b bd 55 e3 51 bd 74 4f e5 be 4e 79 3b 3e
       -0.045698497 -0.05124219 -0.4478718 0.18307993
000370 01 ff cc 3a 32 18 8d 3d 07 d5 89 3e 9f 27 a3 bd
       0.0015639962 0.068893805 0.2692034 -0.079665415
000380 8d d3 32 bd a3 a6 99 bd 37 f2 ab bd 25 1f dd bd
       -0.04365878 -0.075024866 -0.08395808 -0.10796956
000390 1a 6a 0a be 2f b1 0d be 69 36 46 be bd f0 a8 3e
       -0.13517037 -0.13837121 -0.19356693 0.3299617
0003a0 45 d0 a0 be 2b 27 f4 3d 06 7a 11 be 9f 81 f7 be
       -0.31408897 0.11921533 -0.14206704 -0.4834108
0003b0 50 48 4d 3e de 18 09 bf 2a 43 95 3e 7c 60 09 bf
       0.20047116 -0.5355357 0.29152805 -0.5366285
0003c0 ea b6 ad be a2 2d 83 be ce 8f 1b be 3a 5b e5 3d
       -0.33928615 -0.25620753 -0.15191576 0.11199041
0003d0 f6 18 d4 bc 4f f5 0e 3e 57 ed 7c 3d 51 7c 46 3e
       -0.025890809 0.13960765 0.061749782 0.1938336
0003e0 74 4d c0 bd aa 67 8b 3c 88 bf 76 be d1 64 89 be
       -0.09389773 0.017017204 -0.24096501 -0.2683473
0003f0 7f 34 77 3d 9d fa 8a 3d 80 d8 1f bd 39 04 63 3d
       0.0603528 0.06786082 -0.03902483 0.05542395

lstm.weight_hh_l0_reverse f4 [256, 64]
000000 5e f5 2d 3d ed eb 1c 3d 1c cc f7 bc 2d 0f b8 bd
       0.04247033 0.038310934 -0.030248694 -0.089872696
000010 23 db 8f bd dd 0e 05 be 1d b8 7c 3d 3e b3 27 bb
       -0.07024219 -0.12993951 0.06169902 -0.0025589014
000020 9b ee 17 be f2 5e be 3d aa bf d3 3c 69 af 8a bc
       -0.14837115 0.09295453 0.025848228 -0.016929345
000030 ae 89 c2 bc dd 4e 15 bd 4b 3f 70 3d d0 75 d0 3d
       -0.023747291 -0.036452163 0.05865411 0.10178721
000040 a7 26 db 3c 80 44 d4 3c 83 8d 16 be da c8 29 bd
       0.02675183 0.02591157 -0.1470242 -0.041451313
000050 fd 37 8f 3d 4b c0 d6 bb a5 fe 02 be 21 5a 9f bd
       0.06993101 -0.006553685 -0.12792452 -0.077808626
000060 99 53 02 be b9 78 69 bd 34 5d 40 be f4 74 50 3d
       -0.12727202 -0.056999896 -0.18785554 0.050892785
000070 c3 c4 ac bc e7 af 1c 3a 8d 9a c3 bd 82 57 4f 3d
       -0.021089917 0.0005977139 -0.095509626 0.050620563
000080 dd b7 6b bd c4 ed 68 3c 05 98 d5 3d f0 63 ef bd
       -0.057548393 0.014216844 0.10429386 -0.116889834
000090 f5 49 1a 3d 39 57 92 bb 07 87 e4 3d 64 66 0b bd
       0.037668187 -0.004465964 0.11158567 -0.034033194
0000a0 82 4a f0 bd 82 20 5f 3d 3d f1 f3 bd ce 21 bf bd
       -0.11732961 0.05447436 -0.11911247 -0.093326196
0000b0 a2 6d d4 3d ad 07 ba 3d 6a 16 fb 3c 08 ff 24 bd
       0.10372473 0.09083495 0.030650336 -0.04028228
0000c0 e8 52 b5 3d 6f 5f af 3c f9 26 65 bd e4 91 0f bd
       0.08853704 0.021407811 -0.05594537 -0.03505124
0000d0 eb 24 16 3d e1 68 bd 3d 43 f1 b7 bc aa 4f 9f 3c
       0.0366563 0.0924852 -0.02245391 0.019447166
0000e0 0c 6d ee bc 78 9c 03 3e a6 b4 bd 3d 20 5b 0d 3d
       -0.029104732 0.12852657 0.092629716 0.03451073
0000f0 bd 6e 87 bc 76 57 da 3d 08 ca 11 3d 9e 0f 32 3d
       -0.016532296 0.10661213 0.035593063 0.043471925
000100 bb 82 73 be a0 40 36 be cd 3f 15 3d bd 04 76 bc
       -0.23780338 -0.1779809 0.0364378 -0.015015778
000110 b4 88 40 3d 1d f7 74 3c 3a 4f ac be 8e 6c 2a be
       0.04700537 0.0149514945 -0.33654195 -0.16642973
000120 28 ed 68 bd a3 4e fc 3d 1b 00 b2 3c 76 4c 28 3e
       -0.056866795 0.12319686 0.021728566 0.16435418
000130 d2 7e 1e 3d fc 5a 44 3e 3a a2 d0 bd 59 97 46 be
       0.038695164 0.19175333 -0.10187192 -0.19393672
000140 d7 2a 1b 3e d8 e3 05 bc 8c 20 c3 3e 74 a1 80 3e
       0.15153061 -0.008171998 0.3811077 0.2512318
000150 80 49 90 3e 25 03 d9 bd e1 be 82 3d 75 e3 f4 3d
       0.28181076 -0.10596303 0.063840635 0.119574465
000160 8d 49 79 3d 63 e0 2e 3e f2 2b 2d be b7 dd bb b9
       0.06086116 0.17077784 -0.16911295 -0.0003583261
000170 7b 95 80 3c 29 b0 d1 3d d2 fc 96 3c 99 17 9e 3e
       0.015696278 0.10238678 0.018431101 0.3087738
000180 d6 04 30 b9 79 08 15 bc 58 15 da bc f3 30 33 3e
       -0.0001678647 -0.009096258 -0.026621506 0.17499141
000190 14 37 1e 3f dc a0 0b bd 0d 8a 90 be 74 59 11 be
       0.6180279 -0.034088954 -0.28230324 -0.1419428
0001a0 57 3b 4d bd ee a5 16 be 1a 56 e6 bc e8 b8 67 3e
       -0.05010542 -0.14711735 -0.028117228 0.2262913
0001b0 63 27 7d be 49 fc 61 3d ac ae d2 bd 82 5f b0 bc
       -0.24722056 0.05517224 -0.10287222 -0.021529917
0001c0 ac ca 00 3e 5d 5d 38 be 5a 82 36 bd b0 91 88 be
       0.12577313 -0.18004365 -0.044557907 -0.2667365
0001d0 ab 4e 20 3e bf 2f 89 3e 3f f7 1c 3e 32 8f 1c bd
       0.1565501 0.2679424 0.15328692 -0.0382225
0001e0 66 1a 82 be 4e c1 9c bd f3 55 39 3e c1 4f b7 3d
       -0.25410765 -0.076540574 0.18099193 0.08950759
0001f0 e2 0c 83 bd c4 a3 97 bc 07 78 39 3e ca 66 88 be
       -0.063989416 -0.018510707 0.18112193 -0.26640922
000200 19 94 f4 3d 0f 6a dc bc c3 09 ab bd 42 31 58 bd
       0.1194231 -0.026906041 -0.08351471 -0.05278135
000210 d1 6c 06 be 21 f4 62 bd 09 19 84 bc b8 ef 8c 3c
       -0.13127448 -0.0554086 -0.016125219 0.01720415
000220 76 19 d9 bd b2 e9 f2 3c 38 2f 09 3d 55 07 87 bc
       -0.106005594 0.02965245 0.033492297 -0.016482988
000230 e3 c4 e3 bc 11 82 61 bd b8 0b 96 3c 4c c6 8a bd
       -0.027803844 -0.05505568 0.018316135 -0.067761034
000240 1c db f0 bd 84 49 0c 3e e0 d0 f7 3d 61 a5 e9 3d
       -0.11760542 0.13699919 0.121003866 0.11408497
000250 ff b4 ab 3c 43 30 c1 bd 78 e5 0b 3d 1a 3d 31 bd
       0.02096033 -0.09433033 0.034154385 -0.04327116
000260 7e f3 16 3b 60 1b 23 3d 43 dc 1d 3a df 7e db 3d
       0.0023033316 0.03982103 0.0006021896 0.10717558
000270 ab 77 f4 3d 36 f6 88 3d 24 45 d8 3a 4d 16 02 bc
       0.11936887 0.06687586 0.0016500098 -0.007939887
000280 3e a9 91 bd 9b 1c 04 be be c7 7a bc ce 0d 3b 3d
       -0.071123585 -0.12901537 -0.015306411 0.045667462
000290 18 87 97 bc b3 d0 b1 bd 98 5e 4b be db ac a0 bd
       -0.018497035 -0.08682384 -0.19860303 -0.078454696
0002a0 21 7a 9f bd f8 ce da 3a a5 4a 92 bd 4d 8c 1a bd
       -0.07786966 0.0016693762 -0.071431436 -0.037731458
0002b0 85 30 0c be 9c 7c 7a bc a8 e5 da bd c3 d8 a0 3c
       -0.13690384 -0.015288498 -0.10688335 0.01963461
0002c0 94 96 db bd ae c1 8a bd 56 ed 1a 3d 19 96 24 3e
       -0.1072208 -0.06775223 0.037823997 0.16072883
0002d0 60 98 a0 3d 97 49 21 3c e3 61 a5 bc 6f 53 e9 bc
       0.07841563 0.009844205 -0.020188278 -0.028482167
0002e0 22 07 6e 3d bb f2 8e bd 4a 8f 99 bd cc 21 fe bd
       0.05811227 -0.06979891 -0.07498033 -0.1240879
0002f0 e3 70 10 3e e7 7e 3d 3e 98 e0 50 bc fc 00 9f 3d
       0.14105563 0.1850544 -0.01274886 0.0776386
000300 15 8d 33 be 1e e5 20 3e 19 10 a5 3d b7 24 69 bc
       -0.17534287 0.15712401 0.08059711 -0.014229945
000310 fb fd 98 bd 1f 72 d6 bd 15 4b 48 3d 6c e4 fd 3d
       -0.07470318 -0.104709856 0.04889973 0.12397084
000320 78 eb 81 3d 39 64 b0 bc 69 20 b8 bd 14 d9 db bd
       0.0634374 -0.021532165 -0.08990557 -0.10734764
000330 b2 8c 62 3d 92 ba 46 3e 96 3f 6c bd df c2 87 3d
       0.05530996 0.19407108 -0.057677828 0.066289656
000340 6c 29 3f 3d e3 d1 c9 3d 4b d8 02 be d3 26 5a bd
       0.046670362 0.09854486 -0.12777822 -0.053259682
000350 75 ea aa 3d e7 76 89 bd 99 51 2c be 8c a1 b0 bd
       0.083455004 -0.06712132 -0.16828002 -0.086245626
000360 55 b6 80 bd 87 07 d9 bc 71 cd 0b 3d 60 6c 31 3d
       -0.06284777 -0.026492847 0.03413147 0.043316245
000370 09 c1 82 bd 76 8d 38 bd 99 ec 1a be c0 48 19 3e
       -0.06384475 -0.045056783 -0.15129317 0.14969158
000380 93 ca 44 3d b7 1e 84 bb 8a 45 36 bc 54 91 28 bd
       0.048044752 -0.004031982 -0.011124978 -0.04115422
000390 27 77 2c 3d ab 76 55 bd fa 4b 7d 3d 4e 92 54 bd
       0.04210582 -0.052115124 0.061840035 -0.05189734
0003a0 90 ff 13 be d9 5c da ba 1c de 1e 3e 8f a9 62 bb
       -0.14452958 -0.0016659751 0.15514416 -0.0034585928
0003b0 14 49 fc 3d 02 22 16 bc 34 60 07 3e e8 d0 d5 3d
       0.12318626 -0.0091633815 0.13220292 0.10440236
0003c0 10 85 84 3d 3c fc 13 3e 5b 8c 75 bd 24 a3 0e be
       0.06470692 0.14451689 -0.059948307 -0.1392942
0003d0 68 0e be 3d 61 6c 8c bd 8a 90 33 3d 56 1f 60 bd
       0.092800915 -0.06856609 0.043839015 -0.054717384
0003e0 07 a1 1b 3e db e5 3e 3e 9c 7f 8d 3d 85 d1 53 3d
       0.15198146 0.1864237 0.06909105 0.051713485
0003f0 41 02 2c be 75 5e cf 3d 24 e0 87 bc b6 af 79 3b
       -0.16797735 0.10125438 -0.01658637 0.0038099117

lstm.bias_ih_l0_reverse f4 [256]
000000 54 cb 6c bd 01 40 2e 3e 5c 3c a5 3d 56 cc 3c be
       -0.057811096 0.17016603 0.08068153 -0.18437323
000010 8c 2f 98 bd 29 dd ec 3d 27 62 06 bd 92 5c ae 3d
       -0.07430944 0.115656205 -0.03280845 0.0851375
000020 fe 93 48 be e2 73 0e 3d 83 82 21 3e 26 f7 0d be
       -0.19587705 0.034778483 0.15772443 -0.13863811
000030 79 ae d0 3c f6 22 c5 3f 68 2d 97 be 66 e2 e2 be
       0.02547382 1.5401294 -0.2952683 -0.44313353
000040 f3 93 b8 3e 0a c8 b0 be 2d a1 1f bd dd ef 0b bd
       0.36050376 -0.34527618 -0.03897207 -0.0341643
000050 6e 00 f1 3e 70 44 be bd 80 a4 c6 be 74 7d 3b 3f
       0.4707064 -0.09290397 -0.3879738 0.732383
000060 23 09 07 3e f0 27 55 3c 8b 49 79 3e c4 da 00 be
       0.13187079 0.01301001 0.2434446 -0.12583452
000070 ee 2a 9d bd 76 75 f4 b9 ca f1 37 bd 1f 3b 41 be
       -0.07674204 -0.00046626822 -0.044908322 -0.18870209
000080 e6 4f 8e bd 54 69 8d 3d be d2 66 bd 92 02 83 3d
       -0.06948833 0.06904855 -0.056353323 0.063969746
000090 76 de 77 bc f9 00 ba bd bd 72 38 3e 65 91 e8 be
       -0.015128722 -0.09082217 0.18012519 -0.45423427
0000a0 5b 57 4a 3d 99 d8 09 3d 92 3c 34 be 73 22 4a bf
       0.049399715 0.03365383 -0.1760123 -0.78958815
0000b0 2f 4e c9 bd 1e 97 30 bd 8e 70 e8 3d f1 c5 42 be
       -0.098293655 -0.043112867 0.11349593 -0.19020821
0000c0 c9 85 a5 3d 1e b7 d3 3e c7 52 76 bd 6a 4e 17 be
       0.08082158 0.41350645 -0.060137536 -0.14776006
0000d0 f1 13 9f 3e 04 1d f5 3e 23 80 15 3f 92 83 ae bd
       0.31069902 0.478737 0.58398646 -0.08521189
0000e0 bd 9e c1 3d 12 93 f7 3c d5 65 8b 3b f0 0c 26 3d
       0.09454105 0.030221496 0.0042540827 0.040539682
0000f0 ff f0 46 be ee 53 5e bd d8 8a 6c be a7 df c5 bd
       -0.1942787 -0.05427926 -0.2309984 -0.09661799
000100 15 ee c1 bd 43 61 f5 3d e2 25 12 3d 99 b8 4b bc
       -0.09469239 0.11981442 0.03568066 -0.012434148
000110 12 6c fb bc 62 32 84 3d 8b 48 5c be c4 f9 7b 3e
       -0.03069118 0.06454922 -0.21512048 0.24606997
000120 e6 a7 52 be 2a 0e 1d bd 87 f5 2d bd 55 2a 2d be
       -0.2057186 -0.038343586 -0.04247048 -0.1691068
000130 ff 81 38 be 99 d6 6f 3d 1a f6 67 be eb 4e 98 bc
       -0.1801834 0.058554266 -0.22652474 -0.018592319
000140 b2 c0 78 bd ba bd cf bc 45 32 29 be 0e d9 8a 3e
       -0.060730644 -0.025359023 -0.16523083 0.27118725
000150 8b 87 82 be cd 53 ed 3d 28 c0 78 be ed a6 49 3e
       -0.25494036 0.11588249 -0.24292052 0.19692583
000160 ec c2 84 3e 8c 36 9b 3e 1b 6c 31 3b c4 85 54 3d
       0.25929964 0.30315053 0.0027072493 0.05188538
000170 25 da e4 bd 69 fd 09 3d e7 a0 f5 3d f4 6b 3a be
       -0.1117442 0.033688936 0.1199358 -0.18205243
000180 a2 bb 61 bd f8 b3 2a 3c bc dd 06 3e 88 51 ae 3b
       -0.05511058 0.010418884 0.13170522 0.005319778
000190 44 04 38 bd 8d ca 93 bd d2 27 16 3e 33 f4 a6 bc
       -0.044925943 -0.07216368 0.14663628 -0.020380115
0001a0 dd 93 31 be 95 99 27 be 10 5f fe 3d 30 ba 23 be
       -0.17341562 -0.1636718 0.124204755 -0.15988994
0001b0 66 66 99 3c 88 c0 18 3c f4 41 2a be d0 87 84 bd
       0.018725585 0.009323247 -0.16626722 -0.06471217
0001c0 56 d1 32 be ed 96 4f be 04 74 bd 3c 27 10 06 bd
       -0.17462668 -0.20272417 0.02312661 -0.032730248
0001d0 16 b9 ff bc d0 9a dc 3b e9 0a 0f be 48 81 11 bd
       -0.031216186 0.0067323223 -0.13969006 -0.035523683
0001e0 46 d3 f0 3d 54 f5 b6 3e fa 68 d4 bd 09 41 8c bd
       0.11759047 0.35734046 -0.10371585 -0.06848342
0001f0 87 76 22 bc bb 26 68 bd 38 0b 83 be 39 fd a4 be
       -0.009915954 -0.05667756 -0.25594497 -0.32224444
000200 c9 18 0c 3e 85 82 a4 3c b0 74 0f 3e 25 4b 05 3e
       0.1368133 0.020081768 0.14009356 0.13016947
000210 2d e4 42 3d 60 0c bc 3c 12 18 00 bf 1e 52 a7 bc
       0.047580887 0.02295512 -0.5003673 -0.020424899
000220 2b 31 95 bd ab d4 f2 3d 40 60 3d be 23 10 33 bd
       -0.07284769 0.118569694 -0.18493748 -0.04371656
000230 44 d2 69 be bb c9 4b be 1c 6e 3b be b8 46 17 3e
       -0.22834116 -0.19901173 -0.18303722 0.14773071
000240 26 4b 52 3d a5 0d 70 3d 3e 21 0c bb ab cc e3 3d
       0.0513412 0.058606762 -0.0021382119 0.11123022
000250 c9 02 3b bd 07 93 d9 3a 89 c7 2e be 17 f2 71 3e
       -0.045656953 0.0016599604 -0.17068304 0.23627506
000260 ec c7 ea 3d 27 9e 3d bd 04 0d 31 be 78 5b 57 be
       0.11463913 -0.046293404 -0.17290121 -0.21030986
000270 3b d7 84 be 69 a6 de 3d 07 d0 07 3e 57 cd 0c be
       -0.25945458 0.10871584 0.1326295 -0.13750206
000280 a2 7b d3 bb 50 a0 7e be 6b a0 c8 3d f1 34 fd 3d
       -0.006453947 -0.24865842 0.09796222 0.123636134
000290 7b 4d 34 bf 49 b7 13 bd 9e 2a 04 be 37 dd 3d 3d
       -0.70430726 -0.036063466 -0.12906882 0.046353545
0002a0 07 c7 09 3e 49 39 6e 3e ad a2 51 3d 9a 16 2f 3e
       0.13454829 0.2326404 0.05118053 0.17098466
0002b0 85 75 3c bd 04 6b 8b 3d 99 d0 56 bd 7c 33 1b bd
       -0.046010513 0.06807521 -0.052445028 -0.037890896
0002c0 2b 18 5e bc 35 8e 31 bc 99 8a 09 3d 35 e9 8b be
       -0.013555567 -0.010837127 0.033579443 -0.2732636
0002d0 c4 6f 1d bd de 07 39 3d 4b 44 d9 bd ea 0d 0c 3e
       -0.038436666 0.04517352 -0.10608729 0.13677183
0002e0 58 0c 40 be 64 59 75 be b6 f4 cc 3d 1d f8 ab 3d
       -0.18754709 -0.23959881 0.100076124 0.08396933
0002f0 53 8d 86 3d c9 9a d5 bd c1 21 c5 3d 1e 53 13 bd
       0.06569924 -0.104299136 0.09625579 -0.03596794
000300 3b b5 01 bc 34 20 53 3e cc a7 ee bc da 56 15 be
       -0.007916744 0.20617753 -0.029132746 -0.14583912
000310 51 a5 3f bc e6 75 8a be 3f ca 5a 3e 57 ce a9 3e
       -0.011697129 -0.27043074 0.21366213 0.33165237
000320 3c 56 83 bf 8d 3f f6 bd 88 9f 63 3e 00 92 8a bd
       -1.0260692 -0.1202384 0.22228825 -0.067661285
000330 67 dc 08 bd 59 df b4 bc d1 9b 9a be 2a 55 f4 bd
       -0.033413317 -0.022079157 -0.30197003 -0.11930306
000340 2a 38 af 3d 62 5f d0 bc f7 ed 03 bf ba c7 f6 3d
       0.08555634 -0.025436107 -0.5153498 0.120498136
000350 02 92 93 be 2c e4 eb bc 21 45 4d 3d b4 3d 88 3e
       -0.28822333 -0.028795324 0.050114755 0.26609576
000360 ff d3 a3 3f a3 43 58 3f 50 a0 a5 3e 2d 08 4c 3d
       1.2799071 0.84478205 0.3234887 0.049812485
000370 d2 da 4e 3e be d4 98 bc e4 0a 87 bd 51 9f b6 be
       0.20200661 -0.01865613 -0.06593874 -0.35668424
000380 76 3a 65 be 51 6e 53 bf 67 45 2c be aa 52 9a bc
       -0.22385582 -0.82590204 -0.1682335 -0.018838245
000390 50 8e 92 3d a8 b5 a5 3c a8 23 8b 3e d8 8b 28 bf
       0.0715605 0.020228222 0.2717564 -0.65838385
0003a0 56 e6 d1 bd 5f 27 16 be c4 0f 39 3d 58 2b 6c bf
       -0.10249011 -0.14663456 0.04518105 -0.9225364
0003b0 9b 9e 0f 3e 79 c2 54 bc 98 81 ff 3e bb bf 3d 3c
       0.14025347 -0.012985819 0.4990356 0.011581357
0003c0 09 b1 3e bf e7 2c 4b 3e 0d b9 56 be 44 c7 ce be
       -0.74488884 0.19841348 -0.20969029 -0.40386403
0003d0 44 56 51 bd 97 15 58 3e ad a5 6d 3e 13 76 c8 bd
       -0.05110766 0.21101986 0.23207732 -0.09788146
0003e0 7c c2 5a 3e 04 6d ab 3f 2f 59 a4 bd 03 cf b1 3d
       0.21363252 1.3392644 -0.08024823 0.086820625
0003f0 21 64 91 bd 0c 87 eb 3c 29 b1 71 bf 02 7a aa 3e
       -0.07099176 0.028750919 -0.9441095 0.3329621
