Competition/TrainAI/model/s/BILSTM_weights.pth (torch, 613819 bytes, 18 tensors)

lstm.weight_ih_l0 f4 [256, 36]
0	0x3d6074b9	0.054798815
1	0x3f9d2463	1.2276729
2	0x3e66379f	0.22482155
3	0xbf0cb3eb	-0.54962033
4	0x3ed38672	0.4131351
5	0x3f37d5bb	0.718105
6	0xbecaabb4	-0.39584124
7	0x3ebb478c	0.36578023
8	0x3f4a597a	0.7904278
9	0x3da01e30	0.07818258
10	0x3e9013be	0.28140062
11	0x3de459c1	0.11149932
12	0x3e849f05	0.25902572
13	0x3e50117d	0.20319171
14	0x3d5fd57e	0.05464696
15	0xbe7564c0	-0.23964214
16	0x3f89d06d	1.0766732
17	0xbe233c66	-0.15941009
18	0x3f89bcb9	1.0760719
19	0xbe084a96	-0.13309702
20	0xbea4e138	-0.32203078
21	0xbe9a39ff	-0.30122373
22	0xbec20970	-0.37897825
23	0x3e678b08	0.2261163
24	0xbdd6118d	-0.10452566
25	0x3d409c99	0.047024343
26	0xbda2038b	-0.07910832
27	0xbeb295f4	-0.3488003
28	0x3ca07f7a	0.019592036
29	0xbe7f666a	-0.24941412
30	0x3db3e18f	0.08783256
31	0xbf092b23	-0.53581446
32	0x3c854448	0.01626791
33	0x3ea256e5	0.3170692
34	0x3e576833	0.21035843
35	0x3e5db265	0.21650083
36	0xbe2827a8	-0.16421378
37	0xbec8581d	-0.39129725
38	0x3e5fd055	0.21856816
39	0x3ded5229	0.115879364
40	0xbe9c2be0	-0.30502224
41	0xbefa77c3	-0.48919496
42	0x3da7a187	0.08185106
43	0xbdd5aeb7	-0.10433715
44	0xbe780799	-0.24221648
45	0x3dd88e82	0.10574056
46	0x3dd62ef4	0.10458174
47	0x3e1ff8e1	0.15622284
48	0xbdabd2f2	-0.08389844
49	0x3dd36c93	0.10323443
50	0x3e5d3c4a	0.2160503
51	0x3e3ace4d	0.1824276
52	0xbe18bcf0	-0.14915824
53	0x3e773dfb	0.24144737
54	0xbca78cdd	-0.020452911
55	0x3e3ece35	0.18633349
56	0xbc0aba23	-0.00846723
57	0x3e32b2ea	0.17451063
58	0xbe3691ab	-0.17829005
59	0x3e3c342d	0.18379278
60	0xbd50d896	-0.050987802
61	0xbd710239	-0.05884001
62	0xbd26f2bc	-0.040758833
63	0x3e3dd579	0.18538465
64	0xbdf9dc03	-0.12200167
65	0x3cda92f8	0.026681408
66	0xbda05ac9	-0.07829816
67	0x3d2319ba	0.039819457
68	0xbe0de2aa	-0.13855997
69	0xbc99e5b1	-0.018786283
70	0x3ee58a95	0.44832292
71	0x3eafb6d2	0.34319168
72	0x3e4924e6	0.19642982
73	0x3d3893a9	0.045062695
74	0x3d8c7b40	0.068594456
75	0xbe402e4a	-0.18767658
76	0xbd9a9f7f	-0.07549953
77	0x3d6e0769	0.058112536
78	0xbeacaa2a	-0.33723575
79	0xbe221a49	-0.1583034
80	0x3d235d5c	0.039883956
81	0x3d88ad84	0.066737205
82	0xbca518f8	-0.020153508
83	0xbdf5d380	-0.12003231
84	0x3d2e01e8	0.042482287
85	0xbd3c8c2d	-0.04603212
86	0xbdd609b8	-0.104510725
87	0xbe77e6a3	-0.24209075
88	0xbcca2ae3	-0.024678653
89	0xbe16ced3	-0.14727335
90	0x3d62a21d	0.055330385
91	0x3dc8f544	0.09812406
92	0xbe5a38cf	-0.21310733
93	0xbd93e993	-0.07222285
94	0xbd4b8c29	-0.049694214
95	0x3e8510b9	0.2598932
96	0x3d2059d8	0.03914818
97	0x3e785cb1	0.24254109
98	0x3c9eec2c	0.019399725
99	0xbea33414	-0.3187567
100	0xbbd25d3a	-0.006419805
101	0xbe56f19b	-0.20990603
102	0x3d70d71e	0.0587989
103	0xbe3206d2	-0.17385414
104	0xbd8b3d7e	-0.06798838
105	0x3d90742f	0.0705341
106	0xbdbffe31	-0.09374655
107	0x3d28ac49	0.04117993
108	0xbd38f1d3	-0.045152497
109	0x3f30e3ca	0.6909758
110	0xbd9adbfa	-0.075614884
111	0x3edad597	0.4274108
112	0x3f9092fe	1.1294858
113	0x3f8ef340	1.1167984
114	0x3f0a18fb	0.5394437
115	0x3f8eb96b	1.1150335
116	0x3f920718	1.1408415
117	0x3c885227	0.016640736
118	0x3c4c52a3	0.012470874
119	0xbc0c91d8	-0.008579694
120	0xbd221c1f	-0.0395776
121	0xbc061008	-0.008182533
122	0x3d09183d	0.03347038
123	0x3f93fe11	1.156191
124	0x3f55d115	0.8352216
125	0x3f9a42cb	1.2051634
126	0x3f69515b	0.91139764
127	0xbe3c9614	-0.18416625
128	0xbda2861d	-0.07935736
129	0x3e2a8491	0.16652133
130	0x3e23341b	0.15937845
131	0xbe401648	-0.187585
132	0x3e00d4ba	0.12581149
133	0xbe663226	-0.22480068
134	0x3d325a70	0.04354328
135	0xbe8d147b	-0.27554688
136	0x3ea3ce35	0.3199326
137	0xbe4565ba	-0.19277087
138	0x3e390d8f	0.18071578
139	0x3e2bc7e0	0.16775465
140	0x3e34da0a	0.176613
141	0x3ebe4b9a	0.37167054
142	0xbd3b8428	-0.04578033
143	0x3c3d37a6	0.011548912
144	0x3e12ffa5	0.14355333
145	0x3d53b4d6	0.05168613
146	0xbcfadd3b	-0.030623069
147	0xbd8e2015	-0.06939713
148	0xbe30f7ac	-0.1728198
149	0x3d8afae6	0.06786136
150	0xbdd15125	-0.10220555
151	0xbdc63749	-0.096785136
152	0x3d83380d	0.06407175
153	0x3da9d6fb	0.082929574
154	0xbd9cd93f	-0.07658624
155	0xbbfb59cf	-0.007670618
156	0x3ccd6060	0.02507037
157	0xbcceacc9	-0.025228875
158	0xbe2daf95	-0.1696151
159	0xbd070917	-0.032967653
160	0xbe6b1d31	-0.22960354
161	0xbc3a57d5	-0.01137348
162	0xbe3d5381	-0.18488885
163	0xbe93c250	-0.28859186
164	0x3e6e3804	0.23263556
165	0x3d8fa6c7	0.07014232
166	0xbca5063a	-0.02014457
167	0x3d072eed	0.033003736
168	0x3d60ad16	0.054852568
169	0x3ad5961c	0.0016295346
170	0xbc8b8ba5	-0.017034361
171	0x3de5360a	0.11191948
172	0xbda6c79d	-0.08143542
173	0xbdca1d22	-0.09868838
174	0xbd48c3dc	-0.04901491
175	0x3d1a8ee6	0.037733935
176	0x3de07a56	0.10960834
177	0xbd7068f3	-0.058693837
178	0x3e35a524	0.17738777
179	0xbda58c17	-0.08083361
180	0xbcc96c5f	-0.024587808
181	0x3dd62132	0.1045555
182	0x3e60b9ba	0.21945849
183	0xbf093141	-0.5359078
184	0xbeabd8ba	-0.33563787
185	0x3da8cf72	0.08242692
186	0xbf2d3a72	-0.67667305
187	0xbe8803fa	-0.26565534
188	0x3da90445	0.082527675
189	0xbe3bece3	-0.18352084
190	0xbe13108d	-0.14361782
191	0x3e1fa68a	0.15590873
192	0xbdd09c9b	-0.1018612
193	0xbe89b44e	-0.26895374
194	0x3de630c2	0.112397686
195	0x3e233b52	0.15940598
196	0xbebcd69b	-0.3688248
197	0x3ebb0f4f	0.36535117
198	0xbee125d2	-0.43974167
199	0x3dd7c615	0.10535828
200	0xbe183676	-0.14864525
201	0x3e035080	0.12823677
202	0xbf0b1406	-0.5432743
203	0xbb49bf87	-0.0030784325
204	0x3ce7b1a8	0.028282955
205	0x3dafe075	0.08587734
206	0x3e2cae4b	0.16863362
207	0x3deb7152	0.114962235
208	0xbf1a63f3	-0.6030876
209	0x3ccbea40	0.024891973
210	0xbe90e6e7	-0.28301165
211	0xbeb1b271	-0.34706452
212	0xbddb4791	-0.107070096
213	0x3ed83792	0.42229897
214	0x3e7fa87b	0.24966614
215	0x3e373b9b	0.17893831
216	0xbd38b91e	-0.045098417
217	0xbc5d0ba2	-0.013491543
218	0x3e2d4e19	0.16924323
219	0xbe2931c3	-0.16522889
220	0xbea4a3f8	-0.32156348
221	0xbeb05a3c	-0.34443843
222	0xbe667719	-0.2250637
223	0xbe9cb645	-0.3060781
224	0xbe92a5b4	-0.28642046
225	0xbd19b1b3	-0.037522983
226	0xbe99afe9	-0.3001702
227	0xbe2fb7c7	-0.17159949
228	0xbe62c141	-0.22144033
229	0xbe9ff9f5	-0.3124539
230	0xbe63b1f5	-0.22235854
231	0xbe42afaa	-0.19012323
232	0x3d776a69	0.060404215
233	0xbe9dc8b3	-0.30817184
234	0x3d2f1a7e	0.042749874
235	0xbe2c680d	-0.16836567
236	0x3d8e8b25	0.069601335
237	0x3e037bbc	0.1284017
238	0xbd56d6b5	-0.052450854
239	0x3d326e28	0.043562084
240	0xbdc57838	-0.096420705
241	0xbcc8d988	-0.02451779
242	0xbe1d4431	-0.15358044
243	0xbd5c34ec	-0.053761408
244	0xbd80ecf1	-0.06295193
245	0xbdb023b7	-0.08600562
246	0xbe08084a	-0.13284412
247	0xbda5f63f	-0.08103608
248	0x3c9d79e8	0.019223168
249	0xbe922154	-0.28541052
250	0x3e96589f	0.29364488
251	0x3e226891	0.15860201
252	0xbb02a905	-0.001993717
253	0xc0339469	-2.8059332
254	0xbf734e37	-0.9504122
255	0xbf155268	-0.58328867

lstm.weight_hh_l0 f4 [256, 64]
0	0xbe169288	-0.14704335
1	0xbdcc965a	-0.09989615
2	0xbe6377e5	-0.22213705
3	0xbe9cfb5b	-0.3066052
4	0x3d92960f	0.07157528
5	0x3dc55068	0.09634477
6	0xbe0ff909	-0.14059843
7	0x3ea6c77f	0.32574078
8	0x3e069d7d	0.13146015
9	0xbf2d4e2c	-0.67697406
10	0xbdf7bc65	-0.1209648
11	0xbda67f2c	-0.08129725
12	0xbd8e7989	-0.06956775
13	0xbe3313c8	-0.17488015
14	0xbe139044	-0.14410502
15	0x3e973126	0.29529685
16	0x3e31f106	0.173771
17	0xbe8423be	-0.2580852
18	0xbdbd5dd8	-0.09246415
19	0x3ce55968	0.027996734
20	0xbbbf2f67	-0.005834508
21	0xbd7e7389	-0.0621219
22	0x3e45ce0d	0.19316883
23	0x3ddd4b71	0.10805405
24	0xbddf8cec	-0.109155506
25	0x3e6e5001	0.23272707
26	0xbdb2e332	-0.0873474
27	0x3d302ba5	0.043010373
28	0xbb9db731	-0.004813098
29	0x3dd4dd74	0.10393801
30	0x3ea04273	0.31300697
31	0x3e3ef309	0.18647398
32	0x3e35e026	0.17761287
33	0xbe5e09ff	-0.216835
34	0xbe7e2fc8	-0.24822915
35	0xbe482549	-0.19545473
36	0x3dbbf9e7	0.091785245
37	0xbddda42e	-0.108223304
38	0xbe1677e8	-0.14694178
39	0x3df9bd41	0.121943004
40	0xbdc53dcd	-0.09630928
41	0xbe901007	-0.28137228
42	0x3e49c28c	0.1970312
43	0xbd862145	-0.065493144
44	0x3d860a51	0.065449364
45	0xbe378b00	-0.17924118
46	0xba546754	-0.00081025553
47	0x3eb0440e	0.34426922
48	0x3e015985	0.12631805
49	0x3ebaf01c	0.36511314
50	0xbe95144e	-0.29117054
51	0x3e85217a	0.26002103
52	0xbd620979	-0.055184815
53	0xbe9087e2	-0.2822867
54	0xbe18c913	-0.14920454
55	0xbd4cb2b5	-0.049975116
56	0x3e5cd3fc	0.2156524
57	0xbe3de348	-0.18543732
58	0xbd45dfe0	-0.048309207
59	0x3e86ee0d	0.26353493
60	0xbdb67309	-0.0890866
61	0xbe116e0a	-0.14202133
62	0x3e8b4e53	0.27208194
63	0xbdbefb81	-0.09325314
64	0xbe1ce5d5	-0.15322049
65	0xbe1e56e7	-0.15462838
66	0x3dd0d1a6	0.10196237
67	0x3ceb86ba	0.028750766
68	0x3d84e651	0.06489242
69	0xbddc0ffd	-0.10745237
70	0x3ccf4073	0.025299286
71	0x3e4942da	0.19654408
72	0xbc80a3fa	-0.01570319
73	0x3c989947	0.018627776
74	0xbbf018a0	-0.0073271543
75	0x3dc66383	0.09686949
76	0x3cc4a8b5	0.024006227
77	0x3d5a6507	0.053319003
78	0xbca5a4a2	-0.020220105
79	0x3c44d765	0.012014245
80	0xbb8ccaaa	-0.0042966204
81	0xbe00e3cf	-0.12586902
82	0xbd878d77	-0.06618779
83	0xbe21856e	-0.15773556
84	0xbd5d8f83	-0.05409194
85	0xbd8a3352	-0.0674807
86	0x3e182222	0.1485677
87	0xbdbc3cae	-0.09191261
88	0xbceaeb0f	-0.028676538
89	0xbd59c8fc	-0.05317019
90	0x3d0aee9e	0.03391897
91	0xbdd1a672	-0.10236825
92	0x3d27f74a	0.041007318
93	0x3d1951f1	0.03743166
94	0xbd9bbe2e	-0.07604633
95	0x3b844b24	0.004037278
96	0x3cc0c810	0.023532897
97	0xbe185ef5	-0.14879973
98	0x3e5d554a	0.21614566
99	0x3e14bbc9	0.1452476
100	0x3e055ec1	0.13024427
101	0x3da87437	0.08225291
102	0xbd98823b	-0.074467145
103	0x3e2b6bf7	0.16740404
104	0xbe730ba2	-0.23734906
105	0x3dd988b9	0.10621781
106	0x3d882da7	0.066493325
107	0x3e038ce9	0.12846722
108	0x3dfd9b9b	0.12383195
109	0xbe52b1db	-0.20575659
110	0xbddde1fb	-0.10834118
111	0xbcf99a5b	-0.03046911
112	0xbd56c1ee	-0.05243104
113	0xbda9edee	-0.082973346
114	0x3c0dddb7	0.008658818
115	0xbe35c7f1	-0.17752053
116	0x3e546030	0.20739818
117	0xbe1881b1	-0.14893223
118	0xbdc4d607	-0.09611135
119	0xbccb85f7	-0.024844153
120	0xbda5103f	-0.08059739
121	0xbac46e6a	-0.0014986519
122	0x3d36d537	0.04463693
123	0x3e8534dc	0.2601689
124	0xbd7c9347	-0.061663892
125	0x3e0a5c8d	0.13511868
126	0x3e897361	0.2684584
127	0xbcbec253	-0.02328602
128	0x3da87701	0.08225823
129	0x3e0a81ff	0.13526152
130	0x3c92525d	0.01786154
131	0x3d8d9e38	0.069149435
132	0xbde07125	-0.109590806
133	0x3e849e4f	0.2590203
134	0xbe24228c	-0.16028804
135	0xbe991e0f	-0.29905745
136	0xbde892b1	-0.11356104
137	0xbd2430a7	-0.04008546
138	0x3d049d16	0.03237637
139	0x3dd30cdb	0.10305186
140	0x3dcc6af3	0.099813364
141	0x3d8cea36	0.0688061
142	0x3dc3cd78	0.095606744
143	0x3c31c90e	0.010851158
144	0xbe54a997	-0.20767818
145	0xbc6ed688	-0.014577515
146	0xbe23bc88	-0.15989888
147	0xbdb0beb4	-0.08630124
148	0xbd1251eb	-0.035722654
149	0x3d75447d	0.05987977
150	0xbde53812	-0.11192335
151	0xbda3d0d0	-0.07998812
152	0x3d697dd9	0.057004783
153	0xbdee28b4	-0.11628857
154	0x3d279be6	0.04092016
155	0x3de49201	0.111606605
156	0xbdc07479	-0.093972154
157	0xbd2092ad	-0.03920238
158	0xbcd884be	-0.026430484
159	0xbe0b09f1	-0.13578011
160	0x3dbf8263	0.09351041
161	0x3e19b05c	0.15008682
162	0xbe25b2bf	-0.16181467
163	0xbd94ee8a	-0.0727206
164	0x3e50ba02	0.20383456
165	0xbcbdacd6	-0.023153704
166	0x3e5c4dbc	0.21514028
167	0xbd3bf45d	-0.04588734
168	0xbda89a40	-0.08232546
169	0x3e3e22b6	0.18567929
170	0x3c187bdd	0.009306875
171	0x3cfef15f	0.031120954
172	0x3baf96b6	0.0053585423
173	0x3de13317	0.10996073
174	0x3e4ea32f	0.20179437
175	0xbcef1c6d	-0.02918836
176	0x3e1d3d67	0.15355454
177	0xbc646d94	-0.013942141
178	0x3c8b2083	0.016983276
179	0xbd060166	-0.032716177
180	0x3d8c9007	0.068634085
181	0xbd46f120	-0.0485698
182	0x3d559ce3	0.052151572
183	0xbdb3f2b9	-0.0878653
184	0x3e267536	0.1625565
185	0xbd8f34be	-0.06992482
186	0xbe0e62f7	-0.1390494
187	0xbe1a180d	-0.15048237
188	0xbd950a34	-0.07277337
189	0xbdb1b6bc	-0.08677432
190	0xbc9b8ed9	-0.018989014
191	0x3e436f3b	0.190854
192	0x3ecb8e01	0.39756778
193	0xbd343413	-0.043994974
194	0xbe50479e	-0.2033982
195	0xbe9933b1	-0.2992225
196	0x3e12a7d5	0.14321835
197	0x3e52d9b2	0.20590857
198	0xbe8cac11	-0.27475026
199	0x3ed79c28	0.42111325
200	0xbe358047	-0.17724715
201	0xbec7fbb5	-0.39059225
202	0xbc071a34	-0.008245993
203	0x3d35ce7a	0.044386365
204	0xbdaed99d	-0.085376
205	0xbc4e4405	-0.012589459
206	0xbd84f86c	-0.06492695
207	0xbc867766	-0.016414355
208	0x3e811924	0.25214493
209	0xbdf07c12	-0.117424145
210	0x3dc41f56	0.09576289
211	0xb9f94afb	-0.00047548846
212	0x3d35e614	0.044408873
213	0x3e9ba7ff	0.30401608
214	0x3e8efbb7	0.27926418
215	0x3d38ee67	0.045149233
216	0xbd337fbd	-0.043822993
217	0xbe2e2cd7	-0.17009293
218	0x3e745ed0	0.23864293
219	0x3ed06a4c	0.40706098
220	0x3da93f7c	0.08264062
221	0xbeb16ff3	-0.34655723
222	0xbe5e60d7	-0.21716629
223	0xbe1ea2d1	-0.15491797
224	0x3d1902a5	0.037356038
225	0xbe851977	-0.2599599
226	0x3e3aea99	0.18253554
227	0xbee28506	-0.44242114
228	0x3e0ced1f	0.1376233
229	0xbd3a85e7	-0.045537855
230	0xbc593d3d	-0.013259229
231	0x3e92ef99	0.28698424
232	0xbe074723	-0.1321073
233	0xbdd3ede0	-0.103481054
234	0x3e3c1999	0.1836914
235	0x3e06aae3	0.13151126
236	0xbc30bbe2	-0.010786982
237	0xbdfe6c27	-0.12422972
238	0xbe51929e	-0.20466086
239	0xbd62da94	-0.055384234
240	0xbe7f886a	-0.24954382
241	0x3d7e597e	0.062097065
242	0x3cb96a73	0.022633767
243	0x3ed8e652	0.4236322
244	0xbe131b9e	-0.14366004
245	0xbddf28fd	-0.1089649
246	0x3e1f0f78	0.15533245
247	0x3e8c6008	0.27417016
248	0x3ca2a255	0.019852797
249	0xbe94bada	-0.29048806
250	0x3ebd989f	0.37030503
251	0x3efdffe0	0.4960928
252	0xbe4bef0d	-0.1991541
253	0xbe419d81	-0.18907739
254	0x3e131d42	0.1436663
255	0xbe46b640	-0.1940546

lstm.bias_ih_l0 f4 [256]
0	0xbece56cd	-0.403006
1	0xbd7b6893	-0.061379027
2	0x3ce127f4	0.027484871
3	0xbeb31248	-0.34974885
4	0xbd53d3f2	-0.0517158
5	0x3c593af5	0.013258685
6	0xbe26eb06	-0.16300592
7	0x3f07866b	0.5293948
8	0xbcee5a0d	-0.029095674
9	0xbdca283f	-0.098709576
10	0xbd4423be	-0.04788565
11	0xbafd04ce	-0.00193038
12	0xbdf8b59f	-0.121440165
13	0xbca68fd7	-0.02033226
14	0xbde47b6f	-0.111563556
15	0xbe3818c2	-0.17978194
16	0x3ebb3ed0	0.3657136
17	0x3f5b612b	0.8569514
18	0xbe320be8	-0.17387354
19	0xbe1671c4	-0.14691836
20	0xbc5e8b5b	-0.01358303
21	0x3ddef48b	0.108864866
22	0xba0ce9c1	-0.0005375408
23	0x3ee66882	0.45001608
24	0xbe4336b3	-0.19063835
25	0xbdb57aac	-0.088612884
26	0xbdf83a84	-0.12120536
27	0x3e3f9dc4	0.18712527
28	0x3dc3798c	0.095446676
29	0xbd8adad5	-0.0678002
30	0xbdb1daa1	-0.08684278
31	0x3ef8b7db	0.4857777
32	0x3c6505c2	0.013978424
33	0x3dbce39a	0.09223099
34	0x3ddbc93f	0.10731744
35	0x3e6e37e9	0.23263516
36	0xbe2ad704	-0.16683584
37	0xbd8e7e3f	-0.06957673
38	0x3ed70e4d	0.42003098
39	0x3b36d0e9	0.0027895516
40	0x3dda2e41	0.106533535
41	0x3ec02d4c	0.3753456
42	0x3ee2354a	0.4418128
43	0x3d8f12bd	0.06985996
44	0x3c524f07	0.012836224
45	0x3e759993	0.23984365
46	0x3d8d8a55	0.0691115
47	0xbab246ff	-0.0013601481
48	0x3dd0ab93	0.10188975
49	0xbf2a5397	-0.665338
50	0x3eb6ccac	0.35703027
51	0xbeae7bef	-0.3407893
52	0xbd577e42	-0.052610643
53	0xbdae9945	-0.085253276
54	0xbe2f5f37	-0.17126165
55	0xbbf9a8e6	-0.007619011
56	0xbdfa004c	-0.12207088
57	0xbe61d674	-0.22054464
58	0xbe4c8ee5	-0.19976385
59	0x3ec58a95	0.38582292
60	0x3cfa2b7b	0.030538311
61	0xbc31c7be	-0.010850845
62	0x3de955bf	0.11393308
63	0x3e15ec09	0.14640822
64	0xbe063563	-0.13106303
65	0xbdea9b6b	-0.11455425
66	0xbe163b70	-0.14671111
67	0xbe266da1	-0.16252758
68	0x3c1bebb3	0.009516644
69	0xbe14698c	-0.14493388
70	0xbe05344a	-0.13008228
71	0x3ced3236	0.028954607
72	0x3e08713a	0.13324443
73	0xbe44e0c2	-0.19226363
74	0xbd97ab4e	-0.07405721
75	0x3e199b84	0.15000731
76	0x3bd8bf52	0.006614604
77	0xbe2d9986	-0.16953096
78	0xbdec92fc	-0.115514725
79	0x3c86aa9d	0.016438777
80	0x3f54cb17	0.8312239
81	0xbe5c835c	-0.21534485
82	0xbd589f83	-0.052886497
83	0x3d710e83	0.05885173
84	0xbdf8af0f	-0.12142765
85	0xbcdc48e8	-0.026890233
86	0xbe93410b	-0.2876056
87	0xbd5dc8f4	-0.054146722
88	0x3d1eec4c	0.03879957
89	0xbe764d7d	-0.24052997
90	0xbe291762	-0.16512826
91	0xbdd81f7c	-0.1055288
92	0x3dd6edaf	0.10494553
93	0x3dc0aa80	0.0940752
94	0xbcbc01a2	-0.022949997
95	0xbe1b5a0a	-0.15171066
96	0x3dfda9af	0.1238588
97	0x3e21dbcc	0.15806502
98	0xbc1d9a77	-0.009619347
99	0xbd11fa06	-0.03563883
100	0x3d26e21c	0.04074298
101	0x3dcc7d7d	0.099848725
102	0x3e826f3e	0.25475496
103	0x3e0eb7d0	0.13937306
104	0xbe9e6e4f	-0.30943534
105	0x3e4cd843	0.20004372
106	0x3da9ed5e	0.08297227
107	0xbe0cdb02	-0.1375542
108	0xbd93802f	-0.072021835
109	0x3e233b91	0.15940692
110	0xbd5a5ec6	-0.05331304
111	0xbe632dba	-0.22185412
112	0xbe95c575	-0.2925221
113	0xbf88fff5	-1.0703112
114	0xbdd5be8a	-0.10436733
115	0xbe3ec777	-0.18630777
116	0x3e8726f4	0.26396906
117	0xbe491bfc	-0.19639581
118	0xbe020c57	-0.1270002
119	0x3d288500	0.041142464
120	0xbca7f787	-0.020503772
121	0xbe8e5b4b	-0.27804026
122	0xbdd9cccc	-0.10634765
123	0xbec6eda4	-0.3885318
124	0xbd76d30f	-0.060259875
125	0x3d6aa707	0.057288196
126	0x3e57a779	0.2105998
127	0xbd58ef2a	-0.05296246
128	0x3db59735	0.08866731
129	0x3e0ba72e	0.13637993
130	0x3e177f84	0.14794737
131	0xbcd2f536	-0.025751691
132	0xbe1b906d	-0.15191813
133	0xbe22bb74	-0.1589182
134	0x3e1f8df5	0.15581496
135	0xbc6fdd89	-0.01464022
136	0x3e0fe1fe	0.14051053
137	0xbd1fb93d	-0.038995016
138	0xbd51e856	-0.051246963
139	0xbe10b060	-0.14129782
140	0x3e058d29	0.1304213
141	0x3d31dc85	0.043423194
142	0x3df7dd64	0.12102774
143	0xbd2c2d90	-0.04203564
144	0xbe4ae78f	-0.19814895
145	0x3d8561c6	0.065127894
146	0xbc9e582f	-0.019329159
147	0x3e211be8	0.15733302
148	0xbd172933	-0.036904525
149	0xbd5a60ac	-0.05331485
150	0xbecd3135	-0.40076604
151	0xbd44f7ca	-0.048087873
152	0x3e100610	0.14064813
153	0x3e5eedef	0.21770452
154	0xbe248523	-0.16066413
155	0x3c163f3b	0.009170349
156	0x3cea846a	0.028627593
157	0x3ac1b538	0.0014778739
158	0x3b8cb480	0.004293978
159	0x3d5740bb	0.052551966
160	0x3daece96	0.08535497
161	0x3e4ca420	0.19984484
162	0x3dbf31eb	0.09335693
163	0x3b8ca21f	0.0042917873
164	0xbdb2b22d	-0.087253906
165	0x3e2c90fe	0.16852185
166	0x3e92aeb4	0.28648913
167	0xbf91f8d1	-1.1404058
168	0xbe20d2ab	-0.15705363
169	0xbcbfa4a3	-0.023393935
170	0xbd88788b	-0.06663617
171	0xbd253d70	-0.040341794
172	0xbd937611	-0.07200254
173	0x3e071f52	0.13195542
174	0x3db58bd5	0.088645615
175	0xbe0ecc84	-0.13945204
176	0x3d7760fb	0.060395222
177	0xbdad0bbf	-0.08449506
178	0xbdcbfe27	-0.09960585
179	0xbc9d649b	-0.019213011
180	0x3c879d73	0.01655457
181	0xbe2677ad	-0.1625659
182	0xbe1ac685	-0.15114792
183	0xbe179b3c	-0.14805311
184	0xbe7e3bd5	-0.24827512
185	0xbd914846	-0.07093863
186	0xbd5054c9	-0.050862107
187	0xbe08fea8	-0.13378394
188	0x3dfdd65f	0.12394404
189	0xbd46d990	-0.048547328
190	0xbd0eb500	-0.034840584
191	0xbd357a66	-0.04430618
192	0xbf50207f	-0.81299585
193	0xbe923618	-0.28556895
194	0x3d7eb778	0.06218669
195	0x3de13dbb	0.10998102
196	0xbd43c276	-0.047792874
197	0xbe161db2	-0.14659765
198	0xbd9a2c40	-0.07527971
199	0x3dcad9c6	0.09904818
200	0x3cadcd27	0.021215988
201	0x3f072c73	0.528022
202	0xbe27e649	-0.1639644
203	0xbd6218a5	-0.055199284
204	0xbdb1624a	-0.08661325
205	0xbe57e45a	-0.21083203
206	0xbdf44bad	-0.119284965
207	0xbcb914e6	-0.022592973
208	0x3dcd6e24	0.10030773
209	0xbda78651	-0.08179916
210	0xbe262d1d	-0.16228147
211	0xbe9e08a5	-0.3086597
212	0x3cb5b17c	0.022179358
213	0xbc112df5	-0.008861055
214	0x3fe3807b	1.7773584
215	0xbdbf7c40	-0.09349871
216	0xbdc96312	-0.09833349
217	0xbd4bc352	-0.04974682
218	0xbe8182bb	-0.25295052
219	0xbf79df25	-0.97606117
220	0x3f876d23	1.0580181
221	0xbbefffa0	-0.007324174
222	0xbd8e5f19	-0.06951732
223	0xbefa84f4	-0.4892956
224	0xbdeefc44	-0.116692096
225	0x3f910024	1.1328168
226	0x3cef2a18	0.029194877
227	0x3f13e67b	0.5777356
228	0xbd4148d7	-0.047188606
229	0x3d9d93e4	0.076942235
230	0x3e97ba4e	0.29634327
231	0xbc39c60f	-0.011338725
232	0xbd6aead7	-0.057352867
233	0x3e2e742f	0.17036508
234	0x3e6ebeef	0.23315023
235	0xbe6972f9	-0.22797765
236	0xbe7f14ef	-0.2491033
237	0x3f2947ba	0.6612507
238	0xbdce9c34	-0.10088387
239	0xbf6920ae	-0.9106549
240	0x3e3946dd	0.18093438
241	0x3a8706c3	0.0010301698
242	0xbda559d4	-0.08073774
243	0xbf2f2e5e	-0.68430126
244	0x3e6c859b	0.23097841
245	0xbdafa39c	-0.08576128
246	0xbca50c7b	-0.020147553
247	0x3d9274ee	0.07151209
248	0xbe162874	-0.14663869
249	0xbec853c9	-0.39126423
250	0xbe9e5ee9	-0.30931786
251	0xbe07203f	-0.13195895
252	0xbedeec20	-0.43539524
253	0x3e452e64	0.19255978
254	0x3f5a82e8	0.85356
255	0x3ed0a1cf	0.4074845

lstm.bias_hh_l0 f4 [256]
0	0xbeb60059	-0.3554714
1	0xbdae9e46	-0.08526282
2	0x3db8fa1e	0.09032081
3	0xbe8f19c9	-0.2794936
4	0x3d02cdfe	0.03193473
5	0xbd5d97ca	-0.054099835
6	0xbe3873a0	-0.18012857
7	0x3f054a2d	0.5206631
8	0xbdadf721	-0.08494402
9	0xbdfbc11b	-0.12292691
10	0xbd97b5bc	-0.0740771
11	0xbcf263ab	-0.029588541
12	0xbe9f5ba3	-0.311246
13	0xbe0402fa	-0.1289176
14	0xbe106d35	-0.14104159
15	0xbc0db644	-0.008649413
16	0x3eb3eeb2	0.35143048
17	0x3f4f9737	0.8109011
18	0xbe0e8bfc	-0.13920587
19	0xbdd49094	-0.103791386
20	0xbdaa9079	-0.08328337
21	0x3dfde3b7	0.12396949
22	0x3d15ba7a	0.03655479
23	0x3f1f6f93	0.62279624
24	0xbeaa2c79	-0.33237055
25	0xbdbf178e	-0.093306646
26	0xbe9094e3	-0.28238592
27	0x3dacb4eb	0.08432945
28	0x3dfb1678	0.12260145
29	0x3da00224	0.07812908
30	0xbb0c9ec2	-0.0021456932
31	0x3eb3337b	0.35000214
32	0x3dbbf3bd	0.09177349
33	0x3d926ef7	0.07150071
34	0x3dd14d72	0.1021985
35	0x3e708bfb	0.23490898
36	0xbdfeea19	-0.12446994
37	0xbdc5ac10	-0.09651959
38	0x3efb0fb3	0.49035415
39	0x3d467dfa	0.048459984
40	0xbc34f66d	-0.011045081
41	0x3e4a43f7	0.19752489
42	0x3ef2b2ac	0.4740194
43	0x3d243883	0.040092956
44	0xbd912ee8	-0.07089025
45	0x3e64b32d	0.22333975
46	0x3e3639e6	0.17795524
47	0xbe27df4d	-0.16393776
48	0xbce270f1	-0.027641745
49	0xbf32b7d8	-0.69811773
50	0x3de56776	0.11201374
51	0xbe1b7953	-0.15183
52	0x3cd4d459	0.025980162
53	0xbc5770e1	-0.013149471
54	0xbe42de03	-0.19030003
55	0xbd9c005a	-0.076172546
56	0xbde18278	-0.11011213
57	0xbe710d7c	-0.235403
58	0xbe90f56f	-0.2831225
59	0x3e8a9571	0.2706714
60	0x3c59cd25	0.013293539
61	0x3dc0accb	0.09407958
62	0x3d96a191	0.07355035
63	0x3e5c57fd	0.2151794
64	0xbde6d1a4	-0.112704545
65	0xb937db7b	-0.00017534003
66	0xbd1859d7	-0.037195053
67	0xbe760a75	-0.24027427
68	0xbd2ac69b	-0.04169331
69	0xbe667c98	-0.22508466
70	0xbdb42ec1	-0.0879798
71	0x3d87cfc6	0.066314265
72	0x3da6cb96	0.081443
73	0xbe19460a	-0.14968124
74	0xbd9c41d6	-0.07629745
75	0x3dc77531	0.09739149
76	0xbe1376bd	-0.14400764
77	0xbe2322fc	-0.15931314
78	0xbd31962c	-0.043356106
79	0xbdc0c064	-0.094116956
80	0x3f542cad	0.8288067
81	0xbe2230fe	-0.15839002
82	0xbe11421e	-0.14185378
83	0xbd0e729e	-0.034777276
84	0xbe27c890	-0.16385102
85	0x3daa9af1	0.08330334
86	0xbe094404	-0.13404852
87	0x3cddce91	0.027076038
88	0x3d338591	0.04382855
89	0xbe7d8bf7	-0.24760424
90	0xbd6752cf	-0.056475457
91	0x3c97c358	0.018525764
92	0xbc18747a	-0.009305114
93	0xbca0cd7b	-0.01962923
94	0xbd3a8dcf	-0.045545395
95	0xbe3773e6	-0.17915305
96	0x3c612722	0.01374224
97	0x3e773570	0.24141479
98	0xbe1c8d5e	-0.15288302
99	0x3ce38c92	0.02777699
100	0xbd9533fe	-0.07285307
101	0x3d127201	0.035753254
102	0x3e42cfa8	0.19024527
103	0xbc1315c3	-0.008977356
104	0xbd9d5990	-0.07683098
105	0x3e3f65a7	0.18691121
106	0x3d5bd7df	0.053672668
107	0xbde4f014	-0.11178604
108	0xbd727aa4	-0.05919899
109	0x3dcd235c	0.1001651
110	0x3e08ceb2	0.13360098
111	0xbe4ecc84	-0.20195204
112	0xbd946d9a	-0.07247467
113	0xbf92f85a	-1.1482041
114	0x3d3b9c4e	0.04580336
115	0xbd9ba3e5	-0.0759962
116	0x3e26c472	0.16285875
117	0xbe839f3b	-0.2570742
118	0xbd5b9f48	-0.0536187
119	0x3e1f91d3	0.15582971
120	0xbc7a14b6	-0.015263727
121	0xbe86f9a6	-0.26362342
122	0xbdfb72f0	-0.12277782
123	0xbe95e0cb	-0.29273066
124	0xbe689289	-0.22712149
125	0x3e1c989d	0.15292592
126	0x3df69892	0.12040819
127	0xbe02e3c3	-0.12782197
128	0x3e3dcc39	0.18534936
129	0x3deeac1b	0.1165392
130	0x3da0ea39	0.078571744
131	0x3de46b15	0.11153237
132	0x3bdc3728	0.0067204423
133	0x3d8175a5	0.06321267
134	0xbda27e2e	-0.07934223
135	0xbc98db51	-0.018659266
136	0x3db6d34b	0.0892702
137	0xbd3c0baf	-0.04590958
138	0x3d299934	0.04140587
139	0xbe9b85b0	-0.30375433
140	0x3dabb259	0.083836265
141	0x3cdab27e	0.02669644
142	0xbbca6d82	-0.006177605
143	0xbcb2eddc	-0.021841936
144	0xbe8863d1	-0.26638654
145	0x3e8aebbf	0.27132985
146	0x3e03c6e9	0.12868847
147	0x3dc003f1	0.09375752
148	0x3d92ce00	0.07168198
149	0xbde666e1	-0.11250091
150	0xbed21021	-0.4102793
151	0xbdbbf603	-0.091777824
152	0x3dd7caae	0.10536705
153	0x3d096444	0.033542886
154	0xbd82d298	-0.06387824
155	0xbddf16e0	-0.10893035
156	0xbced8ecd	-0.028998757
157	0x3e18bc9d	0.149157
158	0x3dd92a12	0.106037274
159	0xbe381913	-0.17978315
160	0xbdd0acc0	-0.101891994
161	0x3d755888	0.059898883
162	0x3d7d195b	0.06179176
163	0x3d4b42ba	0.049624182
164	0x3cf9c479	0.030489193
165	0x3dbb6e21	0.09151865
166	0x3d71799f	0.058953878
167	0xbf80e3f3	-1.0069565
168	0xbc436b40	-0.011927426
169	0x3d9abf9f	0.0755608
170	0xbe90f7cd	-0.28314057
171	0xbdb1e0ca	-0.08685453
172	0x3d262313	0.040560793
173	0x39cd268f	0.00039129375
174	0x3d9a21e7	0.075259976
175	0xbe1fdc82	-0.15611461
176	0x3d2ee8bd	0.042702425
177	0xbe87ab08	-0.26497674
178	0x3c1a47cd	0.009416533
179	0xbde9249d	-0.113839366
180	0x3da056d6	0.07829063
181	0xbd5525cf	-0.05203801
182	0xbe1a06fb	-0.15041725
183	0xbe8b197e	-0.27167886
184	0xbdfd5232	-0.12369193
185	0x3d9a36fb	0.07530018
186	0xbcb97db6	-0.022642951
187	0xbc23f71a	-0.010007644
188	0x3e594f3a	0.21221629
189	0xbceb0839	-0.028690444
190	0xbe786775	-0.24258216
191	0xbc63f41a	-0.013913179
192	0xbf5e285d	-0.8678034
193	0xbe225f33	-0.15856628
194	0x3d7c728c	0.061632678
195	0x3e068771	0.13137604
196	0x3b097c04	0.002097846
197	0xbdff7a1c	-0.124744624
198	0xbe02e655	-0.12783177
199	0x3d781ed5	0.06057628
200	0xbd50f37e	-0.051013462
201	0x3f0b62ed	0.54447824
202	0xbdce37ab	-0.100692116
203	0x3e25911a	0.16168633
204	0xbdfd0ab4	-0.12355557
205	0xbdf442cc	-0.11926803
206	0xbd912237	-0.07086604
207	0xbcebe1ed	-0.028794253
208	0x3e60b606	0.21944436
209	0xbd14aa1f	-0.036295053
210	0xbd1e918a	-0.038713016
211	0xbdc45c86	-0.0958796
212	0xbe144aa6	-0.14481601
213	0xbc3bd996	-0.011465451
214	0x3ff67959	1.9255782
215	0xbc372939	-0.011179262
216	0x3da99a22	0.082813516
217	0xbcc80b2c	-0.02441939
218	0xbdc53840	-0.096298695
219	0xbf632e6f	-0.8874273
220	0x3f83739f	1.026966
221	0xbd19a076	-0.037506543
222	0x3d10931b	0.03529654
223	0xbeca9723	-0.39568433
224	0x3d553511	0.05205256
225	0x3f9304b8	1.1485815
226	0x3e084dfe	0.13311002
227	0x3f0ed7a3	0.55797786
228	0xbcf1303b	-0.029441943
229	0x3dccdd5e	0.1000316
230	0x3e421d21	0.18956424
231	0x3e112b2b	0.14176624
232	0xbd947434	-0.072487265
233	0x3e6cd5c7	0.23128425
234	0x3e022603	0.12709813
235	0xbe341617	-0.17586552
236	0xbe85d6fb	-0.2614058
237	0x3f47a3b4	0.77984166
238	0xbe00157e	-0.12508199
239	0xbf468a39	-0.7755466
240	0x3d8dd2f8	0.06925005
241	0x3e388a4c	0.18021506
242	0x3d577f53	0.05261166
243	0xbf525c5b	-0.82172173
244	0x3da92e11	0.082607396
245	0xbe2c457f	-0.16823386
246	0xbc7a65b0	-0.015283033
247	0x3e68eb72	0.22746065
248	0xbe712715	-0.23550065
249	0xbe862e91	-0.26207402
250	0xbe7f6dda	-0.24944249
251	0xbe314014	-0.173096
252	0xbf10fbfc	-0.566345
253	0x3dc737ed	0.09727464
254	0x3f812e42	1.0092242
255	0x3f140414	0.5781872

lstm.weight_ih_l0_reverse f4 [256, 36]
0	0xbd052341	-0.032504324
1	0x3d86705a	0.06564398
2	0xbe64d1d5	-0.2234567
3	0xbe8e24ef	-0.27762553
4	0x3f3e6488	0.7437215
5	0x3f4ab4c6	0.7918209
6	0xbe77d4f7	-0.24202333
7	0x3f2ca6b0	0.67441845
8	0x3f72ad31	0.9479552
9	0x3e856d51	0.26059964
10	0x3ea6ae0b	0.3255466
11	0xbd9889dc	-0.074481696
12	0xbe9f192b	-0.3107389
13	0xbef43b1c	-0.47701347
14	0xbef2d2ad	-0.47426358
15	0x3eccfeb3	0.4003807
16	0x3f8e03d5	1.109492
17	0x3f160d84	0.58614373
18	0x3f9e6e4c	1.237741
19	0x3f4c609f	0.7983493
20	0xbf532b28	-0.82487726
21	0xbe9654b7	-0.29361507
22	0x3d4d5fd8	0.05014023
23	0x3f2b2aae	0.66862
24	0xbedade63	-0.42747793
25	0x3f210db5	0.6291154
26	0xbe88a9d8	-0.2669208
27	0xbf5a5f4a	-0.8530165
28	0x3eab6571	0.3347583
29	0xbf4a31bc	-0.7898214
30	0x3e8a23fb	0.26980576
31	0x3e9ce845	0.30645958
32	0x3e3d6186	0.18494233
33	0xbf0b7719	-0.54478604
34	0xbdeafaf7	-0.11473649
35	0xbf251f73	-0.6450111
36	0x3e4cf5b6	0.20015606
37	0xbf1103f6	-0.5664667
38	0x3f01130a	0.50419676
39	0xbd01b48e	-0.03166633
40	0xbe4ec9d7	-0.20194183
41	0xbe920ae7	-0.28523943
42	0xbd932586	-0.071848914
43	0xbd5d0b3d	-0.053965796
44	0xbd64156b	-0.05568449
45	0xbe6443d8	-0.22291505
46	0xbeac3677	-0.33635303
47	0xbe14486d	-0.14480753
48	0xbe0a073c	-0.13479322
49	0xbe9dd25d	-0.30824557
50	0x3c8ba8f6	0.01704834
51	0xbeea7408	-0.4579165
52	0xbae02b60	-0.001710277
53	0xbea779d1	-0.32710126
54	0x3e0b0453	0.13575868
55	0xbe13cc7f	-0.14433478
56	0x3dc6a3ff	0.096992485
57	0xbe1530c1	-0.1456938
58	0x3e34f3fd	0.17671199
59	0x3c94cd2f	0.018164245
60	0xbe92c6ff	-0.28667447
61	0x3d422b56	0.04740461
62	0xbdad1a38	-0.084522665
63	0xbda58f8d	-0.08084021
64	0x3e10589c	0.14096302
65	0xbe018d6a	-0.12651601
66	0x3e41cb3d	0.18925186
67	0x3ec41060	0.38293743
68	0x3d20654e	0.03915911
69	0x3edea6a3	0.4348651
70	0xbe070ba3	-0.13188033
71	0x3ebac201	0.36476138
72	0xbe2f3382	-0.17109492
73	0x3b83e155	0.0040246644
74	0xbe2f2f05	-0.1710778
75	0xbe77e520	-0.24208498
76	0x3dece6b0	0.11567438
77	0x3e03782c	0.1283881
78	0xbe7adcef	-0.24498342
79	0x3db4cfcc	0.088286966
80	0x3cc67c9d	0.024229342
81	0x3e432417	0.19056736
82	0xbdb8da4c	-0.09026012
83	0xbe09be51	-0.13451506
84	0xbdf5cac0	-0.12001562
85	0xbde43858	-0.11143559
86	0xbe0bcbd2	-0.1365197
87	0xbebc00b7	-0.36719295
88	0xbca17b17	-0.019712014
89	0xbe8a674a	-0.27031928
90	0xbc8de364	-0.017320342
91	0x3e3b0d28	0.18266737
92	0x3bde4c3f	0.0067839916
93	0xbe4dd9bc	-0.2010259
94	0xbe552e9c	-0.20818561
95	0xbd621b00	-0.05520153
96	0xbdc3db2a	-0.095632866
97	0xbd087eee	-0.033324175
98	0xbd152eca	-0.036421575
99	0xbd5308fc	-0.05152224
100	0xbe31a62d	-0.17348547
101	0x3cf46b72	0.02983639
102	0x3d49bc2d	0.049251724
103	0x3e596610	0.2123034
104	0xbd4e2d6a	-0.05033628
105	0x3e478eb6	0.19488034
106	0xbe57a066	-0.21057281
107	0xbda89944	-0.08232358
108	0xbdcaea4c	-0.0990797
109	0x3e0ab68b	0.13546197
110	0x3d9f194c	0.07768497
111	0x3d9b7fc5	0.075927295
112	0x3d82f0a0	0.06393552
113	0x3bde249b	0.006779266
114	0x3d4d211c	0.050080404
115	0x3d29bfde	0.041442744
116	0x3d76a68b	0.06021742
117	0xbd02ab2d	-0.031901527
118	0xbb14648e	-0.0022642943
119	0x3d1bfb3c	0.038081393
120	0xbe9ed5f9	-0.31022623
121	0xbe31a881	-0.17349435
122	0xbe2a9322	-0.16657689
123	0xbd86d52b	-0.06583627
124	0xbdcd06d7	-0.1001107
125	0xbab78eb3	-0.001400432
126	0xbe28e9c7	-0.16495429
127	0xbe036c3a	-0.12834254
128	0x3e93f6f8	0.2889936
129	0xbe43122f	-0.19049905
130	0x3d229c37	0.03969976
131	0xbd077a68	-0.03307572
132	0xbeb1ca93	-0.34724864
133	0xba86f09e	-0.0010295098
134	0xbdd51a3a	-0.10405393
135	0x3cd5e67f	0.026110886
136	0x3d4e6e69	0.050398264
137	0x3d99f168	0.07516748
138	0x3dc35f47	0.09539657
139	0xbe5ba528	-0.21449721
140	0x3db57f9c	0.0886223
141	0x3ddada7f	0.10686206
142	0xbde4a087	-0.11163431
143	0xbdc19a1e	-0.09453224
144	0x3de5bb3d	0.112173535
145	0x3cf442c8	0.029817
146	0xbdd2f498	-0.10300559
147	0x3daaaab4	0.0833334
148	0x3cf4271e	0.029803809
149	0x3def2349	0.11676652
150	0xbda01e71	-0.07818306
151	0x3d836a46	0.064167544
152	0xbdfe1d72	-0.1240796
153	0xbe18f584	-0.14937407
154	0xbe675a57	-0.22593056
155	0xbe246739	-0.16055001
156	0x3d7041ee	0.058656625
157	0x3d8cc4f3	0.068735026
158	0x3ba5c166	0.0050584553
159	0x3e604ae8	0.21903574
160	0xbd984385	-0.07434753
161	0x3e5267fc	0.2054748
162	0xbdd08a22	-0.10182597
163	0x3d41686c	0.047218725
164	0xbe8111c6	-0.25208873
165	0x3e2c0e1c	0.16802257
166	0xbe83a3f1	-0.25711015
167	0xbde2c65c	-0.1107299
168	0x3e48bba8	0.19602835
169	0xbcca88f9	-0.024723517
170	0x3d02c535	0.031926353
171	0xbdade15a	-0.08490248
172	0xbe83b23d	-0.25721923
173	0xbd893522	-0.066995874
174	0xbe34abc9	-0.17643656
175	0x3e4164df	0.18886136
176	0xbc84bd2a	-0.016203482
177	0xbcff8fa9	-0.031196432
178	0xbe96d62d	-0.29460278
179	0x3cc4ca36	0.024022203
180	0xbe223377	-0.15839945
181	0x3dd0e018	0.101989925
182	0x3e08e352	0.13367966
183	0x3e5ca343	0.21546654
184	0x3ca4b2f8	0.02010487
185	0xbe70e168	-0.23523486
186	0x3ebcd6f8	0.36882758
187	0xbcbc6daf	-0.02300152
188	0xbe90b68a	-0.28264266
189	0xbc8f6dfe	-0.017508503
190	0x3cf9feb3	0.030516958
191	0xbc3d3b3d	-0.011549768
192	0x3e0e3e10	0.13890862
193	0x3d7707ae	0.06031006
194	0xbdab1b12	-0.083547726
195	0xbe45e3da	-0.193252
196	0x3dd9f908	0.10643202
197	0xbc357599	-0.011075401
198	0x3cf843b7	0.030305726
199	0xbe76f2d4	-0.24116069
200	0x3dc5f529	0.09665901
201	0x3e4a4583	0.19753079
202	0xbe2595b2	-0.16170385
203	0xbce11b87	-0.027478946
204	0x3ea7c342	0.32766157
205	0x3daaa3d5	0.0833203
206	0x3d6e8980	0.0582366
207	0x3db0e212	0.086368695
208	0xbdafcda8	-0.08584148
209	0x3da54819	0.08070392
210	0xbd980f44	-0.07424787
211	0xbd9387a4	-0.07203606
212	0xbcfdc14e	-0.030975964
213	0x3e2bcc92	0.16777256
214	0x3e73726d	0.23774119
215	0x3c8cf455	0.01720635
216	0x3d6e69a1	0.058206204
217	0x3edf6131	0.4362884
218	0x3ccf41a3	0.025299853
219	0x3e0e9f41	0.13927938
220	0x3f088697	0.5333037
221	0x3f2c8d20	0.6740284
222	0x3e18f655	0.14937718
223	0x3eb2367b	0.3480719
224	0x3f2a7114	0.66578794
225	0xbdd5aea7	-0.10433703
226	0x3da4f1b7	0.08053916
227	0x3e4c515a	0.19952908
228	0xbe18717b	-0.1488704
229	0x3d451b7b	0.04812191
230	0x3e45fc68	0.19334567
231	0x3f0d0ca4	0.55097413
232	0x3ec7678e	0.38946193
233	0x3f09072b	0.5352656
234	0x3e8bf3e4	0.2733451
235	0x3bcf4dfe	0.006326436
236	0xbde2d8ba	-0.110764936
237	0x3d8894c5	0.066690005
238	0xbd0d7a1d	-0.034540284
239	0xbe4f9056	-0.20269904
240	0x3e019f34	0.12658387
241	0xbd07fc54	-0.033199623
242	0xbd4111b3	-0.04713602
243	0xbea1d43b	-0.31607231
244	0x3e3a3b2f	0.18186639
245	0xbd4bd661	-0.049764995
246	0x3db4a381	0.088202484
247	0x3d57cdb5	0.052686412
248	0xba9482a2	-0.0011330436
249	0x3e54e432	0.20790175
250	0xbe310adf	-0.17289303
251	0xbe85db23	-0.2614375
252	0x3dd5c3a7	0.10437708
253	0x3db9b520	0.0906775
254	0x3d000fbc	0.031265005
255	0xbdb63f4b	-0.08898791

lstm.weight_hh_l0_reverse f4 [256, 64]
0	0xbfbfca20	-1.4983559
1	0xbbbe4cd0	-0.0058074966
2	0x3dcbb711	0.099470265
3	0xbd19bb05	-0.03753187
4	0x3d2efeb9	0.04272339
5	0xbe0a7b10	-0.13523507
6	0x3f687dc2	0.9081689
7	0xbf8148f0	-1.0100384
8	0xbe0f12fa	-0.13972083
9	0xbe5e188e	-0.21689054
10	0xbd107531	-0.035268012
11	0x3bb41ef3	0.0054968535
12	0x3daf0d7f	0.08547496
13	0xbdab960c	-0.083782285
14	0x3e6d00b6	0.23144802
15	0x3f4ce997	0.8004393
16	0xbc569d22	-0.013098987
17	0x3f4b6cb9	0.7946277
18	0xbd9abca2	-0.0755551
19	0xbe81c07b	-0.25342163
20	0xbdc55e55	-0.09637133
21	0x3e2b892d	0.16751547
22	0x3e99efa2	0.30065638
23	0x3c8adc58	0.016950771
24	0x3a1afe56	0.0005912533
25	0xbd91841e	-0.071052775
26	0x3d8584a9	0.065194435
27	0x3e82e6e3	0.25566778
28	0xbcd459d0	-0.025921732
29	0xbf26da4e	-0.65176857
30	0xbef552d0	-0.47914743
31	0xbe071e80	-0.13195229
32	0xbe8966ab	-0.26836142
33	0x3e689f12	0.2271693
34	0x3e6baee4	0.23015934
35	0x3e69db3d	0.22837539
36	0xbe4c0f5b	-0.19927733
37	0xbe36dcd3	-0.17857675
38	0xbda94068	-0.08264238
39	0xbf194c00	-0.5988159
40	0xbdbf2774	-0.09333697
41	0x3d828fc9	0.06375081
42	0xbe6a30be	-0.22870156
43	0xbb4a8d64	-0.003090703
44	0xbe2c3efe	-0.16820905
45	0xbee31aff	-0.44356534
46	0x3e5d83dd	0.21632333
47	0x3cb86295	0.022507945
48	0xbd52cf10	-0.051467
49	0x3db27a04	0.08714679
50	0x3dca0fe7	0.098663144
51	0x3da848e8	0.08217031
52	0xbdca1457	-0.09867161
53	0x3e03b0d7	0.12860428
54	0xbd85440b	-0.06507119
55	0xbf2293be	-0.63506687
56	0xbf1c312e	-0.6101254
57	0xbcb40962	-0.02197713
58	0xbf1c1fde	-0.60986125
59	0x3f15f56b	0.58577603
60	0x3f34cbc0	0.706234
61	0x3db1a71f	0.08674454
62	0x3d6c2dfd	0.057661045
63	0xbd6937f4	-0.056938127
64	0x3e120dfe	0.1426315
65	0xbe9190f0	-0.2843089
66	0x3e048903	0.12942891
67	0x3cc13f29	0.023589687
68	0xbdb4fbb7	-0.08837073
69	0x3d4d81d5	0.050172646
70	0xbe152b39	-0.1456727
71	0x3c3f4c6a	0.011675933
72	0xbf0c436f	-0.54790395
73	0x3deab747	0.11460739
74	0x3e3cc2d2	0.18433693
75	0xbe08020f	-0.13282035
76	0x3cd02a84	0.025410898
77	0x3d84b95d	0.06480668
78	0xbe0c2a0b	-0.13687913
79	0x3d8490d3	0.064729355
80	0x3d396ef9	0.045271847
81	0xbcaa5ef2	-0.020797227
82	0x3be33ab5	0.0069344887
83	0xbd443952	-0.047906227
84	0xbe54d9cc	-0.20786208
85	0x3d141d0c	0.036160514
86	0xbe56a71a	-0.20962182
87	0x3ded036e	0.1157292
88	0xbcdb0d79	-0.026739823
89	0x3d9da5b9	0.07697625
90	0x3e1fce94	0.15606147
91	0xbcfd172a	-0.030894835
92	0x3d685331	0.056719963
93	0x3e8fdf9b	0.28100285
94	0xbdee101e	-0.11624168
95	0xbc38ac61	-0.011271567
96	0xbde7bc08	-0.11315161
97	0xbe026ce1	-0.12736847
98	0xbe8820f0	-0.2658763
99	0x3d8e1480	0.06937504
100	0xbd3e42f6	-0.046450578
101	0x3d12146e	0.035664015
102	0xbd6fc631	-0.05853862
103	0xbda8ec11	-0.08248151
104	0x3e608970	0.21927428
105	0x3e036210	0.12830377
106	0xbd2a019c	-0.04150544
107	0x3db34251	0.08752883
108	0xbd9fe9ac	-0.07808241
109	0x3df44abf	0.11928319
110	0xbc79e56b	-0.015252451
111	0x3d7dcbde	0.061962
112	0x3c81fb49	0.015866892
113	0x3d4a9f66	0.04946842
114	0xbe14e9ea	-0.14542356
115	0x3ccd2d60	0.02504605
116	0xbc32f35b	-0.010922278
117	0xbdc5ded6	-0.09661643
118	0xbe18ac42	-0.14909461
119	0x3d3db93f	0.046319243
120	0xbd91f745	-0.07127241
121	0x3e47817b	0.19482987
122	0x3e34eb49	0.17667879
123	0x3de1eb2b	0.11031183
124	0x3d9d1ff9	0.07672114
125	0x3b9305f6	0.0044867946
126	0xbe027112	-0.12738445
127	0xb9354874	-0.00017288496
128	0xbdb4700d	-0.088104345
129	0x3d1b14bd	0.037861574
130	0xbde4bfe9	-0.111694165
131	0x3e1684b5	0.14699061
132	0xbdb7fad6	-0.0898339
133	0xbdfe0c04	-0.124046355
134	0x3d8b3d4a	0.06798799
135	0xbdb63155	-0.08896128
136	0xbd8800a9	-0.06640751
137	0xbdac869d	-0.08424113
138	0xbb212eb5	-0.002459449
139	0xbdc14ccb	-0.09438475
140	0x3cb5a805	0.022174845
141	0xbe08e492	-0.13368443
142	0xbd54fc12	-0.051998205
143	0x3e00d0c3	0.12579636
144	0x3dcb8fb0	0.099395156
145	0x3e32f478	0.1747607
146	0xbd49c42c	-0.04925935
147	0x3e144967	0.14481126
148	0x3c0f7aeb	0.008757333
149	0x3d315c74	0.04330106
150	0xbdf2e5df	-0.11860251
151	0x3e024946	0.12723264
152	0xbe07a2dc	-0.1324572
153	0x3d9f21f8	0.07770151
154	0xbd99579a	-0.07487412
155	0xbd2f9ea8	-0.042875916
156	0x3e3ac8b3	0.18240623
157	0x3dc5b4f3	0.09653654
158	0xbd363964	-0.044488326
159	0x3d4c8122	0.04992784
160	0xbd5eda1b	-0.05440722
161	0xbe03712e	-0.12836143
162	0xbcf4abaa	-0.029867012
163	0xbd96d40a	-0.07364662
164	0x3c9b516a	0.01895972
165	0x3c92613e	0.017868634
166	0xbbb838e7	-0.0056220177
167	0x3d5a30d2	0.053269215
168	0x3d33e887	0.043922927
169	0xbbac42b5	-0.0052569755
170	0x3d29c939	0.041451667
171	0x3d8d8721	0.069105394
172	0x3cf00da5	0.029303381
173	0xbe1b1c28	-0.1514746
174	0x3d35fa91	0.044428412
175	0x3e07564b	0.13216512
176	0xbaecfad4	-0.0018080124
177	0xbb644ddb	-0.0034836445
178	0xbdc70597	-0.09717863
179	0xbdcb4796	-0.09925763
180	0xbd8398be	-0.06425618
181	0xbe154a4d	-0.14579125
182	0x3c27dec9	0.010245987
183	0x3c161ba1	0.009161861
184	0xbaed91d1	-0.0018125122
185	0x3ddd383c	0.108017415
186	0x3ce236f7	0.0276141
187	0x3e1f9128	0.15582716
188	0xbcd44765	-0.02591295
189	0x3d0ae7c9	0.033912454
190	0x3e180054	0.14843875
191	0x3da80564	0.08204153
192	0x3b0886da	0.002083233
193	0xbd37da9e	-0.044886224
194	0xbb6275d2	-0.003455509
195	0xbe27408f	-0.16333221
196	0x3cbde26a	0.023179252
197	0x3ddc5281	0.10757924
198	0xbcd5db1e	-0.02610546
199	0x3d1ed448	0.038776666
200	0x3d5c9c2f	0.053859886
201	0x3e74c0d1	0.23901679
202	0xbcf38a27	-0.029728962
203	0xbbf16656	-0.0073669357
204	0x3c92ecd7	0.0179352
205	0x3db42895	0.08796803
206	0xbde2bba9	-0.110709496
207	0xbc8d0d7e	-0.017218348
208	0x3d84a698	0.06477088
209	0xbc98944f	-0.018625407
210	0x3e4b7781	0.19869806
211	0x3dadb751	0.084822305
212	0xbe2a3b3f	-0.16624163
213	0xba5aa291	-0.00083402643
214	0xbe68c188	-0.22730076
215	0xbe15664b	-0.14589803
216	0x3cfc94b7	0.030832632
217	0x3de41c75	0.1113824
218	0xbdee4c2a	-0.11635621
219	0xbdee183d	-0.11625717
220	0x3df3e710	0.11909306
221	0xbde7e2f2	-0.11322583
222	0xbb940fb3	-0.004518473
223	0x3db0e9b1	0.08638323
224	0xbe23d147	-0.15997802
225	0xbd9eff11	-0.07763494
226	0xbdd160f7	-0.10223573
227	0xbdb5620d	-0.08856592
228	0xbe06d423	-0.13166861
229	0xbde98000	-0.11401367
230	0x3bbff973	0.005858594
231	0x3d6152b6	0.05501052
232	0x3de374dd	0.11106274
233	0xbe0a0817	-0.13479649
234	0x3d94d8cd	0.07267914
235	0xbdf043af	-0.117316596
236	0x3e3e9daf	0.18614839
237	0xbc80f33b	-0.015740981
238	0xbdf54da2	-0.11977698
239	0x3d9bdc38	0.07610363
240	0x3de9e917	0.114214115
241	0xbd5c2427	-0.053745415
242	0xbe0e1d9c	-0.13878483
243	0xbd92dc17	-0.07170885
244	0x3ddb0512	0.106943265
245	0xbe09e59a	-0.13466492
246	0xbb958bb7	-0.0045637744
247	0xbdadf5e7	-0.08494168
248	0x3e5e6009	0.21716322
249	0x3e6e53ce	0.23274156
250	0x399c2251	0.00029780206
251	0xbcb2fc1e	-0.021848734
252	0xbe1524bb	-0.14564793
253	0xbde4e594	-0.11176601
254	0x3d891b65	0.06694678
255	0x3d9ca4ba	0.076486066

lstm.bias_ih_l0_reverse f4 [256]
0	0xbf4a0261	-0.7890988
1	0xbdfbcf3c	-0.12295386
2	0xbdccd65d	-0.10001824
3	0x3e2fcda3	0.17168288
4	0xbe27d607	-0.16390239
5	0xbd6c4869	-0.057686243
6	0x3de64e5a	0.11245413
7	0x3e38b1aa	0.18036523
8	0xbd7edbdd	-0.062221397
9	0xbe4244d6	-0.18971571
10	0xbe9410e5	-0.2891914
11	0xbd6b631f	-0.057467576
12	0xbe0a91ed	-0.13532229
13	0xbbef895b	-0.007310075
14	0x3e8f055e	0.27933782
15	0xbd3a8855	-0.045540173
16	0xbd2a8a20	-0.041635633
17	0xbcf05d59	-0.029341387
18	0xbe25a1b8	-0.16174972
19	0xbe469be6	-0.19395408
20	0xbeb0c337	-0.34523937
21	0xbd91fac4	-0.07127908
22	0xbd0d1957	-0.034447994
23	0xbe411e8a	-0.18859306
24	0xbc646878	-0.013940923
25	0xbdb985bc	-0.09058711
26	0xbdca1ca4	-0.09868744
27	0xbe8c40be	-0.27393144
28	0xbdbf69c0	-0.09346342
29	0x3f965c94	1.1747003
30	0x3b83be4c	0.004020488
31	0xbe9ee7f6	-0.31036347
32	0xbfca4507	-1.5802315
33	0xbdcfd4ce	-0.10148011
34	0xbb930951	-0.0044871946
35	0xbe0ca60a	-0.13735214
36	0x3f13e8ad	0.5777691
37	0xbd8ad5e2	-0.06779076
38	0xbda88af8	-0.08229631
39	0xbc06ec96	-0.008235117
40	0xbdd6965f	-0.104779
41	0x3e240c7e	0.1602039
42	0xbd82eafc	-0.06392476
43	0x3ddd479c	0.10804674
44	0xbdb69287	-0.089146666
45	0xbfb17dfc	-1.3866572
46	0x3d4c4ea0	0.04987967
47	0xbe8ce798	-0.27520442
48	0xbdf0edf4	-0.11764136
49	0xbc7fda8f	-0.015616073
50	0xbe1c6396	-0.15272364
51	0x3b82bda4	0.003989892
52	0xbe2a1c14	-0.16612273
53	0xbcda1c2e	-0.026624765
54	0xbe208208	-0.15674603
55	0xbd1b9825	-0.037986893
56	0xbe17aead	-0.14812727
57	0xbd9660d0	-0.07342684
58	0x3f56230d	0.83647233
59	0x3f7e863e	0.9942359
60	0x3e315e2a	0.17321077
61	0xbd16a052	-0.036773987
62	0x3dd39b4c	0.10332355
63	0xbe079edf	-0.13244198
64	0xbe802ac3	-0.25032625
65	0xbecba365	-0.39773098
66	0xbd9b9215	-0.07596222
67	0x3e0a04ac	0.13478345
68	0x3db84738	0.08997959
69	0x3d4d5ff6	0.050140344
70	0x3d269036	0.040664874
71	0x3e81d7c5	0.25359932
72	0xbdc2b538	-0.09507221
73	0xbe3f853f	-0.18703173
74	0xbdff0f1d	-0.124540545
75	0x3d3d7167	0.046250727
76	0x3c09f200	0.008419514
77	0xbddc745b	-0.107643805
78	0xbeae50ba	-0.34045964
79	0x3cfbcbb1	0.030736776
80	0xbdb1153e	-0.0864663
81	0xbcd32b6a	-0.025777537
82	0xbe2aff86	-0.16699037
83	0x3e1730ad	0.14764662
84	0xbd9838b5	-0.07432691
85	0x3dcd9020	0.10037255
86	0x3d15e8a1	0.036598805
87	0xbe62d2ae	-0.2215068
88	0xbcc07527	-0.023493363
89	0xbdcaf868	-0.09910661
90	0xbe049775	-0.12948401
91	0xbe6495ce	-0.22322771
92	0x3e5d0f5a	0.21587887
93	0x3d4dd535	0.05025216
94	0xbdbe2012	-0.09283461
95	0xbd2c5ffb	-0.04208372
96	0xbe48e71d	-0.19619413
97	0x3d6a01fc	0.0571308
98	0x3c8fdf78	0.017562613
99	0xbe32d972	-0.17465761
100	0xbe68206e	-0.22668621
101	0x3dbf8ee8	0.09353429
102	0xbd9e7feb	-0.07739242
103	0xbd7fa18b	-0.06240992
104	0xbc5ffc30	-0.013670966
105	0x3e3485ed	0.17629214
106	0xbde2e90d	-0.11079607
107	0xbc85a04f	-0.016311793
108	0xbe297d64	-0.16551739
109	0xbdb2f16a	-0.08737452
110	0xbdafa245	-0.08575872
111	0xbd79bbc8	-0.060970098
112	0xbe4dbe01	-0.20092012
113	0x3d416a82	0.047220714
114	0x3dd40896	0.103532
115	0x3d68f12e	0.056870632
116	0xbe2390aa	-0.15973154
117	0xbe4c79a9	-0.19968285
118	0xbe12587a	-0.14291564
119	0x3df759d8	0.12077683
120	0xbe194f0b	-0.14971559
121	0x3d5fb872	0.05461926
122	0xbd3ac8ab	-0.04560153
123	0x3e0a9734	0.13534242
124	0x3d82ca0d	0.063861944
125	0xbe263336	-0.16230473
126	0x3cd67af9	0.026181685
127	0xbe0cd00e	-0.13751242
128	0x3e58fde6	0.21190605
129	0xbdd1af51	-0.10238517
130	0xbd58c94a	-0.05292634
131	0xbce16006	-0.027511608
132	0x3e1773df	0.14790295
133	0x3dd11b2b	0.1021026
134	0xbe213f4a	-0.15746799
135	0x3e032a26	0.12809047
136	0x3c6258ee	0.013815148
137	0x3db9349b	0.09043237
138	0xbdb86594	-0.090037495
139	0x3e05676d	0.13027735
140	0xbcbc02dc	-0.022950582
141	0x3e0078c4	0.12546068
142	0x3a8ab97b	0.0010583842
143	0xbd3990ae	-0.045303993
144	0x3dd17f7a	0.10229392
145	0xbe6fe68a	-0.23427787
146	0x3db997ec	0.0906218
147	0x3c9c4a09	0.019078271
148	0xbd055926	-0.03255572
149	0xbcb882fe	-0.0225234
150	0x3d5c2372	0.05374474
151	0x3d9cb6f5	0.07652084
152	0x3e2473e0	0.16059828
153	0x3c7779ca	0.01510472
154	0xbe240424	-0.16017205
155	0xbd08f6bc	-0.03343843
156	0xbe392d3d	-0.18083663
157	0x3d3bbfa2	0.045837052
158	0x3e515087	0.20440875
159	0x3dd681f6	0.10474007
160	0x3cc5d6bd	0.024150247
161	0x3e04f368	0.12983477
162	0xbc9dd3dc	-0.019266061
163	0xbdb14afa	-0.08656879
164	0x3c930cdc	0.017950468
165	0xbdd5402f	-0.10412633
166	0x3d1f9171	0.038957063
167	0xbc015824	-0.0078945495
168	0x3da2cfa9	0.07949764
169	0xbe8566e8	-0.26055074
170	0xbd9e8dba	-0.07741876
171	0xbe1ec138	-0.15503395
172	0x3e0acafe	0.13553998
173	0x3d07814c	0.03308229
174	0x3da4dcec	0.0804995
175	0xbd941149	-0.072298594
176	0x3c3384bf	0.010956942
177	0xbdb056f6	-0.086103365
178	0xbe5a78cd	-0.21335144
179	0xbe207bbc	-0.15672201
180	0x3dee2492	0.11628069
181	0xbe28b169	-0.16473927
182	0x3d56efaf	0.052474674
183	0xbd5f107a	-0.054459073
184	0x3d374c17	0.0447503
185	0x3bf609ac	0.007508477
186	0x3e67f627	0.22652493
187	0xbe2f4391	-0.17115618
188	0xbe41789d	-0.18893667
189	0x3b84bc90	0.0040507987
190	0xbdcba14b	-0.099428736
191	0x3d8e0fa8	0.0693658
192	0xbfaf4cda	-1.3695328
193	0xbee92a8d	-0.45540276
194	0x3de06fdb	0.10958835
195	0xbcda091a	-0.026615668
196	0x3c116b32	0.008875655
197	0x3dd982b4	0.10620633
198	0x3eda35d4	0.42619193
199	0xbeb17836	-0.34662026
200	0xbdf62761	-0.1201923
201	0x3d64a931	0.055825416
202	0xbe119cd9	-0.14219989
203	0xbc865c8e	-0.016401555
204	0xbe71719f	-0.235785
205	0x3f1bc561	0.6084805
206	0xbec93edf	-0.3930578
207	0x3d95124d	0.07278881
208	0xbd48310e	-0.048874907
209	0x3da8d05f	0.08242869
210	0xbc1319f1	-0.008978353
211	0x3e389b55	0.18028004
212	0x3f99bbde	1.2010458
213	0xbc554c58	-0.01301869
214	0x3e0ff56b	0.14058463
215	0xbe8f0f20	-0.27941227
216	0x3d66fd62	0.05639399
217	0xbde3d625	-0.11124829
218	0xbe339045	-0.17535503
219	0xbec595ff	-0.38591
220	0xbd4982f6	-0.04919716
221	0x3d4f16ee	0.050558977
222	0xbf4649c4	-0.7745631
223	0xbe5e216e	-0.2169244
224	0xbe24d6d9	-0.16097583
225	0x3ceecf68	0.029151633
226	0x3ccb4b2a	0.024816114
227	0xbe350f6e	-0.17681667
228	0xbe3b02c3	-0.18262772
229	0x3e06213b	0.13098614
230	0xbd8c40aa	-0.06848271
231	0x3ccc39f3	0.024929976
232	0x3d9ed744	0.077559024
233	0x3c7216ea	0.014775971
234	0xbdde6035	-0.10858194
235	0xbd7172c5	-0.058947343
236	0xbf61047e	-0.8789748
237	0xbf742ffb	-0.9538571
238	0xbd61156a	-0.054952063
239	0xbdce95fe	-0.100872025
240	0xbd712951	-0.058877293
241	0xbe553668	-0.20821536
242	0xbca1d2b9	-0.0197538
243	0xbd140543	-0.03613783
244	0xbd3b2a5f	-0.045694705
245	0x3dba7ad3	0.09105458
246	0xbe17a2cc	-0.14808196
247	0xbcd934a7	-0.026514364
248	0xbe47a8a2	-0.19497922
249	0x3c709934	0.014684964
250	0x3db1f313	0.08688941
251	0x3e5455ce	0.20735857
252	0xbea7c37d	-0.32766333
253	0xbda3e9aa	-0.08003552
254	0xbe265884	-0.16244704
255	0x3c56888c	0.013094079
