Competition/TrainAI/model/s/LSTM_weights_ver1.pth (torch, 241919 bytes, 10 tensors)

lstm.weight_ih_l0 f4 [256, 36]
000000 68 ff 08 bd 1c 5d 21 bd f1 ae e3 3b fd 11 96 bc
       -0.0334467 -0.039395437 0.006948345 -0.018319124
000010 4a 3f 7a bd f0 6a 19 3e 21 88 d6 3b 55 7b 02 3d
       -0.061095513 0.149822 0.0065469895 0.0318559
000020 66 04 92 bc 63 c5 66 bc 67 6a bc bc ac e7 30 3e
       -0.017824363 -0.014085147 -0.022999955 0.17275876
000030 27 85 80 bd 9c dc 95 bd dd de 59 bd 1b 58 93 3c
       -0.06275397 -0.073174685 -0.053191055 0.017986348
000040 78 c6 4f 3b 06 a2 b4 3d e4 76 07 3e 89 ce 1b 3d
       0.003170399 0.08819966 0.13228947 0.038038764
000050 78 a6 44 3d df ad 3a 3d 3b e4 9c bc b9 51 26 3c
       0.04801032 0.045575973 -0.019151798 0.01015132
000060 82 9d 0c be 98 22 2b bd 3a 21 98 3d a9 67 1d bd
       -0.1373196 -0.041781038 0.074282125 -0.038428936
000070 cc d1 8c bd 50 e3 79 bd bb 63 44 bd 9e 63 b6 3d
       -0.06875953 -0.061007798 -0.047946673 0.08905719
000080 3a b5 d5 bc bb 16 3f bd 1c 18 54 3d dc fe 3e bd
       -0.026087392 -0.046652537 0.051780805 -0.04662977
000090 7c 01 05 bb 0a 2e 38 be a0 62 a2 3c d4 5f db bd
       -0.0020295074 -0.17986313 0.019822419 -0.10711637
0000a0 c4 83 14 3d 6f 4e bc 3b 45 b9 0d be d6 5f b8 3d
       0.036258474 0.0057466547 -0.13840206 0.09002654
0000b0 30 84 34 bc 16 2f 94 bd 9c 64 f5 bd 1b 9c 18 be
       -0.011017844 -0.072355434 -0.1198208 -0.149033
0000c0 23 98 98 bd 22 46 8a 3d ec 9f 87 3d 06 6c fc 3d
       -0.07450893 0.06751658 0.066222996 0.12325291
0000d0 82 7c 05 3e a3 27 46 bc cd d6 85 3d 89 e8 9a 3d
       0.13035777 -0.012094411 0.065351106 0.07563884
0000e0 d6 c6 99 bd a2 8e f0 bb 1e b4 3b 3d 09 84 0c be
       -0.07508628 -0.007341222 0.04582607 -0.13722242
0000f0 b5 33 cd 3b 61 14 10 be 0a e0 4e 3d fc 43 2d be
       0.0062622675 -0.14070274 0.05050663 -0.16920465
000100 40 6f 10 3d fc 10 39 3d 13 8c e8 3c 1c a0 e4 3c
       0.035262346 0.045182213 0.028387105 0.027908377
000110 32 7e 00 3e 2e 0f 4a bd 93 35 9e bd df 12 19 be
       0.1254814 -0.049330883 -0.07725062 -0.14948605
000120 78 df ad bd 43 8f 1f be 64 a4 ab 3d 69 83 34 be
       -0.08489889 -0.15581994 0.083809644 -0.17628254
000130 59 9c 04 be 36 fb 8d bd 6c f3 9d 3c 24 d2 70 be
       -0.12950267 -0.0693268 0.019281112 -0.23517662
000140 26 ef d3 bd da ee 20 3d 3c 5a 51 3d d9 51 05 3d
       -0.10348348 0.039290287 0.051111445 0.03254876
000150 e5 91 ce 3d 28 ff 06 3d 66 9a c9 3d a5 d4 4b be
       0.10086421 0.03295818 0.09843902 -0.19905336
000160 56 8f 21 bc 5d 1a 6e be ad 5e 32 3d 74 cf 20 bc
       -0.009860834 -0.23252244 0.04354732 -0.009815086
000170 9d 12 3e 3d e6 a8 94 bd 7a 61 e0 3d d3 e8 bc 3b
       0.04640447 -0.07258777 0.10956092 0.0057650595
000180 07 df ad 3d 76 0c 3c 3d 5c 8f a3 3b 8f 55 b9 3d
       0.08489805 0.04591032 0.004991455 0.09049522
000190 0f 5d 84 3c 47 9f f3 3d 6b e3 23 3d 7e 85 a2 3c
       0.016157655 0.11895614 0.040011805 0.019839045
0001a0 b3 1e 1a be 06 09 14 be eb e2 bc 3d 5d 2d 4f 3d
       -0.15050773 -0.14456567 0.09222969 0.05058037
0001b0 da 06 59 bd 61 11 5f bd aa 3c dc 3d 08 ac 07 be
       -0.05298505 -0.054459933 0.10753758 -0.13249218
0001c0 4c d0 b2 3d c6 25 48 bc 30 cf ce bd 8b 79 f2 b9
       0.08731136 -0.012216037 -0.10098112 -0.00046248393
0001d0 56 27 88 3b 79 8e 41 bb c8 90 0e bd 9b c6 c4 3d
       0.00415508 -0.0029534383 -0.034806043 0.096081935
0001e0 29 cb cb bd 4c c2 ad bd 92 ee a1 3d fd 68 1c 3e
       -0.09950859 -0.08484325 0.07906832 0.15274425
0001f0 09 8f 22 3e 68 6a 01 bd 5e d1 23 3e 2e 36 29 bd
       0.15874876 -0.031595618 0.15997836 -0.041311435
000200 fc ab 02 be f1 fc db bd d1 c0 d6 3d 86 7f 08 be
       -0.1276092 -0.10741604 0.104859956 -0.13329896
000210 3d ef 0d be 11 23 d2 3c bc 22 1a be eb 67 86 3d
       -0.13860793 0.025651487 -0.15052313 0.065627895
000220 35 88 8e 3d 22 d5 9e 3d d9 cf ff 3d 6a 12 d6 3d
       0.06959573 0.077554956 0.12490816 0.10452731
000230 cf 2f 81 3d cb 2b 7e bd b1 74 53 bd e5 e5 2a 3d
       0.06307947 -0.062053483 -0.051624957 0.04172315
000240 ff 8b ba bd d0 83 38 3e 31 5e a6 bd 57 c0 11 3d
       -0.091087334 0.18019032 -0.08123434 0.03558382
000250 97 31 31 3e de 3c 1f bc 3b 1b eb 3d a8 9a ef bc
       0.17304073 -0.009719102 0.11479803 -0.02924855
000260 3e 9c 18 3e 34 9a f2 3c 3e 42 07 3e aa a5 c1 bc
       0.14903352 0.029614545 0.13208863 -0.023638565
000270 03 37 15 3d 6d 1e 9d 3c e0 39 c9 3d 8b 55 a8 3d
       0.036429416 0.019179547 0.09825492 0.08219441
000280 43 3d 14 3e cc db 69 3d bf 25 27 3e 18 b1 58 bd
       0.14476494 0.05709438 0.16322993 -0.052903265
000290 c3 fe 6a bd 08 ed 3b bd 5e bd 44 bd b2 02 35 3d
       -0.057371866 -0.045880347 -0.048032157 0.044192024
0002a0 f0 78 c4 bc 19 f0 96 3d aa 6f b3 bc de be fa 3d
       -0.023983449 0.07370014 -0.021903832 0.12243436
0002b0 62 50 8b 3c 9b d5 b4 3c 2f 7b 2f bd 38 c3 07 be
       0.017006103 0.022074511 -0.042842086 -0.13258064
0002c0 95 6a 0a 3d e2 1d 19 bd 8d ee 16 be 05 57 4b bd
       0.03379305 -0.037382014 -0.14739437 -0.049643535
0002d0 74 80 aa 3d ae df 9f 3d 32 f2 bf 3c 29 7d 41 3b
       0.08325282 0.078063354 0.023430917 0.0029524064
0002e0 5a ac 9d 3d be 0f 6d bd 21 44 5a bd 45 06 31 bb
       0.07698889 -0.05787634 -0.05328763 -0.0027011794
0002f0 94 a7 72 3d 05 f4 ac bd 6e df ea bd 7c 1a 89 3d
       0.059241846 -0.084449805 -0.11468397 0.066945046
000300 d9 3a b8 3d c9 aa 7d 3d 9e 00 aa 3c 73 54 06 3e
       0.08995599 0.06193045 0.020752247 0.13118152
000310 2f 71 dc bc 59 44 84 3b 9c 16 80 bd cb 04 85 3d
       -0.026909439 0.004036468 -0.062543124 0.06495055
000320 7d 34 83 bd 9a 1d b6 bd a1 4c f7 bc 1b 08 2f bd
       -0.06406496 -0.08892365 -0.030187907 -0.04273234
000330 cb 8c 54 3d 07 84 12 bd 4b 18 96 3d 88 f5 c9 3c
       0.051892083 -0.035770442 0.07328852 0.024653211
000340 4f dd af 3d dc 2a 60 bd c5 84 de bc d0 30 39 3d
       0.08587133 -0.054728374 -0.027162919 0.045212567
000350 31 1a bd 3d a7 71 a5 bc 63 75 5e bd bf a3 c0 bc
       0.09233511 -0.020195795 -0.054311167 -0.02351558
000360 9c cd c5 bc b9 af 1b be 4d 0a 0a 3e 6e 87 59 3d
       -0.024145894 -0.15203752 0.13480492 0.05310767
000370 71 c3 86 bd ee be 86 3d 7d 20 b2 bd 0d 1e af bb
       -0.06580246 0.06579386 -0.08697603 -0.0053441585
000380 0f f3 0d 3d dc f2 3d bd 3f 57 9f bd b3 fc ae bb
       0.034655627 -0.046374187 -0.07780313 -0.0053401827
000390 46 4e db 3c f9 d8 24 3e 0e a2 6f bd 2c 89 90 3d
       0.026770722 0.16098393 -0.058504157 0.070574135
0003a0 d2 ca ae 3b c0 d0 18 3c 5a 1d d4 bd c9 d5 20 bd
       0.0053342367 0.009327114 -0.10357161 -0.03926638
0003b0 79 1d f7 bd 1b 6a 16 3d db 21 07 bd 09 09 b3 3d
       -0.12066168 0.036722284 -0.03299127 0.08741958
0003c0 33 32 a2 3d fc b2 41 bd 94 d3 29 bd 94 75 0f 3e
       0.07919731 -0.047289833 -0.041461542 0.14009696
0003d0 99 34 d1 bd 17 31 ce bc d1 40 e9 3c 36 09 ae bd
       -0.1021511 -0.025169892 0.02847329 -0.084978506
0003e0 cb d9 b9 bd 2d 86 60 bd 4e d8 49 bd 30 e5 8a 3d
       -0.09074744 -0.05481546 -0.04927855 0.06781995
0003f0 a3 b3 59 bd 22 01 23 bd 6a 1b 4e bc b5 ee eb bd
       -0.05314983 -0.039796002 -0.012579778 -0.11520139

lstm.weight_hh_l0 f4 [256, 64]
000000 03 ec 0a be d3 29 28 3d 59 be e6 3c d0 2d 09 be
       -0.13566594 0.04105551 0.028166937 -0.13396382
000010 cc eb de bc d2 70 4b bc a7 bb 96 bd a2 9e 9f 3c
       -0.027212046 -0.012417035 -0.073600106 0.019484822
000020 7a 77 9a bd 36 8f 05 3d 78 46 ea 3d 52 0a f6 bd
       -0.075423196 0.03260728 0.11439222 -0.12013687
000030 53 de a0 bd c9 ad 6b bd 1e ca 9e 3d 26 1c c9 3c
       -0.07854905 -0.05753878 0.077533945 0.024549555
000040 91 01 be bd ab ac 13 bd 4f e4 e3 bd b0 e2 f9 3d
       -0.092776425 -0.03605334 -0.11127531 0.1220144
000050 11 a6 f0 3d 2d 2e 14 3c 49 2d d3 bc f3 1d e5 3d
       0.11750425 0.009044212 -0.02577843 0.11187353
000060 49 67 1d be b9 f2 ca 3c 9d 99 1a bc fc db 1c 3e
       -0.15371431 0.024773942 -0.009436038 0.15318292
000070 ca 35 b3 3d 80 13 d4 bd 0c 3a d3 bd f7 8d 19 3d
       0.08750494 -0.10355282 -0.10313806 0.037488904
000080 3e 1c 0f bd 20 30 e9 3c 20 38 cd bd 5b 72 8a 3d
       -0.034939043 0.02846533 -0.100204706 0.06760093
000090 0f bd 20 be f1 c8 4e bd ea f3 8b 3d 19 76 e5 bd
       -0.1569712 -0.0504846 0.06833632 -0.11204166
0000a0 43 0e b6 bd 49 17 6f 3b 5b d7 c2 3d f7 8f e8 3d
       -0.08889439 0.0036482385 0.09513732 0.11355584
0000b0 df da 78 3b 9b 4b 90 bd f9 09 af bc 23 6a 78 3c
       0.0037972254 -0.070456706 -0.02136706 0.015162024
0000c0 74 76 d3 bc 97 61 36 3d a0 18 83 3d 71 95 ae 3d
       -0.025813319 0.044526663 0.06401181 0.085245974
0000d0 9b 0e 76 bd a8 c6 b5 3b 02 ec 3a bd 35 f6 4e bd
       -0.060072523 0.0055473633 -0.04563523 -0.05052777
0000e0 69 56 da 3d 5c de d0 bd ce db d1 bd df 99 d4 3d
       0.10661013 -0.10198662 -0.102470025 0.10380911
0000f0 24 80 8b bc 1b 30 cb ba 26 56 8e 3d 5a 5a bf 3d
       -0.017028876 -0.0015502007 0.06950025 0.09343405
000100 43 a7 a0 bd 12 3f 73 3d 19 50 f0 3c 82 79 d8 bd
       -0.07844403 0.05938632 0.029335069 -0.10570051
000110 30 f4 fb bd 97 35 a2 bd 58 b6 aa 3d b8 13 b9 3c
       -0.123024344 -0.07920378 0.083355606 0.02259241
000120 61 7e a7 bc a1 eb 79 bd 3a 9d 3d 3d e6 a5 bc bc
       -0.020446004 -0.06101573 0.04629252 -0.023028325
000130 d9 a8 46 3c b4 04 f5 3d b2 71 c5 3c f1 b3 61 bd
       0.012125217 0.11963788 0.024102066 -0.055103246
000140 7b 3d 2b bd 90 84 04 bd d6 63 3b 3c a4 24 c3 3c
       -0.04180668 -0.032352984 0.011437377 0.023821183
000150 79 b8 07 3d d9 41 19 3e f8 37 f3 3b a9 c9 ea bd
       0.03313491 0.14966525 0.0074224435 -0.11464245
000160 a6 59 15 3e 3d 09 0f bc 3d f9 8a 3d bc 6f 2c bd
       0.1458498 -0.00873023 0.0678582 -0.042098746
000170 e0 05 77 bd 14 6d 20 be 85 02 9a bd f2 32 87 bd
       -0.060308337 -0.1566661 -0.07520012 -0.06601514
000180 45 95 d0 3c 48 00 f6 bd 7f 65 53 bd 71 44 56 bd
       0.025461802 -0.120117724 -0.051610466 -0.052311365
000190 35 29 04 bc 46 18 c6 bc bc c7 84 bd c8 38 0a be
       -0.008066465 -0.024181496 -0.06483409 -0.13498223
0001a0 af 0b a8 bd a5 8a 42 bd 7a c1 c3 bd 2c 31 b0 bd
       -0.082053535 -0.047495503 -0.09558387 -0.08603129
0001b0 de 2a 25 bd 0f 26 fc bd 26 78 a6 3d fb 8e c5 bc
       -0.040324084 -0.123119466 0.08128385 -0.02411603
0001c0 a8 7a be bd bc eb 1d 3e 29 2e a7 bd 90 3c 79 3c
       -0.093007386 0.15421957 -0.08163101 0.015212193
0001d0 f6 8b 08 3c a1 68 45 3b 22 6c e4 3d 3d 62 50 3d
       0.008334151 0.0030122178 0.11153437 0.050874937
0001e0 ef a6 25 bd d8 f3 a0 bd e3 79 77 bd d5 93 57 bd
       -0.040442403 -0.078590095 -0.060418975 -0.052631218
0001f0 6a 44 5c 3d d6 55 7c 3d ae 6d d9 3c c7 e9 5d bd
       0.053776182 0.061605297 0.026541557 -0.054178026
000200 54 ca 02 3e 1e bd 92 3d e7 5c a3 3c 75 8d 91 3d
       0.12772495 0.071649775 0.01994176 0.07107059
000210 09 e8 83 bd c2 a4 f9 bd ab b9 e5 bd e8 60 bd 3d
       -0.064407416 -0.12189628 -0.11217054 0.09246999
000220 17 fc 42 bd fd c1 3d 3d 86 5d f2 bb 10 d1 cc bd
       -0.047603693 0.04632758 -0.007396403 -0.10000813
000230 fa c8 52 bd 81 4a 6f bd 12 54 9f 3d e1 ba bb 3c
       -0.051461197 -0.05842066 0.07779707 0.02291626
000240 9a d2 dc bd f6 c8 f2 bc ca b5 2d bd 46 31 f1 bd
       -0.107823566 -0.029636841 -0.042409696 -0.11776976
000250 05 dd 7c bd 5c 19 80 3d 42 28 1c be ab fc ea 3d
       -0.06173422 0.06254837 -0.15249732 0.11473974
000260 59 a6 0d 3e 06 b2 c4 bc dd ed 06 bd de 91 19 be
       0.13832988 -0.02401067 -0.032941688 -0.1499705
000270 99 93 b3 bd ca b4 ae 3d 10 ef 31 3d 17 4c f4 bd
       -0.087683864 0.085305765 0.04344088 -0.119285755
000280 9c 87 5e bd 78 d2 18 be e2 2f c8 3c fc 4f 86 3d
       -0.054328546 -0.14924037 0.024436895 0.065582246
000290 ed dd 79 bc 0d f3 c8 3d a3 c8 03 bd 05 f2 95 3d
       -0.015250665 0.09811983 -0.032173764 0.07321552
0002a0 1f 0a 15 3b 8e 91 48 3d 4e e0 fc bb 45 ad 16 be
       0.0022741628 0.048966937 -0.007717169 -0.14714535
0002b0 b7 1f 9e 3d 9c 3d a1 bc 31 cd 83 bb 16 61 3a 3d
       0.07720893 -0.019682698 -0.0040222635 0.045502745
0002c0 06 73 18 3c db 4b 08 be 28 e6 6f bc c9 54 0c 3d
       0.0093047675 -0.13310187 -0.014642276 0.034260545
0002d0 2b e9 f7 3c 19 13 e3 bd a7 36 07 be 6d ef e7 bc
       0.03026255 -0.11087627 -0.13204442 -0.02831241
0002e0 05 5f 9a bd bf 12 96 3d 25 be fd bc 86 5c 23 3d
       -0.07537655 0.07327794 -0.030974457 0.03988316
0002f0 26 11 1a bd 06 4f ba 3d d3 41 52 3d 8e 54 02 3e
       -0.03761401 0.09097104 0.051332306 0.12727568
000300 b4 de b5 3d 5d 38 07 be 7d 67 27 39 0b f5 8b bb
       0.08880368 -0.13205095 0.00015964913 -0.0042711548
000310 48 dd 52 bd fe 84 74 bd b8 93 f4 ba c4 0c 2a bd
       -0.05148056 -0.059697144 -0.0018659746 -0.04151608
000320 a9 1c 85 bc 3c 4d 71 bd d7 99 de 3d 0d 45 bd 3d
       -0.016249018 -0.058911547 0.10869186 0.09241686
000330 92 ce 24 3d 61 4f 96 3d b7 8e 13 3b a5 96 f9 bc
       0.040236063 0.07339359 0.0022515485 -0.03046734
000340 92 1a db 3c 63 15 da 3d eb 84 1f 3e 84 a5 95 bd
       0.026746068 0.106486104 0.15578048 -0.0730696
000350 25 3d 69 bd 28 3f a5 bd e9 9d 8b bd ab 39 0a 3e
       -0.056943078 -0.08068687 -0.06817228 0.13498561
000360 8c a3 81 3d 15 36 7d 3c 9a b5 91 bd b8 ee 8e 3d
       0.06330022 0.015454789 -0.07114716 0.06979126
000370 d6 46 12 3c fa 17 4f bd df 23 11 bd e2 63 9e bc
       0.008928021 -0.050559975 -0.0354346 -0.019334737
000380 62 58 b1 bc 61 3b 2c bd 53 07 f7 3d a2 db 5c bc
       -0.02164859 -0.042048816 0.12061944 -0.013480099
000390 78 d2 3c 3d 61 8e 87 bc 73 5d dc bb a5 9d 45 3d
       0.046099156 -0.016547384 -0.006725007 0.048246045
0003a0 f0 ae e9 3c e4 50 b5 bc 96 42 9b 3d ec 68 35 bd
       0.0285258 -0.022133298 0.0758106 -0.044289514
0003b0 d8 96 00 be 1b 8c bf bd 84 02 05 3d 64 61 c6 bd
       -0.12557542 -0.09352895 0.032473102 -0.096865445
0003c0 87 e9 9b 3d 85 e4 15 3c 0a 43 7c bd 77 d7 24 bd
       0.07612901 0.009148722 -0.06158737 -0.040244546
0003d0 80 e4 01 be 12 97 89 bd 72 ea dc bd ff ea f2 3d
       -0.12684822 -0.067182675 -0.107869044 0.11861228
0003e0 29 17 d6 3d e2 62 f8 bd 97 ba 82 bc 35 15 91 3d
       0.10453636 -0.121282354 -0.015958114 0.07084123
0003f0 85 a9 02 3e ee ee 17 3d 3d 48 a6 3c a9 88 8a 3c
       0.12759979 0.037093095 0.020298118 0.016910868

lstm.bias_ih_l0 f4 [256]
000000 cf 31 02 be 7f ba 1e 3d ef b9 23 3d ef d3 2c bd
       -0.12714313 0.038752075 0.039972242 -0.042194303
000010 14 fe ea 3c c2 06 16 3c b7 d7 9d 3d 62 26 98 3d
       0.028685607 0.009156885 0.0770716 0.07429196
000020 81 50 e3 3d ca cd b3 3d 70 a8 8c bc 71 9c 1b 3c
       0.11099339 0.087794855 -0.017170161 0.009497748
000030 98 e3 83 bd 8f e4 02 bd 6e 75 40 bd c5 41 e3 bd
       -0.064398944 -0.03195625 -0.04698699 -0.11096529
000040 86 e6 42 3d fe 4b a6 bd 0f ef 6d 3d ce 90 90 3d
       0.047583126 -0.08119963 0.058089312 0.07058869
000050 8c 37 04 be f8 c5 f9 bc c7 b0 86 bc 8c 66 af 3d
       -0.12911814 -0.030489907 -0.016441716 0.08564481
000060 2e d5 bb 3d c5 09 c4 bd 52 ad a6 bc dc fd 69 3d
       0.0917152 -0.09572176 -0.020346317 0.057126865
000070 6a 94 e8 3d 89 eb a0 bc dc d3 c5 bd 59 f8 84 3d
       0.11356433 -0.019643562 -0.096595496 0.06492681
000080 dd e8 07 3c aa d3 b0 3d 59 c9 78 3d 53 7d a3 3d
       0.008295265 0.08634122 0.060738895 0.07982888
000090 40 d5 d7 3d f2 dc b9 bd c7 90 15 bd ac 86 c5 3b
       0.10538721 -0.09075345 -0.036515024 0.006028017
0000a0 0f b8 f5 3d 07 62 ab 3d 5b e3 05 3d 34 e9 02 bd
       0.11997997 0.083683066 0.032687526 -0.03196068
0000b0 37 fa b4 bd 51 a3 d0 bd 40 bd 93 bd 2d ac ca 3d
       -0.08836787 -0.101874 -0.07213831 0.09896121
0000c0 6f 07 01 bd 58 ab 88 bc 7f 93 b9 bd dc 9e eb 3d
       -0.03150123 -0.016683266 -0.09061336 0.115049094
0000d0 c2 a6 f7 bd 9a 79 91 bd a8 94 b1 3d 98 78 0c 3e
       -0.120923534 -0.07103272 0.08670932 0.13717878
0000e0 44 48 bc bb 6b bb 55 3d bb 90 a9 bd 77 8f 64 3c
       -0.0057459194 0.05218069 -0.08279558 0.01395022
0000f0 cd c7 aa bc eb bb a1 bd 08 86 62 3b 48 b8 3f bc
       -0.020847226 -0.07897171 0.0034564752 -0.011701651
000100 4f fb e5 bc 59 2e f0 3d d3 b1 02 3e 1e 1f f3 bd
       -0.028073935 0.1172759 0.12763147 -0.118711695
000110 29 5d b0 bc 19 a8 14 3d 3f b2 a3 3d 62 16 f7 bc
       -0.021528797 0.036293123 0.07992982 -0.03016204
000120 41 6e 72 bc 1d 9a b1 3d d8 9b 25 bd 64 d8 e0 bd
       -0.014796794 0.08671973 -0.040431827 -0.10978773
000130 40 8e a5 bd 7b bb fa bd fa 08 d4 bd 77 b8 07 3c
       -0.08083773 -0.1224279 -0.10353275 0.008283726
000140 0e b8 0f be f4 e4 9e 3d a6 94 69 bd ab d1 c1 3a
       -0.14035055 0.07758513 -0.057026528 0.0014787217
000150 20 d8 17 3e f4 65 1b 3d 95 1f df bd f9 cd 0d 3c
       0.14828539 0.037939027 -0.10894696 0.008655065
000160 32 5f bd bc a1 b4 aa 3d 53 87 7a 3d 6d 7e 98 bd
       -0.023116682 0.083352335 0.06116421 -0.07445989
000170 2a 7c cb 3b cc ac f5 3d 52 42 b3 3d 3e 1d 96 3d
       0.00620987 0.11995849 0.08752884 0.07329796
000180 2f 0f be bd dc c3 f7 bd c2 06 88 bd a2 c0 8e 3d
       -0.0928024 -0.12097904 -0.06641914 0.069703355
000190 29 cd 13 be c8 6f 75 bd 5c cd c1 bd 75 e9 53 3d
       -0.14433731 -0.059921056 -0.09462997 0.051736314
0001a0 fd 49 a7 bd 8f 95 31 bd 21 ad 39 3d 61 61 31 bd
       -0.08168409 -0.04335552 0.045331124 -0.04330576
0001b0 b3 11 78 3c fb e7 d2 3d 58 ba 81 3c 52 8c c5 bd
       0.015140939 0.10298153 0.015835926 -0.096459046
0001c0 fc 66 06 3e 5f c8 41 3c 1f 0b d8 bd cb e5 db bc
       0.13125223 0.011827557 -0.10548996 -0.026842972
0001d0 78 52 db 3c 4d e3 9a bc ef 7a 1d 3e c6 07 99 3d
       0.026772723 -0.018907214 0.15378927 0.07472186
0001e0 23 c2 e0 3d 41 dd 03 be b8 95 94 bd 95 e2 cd bc
       0.10974529 -0.1287737 -0.07255119 -0.025132457
0001f0 30 8f e7 bd d5 b7 99 3c 3f 6e 3b 3d 18 39 f2 bd
       -0.11306608 0.018764416 0.045759436 -0.11827296
000200 56 12 d9 bd f1 6c 21 3d 3c 0c ee 3c 1f 93 1a 3e
       -0.105992004 0.039410535 0.029058568 0.15095185
000210 29 a0 f2 3d bd 6a 2a bd c0 c7 9f 3d 80 47 2d 3e
       0.118469544 -0.0416057 0.07801771 0.16921806
000220 f7 62 d5 3b dd c3 9d 3d 46 d5 a6 3d a7 b7 b6 3d
       0.0065120417 0.077033736 0.081461474 0.08921748
000230 cc b0 e9 bd dd 1c bd 3d 09 29 c8 bd b1 bc af 3d
       -0.114106745 0.09234021 -0.09773452 0.08580912
000240 5a 86 11 bd 84 80 6c bd 48 a5 2b bd 40 fc 1c 3e
       -0.03552852 -0.05773975 -0.04190567 0.153306
000250 1a 09 a3 bd c4 b3 30 3d 3e ac 82 3d f2 0c f9 3a
       -0.0796072 0.043140188 0.06380509 0.001900105
000260 ed f0 8f 3d 33 45 b0 bd 78 26 87 bd ed 38 7c 3c
       0.07028375 -0.08606949 -0.06599134 0.015394432
000270 14 e9 23 3b d3 54 5c 3d 80 f4 31 bd 54 42 a6 3d
       0.0025010752 0.053791832 -0.043446064 0.0811812
000280 df 32 bd 3d 11 dc fb bc f0 a6 ec 3d 1a fa 4a 3c
       0.092382185 -0.030744584 0.11555278 0.01238873
000290 d2 a2 64 bd bb e6 c1 bc dc 32 18 3d a3 f1 3d 3d
       -0.05581934 -0.023669591 0.03715788 0.04637302
0002a0 b8 d0 af 3d 16 54 08 3c b0 33 66 3d b1 9e 9a 3d
       0.08584732 0.008320829 0.056201637 0.07549799
0002b0 7b bb 9e bd ab bb be 3d bf 66 c7 bd 04 92 88 3d
       -0.07750603 0.093131386 -0.09736394 0.06668475
0002c0 86 99 13 3d da ca ae 3d 2d b7 a8 bd ab ac 90 bd
       0.036035083 0.085347846 -0.08238063 -0.07064184
0002d0 d4 b9 8e 3d 68 1a f4 3c 69 5a 27 3d 02 28 f6 bc
       0.06969038 0.029797748 0.040857706 -0.030048374
0002e0 6d d5 69 bc d6 c9 8d bd a8 f4 99 3d d1 a6 b7 bc
       -0.014272076 -0.06923263 0.075173676 -0.022418411
0002f0 d4 0f a0 bd 4e 6f 42 3d 9f 50 ca bc e0 ff ea bc
       -0.07815519 0.04746943 -0.024696646 -0.028686464
000300 f6 5a 0a 3d 07 46 c3 3d 53 46 a6 bd e2 c5 9a bb
       0.033778153 0.09534841 -0.08118882 -0.0047232965
000310 75 cd 97 3b 53 dc fa 3d 33 2b 33 bc e5 c8 44 3d
       0.0046326467 0.12249055 -0.010935592 0.04804315
000320 a0 8c c1 3d 11 56 b1 bc dc de d2 bc 85 a8 88 bd
       0.0945065 -0.021647485 -0.025741033 -0.066727675
000330 2b 67 92 bd 4c 54 f8 3d 5d 49 c4 bd 8a 29 00 3d
       -0.07148584 0.12125453 -0.095843054 0.031289615
000340 d0 c3 24 3b 29 ce f8 bc ea b9 d3 3c 5c 76 89 bd
       0.0025141127 -0.030371742 0.025845487 -0.067120284
000350 ca b9 b3 bd a4 1a ad bd e8 f7 e1 bc 89 41 b4 bc
       -0.08775671 -0.08452347 -0.027584031 -0.022003906
000360 7d 71 71 bb 97 55 3e 3d f7 e3 9e bc 88 8a 9d bd
       -0.0036841326 0.046468344 -0.019395811 -0.07692438
000370 27 32 d2 bc dc a2 d4 3d e9 05 07 bd 0c 53 d2 3d
       -0.02565868 0.103826255 -0.03296462 0.10269746
000380 b4 34 f1 bd f2 78 00 3e 2f 31 55 3e ab 53 a8 3c
       -0.117776304 0.12546137 0.20819543 0.020547708
000390 24 aa a4 bc 07 55 ea bc 61 7d cd bb 07 5c 30 3d
       -0.02010066 -0.028604997 -0.00627105 0.043056514
0003a0 3a 88 e5 bd 6a 3f 20 be fb 16 84 3e 22 f6 85 bb
       -0.11207624 -0.1564919 0.25798783 -0.004088179
0003b0 08 17 5d bd 0d 65 cb bd 71 4a 88 bd 92 1f d6 3d
       -0.053977042 -0.09931383 -0.066548236 0.1045524
0003c0 90 b8 b4 bd d5 d0 da 3d a8 d7 ba bb 59 4d 72 3d
       -0.08824265 0.10684363 -0.0057019778 0.059155796
0003d0 19 f4 2e 3d 9d 77 82 3d 5f 8f 68 3d 91 6e 65 3d
       0.04271326 0.06370471 0.056777354 0.056013647
0003e0 da 29 90 3d e8 48 02 bd ef f6 75 bc d6 ea 77 3d
       0.070392326 -0.03180781 -0.015012487 0.06052669
0003f0 a9 ff 04 3e 87 d2 81 3d 84 3a 29 3d 80 38 42 be
       0.12988152 0.06338983 0.04131557 -0.18966866

lstm.bias_hh_l0 f4 [256]
000000 92 e6 92 bd e1 69 be bc 37 a1 49 3d 83 49 03 3d
       -0.07172884 -0.023243846 0.049226012 0.032052528
000010 4c 0f 04 3e 1c 6d 83 3a 7a 02 10 3d eb cf 08 bd
       0.1289646 0.0010027024 0.03515861 -0.03340141
000020 89 8e ca 3d c4 fe 12 3e b2 e6 10 3d 6b 46 3b 3d
       0.09890468 0.14354998 0.03537626 0.045721453
000030 c1 9c 06 be c0 91 0c 3e 0f f4 80 bc 1a 28 7b 3c
       -0.13145734 0.13727474 -0.015741376 0.015329385
000040 ec 42 77 3d 0e 2d 0f bd d4 f5 03 be 5c 47 96 3d
       0.060366556 -0.034955077 -0.12886745 0.073378295
000050 e3 f5 ff 3c af 5d 04 3e fe e4 76 3d d8 c8 51 bc
       0.031245178 0.12926362 0.060276978 -0.012804233
000060 30 7f bf 3d 0e 08 0a bd dc a1 dd 3d 19 b6 b5 bd
       0.09350431 -0.033699088 0.10821888 -0.08872623
000070 5c 77 c7 3c aa 45 57 bb 38 37 b9 bc 6e b0 d9 3c
       0.024348907 -0.003284792 -0.022609338 0.026573386
000080 0e 8b 1b 3b 4b 8c 86 3a 94 1c a7 bc 6f 3a bb bd
       0.0023734006 0.0010265199 -0.02039937 -0.09142005
000090 ba f1 84 3d 4e f8 dd 3d e3 69 80 bb 6e e2 d0 bd
       0.06491418 0.10838376 -0.0039188727 -0.10199438
0000a0 03 c4 50 3c 8f 76 aa bd 9e 9b 17 3d 07 80 68 bd
       0.012742045 -0.083233945 0.037013642 -0.05676272
0000b0 53 bf 87 3d c3 db 9e bd a8 49 20 bd b0 1e 7e bd
       0.06628289 -0.0775676 -0.039132744 -0.062040985
0000c0 a2 0f dc bd 3f cd c4 3d b7 6e 8a bd b0 0d 98 3d
       -0.10745169 0.0960946 -0.067593984 0.07424486
0000d0 8c c4 83 bd d1 3a 18 bd 16 f7 d4 3d af f8 0a 3e
       -0.06433973 -0.037165467 0.103986904 0.13571428
0000e0 0f ed 5a bd 7d 91 27 3d c2 71 9f 3d 3f db e4 bd
       -0.053448733 0.040910233 0.077853695 -0.111746304
0000f0 7d 49 06 be 8e 3d 9d bb 81 c1 b5 bd bc 7b bb 3d
       -0.13113971 -0.0047985977 -0.088747986 0.0915446
000100 71 75 a8 bd e3 31 4f bd 5d 66 ea 3d 1c cd dc 3d
       -0.08225525 -0.050584685 0.114453055 0.10781309
000110 37 f2 e1 3c 94 51 a9 bc a2 62 0f be a0 07 6c bd
       0.027581317 -0.020668782 -0.14002469 -0.05762446
000120 0f 07 df bd 8d 35 c4 bd eb 36 e1 3c ba 02 52 3c
       -0.10890018 -0.095805265 0.027492007 0.012818033
000130 5a fc 6b 3d 01 ed 0f be 19 e3 d6 3d 3d b8 47 3d
       0.057613708 -0.14055254 0.10492534 0.048759688
000140 5a f8 6c bd d7 d6 8a bd 8f dd c5 3d c1 92 57 3d
       -0.057854034 -0.06779259 0.096613996 0.05263019
000150 22 55 11 bd 70 1d 53 bd a3 d3 1d 3d 26 3a ff bc
       -0.03548158 -0.051541746 0.03853191 -0.031155657
000160 d2 65 de 3d 0f 88 cc 3d 69 23 3b bc 7f 26 e4 bd
       0.108592644 0.099868886 -0.011422017 -0.11140155
000170 33 da 9e 3d e4 0c e3 bd 84 07 88 3c d6 8d 6e 3c
       0.07756462 -0.11086443 0.016605146 0.0145601835
000180 ef 29 a1 bc c5 df 59 bc b2 83 2d bc c6 44 ab 3d
       -0.019673316 -0.01329798 -0.010590481 0.08362727
000190 07 dd 26 be 0c 59 41 bd a2 c2 dc bd c4 87 c3 3d
       -0.16295253 -0.047204062 -0.10779311 0.095473796
0001a0 d1 b5 a6 bd b0 3e ab 3d e2 a5 ab bd 0e 4d a1 bc
       -0.081401475 0.08361566 -0.08381249 -0.019690063
0001b0 1e e7 8a bd 40 ad d9 3b 6f 09 a6 bd 83 4d 27 3d
       -0.06782363 0.0066429675 -0.08107268 0.040845405
0001c0 dd 6a 83 3d 00 f2 df bd fa 12 a1 bd 9d 71 93 bc
       0.06416867 -0.1093483 -0.078649476 -0.017998511
0001d0 8f 4e fa 3c 01 7a 3b 3d dd 99 b2 3d 8d 57 e9 bc
       0.030555038 0.04577065 0.08720753 -0.02848413
0001e0 d4 aa 0a 3e 6a ff d3 3c be aa ae bd 5d d3 25 bc
       0.13541728 0.025878627 -0.0852866 -0.010121194
0001f0 1a be e1 bd 4b b2 f4 bd 89 58 0e bd 6f 9a ff bc
       -0.11022587 -0.11948069 -0.034752402 -0.03120157
000200 73 2e 6a bd a1 81 23 3d c0 5b 86 bd 3c 24 e5 3d
       -0.057173204 0.039918546 -0.06560469 0.11188552
000210 bb 94 e4 3c 8f f9 c5 3c 74 d9 99 3d b5 7c 3c 3d
       0.027902951 0.02416685 0.07512179 0.046017367
000220 f7 e7 81 3a b5 7b ab bd c0 90 fc bd cb 12 c6 bd
       0.000991105 -0.083732046 -0.12332296 -0.09671553
000230 89 4b 3b 3c 65 f1 1a 3d fb 0c 78 3d be 24 07 3d
       0.011431583 0.037827868 0.060559254 0.032994024
000240 b4 d4 b0 bc 8c c9 da bd c1 99 3f 3b 31 81 48 3c
       -0.0215858 -0.10682973 0.0029235932 0.012237833
000250 5a 16 81 3a 02 01 88 3d 28 b0 d2 3d c3 15 00 be
       0.000984858 0.06640817 0.102875054 -0.12508301
000260 6a 91 d9 bc 52 37 fa 3c e6 f1 f2 bd a6 80 b1 3d
       -0.026558597 0.030543957 -0.11862545 0.08667116
000270 a8 df 6b 3d 11 8b df 3c b6 5c 60 bd 3c e7 b2 3d
       0.057586342 0.027287992 -0.054775916 0.08735511
000280 03 1e 1d 3d 68 6b b8 bd 71 bc 5f 3d cd 81 f7 bd
       0.0383587 -0.09004861 0.05462307 -0.120853044
000290 96 ee 18 bd c3 2f 93 3d 0d 51 10 bd bf a9 75 3c
       -0.03733691 0.07186844 -0.035233546 0.014994084
0002a0 ce 20 89 3d ea 5f 95 bd 8c 19 29 3d 62 fe 6b bd
       0.0669571 -0.07293685 0.04128413 -0.057615645
0002b0 97 22 b3 bd 97 b0 2a bd a9 44 35 3d f9 51 c2 3c
       -0.08746832 -0.041672315 0.044254933 0.023720728
0002c0 20 59 c1 3b 34 21 b0 bd 7d 93 d4 3c be 94 1c 3d
       0.005900517 -0.08600083 0.025949234 0.03822779
0002d0 86 be e0 bd 6d 23 27 bd 38 5f 1b be 45 60 12 3e
       -0.109738395 -0.04080527 -0.15173042 0.14294536
0002e0 dc 65 5a bd d2 b3 9e bd bf 0d 9d 3b 43 c2 a0 bd
       -0.053319797 -0.07749142 0.0047928984 -0.078495525
0002f0 98 a7 e6 ba e3 53 f6 3d 97 64 2e 3d a3 13 2a bd
       -0.0017597554 0.12027719 0.0425764 -0.041522633
000300 1f 49 49 3d 19 55 93 bd 3f ac 8a bc f0 14 78 3d
       0.049142 -0.071939655 -0.016927836 0.060566843
000310 77 af bb 3d b6 09 39 bd 34 b1 f3 3b 1d 50 60 3d
       0.09164327 -0.045175277 0.0074368957 0.054763902
000320 e0 4b d3 3d 5b 8a 84 bd 05 84 c4 3d ad b4 99 bd
       0.103172064 -0.06471702 0.09595493 -0.07505164
000330 5d d7 c2 3d d6 99 03 3e 1f 1b 5e 3c 1f a7 6a bd
       0.095137335 0.12851653 0.013556271 -0.057288285
000340 9c e8 e3 3c 05 51 9e 3d b1 74 9c bd 8a b1 07 3e
       0.027820878 0.07730297 -0.076394446 0.1325132
000350 10 32 85 3c 40 f2 08 3d 40 9e da bd 1f 43 e3 bc
       0.016259223 0.033434153 -0.10674715 -0.027741967
000360 d4 b6 c5 3c 3c f1 c5 3c f9 f4 5e 3d 20 06 ce 3d
       0.02413503 0.024162881 0.054432843 0.10059762
000370 9d 44 d9 bd a0 c0 91 3c b4 c4 4c 3d 82 29 22 3d
       -0.1060879 0.017792046 0.04999228 0.039590366
000380 af 87 4e 3d 41 56 ff 3b 7b 4f 56 3d 1e 77 a1 3d
       0.050422367 0.0077922647 0.052321892 0.07884048
000390 36 b8 e4 3d fd fb 5f 3d 29 6e bc 3c 25 bc 17 3e
       0.11167948 0.054683674 0.023001747 0.14817865
0003a0 10 23 fb bd cd 67 e1 bc 82 42 b0 3e 31 16 cc 3d
       -0.12262547 -0.027515316 0.3442574 0.0996517
0003b0 d8 5d 6b bd 82 07 0b be 3b 9e e7 bd 3b a7 4d 3d
       -0.057462543 -0.13577083 -0.11309477 0.05020831
0003c0 54 48 98 bc 85 5c 9b bd 5e 4f 3b 3b 66 8e ef bd
       -0.018589176 -0.07586006 0.0028581242 -0.11697082
0003d0 36 0d bf bd 96 0e bb bc 1d 28 e6 bd 7b 11 42 bd
       -0.09328692 -0.022834104 -0.1123812 -0.047379952
0003e0 3a 5f d3 3d cd 95 d6 bc 56 f0 f6 bc d0 b5 81 3d
       0.103208974 -0.026194477 -0.030143898 0.06333506
0003f0 69 94 fd 3d b3 5c 66 bd 77 1e 34 be 53 88 e3 bd
       0.123818226 -0.05624075 -0.17589746 -0.11109986

lstm.weight_ih_l1 f4 [256, 64]
000000 56 7e f6 bd 1f ea 7e 3d 56 c2 2c 3d 4d 33 11 3c
       -0.120358154 0.062234994 0.04217752 0.008862329
000010 22 9a 8d 3c 6d e6 ca 3c 98 7a 24 3c 03 eb ee 3d
       0.01728541 0.024768079 0.010038994 0.11665919
000020 74 c9 47 3d 21 8b b4 3d e8 a7 a8 3d d0 98 48 3d
       0.048776105 0.08815599 0.082351506 0.04897386
000030 e7 bc c1 3d d6 50 6d 3d 48 b5 30 bd b6 39 80 bc
       0.094598584 0.05793842 -0.043141633 -0.015652519
000040 1e 23 d9 3d 24 cd a9 bd 2b 0d 83 3c dc f0 04 bd
       0.10602401 -0.082910806 0.01599749 -0.032456264
000050 00 e9 6b 3d 06 ed f6 3c 51 f0 3c bc 61 1d 15 bb
       0.057595253 0.030142318 -0.011531905 -0.0022753107
000060 fa 0b 2d bd b9 27 f6 bd 24 9f f2 3d 95 86 0d be
       -0.04224775 -0.12019295 0.1184676 -0.1382087
000070 85 ac 1b bd 62 a2 ab bd 1d 25 6d bd cc 5c 4e 3d
       -0.038006324 -0.083805814 -0.057896722 0.050381467
000080 14 c9 e5 bc 24 23 7c bd 05 77 8e 3d d2 49 25 3d
       -0.028049983 -0.06155695 0.06956295 0.040353604
000090 28 12 9f bc bd fa 9c bc ac 54 ee bd 96 52 24 3d
       -0.019417837 -0.01916253 -0.11637244 0.040117823
0000a0 88 e2 24 bc f5 22 15 3d 2b 7b cd 3d b3 02 b8 bd
       -0.010063775 0.03641029 0.10033258 -0.0898489
0000b0 8a e9 0b be 10 3f 9d bc 27 90 05 be 66 d4 a9 3d
       -0.13663307 -0.01919511 -0.13043271 0.08292465
0000c0 34 98 ef bd 60 e0 9b 3c 4f ad f9 3d 15 ae 02 3e
       -0.11698952 0.019027889 0.12191259 0.1276172
0000d0 c1 d8 47 bd 05 1b ad bd a5 a9 d0 3d 64 85 8e 3b
       -0.048790697 -0.08452419 0.10188607 0.0043493975
0000e0 6a 86 cc 3b ab bd b8 bc 61 7e b1 3d 58 98 c1 3d
       0.0062416093 -0.022551378 0.08666683 0.094528854
0000f0 4f 9e a8 bd d3 e3 20 3e e1 a3 a3 3d 6f c6 7b bc
       -0.0823332 0.15711908 0.07990242 -0.0153671345
000100 04 f0 2e bd 4a 1d 0a bd 46 8c 92 bc 1f 9d 28 be
       -0.042709365 -0.03371934 -0.017889153 -0.16466187
000110 b5 76 cb bd ba b7 6d bd 15 39 1d 3e fb a6 9d 3d
       -0.09934751 -0.058036543 0.15353806 0.076978646
000120 bd 9c 42 b9 27 28 bb bd 73 d9 5d 3d 1a 7c 3e bd
       -0.00018559671 -0.09138518 0.054162454 -0.04650507
000130 1a c8 43 3c 53 79 12 3e fd 66 c6 bd 59 da 1c 3d
       0.011949563 0.14304094 -0.09687612 0.03829417
000140 fc 91 a9 3d c0 b9 10 bc 9a 42 ef b9 46 38 22 be
       0.082797974 -0.008833349 -0.00045635254 -0.15841779
000150 86 5b b8 bd 3d d0 7e bc 17 04 15 3e 74 44 4f bd
       -0.09001832 -0.015552578 0.14552341 -0.05060239
000160 7a 38 90 3c e1 a6 d0 bd 08 8c f3 3d 53 f6 cd bc
       0.017605055 -0.101880796 0.11891943 -0.02514187
000170 b5 2e c8 3d 54 60 0b be dc fc 1c bd e8 51 62 3d
       0.09774534 -0.13610965 -0.038327083 0.055253893
000180 70 be b3 bd 1c 64 49 3d e2 2d 3a 3d 1e c8 7e 3d
       -0.087765574 0.049167737 0.045453914 0.062202565
000190 64 aa be 3d f2 d0 e7 bd 6d 1c 85 3d 6a 1e 02 be
       0.09309843 -0.1131915 0.064995624 -0.12706915
0001a0 0c 13 4c bd 2f 98 f9 3d 76 6e 04 3e 5c 46 ac bd
       -0.049822852 0.1218723 0.12932763 -0.084118575
0001b0 de bf e4 bd 03 bf 80 bd 2e 68 9d bd da de 0d bd
       -0.11169408 -0.062864326 -0.07685886 -0.034636356
0001c0 98 b2 d2 3d d4 07 14 3e cd 33 3b 3d 64 ef 0e 3c
       0.1028797 0.14456111 0.045703698 0.008724067
0001d0 dc 55 ff 3b 4c f4 a4 bc 71 d5 27 bb 67 e3 d3 3c
       0.0077922177 -0.020136021 -0.0025609399 0.02586527
0001e0 b6 66 16 bc cd a4 a8 bd 5d 5f 0c 3d 3d f9 1f 3d
       -0.009179762 -0.08234558 0.034270633 0.03905605
0001f0 e2 78 9c 3d 3d fd 12 3e d1 76 05 3d 41 1c 1b 3d
       0.07640244 0.14354415 0.032584015 0.037868742
000200 ca ae 2b bd f2 82 99 bd 7b c0 86 3d 8c b1 3c bc
       -0.04191474 -0.07495679 0.065796815 -0.01151694
000210 98 b5 fa bc 77 ce b2 bd b6 e7 3a 3c 19 7b eb bc
       -0.030604169 -0.08730786 0.011407783 -0.028745221
000220 f0 bf af 3d 98 47 7b 3d 2a 1e 93 3d a9 cd 17 3e
       0.08581531 0.061347574 0.07183488 0.14824547
000230 15 0a 79 bd 50 d0 10 3e 36 14 d1 bb e6 78 88 3d
       -0.06080063 0.14141965 -0.006380583 0.066636845
000240 45 11 24 bd d8 91 08 be 05 05 fc bd 6f bb 28 3c
       -0.040055532 -0.13336885 -0.12305645 0.010298594
000250 1e 4e c2 bc 5c 6c 54 bc c0 58 9e bb ca 1c 07 3e
       -0.02371889 -0.012965288 -0.004832357 0.13194576
000260 b7 02 a6 3d ae 71 f5 bd 83 92 c7 bc 74 d6 af bd
       0.081059866 -0.11984573 -0.024361854 -0.085858256
000270 52 34 d3 bc ed 5b 18 3d fd 6e eb bd 83 92 95 bd
       -0.025781784 0.037197042 -0.11495779 -0.073033355
000280 37 66 9a 3d cc 50 04 3d 46 63 53 bd eb 9e c0 3d
       0.07539027 0.032303616 -0.051608346 0.09405311
000290 44 74 91 bd ea a7 06 be e7 ee 3e 3d d9 00 74 bd
       -0.07102254 -0.13149992 0.046614554 -0.05957112
0002a0 2b bb 0b bd 33 98 f8 3d b8 cb 23 bd 35 7b cb 3d
       -0.034114044 0.12138405 -0.039989203 0.09935609
0002b0 1e 40 bd 3d ed 05 00 bd bf 1f bc bd c2 ec 96 3d
       0.09240745 -0.03125565 -0.091857426 0.07369377
0002c0 55 9f 4c 3d 19 d0 9c bd 97 51 68 3d bc 4c 8e bd
       0.04995664 -0.07656879 0.056718435 -0.0694823
0002d0 ce e5 e3 3d 28 af be 3d ec 66 4e 3c 69 c5 cc bd
       0.11127816 0.09310752 0.012597781 -0.099985905
0002e0 99 fe 84 bd 6e e5 85 bd d1 4a 6c 3d 7a f8 51 bd
       -0.06493873 -0.06537901 0.057688538 -0.051262356
0002f0 bd 6c 25 3d 40 93 06 3d 54 f3 51 3d 90 d6 fe bd
       0.040386904 0.032855272 0.051257446 -0.12443268
000300 82 d2 64 bd b7 23 a8 3d d1 9c a8 bd b7 46 14 bd
       -0.05586482 0.08209937 -0.08233035 -0.03620025
000310 a5 b0 f6 bc 0b 9b 88 3c 76 10 0a 3d 20 3c 50 be
       -0.030113528 0.016675493 0.033707105 -0.20335436
000320 7f ba ed bd 64 fb 4d 3d f8 bd 1a 3d 7c ce b4 3d
       -0.11607837 0.050288573 0.037778825 0.08828446
000330 44 1b b1 3d a6 f2 16 be 45 85 49 be 04 0a 53 bd
       0.08647779 -0.14741 -0.19679745 -0.051523224
000340 26 a0 f3 bd 21 25 c3 bd f8 8b e0 bd 21 31 37 be
       -0.1189578 -0.09528566 -0.10964197 -0.17889835
000350 06 71 8b bc 5c e0 01 be 56 f2 13 3e f6 72 8f 3e
       -0.017021667 -0.12683243 0.14447913 0.28017396
000360 d0 cb d7 bd d3 80 87 3d 4a 7e b8 bd ef 7a 2b 3e
       -0.10536921 0.06616368 -0.09008463 0.16746114
000370 ab e3 e4 3d b9 e7 68 3d e5 63 95 bc 6f e8 f0 ba
       0.11176237 0.056861613 -0.01823611 -0.0018379817
000380 5c b2 2f 3d 0f d9 76 3d c6 20 98 bd 8b 7c 19 3d
       0.042894706 0.060265597 -0.07428126 0.03747229
000390 c8 26 a8 3d 34 90 02 bc 98 f7 84 bc ce c8 16 be
       0.08210522 -0.007968951 -0.016231343 -0.14725038
0003a0 04 ef d1 bd ea da 02 3d 4e 30 a6 bb 49 a1 cd bd
       -0.10250667 0.031947054 -0.0050716763 -0.10040528
0003b0 73 f7 7f 3d 48 f2 e5 3d a7 5a e3 3a 87 09 a1 3d
       0.062491845 0.11227852 0.0017345742 0.07863145
0003c0 59 84 d6 bd dd ce b8 3d 79 62 ef bc 89 ff fd 3d
       -0.10474462 0.09023831 -0.02922176 0.12402255
0003d0 3c 10 19 3e 78 71 b7 3d e1 32 b6 3c a1 84 16 be
       0.14947599 0.08957189 0.022241058 -0.14699031
0003e0 2e ad c1 3d 0e 9e 80 bd 09 0b d5 3d 6e aa 4b 3a
       0.094568595 -0.062801465 0.104024954 0.00077692315
0003f0 eb c4 5c bd 1d 13 79 bb ec 4b cc bd 74 91 f7 bd
       -0.053898733 -0.0038005777 -0.099754184 -0.1208829

lstm.weight_hh_l1 f4 [256, 64]
000000 e0 d5 16 3e 3a a6 a3 3d 5d 2e 05 be 89 54 84 3d
       0.14730024 0.079906896 -0.13005967 0.06461436
000010 16 3c 41 bd 81 9d 10 3d bc df ba bd 6d 5a c0 3d
       -0.047176443 0.035306457 -0.09124705 0.09392247
000020 ba 01 80 bd fb e5 09 3d 83 be 01 be 6f 52 b9 3d
       -0.06250329 0.033666592 -0.1267033 0.09048926
000030 cc 61 c0 3d 9c 8e 6c 3d f2 88 89 bd 1b ab 02 bd
       0.09393653 0.05775319 -0.06715573 -0.03190146
000040 2b bd 13 bc fe 10 dd 3d 1f f4 ad 3d 6d 0f 0f 3d
       -0.009017269 0.10794257 0.08493828 0.03492682
000050 80 61 81 3d f0 41 b0 3a 0e 17 03 be 1d 32 7e 3d
       0.06317425 0.0013447385 -0.12801763 0.06205951
000060 12 76 93 3c 0a 4f 13 3d 06 b5 ae 3d 08 d8 e4 3d
       0.018000636 0.03596405 0.08530621 0.11174017
000070 f9 1d cb bc ca 47 12 3e 90 61 e2 3b 0f 2b 69 bd
       -0.024794566 0.14285198 0.006908603 -0.05692583
000080 24 95 a3 3d 8d 5f 07 be 8c 60 ba bc f0 88 a8 3d
       0.07987431 -0.13220043 -0.022751115 0.08229244
000090 a3 d8 16 3c f8 83 db bd 07 2b bb 3d 6f b0 53 ba
       0.009206924 -0.107185304 0.09139066 -0.0008075302
0000a0 ba 97 33 bc a1 71 d4 bd bd 70 9a bb af 26 f7 bc
       -0.010961467 -0.103732355 -0.0047131465 -0.030169813
0000b0 56 66 08 be 1d a1 64 3d 8e 31 b2 bc 86 29 cb bd
       -0.13320288 0.055817712 -0.021752145 -0.09920029
0000c0 3e 05 6b bd 58 ae d6 3b 6b 1c e4 3c 58 b1 91 3d
       -0.057378046 0.006551545 0.027845582 0.07113904
0000d0 48 14 eb 3d 48 b2 f1 bd bb e6 1f bc 48 79 90 bd
       0.11478478 -0.118015826 -0.0097596 -0.070543826
0000e0 33 3a 4b bd d6 23 17 be f2 62 0c bc e8 44 50 3d
       -0.04961605 -0.14759764 -0.008568512 0.050846964
0000f0 bf 0e 84 3c d3 70 cc 3b 5c 73 ca bd ca 99 90 3c
       0.016120313 0.0062390356 -0.09885284 0.017651457
000100 f2 d4 81 3d 8d 9a 11 3d d0 bd 70 bc 03 b9 8c 3d
       0.06339444 0.03554778 -0.014693692 0.06871226
000110 38 ce 6d bd f9 51 c0 3d 42 68 71 3c 3f 13 a7 3d
       -0.058057994 0.09390635 0.01473433 0.08157968
000120 12 89 bf bd 21 42 a1 3d b6 25 c0 3d 2e 81 d8 3d
       -0.09352316 0.07873941 0.09382193 0.10571514
000130 ac a6 50 3d 96 75 b6 bd a0 d1 ea bc 41 b6 82 3d
       0.0509402 -0.089091465 -0.02866441 0.063824184
000140 ad 6a c4 3d 55 c6 93 bd fc e2 67 bd c0 a5 c7 3d
       0.09590659 -0.07215563 -0.056612954 0.09748411
000150 99 0a 9e 3d 94 f1 26 bd 10 c0 f3 3c 9c 54 8e 3b
       0.07716865 -0.04075773 0.029754668 0.0043435823
000160 e5 dc 4e 3d 93 2c 88 bd 85 c4 42 3b ec 47 e7 3d
       0.05050363 -0.06649127 0.0029719186 0.11293015
000170 3f 47 98 3d 36 d3 e6 3c d0 c3 78 bd 42 26 dd 3d
       0.07435464 0.028176885 -0.060733616 0.10798313
000180 c2 cc ed bc 84 46 fc bd 3f 1d ae 3b 2a cc a2 3d
       -0.0290283 -0.12318137 0.005313545 0.079490975
000190 5b 58 7f 3d 7e fb c0 bd 9f d5 04 bc 8c 93 e5 bc
       0.06234012 -0.09422968 -0.008107572 -0.028024457
0001a0 24 bd 78 bd 0f 4f bc bd fa 75 3e bc 82 67 83 3a
       -0.060727254 -0.09194767 -0.0116248075 0.0010025355
0001b0 d1 d5 cb bd e6 d6 b2 bd 63 d9 2e bd dd b6 ab bb
       -0.099528916 -0.08732395 -0.042687785 -0.005240305
0001c0 2f d0 8d bb fe 21 81 bd 70 f6 7a bd a1 de 94 3c
       -0.004327796 -0.063053116 -0.061270177 0.018172564
0001d0 c5 7c 65 3d 7f d7 4a bd 32 35 c6 3d e9 93 81 3c
       0.056027193 -0.04952192 0.09678115 0.0158176
0001e0 b5 72 bc bd f4 a8 b8 bd 65 da d6 bd ca b7 8d bd
       -0.09201566 -0.090166 -0.10490874 -0.069198206
0001f0 a4 d0 4c bc 80 5a 34 3d 10 06 2b 3d ce d4 0c bc
       -0.012500916 0.04403162 0.04175383 -0.0085956585
000200 dc 7a db 3d fd 23 06 3d 7e 1a 00 be 29 db 06 be
       0.10716793 0.032749165 -0.12510106 -0.1316954
000210 5b 9f 2b 3e f9 13 dd bd 29 31 2b bc 7b 2b ec 3d
       0.16760008 -0.10794825 -0.010448732 0.11531731
000220 ca e1 b9 bd 63 b6 8b bd 09 d4 fb bc a8 04 85 3d
       -0.09076269 -0.06821897 -0.030740755 0.06495029
000230 4c 8a 1e bc 21 4c 60 bd 01 a5 6f bd 7e c8 1a 3d
       -0.009676527 -0.054760102 -0.05850697 0.03778886
000240 be 15 8f 3d 12 b8 1d 3d 07 2a 01 bd 00 1a 7f 3d
       0.06986569 0.03850562 -0.03153422 0.062280655
000250 d2 04 b7 3c d4 23 20 3d 17 66 8c bd b7 8c cc 3d
       0.022341166 0.03909667 -0.068554096 0.09987777
000260 27 5a b1 bd 74 a2 c3 3a a7 55 39 bd c9 56 f8 3d
       -0.08659773 0.0014925734 -0.0452477 0.12125928
000270 ea 9b 36 3d 44 2e b6 bd 25 f9 1b 3e 82 0e af bd
       0.044582285 -0.08895543 0.1523176 -0.08547689
000280 3a e0 11 3e 27 d6 95 bd 0d c7 a2 bd a4 6f 30 3d
       0.14245692 -0.07316237 -0.07948122 0.04307522
000290 88 ca 13 be e1 04 8d 3b 2b 10 48 bd 92 18 0c 3e
       -0.14432728 0.00430356 -0.048843544 0.13681248
0002a0 c6 83 b5 3d 3f 5f a1 bd bd 42 e2 3c 3c d7 8e bb
       0.088630244 -0.07879495 0.027619714 -0.004359154
0002b0 9a 70 c4 3c f3 a1 cb bd 7f d6 bf bd 86 91 a8 3d
       0.023979474 -0.09942999 -0.09367084 0.082308814
0002c0 84 15 d0 bd 17 13 2b 3d 63 a6 ca bd 9f 4d 26 bd
       -0.10160354 0.041766252 -0.09895017 -0.04060137
0002d0 d2 ed d4 bd 96 a3 52 bd 22 49 0c 3e a0 db ca bd
       -0.10396923 -0.05142554 0.13699773 -0.099051714
0002e0 f4 67 8b 3d 75 47 a5 3d 3f 75 0e be 44 cf 7b 3d
       0.06806937 0.0807027 -0.13911913 0.06147696
0002f0 fb 7d af bd e8 a7 14 3d 8e be 05 3e 59 7c 8f 3d
       -0.08568951 0.03629294 0.13060972 0.07006139
000300 c6 39 a9 bd 68 a2 10 3e ed d9 c8 3c 41 b7 85 3b
       -0.082629725 0.14124453 0.024517978 0.0040806835
000310 2f 10 59 bd 64 58 47 bd 80 1d 19 3d c4 02 04 3e
       -0.05299395 -0.04866828 0.03738165 0.1289168
000320 e3 a0 4c 3d 60 d9 1e bd 95 78 d9 bd df 06 90 3d
       0.04995812 -0.038781524 -0.10618702 0.070325606
000330 a2 92 4e bd ca 8a c7 3d 02 04 b2 3d 1b 40 f0 bc
       -0.05043281 0.09743269 0.08692171 -0.029327443
000340 80 26 69 bc de eb cf bd 12 2d c4 bd c1 c3 e3 bd
       -0.0142303705 -0.1015241 -0.09578909 -0.111213215
000350 39 c9 ab bd d6 20 fa 3d fd d3 18 be 86 d1 e2 3d
       -0.083879896 0.12213294 -0.14924617 0.1107512
000360 ae 46 cb bd 7f 8f 0f 3d 27 9e be 3d f3 33 12 3e
       -0.099255905 0.035048958 0.09307509 0.1427763
000370 66 a1 8d 3c 08 a5 a9 bd 8c b8 e8 3d 02 fc 69 3c
       0.017288875 -0.0828343 0.113633245 0.014281275
000380 de 4c a3 bc 00 98 76 bd 47 7c 6f bd 23 e2 6a bd
       -0.019934114 -0.060203552 -0.05846813 -0.057344567
000390 0c d6 df bd 62 4a 9e 3c ea fa 19 bd 57 3f 8c bb
       -0.10929498 0.019322578 -0.037592806 -0.0042800116
0003a0 97 d4 6f 3d d5 ef 1a bd 0a 54 1e 3e 57 30 86 bd
       0.05855235 -0.037826378 0.15461746 -0.06552189
0003b0 68 af ed bd ee 0d 6e bd 85 83 2d be ff 15 dc 3c
       -0.11605722 -0.058118753 -0.16944702 0.026865957
0003c0 e2 53 87 bc 90 79 dc bd b0 e8 90 3d 09 b8 73 bd
       -0.01651949 -0.10765374 0.070756316 -0.05950168
0003d0 96 5a b4 3d 42 57 0e be 05 c7 d6 bc 79 b9 68 bd
       0.088063404 -0.13900474 -0.026217947 -0.056817506
0003e0 1f 22 c8 bd a6 25 0b 3d c4 11 b0 bd db fe 89 bd
       -0.09772133 0.03397145 -0.085971385 -0.06738063
0003f0 d6 92 02 3d 42 6d 12 bd db 75 d4 3d 41 f8 6f 3d
       0.031878315 -0.035748728 0.10374042 0.058586363

lstm.bias_ih_l1 f4 [256]
000000 73 3b 50 3d 1e 57 d7 bd ce bd ab bd fb 92 81 3d
       0.050837945 -0.10514663 -0.08385812 0.063268624
000010 95 84 b8 bc d8 3c 81 bd 5a 3a 10 bd bc 22 a2 bd
       -0.022524158 -0.06310433 -0.0352119 -0.07916781
000020 4f 24 1e 3d bb b5 e2 3d 32 f0 f6 bd af 58 09 be
       0.038608845 0.110698186 -0.12057532 -0.13412736
000030 3b ff 84 bd 33 c0 5f 3c fc 3c 65 bd 4c c1 b8 bc
       -0.06493994 0.013656664 -0.055966362 -0.022553109
000040 c7 da 86 bc 17 90 0e be b0 45 d6 bd b1 d8 73 3d
       -0.016461743 -0.13922153 -0.104625106 0.059532825
000050 b8 be b8 3d 35 8b be 3c 0d eb 0e 3b 85 e1 3f 3c
       0.09020752 0.023259738 0.0021807582 0.011711483
000060 98 16 c0 bb 51 28 cb bd f7 ce 85 3b 4a 59 e9 bd
       -0.0058620684 -0.09919799 0.00408351 -0.11393984
000070 86 28 a0 bd 8c b1 b1 bd c7 bf 9b 3d 4f e7 1f be
       -0.07820229 -0.086764425 0.07604938 -0.15615581
000080 da a5 e1 bd ef 71 03 be 12 c4 a1 3d ff bc f1 bd
       -0.11017962 -0.12836431 0.078987256 -0.11803626
000090 6d 3f 28 bd 67 fb d7 bd 23 a5 d6 bd a6 ad 0d be
       -0.041076113 -0.10545998 -0.10480716 -0.13835773
0000a0 d2 50 97 3d 10 0e ea 39 18 72 07 be f9 14 00 bd
       0.07388462 0.00044642435 -0.13227117 -0.03127
0000b0 98 a1 15 3c 5d 24 84 3c 33 ad 91 3d 78 5f 17 3d
       0.009132765 0.01613062 0.07113113 0.03695628
0000c0 9f cd de bd d0 8c 69 3c 05 a2 98 3d 54 04 cf 3d
       -0.10879063 0.014254764 0.07452778 0.101082474
0000d0 23 ef 7b bc 12 6a c7 3d b3 77 f4 bd 36 38 98 bc
       -0.015376839 0.09737028 -0.11936893 -0.018581491
0000e0 55 1a ac 3d 0d f3 e7 bd fd 88 48 bd 1a dd 84 bd
       0.0840346 -0.11325655 -0.048958767 -0.06487484
0000f0 89 dd 52 bd 9e c8 04 be 30 21 25 3d dd 7a e7 bd
       -0.051480804 -0.12967154 0.040314853 -0.11302731
000100 5f a6 23 be ce d1 6d 3a 25 85 d2 bd e0 94 85 3d
       -0.15981434 0.0009072096 -0.102793016 0.06522536
000110 86 01 d6 bc e4 d3 35 be ee fd f5 bd 1b f6 81 3d
       -0.026123773 -0.17756611 -0.12011324 0.06345769
000120 21 3a 1b bd 88 70 d5 bc 3a 24 56 3d 80 af f9 3d
       -0.037897233 -0.026054636 0.052280642 0.12191677
000130 16 8f af 3c 60 37 46 ba 56 23 6b bd 80 96 b1 3d
       0.021430533 -0.0007561352 -0.057406746 0.08671284
000140 ca aa 22 bd 9d db 06 bd ae 15 a7 3d b1 06 cb bd
       -0.03971366 -0.032924283 0.08158432 -0.09913386
000150 f9 bd 7f bc e3 2a e8 3c b0 62 b4 bd 3e 51 bf bd
       -0.015609258 0.028340762 -0.08807886 -0.093416676
000160 5d 27 46 3d b8 14 5c 3d 81 19 7d bb 10 77 d0 3c
       0.048377384 0.053730696 -0.0038619938 0.025447398
000170 f0 a1 91 bd 20 a3 01 be e7 df 0b be da 1e 2d 3c
       -0.07110965 -0.12659883 -0.1365963 0.010566438
000180 57 86 02 3d eb 27 dc bd 71 f7 e4 bd d0 21 b2 bd
       0.031866398 -0.10749801 -0.11180008 -0.086978555
000190 03 34 c1 3c e4 56 55 3b b3 a8 9c bd 86 ea 14 3d
       0.023584371 0.0032553012 -0.07649364 0.03635647
0001a0 00 12 cd bd 85 c8 c8 bd cf 0e 70 bd 33 5a b7 bc
       -0.10013199 -0.09803871 -0.058607873 -0.022381878
0001b0 40 74 96 3d 29 af 76 bd b1 19 42 3d 24 75 0d 3c
       0.07346392 -0.06022564 0.047387782 0.0086338855
0001c0 26 ec de bd 23 3a f3 3c b8 1d 4c bc cd 53 72 bd
       -0.108848855 0.029690808 -0.012458257 -0.05916195
0001d0 a6 65 b4 3d 2d 13 85 bd f8 ea 5a 3c c4 9d 78 3d
       0.088084504 -0.06497798 0.013361685 0.060697332
0001e0 39 0c ed bd 2c b6 c6 bc 5f a0 f5 3c 9d c2 d4 bd
       -0.11574597 -0.024256788 0.029983697 -0.10388682
0001f0 01 88 42 bd a6 44 be bc 9a 70 d3 bd 7b d1 21 3d
       -0.047492985 -0.023226094 -0.103242114 0.039506417
000200 af 47 63 bd 63 c5 af bc dc fc bc bd 48 e0 b3 bd
       -0.055488285 -0.021456426 -0.092279166 -0.08783013
000210 68 68 ea bc 46 57 16 bd 44 50 1f 3d 86 ec ed bd
       -0.028614238 -0.036704324 0.038894907 -0.11617379
000220 2e 66 9f 3d 02 89 0e bd 37 ee 11 bd 7c 9f a4 bd
       0.07783161 -0.03479863 -0.03562757 -0.08038232
000230 72 88 14 bd ec 84 fd 3c 20 5b b5 bd e8 76 8a 3c
       -0.036262937 0.030947171 -0.08855271 0.016902402
000240 6d 82 f5 bd b8 a0 29 bd 3a 43 85 bd 6d 56 d5 3d
       -0.11987767 -0.04141304 -0.06506963 0.10416875
000250 89 31 06 be 5c 50 39 bd d2 98 a8 3d 49 f6 b6 bc
       -0.13104834 -0.045242652 0.08232273 -0.022334235
000260 2c 34 be bd eb c6 9a bc 3d 3c e8 bc 2d 7a a9 bc
       -0.09287295 -0.01889368 -0.028349036 -0.02068814
000270 91 50 95 3d d7 cf a2 3d 58 85 12 be 59 0a d9 3d
       0.072907574 0.079497986 -0.14308679 0.10597677
000280 e6 63 5d bc c3 41 27 bd dc a6 df bc 74 98 41 3d
       -0.013512587 -0.0408342 -0.027301244 0.04726453
000290 4a 98 57 bd 7d e0 90 3d b7 c7 77 bd e1 95 ad bc
       -0.05263547 0.07074068 -0.060493197 -0.021189632
0002a0 af 87 a3 bd cd 5d 03 3c 8c 30 07 bd 06 0d 2b 3d
       -0.07984864 0.008017969 -0.033005282 0.041760467
0002b0 9e cc 14 be aa 94 fe 3c 8a e3 b4 3d 54 e3 b2 bd
       -0.1453118 0.031076748 0.08832462 -0.08734766
0002c0 1d bd e2 bb 3b 86 f6 bc 3e 8c bd 3c a9 62 21 be
       -0.0069195167 -0.030093303 0.023138162 -0.15760292
0002d0 a3 07 0b bc a9 e8 94 bd 55 e7 bb bd 10 f1 9a bd
       -0.008485707 -0.07270939 -0.091749825 -0.0756551
0002e0 af dc e8 3c 2b 36 ab bb f2 cd f1 3d a3 0b 56 3c
       0.028425543 -0.005224963 0.11806859 0.013064298
0002f0 fa 23 4f bc 51 23 d9 bc ae d7 70 3d cf e3 cb 3d
       -0.012642855 -0.026506098 0.05879944 0.099555604
000300 bb 0c fc bd b5 20 e6 bd 04 17 7e bd 61 0c 88 bd
       -0.12307116 -0.11236707 -0.06203367 -0.06642986
000310 89 7c ef bd 98 88 eb bc 04 9a 9b bc fb bc 0f be
       -0.11693675 -0.028751656 -0.018994339 -0.14036934
000320 2c cd 92 3d e3 c1 45 3c 6a 4f 5a bd db c9 05 be
       0.0716804 0.012070152 -0.05329839 -0.13065283
000330 28 80 9a bc fc 0f a9 bd 17 03 e2 bd 22 d1 15 be
       -0.018859938 -0.08255002 -0.110357456 -0.14630559
000340 5b 98 ca 3d 21 16 11 be c5 87 0d bd d7 df 15 be
       0.09892341 -0.14168598 -0.034553308 -0.1463617
000350 1e fd 03 be c5 57 aa 3c 96 a7 ac 3d 4b 95 c2 bb
       -0.12889525 0.020793805 0.08430402 -0.0059382073
000360 3b 99 f1 bd 03 9c 02 be 37 95 b9 bd 44 eb 0f be
       -0.117968045 -0.12754826 -0.090616636 -0.1405459
000370 02 37 b8 bd 5e 87 e6 bb 4e a5 c5 bd 69 1f 9b 3c
       -0.08994867 -0.00703518 -0.0965067 0.018935876
000380 0e 1e ba 3c 3e 68 a1 3d 26 f2 9b 3d 3d aa f3 bc
       0.02271941 0.07881211 0.076145455 -0.029744262
000390 0f 10 ae bd 55 41 ba 3d 1d f8 4f bd 41 1f f1 bd
       -0.08499157 0.09094492 -0.05077373 -0.11773539
0003a0 7c ea 81 3d 4d 44 1a bd 69 db 49 3b a0 74 a0 3c
       0.063435525 -0.037662793 0.0030800945 0.019586861
0003b0 2e 02 20 bc ce 49 53 3d 71 18 55 3d a0 e3 e9 bd
       -0.009766145 0.051584058 0.052025262 -0.11420369
0003c0 52 50 b4 3c a9 a4 8e 3d 44 6c dd 3c 30 29 48 bd
       0.022010956 0.06965 0.027029164 -0.048867404
0003d0 c5 c6 d2 3c ab e7 68 3a f6 b4 ca 3d df 83 d8 bd
       0.025729546 0.0008884619 0.09897797 -0.105720274
0003e0 f2 3c 94 3d 7d 38 e4 bd 2d b1 7a 3c 71 8d d5 bd
       0.07238187 -0.11143587 0.015301031 -0.104273684
0003f0 7f 26 a8 bb 1b 20 ad bd 35 23 d4 3c 8a 0a 18 bd
       -0.005131542 -0.08453389 0.025895694 -0.037119426
