Competition/TrainAI/model/s/model_weights_1.pth (torch, 241895 bytes, 10 tensors)

lstm.weight_ih_l0 f4 [256, 36]
00000000: 7a62 223d dbd0 193d a1da 093e d591 353d
00000010: 0dfb 983c 83cd ec3d 1c51 a33d 227f ef3d
00000020: d436 ad3d d490 a93d ddc8 fc3d 8eb7 073e
00000030: 83c1 5cbe b2a3 39be 96d6 6f3c 4896 d23d
00000040: 2ebf 6c3e 27e0 a23d cbf5 7f3e df1d d33d
00000050: 23be 05be bc51 a23d 5b46 64be 7db3 c63d
00000060: cd77 5a3d a439 0dbc 93ee 153d 75ff 10be
00000070: 0109 1cbe 40db e2bd 5a24 903d 06fc 383e
00000080: 465f 0b3c 7d4c 873c 20fe 28be b367 d8bb
00000090: cfc5 783d f813 ffbd 754f e73d a37e f8bd
000000a0: edba 043d c67e aa3d ad15 61be 22b0 853c
000000b0: d00e 9c3d 5302 9f3c 7739 c0bd da90 a4bd
000000c0: 4e36 fb3d f89d 2b3e 1d7f ed3d f6e1 adbe
000000d0: 67c2 17be 14cf 36be 94d9 aa3c ab4a 723e
000000e0: 4838 51be dfc7 31be f098 8a3e a054 9b3e
000000f0: a387 9ebd 7046 683e 3e25 56be 6b26 83be
00000100: 7e67 973e 0aca 54be 9ad2 fd3d b2ee 0a3e
00000110: d442 ebbd 44f6 5d3e e6ef 41bb 5f5c 333e
00000120: 72cb 503e 79cb 923d 9a98 e33d ed13 00be
00000130: 614d c0bb fbbe 643e 4d06 98bd badd 2d3e
00000140: 8b56 7a3e 0cb4 d6bd cc6e 233d f748 b83c
00000150: 7ff1 20bd 4c31 8cbd 76a2 d33d 28c8 89be
00000160: 6fed 483e 7899 89bd 42ce 8d3e 201d a9bd
00000170: 0939 27bc 150d e5bd 712e dd3d 5f85 43be
00000180: 858c 473d ead1 95bd 8f40 1cbe f384 02bc
00000190: 7ae4 fb3d f1f1 a23c 6390 063e 6c4a 86bd
000001a0: a940 abbd 03c8 82be 8fbf f93d 0543 3d3e
000001b0: dbaa 413d 9dd7 cdbd 2fec 413e 638f babe
000001c0: dc5a babd e432 1a3d cdbd 8dbe 5031 f5bd
000001d0: f449 a8bd fb4b 713e d2b8 943d b048 82be
000001e0: 41d9 bd3d 8e8c 3ebe 4c62 30be e51d 16be
000001f0: 3beb afbe f8a8 05be fdf4 f2be 52a7 eabd
00000200: 3725 9abd aae6 a83c d73d 23bd 7f1a 633d
00000210: 6d0f ea3d ed50 c0bc 972c 1c3e 986c 1b3e
00000220: 7128 6fbe f5ca c73d cc69 8fbd 038c 50be
00000230: 2fac a1bb ce0c 9ebe da47 a73c b284 7a3e
00000240: 8a8a de3d 3add dbbd 5ccd 91bd a5d0 9dbc
00000250: e9bf e1bd 4ce2 95bc 55dc 7ebc 5ac3 0ebe
00000260: d304 43be 261b 65bb c65d 3ebc a9a3 f8bd
00000270: 01d8 0e3e 362f 0a3e 90a7 d8bd 9570 4dbe
00000280: 04e7 de3d d406 bdbc 70ab 2cbd 856f 203d
00000290: 4c75 453d d652 afbc 8e8a 9e3d 03b2 573e
000002a0: ca0f 0b3d af7e 073e 24f2 5e3d 7c87 abbd
000002b0: 7f3f 833d 0672 173d 8930 fd3d 354c c93d
000002c0: d212 6abd f618 75bd 0bad 3ebd b11e c4bd
000002d0: 0b02 46be c3bd 5d3d 5090 8abd 290e 87bc
000002e0: c90b 21bd 1eb0 90bd df90 b0bd 720b 1a3e
000002f0: 6b3c abbc 8bb0 933d b7b5 773c 3111 513d
00000300: ac21 c2bd a0f5 8cbe 4890 c9bd 4144 ecbd
00000310: 1ab7 373e d66f c2bd 3b94 973d 2b33 fc3d
00000320: 4480 e9bc 3e64 8e3d 1c9a c13d e981 35bd
00000330: 64eb 643c b491 bdbd af2c f6bd 194c 12be
00000340: 2f70 5c3b eb5b 593b 8773 8d3d 2b26 0e3d
00000350: 0090 d5bd d3bf f93d f52b 86bd 870e 55bd
00000360: f27a 90be 1f87 823d 782d ed3d 42f2 003d
00000370: fa49 08bd 39bb 433d ca99 703d d388 983d
00000380: 4e79 163e 0529 f8bd 75dc ebbd 0508 913c
00000390: f708 e93d 37ed 6d3d 3eba 8b3d d238 b5bd
000003a0: 72b5 2abe 3ea3 e3bc f99b 61be ed55 483e
000003b0: 5e0f 82bd 1660 1c3e 075e 2d3d f7b9 1cbe
000003c0: 9b87 25bd 80d7 6abd cc9a c0bc 164a 42bd
000003d0: 9cea 64bd 88e8 0b3e 6bb2 833d 8f8f 843d
000003e0: a55f 883d 5143 7a3e cfa5 a03d 6793 fa3d
000003f0: 475d 24be 125f 3c3e 38c3 573e 9b08 09be
0.039644696 0.037552696 0.13462307 0.04432853 0.018674398 0.11562636 0.07974455 0.116941705
0.08457723 0.08279577 0.12342999 0.13253614 -0.21558194 -0.18128851 0.014638564 0.1028257
0.23119804 0.0795291 0.24996106 0.10308432 -0.13060813 0.07925746 -0.22292463 0.097022034
0.053336907 -0.0086197 0.036604475 -0.14159949 -0.1523781 -0.11076975 0.070381835 0.1806489
0.008506602 0.016515965 -0.16503191 -0.006604159 0.06073552 -0.124549806 0.11294452 -0.12133529
0.03240483 0.08324961 -0.21980925 0.016319338 0.07620013 0.019410288 -0.093859605 -0.08035441
0.12266217 0.16759479 0.115965106 -0.33961457 -0.14820252 -0.17852432 0.020855702 0.23661296
-0.20431626 -0.17361401 0.27069807 0.30338 -0.077407144 0.2268312 -0.20912644 -0.25615248
0.29571146 -0.20780197 0.12393685 0.13567618 -0.11487356 0.21675974 -0.0029592454 0.17515706
0.20390108 0.071677156 0.11113091 -0.12507601 -0.0058685993 0.22338478 -0.07423077 0.16979113
0.24447076 -0.1048356 0.039900586 0.02249573 -0.03929281 -0.0684534 0.10333721 -0.2691052
0.19621824 -0.06718725 0.27696425 -0.08257508 -0.010206469 -0.11184136 0.107998736 -0.19093846
0.048717994 -0.073154286 -0.15259002 -0.007966268 0.12299438 0.019890757 0.13141017 -0.065571636
-0.08361942 -0.25543222 0.1219474 0.18482597 0.04728208 -0.100508906 0.18937753 -0.3643752
-0.09099361 0.03764619 -0.2768387 -0.11972296 -0.082172304 0.2356414 0.07261814 -0.2544608
0.092699535 -0.18608305 -0.17224997 -0.14659841 -0.34359154 -0.13052738 -0.47452536 -0.11457695
-0.075266294 0.020617802 -0.039853897 0.05544519 0.114287235 -0.023476088 0.15251385 0.15178144
-0.23355271 0.09755508 -0.07002601 -0.2036591 -0.004933856 -0.30869144 0.020420004 0.24464682
0.10866268 -0.10735555 -0.07119247 -0.019264529 -0.11022932 -0.018296383 -0.015555461 -0.13941708
-0.19044809 -0.0034958809 -0.011619037 -0.12140591 0.13949586 0.13494572 -0.10578835 -0.20062478
0.108839065 -0.023074545 -0.042155683 0.039168853 0.048207566 -0.021401804 0.07741271 0.21064
0.033950604 0.1323192 0.054430142 -0.08375451 0.06408595 0.036973976 0.12362773 0.098289885
-0.057146855 -0.059838258 -0.046551745 -0.095761664 -0.19336717 0.05413605 -0.06765807 -0.016486244
-0.03931788 -0.07064842 -0.08621382 0.15043429 -0.020902833 0.07211407 0.015119008 0.051041786
-0.09479079 -0.27531147 -0.098419726 -0.11536456 0.17940941 -0.09493987 0.074013196 0.12314447
-0.028503545 0.069527134 0.09453222 -0.044313345 0.013972137 -0.09256306 -0.120202415 -0.14286841
0.0033636203 0.003316636 0.06906801 0.03470437 -0.104278564 0.12194791 -0.06551353 -0.052015807
-0.282188 0.063734286 0.11580938 0.031481035 -0.033273675 0.04778597 0.058740415 0.07447972
0.14694712 -0.12117199 -0.11516658 0.01770402 0.11378663 0.058087554 0.06822632 -0.08848728
-0.16670778 -0.0277878 -0.22032155 0.19564028 -0.06350587 0.15271029 0.042326 -0.15305315
-0.040412527 -0.057334423 -0.023511313 -0.047433935 -0.055887803 0.13662922 0.06430515 0.06472694
0.06658868 0.24439742 0.078441255 0.12235146 -0.16051207 0.18395641 0.21070564 -0.13382189

lstm.weight_hh_l0 f4 [256, 64]
00000000: 3167 903c ec05 1ebe 1b52 5d3e bdb8 f9bd
00000010: c16a bebd 3d46 053e c53a da3d 8877 2dbe
00000020: 1d28 52be 72ae b0bd d4b5 ee3d e9b0 e63d
00000030: 3df6 a8bd bda7 98bc e9c3 1b3e 3cd4 9a3d
00000040: 204c 6f3d feb6 6cbe 77da 113e 307b 7a3e
00000050: ea57 bd3d 2c98 943d 08e5 ffbc caa7 cdbd
00000060: 8cf7 2bbd f542 143d 0f0b 41bd 54dc abbc
00000070: 6a69 73bd 21e8 40bd dcd3 e63c d385 2fbd
00000080: 3248 c33d 6b25 ebbd a13d 703d cfa3 213e
00000090: 7506 0bbe 529c 443d a7d2 b3bb fd26 963c
000000a0: 4e1a 5abe 9b97 d53d 8071 ad3c d567 13bc
000000b0: da82 013d 6fd8 053d cf23 723d c1dd e93d
000000c0: 196c 9d3b 8a4a 343d 0875 7e3e a0cd d03c
000000d0: 5784 12be 9f96 d83d 9ce3 e9bd b25c 3abd
000000e0: df08 0a3e 3abd 05be 1f80 103d 37ee 64bb
000000f0: 8c74 9f3d 3b18 10be be27 413e 607a f7bd
00000100: bd82 cc3d e418 5c3e 74d6 afbd 0f7d 9d3e
00000110: 73b3 ee3d b5df 65bd de24 0dbd f25b b33c
00000120: 6f22 d5bd 32cb c0bd dc22 56be d184 58bc
00000130: 7c45 d43d c6c8 32be 67ac 093d 9025 53bd
00000140: f5d0 5ebe 30a8 7b3e dccc debc 618e 82be
00000150: 98f4 a4bc d251 b3bd 9a2b cabd 85d4 8bbe
00000160: 66eb 47bd adfa 093b d763 c83d f285 92be
00000170: 5df3 cf3d af71 2d3c dccb 7abd c4a0 433e
00000180: 12ef 44bc 55fd a4bc 779a 81be 257c a63d
00000190: c4bb 643e ca83 e5bd 52de e5bc fa8d babc
000001a0: ab55 9abd 4177 d53c 6294 a3bc 81f8 9c3e
000001b0: e5f5 893c e255 2e3e 83e1 d9bb f625 9e3d
000001c0: 089d 193e 4664 85be 379b 5cbe 7fad 90bc
000001d0: cab5 8a3e da7e e5bc 1616 1a3d 94d3 3ebd
000001e0: b081 e83d 000d 2e3d 3efe 243d d9b2 00be
000001f0: ca38 63bd db99 ddbd 9eca 063c 24c0 4b3d
00000200: 9403 efb9 a073 eebb 1a90 a9bd 9f46 09be
00000210: 6392 d2bc 864a 6a3e 1a0c 41be a008 4cbe
00000220: bad2 553e 9b30 053d 2302 04bc 3565 63bd
00000230: 1d44 02be f568 e1bc e5a4 173d e578 803c
00000240: 6f24 863d d3b2 f8bc f7fb 823d 349e 063e
00000250: 0321 d2bb f7a2 053c d8c7 7e3d aaad 92bd
00000260: eea6 bd3d 19f6 5ebe a951 42bd 1486 d0bd
00000270: ca69 01be 488a c5bc 35db bb3d 6513 0c3e
00000280: 8f4e 693c 9541 443e 5466 a63e c984 8f3d
00000290: 4e61 03be 926b c4bd c34d 70bc b0d1 4a3d
000002a0: eda3 98bd 04a7 10be fcdd 293d 8c82 833d
000002b0: af48 01be 003a ffbd a079 a039 dc99 393e
000002c0: 5769 3b3e 2d07 d4bd 6d3d 363d 91a7 38be
000002d0: 2630 723d ad54 0dbd 639e 203e e730 90bd
000002e0: 5089 c13d 4170 aabd 6e33 5a3d 37a9 abbd
000002f0: b489 dbbd 6597 17bd aae1 0bbe 0693 85bd
00000300: 846a 943e 3f74 bbbe cae8 033e f4d9 afbd
00000310: 7ffb d43d e895 8d3d a6d7 323d 0b87 703e
00000320: 0484 a8be 6d5e 23bd 5126 5cbe 6c81 913c
00000330: a407 083c 10b6 743d 3309 cabd 57fc cfbe
00000340: 721c 193e a469 b0be 9866 5ebd aa40 cc3e
00000350: f1d9 da3d e796 88bc e0a6 e4bd bbe7 653e
00000360: 5387 8a3d 66d6 323e 474c f03d e8b7 23bd
00000370: 4454 43be 3a6a aabe b7d7 b33d e909 1e3e
00000380: 1973 1cbd 9091 10be 90c7 cd3d f5f4 763e
00000390: 781f 82be 868b 803d cb4a bf3c 7d63 203e
000003a0: 7e98 003e 5021 383e 3e34 4abe 0c0c 9ebe
000003b0: 7489 423e 2469 22bd 1e65 08be 2e8a ab3e
000003c0: 674d 98be 2f9a 5a3e 0ab7 1d3d d258 013e
000003d0: f163 8cbc b4d9 4dbe c583 d33d 8ff4 b03d
000003e0: 55f0 febc 777a 29bd c7da 39bd 2397 a6be
000003f0: fcd7 ccbd 0524 923d df8f 453e 4627 82bd
0.01762733 -0.15431947 0.21613352 -0.12193439 -0.092977054 0.13015075 0.10655741 -0.16940129
-0.20523115 -0.08627023 0.11655775 0.11264212 -0.08250091 -0.018634671 0.15211453 0.07560012
0.058422208 -0.23116681 0.14243494 0.24461055 0.09245284 0.07255587 -0.03123714 -0.10041769
-0.041984126 0.036196668 -0.047129687 -0.020979084 -0.059426703 -0.047096375 0.028177194 -0.042852234
0.095352545 -0.11481746 0.058652524 0.15785144 -0.13576682 0.04800064 -0.005487758 0.018329138
-0.21299097 0.10429307 0.021172285 -0.008996923 0.03161893 0.03267711 0.05911618 0.11419249
0.004804146 0.0440164 0.24849331 0.025488675 -0.14308296 0.10575604 -0.11420366 -0.045498557
0.13479947 -0.13060465 0.035278436 -0.0034932026 0.077859014 -0.14071743 0.18862817 -0.12083888
0.09985874 0.2149387 -0.085858256 0.30759475 0.11655321 -0.056121547 -0.034458987 0.021894429
-0.10406958 -0.094137564 -0.20911735 -0.01321526 0.103648156 -0.17459401 0.03361168 -0.051549494
-0.21759398 0.24575877 -0.027197294 -0.2549925 -0.020136163 -0.0875584 -0.098715976 -0.27310577
-0.048808478 0.0021053955 0.09784668 -0.28617817 0.1015384 0.010586186 -0.06122957 0.19104296
-0.012019889 -0.02014033 -0.2531316 0.081291474 0.22337252 -0.112067774 -0.028060112 -0.022772778
-0.07535871 0.026057841 -0.019968215 0.30658343 0.016840884 0.17024949 -0.0066491975 0.07722084
0.15001309 -0.26053065 -0.21543585 -0.017660854 0.2709182 -0.02801459 0.03761872 -0.046588495
0.11352861 0.042492867 0.040281527 -0.12568225 -0.05547408 -0.10820361 0.008227019 0.049743786
-0.00045588298 -0.007276967 -0.08279438 -0.13405846 -0.025704568 0.22879991 -0.18852273 -0.19925165
0.20881167 0.032517057 -0.00805715 -0.05551644 -0.12721296 -0.027515868 0.03702249 0.015682647
0.06549918 -0.030358708 0.06395715 0.13146287 -0.0064126267 0.00815653 0.062202305 -0.0716203
0.09260355 -0.21773566 -0.04744116 -0.101818234 -0.12638012 -0.02411379 0.0917267 0.13679273
0.014239921 0.19165643 0.32499945 0.07007749 -0.12830088 -0.0959083 -0.014666977 0.04951638
-0.07453141 -0.14126211 0.041471466 0.06421384 -0.12625383 -0.124622345 0.00030608196 0.18125099
0.18301903 -0.10352931 0.044492174 -0.18032672 0.05912795 -0.03450458 0.1568542 -0.070405774
0.094500184 -0.08322192 0.053271703 -0.083818845 -0.10719624 -0.037009615 -0.13660303 -0.06522183
0.28987515 -0.36612126 0.1288177 -0.08586493 0.103995316 0.06913358 0.04366269 0.23489015
-0.3291322 -0.039884973 -0.21498992 0.017761908 0.008302603 0.05974394 -0.09865036 -0.40622208
0.14952257 -0.34455597 -0.05429706 0.39893085 0.106861 -0.016673518 -0.111646414 0.2245168
0.06764092 0.17464599 0.11733299 -0.03997031 -0.19075114 -0.3328417 0.08781379 0.15433468
-0.038195703 -0.14118028 0.10047829 0.24116881 -0.25414634 0.06276612 0.023351094 0.15662952
0.12558171 0.17981458 -0.19746491 -0.30868566 0.18997747 -0.03965105 -0.13319823 0.3350386
-0.29746553 0.21347879 0.038504638 0.12631539 -0.0171375 -0.20102578 0.103278674 0.08640396
-0.031120459 -0.041376557 -0.045374658 -0.32537183 -0.10002133 0.071357764 0.19293164 -0.06355147

lstm.bias_ih_l0 f4 [256]
00000000: 168c 3f3d 2795 19be d3f9 17be 18b1 c63e
00000010: 89d3 95bc 4756 10be 40aa b5bc bd47 24be
00000020: 7a9c 1cbe 8531 50be db83 6fbe 8a2d 21be
00000030: 607d df3c 8c75 ddbc 9021 243f 5b19 3dbe
00000040: a17e b13e 989b 7d3e 3c6d be3c d574 d0bd
00000050: a091 99bd ba92 9ebd 67d0 69bd e1f2 e53c
00000060: a536 4bbe 7960 963c 5078 14bd 53b2 84be
00000070: 15e4 8cbc f090 d9be 5a11 51be ea4c 95bd
00000080: 6f98 d4bd 54a9 53be 6ec0 c33d 6b2a c9be
00000090: ca20 b8bc f51a bc3c 15b5 bc39 df23 19be
000000a0: 22f6 56be d6b2 85be b645 163d ab1a 2ebf
000000b0: d983 a83c 42c8 6cbd 9193 0cbe 5efe 97bf
000000c0: 1cb7 793d adb1 023e 9a9e f8bd 7439 b13d
000000d0: 8491 10be 3fa9 153e 7e99 373e 1d6b fb3c
000000e0: e255 44be f2fe b0bd 5557 acbd 2045 0ebe
000000f0: c196 df3d 9c9e 4dbc 8896 7cbf 4c32 36be
00000100: 310d 5b3d 733f 24be 3652 50bd ff34 cb3d
00000110: caea c4bd f5c2 cc3c 61f7 21be 167c f4bc
00000120: d8e8 8dbd 8ddf dbbd ca98 5dbe 0504 12be
00000130: c1ad 51bb 9a4c c5bd 5f48 25be d897 40be
00000140: 8ff4 983c 13bf 893e a3b5 0fbe dc50 da3e
00000150: a335 4bbe 2caa 6abd 7a1f cabd f5b5 513e
00000160: 3f8f 15be 096b 503d 8660 fa3d c93d afbe
00000170: 8014 a3be 98c8 36be c02f 48bd 4753 193e
00000180: 5772 61be 3746 853c ceef 5cbc e2d8 02be
00000190: 793d 3a3e a7f7 0ebe 4d35 a4bd 66fa af3d
000001a0: 6740 fdbd 4d21 5abe 07e7 2ebe 6312 543d
000001b0: db8f 3fbc 7894 22be 9642 19be c20a 07be
000001c0: 16d5 1dbe 5c99 bd3d 13f5 40be 92a0 29be
000001d0: bb5f b23d 1a06 883e 381a 54be abbf 033c
000001e0: fa8b 43be 177c 303d 7d3e a83d e8a3 61bd
000001f0: e425 c33c 6ccf 823d cbf6 f3bc b856 05be
00000200: a59f 02bd 0d36 9d3e f4ce 1e3e b2f7 82be
00000210: 5a5f 75bc b37d d4bc 6116 a93c fe31 393d
00000220: 4164 d73e 3c5c 8fbd 21ad ba3b 2137 babd
00000230: 90d3 403d e191 4a3c 8b1e 2c3e ac52 043e
00000240: 957e 00be 0797 a7bd 07db 313e 7827 1e3e
00000250: a731 bf3d bd39 903d 2d81 c13d 5524 3b3b
00000260: 50eb 02be c73f ac3d a916 9abd 5f6a b9bd
00000270: de81 9b3d 1986 aa3d 82a2 05bd d88d d6bb
00000280: bba8 fd3d 7bca 033d 03f8 0dbd ed76 71be
00000290: bbda 29bd ea86 f93c 2726 c13d 4ef0 c63d
000002a0: 7eae 403c edfd f6bd fbda 67bd a4aa d3bc
000002b0: f323 96bd c3b4 04bd bd36 9b3d 328a bdbc
000002c0: 1f5b 14be bdc0 a03d 2665 f83d 2b3e 443d
000002d0: 3e28 95bb 9e3a 2b3e 9e7d 99bd 4818 d53c
000002e0: 934d 203e a3f4 a23d 84dd 89bd 8f5a 10be
000002f0: 6d09 943e b7b2 fabd 0c30 5ebe 20dc 8a3d
00000300: d3c1 4dbe e2d1 1d3c 726c 09be ff47 3d3e
00000310: 7f9c fdbe d928 173e 57d7 96bd adca 503d
00000320: 2825 eabe 436c 55be ce35 9cbe e3fa f83b
00000330: eaf8 333c b50a 26bd 38b9 cabe 9fcc d03c
00000340: cb8d d3bd 47ee 4a3e f83d f2be 589e 273d
00000350: 708c 30be e065 08be e0ab 86be 67a5 2a3f
00000360: f4b1 40be 3382 86be 1ed4 e9bd ee30 e7be
00000370: 03be a2be 8b36 26be 2ce4 c03e aa2f 1f3e
00000380: e5dc 02be 9eaf cbbd afc6 5dbe e4cc 63bf
00000390: 49f3 233e 99f3 b0bd 8b6d e0bd 61df 01bd
000003a0: 3194 443d 895a 4abe 9583 53be 69c3 b0be
000003b0: 60ac 29be 1577 24bc 7541 18bd 34c3 0dbf
000003c0: 1ed2 bf3e 20e6 073e 55c1 10be b24d 7ebe
000003d0: 4cd2 ebbc 6b8b a13d abca 113d 0470 85be
000003e0: 3fea 52be 4edf aebd 2c0e 8a3c 4ee1 0dbe
000003f0: f5eb 343e c773 9d3c 25a3 f0be 8e18 13be
0.046764456 -0.14998303 -0.14841394 0.38806987 -0.018289344 -0.14095412 -0.022175908 -0.16042991
-0.15294066 -0.2033139 -0.23390143 -0.15740028 0.027281463 -0.02703359 0.6411371 -0.18466704
0.34666923 0.24766386 0.023245446 -0.10178534 -0.07498479 -0.077428296 -0.057083514 0.028069915
-0.19845064 0.018356549 -0.03624755 -0.259173 -0.017198602 -0.4249339 -0.20416775 -0.07290061
-0.10380637 -0.20670062 0.095581874 -0.39290175 -0.022476573 0.022962073 0.0003599307 -0.1495509
-0.2099233 -0.26113003 0.036687575 -0.6800944 0.020570682 -0.05780817 -0.13728167 -1.1874502
0.060965642 0.1276309 -0.12139626 0.086535364 -0.1411801 0.14615344 0.17929646 0.030690724
-0.19173387 -0.08642377 -0.08415095 -0.13893557 0.10917426 -0.012550022 -0.9866719 -0.17792624
0.053479377 -0.16039829 -0.050859652 0.099222176 -0.09615095 0.024995307 -0.15817024 -0.029844325
-0.06929177 -0.10735998 -0.21640316 -0.14259346 -0.0031994435 -0.09633751 -0.16140889 -0.18807924
0.018671302 0.2690359 -0.14034133 0.42639816 -0.1984468 -0.057291195 -0.09869285 0.20479567
-0.14605425 0.050883327 0.12225442 -0.34226826 -0.31851578 -0.17849958 -0.048873663 0.14973174
-0.22016273 0.016268833 -0.013484908 -0.12778047 0.18187512 -0.1396166 -0.08017979 0.085926816
-0.123657994 -0.21301766 -0.17080317 0.051775347 -0.011692013 -0.15876949 -0.14966807 -0.13187698
-0.15413317 0.092577666 -0.18843488 -0.16565159 0.087096654 0.26567155 -0.20713127 0.008041303
-0.19096366 0.04308709 0.08215044 -0.055087954 0.023821779 0.06387219 -0.029780766 -0.13021362
-0.03189053 0.307053 0.15508634 -0.25579602 -0.014976347 -0.025938844 0.020640554 0.045213692
0.42068675 -0.07000014 0.005696908 -0.09092546 0.04707676 0.012363882 0.16808526 0.12922162
-0.12548287 -0.08183103 0.17368709 0.15444744 0.09335642 0.07042263 0.094484664 0.002855559
-0.12785077 0.08410602 -0.07523853 -0.09053492 0.075931296 0.08326358 -0.032625683 -0.006547671
0.123856984 0.032175522 -0.03466035 -0.23580523 -0.041468363 0.03045984 0.09431105 0.09713803
0.011760352 -0.12060151 -0.05660532 -0.025838204 -0.073310755 -0.03239895 0.075788 -0.023137186
-0.14487885 0.07849262 0.121286675 0.04791085 -0.0045519164 0.1672158 -0.07494663 0.026012555
0.15654592 0.07956817 -0.06731704 -0.14097045 0.2891344 -0.122411184 -0.21698016 0.06780267
-0.2009347 0.0096325595 -0.13420275 0.18484496 -0.4953346 0.14761676 -0.073652916 0.050974537
-0.45731473 -0.2084208 -0.305098 0.0075982674 0.010984639 -0.040537555 -0.39594436 0.025488196
-0.10329779 0.19817458 -0.47312903 0.040922493 -0.17241073 -0.13320112 -0.26303005 0.66658634
-0.18817884 -0.2627121 -0.11417411 -0.45154518 -0.31785592 -0.16231744 0.3767408 0.15545526
-0.12779577 -0.09945606 -0.21657823 -0.88984513 0.16010775 -0.086402126 -0.10958394 -0.03170717
0.04799289 -0.19761099 -0.20655663 -0.34524086 -0.16569662 -0.010038157 -0.0371718 -0.5537598
0.37464994 0.1327138 -0.1413625 -0.24834326 -0.0287868 0.0788792 0.03559367 -0.26062024
-0.2059717 -0.08538686 0.01685246 -0.13855478 0.17668135 0.019220246 -0.4699947 -0.14364836

lstm.bias_hh_l0 f4 [256]
00000000: 694a 01be 562a fdbc c805 8c3d 6beb c83e
00000010: feb8 3f3d 224f f23c 786a 8e3d 5855 a6be
00000020: 60dd 88be 6d0c 62be 9c1d 81be d85a 53be
00000030: 3b92 9dbd 6525 60be a191 1f3f b9b8 0cbe
00000040: e70a b83e ec0b c63d 7755 bf3d 9d81 e13d
00000050: df5f 71bd 3f35 29be a1f9 76bc 822a e2bd
00000060: b9e0 b1bd c7f0 1fbe 4193 0dbe 1641 02be
00000070: 1ce9 1abd 48e0 debe 42c4 43be b9b0 20be
00000080: ca5b 14be 41d2 93be dc66 f33d 86c0 0abf
00000090: dab4 5ebc 1627 02bd 701a d4bd de39 09be
000000a0: c633 35be 229f 3abe 6bae 30bd ddd3 34bf
000000b0: 3fe8 10be 5202 f1bd 669d 213d e23f 9cbf
000000c0: bca8 e3bc 648c a03e 30d8 afbd 9dc0 b43d
000000d0: 30a1 e5bd bea2 3cbc 5818 593d 9009 bc3d
000000e0: 1d2c 24be 9006 a53d a911 39bd 38c3 23be
000000f0: 0996 99bd 7bbf 72bd 467f 84bf d365 90be
00000100: 568b 453e 366e 81be 5c03 afbd 4266 483d
00000110: 76c7 52be f1ec cabc 4bbe 0fbe c2cc d93c
00000120: b37b e93b be04 17be a1c2 a9bd cddc 6c3d
00000130: e503 1fbd 2439 663d b100 5ebe 2d3f 23be
00000140: b1d6 f33d 92a3 473e a586 aebc e7c3 893e
00000150: 1340 86be b88b babd 5892 b8bd 1370 093e
00000160: b4b3 13be 243b 2abe 3ca8 57bd 7fcd 4bbe
00000170: 4be7 41be 7347 9dbe 22ba 05be 6a69 023d
00000180: 4bc8 50be 2285 a5bd 0ef2 1bbe b1cb 27bd
00000190: e1e3 363e fa51 803d 3351 aabd f184 31bd
000001a0: 9c05 e7bc 6e22 5ebd 09e2 1ebe eb79 183e
000001b0: 1d0b 733d 0ac4 bfbd 307d 25bd 3fe1 05be
000001c0: 268b 56be d336 623d 9960 37be 8388 24be
000001d0: f526 8c3d 7b92 353e 5d9a c5bd 9d80 cebb
000001e0: a889 86bd b767 393d e742 b63d 2d27 363c
000001f0: 7a07 083c 5158 8c3d 4d92 cebd 3127 03be
00000200: 6767 e43d a4c5 773e 5159 033d f91f 46bd
00000210: 40d4 e53d 272b b7bd a4d0 79bd 28b5 193e
00000220: 2f00 a43e 1d5e 17be db21 8b3d af3b c73d
00000230: 9ca0 9d3d 2639 72bc 76cd b63d 28be 023e
00000240: ffc0 b83d 1d95 1ebe f5ff eb3c 9204 a83c
00000250: e14b 00bd 9fe1 febd f3fc a13c 8b6c 8bbc
00000260: c494 01bd d6d0 da3c 67a8 aabd de3c 15be
00000270: 814f 22bd 2425 363d 82f5 b1bc 3dfc 40bd
00000280: 0559 bf3d 9fb8 cabd 2093 64bb c6fe 07be
00000290: fc6c 0cbe c1cf 723e 98f6 e13d 141d a33d
000002a0: 81c0 cf3c 99cc 893c 28fc c9bd e232 35bc
000002b0: 47f3 c2bd a69c e63d 27ea 343c ee94 073c
000002c0: f834 c3bd 83d0 713e d4be 82bc 9235 033e
000002d0: 21d9 d93d acd9 853e ce43 80bd b02a dabd
000002e0: d815 a53d eb7b b43d c9b9 0dbd 3bcc 82bd
000002f0: ee97 a93d ee21 123b 8d74 f0bd 221b 0bbc
00000300: 8f7d 3abe b398 e13c bc41 06be f509 a13d
00000310: 629e 32bf 9d15 57bd 313b a8bd 5704 febc
00000320: 2ec3 01bf 713b 61be 482c adbd ae77 15be
00000330: 8e91 1f3e 13ef 12be f6f5 1abf cd55 9abd
00000340: 1356 b7bd a81b 923e 54f6 fabe 3968 953d
00000350: 1ccf 0dbe e1f4 22be e1b8 82be 447b 2f3f
00000360: 072a 08be 8c21 8bbe aef1 f1bd a237 edbe
00000370: 1ccd a8be 3175 a2be 3616 bf3e 60d9 1c3d
00000380: b5af 0dbc ad4c 28bd 8943 93bd 3c70 81bf
00000390: f4ab e13c 0c15 af3d 76c9 83be 2a55 abbc
000003a0: 08c9 953d 8d0a 1bbe c9ac 42be 2c30 c2be
000003b0: 4012 d8bc 988d b9bd e22e d3bc b862 1cbf
000003c0: 1484 bf3e 1268 5a3d 0959 59be a755 d0bd
000003d0: 07f6 96bd 50fc 043e a5a7 683d 793f f5bd
000003e0: 1df4 34be 3abf 5bbe 61e8 06bc 221c 51bd
000003f0: 2972 583e 5cbe c4bd 2659 1fbf d745 e7bd
-0.12626041 -0.030903976 0.0683704 0.3924211 0.04680728 0.02957875 0.06953901 -0.32486987
-0.26731396 -0.22075053 -0.25217903 -0.20640123 -0.07693907 -0.21889265 0.6233159 -0.13742341
0.35945818 0.09670243 0.09342473 0.1101105 -0.05892932 -0.16524218 -0.015074165 -0.11043264
-0.086854406 -0.15619193 -0.13825704 -0.12720141 -0.037819967 -0.43530488 -0.19117835 -0.15692414
-0.1448814 -0.28871349 0.11884853 -0.5420002 -0.013592923 -0.031775557 -0.10356605 -0.13400981
-0.17695531 -0.18224767 -0.043135088 -0.7063578 -0.14151095 -0.11768021 0.039456747 -1.2206995
-0.02779042 0.3135711 -0.08586156 0.088258006 -0.11212385 -0.01151341 0.05300173 0.091815114
-0.16032453 0.08057892 -0.045182858 -0.15992439 -0.0749932 -0.05926464 -1.0351341 -0.28202686
0.19291434 -0.25279397 -0.085455626 0.048925646 -0.20583901 -0.024771186 -0.14037435 0.026586894
0.007125342 -0.14747903 -0.08289076 0.05782776 -0.038822073 0.056206837 -0.21679951 -0.15942068
0.119061835 0.19495991 -0.021304438 0.26907274 -0.2622076 -0.091086805 -0.09012288 0.13421659
-0.1442402 -0.16624123 -0.052650675 -0.1990261 -0.18935888 -0.30718574 -0.13059285 0.031838812
-0.20388906 -0.08082034 -0.15229055 -0.04096574 0.17860366 0.06265636 -0.08316269 -0.043339673
-0.028200917 -0.054232053 -0.15515913 0.14890258 0.05933677 -0.09363563 -0.04040259 -0.13074206
-0.20951518 0.055228066 -0.17907943 -0.160677 0.06843368 0.17731659 -0.09648583 -0.006301953
-0.065692246 0.045264926 0.08899479 0.011117739 0.008302564 0.068527825 -0.100864984 -0.12807919
0.11152535 0.24196488 0.0320676 -0.048370335 0.11222124 -0.089437775 -0.06098999 0.15010512
0.3203139 -0.14781995 0.06793567 0.097281806 0.076966494 -0.014784133 0.08925907 0.12767851
0.09021186 -0.1548657 0.028808573 0.020509992 -0.031322364 -0.124453776 0.019773936 -0.01701953
-0.031636015 0.026710909 -0.083329014 -0.14574 -0.039626602 0.044469014 -0.021723513 -0.047115553
0.09343151 -0.09898495 -0.0034877732 -0.13280782 -0.13713449 0.23712064 0.11033362 0.079645306
0.025360348 0.016821193 -0.09862548 -0.011059495 -0.09519058 0.11260347 0.011042154 0.008275254
-0.09531587 0.23614697 -0.015960135 0.12813404 0.10637117 0.26142633 -0.06262933 -0.10652673
0.08060807 0.08812698 -0.034601007 -0.0638661 0.082809314 0.0022298056 -0.1174098 -0.008490356
-0.1821196 0.027538633 -0.13111013 0.07863227 -0.69772923 -0.052510846 -0.08214415 -0.031007929
-0.50688446 -0.21995331 -0.084557116 -0.14596435 0.15582868 -0.14349012 -0.60531557 -0.075358965
-0.08951964 0.28536725 -0.49016058 0.072952695 -0.13848537 -0.15913726 -0.25531676 0.68547463
-0.13297282 -0.27174032 -0.11813675 -0.46331507 -0.32968986 -0.31730035 0.37321633 0.038293242
-0.008647849 -0.04108875 -0.07190616 -1.0112376 0.027547814 0.08548936 -0.2573964 -0.020914633
0.07313734 -0.15140744 -0.19011225 -0.37927377 -0.02637589 -0.0906021 -0.025779191 -0.6108813
0.37405455 0.053321905 -0.2122537 -0.10172587 -0.07371145 0.12986875 0.056800503 -0.11974997
-0.17671247 -0.21459666 -0.008234114 -0.05105222 0.21137299 -0.09606621 -0.62245405 -0.11292618

lstm.weight_ih_l1 f4 [256, 64]
00000000: 1788 6ebe e580 bc3d fc84 d7bf c60d ff3d
00000010: 5106 2cbe a472 803e 472b 3abe d019 3bbe
00000020: be1b 88be 19f4 e0bc 2b87 9f3d 24da 7ebe
00000030: 579e 07be 5c4d 27be 1916 efbd 8744 b33d
00000040: 897b 37be 90a0 353e fdba 8ebe 9dc0 26bd
00000050: 60d7 75bd 085f a63d 2965 8bbd 9608 81be
00000060: d910 223d f727 dd3d f6db 9d39 2b1c 20be
00000070: 8890 ab3e 995a 54be 5ab4 5f3e 2174 e63e
00000080: 3dbe 0b3e 17df 21be 513c e3bd 63dc 4abd
00000090: 47a0 df3d b46c 92be a65d c33b e635 1b3d
000000a0: 142c 17bd 3bed 2e3e 7e05 9b3c c5d5 2abe
000000b0: 9ac9 1abe 386b 48be daaa a5be 2a27 803d
000000c0: c303 13be fcbc 7f3d 6eb6 59be f05b 9e3d
000000d0: 15c4 05be 82e3 00bf 02a7 3e3e fbb2 70be
000000e0: 4d1e ad3d 66e2 41bd 315c 07bc f6a9 3bbe
000000f0: 8fb7 41be a12f c83d 1c28 073e 0591 103e
00000100: e05a 0f3e 8a52 c53d f81e b73d a464 823e
00000110: 18f9 70be d888 8b3e 5448 6cbe a8d6 21be
00000120: b39d cfbe e5e6 873e 2c02 2c3d 5004 aebe
00000130: 6766 b9be c4ea e7be da3c 813c cdb2 a73d
00000140: 8c31 e7be 8c7c 8c3e cbd2 693e c6fe 6dbe
00000150: d732 033f dd5c 303e e594 923d 47e0 bbbe
00000160: 3fd7 803d 29eb 6b3c 1954 b2bd a2b7 db3d
00000170: a2c5 0d3e fe6b 43be 34f5 3b3e 9877 183f
00000180: efee 303e f7a2 93bc bec5 1cbe 5d3e 233e
00000190: 1710 e33d 746b a8be 1fbe e3bd d665 ac3e
000001a0: 4894 2ebd 2a2c 8c3e 8526 93bd d8dc 2ebe
000001b0: a107 dd3d eb9d 85be 9ed4 78be 3406 c33e
000001c0: 494e 593e 16c2 1fbe c636 2c3e 3b7f 6abe
000001d0: 1760 94be 4814 9bbe de03 db3e a847 1cbe
000001e0: e522 1a3d 952c 20be 63bf 8bbc 39b7 81be
000001f0: b96b b5be 9115 d93e bcf2 083e 82fe 813e
00000200: 911b 4bbe 686f 9c3e c474 05bf ca6f b03e
00000210: ec64 253e e319 333e f463 18be 0149 14be
00000220: 1af8 4dbd abbb d43d cd2f 813d db96 a6be
00000230: ccad dfbb 2f61 82bc 1cc5 163d d94b 323e
00000240: 05ec 3dbe 1438 cc3e 344b 9fbe 82e7 63be
00000250: 4610 70bd bc94 0e3e bb76 e63c 789a 8cbe
00000260: 8ff5 9e3d 0c51 7e3d c7a5 dbbd 55ab b6bd
00000270: 5c6f 643e 62aa 143e e56e 4f3d 48d2 233e
00000280: e9d3 7a3d 5720 1fbe 0e6c 97be df4d 6abe
00000290: b9e1 ad3e 5c37 cd3c 2745 97ba fd8b c13d
000002a0: 7fb2 39bd 2cc5 0fbc e09b c5bd dae7 893e
000002b0: b706 77bc 8abb 9bbe a450 d2bd 8bef 39be
000002c0: f110 833e c60f 61be dd26 bcbd e2d5 1ebe
000002d0: 61c0 81be d66c 4cbe 9249 423d ed0b a13d
000002e0: 9dc0 043d c75e 31bd f3e0 423e 2b5d edbd
000002f0: 6f4d cbbd 8cf6 8e3d 86ae 93bd 77f0 87bd
00000300: 0f83 bebe 0d93 443e 6806 bcbe b100 b53e
00000310: a0c1 4a3e 8eef cb3d c0ff e13d 6f7c 2dbe
00000320: ee94 5c3d bf22 e23a c5bb e53d c3e6 b3be
00000330: a804 77be b274 8bbe a2d7 253e c022 203e
00000340: 45fe 253d 1b8b c33e 7eb5 05be 1ea5 9ebe
00000350: 6ed3 cabd 0f61 903c 821c a63d 59e1 a8be
00000360: 4805 0cb8 4d7d 103d 9257 d43d d6fb 91bd
00000370: 5b53 2b3e 4a2a a83c 1f40 413e 35bd 3f3d
00000380: 0504 a53c b0ec 33be d936 88be b174 b2be
00000390: ee2e 5a3e fd1f b63d 0273 09be 3842 ecbd
000003a0: 97dc f2bd cd50 093e 0b53 ac3d 8383 303c
000003b0: 0083 3fbd e96a 273e 185d a4be 03f9 8fbe
000003c0: a8c3 db3e 8cbe babe 5e5e 9fbe 7bae 613d
000003d0: ceb5 09be 59d8 a7be 7efc 983d b56d dcbd
000003e0: 632d bb3d eb9d bb3c dfe8 47bc f9f2 5cbe
000003f0: 9d44 23bd 1767 023e 657e a43d 390a d43d
-0.23294102 0.09204272 -1.6837459 0.12453799 -0.16799285 0.25087464 -0.18180571 -0.18271565
-0.26583666 -0.027460145 0.07789453 -0.24887902 -0.13243996 -0.16338104 -0.11674137 0.08753305
-0.17918219 0.17737031 -0.27877036 -0.040711034 -0.06001985 0.081235945 -0.06806404 -0.25201863
0.03956685 0.10798638 0.00030109257 -0.15635745 0.33508706 -0.20737685 0.21846142 0.45010474
0.13646789 -0.15807758 -0.11095489 -0.049526583 0.10919242 -0.2859856 0.0059620915 0.0378932
-0.03690727 0.17082684 0.018923517 -0.16683109 -0.15115967 -0.1957215 -0.32356912 0.0625747
-0.14356904 0.06243609 -0.21260998 0.077323794 -0.1306308 -0.5034715 0.18618396 -0.23505776
0.08453045 -0.04733505 -0.008261726 -0.18326554 -0.18917678 0.097747095 0.13198894 0.1411782
0.1399951 0.09634884 0.08941454 0.25467408 -0.23532522 0.2725284 -0.23074466 -0.15804541
-0.40550002 0.26543346 0.04199426 -0.33987665 -0.3621094 -0.452963 0.015776087 0.081884004
-0.4515499 0.27438772 0.22834317 -0.2324172 0.5124945 0.17222925 0.07157306 -0.36694548
0.06291055 0.014399328 -0.087074466 0.107283846 0.13844922 -0.19084165 0.18355256 0.59557486
0.17278646 -0.018022044 -0.15309808 0.15941758 0.11087053 -0.3289448 -0.11120247 0.33671445
-0.04262188 0.27377445 -0.071850814 -0.17076433 0.10792471 -0.26097044 -0.24299857 0.3809067
0.2122127 -0.15601382 0.1681777 -0.22900097 -0.2897956 -0.3028891 0.42776388 -0.1526171
0.037630934 -0.15642007 -0.017059034 -0.253351 -0.35433748 0.42399266 0.13373846 0.25389487
-0.19834734 0.30553746 -0.52131295 0.34460288 0.1615178 0.17490344 -0.14881879 -0.14480974
-0.050285436 0.10387357 0.063079454 -0.3253697 -0.006826138 -0.015915481 0.036809072 0.17411746
-0.18547066 0.39886534 -0.31112063 -0.22256282 -0.05860927 0.13923925 0.028132787 -0.274616
0.0776168 0.06208901 -0.10724979 -0.08919398 0.22308105 0.14518121 0.050642867 0.15998185
0.06123725 -0.1553968 -0.29574627 -0.22881268 0.33961275 0.025050811 -0.0011540995 0.09450529
-0.045336243 -0.008775037 -0.096488714 0.269347 -0.015077285 -0.30416518 -0.10269287 -0.18157785
0.25598863 -0.21978673 -0.091871 -0.15511277 -0.25342086 -0.19963393 0.047433443 0.07863603
0.032410253 -0.043303277 0.19031124 -0.11590036 -0.09926879 0.06980619 -0.07211022 -0.06637662
-0.37209365 0.1919672 -0.36723638 0.3535209 0.19800425 0.09957801 0.110351086 -0.16941999
0.053852968 0.0017252787 0.11217455 -0.35136995 -0.2412287 -0.2723747 0.16195539 0.15638256
0.040525693 0.38192067 -0.13057515 -0.3098535 -0.09903608 0.017624406 0.08110906 -0.32984427
-3.338352e-05 0.035275746 0.10368265 -0.07128112 0.16731016 0.020527977 0.18872117 0.0468113
0.020143518 -0.17570758 -0.26604345 -0.34854653 0.21306965 0.0889282 -0.13422778 -0.11536068
-0.118584804 0.1340973 0.08414277 0.010773542 -0.04675579 0.16349377 -0.32102275 -0.28119668
0.4292271 -0.364735 -0.31126684 0.05509804 -0.13448259 -0.32782248 0.07470034 -0.107631125
0.09139516 0.02290245 -0.012201517 -0.21577062 -0.039860357 0.12734638 0.0803192 0.10353512

lstm.weight_hh_l1 f4 [256, 64]
00000000: 1c76 403e 0719 833d 6dc1 f43d 792b ef3b
00000010: 00cc d1bd f168 cfbc bf10 78bd 8cd0 17be
00000020: 5e52 edba e339 e33d 5af0 1c3e 6a08 fe3d
00000030: 6106 0dbe fb87 cf3e a4fd b3be ceb7 9ebd
00000040: b27a b9ba 2c76 683d dbad 803e e024 c43d
00000050: bc64 983e c6e8 163e a2d6 89bb 541c f1bd
00000060: 8b16 babe d13c 193e 8663 6b3b a3ac c63d
00000070: 4228 3cbe 8ab7 213e d2e7 c2bd f260 8bbd
00000080: 72da c8bd 448c 09be 48dd a3bd 1511 763d
00000090: 5587 dfbd ac7e cd3d ec97 653e d4df b5bd
000000a0: 86e4 67bb 4a9c 363b 9a9d 9f3d 467d dfbe
000000b0: 5169 80bc a048 3abd c3dd fdbd 95b8 dd3d
000000c0: b3ef 14bc 3b48 6abc 35bc 2abe 99f2 55be
000000d0: 6c1f 823d 208f 293e dc75 39be 8a1a a83c
000000e0: 85a9 893e d448 803d b79b eabc 46fb 603d
000000f0: 953e 613e 47c5 54be a705 273e bcde d3be
00000100: 980c 63be 1c53 6c3b 24a4 3fbc 2b10 83be
00000110: a739 7c3e 120a 8d3d b899 ff3e 025a ddbd
00000120: 09b1 4ebe 2ebf 2d3e eedd b6bd e6f3 963d
00000130: 011c 7e3e e51d 093e 580a 9ebd fa64 933e
00000140: e66a 7e3c 3f2c be3e ac6a 1cbb b7a9 123e
00000150: 4ebb 8f3e e94d 803d e745 133e 09ad c6bd
00000160: d18c 873e 9084 133e 93b6 04bd 4232 163e
00000170: a995 1abe 4046 533e c585 f13d a9d1 94bd
00000180: 773b 1fbf f3c1 253c d02f 48be e347 6c3c
00000190: e0e2 dd3d 9eb7 4ebe 6ab4 013e e13e 8fbd
000001a0: ab31 473b 10fb e3bd 099d aa3d 5dc9 e13e
000001b0: 0be4 7ebe 0c0c 6e3d 09be b6bd 8747 b8bd
000001c0: 74fa a93c ee77 503e cec8 c13d 62a3 9f3d
000001d0: 44b6 1f3e d51f 98bc f9ff 623e c0a7 a9be
000001e0: 29ca 19be b490 853e 57e0 06bf fcad 973e
000001f0: a394 043e 8235 663e 4106 6fbc 1826 893e
00000200: 1e5e 8bbc 060e 80be 9082 b83d 332b d03d
00000210: 4fe1 863c df62 143e 5829 963d 1c98 583d
00000220: 03ee d63d 4390 033e 4cd3 c2bd 94a5 03bc
00000230: 5fc6 d63d 20e1 a93e 19b4 8bbe 3c93 a1bb
00000240: 3b78 47be a222 333d b8e5 a13d 5ed4 e9bc
00000250: 3290 a53b 029e 21bd a735 233e ffb2 323d
00000260: 87ac 8dbe f567 413d 6675 3f3d 2ebc 3a3d
00000270: ed6b 283d 01cc 01bd 357d d4bc 19ec 05bd
00000280: 5f5d c7bd 1fc2 5bbd 028e 573c d697 d4bd
00000290: 0661 dc3d 33ef 063e 0935 663d 5066 78bd
000002a0: 1016 de3c 2def d8bc ffa8 59bd a980 903d
000002b0: 69bc c03d 3503 70bd 3ba8 1abd f2c5 27bd
000002c0: 02fd 10be efcc f6bd 5ea2 0b3c 7367 613c
000002d0: 2982 c3bc d26c 243e ed18 4f3d faf3 cc3d
000002e0: dc38 bcbc cfe8 12bd a0a1 943d 58c5 283e
000002f0: ea7f 5a3e 900e ec3b d673 1d3e 95ab 3cbd
00000300: 2266 cbbc 72a3 e73c 31d0 21bd 2094 ae3d
00000310: fd0e d5bd 4853 c43d db84 9cbd e25f 98bd
00000320: 0020 afbd 3f8e 43bd 66ee 783c 527f 0dbd
00000330: 84b2 ca3b d6bb 503e bbc7 50be fe6e 54bd
00000340: 3eb4 92bd 9271 c63d 0367 03ba 8021 933d
00000350: 8cf0 b7bd c2ad 19bd a709 043d e94f e73d
00000360: 6710 8ebd e971 5ebd b36f 2d3e 8d31 163c
00000370: 0bf8 fdbd 7e3f 3c3d 0ffb 623c c77e cd3b
00000380: 1723 cf3d 1a1d de3d d4a9 b53d 9d37 103d
00000390: 6635 2abd dbe4 10bd 19fe b2bd d42b 3ebe
000003a0: 0f65 053e 1211 6d3c ce78 5fbd 4381 4bbe
000003b0: 17ad 88bd c4d1 fdbb 0f98 683d 1cc8 6fbd
000003c0: efb5 afbd 1f76 52bd a1de e63d 516a a5bd
000003d0: d909 ac3b 8b02 723e a4f1 133c 2e98 e03d
000003e0: b3c3 c23d 90e7 e53c 353e 6f3d f313 173e
000003f0: 8b38 253e f3eb 38bd e1f1 fe3d 2de6 0abe
0.18795055 0.06401258 0.119509555 0.0072988835 -0.10243988 -0.025318595 -0.060562845 -0.14825648
-0.0018106212 0.110950254 0.15326062 0.124039486 -0.13771965 0.40533432 -0.3515445 -0.07749902
-0.0014150946 0.056753322 0.2513264 0.09577346 0.29764354 0.14737234 -0.0042064944 -0.11772981
-0.36345324 0.14964606 0.0035917475 0.097008966 -0.18374732 0.15792671 -0.095168725 -0.068056
-0.0980729 -0.13432413 -0.080011904 0.060074884 -0.109144844 0.10033926 0.22421235 -0.088805825
-0.0035384013 0.0027864152 0.07793732 -0.43650264 -0.015675219 -0.045479417 -0.12395813 0.10826222
-0.009090352 -0.014299448 -0.16673358 -0.20893325 0.063536495 0.16558504 -0.18111366 0.020520467
0.26887146 0.06263891 -0.028638704 0.054927133 0.2199653 -0.2077838 0.1631075 -0.4138087
-0.22172773 0.003606028 -0.011696849 -0.25598273 0.24631368 0.068866864 0.49921966 -0.10808183
-0.20184721 0.1696746 -0.089290485 0.07370739 0.2481537 0.1339031 -0.07716817 0.28787977
0.015528416 0.37143132 -0.0023867292 0.14322554 0.2807259 0.0626486 0.14382134 -0.097009726
0.26474622 0.14406037 -0.03240068 0.1466761 -0.15096153 0.20632267 0.11793093 -0.07266552
-0.6220011 0.010117042 -0.19549489 0.014421436 0.108342886 -0.20187232 0.12666479 -0.06994415
0.0030394595 -0.11131871 0.08330733 0.4409894 -0.24891679 0.058116958 -0.08922965 -0.08998018
0.020749308 0.2035825 0.094621286 0.07794835 0.15596873 -0.018569866 0.22167958 -0.33135796
-0.15018524 0.26086962 -0.52686065 0.29624927 0.12947325 0.22481349 -0.014588893 0.26786876
-0.017012652 -0.250107 0.09009278 0.101644896 0.016464857 0.14490841 0.073321044 0.052879438
0.10494616 0.12848 -0.09512958 -0.008035082 0.10487055 0.3317957 -0.2728584 -0.004930882
-0.19479458 0.0437342 0.079051435 -0.028543647 0.00505259 -0.03945733 0.15938435 0.043627735
-0.2767069 0.04721828 0.04674282 0.04558962 0.04111855 -0.031688694 -0.02593861 -0.032695863
-0.09734606 -0.053651925 0.013156416 -0.10380523 0.10760693 0.13177185 0.056202922 -0.060644448
0.02711013 -0.026481235 -0.053139683 0.0705579 0.094109364 -0.05859681 -0.037758093 -0.04096026
-0.14159015 -0.12050807 0.008522598 0.013757574 -0.023865776 0.16057137 0.05056088 0.10007472
-0.022976331 -0.035866555 0.0725739 0.1648153 0.21337858 0.0072038844 0.15376219 -0.04606207
-0.024828974 0.028276179 -0.039505187 0.08524346 -0.104032494 0.09586197 -0.07642528 -0.07440163
-0.085510254 -0.04774308 0.015193557 -0.03454525 0.0061858315 0.20384154 -0.20388691 -0.051863663
-0.07163285 0.096896306 -0.00050126034 0.07184124 -0.089814276 -0.037519224 0.032235768 0.112945385
-0.06936722 -0.054307852 0.16937141 0.009167087 -0.12400826 0.04595899 0.013853802 0.0062712166
0.10114115 0.108453944 0.08870283 0.035209287 -0.04155483 -0.035374504 -0.087398715 -0.18571407
0.13026832 0.014469402 -0.054558568 -0.19873528 -0.06673639 -0.0077459533 0.05678564 -0.05854045
-0.08579623 -0.05138218 0.11272932 -0.08076919 0.0052501974 0.23633783 0.00902978 0.10966526
0.09509983 0.02806452 0.058408935 0.14753704 0.1613485 -0.045146894 0.124484785 -0.13564368

lstm.bias_ih_l1 f4 [256]
00000000: c32c 0bbe fee8 3cba 9d3e edbe 820b ebbe
00000010: d22e 4abe de31 d1be c5f1 acbe ac11 a1be
00000020: 0a60 d4be ae04 4dbe 3e84 66be d20d aabe
00000030: 3023 b9bd 0357 52be bec8 f43c aa9e 28bc
00000040: 27a3 babe cda5 a6be 7398 d1be 2565 01bf
00000050: c1db ddbd 7686 00bf ef5c 87be e78c 97be
00000060: a532 c4bc 747d e6be a28f a4be aa5f 99be
00000070: 72bf 80be 51a6 86be e3fd 41be 1bf7 52bd
00000080: 5218 a0be 45ee e4bd d63f 19be 3553 b4be
00000090: 2e23 d8bd e565 cebd 58ca 173c ece9 d8be
000000a0: 76a4 c2be dae1 debe 5d27 10bf 38b6 6f3c
000000b0: 4866 a4be d7de 1ebe 3297 4fbe 4a77 8fbe
000000c0: 13c0 4fbe 19bd a3be 7164 2bbe b8a2 67be
000000d0: 5af6 fcbe 7a87 e93d 150c d1be 8b01 42be
000000e0: 7c6a bf3c d153 8bbe 221e 4dbd 1a0b f3be
000000f0: 174f 76be 51ea 5ebe 68f1 5fbd 1dc0 38be
00000100: 6a7d 5cbe b09c bc3c f332 e7bd c2f0 b9be
00000110: 98e3 2abe c578 16be 6862 8d3c bdc2 d9be
00000120: 68c2 2bbe 27cd 88be 3973 0cbe 2a60 3cbe
00000130: 0ccd 06be 7475 6cbc 9af9 933d 58ff 32be
00000140: 609c acbe 15de b2bd d02a 51be 11de 1bbe
00000150: a653 e4bc 2a6f 38be 2b00 6bbe 6892 8abe
00000160: 771d 17bd 2fcb 46be 4d34 57be 7f16 9cbe
00000170: 7773 1bbe 0f91 50be b4f6 a53d f20a 01be
00000180: d68a 95bd b29f 83bd d1be a2be 4738 51be
00000190: e860 55be 29da 31be 5657 053e d634 91be
000001a0: a49c 59be 3878 a5bd 8152 24be f1ad 4bbc
000001b0: 2550 0abe 44cf 0abd 54f7 8e3d e38d d7bd
000001c0: b41a 85be e634 5abc e321 ffbe 5b19 14be
000001d0: 30d8 52be a570 e8bd b5c5 17be f446 cebd
000001e0: abbe 7dbd 7902 32be 8b4e abbd eaaa dabe
000001f0: 6e48 8dbe 2dc5 76bd 3ef9 f8be a9ca 98bd
00000200: 5d7d bb3c 5fc1 1e3e cdb8 61bd 39d2 f33c
00000210: 1e29 e5bc 32ae 9abc cc50 823c 314e 563d
00000220: f9d1 863c 749b bbbd 8069 6d3d 88b7 37bd
00000230: b42d 5ebc ae09 9d3d 96b1 923c 842c 04be
00000240: 4854 b53d ab13 84bd 5605 98bd 2998 73bc
00000250: d212 ec3d 9d0d 343d 1adc d8bd 13b0 a33d
00000260: c05e 543d 459f d3bd 2e68 b63d 5f4c fabd
00000270: 8691 b53d 5ff1 0abd 3b59 4a3d 8f52 073d
00000280: e3de 623c d3de 9ebd fad9 0fbd 7a67 1f3d
00000290: 86cf 71bc f1f4 3ebd d20e 363d 6828 c53d
000002a0: e0b0 853d b493 7b3d b124 423d 1a02 c8bd
000002b0: ef5f 083e c6ae a0bd cd17 e1bd 634b ccbd
000002c0: 5c05 353c 0b08 c5bd 3b7f df3c 7d38 bebb
000002d0: 9940 15bd 6a6b 70bd c131 123d 0bcd 943d
000002e0: b03e 2cbd 5f18 c0bb 14d2 af3c fb88 5139
000002f0: 2551 57bd 2456 2abe 278d 87bd b7d8 013c
00000300: b405 68bd 6608 2bbe b50d aebe ad66 bbbe
00000310: 0c28 c1be 74b4 d5be 66d9 49be 0a7a 35be
00000320: 53d2 b4be 80c7 45be 1e49 3fbe 6d53 e5be
00000330: 083c debd 287d 803d 2c52 e9bc e00b 76be
00000340: 088d f7be 2b97 b4be f80c c3be 07bc e4be
00000350: 2a5f c8bd aed1 c8be 953f f9be 578c b8be
00000360: ee65 5abd 440f a9be 32ba c3be 04ca ecbe
00000370: 2d79 99be 0d9a 83be 1b42 74be 2165 b6bd
00000380: 5b4d 51be aad8 5abe 0557 94be e2be d5be
00000390: 6242 6fbe 6f01 29be 81bb ef3c 2a9a a1be
000003a0: 9043 d6be 6f0b 8dbe 73c0 d3be 56af 193d
000003b0: dbe2 afbe 89c6 ccbd a925 4abd fce3 b3be
000003c0: 7a04 39be e871 c0be a9e0 b7be 1085 adbe
000003d0: 21d7 efbe 9cdf cf3d 796c 04bf 6f4b 3bbe
000003e0: 659a 2f3d 11db a5be fafa 4bbe 09ca 89be
000003f0: 0c89 cfbd 48aa 93bb 6d22 d2bd a58f 8dbe
-0.13591294 -0.00072063494 -0.46336833 -0.45907217 -0.19744423 -0.40858358 -0.33778206 -0.31458795
-0.41479522 -0.20021316 -0.22511384 -0.3321367 -0.090399146 -0.20541005 0.029880878 -0.010291735
-0.364526 -0.3254837 -0.40936622 -0.5054496 -0.1083293 -0.5020517 -0.2643809 -0.29599687
-0.02394993 -0.45017588 -0.32140833 -0.29955798 -0.2514606 -0.26298764 -0.18944506 -0.05150519
-0.31268555 -0.11178259 -0.14965758 -0.35219732 -0.10553585 -0.100780286 0.009264551 -0.42365968
-0.380161 -0.43531686 -0.56310064 0.014630847 -0.32109284 -0.15514694 -0.2027252 -0.28020698
-0.20288114 -0.31980208 -0.16737534 -0.22620666 -0.494067 0.11402793 -0.4082953 -0.18945901
0.023366205 -0.27212384 -0.050077565 -0.47469407 -0.24053608 -0.21769072 -0.054673582 -0.18042035
-0.21532217 0.023023933 -0.11289015 -0.36316496 -0.16688383 -0.14694507 0.017258838 -0.42531386
-0.16773379 -0.2671902 -0.13715829 -0.18396059 -0.13164157 -0.0144323 0.07225342 -0.17480218
-0.33713055 -0.08733765 -0.20426488 -0.1522143 -0.027871918 -0.18011156 -0.22949283 -0.27064824
-0.036893334 -0.19413446 -0.21016045 -0.30485913 -0.15180765 -0.20367835 0.081036955 -0.12601832
-0.073018715 -0.06426944 -0.31786206 -0.20431624 -0.20837748 -0.17368378 0.13021597 -0.28360623
-0.2125116 -0.080795705 -0.16047098 -0.012431608 -0.13507135 -0.03388907 0.06980768 -0.105251096
-0.25996935 -0.013318276 -0.4983054 -0.14462797 -0.20590281 -0.1134961 -0.14821513 -0.10072127
-0.061949413 -0.17383756 -0.0836459 -0.42708522 -0.27594322 -0.060246635 -0.48627657 -0.07460529
0.022886926 0.15503453 -0.05510788 0.029763328 -0.027973708 -0.01888189 0.015907668 0.052320663
0.016457545 -0.0916051 0.05796194 -0.044852763 -0.013560701 0.07667862 0.017906945 -0.12907606
0.08853966 -0.06449064 -0.07422893 -0.014867821 0.11527027 0.043958295 -0.10588856 0.07992568
0.051848173 -0.103331126 0.089065894 -0.12221598 0.08865647 -0.033921596 0.049401503 0.03303772
0.013847086 -0.07757344 -0.035119988 0.038917042 -0.01475895 -0.046620313 0.044447728 0.096268475
0.06527877 0.061420158 0.047398273 -0.09766026 0.13317846 -0.078458354 -0.10990868 -0.099753164
0.011048641 -0.09620675 0.027282348 -0.005805074 -0.03643856 -0.058696188 0.03569198 0.07265671
-0.04205197 -0.0058622803 0.021462478 0.00019982822 -0.05256762 -0.16634423 -0.066187195 0.007925204
-0.056646064 -0.16702422 -0.33994833 -0.36601773 -0.37725866 -0.41739237 -0.19711837 -0.17722335
-0.35316715 -0.19314384 -0.18680236 -0.4479021 -0.10851294 0.06273872 -0.028481565 -0.24027967
-0.48349786 -0.35271582 -0.38095832 -0.44674703 -0.09783776 -0.39222473 -0.48681322 -0.3604457
-0.053319864 -0.3301946 -0.38227993 -0.46247876 -0.29975262 -0.2570347 -0.23853342 -0.089060076
-0.20439665 -0.21371713 -0.2897264 -0.41747195 -0.23365167 -0.16504453 0.029264214 -0.3156293
-0.4184842 -0.27547786 -0.41357765 0.03752073 -0.34352764 -0.09998805 -0.04935232 -0.35134876
-0.18068114 -0.37586904 -0.3591359 -0.3389058 -0.46843818 0.10150072 -0.51728016 -0.18290494
0.04287185 -0.32393697 -0.19919959 -0.26911953 -0.101335615 -0.004506383 -0.102604724 -0.27648655

lstm.bias_hh_l1 f4 [256]
00000000: 436c 24be 817f 8fbc 1b93 b5be 8a94 03bf
00000010: fe70 7cbe de28 9dbe b5cb a8be c2b4 95be
00000020: d2ca 98be 005e d5bd ffa5 09be 725b f4be
00000030: 94f5 21be 4ea9 a4bc 239c f8bd 4395 c1bd
00000040: b7b2 92be 5370 aabe 986f 3abe 0388 afbe
00000050: 0c42 6cbe 1b67 ebbe b2a9 febe e418 c2be
00000060: 10fb 15be 2cf0 6abe a876 c0be a367 e7be
00000070: 555e 7cbe 04b7 19be ff9b 43be fcaa 60bb
00000080: 10ca 18be 7cac 20be d082 1ebe bbdd 9bbe
00000090: 677f 79be 8932 77be 9f19 ecbd 0697 a9be
000000a0: e83b 8cbe 937b 8cbe 0f3a 06bf d586 09be
000000b0: 9680 e5be 9b68 643b 6482 f23c 7ad0 97be
000000c0: 6483 c0be 1dbc 90be 3d95 a5be d878 8bbe
000000d0: 4255 b2be b89e b1bd bd03 a2be f3ed 96be
000000e0: 6847 22be 1964 82be 6242 43be 5cb8 a9be
000000f0: 0364 3dbe ffd4 36be 63d2 e4bd 0fad 6abe
00000100: 7087 27be aad6 bf3a ec74 5ebe 8451 a9be
00000110: 788b dfbd 3c8d 30be fea7 773d 0996 d2be
00000120: 4e1b fcbd e6a2 66be e727 01be 3187 15be
00000130: 338a 55bd c301 16bb 51ec 81bb 5147 ccbd
00000140: 281a 63be 4d24 b7bd c838 bcbe ddd4 93be
00000150: c804 fcbb 1ae5 26be 7b3b 47be dee3 b3bd
00000160: 390a 0a3d 3ba8 20be 78a3 00be b3dd 0dbe
00000170: e922 74be dbec 5cbe 058b 633c 9aac 8ebe
00000180: fa0d db3d b3c7 f2bc f053 1abe a772 42bc
00000190: 6da1 74be 50c3 5dbd 66ab 413d 8425 94be
000001a0: 3aa8 9fbd 86b5 88be 2883 bebe e845 45be
000001b0: bcca 36be f812 373d 8262 89bd 20ba 74bd
000001c0: 81c8 87be c51c f6bd a721 ffbe 951c 99be
000001d0: 4353 99be b415 39bd c238 9abe 9fb5 02bd
000001e0: bfa7 97bd 4ef4 44bd 23f1 dc3d 7e63 cebe
000001f0: a282 8cbe dd46 1dbc 3a7b a6be 53a4 22be
00000200: b967 9abc 178a 883d bb04 7d3c 7f02 323d
00000210: cf1c 8a3d 57d1 333c 849c e8bc e331 dabb
00000220: 2bb5 6ebb 1e6a efbd f8da 31bd df47 603d
00000230: 9661 0cbe 14b7 f2bd 83b0 21bd 5f07 a93b
00000240: b181 5abd f057 3cbc 32a7 e0bd 38b2 43bd
00000250: 20fb 443d 55cc b3bd fe2f dd3d 4106 a93b
00000260: 3951 d3bd 060f febb b2a8 afbd 2b79 dcbc
00000270: 2287 bcbd 79a1 27bc 6de5 bb3d 857e 1dbe
00000280: 9663 863d d1a6 10bd 5216 06be fab3 aebd
00000290: bb89 d0bd 6047 203c 633e 98bd eaca 973d
000002a0: edd6 eabd b4a0 a23d 9774 9dbd bf15 cb3b
000002b0: a882 d3bd b7ff 073d f55d b23b e621 f23c
000002c0: d498 2abd fe3f 893c b5d1 a13d 72d3 28bd
000002d0: 8bce 883d e6e3 ff3d 6062 d13d 7f11 363e
000002e0: 2819 eb3b f7de e13b b54e 033d a59d 6f3c
000002f0: e7b7 aabd 000a 1dbe cc46 7f3d 0f49 0fbe
00000300: cb38 92bd 55a1 40bd d350 c1be 3511 9ebe
00000310: 8148 aabe 96fc a1be e55f 89be 080e 29be
00000320: 2f06 72be ba8d 6ebe 186e 2dbe ec77 02bf
00000330: 24c0 d7bd 9835 94bd 5a8b 0dbe dfca 56be
00000340: c8d3 aebe 431c cfbe 36ba adbe 63bf 9cbe
00000350: 921f 49be 435a 03bf f1d4 96be 77c0 b9be
00000360: 24bf a1bd 5680 b8be b8de ccbe febf f6be
00000370: 4d2f 96be 86c3 8dbe 7942 4abe 0f18 323c
00000380: 89b9 7fbe ba86 23be 0347 96be 8243 d0be
00000390: 1cad 5fbe 4066 7dbe 475b 9f3d e454 e2be
000003a0: 225b d0be 7396 e2be 978c e9be 6241 8c3d
000003b0: b3d5 cabe c7b5 9abd ea44 69be 9f5a 53be
000003c0: d855 45be 2070 82be 5029 3cbe 36e9 60be
000003d0: 5406 91be 6224 b4bd 4a47 bbbe 963f 4fbe
000003e0: 6ae9 04be 24ca 58be 326b 25be e39c 9ebe
000003f0: 8fc9 05be 7638 3dbd 6cfa 4bbe 11d8 04be
-0.16056924 -0.017516853 -0.35463795 -0.5139853 -0.24652478 -0.30695242 -0.32967916 -0.2923947
-0.2984224 -0.1041832 -0.13442229 -0.47726017 -0.15816337 -0.020100262 -0.12139156 -0.094522975
-0.28651974 -0.33288822 -0.18206632 -0.34283456 -0.2307207 -0.459771 -0.49738842 -0.37909615
-0.14646554 -0.22943181 -0.37590528 -0.45196256 -0.2464536 -0.15011221 -0.19102477 -0.0034281602
-0.1492083 -0.15690798 -0.15479589 -0.30442604 -0.24365006 -0.24140371 -0.11528324 -0.33123034
-0.27389455 -0.2743803 -0.5243234 -0.1343034 -0.44824666 0.0034852389 0.02960319 -0.29651242
-0.37600243 -0.2826852 -0.32340422 -0.27240634 -0.34830672 -0.08672851 -0.31643477 -0.29478416
-0.15847552 -0.25466993 -0.19068292 -0.33148468 -0.18495183 -0.17854689 -0.111729406 -0.22917579
-0.16360259 0.0014636118 -0.2172429 -0.33070004 -0.109152734 -0.17241377 0.060462944 -0.41130093
-0.123098955 -0.22523078 -0.12612878 -0.14602353 -0.05213375 -0.0022889234 -0.0039649387 -0.0997454
-0.22177947 -0.08942471 -0.3676207 -0.2887334 -0.0076909997 -0.16298333 -0.19456284 -0.087836966
0.033701155 -0.15689175 -0.12562358 -0.13854103 -0.23841442 -0.21574728 0.013888125 -0.2786606
0.10696025 -0.02963624 -0.15071082 -0.011868156 -0.23889704 -0.054141343 0.0472826 -0.28934872
-0.077957585 -0.2670099 -0.3720944 -0.19264948 -0.17850775 0.044695824 -0.06708242 -0.059747815
-0.2652016 -0.12017206 -0.49830362 -0.2990462 -0.29946336 -0.045186713 -0.30121428 -0.03191149
-0.07405042 -0.04808455 0.10788181 -0.40310282 -0.27443415 -0.009599415 -0.3251589 -0.15882997
-0.018848287 0.066669635 0.015443022 0.04345941 0.06743776 0.0109752035 -0.028394945 -0.006658779
-0.0036423902 -0.11690162 -0.043421715 0.05475604 -0.13709101 -0.11851326 -0.039474975 0.0051583494
-0.05334634 -0.011495575 -0.1096939 -0.047777385 0.048091054 -0.087792076 0.108001694 0.005158216
-0.10318226 -0.007753256 -0.08577098 -0.026913246 -0.09205462 -0.010231369 0.09174619 -0.15380295
0.06561963 -0.03531534 -0.13094452 -0.085304216 -0.1018252 0.009782642 -0.07433774 0.0741175
-0.11466775 0.07940808 -0.076882534 0.0061976607 -0.10327655 0.033202853 0.0054433295 0.02955718
-0.041649655 0.016754147 0.079013266 -0.041217275 0.0668002 0.1249464 0.10223842 0.17780112
0.0071746297 0.0068930346 0.032057483 0.014624988 -0.08335858 -0.15335846 0.062323377 -0.13992713
-0.07139739 -0.04702886 -0.37756976 -0.30872503 -0.3325844 -0.3163802 -0.26830974 -0.16509259
-0.23635171 -0.23296252 -0.16936529 -0.50964236 -0.10534695 -0.07236785 -0.1382269 -0.20975827
-0.3414595 -0.4045125 -0.3393113 -0.30614766 -0.1964095 -0.51309603 -0.29459336 -0.36279652
-0.07897785 -0.36035413 -0.4001367 -0.48193353 -0.29332963 -0.27688235 -0.1975192 0.010869994
-0.2497312 -0.15969363 -0.29351053 -0.40676504 -0.2184338 -0.24746037 0.07781082 -0.4420539
-0.4069453 -0.4425541 -0.45615074 0.06848408 -0.39616165 -0.075542025 -0.22780195 -0.20640038
-0.19271028 -0.2547617 -0.18375134 -0.21963963 -0.2832514 -0.08796002 -0.36577827 -0.202391
-0.12979665 -0.2117086 -0.16154173 -0.3097907 -0.1306517 -0.046196423 -0.19919747 -0.12973048
