Competition/TrainAI/model/s/model_weights_2.pth (torch, 443791 bytes, 18 tensors)

lstm.weight_ih_l0 f4 [256, 36]
0	0x3de6f25b	0.112766944
1	0x3d22c18f	0.039735373
2	0x3e4a5885	0.1976033
3	0x3e9aa102	0.30200964
4	0x3eaa4efc	0.33263385
5	0x3d56aa56	0.05240854
6	0x3ea32cd1	0.3187013
7	0x3e7be12f	0.2459762
8	0x3e634f52	0.22198227
9	0xbd974f4a	-0.0738817
10	0xbe0ee8a8	-0.13955939
11	0x3dd68f74	0.1047658
12	0xbc4cda0f	-0.012503161
13	0x3dd25d58	0.1027171
14	0x3e9e31f4	0.30897486
15	0x3e56b181	0.2096615
16	0x3d460efe	0.04835414
17	0xbc248885	-0.010042314
18	0x3df58041	0.11987353
19	0xbdec39b4	-0.115344435
20	0x3dee1f62	0.116270795
21	0xbe1c89e2	-0.15286973
22	0x3e86222a	0.2619794
23	0xbcf137ce	-0.029445555
24	0xbdd22fbd	-0.102630116
25	0xbcb0bffc	-0.02157592
26	0xbc9d002e	-0.019165125
27	0xbcd3b414	-0.025842704
28	0x3ed4d359	0.41567495
29	0x3daa3063	0.0831001
30	0x3eb37166	0.35047454
31	0x3d4b8730	0.04968947
32	0xbd93d369	-0.07218058
33	0x3e585aeb	0.21128432
34	0x3e068660	0.13137197
35	0x3e7f835c	0.24952453
36	0xbe23fcd1	-0.1601441
37	0xbd626eb5	-0.05528136
38	0x3e046e1c	0.12932628
39	0x3e95f525	0.29288593
40	0x3eac0bd1	0.33602765
41	0x3e21f529	0.15816177
42	0x3e3f9160	0.187078
43	0x3e0afcaa	0.13572946
44	0x3c2c48d0	0.010515407
45	0xbdbae656	-0.09125964
46	0x3dcb9a67	0.09941559
47	0x3df7be88	0.12096888
48	0xbe046601	-0.12929536
49	0xbd2b9978	-0.041894406
50	0x3d394e4f	0.045240697
51	0x3d892d7e	0.0669813
52	0x3e4409fc	0.19144434
53	0x3dec1d1e	0.11528991
54	0x3e345921	0.17612125
55	0xbdc093b7	-0.09403174
56	0xbda71983	-0.08159163
57	0xbe1cac16	-0.1530002
58	0xbc61e7ba	-0.013788158
59	0xbe39a2eb	-0.18128555
60	0x3c03de0c	0.008048546
61	0x3cd7e406	0.026353847
62	0x3d95d145	0.073153056
63	0xbdce0a98	-0.10060614
64	0x3d9cc321	0.076544054
65	0x3dbd7fc9	0.09252889
66	0xbd308888	-0.043098956
67	0xbe3476fd	-0.17623515
68	0x3d3e2aa8	0.0464274
69	0x3d3d826b	0.046266954
70	0x3e22e931	0.15909268
71	0x3d098d3f	0.03358197
72	0xbd8c0d5e	-0.06838487
73	0x3cf3ea4c	0.029774807
74	0xbd15468a	-0.036444224
75	0xbe1e7543	-0.1547442
76	0x3dbd27e4	0.09236124
77	0x3db570d2	0.088594094
78	0xbd956096	-0.07293813
79	0x3ccd2433	0.025041675
80	0x3dc4130e	0.09573947
81	0x3e5eef33	0.21770935
82	0x3e5026af	0.20327257
83	0xbd7d871a	-0.06189642
84	0x3dc8b3be	0.09799908
85	0xbc9d4b10	-0.019200832
86	0xbe2aa903	-0.16666035
87	0x3ecfe74c	0.40606153
88	0xbc2b9d89	-0.010474571
89	0x3ea1866b	0.31547865
90	0xbe0fc170	-0.14038634
91	0xbdc6c6b6	-0.0970587
92	0x3e3e6978	0.1859492
93	0x3d1dd70b	0.03853516
94	0xbe0e86ef	-0.1391866
95	0x3e0b9348	0.13630402
96	0x3e71f889	0.23629965
97	0x3c964bb5	0.018346647
98	0x3e6fed28	0.23430312
99	0x3ca037f3	0.019557929
100	0xbda029c0	-0.07820463
101	0x3e0e27b8	0.13882339
102	0xbe2ffa0a	-0.17185226
103	0xbd9e63d0	-0.077338815
104	0xbdb79581	-0.089640625
105	0x3d1b656e	0.037938528
106	0xbd0c6279	-0.0342736
107	0x3dbbb0c8	0.09164578
108	0x3c368311	0.011139647
109	0xbe6295f8	-0.22127521
110	0x3ce838ee	0.028347459
111	0xbe258140	-0.16162586
112	0xbcb30ec1	-0.021857621
113	0xbe06b92a	-0.13156572
114	0xbe40047a	-0.18751708
115	0xbd8f5fb2	-0.07000674
116	0x3dacd731	0.08439482
117	0xbd5779e5	-0.052606482
118	0x3e98ef0c	0.29869878
119	0x3eba9240	0.36439705
120	0x3d7343a5	0.059390683
121	0x3dca5d51	0.0988108
122	0x3e81691f	0.25275514
123	0xbd8fb2da	-0.07016535
124	0xbe815963	-0.2526351
125	0x3cca1bf7	0.024671538
126	0xbe534b6d	-0.20634241
127	0xbd3fd8e4	-0.046837702
128	0x3dc7bdfe	0.09753035
129	0x3e9a5874	0.3014561
130	0xbdab0120	-0.08349824
131	0x3c4f2873	0.012643921
132	0x3e84d202	0.25941473
133	0x3dd55197	0.10415953
134	0x3e7e2e9d	0.24822469
135	0x3e1e3181	0.15448572
136	0xbd9f6f49	-0.07784898
137	0x3e3a875f	0.18215702
138	0x3da8ee5f	0.08248591
139	0x3c8fac26	0.017538141
140	0xbe0661ea	-0.13123289
141	0xbe136f31	-0.14397885
142	0x3ea2e1b8	0.31812835
143	0x3e2b5e46	0.16735181
144	0x3a86c6c0	0.0010282621
145	0xbec07d1f	-0.3759546
146	0x3e18eec6	0.14934835
147	0x3de6ba53	0.11266007
148	0xbe21739d	-0.15766759
149	0xbd86f0f4	-0.06588927
150	0x3e424ed6	0.18975386
151	0xbd51dbdc	-0.051235065
152	0xbe3b9561	-0.18318702
153	0xbd5e9267	-0.05433884
154	0x3c9d90ae	0.019234028
155	0x3e93cd9e	0.2886781
156	0xbd4c47e3	-0.049873244
157	0x3d495690	0.049154818
158	0x3ebf1f76	0.3732869
159	0x3e65d09c	0.2244286
160	0xbe1cf2ff	-0.1532707
161	0x3e3c01a3	0.1836
162	0xbd20516e	-0.039140157
163	0xbe3b431c	-0.18287319
164	0x3e609626	0.21932277
165	0x3d8a8ef2	0.06765546
166	0x3e355e7c	0.17711824
167	0xbd56cd2d	-0.052441765
168	0x3db32332	0.08746947
169	0xbde8a01e	-0.11358665
170	0x3c90eb12	0.017690215
171	0x3e608202	0.21924594
172	0x3d968a72	0.07350625
173	0x3e618f9a	0.22027436
174	0x3d98b6de	0.07456754
175	0x3c91d201	0.017800333
176	0x3e03c30d	0.12867375
177	0xbeb46c73	-0.3523899
178	0x3e4820d7	0.19543777
179	0x3d87013d	0.06592033
180	0x3aa6ad77	0.0012716491
181	0xbeda93e5	-0.4269096
182	0xbdaecee3	-0.08535554
183	0xbdf3406d	-0.118775226
184	0xbf233e4d	-0.6376694
185	0xbf1c1812	-0.6097423
186	0xbe73cadc	-0.23807853
187	0xbf3030ea	-0.68824637
188	0xbf117b87	-0.5682911
189	0xbeaf7278	-0.3426702
190	0xbe46bc3a	-0.1940774
191	0xbdf7d90e	-0.12101947
192	0x3e6b3dbb	0.22972767
193	0x3eaee886	0.34161776
194	0x3e94a8c7	0.29035017
195	0x3e02a1dc	0.12757057
196	0xbf87cbe1	-1.0609094
197	0x3e88a54c	0.26688612
198	0xbf857bd9	-1.042842
199	0xbe4a6d5c	-0.1976828
200	0xbe1d4a61	-0.15360405
201	0x3e95c578	0.2925222
202	0xbdb40224	-0.08789471
203	0x3d424202	0.04742623
204	0x3d96ba30	0.07359731
205	0x3d198333	0.037478637
206	0xbd8b17f5	-0.06791679
207	0x3c72178e	0.014776124
208	0xbe8e55c9	-0.27799824
209	0x3e676b38	0.22599494
210	0xbd9736f5	-0.07383529
211	0x3f85c16c	1.0449653
212	0xbda579e7	-0.08079892
213	0xb82741e2	-3.987726e-05
214	0xbe1e135f	-0.15437077
215	0x3ef911b4	0.4864632
216	0x3d9b1cc9	0.0757385
217	0x3e00097b	0.12503617
218	0x3d082e0a	0.03324703
219	0xbd34bf99	-0.044128034
220	0xbdd32f74	-0.10311785
221	0xbe52db0f	-0.20591377
222	0xbe0fa1b0	-0.14026523
223	0xbe06ccdf	-0.1316409
224	0xbe52ef85	-0.20599182
225	0x3dc0f674	0.09422007
226	0x3dce1746	0.10063033
227	0xbe60c69c	-0.21950763
228	0x3e9ebb28	0.31002164
229	0x3e58ece3	0.21184115
230	0xbd63b1ed	-0.055589605
231	0xbe3769ed	-0.17911501
232	0xbcfbe4c7	-0.030748738
233	0xbd8c8809	-0.06861884
234	0xbda96378	-0.08270925
235	0xbd4c2201	-0.049837116
236	0x3d46bef4	0.04852195
237	0x3e6317d0	0.22177052
238	0x3e06d9bb	0.13168995
239	0x3e8a5e92	0.27025276
240	0x3cd76c2e	0.026296701
241	0xbd350df5	-0.044202764
242	0x3db644bb	0.08899828
243	0xbd2b45d7	-0.04181465
244	0x3d554045	0.052063245
245	0x3ca56366	0.020188998
246	0x3d81c21e	0.06335853
247	0xbe87a09c	-0.26489723
248	0x3df424ed	0.119211055
249	0xbcc60d92	-0.024176393
250	0xbd81cbd9	-0.06337709
251	0x3d482e6c	0.048872396
252	0x3da42f64	0.080168515
253	0x3f08569b	0.5325715
254	0xbe27e834	-0.16397172
255	0x3d657656	0.056021057

lstm.weight_hh_l0 f4 [256, 64]
0	0x3e522fe7	0.20526086
1	0x3d8d438a	0.06897648
2	0xbcd2c382	-0.025727991
3	0x3e3ca2d0	0.18421483
4	0x3c3165d8	0.010827504
5	0xbd9c5249	-0.07632882
6	0x3acd03cc	0.001564139
7	0x3cd181fa	0.025574673
8	0xbd91ab5e	-0.07112764
9	0xbe07578c	-0.1321699
10	0x3e7fe5b1	0.24989964
11	0x3c835bfe	0.016035076
12	0xbdeb767b	-0.11497208
13	0xbd7ac403	-0.061222088
14	0xbcb9284d	-0.022602225
15	0xbe15f089	-0.14642538
16	0xbdaa7a54	-0.083241135
17	0x3ce718f7	0.028210146
18	0x3df0a0c4	0.117494136
19	0x3dc920ad	0.098206855
20	0x3c256c28	0.010096587
21	0xbe80083f	-0.2500629
22	0xbddef6b6	-0.108869
23	0x3de647b9	0.11244149
24	0x3da34fb2	0.07974185
25	0xbce44312	-0.027864013
26	0xbe2cd1f6	-0.16876969
27	0xbdc83a4e	-0.09776746
28	0x3e50cd8d	0.20390911
29	0x3cf5fdcc	0.030028246
30	0x3dbba291	0.091618665
31	0x3e5fd594	0.21858817
32	0xbddf45b2	-0.10901965
33	0xbe13bd9c	-0.14427799
34	0x3c464453	0.012101251
35	0xbcb14f7a	-0.021644343
36	0x3c548c68	0.012972929
37	0x3ddafcb7	0.10692733
38	0x3e7be63f	0.2459955
39	0xbd84354d	-0.06455479
40	0xbde7cdf5	-0.1131858
41	0x3c29ec34	0.010371257
42	0x3d29d895	0.041466314
43	0x3e0ed007	0.13946544
44	0xbe90034e	-0.2812752
45	0xbbea1022	-0.0071430365
46	0xbd8b781e	-0.0681002
47	0xbd9c3b2b	-0.07628473
48	0x3b7e5db0	0.0038813166
49	0xbc9e207d	-0.019302601
50	0xbc358901	-0.011080028
51	0x3dc2a4df	0.09504103
52	0x3db7dbaa	0.089774445
53	0xbdd52694	-0.10407749
54	0x3e9b5712	0.30339867
55	0xbd8c9c2e	-0.068657264
56	0xbd0beaad	-0.03415935
57	0x3e1de79e	0.15420386
58	0xbc7dfcb9	-0.015502148
59	0xbd784457	-0.06061205
60	0x3d1b6399	0.03793678
61	0x3bd00abb	0.0063489354
62	0x3d5ef4fe	0.05443286
63	0xbc244239	-0.010025554
64	0x3d823e06	0.06359486
65	0xbe232b3e	-0.15934464
66	0xbd06a90a	-0.032876052
67	0x3dac890c	0.08424577
68	0x3d0e4e7b	0.034742814
69	0x3e52346e	0.20527813
70	0x3c446a8b	0.011988292
71	0xbe09c16e	-0.13452694
72	0xbe254b4b	-0.16142003
73	0xbd25e034	-0.04049702
74	0xbc713bc1	-0.014723719
75	0xbe5258fb	-0.20541756
76	0x3a86a439	0.0010272331
77	0xb94ae404	-0.00019349164
78	0xbd38a940	-0.045083284
79	0xbcab6fdc	-0.020927362
80	0x3cf2251d	0.029558713
81	0x3cb472dd	0.022027427
82	0x3d15a340	0.03653264
83	0xbd5969c5	-0.053079385
84	0xbb7ec9ca	-0.00388776
85	0xbd7d9f25	-0.06191935
86	0xbe5135fb	-0.20430748
87	0xbbf18f6c	-0.0073718335
88	0x3db63cd7	0.08898323
89	0x3dc9b6f2	0.09849347
90	0xbd54ad94	-0.05192335
91	0xbdf7487d	-0.12074373
92	0xbde8c082	-0.11364843
93	0x3d9b252a	0.07575448
94	0xbdd4be90	-0.103879094
95	0xbe303e82	-0.17211345
96	0xbcddb97b	-0.027065983
97	0xbd87cac5	-0.06630472
98	0x3df360cd	0.11883698
99	0x3e730681	0.2373295
100	0x3d9f214e	0.07770024
101	0xbe07efc3	-0.13275056
102	0x3cdf20c8	0.027237311
103	0xbc79b503	-0.01524091
104	0xbdffdb92	-0.124930516
105	0xbd8403ec	-0.064460605
106	0xbe0f457a	-0.13991347
107	0xbdb44511	-0.08802236
108	0x3da96e4c	0.082729906
109	0xbdbd05d1	-0.09229625
110	0x3d176686	0.03696301
111	0xbca5585d	-0.020183736
112	0x3bee62e4	0.0072749723
113	0xbe0dc64f	-0.1384518
114	0x3d2da7b3	0.04239626
115	0x3d40cac0	0.047068357
116	0x3dd33c32	0.10314216
117	0x3e0a81a3	0.13526015
118	0xbc77c230	-0.0151219815
119	0x3d147b2f	0.03625029
120	0x3c8d2be0	0.017232835
121	0x3e1f474a	0.15554538
122	0xbdd6b6cc	-0.104840845
123	0x3dab5fd8	0.0836789
124	0x3c573716	0.013135692
125	0xbd7ab449	-0.06120709
126	0x3d01f0c1	0.03172374
127	0x3e266c7a	0.16252318
128	0x3db17117	0.08664148
129	0x3d4dff8a	0.05029253
130	0xbc2d9f1b	-0.010597016
131	0xbdba6a7f	-0.09102344
132	0xbd74d440	-0.05977273
133	0xbca714fb	-0.020395746
134	0xbdbc7b0f	-0.09203159
135	0x3dd35199	0.10318298
136	0xbe715be0	-0.23570204
137	0x3dd6c8f6	0.10487549
138	0xbea7ebd1	-0.327971
139	0xbdbecb7c	-0.09316155
140	0xbd030c59	-0.031994198
141	0x3bba9ff0	0.0056953356
142	0xbb5c7453	-0.003363867
143	0xbe508573	-0.20363407
144	0x3c22c7d2	0.009935336
145	0x3d0f1e33	0.03494091
146	0xbdb1c5bb	-0.08680292
147	0xbd78cf07	-0.06074431
148	0x3b2c2840	0.0026269108
149	0xbda6bbfa	-0.081413224
150	0xbd0f4d81	-0.034986023
151	0xbe3adfed	-0.18249483
152	0x3a937f8b	0.0011253221
153	0x3e3aaaf5	0.18229277
154	0xbce062b9	-0.027390825
155	0xbe1aa589	-0.15102209
156	0xbcdc59e2	-0.026898328
157	0x3c944b65	0.018102357
158	0xbd9dbbd9	-0.07701845
159	0xbd972e2d	-0.07381854
160	0x3cd8bfd6	0.026458662
161	0x3dba424a	0.09094675
162	0x3e66a9f9	0.22525777
163	0x3e6896a8	0.22713721
164	0x3c036c8b	0.008021484
165	0x3cb087ea	0.021549184
166	0xbd8ec612	-0.06971373
167	0xbdac3304	-0.08408168
168	0x3de01bfe	0.10942839
169	0x3db38777	0.08766072
170	0x3e18dc36	0.14927754
171	0xbdadb8f0	-0.0848254
172	0x3c01b3f1	0.0079164365
173	0x3d1d3d99	0.038388822
174	0x3e011fbb	0.1260976
175	0x3d99b229	0.075046845
176	0x3de84dc8	0.113429606
177	0x3db58ea6	0.08865099
178	0xbd1adbb9	-0.0378072
179	0xbdbfad1d	-0.093591906
180	0x3ca72943	0.020405417
181	0x3e08f4b8	0.13374603
182	0xbe4275b0	-0.18990207
183	0xbc96675d	-0.018359834
184	0xbd92c5ce	-0.071666345
185	0x3d0589ae	0.032602005
186	0xbe6e25e9	-0.23256649
187	0xbcb6f276	-0.022332411
188	0xbd4c3c0d	-0.049861956
189	0xbd8fe52c	-0.07026133
190	0xbe075396	-0.13215479
191	0x3deaf01b	0.11471578
192	0xbdf2f5a1	-0.11863256
193	0xbddfce2d	-0.10927997
194	0x3dd5c6b3	0.104382895
195	0xbf3a55cf	-0.72787184
196	0xbd9e3119	-0.077242084
197	0x3f49514e	0.78639686
198	0xbbeb82fc	-0.0071872454
199	0xbf34236e	-0.7036656
200	0xbf36adc4	-0.71358895
201	0xbde43ad9	-0.11144037
202	0x3d857eb1	0.06518305
203	0xbf12a8f5	-0.5728906
204	0xbad91185	-0.0016561007
205	0xbd20b494	-0.039234713
206	0x3f2c3826	0.67273176
207	0xbdf91601	-0.121624
208	0x3f2a684b	0.6656539
209	0xbd2d51a6	-0.042314194
210	0xbd220a0a	-0.039560355
211	0xbca36988	-0.019947782
212	0xbe0fa49f	-0.14027642
213	0xbdb02617	-0.08601015
214	0xbf22070d	-0.6329201
215	0x3c5e9939	0.013586336
216	0xbf1ac457	-0.6045584
217	0x3d075891	0.033043448
218	0x3f28cb24	0.6593497
219	0xbf49de35	-0.78854686
220	0x3ddea629	0.10871536
221	0x3e6b8a9d	0.23002096
222	0x3db7c746	0.08973555
223	0xbe1edbeb	-0.1551358
224	0xbd9bd3d7	-0.076087646
225	0x3d6ced9a	0.057843782
226	0xbcd1d790	-0.025615484
227	0x3eb8b8cf	0.36078498
228	0xbd737199	-0.059434507
229	0x3ccfc9f2	0.02536485
230	0xbf100c0a	-0.5626837
231	0xbd6b425c	-0.057436332
232	0xbf164ad0	-0.58707905
233	0x3e4604a5	0.19337709
234	0xbd249b16	-0.040186964
235	0xbf0d3927	-0.5516533
236	0x3f2f7751	0.6854144
237	0xbd4b3e4d	-0.04961996
238	0x3c5cb01d	0.013469723
239	0xbcfa5324	-0.030557223
240	0xbf11e5c2	-0.5699121
241	0x3da5da86	0.08098321
242	0x3f057ff5	0.5214837
243	0xbe9717f7	-0.2951047
244	0x3ef6ee1c	0.48228538
245	0x3f23416a	0.6377169
246	0xbc26d2ab	-0.010182063
247	0x3e30dedd	0.17272516
248	0xbe64eee8	-0.2235676
249	0x3e881f84	0.26586545
250	0xbf288fa8	-0.658442
251	0x3c92b149	0.017906802
252	0xbbbf4f1e	-0.005838289
253	0x3dd2fe4c	0.103024095
254	0xbc91fc01	-0.01782036
255	0x3c30dd39	0.010794931

lstm.bias_ih_l0 f4 [256]
0	0x3dac0b7e	0.084006295
1	0xbe2a86d9	-0.16653003
2	0xbe10309f	-0.14081047
3	0xbf111a15	-0.56680423
4	0xbd8234c9	-0.06357724
5	0x3f49b76a	0.7879549
6	0x3cc46840	0.023975492
7	0x3e0d7b3e	0.13816544
8	0x3f04d241	0.5188332
9	0xbe22e619	-0.15908088
10	0x3dcf62b9	0.10126252
11	0xbf386087	-0.7202229
12	0xbe09c59c	-0.13454288
13	0xbe009871	-0.12558152
14	0x3dacc460	0.08435893
15	0x3ec29f93	0.3801237
16	0xbde06079	-0.10955901
17	0x3d1c3457	0.038135853
18	0xbb4f55cf	-0.003163684
19	0x3d847fc4	0.06469682
20	0xbd9906d6	-0.07472007
21	0xbd583d28	-0.0527927
22	0x3e5d28ac	0.21597546
23	0xbeaba6cf	-0.33525702
24	0xbd70a45d	-0.0587505
25	0x3de9196a	0.113818005
26	0xbddaf13c	-0.10690543
27	0x3cc5c0fc	0.024139874
28	0xbc974b9d	-0.018468672
29	0x3cf8c8a3	0.030369109
30	0xbdf68c16	-0.12038438
31	0xbdf012dc	-0.11722347
32	0xbde64947	-0.11244445
33	0x3ceba5d7	0.028765602
34	0x3db51483	0.08841803
35	0x3bbdfd53	0.005798021
36	0x3cf10ebc	0.029425971
37	0xbd1b5a0e	-0.03792768
38	0xbec0e661	-0.37675765
39	0xbdd6df62	-0.10491826
40	0xbdd577d7	-0.10423248
41	0xbd969f18	-0.073545635
42	0xbd6962cc	-0.056978986
43	0x3ed776e3	0.4208289
44	0xbda841d4	-0.08215681
45	0xbde8463e	-0.11341523
46	0x3d6eed11	0.058331553
47	0xbd392b92	-0.045207568
48	0xbea544ee	-0.32279152
49	0xbdc84387	-0.09778505
50	0xbde4b85c	-0.11167976
51	0xbe086ae0	-0.1332202
52	0x3c9f9eb8	0.019484863
53	0x3efd66ac	0.49492395
54	0xbe11ff9b	-0.14257662
55	0xbd393ed7	-0.045225944
56	0xbe95c7dd	-0.29254046
57	0xbdab709b	-0.08371087
58	0x3d44555f	0.04793298
59	0x3d0a24c4	0.03372647
60	0xbe380b20	-0.17972994
61	0xbe04010e	-0.12891027
62	0xbd09e459	-0.033665035
63	0xbd095c3c	-0.033535227
64	0xbe421110	-0.18951821
65	0xbdb1da28	-0.08684188
66	0x3d2e9f4e	0.042632394
67	0xbe89ed06	-0.26938647
68	0xbced5210	-0.028969795
69	0xbe7fcc93	-0.24980383
70	0xbe40cb04	-0.18827444
71	0x3d8c0d9d	0.06838534
72	0x3f428f88	0.7600026
73	0x3cd18a45	0.025578627
74	0xbcdff52e	-0.02733859
75	0xbec5b3ec	-0.38613832
76	0xbe64e7d1	-0.22354056
77	0x3cc22a31	0.023701759
78	0xbc8bc0a6	-0.017059635
79	0x3e178bda	0.14799443
80	0xbe442dfd	-0.19158168
81	0x3cd0490c	0.025425456
82	0xbd215024	-0.03938307
83	0xbd73ec5c	-0.05955158
84	0x3c8b692e	0.017017927
85	0x3e1bd154	0.15216571
86	0x3eadb80f	0.33929488
87	0x3bb06a38	0.005383756
88	0xbe5021fa	-0.20325461
89	0xbdeefc6f	-0.11669242
90	0xbe45528f	-0.19269775
91	0x3dc03555	0.09385172
92	0xbd051762	-0.032493003
93	0x3cff85e4	0.031191774
94	0xbe21d467	-0.15803681
95	0xbcefbd85	-0.029265175
96	0xbdbf9df1	-0.09356297
97	0xbe033b6e	-0.1281564
98	0x3bffeb19	0.0078100082
99	0x3c0f78c2	0.008756818
100	0xbcf2c2c0	-0.02963388
101	0xbb1f1ee8	-0.0024279896
102	0x3dc1dc1a	0.09465809
103	0x3c372072	0.011177169
104	0xbe8d9802	-0.27655035
105	0xbd6529dc	-0.055948123
106	0x393d4bf6	0.00018052742
107	0xbefc3ac3	-0.49263582
108	0xbe18a7f2	-0.14907816
109	0x3e430d77	0.19048105
110	0xbe672067	-0.22570954
111	0xbde20098	-0.110352695
112	0x3dfe8180	0.12427044
113	0xbc102e99	-0.008800172
114	0xbd9781d6	-0.07397811
115	0xbe57cfc5	-0.21075352
116	0x3d873428	0.06601745
117	0x3ea1a3e0	0.3157034
118	0xbd1f9304	-0.038958564
119	0xbdde39e6	-0.10850887
120	0x3cb80548	0.022463456
121	0x3cc1a1dc	0.02363675
122	0xbe974ba2	-0.2954989
123	0xbe3037b6	-0.17208752
124	0xbdd67982	-0.104723945
125	0xbd406a8b	-0.046976607
126	0xbe0d1eb4	-0.13781244
127	0xbd47ea04	-0.04880716
128	0x3e326475	0.17421134
129	0xbd3aad77	-0.045575585
130	0x3d04a79e	0.032386415
131	0xbe164ea4	-0.14678437
132	0x3d9c2a43	0.07625248
133	0xbe79a404	-0.24378973
134	0x3d27a87e	0.04093217
135	0x3db44b86	0.088034675
136	0x3e7dd0a0	0.24786615
137	0xbd83cd3e	-0.06435631
138	0xbdc2e382	-0.0951605
139	0xbd936f05	-0.0719891
140	0xbd9d00be	-0.07666157
141	0x3dcd415b	0.10022231
142	0xbe094cbf	-0.13408183
143	0xbd2c921d	-0.042131532
144	0xbddef07a	-0.10885711
145	0x3e3aaf64	0.18230969
146	0xbe6ff981	-0.23435022
147	0xbdb8845e	-0.09009622
148	0xbc2c2612	-0.010507124
149	0xbdbc3742	-0.09190227
150	0x3e8ac024	0.27099717
151	0xbf4328a4	-0.7623389
152	0xbee42b41	-0.4456425
153	0xbdaf1553	-0.08548989
154	0xbdab184a	-0.08354242
155	0x3dcd16c2	0.10014106
156	0xbd84dd28	-0.06487495
157	0x3d13e75e	0.03610932
158	0x3e07b353	0.13252
159	0x3dfdce34	0.12392846
160	0xbd8229f8	-0.06355661
161	0xbbf15650	-0.0073650256
162	0x3c52759e	0.012845425
163	0xbd029b53	-0.03188641
164	0xbe2349fe	-0.15946195
165	0x3e023e34	0.12719041
166	0x3d1e5125	0.038651604
167	0xbd3d1f41	-0.046172384
168	0x3d576215	0.052583773
169	0x3be15235	0.006876255
170	0x3df6e656	0.12055652
171	0x3d1834c4	0.037159696
172	0x3e3063a6	0.17225513
173	0xbdb258d8	-0.08708352
174	0xbd610993	-0.05494077
175	0x3d7e0342	0.062014826
176	0x3e2023e9	0.15638699
177	0xbd535f56	-0.05160459
178	0xbe71885e	-0.23587176
179	0xbe4bb1c2	-0.19892028
180	0x3d980a60	0.07423854
181	0xbebb0b83	-0.3653222
182	0x3dc175b1	0.09446276
183	0x3cc99d4d	0.02461114
184	0x3dc6cda8	0.097071946
185	0xbdbff8ad	-0.09373603
186	0x3e4c3b28	0.19944441
187	0x3cea7c56	0.028623741
188	0xbd87612a	-0.066103294
189	0x3e7a2bd7	0.24430786
190	0xbd12a863	-0.035805117
191	0xbda6908c	-0.08133039
192	0x3c188475	0.009308924
193	0x3cdcbb2a	0.026944716
194	0xbe8a5358	-0.2701671
195	0xbf03073f	-0.5118293
196	0xbf0ed894	-0.5579922
197	0x3d736a09	0.059427295
198	0x3c88ecfa	0.016714562
199	0xbce8e5e9	-0.028429942
200	0x3e0f9808	0.14022839
201	0xbe00c6f6	-0.12575898
202	0xbe47232f	-0.19447015
203	0xbe43ce32	-0.19121626
204	0xbe2417a5	-0.16024645
205	0xbe566495	-0.20936806
206	0xbda6a54f	-0.08136999
207	0x3e10f76e	0.14156887
208	0xbe9ce01e	-0.30639738
209	0xbd102df2	-0.035200067
210	0x3d95a647	0.073071055
211	0xbdb8d12b	-0.090242706
212	0xbdfcb003	-0.12338259
213	0xbde722be	-0.112859234
214	0x3f726edc	0.9470041
215	0xbde642db	-0.112432204
216	0xbe8dd13c	-0.27698696
217	0xbd845f84	-0.06463531
218	0x3f12c4b4	0.57331395
219	0xbeaa115e	-0.33216375
220	0xbdca5159	-0.09878797
221	0xbde46122	-0.11151339
222	0xbdfb01e4	-0.1225622
223	0xbe01b3d2	-0.12666252
224	0xbd7f29bb	-0.062295657
225	0xbe6b5720	-0.22982454
226	0x3c5e0fd7	0.013553581
227	0x3f3a281b	0.72717446
228	0xbe735f5d	-0.23766847
229	0xbe5dab92	-0.2164748
230	0xbe718ed5	-0.23589642
231	0xbe1c455b	-0.15260832
232	0x3f34deec	0.7065265
233	0x3eac7b1b	0.33687672
234	0xbe126641	-0.1429682
235	0x3da652e4	0.08121279
236	0xbe9df01e	-0.30847257
237	0x3e40c7b4	0.1882618
238	0xbf1fba7f	-0.62393945
239	0xbdac2cde	-0.08406995
240	0xbf264d23	-0.6496145
241	0x3de3f677	0.11130994
242	0x3f32e1b6	0.6987566
243	0xbeca6255	-0.39528146
244	0x3ec4608a	0.38354903
245	0x3ee7f452	0.4530359
246	0xbdc86686	-0.0978518
247	0xbd70c7da	-0.058784343
248	0xbe45e6e6	-0.19326362
249	0x3da24e1c	0.079250544
250	0xbf04ba07	-0.51846355
251	0x3b0e3da9	0.0021704233
252	0x3df4dca9	0.1195615
253	0x3cf83aee	0.030301537
254	0x3d040f28	0.032241017
255	0xbe3bacbf	-0.18327616

lstm.bias_hh_l0 f4 [256]
0	0x3e127d94	0.14305717
1	0xbe3f8c95	-0.18705972
2	0x3d8da7b4	0.069167525
3	0xbf463daf	-0.7743787
4	0xbdfb07bb	-0.12257334
5	0x3f32fac2	0.69913876
6	0x3c6292cb	0.0138289435
7	0x3e86c8b1	0.2632499
8	0x3effb484	0.4994241
9	0xbe01a60f	-0.12661003
10	0x3ae46858	0.0017426116
11	0xbf375eab	-0.71628827
12	0xbe6ef7dd	-0.2333674
13	0xbce296e7	-0.027659846
14	0xbd8459b3	-0.06462421
15	0x3ece5c23	0.4030467
16	0xbe9f9198	-0.31165767
17	0xbe110c51	-0.14164855
18	0xbd823e39	-0.06359524
19	0x3d54f720	0.05199349
20	0xbd253bfe	-0.040340416
21	0xbc80d7d3	-0.015727913
22	0x3e48f046	0.19622907
23	0xbe91076f	-0.28325984
24	0xbd9a657e	-0.07538889
25	0xbdf71a4d	-0.12065563
26	0xbdbc9e9b	-0.09209939
27	0x3e36c84a	0.17849842
28	0xbdb0853a	-0.08619161
29	0x3d5de7a8	0.054176003
30	0xbda71615	-0.08158509
31	0xbde0d668	-0.10978395
32	0xbe3d2ebf	-0.18474863
33	0xbe0419e6	-0.12900504
34	0x3d9b4f09	0.07583434
35	0x3cdef324	0.027215548
36	0x3c920598	0.017824933
37	0xbde6c5ea	-0.11268218
38	0xbe7cde38	-0.24694145
39	0xbe23fbbf	-0.16014002
40	0xbb20f54d	-0.0024560273
41	0xbe4bfa39	-0.19919671
42	0xbd704db4	-0.058667853
43	0x3ebd4e6d	0.36973897
44	0xbe4ff6fe	-0.20309064
45	0xbe14a657	-0.14516579
46	0x3c934132	0.017975423
47	0xbe7a5939	-0.24448098
48	0xbe9e0127	-0.30860254
49	0xbcc5e112	-0.024155173
50	0xbde8e3c6	-0.11371569
51	0xbe8a0027	-0.2695324
52	0x3d7be55d	0.061498035
53	0x3ed84af7	0.42244694
54	0xbe8b8099	-0.2724655
55	0x3c844999	0.016148375
56	0xbea1e45b	-0.31619534
57	0xbd54a067	-0.051910784
58	0xbd8b24d0	-0.06794131
59	0xbdc81937	-0.09770434
60	0xbe04ba94	-0.12961799
61	0xbb4900cd	-0.0030670643
62	0xbd892f36	-0.06698458
63	0xbdd2536d	-0.102698185
64	0xbd4fae81	-0.05070353
65	0xbe80fc6f	-0.25192592
66	0x3db4bbd4	0.08824888
67	0xbe67d9de	-0.22641703
68	0x3be7a8b8	0.0070696734
69	0xbca0231c	-0.019547991
70	0xbe0a1e1f	-0.13488053
71	0xbd84dc85	-0.06487373
72	0x3f37e248	0.7182965
73	0xbd362961	-0.044473056
74	0xbd812d56	-0.06307475
75	0xbe67af4e	-0.22625467
76	0xbe69720a	-0.22797409
77	0xbc4abfc0	-0.012374818
78	0xbe1ca4ba	-0.15297213
79	0x3d4975c1	0.049184565
80	0xbe7f2ff2	-0.24920633
81	0xbd1ac461	-0.037784938
82	0xbd046938	-0.032326907
83	0x3d16647c	0.036716923
84	0xbd75b684	-0.059988514
85	0x3d479a09	0.048730884
86	0x3e9c3e31	0.30516198
87	0x3cfc4a26	0.030797075
88	0xbe414d1d	-0.18877073
89	0xbe4f66f2	-0.20254114
90	0xbcb40e05	-0.021979341
91	0x3d8d387b	0.068955384
92	0xbc9e459a	-0.019320298
93	0xbde6161d	-0.112346865
94	0x3a753543	0.0009353945
95	0xbdd56005	-0.10418705
96	0x3c996bef	0.018728225
97	0x3d881aec	0.0664576
98	0xbc195c04	-0.009360317
99	0x3e336b14	0.17521316
100	0xbe09905d	-0.13433976
101	0xbe0553cf	-0.13020252
102	0x3e3a4491	0.18190219
103	0xbce2ea23	-0.027699536
104	0xbe396555	-0.18105061
105	0x3d37bd1a	0.044858076
106	0xbe55f079	-0.20892514
107	0xbf05310e	-0.52027977
108	0xbde75a56	-0.11296527
109	0x3e08501b	0.13311808
110	0xbe825403	-0.2545472
111	0xbd20111d	-0.03907882
112	0x3e00a121	0.12561466
113	0x3e095dc4	0.13414675
114	0xbe3da2c0	-0.18519115
115	0xbe616b11	-0.22013499
116	0x3d70e68e	0.058813624
117	0x3ea74ac2	0.32674223
118	0xbe698f25	-0.22808512
119	0xbe015cd7	-0.12633072
120	0xbdc89bf6	-0.09795372
121	0x3dbb0400	0.09131622
122	0xbe8cc8dd	-0.27496997
123	0xbdc4c926	-0.096086785
124	0xbdf38bd8	-0.118919075
125	0x3d8fcf1a	0.07021923
126	0xbe2e66b4	-0.17031366
127	0x3bac0686	0.005249801
128	0xbc7f93c2	-0.015599193
129	0xbd527475	-0.051380593
130	0xbe28d3d4	-0.16487056
131	0xbd5b28d8	-0.05350575
132	0xbe1a97ff	-0.15097044
133	0xbe1547e8	-0.14578211
134	0xbcd00ac6	-0.025395762
135	0x3e5d5960	0.21616125
136	0x3e953288	0.29140115
137	0x3dc374b0	0.09543741
138	0xbe26eba3	-0.16300826
139	0xbdb1b5a6	-0.08677225
140	0x3d94c2a1	0.07263685
141	0x3d8fc285	0.070195235
142	0xbcfedddd	-0.031111652
143	0x3d6cafc5	0.057784814
144	0x3dc9c040	0.09851122
145	0x3e01cb39	0.1267518
146	0xbe013fb2	-0.12621954
147	0xbddc6b05	-0.107626
148	0xbd306648	-0.043066293
149	0x3d86b904	0.06578258
150	0x3e21cb2d	0.15800162
151	0xbf4a39be	-0.7899436
152	0xbecaa339	-0.39577654
153	0x3ccf3050	0.025291592
154	0xbe8be56f	-0.2732348
155	0x3dab93b4	0.083777815
156	0xbd7fa040	-0.062408686
157	0xbd4e3c4e	-0.05035048
158	0x3e0d6e84	0.1381169
159	0x3e928690	0.28618288
160	0xbd84c5bf	-0.064830296
161	0x3d55b3f5	0.052173574
162	0xbd051d07	-0.032498386
163	0xbe5e4f40	-0.21709919
164	0xbdddf3cc	-0.10837516
165	0x3dab2f22	0.08358599
166	0x3df99d8c	0.12188253
167	0xbdc2bc9d	-0.095086314
168	0xbd06c2cb	-0.032900613
169	0x3de2852e	0.11060558
170	0x3e389c7f	0.18028449
171	0x3e8aed0b	0.27133974
172	0x3d281d97	0.041043844
173	0xbd06dda3	-0.032926213
174	0xbd79a50d	-0.06094842
175	0xbdb46044	-0.08807424
176	0x3d586314	0.052828863
177	0x3e07a865	0.13247831
178	0xbe5ee07e	-0.21765324
179	0xbd9d63ee	-0.07685076
180	0x3d85b0c9	0.0652786
181	0xbe419f5c	-0.18908447
182	0x3e47e81b	0.19522135
183	0x3d39a21c	0.045320615
184	0x3d3093b5	0.043109614
185	0xbe293c95	-0.16527016
186	0x3dacd385	0.08438782
187	0x3dd4e568	0.10395318
188	0xbe23e710	-0.16006112
189	0x3e42a52f	0.19008325
190	0xbc81db0f	-0.015851526
191	0xbdbec5aa	-0.09315045
192	0x3e586056	0.21130499
193	0xbd70a13b	-0.05874751
194	0xbd8bee1c	-0.06832525
195	0xbf3296de	-0.69761455
196	0xbf26715e	-0.65016735
197	0x3e0256d3	0.12728433
198	0x3dad56aa	0.084637955
199	0xbb6b4bb0	-0.0035903268
200	0x3da8e582	0.082469
201	0xbb9f712f	-0.0048657875
202	0x3d23cfb8	0.039993018
203	0xbd9e1c57	-0.07720249
204	0xbd69f9f4	-0.05712314
205	0xbe4378e5	-0.19089086
206	0x3d006e2d	0.03135507
207	0x3e1694a8	0.14705145
208	0xbec10eab	-0.37706503
209	0xbdfc36e8	-0.1231516
210	0x3d89f6e0	0.06736541
211	0xbe0929da	-0.13394871
212	0x3dee7ede	0.11645292
213	0xbe84f386	-0.25967044
214	0x3f561d92	0.8363887
215	0xbda6c5b1	-0.081431754
216	0xbe7ad678	-0.24495876
217	0xbe39fff5	-0.18164046
218	0x3f201a5f	0.6254024
219	0xbeaaba06	-0.3334505
220	0xbdeff9f1	-0.117175944
221	0xbe44f0c4	-0.1923247
222	0x3bdf555e	0.0068155965
223	0xbcc9e5c1	-0.024645688
224	0xbcb3d305	-0.021951208
225	0xbe737f85	-0.23779114
226	0xba337645	-0.00068459316
227	0x3f29bf95	0.66307956
228	0xbe1ebe3a	-0.15502253
229	0xbcafae23	-0.02144534
230	0xbdc9134d	-0.098181345
231	0xbc9391fd	-0.018013949
232	0x3f53e060	0.82764244
233	0x3eead127	0.45862696
234	0xbe138c3d	-0.14408965
235	0x3d5e5026	0.054275654
236	0xbe99f42f	-0.3006911
237	0x3e0e2928	0.13882887
238	0xbef3533f	-0.4752445
239	0xbd0b8217	-0.03405961
240	0xbf091c45	-0.5355876
241	0xbceac9f2	-0.028660748
242	0x3f3ebda0	0.74508095
243	0xbe8493aa	-0.2589391
244	0x3ed8e050	0.42358637
245	0x3eafc05a	0.3432644
246	0xbe26eb7a	-0.16300765
247	0xbd199556	-0.037495933
248	0xbe2a72a6	-0.16645297
249	0xbd8fab86	-0.070151374
250	0xbedaee92	-0.4276014
251	0xbdefe1b3	-0.117129706
252	0x3ca6fcfd	0.020384306
253	0x3e1fedfe	0.1561813
254	0xbc15e5d4	-0.009149034
255	0xbd7330a8	-0.059372574

lstm.weight_ih_l1 f4 [256, 64]
0	0xbd12dbae	-0.035854034
1	0xbde9d0cf	-0.1141678
2	0x3d95de79	0.07317824
3	0x3c2c276a	0.010507444
4	0xbd70ecfb	-0.058819752
5	0x3d1f5f5f	0.038909312
6	0xbe1fc8e2	-0.15603974
7	0x3e286408	0.16444409
8	0xbd47f62e	-0.04881876
9	0xbe6a34ca	-0.228717
10	0xbcdd8dac	-0.027045093
11	0xbc06d658	-0.0082298145
12	0xbd2b3343	-0.041796934
13	0xbe39c5ef	-0.18141912
14	0xbe11f6e6	-0.1425434
15	0x3d8cb93e	0.0687127
16	0x3d7e2c93	0.062054228
17	0x3d2b7c61	0.041866664
18	0x3de6d690	0.11271393
19	0x3e426e6f	0.1898744
20	0xbe081c06	-0.1329194
21	0x3e277307	0.16352473
22	0xbd95bcd5	-0.073114075
23	0x3e484bc1	0.19560148
24	0x3e154b3e	0.14579484
25	0x3ef71330	0.48256826
26	0x3d5fb335	0.054614265
27	0x3d577fd3	0.052612137
28	0x3d2a14f1	0.041523878
29	0x3d568aad	0.052378345
30	0xbe88d5e2	-0.2672568
31	0xbe3d5594	-0.18489677
32	0x3e42c417	0.19020115
33	0x3d33c3c8	0.043887883
34	0xbe61191a	-0.21982232
35	0x3ea35429	0.31900147
36	0x3e5e0939	0.21683206
37	0xbe727de9	-0.23680843
38	0x3e591df2	0.2120283
39	0xbd5b1034	-0.05348225
40	0xbe10e203	-0.14148717
41	0xbe52f86b	-0.20602576
42	0x3ee525e2	0.44755465
43	0x3e3f6972	0.18692568
44	0xbe67f821	-0.22653247
45	0x3d920098	0.071290195
46	0xbea60c6c	-0.32431352
47	0xbdbba50a	-0.09162338
48	0xbc6771f8	-0.014126293
49	0x3dd010fb	0.10159489
50	0x3e1ee79a	0.15518036
51	0xbd77d261	-0.060503367
52	0xbcc2d958	-0.023785278
53	0x3e09aeee	0.13445637
54	0xbe810b6c	-0.25204027
55	0x3e2ca65f	0.1686034
56	0xbe2b2a06	-0.1671525
57	0x3e4464e4	0.19179112
58	0x3e0a8d40	0.13530445
59	0xbcaf7d71	-0.02142212
60	0xbdbc0366	-0.09180336
61	0x3e028027	0.12744199
62	0xbd5bf398	-0.053699106
63	0xbda4f9cb	-0.08055457
64	0xbd90d18a	-0.070712164
65	0x3d97b87f	0.07408237
66	0xbd7f8539	-0.06238291
67	0xbc5bcdd2	-0.013415771
68	0xbe6ced61	-0.23137428
69	0x3d3b8ead	0.045790363
70	0x3e090c4c	0.13383597
71	0xbd93d5b7	-0.07218497
72	0xbe501c74	-0.20323354
73	0xbe714272	-0.23560503
74	0x3df51b70	0.11968124
75	0xbda1f742	-0.07908489
76	0xbd2a433b	-0.041568022
77	0x3ca4e725	0.02012975
78	0x3d7d323f	0.061815497
79	0x3ead9374	0.3390156
80	0x3dfc90c5	0.123323
81	0xbdccb036	-0.09994547
82	0x3d8b02fc	0.067876786
83	0x3d60412a	0.054749645
84	0x3cdd2265	0.02699394
85	0xbc7bd191	-0.015369789
86	0xbdab53fa	-0.08365627
87	0x3e6df1f4	0.23236829
88	0x3e52205a	0.20520154
89	0x3eae82b0	0.34084082
90	0x3e4e4f27	0.20147382
91	0xbe571339	-0.21003427
92	0x3ddd133d	0.10794685
93	0x3d11fcf8	0.03564164
94	0x3d6eeda1	0.05833209
95	0xbd93b5db	-0.072124206
96	0x3d9bf2ab	0.076146446
97	0x3b0eca68	0.0021788124
98	0xbdb40d58	-0.087916076
99	0x3e08306a	0.13299718
100	0x3d6e60e4	0.05819787
101	0xbe7d85ca	-0.24758068
102	0x3d8165c3	0.06318238
103	0x3e570a9d	0.21000142
104	0xbeb0ab68	-0.34505773
105	0x3d420757	0.04737028
106	0xbea7f6d6	-0.32805508
107	0xbe90c593	-0.28275737
108	0x3e4d140c	0.20027179
109	0x3dd7314f	0.10507452
110	0xbd10b3a2	-0.03532756
111	0xbe13a584	-0.14418608
112	0xbe4118e6	-0.18857154
113	0x3d12d7d0	0.035850346
114	0x3c0ad0ea	0.008472661
115	0x3dbe024f	0.09277784
116	0x3ead87fe	0.33892816
117	0x3e2a1209	0.16608442
118	0x3e3573b0	0.17719913
119	0x3d48f3ec	0.049060747
120	0xbe66ebf4	-0.22550946
121	0x3d59ba81	0.05315638
122	0xbdd2105a	-0.10257025
123	0xbda27f97	-0.07934492
124	0x3dd2e066	0.10296707
125	0xbdaee98c	-0.08540639
126	0xbe616f26	-0.22015056
127	0xbe930dee	-0.28721565
128	0xbeb6b369	-0.35683754
129	0x3db0b287	0.086278014
130	0xbd0ff360	-0.03514421
131	0xbcc5195f	-0.02405995
132	0xbe3f19bc	-0.1866216
133	0x3e21abc2	0.15788177
134	0xbe503ee4	-0.20336491
135	0xbdb6406b	-0.088990055
136	0xbed57d87	-0.41697332
137	0xbe4541f5	-0.19263442
138	0xbb77a116	-0.0037785224
139	0xbe67eba4	-0.22648484
140	0x3d76d286	0.060259365
141	0xbdee7312	-0.11643042
142	0x3ddf190c	0.10893449
143	0x3ddec5dc	0.108775824
144	0x3ded860d	0.11597834
145	0xbe44a59c	-0.192038
146	0x3e33e0a2	0.1756616
147	0x3db5bbc5	0.08873705
148	0xbd0beffa	-0.034164406
149	0xbe138386	-0.14405641
150	0xbed0e257	-0.40797684
151	0xbced9fab	-0.0290068
152	0xbc251335	-0.01007538
153	0x3ec9a774	0.3938557
154	0xbc1cea85	-0.009577398
155	0xbeb45b15	-0.3522574
156	0xbdcbe5cd	-0.099559404
157	0x3e5fb3c9	0.21845926
158	0xbda03a3d	-0.07823608
159	0xbcbb5e59	-0.022872137
160	0x3de12e3e	0.10995148
161	0xbd9fd32e	-0.07803951
162	0x3cf3367c	0.029689066
163	0x3ef5001f	0.47851655
164	0xbdc29c6f	-0.095024936
165	0xbd3be8b3	-0.045876216
166	0x3d95bfa3	0.073119424
167	0xbddd7ba2	-0.10814597
168	0x3dd4facd	0.10399399
169	0xbd9c907e	-0.07644747
170	0xbdba2b3a	-0.09090276
171	0xbdf89bb4	-0.12139073
172	0xbc8b0711	-0.016971143
173	0x3deb32a5	0.11484269
174	0x3e8844d6	0.26615018
175	0xbd332e5c	-0.043745384
176	0xbd63755d	-0.05553185
177	0x3a539a72	0.00080720254
178	0x3df5b373	0.11997118
179	0x3d97af72	0.074065104
180	0x3e042c84	0.12907606
181	0x3eccb8ec	0.39984834
182	0xbec739b7	-0.3891122
183	0x3dfc3571	0.12314881
184	0x3b5b466c	0.0033458723
185	0x3e414450	0.18873715
186	0xbeb78842	-0.35846144
187	0xbdf9a1f6	-0.12189095
188	0x3e4dcebd	0.20098396
189	0xbe12f5a1	-0.14351512
190	0xbe13ed0d	-0.14445896
191	0x3e287f8d	0.16454907
192	0xbea638ba	-0.32465154
193	0x3c4a9d5d	0.01236662
194	0xbe26e46b	-0.16298072
195	0x3e815400	0.252594
196	0x3df0b5cf	0.11753427
197	0x3dbc5c77	0.09197324
198	0xbeb2a41d	-0.34890833
199	0x3d8f8b40	0.07008982
200	0xbe9d57f8	-0.30731177
201	0x3d000f13	0.031264376
202	0x3e516d92	0.20451954
203	0x3dfb9b2b	0.12285455
204	0x3e14a983	0.14517789
205	0xbd72dd3d	-0.05929302
206	0xbc1bf760	-0.009519428
207	0x3e9240fd	0.28565207
208	0xbe833e16	-0.25633305
209	0xbe97d620	-0.29655552
210	0x3d825d61	0.06365467
211	0x3e167df6	0.14696488
212	0x3d7155a9	0.058919583
213	0x3dacb950	0.08433783
214	0xbd662d90	-0.056195796
215	0x3ea3e3e0	0.32009792
216	0x3cbe4bac	0.023229443
217	0x3e3cd6ec	0.18441361
218	0x3e7867cc	0.24258345
219	0x3e586098	0.21130598
220	0x3c177432	0.009244012
221	0xbd8c0c3e	-0.068382725
222	0xbdb74963	-0.08949544
223	0xbd836a8b	-0.06416806
224	0x3e1f844f	0.15577815
225	0x3d86f238	0.06589168
226	0x3e5072b6	0.20356259
227	0x3e5d91de	0.21637675
228	0xbe79e1c6	-0.24402532
229	0xbe5ff812	-0.21871975
230	0x3e85a8ee	0.26105446
231	0x3ea0adae	0.31382507
232	0xbc1216df	-0.008916586
233	0x3cb52fea	0.022117574
234	0xbde98f8e	-0.11404334
235	0x3e491eeb	0.196407
236	0xbe80eebf	-0.2518215
237	0x3e0d6856	0.13809332
238	0xbe061f14	-0.13097793
239	0xbe546672	-0.20742205
240	0x3e416591	0.18886401
241	0xbee0f8d0	-0.4393983
242	0x3e483e8b	0.19555108
243	0x3e0c526e	0.1370332
244	0xbe2078b0	-0.15671039
245	0x3ed140b1	0.40869668
246	0xbe87464d	-0.26420823
247	0x3ded07c5	0.115737475
248	0xbd270f90	-0.040786326
249	0x3df9651a	0.12177487
250	0x3e4097b7	0.18807875
251	0xbe0470ef	-0.12933706
252	0xbd87a706	-0.06623654
253	0xbe9bb740	-0.30413246
254	0x3e2d40fa	0.16919318
255	0xbdfa58e0	-0.12223983

lstm.weight_hh_l1 f4 [256, 64]
0	0x3ea1a559	0.31571463
1	0x3db1e583	0.08686354
2	0xbd47857f	-0.048711296
3	0xbdc04949	-0.09388978
4	0x3d41a85f	0.04727971
5	0xbd9d2985	-0.07673935
6	0x3c18c772	0.009324895
7	0xbe07f6da	-0.1327776
8	0xbdf4ae34	-0.11947289
9	0xbea5ecae	-0.32407135
10	0xbdb2d564	-0.08732107
11	0x3e8803a0	0.26565266
12	0xbe222f03	-0.15838246
13	0x3e1cd137	0.15314184
14	0x3df9989d	0.12187312
15	0xbe353e14	-0.17699462
16	0x3d63e8d8	0.05564198
17	0xbda97cd9	-0.08275766
18	0x3e89908a	0.26868087
19	0xbe1bc29e	-0.1521096
20	0x3e7ff690	0.249964
21	0xbe107852	-0.14108399
22	0xbe733488	-0.23750508
23	0x3da89712	0.082319394
24	0xbe0368b2	-0.12832907
25	0x3ccf02c5	0.025269875
26	0x3e470b01	0.19437791
27	0xbd9bc2e4	-0.07605532
28	0xbdae4e7b	-0.08511063
29	0xbd9e51ce	-0.07730447
30	0xbec9f3f3	-0.3944393
31	0x3e591ad1	0.21201636
32	0xbe34a9c9	-0.17642893
33	0x3c2343e1	0.009964914
34	0xbd98f532	-0.07468642
35	0xbd193f2b	-0.037413757
36	0xbe440270	-0.19141555
37	0x3c522f8d	0.01282872
38	0xbca964ca	-0.020677943
39	0xbc98ecef	-0.018667666
40	0xbdb45a0e	-0.08806239
41	0x3ec8a4ac	0.39188135
42	0xbdfecbf4	-0.12441245
43	0xbe807397	-0.25088188
44	0x3e53d697	0.20687328
45	0xbe417d49	-0.18895449
46	0xbe4cfeb9	-0.20019044
47	0x3cb96dd8	0.022635385
48	0x3cd6974d	0.026195193
49	0xbe4563e8	-0.19276392
50	0xbd8209ea	-0.06349547
51	0xbeacbea0	-0.33739185
52	0xba9b5f0d	-0.0011853889
53	0x3d05da44	0.032678857
54	0x3df5baf9	0.11998553
55	0xbe9fff73	-0.3124958
56	0xbcd603c3	-0.02612484
57	0xbe34a91d	-0.17642637
58	0x3d079fc7	0.03311136
59	0xbd96528e	-0.07339965
60	0xbdfbd9f5	-0.122974314
61	0x3e6e3942	0.2326403
62	0x3e27e8ea	0.16397443
63	0xbd3f7236	-0.04673978
64	0x3e887dc2	0.26658446
65	0x3d98cd99	0.0746109
66	0xbd99ac51	-0.0750357
67	0xbc156fd8	-0.009120904
68	0x3d3efe0e	0.046629004
69	0xbcdadee2	-0.026717607
70	0x3da50d8c	0.080592245
71	0xbe159a69	-0.14609684
72	0xbdc5a8af	-0.096513145
73	0xbe752dcd	-0.23943253
74	0x3da1e729	0.079054184
75	0x3e35da10	0.17758965
76	0xbd463936	-0.048394404
77	0x3dfc95b7	0.12333243
78	0x3dee9120	0.11648774
79	0xbe1f9e94	-0.15587837
80	0xbaaa6277	-0.0012999316
81	0x3c816f00	0.0158
82	0x3e6036df	0.21895932
83	0x3d8c7407	0.06858068
84	0x3dfca715	0.12336556
85	0x3e4caf84	0.19988829
86	0xbdedc1ac	-0.116092056
87	0xbddc40d7	-0.10754555
88	0xbe202d15	-0.15642197
89	0xbe287801	-0.16452028
90	0x3deaeff7	0.11471551
91	0xbd8a1402	-0.067420974
92	0xbd7cd07e	-0.06172227
93	0xbe20b694	-0.15694648
94	0xbe84018a	-0.25782424
95	0x3dfab059	0.12240667
96	0x3dc732bd	0.097264744
97	0x3e92b139	0.28650835
98	0xbdb1c38b	-0.08679875
99	0xbe3c9bf6	-0.1841887
100	0xbe55481e	-0.20828292
101	0xbde5d1e3	-0.11221673
102	0x3c9e1b67	0.019300176
103	0x3d10d799	0.03536186
104	0xbd6777cb	-0.056510728
105	0x3e8ba70f	0.27275893
106	0x3b3507ed	0.0027623132
107	0xbe2dc968	-0.16971362
108	0x3e5b4143	0.21411614
109	0xbc3979a7	-0.011320508
110	0xbd8349b8	-0.06410545
111	0xbd8c8d0d	-0.06862841
112	0x3decbfc5	0.11560015
113	0xbe0bc08f	-0.13647674
114	0x3ced7e70	0.028990954
115	0xbe806b2a	-0.2508176
116	0xbd42cdf7	-0.047559705
117	0x3db300fb	0.087404214
118	0x3e079364	0.13239819
119	0xbdc772d5	-0.09738699
120	0xbc85d4d2	-0.016336832
121	0xbce05d38	-0.0273882
122	0x3d13bed8	0.036070675
123	0xbdff46e2	-0.12464692
124	0xbc0df819	-0.008665108
125	0x3ec0db07	0.37667105
126	0xbd7f85b0	-0.062383354
127	0x3d5d4f20	0.054030538
128	0x3dab0af2	0.08351697
129	0x3b56b452	0.0032761288
130	0xbd7f4717	-0.062323656
131	0xbe8044e9	-0.25052574
132	0x3d93b4df	0.07212233
133	0xbc62efd3	-0.013851124
134	0xbd3c5557	-0.045979824
135	0xbdd9afbb	-0.10629221
136	0xbdd82e1f	-0.10555672
137	0xbecaf393	-0.39638957
138	0x3daee225	0.085392274
139	0x3e94e1c6	0.290785
140	0xbdab9690	-0.08378327
141	0x3c527364	0.012844894
142	0x3ba5d0d8	0.0050602965
143	0x3dcb1dc8	0.0991779
144	0x3d99631d	0.074896075
145	0xbc954ccb	-0.018225094
146	0x3d8133cf	0.0630871
147	0x3d1e50ec	0.038651392
148	0x3d47cc04	0.04877855
149	0xbe1b444e	-0.15162775
150	0xbe805823	-0.25067243
151	0xbccebd69	-0.025236802
152	0x3c38e1d9	0.011284315
153	0x3db47478	0.08811277
154	0x3d8ba32e	0.068182334
155	0x3dd51050	0.10403502
156	0x3e20a6be	0.15688607
157	0xbd9d5fc6	-0.07684283
158	0xbe61fddb	-0.22069494
159	0x3c8ac3fd	0.016939158
160	0xbe08e72d	-0.13369437
161	0x3daf560a	0.085613325
162	0x3ded773d	0.115950085
163	0xbdbe952c	-0.09305796
164	0xbe933ab0	-0.28755713
165	0x3dc77e97	0.09740942
166	0x3d936a7e	0.07198046
167	0x3d5c881e	0.05384075
168	0x3cdd248f	0.026994972
169	0x3ea2fc5a	0.31833154
170	0xbe06949e	-0.1314263
171	0xbe4927cc	-0.19644088
172	0x3ec18ca2	0.37802607
173	0xbe13d9ee	-0.14438602
174	0xbe53f277	-0.20697962
175	0x3de70bda	0.112815574
176	0x3df2e974	0.11860934
177	0xbd34c7e8	-0.044135958
178	0x3cf59647	0.029978884
179	0xbe42423b	-0.18970577
180	0xb78a1cba	-1.6464259e-05
181	0xbdf465ec	-0.119335026
182	0x3b3daadd	0.0028940954
183	0xbe614975	-0.22000678
184	0x3d95b1de	0.07309316
185	0x3ca48577	0.020083172
186	0xbc8adf5d	-0.016952211
187	0xbe221605	-0.15828712
188	0x3da1f5a9	0.07908184
189	0x3e8f8796	0.2803313
190	0x3b7f266d	0.0038932816
191	0xbdd39263	-0.103306554
192	0x3e55eee5	0.20891912
193	0x3e0b5ff3	0.1361082
194	0xbbecbdf6	-0.0072247935
195	0x3e71094b	0.23538701
196	0xbae5c6ba	-0.0017530539
197	0x3d6d5206	0.05793955
198	0x3d019870	0.031639516
199	0x3e22ab9d	0.15885778
200	0xbe008402	-0.12550357
201	0xbd8292ec	-0.063756794
202	0x3e52fb8a	0.20603767
203	0x3e99fccc	0.3007568
204	0xbe713f8d	-0.23559399
205	0xbddc2b80	-0.107504845
206	0x3d8a3c0c	0.06749734
207	0xbd13c0bf	-0.03607249
208	0xbe6af383	-0.22944455
209	0x3e6a6194	0.22888786
210	0x3e3ba188	0.18323338
211	0xbcc4a344	-0.024003632
212	0xbe266f54	-0.16253406
213	0x3c23a9a1	0.009989173
214	0x3db1364e	0.08652936
215	0xbdb56a42	-0.08858158
216	0xbde06afd	-0.109579064
217	0x3e5449f9	0.20731343
218	0xbdca5242	-0.09878971
219	0xbe82ad4e	-0.25522846
220	0xbe01968d	-0.12655087
221	0xbe5d4fcb	-0.2161247
222	0xbd61155b	-0.054952007
223	0xbd162a05	-0.036661167
224	0xbe3c8204	-0.18408972
225	0x3b911fcf	0.0044288407
226	0x3e9cbbfb	0.30612168
227	0x3d4554b8	0.048176497
228	0x3e59fa2a	0.21286836
229	0xbd9b6271	-0.075871356
230	0x39b01a00	0.00033588707
231	0x3de508fe	0.11183356
232	0x3d1a54fe	0.03767871
233	0x3e95560c	0.2916721
234	0x3db4e36a	0.08832438
235	0x3e81c385	0.25344482
236	0xbd1156d6	-0.035483204
237	0xbd8dac8f	-0.069176786
238	0xbdc20821	-0.09474207
239	0xbe5788d5	-0.21048291
240	0xbe847413	-0.25869808
241	0xbe44b5c1	-0.19209959
242	0xbe265fc4	-0.16247469
243	0xbe58e732	-0.21181944
244	0x3de08ef0	0.10964763
245	0xbd494549	-0.04913834
246	0xbd770927	-0.060311463
247	0x3e46ea25	0.19425257
248	0x3e0518a1	0.12997676
249	0xbd78bd7c	-0.06072758
250	0x3e08b083	0.13348584
251	0xbdeac58b	-0.114634596
252	0x3e1ac791	0.15115191
253	0x3d9e46a2	0.07728316
254	0x3cd85d3c	0.026411645
255	0x3ba10e2c	0.0049150195

lstm.bias_ih_l1 f4 [256]
0	0x3da1f678	0.07908338
1	0xbe891f45	-0.2678167
2	0xbe9d5870	-0.30731535
3	0x3dee1221	0.116245516
4	0xbe227cc1	-0.15867902
5	0xbe6ac9eb	-0.22928588
6	0xbe21319b	-0.15741579
7	0xbddac760	-0.10682559
8	0xbe37a380	-0.17933464
9	0x3d3cb181	0.04606772
10	0xbe8a18e8	-0.26972127
11	0x3da83e86	0.082150504
12	0xbdd76aee	-0.10518442
13	0xbd255e16	-0.04037293
14	0xbe72e490	-0.23720002
15	0xbe07e7fe	-0.13272092
16	0xbc6a0dd7	-0.014285526
17	0xbd47b894	-0.04876001
18	0xbe624348	-0.22095978
19	0xbe75e693	-0.24013738
20	0xbe5bc345	-0.21461208
21	0xbe1bcb4e	-0.15214273
22	0xbe35f94f	-0.17770885
23	0xbe989a5d	-0.2980527
24	0x3c5969cc	0.013269853
25	0xbd5ef307	-0.054430988
26	0x3d273586	0.04082253
27	0x3d8b2c7c	0.06795594
28	0xbe7d3ac4	-0.24729449
29	0xbccf718a	-0.025322694
30	0x3e228774	0.15871984
31	0xbe285e91	-0.16442324
32	0xbe8e8680	-0.2783699
33	0xbe1c618f	-0.1527159
34	0xbd962931	-0.073320754
35	0xbd100cfd	-0.035168637
36	0xbd13c130	-0.03607291
37	0xbe26060f	-0.16213249
38	0xbe30f139	-0.17279519
39	0xbe9cde35	-0.3063828
40	0xbe6a4ac0	-0.22880077
41	0xbcb67f1a	-0.022277404
42	0xbe82e482	-0.25564963
43	0xbe0ea020	-0.1392827
44	0xbc05062f	-0.00811915
45	0xbe0cd2fb	-0.13752358
46	0xbe802380	-0.25027084
47	0x3c31c382	0.010849835
48	0x3d2947b9	0.041328166
49	0xbdad3703	-0.08457758
50	0xbe69995f	-0.22812413
51	0xbe15676b	-0.14590232
52	0xbd0d21c2	-0.034456022
53	0xbe4816eb	-0.19539993
54	0xbe9ded85	-0.30845276
55	0xbbda23b0	-0.0066570863
56	0x3d5de22b	0.05417077
57	0xbe59cf66	-0.21270522
58	0xbe20346c	-0.15644997
59	0xbe337f91	-0.17529131
60	0xbd5a3100	-0.053269386
61	0x3d25b0d9	0.04045186
62	0xbe266931	-0.16251065
63	0xbe8f83c2	-0.2803021
64	0x3d7c49c4	0.061593786
65	0xbdf6e0d4	-0.12054601
66	0xbe7e4266	-0.24830016
67	0x3e240a88	0.16019642
68	0xbe02df3a	-0.12780467
69	0xbe62d718	-0.22152364
70	0xbe0bad46	-0.13640317
71	0xbeb71089	-0.35754803
72	0xbea2b8d9	-0.31781653
73	0x3da6dcbe	0.08147572
74	0xbe38304f	-0.17987178
75	0x3d3a2a08	0.04545024
76	0xbd57ccc3	-0.05268551
77	0x3c1fa635	0.009744217
78	0xbe9466e6	-0.28984755
79	0xbe2f1b9f	-0.1710038
80	0xbe8567c8	-0.2605574
81	0xbe698c15	-0.22807343
82	0xbe7ea473	-0.2486742
83	0xbe56b43a	-0.20967188
84	0xbc5e0534	-0.013551045
85	0xbe398e7d	-0.18120761
86	0xbe6cc0e9	-0.23120464
87	0xbeaf0b32	-0.3418823
88	0xbe2f9ca0	-0.17149591
89	0xbde2f019	-0.11080951
90	0x3d6bfd3e	0.057614557
91	0x3de4cebd	0.11172245
92	0xbe8d44f7	-0.27591679
93	0xbe8b2008	-0.27172875
94	0xbdb6dd60	-0.08928943
95	0x3b1914ab	0.0023358266
96	0xbe1de704	-0.15420157
97	0xbd13357a	-0.03593967
98	0xbdbe3bb5	-0.09288732
99	0xbe231973	-0.15927677
100	0xbda74c56	-0.08168857
101	0xbe851e45	-0.25999656
102	0xbe9b229e	-0.30299848
103	0xbeb3f533	-0.3514801
104	0xbe93c800	-0.28863525
105	0xbc890ca6	-0.016729664
106	0xbea3106d	-0.3184847
107	0xbe1c59d9	-0.15268649
108	0x3e184d16	0.14873156
109	0xbddfb187	-0.109225325
110	0xbde08722	-0.109632745
111	0xbda7ea0e	-0.08198939
112	0xbd9545dc	-0.07288715
113	0xbdf628fb	-0.12019535
114	0xbeed0a6d	-0.46297017
115	0xbb3e43e1	-0.0029032158
116	0xbed49b13	-0.41524562
117	0xbe6e6ce5	-0.23283727
118	0xbe26630e	-0.16248724
119	0x3cabde41	0.020980002
120	0xbd8d0bdd	-0.06887028
121	0xbe9620f1	-0.29322007
122	0xbe7ba583	-0.24574856
123	0x3b2a2f36	0.0025968081
124	0xbdbe5fc1	-0.09295607
125	0xbd258f41	-0.04041982
126	0xbde0b920	-0.1097281
127	0xbe584484	-0.21119887
128	0x3b6719dd	0.0035263218
129	0x3dc0aa30	0.09407461
130	0x3c701473	0.014653313
131	0x3d8dc164	0.06921652
132	0x3d8e4084	0.06945899
133	0xbdd20bc4	-0.1025615
134	0x3d11490b	0.03547005
135	0x3dab2723	0.08357074
136	0x3dac9693	0.08427157
137	0xbda61dda	-0.081111625
138	0xbdb69a65	-0.08916167
139	0x3e1607d5	0.14651425
140	0xbe0e51e0	-0.1389842
141	0x3da47c95	0.08031575
142	0xbd40473a	-0.046942927
143	0xbd3ac01d	-0.04559337
144	0xbd77ae26	-0.060468815
145	0xbdd4a664	-0.10383299
146	0xbd8fa69a	-0.070141986
147	0x3d9129e2	0.07088067
148	0x3c13f0e0	0.009029597
149	0x3d9aa578	0.07551092
150	0xbdd51c88	-0.104058325
151	0xbe04d73a	-0.12972727
152	0x3bd4580b	0.006480222
153	0xbe1ff405	-0.1562043
154	0x3d272a17	0.040811624
155	0xbc860dcb	-0.016363999
156	0x3d0339a5	0.032037396
157	0xbc07794d	-0.008268666
158	0xbd227543	-0.03966261
159	0x3e29cb84	0.16581541
160	0xbcee9756	-0.029124897
161	0x3dfebee8	0.12438756
162	0x3d767e7b	0.060179215
163	0x3d2fb797	0.042899694
164	0xbdb3d884	-0.087815315
165	0xbd47d6c3	-0.048788797
166	0xbda97b65	-0.08275489
167	0x3beb448c	0.0071798023
168	0x3d04fdfa	0.032468773
169	0xbd782f1b	-0.0605918
170	0x3c8d4dd9	0.017249035
171	0x3d5fe2b8	0.054659575
172	0x3cd064fd	0.02543878
173	0xbddc6840	-0.107620716
174	0xbde3a4e8	-0.11115438
175	0xbdcff402	-0.10153963
176	0x3d9e7ee4	0.07739046
177	0xbdaf52c4	-0.08560708
178	0x3d1c34fb	0.038136464
179	0xbd886c75	-0.066613115
180	0x3e06c441	0.13160802
181	0xbde75846	-0.11296134
182	0xbd3d9ff6	-0.04629513
183	0xbdadb4d7	-0.08481758
184	0xbdcb482d	-0.09925876
185	0xbdecc197	-0.11560362
186	0x3d929d9f	0.0715897
187	0xbd51ca33	-0.051218223
188	0x3c7a4f26	0.0152776595
189	0xbcaa8883	-0.020817047
190	0x3ddaf19b	0.10690614
191	0xbd6fde86	-0.058561824
192	0xbdb0dab3	-0.086354636
193	0xbdd1ebe3	-0.1025007
194	0xbea05e40	-0.31321907
195	0x3c020e11	0.007937924
196	0xbeb44727	-0.35210535
197	0xbe7dbacb	-0.24778287
198	0xbe2a6a0d	-0.16642018
199	0xbe53e912	-0.20694378
200	0xbe95d9f4	-0.29267848
201	0x3d88e4e3	0.06684282
202	0xbe132943	-0.14371209
203	0x3bc84f61	0.0061129783
204	0xbdfc2d89	-0.12313373
205	0x3dcb5285	0.09927849
206	0xbe0f77ae	-0.14010498
207	0xbd2d353f	-0.042287108
208	0xbd44dba7	-0.04806104
209	0xbd06180b	-0.032737773
210	0x3c39de88	0.0113445595
211	0xbe7c8eba	-0.24663821
212	0xbda0b4ba	-0.07846971
213	0xbdfe3d79	-0.12414069
214	0xbe0bd53c	-0.13655561
215	0xbdc46894	-0.09590259
216	0xbd7af64a	-0.061270036
217	0x3db6032a	0.08887322
218	0x3e1f88b9	0.155795
219	0x3dd1304e	0.102142915
220	0xbe1abf62	-0.15112069
221	0xbcc59467	-0.024118615
222	0x3e213c54	0.1574567
223	0xbd624e27	-0.055250313
224	0xbeac5d17	-0.33664772
225	0xbb0cb1ea	-0.002146835
226	0x3da1fd6b	0.07909664
227	0x3de9e3e1	0.114204176
228	0x3d690dd2	0.056897946
229	0xbe3d0bad	-0.18461485
230	0xbe860c20	-0.26181126
231	0xbe260e93	-0.16216497
232	0xbe567d44	-0.20946223
233	0xbd11b0e1	-0.035569075
234	0xbe25d77f	-0.16195486
235	0xbda48e8d	-0.08035002
236	0xbd4cf7d6	-0.050041042
237	0xbda99bd6	-0.082816765
238	0xbe2e11be	-0.16998956
239	0x3d86eff0	0.06588733
240	0xbc2f7b43	-0.01071054
241	0xbe9c5ea8	-0.30540967
242	0xbe25b6c2	-0.16182998
243	0xbb950f05	-0.0045489096
244	0xbe2af540	-0.16695118
245	0xbe4033f4	-0.18769819
246	0xbeac2150	-0.33619165
247	0x3d2a1f68	0.041533858
248	0x3e14fcb1	0.14549519
249	0xbe99e506	-0.30057544
250	0xbdfc0844	-0.12306264
251	0xbda3e4fe	-0.08002661
252	0xbe410cb7	-0.18852507
253	0x3d20a00a	0.039215125
254	0xbe236b7b	-0.1595897
255	0xbe98d455	-0.29849496
