Competition/TrainAI/model/s/model1_weights_ver1.pth (torch, 231591 bytes, 26 tensors)

lstm.weight_ih_l0 f4 [128, 36]
00000000: d267 063e 8e4b d43d bf56 f13d ba90 dd3d
00000010: 2bca 263d 74f3 c1bd 5b0b 483d f5a1 083e
00000020: 4c02 753d bb0b 1a3e 79b6 873d 06ec 20be
00000030: f685 fa3d c6b1 433e 4aa0 103e 2bf0 6b3d
00000040: 1552 d6bd 1e3b d93c 399a 38bd 6e4c 82bd
00000050: b5ab 1a3e 5b1a 1a3e cf09 42bd b296 343c
00000060: 1e24 ef3d 05a4 f7bd fccd dd3d bfe3 213e
00000070: 8260 ad3d 738b ca3d 11f8 91bd cf8f 11be
00000080: 7486 283e bd1e b83d 3ab7 cc3c 6ae2 283e
00000090: d616 043e 8fda 5b3d e697 cfbd c9aa 91bc
000000a0: 78ba 31bd f1a6 fabc f9b3 093e c114 1f3e
000000b0: 988e 2dbd 49b6 863d d8d4 b13c 3925 603d
000000c0: 68f9 e33d a5a6 1e3c 381f 8a3d aa43 f73d
000000d0: 9642 ecbd e448 1a3d 7200 1c3e 4c6c 153e
000000e0: c5f2 02bd e591 a13d c8cf 923d 431b 913d
000000f0: fd5c a13d 4f1d e6bd db96 1c3e 2598 d6bd
00000100: 3515 d0bd 5b80 7a3c 0e80 073e 58df 3a3d
00000110: 11c2 9b3c a75c 183e f83f 92bd cc2a 0e3e
00000120: 68c0 01bd 43b2 b0bd 5a4e e13d 1fba 8fbd
00000130: 096c e5bd bcb6 a7bb e74d aebc b78f a3bd
00000140: 9653 cdbd 702e 673d 0c4e f53d 6c32 d8bd
00000150: 13df ab3d 085f 8ebd 72ea 19be 8ada 173e
00000160: 1039 f6bd e237 0abc 4e1d 98bd 48b0 b0bd
00000170: 5820 f8bd d427 603d 6441 27be 70bf 8fbd
00000180: ae16 d9bd e6cc 313e a270 d2bc 89e6 a4bc
00000190: 02fe c03d dee3 353e 437d fd3d 9a61 10bd
000001a0: 79e5 e93c d958 16bd ef6e 00bd 6d5d 89bc
000001b0: 7304 0bbd e627 223e 479c 20be eecf 2fbe
000001c0: 4d8f 19be 9aac 4a3d cf12 dabd eb88 76bd
000001d0: e21c 94bd 2055 383c b2b5 25be 71fc be3d
000001e0: 5c8d 513d 626b 02bd 6034 df3d c4d0 5bbd
000001f0: 7dd9 85bd c9f0 a13d 57d6 cbbd b955 8b3c
00000200: c0f6 023e 554e f8bd 865c 05be 8de1 4ebc
00000210: 907e 14be 7787 e53c bed8 343e ea06 a9bd
00000220: 20db 7ebd 7e97 143e b856 c9bd 09c0 e9bd
00000230: 35ab 673d 093a bebd 57e7 9dbc 1ffb 063e
00000240: 8d3f d13c aa2a 28be ccea 693d 43da d4bc
00000250: db1a 023e 7e6f 243e efbc ea3c 8afe db3b
00000260: 54c4 2c3e 22f2 25be bb16 0abe 24ba 0cbe
00000270: 62e4 e6bd 854c 31bd 2bff b1bb cb3d f63d
00000280: fc8a b63d 1916 c23a 79d4 07bd 44b5 dbbd
00000290: 7f6c 163d 6a7f c03d d446 e7ba 62e4 653d
000002a0: 0813 843d 89b2 11be 9af5 e7bd 5358 233d
000002b0: 0bba 8cbc 7df0 fbbd 51de 113e ecf2 c4bd
000002c0: f366 89bd 315c 31be a73e 303e 1df2 3a3e
000002d0: 9a80 593d 21c8 cb3d 6254 083d 53be c73d
000002e0: ad65 633d fa0b c6bd b282 0abe af83 103e
000002f0: 6734 f93c 7377 a53d 3633 8abd 6d1c de3d
00000300: 5fd6 0a3e 6154 253e 1026 0e3e 587b ec3d
00000310: fa53 d13d 6718 423d 58f9 b03d edf8 303d
00000320: dd26 14be 600c b33d 920f 013e 2765 0a3e
00000330: 250f b83c 39ad 17be 5e9c 0e3a ed37 71bd
00000340: c817 dcbd 28ef ecbc 3f3d 293d 3f59 d93d
00000350: cfaf 02be 2430 c13c fd94 9d3d 751c 8abd
00000360: 0c6e 3bbd 4e43 9f3d 8094 f73d a80b 18bd
00000370: e30b 3dbe cb1b 37be 89b7 3dbe 4e60 3a3d
00000380: 3b6c 9ebd 7c9c b9bd 1525 9a3d 492a aa3c
00000390: c4d9 003e 45e8 a33c 50e3 e23c 1462 ce3d
000003a0: 9d6a 19be 524b d73c bd52 343e 3984 f43d
000003b0: 1603 8cbd b5aa 3cbd 8f7a c63d 05b1 28bd
000003c0: 7b7c f8bc 3868 91bd 3f5d 123e 09c4 23be
000003d0: 8a8c 323e a335 95bc b853 a6bd c92f b5bc
000003e0: ceb8 043d 88c2 943d b257 37bc 4099 163e
000003f0: 4c98 f33d d4c7 84bd 7f1c 26be 1e57 c63d
0.13125542 0.103659734 0.11784124 0.1081862 0.040720146 -0.09470263 0.048838954 0.13343032
0.059816644 0.15043537 0.06626601 -0.15715036 0.12232582 0.19110784 0.14123645 0.05760209
-0.10464875 0.026517447 -0.045068953 -0.06362234 0.15104564 0.15049116 -0.047372635 0.011022257
0.11676811 -0.12091831 0.10830304 0.15809534 0.08465673 0.09889879 -0.07127393 -0.14215015
0.1645754 0.08990238 0.024989713 0.1649262 0.12899336 0.05367523 -0.10136394 -0.017781632
-0.04339072 -0.030597182 0.1344756 0.1553526 -0.042372316 0.06577737 0.021707937 0.054723
0.11131555 0.009683286 0.06744236 0.12073453 -0.11536138 0.03766717 0.15234545 0.14592093
-0.031969804 0.07889155 0.071685374 0.07085278 0.07879064 -0.11236059 0.15291922 -0.10478238
-0.10160295 0.015289391 0.13232443 0.045623153 0.019013437 0.14879094 -0.07141107 0.13883513
-0.031677634 -0.08627751 0.110012725 -0.07017922 -0.11202247 -0.005118219 -0.021277381 -0.07986396
-0.100257084 0.05644077 0.11977777 -0.10556492 0.083921574 -0.069517195 -0.1503084 0.1482946
-0.120226026 -0.008436175 -0.074274644 -0.08627373 -0.12115544 0.054725483 -0.16333538 -0.07018936
-0.10600029 0.17363319 -0.025688473 -0.020129459 0.09423448 0.17762706 0.123774074 -0.03524933
0.028551804 -0.036705825 -0.031355795 -0.016768182 -0.03393979 0.15835533 -0.15684615 -0.17169163
-0.14996071 0.049481012 -0.10648119 -0.06018917 -0.072320715 0.011250764 -0.16182593 0.09325493
0.0511602 -0.03184069 0.108986616 -0.05366589 -0.06535623 0.07907254 -0.099529915 0.01700865
0.1278944 -0.12124316 -0.13023576 -0.012627018 -0.14501405 0.028018696 0.17660806 -0.08253272
-0.062220693 0.14510915 -0.098309934 -0.11413581 0.05655976 -0.09288413 -0.01927535 0.13181733
0.025542999 -0.16422525 0.057108685 -0.025982982 0.12705557 0.16058156 0.028654544 0.006713693
0.16871768 -0.16205648 -0.13485233 -0.13742882 -0.11274029 -0.043285865 -0.0054320297 0.12023505
0.08913228 0.0014807611 -0.033161614 -0.10727933 0.036724564 0.09399302 -0.001764501 0.056126006
0.064489424 -0.14228262 -0.11326142 0.039879154 -0.017178556 -0.12301729 0.14244963 -0.09616646
-0.06709089 -0.17320324 0.172114 0.18256421 0.05310116 0.09950281 0.0332836 0.09753098
0.055516887 -0.09670253 -0.13526419 0.14112733 0.030420495 0.08079424 -0.06748049 0.108452655
0.13558339 0.16145469 0.13881707 0.115469635 0.102210954 0.047386553 0.086413085 0.043206144
-0.1446795 0.08742595 0.12603596 0.13515149 0.022468159 -0.14812173 0.00054401706 -0.058891226
-0.107467234 -0.028922632 0.041318174 0.106127255 -0.12762378 0.023582526 0.07694433 -0.06743709
-0.045759246 0.07776509 0.12088871 -0.03712049 -0.18461566 -0.17881696 -0.18527044 0.045502
-0.07735487 -0.0906305 0.07526604 0.020772116 0.12583071 0.020008216 0.027696282 0.10077301
-0.14982076 0.026281033 0.17609687 0.11939282 -0.06836526 -0.046061236 0.09691345 -0.041184444
-0.030332794 -0.07099956 0.14293383 -0.1599275 0.17436424 -0.018214053 -0.08121437 -0.022117512
0.032402806 0.072636664 -0.011190342 0.14706898 0.11894283 -0.06483427 -0.16221808 0.09684585

lstm.weight_hh_l0 f4 [128, 32]
00000000: bb46 003e 03d2 943d e7f5 163e 4c83 5c3d
00000010: f05b 7cbd c6ef d83d d7c8 cbbd 1683 e13d
00000020: 7301 b5bd 8a07 c73d efa5 a33d 638e 8a3d
00000030: ad34 11be 5846 b7bd c2c4 d0bd 18a9 053d
00000040: 28ee bfbb 217a 843d 1cbb 2dbe d000 bdbb
00000050: 6888 b0bc 745e 19be 46d2 8b3d 77e0 d6bd
00000060: 2c31 c93d 635e 12be b795 bebd ebe0 f0bd
00000070: 3c9a 32be 7b13 b8bc b61b 49bd aee2 7dbc
00000080: 9e49 84bc afd8 14bd c874 203d f4c3 2fbe
00000090: eeb7 29be b792 2abe 548f 163e 3435 e3bd
000000a0: 75c5 353c 39bc d5bd 6f14 1ebd bcc8 fe3d
000000b0: d123 533d b3f5 2abd e61d 04be b4dd 7fbd
000000c0: 11e6 debd a50e df3d 83ba 74bd 3578 08bd
000000d0: 8222 873d 0c87 f9bc 5a9b d8bd 6c6d a63c
000000e0: d054 833d 362b 1f3e dcb3 323d 063a e3bd
000000f0: 406d 353e 62a5 5fbd dab0 283e f013 413e
00000100: defc ab3d 2c1c 26bd 89e6 14be 4c7e 79bd
00000110: 16e3 1b3e 2cf3 c93d 4d28 02bd 69e6 0c3d
00000120: 63f2 bf3d 47fc f4bd 01c6 e1bc 3631 c53c
00000130: 8736 963d 2ecc 37bd 279d 003e 0f8f 003c
00000140: 306f 14be 92b7 aa3d 58c3 f6bd a752 a8bc
00000150: b454 4fbd 0d24 2bbe 1c24 85bd 9cbc 063e
00000160: ce05 f33d 034b 4d3c 741c 843c edc9 aabd
00000170: ad53 bcbd f2cd d33d 6e27 73bc 2823 f53d
00000180: 3e8d 85bc 5670 203d 3597 06be ffb2 163d
00000190: 54a4 203e 5d24 2abd 34e9 593d 7412 12be
000001a0: 02e4 2c3d fcb2 ce3d ac0a 313e 0bbd b3bd
000001b0: 2ae9 16be 0ef0 ccbd 4c31 57bd ff29 13be
000001c0: 82b5 0d3e 35d3 bdbd 4c94 80bd 6151 7b3d
000001d0: da9b 043e 97c7 d6bd c967 d83d 8946 983c
000001e0: b3df 5cbd 0ecd ac3d 5297 363e bcbc 9abd
000001f0: 619f 183e 6a39 1e3d a504 193e 2713 f03c
00000200: 5482 e53c af02 b03d f5bc c4bc f094 133e
00000210: 1cd2 7e3c 4628 10bb 50d1 3e3c 3033 0f3e
00000220: b765 563d 5ef3 313d 3f56 86bc b500 6e3d
00000230: 104c 04be 4a76 18be 96e4 a0bd f13d f4bd
00000240: 1536 60bd 068d d6bd 9b64 13bd ad92 a0bc
00000250: e204 ff3b f601 47bd 571e 54bd a407 f2bd
00000260: e4ff 00be 0e8f 193c 9953 59bc e813 63bd
00000270: 1b78 513c f84e 08be 0cfc ca3d a127 83bd
00000280: 6c36 19be 8b2f 00be 9aa2 813d fd7b b6bd
00000290: ed55 adbb b705 21be 5e7d cebd bd0f 22be
000002a0: b043 c03c 3fcf fb3d 7379 ae3d df3f 363c
000002b0: fd04 89bd d4a3 1d3d 519d 003e c79b 22be
000002c0: 5576 dd3d c73d c33d 9f9c de3d 1f49 2c3e
000002d0: 8ae5 f5bd e6ea fdbd 3ea9 9d3c d3f7 33be
000002e0: 07cd ef3d 4d35 2b3e 5e73 683d 81e3 90bd
000002f0: 439c babc 05a4 91bd ac52 cabd fb06 9b3d
00000300: 0b30 ffbd 83dc 3d3e eab7 183e 99e0 2b3e
00000310: 8fdd bebd 5651 f83c 3b7e b3bd 4b26 38be
00000320: 194c 73bd 38e0 fb3c 6fa7 9ebd 121a 5fbd
00000330: 5e90 67bd dc13 913d f592 a4bd ec6a 1e3e
00000340: ff78 bebd b9f2 22be db62 923d ef23 f5bd
00000350: cf36 bdbd 6e6f 25bd 11dd 34bd 446e 1c3e
00000360: 50d7 1abe d372 083e dca3 aabb 3655 38bd
00000370: bb71 a73b a741 cebd 67f9 923d bbb0 c83c
00000380: 6d80 17be 5386 13bd e8a1 773d 8787 163e
00000390: 9d85 96bd e6eb 17be 6356 f4bd b8b2 2dbd
000003a0: 1b61 05be 3c4c 873d f664 6f3d b177 f43d
000003b0: e9be 4c3c 048e c8bc fe4a 253e 0078 f3bd
000003c0: 5aae 8fbc b8b0 07be 13ce da3d ce23 ff3d
000003d0: 35d8 1c3e c29c b83d f577 aabd ee0e c53d
000003e0: b865 04be e5bf 243e 5d26 64bd cc54 90bd
000003f0: 3d62 443d bc40 15be acc3 bdbd 9321 a53d
0.12526982 0.07266619 0.14742242 0.053836152 -0.061611116 0.10592608 -0.099504165 0.11011331
-0.08838167 0.09718235 0.07990634 0.06765439 -0.1418025 -0.08948964 -0.101937786 0.032631963
-0.005857248 0.06468607 -0.16965908 -0.005767919 -0.021549419 -0.14977437 0.06827216 -0.10492032
0.09823832 -0.14293818 -0.093058996 -0.1176165 -0.17441648 -0.022470227 -0.049098693 -0.015495939
-0.016148385 -0.036339458 0.03917387 -0.17164594 -0.1657407 -0.1665753 0.14703113 -0.11094132
0.011094441 -0.10436291 -0.038593706 0.12440631 0.05154783 -0.041738223 -0.1290203 -0.062467292
-0.108837254 0.10891465 -0.059748184 -0.033317763 0.06598379 -0.030459903 -0.10576506 0.020315848
0.06412661 0.15543827 0.04362856 -0.110950515 0.17717457 -0.05460108 0.16473714 0.18855262
0.0839784 -0.04055421 -0.14541067 -0.06091146 0.15223345 0.098608345 -0.031776715 0.034399424
0.093724035 -0.119621806 -0.027560236 0.024071317 0.07334619 -0.044872455 0.12559949 0.007846608
-0.1449554 0.083357945 -0.120489776 -0.020547224 -0.05061789 -0.16712971 -0.06501028 0.13157886
0.118663415 0.012530091 0.016126849 -0.083392955 -0.091956474 0.10342015 -0.014840944 0.11969596
-0.016302701 0.039169632 -0.13143618 0.036791798 0.15687686 -0.041538585 0.053200915 -0.14264852
0.042209633 0.10092732 0.17289227 -0.087762915 -0.14737383 -0.10006724 -0.052537248 -0.14371489
0.13838771 -0.092688 -0.062782854 0.061356906 0.12950078 -0.104872875 0.105666704 0.018588321
-0.053924274 0.084375486 0.17831162 -0.075555295 0.14904548 0.038628973 0.14943178 0.029306008
0.028016247 0.08594262 -0.024015883 0.14412284 0.015553024 -0.002199666 0.011646584 0.1398437
0.052343097 0.043444984 -0.016398547 0.058106143 -0.1291964 -0.14888874 -0.07856099 -0.11925877
-0.054739077 -0.10476117 -0.035984617 -0.01960119 0.0077825645 -0.048585854 -0.051786747 -0.118178636
-0.12597615 0.009372486 -0.01326456 -0.055438906 0.012784983 -0.13311374 0.099113554 -0.06404043
-0.14962167 -0.12518136 0.06329842 -0.08910368 -0.005289784 -0.15724836 -0.10082506 -0.15826316
0.023469776 0.122953884 0.08519258 0.0111236265 -0.066904046 0.038486317 0.12560011 -0.15879737
0.10813586 0.095332675 0.10869717 0.16824768 -0.12006672 -0.12398319 0.01924574 -0.17575006
0.11709028 0.16719551 0.056750648 -0.07074643 -0.02277959 -0.07111362 -0.0987905 0.07569691
-0.12460335 0.1854115 0.14913908 0.16784896 -0.09319603 0.030312221 -0.08764311 -0.17983358
-0.059398744 0.030746564 -0.07746779 -0.054468222 -0.056534164 0.07083866 -0.08035842 0.15470475
-0.09300422 -0.15912904 0.071477614 -0.119697444 -0.092389695 -0.04038947 -0.044156138 0.15276438
-0.15121198 0.13325052 -0.005207522 -0.04500314 0.0051099933 -0.10071116 0.07176476 0.024498334
-0.14795084 -0.036016773 0.06045714 0.14700137 -0.073497035 -0.14836082 -0.119305395 -0.042406768
-0.13025324 0.066063374 0.058445893 0.11936892 0.012496688 -0.02448178 0.16141888 -0.118881226
-0.017539192 -0.13251007 0.10683837 0.12458001 0.15316851 0.09014274 -0.08323661 0.09621988
-0.12929428 0.16088827 -0.05570065 -0.07047424 0.04794525 -0.14575475 -0.09265837 0.080630444

lstm.bias_ih_l0 f4 [128]
00000000: 5fbb e63d b638 4bbd 579b ea3d 60bc 1abe
00000010: 088a 9e3d 72cd d7bc 8b9a 0c3e 8e76 8dbc
00000020: 790e 00be 4f84 85bd a3d5 e93b 416c b5bc
00000030: 6a9b 62bd e43f 493c 206e 6c3d ee8c 18be
00000040: e591 fabc 3985 a93d 3a42 10be 4637 2dba
00000050: cb53 d03c ab47 b13d b98a 163e 741a 8cbd
00000060: 7350 aebd 3a8c b8bd 905f 763c 04d2 e73d
00000070: 6741 973d 5df4 ee3d 6053 0ebe 3223 f63d
00000080: 5d17 f6bd 1329 9c3d a1c8 9c3d 3088 e9bc
00000090: b72b a8bd e673 83bd 0d4e 413e fda1 16be
000000a0: 8f7d 51bd ce1d 5cbd bdba 233e 8c11 403d
000000b0: 5728 cd3d 1f63 243d 7ab0 39bd e628 113e
000000c0: a823 fd3d 43c4 e5bd c41d c13c 193c 1dbc
000000d0: 143a b2bd 3840 78bd eb63 5a3d ee2b 81bd
000000e0: f0a1 9bbc 1785 b33d 5233 aa3c e792 923d
000000f0: 0dd5 febd 0e40 2b3e 89a6 c13d e9d9 18be
00000100: bc10 94bc 1678 3a3e e625 2fbd 85e0 8f3c
00000110: 711d 213e dd7a 843d 8dd4 1ebe 201c 4ebd
00000120: f91d 82bd 8b96 363d d741 a2bd ec3c 373d
00000130: 1cb5 80bd 0120 583c 0ab9 d73c 75c1 873c
00000140: 35de 1bbe 90a6 5ebd caf8 1f3e ab13 febd
00000150: 0cc6 2b3e 58e6 f7bd 477d 033e dec0 09be
00000160: ecc5 3cbe 9a15 b1bd 3684 d9bd f3da 2bbe
00000170: 6dbf adbd 1948 183e b124 3e3e 13e8 083e
00000180: 9143 873b d5c9 133d ebaa af3d 5120 dcbc
00000190: a847 f7bc 3bf4 10be 1745 bd3d 715f 0e3e
000001a0: 0a0e 993c afc0 e3bd 8a64 f33d 9071 0b3e
000001b0: 9e1e eb3d b5b6 26be 8467 f1bd a32c d4bc
000001c0: 89f6 1b3e 8344 d8bd ab3b 7c3d 6d2c b13d
000001d0: 869a 04be 135b a93c 32e4 96bc 301c d5bb
000001e0: f2cd b93d 3710 25bd 7405 08be ed7a 24bd
000001f0: c320 30be c58c 87bd 12a9 043e f242 aabd
0.11266207 -0.04961463 0.1145541 -0.15110922 0.07741171 -0.026343081 0.13730828 -0.017268445
-0.12505521 -0.065193765 0.007136063 -0.022146346 -0.055323996 0.012283299 0.05772221 -0.1489751
-0.030587146 0.08277363 -0.14087763 -0.00066076627 0.02543058 0.08656248 0.14701356 -0.06840983
-0.08511438 -0.09011121 0.015037432 0.11319354 0.073855214 0.11667702 -0.13898993 0.12018432
-0.12016175 0.07625022 0.076554544 -0.028507322 -0.08211463 -0.0641859 0.1887743 -0.14710231
-0.051145133 -0.05373936 0.15989204 0.046891734 0.1001746 0.04013359 -0.045334317 0.14175758
0.123603165 -0.112190746 0.023573764 -0.009596848 -0.08702484 -0.06060812 0.053317945 -0.06307207
-0.018998116 0.08765619 0.020776425 0.07156926 -0.1244298 0.16723654 0.09455592 -0.14926876
-0.018074386 0.18209872 -0.042760752 0.017563114 0.15733887 0.06468747 -0.15510769 -0.05031979
-0.06353373 0.044577163 -0.07922714 0.044735834 -0.06284544 0.013191224 0.02633335 0.01657174
-0.15221484 -0.054358065 0.15622249 -0.12406095 0.16774768 -0.121044815 0.12840758 -0.13452479
-0.18434876 -0.08646698 -0.1062092 -0.16782741 -0.08483777 0.14871253 0.18568684 0.1336978
0.0041279276 0.036081154 0.08577522 -0.026870878 -0.030185536 -0.14155667 0.092416935 0.13903596
0.018683452 -0.11120736 0.11884411 0.1361754 0.11480449 -0.16280635 -0.11787322 -0.02590019
0.15230764 -0.105599426 0.06158034 0.08651052 -0.12949571 0.02067331 -0.018419359 -0.0065036044
0.09072484 -0.040298667 -0.1328333 -0.040156294 -0.17199998 -0.066186465 0.1295512 -0.0831355

lstm.bias_hh_l0 f4 [128]
00000000: f58f 90bd 24ea 7c3d bd98 12be 832d 04be
00000010: d024 11be 3464 7d3d 9607 963c de02 b93d
00000020: 24a3 8b3c df37 fb3d f51e 09be 01c0 9e3d
00000030: cbb7 0ebe b657 193e 7166 893d 1728 91bd
00000040: 400b 12be f967 f63d 9471 83bd a5fa afbd
00000050: 3eb0 b5bd 9626 a7bc 7174 383d eb64 cbbc
00000060: af58 3ebc b090 043e eb5d d1bd 7b87 f83d
00000070: d59a 9bbd c91c 093d dbf6 5ebd e9d8 16be
00000080: 7cab 4f3d 2419 7c3d 5a27 d3bd 9cae 2c3e
00000090: 92ee 5f3b 5987 e8bc d093 8bbd 7816 94bb
000000a0: 9a7e d0bd 59b1 9b3d 8309 d2bd 0e93 43bd
000000b0: c78d 203e 036a 243e 1179 b5bd 3878 2f3e
000000c0: 3cd3 913d 1bae 5c3b a5c6 f53d efc5 32bd
000000d0: 28ee 39be e074 b33d 363f 2f3e db4a 27be
000000e0: 13ff a23d 2302 8e3d d141 fbbd 71dd b93d
000000f0: fae1 763d 575f 773c a8eb 0ebe 4c92 943d
00000100: 2319 c5bd 1cc7 173b 05e1 4d3d d9b2 093e
00000110: f846 e0bb 0556 77bd a595 aabd b1b5 36be
00000120: e7c2 b5bc 7841 923d c4bb 333e 469e 06bd
00000130: 68a3 c6bd 39e3 9e3d a62b 84bc 2f74 ff3c
00000140: 84d9 ec3d 582f 30bd 8898 a63d e9b8 ba3d
00000150: e022 d13d 7e52 8dbd 4bd6 0ebe de4c 67bd
00000160: 5a97 4bbd a075 84bd e542 86bd 6a39 04be
00000170: 2134 82bd fb32 993d 09fb 3d3e 0be4 34be
00000180: 1af5 03be 31e5 8ebd 4f74 c7bd b417 7c3d
00000190: 8412 3ebc 7fbb 053e b185 f33c f01b f83c
000001a0: d299 813c a605 fa3c 18fe cbbd c0e5 3f3e
000001b0: db58 12be 7507 4c3d 1f33 ebbd 8940 063e
000001c0: 1982 173e 6765 d4bd acc7 483e 0847 03bc
000001d0: 5b70 cfbc f3a4 d23c cedb 083c c84b 783d
000001e0: f0e5 503d 1dea 763c 6abd 133b eea3 27be
000001f0: 9989 17be 4a72 363e 6b47 ae3d 89e7 40bc
-0.070587076 0.06174673 -0.14316078 -0.12907986 -0.14174199 0.06186314 0.018314164 0.0903375
0.017045565 0.12266516 -0.13390715 0.077514656 -0.13937299 0.14974865 0.06708992 -0.07087725
-0.14262104 0.1203155 -0.06418148 -0.085927285 -0.08871506 -0.020404141 0.045032922 -0.024828395
-0.0116178235 0.12945819 -0.102229916 0.12135216 -0.07597891 0.033474717 -0.05443464 -0.14731182
0.05070065 0.061547413 -0.1031024 0.16863483 0.0034169299 -0.028384851 -0.06815302 -0.00451928
-0.10180397 0.07602186 -0.102557205 -0.047747664 0.15679084 0.16056065 -0.08860982 0.17135704
0.07120368 0.003367311 0.12000779 -0.043645795 -0.18157256 0.087625265 0.17113957 -0.16337149
0.07958808 0.06934001 -0.12268413 0.0907544 0.0602741 0.015098414 -0.13957083 0.072544664
-0.09623935 0.002315945 0.050263423 0.13447131 -0.0068443976 -0.06038477 -0.08329324 -0.17842747
-0.022187663 0.071413934 0.17552096 -0.032865785 -0.09699136 0.07758183 -0.016134094 0.03118333
0.11564925 -0.0430139 0.08134562 0.091173 0.1021173 -0.069005 -0.13948934 -0.05646979
-0.049704887 -0.06467748 -0.06555728 -0.12912527 -0.06357599 0.07480427 0.18552794 -0.17665116
-0.12886468 -0.069773085 -0.09738981 0.061546043 -0.011601094 0.13059805 0.029726835 0.03028676
0.015820418 0.030520272 -0.09960574 0.18739986 -0.14291708 0.0498118 -0.1148436 0.13110556
0.14795722 -0.103709035 0.19607419 -0.008012541 -0.02532213 0.02571342 0.008353187 0.060619146
0.051000535 0.015070465 0.002254332 -0.16371128 -0.14798583 0.17817035 0.08509716 -0.011773952

lstm.weight_ih_l0_reverse f4 [128, 36]
00000000: 8134 32be aa77 653d 63f3 45bd 982e 14bd
00000010: efd3 12bd 0dfc 7abc 5d75 1f3e a027 07be
00000020: 9b71 96bd 8975 0ebe a09f 8d3d 4789 4abd
00000030: f657 29be b717 c1bd 9e7b 1cbd ce8c bcbd
00000040: bf1c b5bd 1312 06bb 32f7 7d3d d178 9a3d
00000050: ac0e afbd e62b 8d3d b725 c83d 62e7 b73d
00000060: cba9 783d a0ea 7f3d eb1d abbd 4322 9cbd
00000070: da0f d13d 9192 183e 31a5 20be 950e 3c3d
00000080: 3491 b3bd 6834 14be 504e 103e 77db ab3d
00000090: 7605 38be 965e 223e 65b6 df3c 976c d3bd
000000a0: 2f0f 9abd 0704 fdbd f715 07be d08b 253d
000000b0: f196 033e d8d0 fc3d 864b 2a3d 3ef8 93bd
000000c0: b2a8 973d 1a23 98bd 7aa3 86bd 0432 e83d
000000d0: 553b ba3d 2910 debd 51e6 b13d c1ad ae3d
000000e0: a759 823c ae62 aa3d a078 85bd 0470 0ebe
000000f0: e95e 1abe c358 793d 498f 38be c287 13be
00000100: b1e0 93bd c37b 223e b929 073d 94be 0a3e
00000110: d1c3 dc3c a56d b6bc eb72 103e dde5 8cbd
00000120: 110e 173e ff70 0d3e b6d0 1cbd bd2d 1b3e
00000130: 0907 2b3e 10c4 323e c03e d8bd ba46 d13d
00000140: 4e46 b6bd 119c 123e 8432 973d 0a2f 84bd
00000150: 6eea 24bd c958 0f3d 36f8 a8bd cd2e 093d
00000160: 36a5 b2bb efd5 08bd 3652 d5ba 1597 233d
00000170: 6859 c2bc b1f7 3c3d d2f0 d0bc 2cf3 debc
00000180: 4413 263d 0ced 943d 9f68 ecbd 79af 0f3e
00000190: c279 ee3d af3f 2fbe abd7 9c3c ef5a 3b3d
000001a0: 35c6 bb3d cad1 193d e167 08be 63fe 283e
000001b0: 4f30 2cbe 1702 333e 7c95 033e 7956 213e
000001c0: 672a 03be 2bd6 153d 0a2d 1c3d 74ea d03d
000001d0: 464a d23c 2e74 a8bd 1af2 bb3c e502 04be
000001e0: 8e9f 12be dedd d73c a02c 953c 5a5f 183e
000001f0: 3d48 34be 2efd 8dba b87b 4f3d 1c86 b13d
00000200: 4a96 f73d e27b acbd 02e2 d4bd b11b a73d
00000210: 1def c83d 3f82 fe3c 6e6d 41be 37d0 bc3d
00000220: 607c a23c 0e42 0c3e 53d4 a8bd 3a0e 083d
00000230: 6b01 10be 279e a63d 0f60 ecbd 1b08 32be
00000240: da7e b03d a194 17be 886a 9cbb f39c fdbd
00000250: 964e e63d 0462 163e 6c90 a8bd 8db4 b5bd
00000260: 680e 083e 909a 07be 8d49 f5bd 82b9 9cbd
00000270: bcb8 af3d 110c b5bc 3420 43bd 86ee 58bc
00000280: 84e7 9abd 867a 943b 8d73 153e 1f1e 0fbe
00000290: cd86 523d 623a 143e b76b 82bd 9bd9 523d
000002a0: a5f0 de3d ab1a e23d 99ab 22be 0d88 0e3e
000002b0: 0eb5 123e 4b38 f1bd 90d9 21be 500d 083e
000002c0: 0fc4 fabd 295f ed3c facb 863d a953 573d
000002d0: a5a8 b3bd 363c 113e 73f2 adbd bce2 14bc
000002e0: 63cb 833d c1a5 5a3d 02e0 c33d 7c14 2e3d
000002f0: a7a6 bebc 3fef 0abc e0e7 e4bd 0a74 043e
00000300: f027 79bc 5122 36bd f332 afbd 3a28 08be
00000310: 06fc 1dbd 24b5 3fbe d572 5f3d e6ed 0c3e
00000320: 796c a73c 7d88 40bd 7fa2 f4bd 8853 e13d
00000330: 31df 8a3b c68a 593d 81df a63d 597b c1bd
00000340: 0ee0 06be b4de 703b cbbd 3c3d 6fcf 2dbe
00000350: c2d5 21be 6592 2fbe fdd5 78bd d556 203d
00000360: c452 f93b 0eb9 1a3e 29dc 40bd 7ac7 e53d
00000370: 4075 2a3e 19dc 893d 49ee fdbd 14c6 41bc
00000380: 8dfe 643d 8af1 223d 8883 9b3d 4811 a9bd
00000390: 1021 9b3d 1721 d63d 7a16 613a d6cb 0f3e
000003a0: 5d7b 5c3d a90e 33be 0b80 0f3e b318 8d3d
000003b0: 0d03 3dbd 2898 133e 3420 253e 608b 15be
000003c0: 3e56 f8bd cf6c 76bd 972f ee3d 4de3 d53d
000003d0: 5aa1 a9bc b626 19be 5139 eebd 0e8f 783d
000003e0: 35a2 4fbd caec 97bc 20a9 31be 5a7e 35be
000003f0: f5a9 893c 0b3d b2bd 1c55 cb3c f02b 20bc
-0.17402841 0.056022324 -0.048327815 -0.036177248 -0.035846647 -0.015318883 0.15572114 -0.1319871
-0.07345887 -0.13912024 0.06915212 -0.049447324 -0.1653746 -0.09428351 -0.038203828 -0.09206544
-0.088433735 -0.002045755 0.062003322 0.07542575 -0.0854772 0.068931386 0.097728185 0.0897968
0.060708802 0.062479615 -0.08355316 -0.076237224 0.102081016 0.1489966 -0.15688016 0.045912344
-0.0876793 -0.14473116 0.14092374 0.08391469 -0.17970833 0.15856394 0.027308652 -0.10323446
-0.07522427 -0.12354284 -0.13191973 0.04041654 0.12850548 0.12344521 0.04157593 -0.07225083
0.07405223 -0.0742857 -0.065741494 0.11337665 0.09093348 -0.10842926 0.086865075 0.08529235
0.01591189 0.08319603 -0.06517148 -0.13909918 -0.15075268 0.060875665 -0.18023409 -0.14407256
-0.07220591 0.15867524 0.032998774 0.13549262 0.026948841 -0.02226908 0.14106338 -0.068797804
0.1475146 0.13812636 -0.03828498 0.15154167 0.16701902 0.17457604 -0.105588436 0.10218568
-0.08900128 0.14317347 0.07382682 -0.064542845 -0.040262632 0.03499678 -0.082504675 0.0334919
-0.0054518236 -0.033407148 -0.0016275111 0.039939005 -0.023724273 0.046134654 -0.025505457 -0.027215563
0.040545717 0.072717756 -0.115433924 0.14031781 0.11644317 -0.17114137 0.019145807 0.045741018
0.09168664 0.037553586 -0.13320877 0.16503291 -0.16815303 0.17481266 0.12849993 0.15755643
-0.12809144 0.0365812 0.03812889 0.102009684 0.025670182 -0.082252845 0.022942591 -0.12891729
-0.14318678 0.026350912 0.018209755 0.14880124 -0.17605682 -0.00108329 0.050655097 0.086681575
0.12089212 -0.08422066 -0.1039467 0.081595786 0.09811232 0.031067966 -0.188894 0.09219401
0.019834697 0.13697073 -0.08243623 0.033216693 -0.14063041 0.08135634 -0.11541759 -0.17385904
0.08617945 -0.14802791 -0.0047734417 -0.12383451 0.11245458 0.14685827 -0.08230671 -0.08872328
0.13286746 -0.13242555 -0.11976919 -0.0765257 0.08580157 -0.02210048 -0.047638133 -0.013240462
-0.07563689 0.0045312075 0.1459486 -0.13976334 0.051398087 0.14475396 -0.06368201 0.051477056
0.10885743 0.11040243 -0.15885772 0.13919087 0.1432688 -0.11778315 -0.1580565 0.13286328
-0.122444265 0.02897604 0.06581874 0.05257002 -0.08772401 0.14183125 -0.08493509 -0.009087261
0.06435277 0.05338073 0.095642105 0.042500004 -0.023272825 -0.008479892 -0.11177039 0.1293489
-0.015207276 -0.04446632 -0.0855464 -0.13296595 -0.038570426 -0.18721443 0.05455287 0.13762626
0.020437466 -0.047005165 -0.11945056 0.110022604 0.0042380323 0.05311086 0.08148099 -0.09447355
-0.13171408 0.0036753835 0.04607944 -0.16973661 -0.15804198 -0.17145689 -0.06075095 0.03914531
0.0076087434 0.15109655 -0.04708496 0.11219688 0.1664629 0.067314334 -0.12398965 -0.011827011
0.05590682 0.03978113 0.07593447 -0.08255249 0.075746655 0.1045553 0.0008586418 0.14042601
0.053828586 -0.17486061 0.14013688 0.068894766 -0.046145488 0.14413512 0.16125566 -0.14603949
-0.121258244 -0.06016236 0.11630171 0.10443745 -0.020706821 -0.14956173 -0.11632026 0.060683303
-0.050691802 -0.018545527 -0.17349672 -0.1772398 0.016804675 -0.08703049 0.024820857 -0.0097761005

lstm.weight_hh_l0_reverse f4 [128, 32]
00000000: 6ce4 05be 9e7d f93d d27d 85bd 3413 d03d
00000010: 6a41 153e 4f5f ec3c 5a76 e839 3220 9dbd
00000020: ca2c b6bc f10c 29be f550 c63d 08e7 633d
00000030: 54d4 0b3e b01f 113e 79f0 8ebd 36c0 eb3d
00000040: b25d 0dbe 6fc3 52bd 26aa 2e3e 8d5d fbbd
00000050: 603e 87bd f284 20be bdc9 f03b 0b4d 303e
00000060: 5911 303e 0883 d2bc 8666 e9bd ffb9 07be
00000070: fab9 2abd 26e7 1abe 71a0 96bd 4869 83bc
00000080: 3fbb c73d 9178 ecbd 7e4d bc3d 4120 1ebc
00000090: 5e9b bdbd fd44 683d d9bc 4dbd 456f 35bd
000000a0: d1d3 11be 2453 033e 31c8 223e 5d23 34be
000000b0: 2a30 1dbe b57c a1bc 3895 87bc 6dc4 bb3d
000000c0: c21c 05be 4bcf 08be f924 6d3d 717a 46bd
000000d0: d73c 653d 9bf8 cfbd 441e 78bb 6b47 7a3d
000000e0: 6f06 11bd c3d7 8fbd 0df0 363c cfae ee3d
000000f0: ceb7 c5bd e19f 18bd ccf0 8abd fbb9 92bd
00000100: a362 09be c736 91bd 7987 fe3d 2277 853c
00000110: d7ca ae3d 2ec5 9c3d 03ec 02bd 6086 1c3e
00000120: 98ab 8e3d a8c7 843d f364 863d 839b 033e
00000130: 7466 06be 3f9a 11be e34e a9bd 7069 8ebc
00000140: 52f2 a73d dfb7 003e 97e1 dd3c e69b 7a3d
00000150: d640 183e c3bd 1ebd 470a 953d 6260 a3bd
00000160: f0b1 3bbe d6f6 21bd 2dfd 07be d3b5 053e
00000170: 86c1 59bd 6825 183e cf6a 9f3d 4ea4 783d
00000180: b64d 6dbd 3026 1b3e de03 963c 41b0 533d
00000190: 2a8f 013e 2e69 3d3e 47ac cdbd a23b 953d
000001a0: 41ba 903d 129a 47bd a5de f73d 1d77 62bd
000001b0: 3642 b63d c1db c9bc d046 923d 0841 2fbe
000001c0: 6181 903d db8a ee3d d4d3 e33d 4161 7cbd
000001d0: d2ea 0fbd 4b73 b6bd b728 4d3b fff3 d3bd
000001e0: f125 ec3d 518a 383e e00a 273e 8b88 6f3d
000001f0: 00c1 633d 5d5d c53d e33d 343e e361 34bd
00000200: 778d 003e abaa 7d3d 4c70 8cbd 7db2 b0bc
00000210: e2b6 1b3e 1c56 9bbc 3cb8 f8bd bb70 eabc
00000220: c30a bc3d 7b97 2e3a 5f6e 9e3d b168 1c3e
00000230: ef59 c9bd 457e 11be 600d 04be d9f9 ccbd
00000240: b4b0 0fbd ec0e 883d 0a33 143e 51f2 9abd
00000250: 854a 01be ca7d 773d ca74 c63d 50e2 b9bd
00000260: 450f 473d 74b1 093e 258b 42bd e8b8 df3d
00000270: d616 0cbe 65ef 343e 3bce 9ebd 7c16 13be
00000280: e661 fbbd 9866 b63c 94a6 3ebd 06e9 863d
00000290: d01c 08be ac3e dabd 195c 3c3e fa46 a6bc
000002a0: 6d9d b13d a92b 14be 6e23 2b3d 2fcf a1bd
000002b0: 6c7d f6bd f13d 36be d8bb 283e d396 46bd
000002c0: 5ddc 0bbd 003d 03be bb0d 38bd 1e14 bebd
000002d0: f6b2 01bd 20e1 5fba d73c 2fbd 5d2a 4dbd
000002e0: fe90 11be 6d41 623d 110e 1f3e 0733 6c3d
000002f0: a5d2 273e 6c72 583c 1c90 8f3d f443 25bd
00000300: 0c1b dcbd 319d 193c f0b3 a23c 9207 9ebd
00000310: e851 903d 9f55 a7bd 7c45 6d3d 8e5b 083e
00000320: 2221 9bbd 077d 233e 27b8 eebd 86cf 543b
00000330: 8771 d8bd 99ea 31bd 9850 233e 471b f4bd
00000340: fea4 07be 0e55 2ebd 991b 2bbe 3302 a93d
00000350: b648 173e e073 8cbd d374 70bc 9c72 9f3d
00000360: 0668 20be f939 163d 84c1 36be cdf7 1dbd
00000370: 9a2f e7bd e57f 2dbe f943 2a3d 98d5 5cbd
00000380: 82c9 a7bd 38e4 0e3e 50c5 11bd f749 a63c
00000390: d386 afbd 2973 f4bd 6c56 12be 1856 883d
000003a0: 5789 423c f942 88bc 124a c93d 0d93 9cbd
000003b0: 5518 01be 394f 283e 9328 d5bd 7aa0 0f3c
000003c0: 265c a03c 745f fabd 0f11 2abe 8c09 af3d
000003d0: b307 aabd d22e 95bd 8f4b 27be 6275 15be
000003e0: 91db 0cbc c752 1ebd 9b0f 33be adcc c43d
000003f0: 052d e03d cd92 253c 757f f03d ac53 063c
-0.13075417 0.12182163 -0.06518139 0.10159913 0.14575735 0.02885404 0.00044338667 -0.076721564
-0.022238154 -0.16508843 0.0968341 0.05564025 0.13655216 0.14172244 -0.0697946 0.11511271
-0.13805273 -0.05145591 0.17057094 -0.12273703 -0.06603694 -0.15675715 0.007348268 0.1721689
0.17194118 -0.025697246 -0.11396508 -0.13254546 -0.041681267 -0.15127239 -0.073548205 -0.016041413
0.09752511 -0.11546434 0.09194468 -0.009651245 -0.092581496 0.056706417 -0.050228927 -0.044295568
-0.14240958 0.12824684 0.1589668 -0.17591615 -0.15350404 -0.019712785 -0.016550645 0.091683246
-0.12999251 -0.13360326 0.057896588 -0.048456613 0.055966225 -0.101548396 -0.0037859837 0.061103266
-0.035406526 -0.07023575 0.011165631 0.11654436 -0.096541986 -0.037261847 -0.067842096 -0.07164379
-0.13416533 -0.07090526 0.12428183 0.016292159 0.085347824 0.076547965 -0.03196336 0.15285635
0.06966323 0.06483394 0.06562223 0.12852292 -0.1312502 -0.14218996 -0.082669996 -0.01738426
0.08200516 0.12570141 0.027085109 0.061183833 0.14868483 -0.03875519 0.07277351 -0.07977368
-0.18329597 -0.03954204 -0.13280173 0.13057642 -0.053163074 0.1485802 0.07784044 0.06070357
-0.05793544 0.15151286 0.01831239 0.05168176 0.12652269 0.18497154 -0.10042625 0.07286765
0.07066775 -0.048730917 0.12103013 -0.055289377 0.088993475 -0.02464092 0.07142413 -0.17114651
0.07055927 0.11647578 0.111243874 -0.061616186 -0.03513605 -0.08908709 0.0031304786 -0.10349273
0.11530674 0.18021514 0.16312742 0.058479827 0.05560398 0.09636948 0.17601733 -0.044038665
0.12553965 0.06193034 -0.068573564 -0.021569485 0.15206483 -0.018961959 -0.12144515 -0.028618207
0.0918174 0.00066601456 0.07735895 0.15274312 -0.098316066 -0.14208324 -0.12895727 -0.10008592
-0.035080627 0.06643471 0.14472595 -0.075657494 -0.12626083 0.060422696 0.096902445 -0.09076369
0.048598547 0.13446599 -0.04749598 0.1092394 -0.13680586 0.17669447 -0.07754179 -0.14364046
-0.12274532 0.022265717 -0.04654558 0.065874144 -0.13292241 -0.10656485 0.18394507 -0.020297516
0.08672605 -0.1446978 0.041781835 -0.07900845 -0.12035641 -0.17797066 0.16477907 -0.04848368
-0.0341457 -0.12816238 -0.04493497 -0.09281181 -0.03166481 -0.0008540321 -0.04278263 -0.05008923
-0.14215466 0.055238176 0.1553271 0.05766585 0.16388948 0.013210874 0.070099086 -0.04034801
-0.10747346 0.009375856 0.019861192 -0.07716288 0.070468724 -0.08170628 0.057927594 0.13316175
-0.07574679 0.15965663 -0.11656218 0.0032472326 -0.105685286 -0.04343662 0.15948713 -0.11919265
-0.13246533 -0.042561583 -0.16709746 0.082523726 0.14773831 -0.06858039 -0.014676291 0.07785532
-0.15664682 0.03667638 -0.17847258 -0.0385664 -0.11288376 -0.16943319 0.04156873 -0.053914636
-0.081927314 0.13954246 -0.035588562 0.020298941 -0.085706376 -0.119360276 -0.1429078 0.06657046
0.011873565 -0.016633498 0.09828581 -0.07645235 -0.12606938 0.16436471 -0.104081295 0.008766288
0.01957519 -0.122252375 -0.1660807 0.08546743 -0.0830225 -0.07284321 -0.16337417 -0.14595559
-0.008597271 -0.03865316 -0.17486422 0.09609351 0.10946087 0.010105801 0.117430605 0.00819866

lstm.bias_ih_l0_reverse f4 [128]
00000000: aadb bebd 1773 03be 27af 823d 66d7 84bd
00000010: a0e8 3cbd 985b 82bd 7d77 ca3d 5087 d9bd
00000020: 1853 d03c 8ffa 4f3c 8c07 0cbd b602 02be
00000030: eb4b babd 6094 e23d 7b54 483d 4358 733d
00000040: dcfe 9b3d 8b9b 293e b455 b83c dabe e43d
00000050: af5f f43d 863b 8a3d 1e6d cb3d d3da d7bd
00000060: 46e2 5abd 41b5 c63d 3ece e8bd 3718 503d
00000070: e25e 79bd e254 9dbd 4952 283e adb2 e7bd
00000080: e8d3 96bc 088d 253e 81be 01be 503f 57bd
00000090: 6471 1dbe e27d 6fbd 33d2 02be ec28 a43d
000000a0: 9b12 2f3e 489f 08be d171 2c3e 8a81 a13d
000000b0: 7c2d 05be 853d eb3d 9e36 1fbe 60b0 e3bc
000000c0: 4b68 03be 140e 74bc d62d 3abe c527 3d3b
000000d0: 716e babd bfbb 8dbd 6397 a3bc d10b 973d
000000e0: 5314 983d 5ed4 463d 1062 853d 7d50 60bd
000000f0: 20b0 68bb 7bc8 1d3e 8bce f5bd 9d8c cf3d
00000100: 1a72 c6bd b0bf b13d 9879 143e 4635 323d
00000110: 5e6d e2bd 7671 1abe 2e65 21be 5bd9 6abd
00000120: d026 1d3d 7e6c b93d d3aa af3c 1818 eabd
00000130: 26ba c1bd c4f0 babd b7ee b9bd 7d81 1bbe
00000140: e991 83bd ab9e 0abd d4c5 3ebd 8115 29be
00000150: 2bfd 22be 45e3 08be 0197 a9bd 552f 56bd
00000160: 4c92 f3bd b19a 9e3d 5e6e debd c18b 073e
00000170: 5f4e f5bd a378 e7bd 06e0 ae3d b689 36be
00000180: 7cd7 a7bd f90d f43d 38ec ad3d 74d6 043e
00000190: 03ad 3abe 2721 153e f5ca 723d 81e2 d9bd
000001a0: eb54 1f3e b0aa 2d3e b39d 8fbd b6b5 10be
000001b0: 3580 633c 73b9 f3bd 9e49 e9bd 154c f5bc
000001c0: 92a2 fcbc eb1e 15be 8554 35bc 1650 543d
000001d0: 00a8 023e 2c69 33be 8591 ad3c 82cc cabd
000001e0: df7e 723d 3a20 bf3d 4307 19be f00e 863c
000001f0: 0b05 ff3d 5a9a f3bd 963f 073e 22a5 e03d
-0.09319241 -0.12836872 0.06381064 -0.064863965 -0.046120286 -0.06365126 0.09886072 -0.10621512
0.025430247 0.012694015 -0.034186885 -0.12696347 -0.090965115 0.110634565 0.04890869 0.059410345
0.0761697 0.16563241 0.022501804 0.111692145 0.11932313 0.067496344 0.09932922 -0.10539784
-0.053438447 0.0970254 -0.113674626 0.050804343 -0.060881503 -0.07682206 0.1643764 -0.113133766
-0.018411592 0.1616708 -0.12670328 -0.052550614 -0.15375286 -0.05846966 -0.12775497 0.08015618
0.17096941 -0.13342011 0.16840293 0.07886036 -0.13005632 0.11486343 -0.15548179 -0.027794063
-0.12832753 -0.014895935 -0.18181548 0.0028862816 -0.09103096 -0.06920575 -0.019969648 0.07375301
0.074257515 0.048542373 0.065128446 -0.05476426 -0.003550537 0.15408508 -0.120022856 0.10134242
-0.09689732 0.086791396 0.1449951 0.043507837 -0.110560164 -0.15082344 -0.15761253 -0.057336193
0.038367093 0.09053896 0.02144376 -0.11430377 -0.09459333 -0.09127954 -0.09078734 -0.15186115
-0.064243145 -0.033842724 -0.046575382 -0.1651211 -0.15916888 -0.13367946 -0.08280755 -0.052291233
-0.11893138 0.07744349 -0.108608946 0.13236906 -0.11977839 -0.113023065 0.08538823 -0.1782597
-0.08195397 0.119167276 0.08492321 0.12972432 -0.18230061 0.14563428 0.059275586 -0.10638905
0.15559737 0.16959643 -0.070125006 -0.14131817 0.013885547 -0.11900606 -0.113909945 -0.029943505
-0.030839238 -0.14562576 -0.011067514 0.05183419 0.127594 -0.17520589 0.021187553 -0.09902288
0.059203025 0.093323186 -0.14944176 0.016364545 0.12452134 -0.118946746 0.1320785 0.109689966

lstm.bias_hh_l0_reverse f4 [128]
00000000: 63ab 06be 3d71 36be 1db9 233e f4d4 a53b
00000010: b861 54bc 18dc 04be 042c dcbd 22b8 03be
00000020: dc03 003e 75a2 9ebd e82c 193e c501 413e
00000030: eabf 8f3d 5055 7f3d 6e1c 03bd 9455 e7bd
00000040: 65bd 853c d4ee 243b 570a 37bd e2d1 e83d
00000050: d9de e1bd 7580 b53c 6bb9 16be dddd d33d
00000060: b4f6 d7bd 2884 debd 7b5f f23c b833 d2bd
00000070: 388a 12bd c55d d93d ce90 fc3c b39f 64bd
00000080: e1ef d63c 7cee 8ebd 277c d9bd d474 b0bd
00000090: e769 7ebc 72bd f83b d77d 193e 1813 403e
000000a0: 0db2 93bd 16b6 ec3d 6860 d03d ddac 163d
000000b0: eac8 32be d65d 1e3e 0de1 253e 6b50 e0bd
000000c0: 0983 1fbc 3463 a7bc aac3 283d 49d8 72bd
000000d0: fae1 d73b a0da 4b3d 9a48 b6bc 43d4 43bc
000000e0: c449 bbbd 078a a7bd 21f2 e9bd 312e 26be
000000f0: beb1 8d3d bfdb 06be b8dc 11be 413e 05be
00000100: bebc 353e 6a84 873c ad93 1abe f200 e6bd
00000110: bdc1 263e 51ab 213d 7fc8 323d 4733 413d
00000120: 16a4 f6bd ebc8 a53c d2f3 20be 1f38 da3d
00000130: f8e0 73bd 11b4 873d 1b46 483d 2964 21bd
00000140: d5f2 9b3d c91b 293d f067 ef39 f422 1f3e
00000150: 0824 5abd 3624 2b3d c33d e23d 9184 3dbd
00000160: d134 b63d e584 333e c6ec d33c 968a 753d
00000170: e915 353d 5e88 23bd 3088 debd 89a3 903d
00000180: eaec c63c a6a4 b83d 7227 92bd d2a4 5439
00000190: 27f1 483c 41db 833d 658e 1d3e ccb8 933c
000001a0: e348 313e 9cf6 63bd a202 85bd 5a57 20be
000001b0: 529c 7ebd 0285 e6bc 258f c43d 2f19 01be
000001c0: ad49 3b3e fefc 833d 946c bb3d e526 aebd
000001d0: 1acd 8e3d cb9c dfbd a1a9 823d 8e6a 89bd
000001e0: 84aa 3d3e 4fd4 1fbd 4575 3dbd 60d0 db3c
000001f0: 9930 663d 5933 133e 7158 09be 221a 253d
-0.13151316 -0.17816634 0.15988584 0.0050607864 -0.012962751 -0.12974584 -0.10750583 -0.1286321
0.12501472 -0.0774583 0.14958537 0.18848331 0.070190266 0.06233722 -0.032009535 -0.112956196
0.016325662 0.0025166767 -0.044687595 0.11368157 -0.11028833 0.02215598 -0.14719169 0.103450514
-0.10545102 -0.108650506 0.029586544 -0.10263771 -0.035776347 0.10613588 0.030830767 -0.055816364
0.02623743 -0.06979081 -0.10619383 -0.08616033 -0.015528179 0.007590943 0.1498941 0.18757284
-0.07211695 0.11558168 0.10174638 0.03678595 -0.17459455 0.15465483 0.16199131 -0.109528385
-0.009735831 -0.020433046 0.041202225 -0.059288297 0.006588218 0.049769044 -0.022251416 -0.011952463
-0.09144929 -0.081806235 -0.114231355 -0.16228558 0.06918667 -0.13169764 -0.14244354 -0.13012029
0.1774778 0.016542632 -0.15095396 -0.11230649 0.16284843 0.03947002 0.04364824 0.047168043
-0.12043016 0.020237407 -0.1571801 0.106552355 -0.05954072 0.06626142 0.048894983 -0.03940216
0.07614676 0.041286264 0.00045663072 0.15540677 -0.05325702 0.04178258 0.11046936 -0.046269003
0.08896793 0.17531164 0.025869738 0.05994662 0.04421035 -0.03992497 -0.108658195 0.07062442
0.024282891 0.09015779 -0.0713643 0.00020279296 0.012264526 0.06438304 0.1538635 0.018032454
0.1731296 -0.055655107 -0.06494643 -0.15658322 -0.062160797 -0.028139595 0.09597615 -0.12607263
0.18289824 0.06444739 0.09151569 -0.08503512 0.06972714 -0.10918578 0.063800104 -0.06709777
0.18522078 -0.039020833 -0.046254415 0.02683276 0.05619869 0.14375056 -0.13412644 0.040308125

lstm.weight_ih_l1 f4 [128, 64]
00000000: 8cb5 b43c e61b 6a3d c06b 893d 8d25 0ebe
00000010: 4d42 fa3c 29b0 0b3c 00d9 67bb 902e b5bd
00000020: 1fab 273e 6435 e73d 831a a8bd 332c e53d
00000030: 285c e9bd 266e f23d 701c 173e 4f51 20be
00000040: 9de5 c33d 94a6 f2bd a07a 213d cc27 0dbe
00000050: eabf f73d e697 04be 0620 1fbe 0755 133c
00000060: 4a96 05be ade3 303d bb1b 7f3d 6c13 f5bc
00000070: d3f5 90bc 088e 2bbd 4a7e e0bd 2d47 b8bb
00000080: c2a4 293c 348d b53d 898c 133b 27b7 aabd
00000090: e8d1 8d3d 9a0c babc ff5c 013d 5521 6abd
000000a0: 371d 273d 6851 033e b390 e73c a602 0c3e
000000b0: 67bb 9ebd 791d 4abd 7471 e63d a65c 28be
000000c0: 0a4a b5bd 9ebd 19be 7fc3 0fbd 6899 f4bd
000000d0: 746d 363d 6e27 0bbe a40b 89bd 4579 1abd
000000e0: f4d8 ed3d 0064 3bb8 8dc5 9c3d 8d74 d43d
000000f0: 397a 8d3d 99b6 a93d 8de5 e53d 3048 f63d
00000100: cf9c e4bd 5a88 c43d a8a7 ee3c 505e fb3d
00000110: 73d4 2d3e cb32 d3bd 2486 073e 9dcc 473e
00000120: 4f58 d5bd 6887 c13d 0f28 183e 9ac2 eb3d
00000130: 40f2 0e3d 80fe 2abe de65 41be b70f 38bd
00000140: b7be de3b c599 c73c 77b3 143e aebe 79bb
00000150: 4816 fa3c 5087 0d3e e61c 223d 1db5 173d
00000160: 8b36 5bbd 0486 403d 317e e63b 5381 113e
00000170: fe2d bb3d 1d46 25be d605 36bd 974c 3dbe
00000180: d83b 23bd 301e 283e 4ff7 fcbc b188 19be
00000190: f706 16bd 0a64 103b 6c0e c83d a6c5 39bd
000001a0: d8cc ecbd 223b 32be b7b4 9d3d a38c ef3d
000001b0: ad6c 48ba 5a15 2cbe 8304 953d 20f7 163e
000001c0: d808 103e 3d19 f03d 827f 25be df3b 083e
000001d0: d980 cbbc a1ab 5b3d ae14 0e3e a27f ed3a
000001e0: 606f 973c 59d3 d03d 1d6d 853d fe8d 073e
000001f0: 06e3 3abe 48ef f83d d375 e6bc 9e52 c03d
00000200: 1fea ef3d b250 803d 6a68 343e 9c72 4a3d
00000210: bc4d 313e 8f87 dfbd ee50 9dbd 0347 103d
00000220: 8946 e0bd ffd0 ffbd 72e1 98bd 3a73 043e
00000230: 250f 49bd f23b c53d 34e8 ad3d 7aec fd3b
00000240: ba2e ed3d 8ef6 3e3e b8c9 cabd 325d 10be
00000250: d58a 173e f80e d23d c6e9 e73d b8f7 a23d
00000260: 72aa 0ebe d924 763d 8cd8 b3bd d633 da3d
00000270: 51b9 86bc b417 75bc 7b7a 063e 0bdc 003e
00000280: 6477 31be c677 15bd 1a3f 47bd 7d67 d83c
00000290: fcf5 c13d eee4 d6bc fad8 2e3e f288 53bc
000002a0: 6fd7 94bd d2f7 f53d 5e59 0ebe 3e20 b5bd
000002b0: ea72 0dbe b230 e8bd fee8 093e 1851 d8bc
000002c0: 0084 1a3e 251e f03d ae99 713d 5a81 0d3e
000002d0: be2b 01be 1630 01be 27b0 01bc e5de 5a3d
000002e0: 0bf6 213e 00b9 1cbd c563 ecbc 0ca6 19be
000002f0: cab8 103e 7df4 0e3e b7ae e73d 9713 32be
00000300: 0990 163e d119 db3c c048 2dbd af9e 25bc
00000310: 3ca0 e33d 4a0d f43d dde4 33b9 ee95 26be
00000320: 8c22 723d 36bd 26be ad7e 9e3d 6893 06be
00000330: ae71 c03d 9469 90bd 91bf 913c 6d69 16be
00000340: f700 3e3c e213 333d bef0 f93d 73df 063e
00000350: d556 73bd 9a10 573d 39cc e7bd e167 cbbd
00000360: 491a 203d 3525 e23c 02a7 f43c 2a34 1d3c
00000370: 1a93 64bd f933 4abd a305 20be 36f5 94bd
00000380: e838 9f3d 880c ebbd b9f6 fcbc 324c 5ebd
00000390: 96c2 dbbc 2947 40be 7833 79bc e73c 513d
000003a0: ddd3 44bd 6a57 14be cea6 123e 665a ee3d
000003b0: 282b 8abd 1696 8cbd 1255 923d 66f1 4cbd
000003c0: 3a39 c03d 7182 eebc f87a 8cbd 147c ea3d
000003d0: e37f fc3d a087 1d3e 387d 983c 775c 02be
000003e0: cc77 783b 8dd9 d9bd 7ba5 85bd 89f0 aabd
000003f0: d317 2c3d 0f51 1cbd 710f b4bd 7f5e 2a3d
0.022059225 0.057155512 0.06710005 -0.13881512 0.030549193 0.008525887 -0.0035377145 -0.08846772
0.16373871 0.1128948 -0.08208182 0.11190071 -0.113945305 0.118374154 0.14756942 -0.15656017
0.0956528 -0.118481785 0.039423585 -0.13784713 0.120971516 -0.1294857 -0.1553956 0.00899244
-0.13045612 0.04318588 0.062282305 -0.029916488 -0.017695343 -0.0418835 -0.10961588 -0.005623719
0.010354223 0.08864823 0.0022514185 -0.08335715 0.06924802 -0.022711087 0.03158283 -0.057160694
0.040799346 0.12824023 0.02826724 0.13672885 -0.07750588 -0.049344514 0.11252108 -0.16441593
-0.088520125 -0.1501374 -0.03509855 -0.119433224 0.044537976 -0.1358926 -0.066916734 -0.037713308
0.11613646 -4.4677407e-05 0.07654867 0.10373793 0.06908078 0.08286781 0.11225424 0.120254874
-0.11162721 0.095963195 0.02913268 0.12273848 0.16975574 -0.10312422 0.13234764 0.19511648
-0.10417234 0.09449655 0.14859031 0.11511727 0.034898996 -0.16698647 -0.18886515 -0.04493686
0.0067976373 0.024365315 0.14521585 -0.0038108039 0.030528203 0.13821149 0.03957834 0.037037957
-0.053518813 0.047002807 0.007034086 0.1420949 0.09139632 -0.16140027 -0.04443916 -0.18486248
-0.039851993 0.16417766 -0.030879645 -0.1499355 -0.036627736 0.0022032284 0.09768376 -0.045354508
-0.11562508 -0.1740537 0.07700484 0.11696746 -0.00076455885 -0.1680502 0.07276251 0.14742708
0.14065874 0.11723564 -0.16161922 0.13304089 -0.024841713 0.053630475 0.13875076 0.0018119703
0.018485725 0.10196561 0.06514952 0.1323776 -0.18250665 0.12155014 -0.028132355 0.09390758
0.11714577 0.062653914 0.17617956 0.049425706 0.1731481 -0.109145276 -0.07681452 0.035223972
-0.109509535 -0.12491035 -0.07464875 0.1293458 -0.04908671 0.09630574 0.08491555 0.0077491375
0.11581178 0.1864874 -0.09901756 -0.14098051 0.14799054 0.10256761 0.113238856 0.07957405
-0.13932207 0.060093734 -0.087815374 0.10654418 -0.016445788 -0.014959265 0.1313266 0.1258394
-0.173307 -0.036491178 -0.048644163 0.026416535 0.09470746 -0.026232209 0.17074957 -0.012911068
-0.07267653 0.120101586 -0.13901278 -0.0884404 -0.13813367 -0.11337413 0.13467786 -0.026405856
0.15089417 0.117244996 0.05898445 0.13818875 -0.12614343 -0.12616 -0.007915533 0.053435225
0.15816514 -0.038262367 -0.028856168 -0.15004748 0.14132991 0.13960452 0.11312621 -0.17390285
0.14703383 0.026745709 -0.042305708 -0.010108634 0.11114547 0.11916597 -0.00017156028 -0.16268131
0.059114978 -0.16283116 0.07739005 -0.13142169 0.09396683 -0.070513874 0.017791541 -0.14688654
0.01159691 0.043720134 0.12204121 0.13171177 -0.05940898 0.052506067 -0.11318249 -0.09931923
0.039087567 0.027605632 0.029864792 0.009594956 -0.05580435 -0.04936597 -0.1562715 -0.07273333
0.07774526 -0.114769995 -0.030879365 -0.054271884 -0.026826184 -0.18777145 -0.015210025 0.05108347
-0.04805361 -0.14486471 0.14321443 0.11638336 -0.06746513 -0.06864564 0.07145132 -0.050034903
0.09385915 -0.029114934 -0.06859392 0.11449447 0.1232908 0.15383768 0.018614396 -0.12730585
0.0037913201 -0.10637198 -0.065257035 -0.0834666 0.042014908 -0.03816324 -0.08792008 0.041594025

lstm.weight_hh_l1 f4 [128, 32]
00000000: f7bf 0cbe 2c74 743c c48e 163e 8204 0d3d
00000010: b4a1 45bd dc54 a93d 914d 02be 7e3d 5739
00000020: 41a6 83bb 69f9 b03d caed 88bd 99c7 173d
00000030: 5257 6bbd b57b 613c 05f2 87bd c930 78bd
00000040: abde 1a3e 0af2 0f3e 8b14 533d 0831 21bd
00000050: aa30 6c3d 5e2b 2dbd 72cc 623d aeff c43d
00000060: 2c39 edbd 5969 bd3d 621d 31be cfd5 093d
00000070: 6b09 a13d 46a9 0abe 980d 1ebe 6e9e 913c
00000080: 9d2c ffbd 16c3 02bd c663 5d3b 9c92 183d
00000090: eecc 503c 677f 3c3a 7e71 b3bd cc96 973d
000000a0: 183a b4bd a5e5 c43d b43f 20bb 99ba af3c
000000b0: 54e2 34be 2c94 a6bd fae2 ef3d 97b4 a93b
000000c0: 6710 40be 451a b8bd a00a d7bd a735 e33c
000000d0: 290b 05be 0dca 01be 83c7 7bbc c0ba 543d
000000e0: 4f80 28be e1a9 3bbe 2259 acbc 2ef6 de3d
000000f0: 9100 e83d c37a 84bd 4cda a43d c1ed fd3d
00000100: 4af0 6f3d 2817 2abe efcd 8a3d cd20 04be
00000110: 14db 173e 0c2b 54bd 782d dfbc 2212 1a3e
00000120: 1271 e83d e3f8 e6bd cd18 d13d c93d eb3d
00000130: a606 d5bd 115e 5dbd 9732 18be 689d 2b3e
00000140: b6b5 243e 819c 323e 343f fbbd 749a f23d
00000150: 52a8 92bc 40e8 093b 74bf 15be c047 97bd
00000160: 55e3 bc3d e771 2dbd 2d78 433d 68ea 913b
00000170: ee5f 20be d58e 59bd 275a 213e 04a6 08bd
00000180: 6756 74bd 290f b7bd 7f63 123e 1f70 1a3d
00000190: c9d2 18be 2cb7 0fbe 44a4 183e 6e84 01be
000001a0: e116 14bd 1248 09be 3ef8 22be ff1d 03be
000001b0: f845 1a3e c52c cf3d e541 173d 6f1c 18be
000001c0: 2837 a73d 9d20 e1bd 740b ee3d 2677 1f3e
000001d0: ae00 0bbe cb71 19be befb 28be 0db3 f43d
000001e0: e0e5 93bd 30d1 a1bd 992f 113e 5f99 943d
000001f0: 5f30 f63c c3fa 163e 59c9 8abd 1c58 b8bd
00000200: 501d 873c ab44 efbd 5be1 bfbd 84b1 ce3d
00000210: 30c7 0b3e c3ba cfbd 9ff9 7fbc abac bd3c
00000220: f014 91ba 2eb8 fe3d 6082 df3d 73aa cebd
00000230: 914b eabd 9c1e 11be cedd ad3d a689 a13c
00000240: e5f5 073c 87a2 2b3e 0191 b0bd 8c62 e1bd
00000250: 2589 733d 303c 2abe 504f 303e 6f61 823c
00000260: b151 e1bd 4ff2 8cbd db1c 363e b4b7 00be
00000270: d65e 0e3e 704f df3b b04d 22be 4abf 8e3d
00000280: f5ad 453d 849b c13d 0370 83bc 63ae 2d3c
00000290: a097 fe3d 1829 b9bd 0f7f a23d cdf5 a53d
000002a0: 4c8d 0e3e 888a 92bd 5439 ce3d 2f81 a5bd
000002b0: dd1f 833d 1ddc 093e 70f7 37bd c745 07be
000002c0: c64e 1abe 5c24 9fba 5f49 373c e7e8 23be
000002d0: 92b7 fdbd 87b6 0c3e 16e5 6b3d dce6 1cbd
000002e0: b778 98bd f25c 2e3e e41e 023e b1fa 02bd
000002f0: c4ac 373e 4dfd e0bd 7c0f c2b9 348b f5bd
00000300: 54a7 1c3e 242d 0fbe 45bd 2f3e 6368 fc3d
00000310: cf5b 013e fed3 07be a569 efba f673 1f3e
00000320: 1a53 aa3d 34c9 2f3e 055e b43d 4899 783d
00000330: dd04 aa3d f4d0 ae3d 29a7 353d c0c2 9fbd
00000340: 35a4 23be a70c e43c 4d80 923d 27ef 213d
00000350: 668a 03be 29b6 f0bd 7a84 503c a69c c83c
00000360: 521d 0d3e 4803 00bb 1d6a e73d 30ff febd
00000370: 8941 1e3e a94e 8c3d e86a 083e b8e6 c93d
00000380: 228a 40be ab35 f73d 3618 803d 45db 73bc
00000390: feb3 0ebe cd4f 22bb c580 c7bc 30c1 193e
000003a0: ef04 703d 4101 efbd 98b4 203d a367 30be
000003b0: b647 a4bd b1de e1bd b10f a2bc 7426 d7bd
000003c0: a8e2 f7bd 806f b5bd 5850 cd3c a8aa f43d
000003d0: d9ed 2c3e 479d 243e 300c 963d a493 94bd
000003e0: 6786 e03d aab5 153e d6ec cf3d 187f dc3d
000003f0: 5bb4 a8bd ef8e eb3d dda6 d43d 5fdc fcbd
-0.13745104 0.014920276 0.14702898 0.034428127 -0.048249915 0.08268139 -0.12724902 0.00020526905
-0.0040176217 0.08641321 -0.0668598 0.037055586 -0.057456322 0.013762404 -0.066379584 -0.0605934
0.15124004 0.14057174 0.051533263 -0.0393534 0.057663597 -0.042277686 0.055370755 0.096190795
-0.1158317 0.09248609 -0.17296365 0.03365117 0.078631245 -0.13541135 -0.15434873 0.01777574
-0.12459681 -0.03192433 0.0033781393 0.037249193 0.012744172 0.0007190615 -0.08761881 0.07401809
-0.08800143 0.09614114 -0.0024452033 0.021451281 -0.17664462 -0.0813373 0.11713214 0.0051789987
-0.18756257 -0.089893855 -0.105000734 0.027735544 -0.12992539 -0.12674733 -0.0153673915 0.05193591
-0.16455196 -0.18326522 -0.021038596 0.10886799 0.11328233 -0.064687274 0.08049449 0.123988636
0.058578767 -0.16610396 0.0677756 -0.12903138 0.14829665 -0.051798865 -0.02724336 0.1504598
0.113496915 -0.1127794 0.102098085 0.11486394 -0.10401659 -0.054044787 -0.14863048 0.16759264
0.16084942 0.17442514 -0.122679144 0.11845866 -0.017902527 0.0021042973 -0.14623815 -0.07386732
0.09223048 -0.042344954 0.04772203 0.004452992 -0.15661594 -0.05311473 0.15757047 -0.03336145
-0.059652712 -0.089384384 0.14295767 0.037704583 -0.14924158 -0.14034718 0.14906412 -0.12648174
-0.03615463 -0.13406399 -0.1591501 -0.12804411 0.15065753 0.10115961 0.036928076 -0.14854597
0.08164817 -0.109925486 0.11623278 0.15572795 -0.13574478 -0.14984815 -0.16502282 0.11948214
-0.072215796 -0.079012275 0.14178313 0.07255816 0.030052362 0.14744096 -0.06776685 -0.090011805
0.01649347 -0.11683019 -0.09369155 0.10092452 0.13650203 -0.10143044 -0.015623479 0.023153624
-0.0011068862 0.12437473 0.10913539 -0.10091104 -0.114401944 -0.14171833 0.084895715 0.019718956
0.008298372 0.16761218 -0.08621407 -0.110051244 0.059456963 -0.16624522 0.17217755 0.0159156
-0.110019095 -0.06882154 0.17784445 -0.12570077 0.13903365 0.0068148896 -0.15849948 0.06970079
0.0482616 0.094534904 -0.016044622 0.010600659 0.12431264 -0.09041041 0.07934391 0.081035234
0.13921088 -0.07155329 0.10069528 -0.080812804 0.06402562 0.13462873 -0.04491371 -0.13210212
-0.15069112 -0.0012141573 0.011186927 -0.16006814 -0.12388529 0.13741504 0.05759152 -0.038306102
-0.074448995 0.17027643 0.12707096 -0.03197736 0.17936999 -0.10985813 -0.000370141 -0.119894415
0.15298206 -0.13982064 0.17162044 0.12324598 0.12632678 -0.13264462 -0.0018265737 0.1557158
0.083166316 0.17166597 0.08806995 0.060693055 0.08301709 0.085359484 0.04434887 -0.078008175
-0.15980609 0.027838064 0.07153378 0.039534714 -0.12845764 -0.11753494 0.012726897 0.024488758
0.13780716 -0.0019533206 0.112995364 -0.12451017 0.15454687 0.06850941 0.13322031 0.09858459
-0.18802693 0.12070783 0.06254618 -0.014883821 -0.13935849 -0.0024766803 -0.024353394 0.15015101
0.058598455 -0.11670161 0.039234728 -0.17227034 -0.0802149 -0.11028803 -0.019782873 -0.10505381
-0.12103778 -0.088591576 0.025062725 0.119466126 0.16887607 0.16075622 0.07326543 -0.07254723
0.10963135 0.1462008 0.10152595 0.10766429 -0.08237525 0.11501872 0.10383389 -0.1234672
