Competition/TrainAI/model/s70/model_weights_2.pth (torch, 443791 bytes, 18 tensors)

lstm.weight_ih_l0 f4 [256, 36]
000000 30 40 0a 3e ae 76 35 3e 87 04 1a 3e 39 5d 02 3e
       0.13501048 0.17721054 0.1504079 0.12730874
000010 f2 3f a8 3d 78 96 15 3d ca b7 1d 3d cd ae 21 bc
       0.082153216 0.03652045 0.038505353 -0.009868336
000020 7a da 2e 3d 12 8f 7f 3d 3c 30 29 3c e6 de c0 3c
       0.042688824 0.0623923 0.010326441 0.023543786
000030 b6 42 7f 3d 03 c0 5e bd d6 b1 93 bb 67 f7 3f 3d
       0.06231948 -0.054382335 -0.0045072837 0.0468668
000040 3a 79 f5 3d 87 1e 18 be 99 11 d9 3d f5 21 b5 3d
       0.11986013 -0.14855395 0.105990596 0.088443674
000050 8a cd 16 ba 98 4a 46 3d 09 3f 91 3d 41 f7 6b 3d
       -0.00057526736 0.048410982 0.07092101 0.057608847
000060 74 f0 91 3d 3a d7 20 3c 35 9e 38 bd 60 b4 b6 bb
       0.07125941 0.009816939 -0.045072753 -0.0055757016
000070 8a 4d a9 3d b1 83 88 bc 1d 74 db 3d 7e 1e 02 be
       0.082667425 -0.016664358 0.10715506 -0.12706944
000080 ee 1c e4 3d 14 3a 95 bd 56 64 cf 3c 8d 6f 11 3e
       0.111383304 -0.07286468 0.025316399 0.1420271
000090 2a 9f 8a bd 64 df 47 3b 6c 1b 15 be 35 5b 92 3d
       -0.067686394 0.0030498141 -0.14561242 0.071463026
0000a0 aa 54 ea 3b 1d 5a 2e bd cf b1 54 3c 17 4e f1 3d
       0.007151206 -0.042566407 0.012981846 0.117824726
0000b0 4e c4 03 bd 3b 19 0d 3d 94 ac 2a 3e 0f 85 29 3e
       -0.032169633 0.03444789 0.16667396 0.16554664
0000c0 cf 19 6f bd ab bc 26 3d e5 78 29 bd 9a 2e 08 be
       -0.058374222 0.04070727 -0.04137506 -0.13299027
0000d0 a9 d9 1e 3e 26 5b 25 be 3b 44 81 bc 30 15 e1 3d
       0.15512718 -0.16148052 -0.015779605 0.10990369
0000e0 6a 36 bb bc cd c2 ca 3c 74 f2 5b 3d 55 c4 90 3c
       -0.022853095 0.024751091 0.05369802 0.017671743
0000f0 7d 19 a4 3d d3 1e 80 3d bf 29 5f 3c 4a 72 15 3e
       0.08012674 0.06255879 0.013620793 0.14594379
000100 b9 93 94 3d a9 77 24 3e f9 fa 3f 3e b5 cf 66 3d
       0.07254738 0.16061272 0.18748082 0.05635043
000110 18 7a 48 3d e3 83 35 3e f9 55 0f be 66 ee 2c be
       0.048944563 0.17726092 -0.1399764 -0.16887817
000120 f8 e6 c0 3c f8 ef aa bd a6 fb f9 bd 17 93 49 3c
       0.023547634 -0.08346552 -0.12206201 0.012303135
000130 58 f3 18 3e e8 e3 a1 3c 9d 38 82 3d 0e 09 47 3c
       0.14936578 0.019761994 0.063584544 0.012148155
000140 4e 02 0a bd 3b 03 04 bd 3a 17 34 be 08 9e da bd
       -0.033693604 -0.032229643 -0.17586985 -0.10674673
000150 f3 3d 55 3d 4a ae a3 3d 6b e2 65 bd 6a 0c 96 bd
       0.052061033 0.079922274 -0.056124132 -0.073265865
000160 c4 4c 4c bd cf 35 b7 bc 25 ae 45 bc 22 25 f6 bb
       -0.049877897 -0.022364525 -0.012065445 -0.007511751
000170 ef 9c 87 bd e0 80 46 3c 27 41 c9 bd 64 de a6 3c
       -0.066217296 0.012115687 -0.0982688 0.020369716
000180 4e 41 87 3d 19 53 d4 bc 47 bd 30 3b d7 c7 13 be
       0.06604253 -0.02591853 0.0026968287 -0.14431702
000190 ff 5c de bd 52 da f4 bc e4 72 a0 bd eb c3 63 bc
       -0.10857581 -0.02988926 -0.07834414 -0.013901691
0001a0 3b 15 3a 3d 9e 51 9a 3c 1a 71 29 be 74 a2 a6 bd
       0.045430403 0.018837746 -0.16547051 -0.08136454
0001b0 af 71 56 bc b7 79 17 bd f0 b7 80 3c ab d8 ca bb
       -0.013088628 -0.03698131 0.015712708 -0.0061903796
0001c0 5a a8 d4 bd 66 04 1b 3e a7 b7 10 be 9f fa 50 bd
       -0.10383673 0.15138397 -0.14132558 -0.05102026
0001d0 77 8f 19 3d 44 40 a9 bd f8 51 57 3d b6 ed ea 3b
       0.037490334 -0.08264211 0.052568406 0.0071694506
0001e0 d5 7f ce bd 52 84 4f bd b7 50 21 be f6 01 57 3d
       -0.10082976 -0.0506633 -0.15753447 0.052492104
0001f0 62 f6 2f bd 2c 71 3b 3d 79 1e d6 bd 60 b5 dd bd
       -0.04295958 0.045762226 -0.10455031 -0.1082561
000200 fd 59 70 bd 21 5b 2c be ae a6 87 3c e0 d1 17 be
       -0.05867957 -0.16831638 0.016558971 -0.14826155
000210 a8 96 e5 bc 70 c9 4a 3d 0c 8e 34 be c6 70 1e be
       -0.02802594 0.049508512 -0.17632312 -0.15472707
000220 05 c9 78 3d 61 6f 15 be f2 03 ad bd 94 72 68 3d
       0.060738582 -0.14593269 -0.08448018 0.056749895
000230 d9 3d 95 3d 00 b2 51 3e 9b 7c 98 bd 1d 49 e2 3b
       0.07287187 0.20478058 -0.074456416 0.0069056884
000240 43 62 3c be 0c a2 c5 bd 48 00 49 3d 2c f1 6b be
       -0.18396859 -0.096500486 0.049072534 -0.23041219
000250 5e 35 52 bd 99 ff ed ba 74 0b 09 bd fc 05 06 bd
       -0.051320426 -0.0018157839 -0.03345819 -0.03272055
000260 4d 8b 21 bd a4 8c 53 3c 57 a5 05 be 93 9a 16 3c
       -0.03943949 0.012911949 -0.13051353 0.009192127
000270 96 f9 3f be 1e 30 cc bc 77 3f 1c 3e c2 a9 96 3d
       -0.18747553 -0.024925288 0.15258585 0.073565975
000280 7c b2 b2 3d e3 0b b0 bc a0 c3 c4 3d 03 a5 20 3d
       0.087254494 -0.021490043 0.09607625 0.039219867
000290 95 2b 0a be af 9f 9e bd 1b f0 38 be b7 2b 58 bd
       -0.13493188 -0.07745301 -0.18060343 -0.052776065
0002a0 51 b4 6a bd bb bc 66 bd 02 d8 67 bd 1f 87 79 bd
       -0.05730087 -0.05633233 -0.056602485 -0.060919877
0002b0 42 77 35 3d ce 72 11 3d 16 53 12 be f3 a8 48 3e
       0.044303186 0.035509877 -0.14289507 0.19595699
0002c0 e5 81 82 bd 10 aa cb 3d 12 72 58 bd 2a 2b 56 3d
       -0.06372432 0.09944546 -0.05284316 0.05228726
0002d0 a8 6d 52 bd 0a 23 13 3e d5 fc 23 be 1d 83 79 3d
       -0.051374108 0.14368835 -0.16014417 0.060916055
0002e0 32 42 17 3e 8c 69 94 3e 33 8e 05 3e 93 60 94 3d
       0.14771345 0.28986776 0.13042526 0.072449826
0002f0 85 25 82 3e c6 2e 2d bd 42 79 2c bd 51 ec ad 3c
       0.2541925 -0.042280935 -0.042107828 0.021230849
000300 f3 25 a3 3c ef fa 12 3d 5d 43 d0 bd 0a 9e 31 3e
       0.019915557 0.03588384 -0.101690985 0.17345443
000310 d6 cc ac 3d 0d 7e 0a 3e d5 f6 50 3e c9 52 51 bc
       0.08437507 0.13524647 0.20406659 -0.012776085
000320 fb 1e de 3d 4b 0e a2 3d 52 14 8f 3d 3e 86 29 be
       0.10845753 0.079128824 0.06986298 -0.16555116
000330 c2 6b 9f b9 28 96 e5 3c da 0a 98 bb 96 8e 25 be
       -0.0003040713 0.028025702 -0.0046399655 -0.16167673
000340 cb c0 97 3d a6 44 3d be bb 9c 90 3a f9 b4 4d 3e
       0.07409819 -0.18483219 0.0011033037 0.20088567
000350 8f 80 b5 3d 6c 43 18 3d 84 a4 d7 bd 4e 3f f9 bd
       0.08862411 0.037173674 -0.10529426 -0.121702775
000360 4e a7 f1 bc 22 c9 99 3d 99 af e8 bd 13 75 99 bd
       -0.029498722 0.07509066 -0.113616176 -0.07493033
000370 c4 81 ff bd b7 e0 f7 3b bd 61 9c bc 60 2f bd bd
       -0.12475923 0.00756463 -0.019089574 -0.09237552
000380 d0 9b 06 be 7f e4 b2 bd 1b c5 f3 3d 57 ca 84 3d
       -0.13145375 -0.087349884 0.11902829 0.06483906
000390 60 1f 47 be 0c ed 0b be 70 b6 42 3c e9 95 ff bd
       -0.19445562 -0.13664645 0.011884317 -0.12479765
0003a0 a4 e4 f8 3d f2 ae 73 bd 05 8e 17 3e 8f c8 24 be
       0.12152985 -0.059493013 0.1480027 -0.16092132
0003b0 35 62 2e 3e 2a 4c eb bd 54 90 0a 3d bd c9 5a bd
       0.1702965 -0.114891365 0.03382905 -0.05341505
0003c0 0c 28 b2 bc 58 b0 56 bd e3 7f 89 3b 1c 49 17 3d
       -0.021747611 -0.05241427 0.0041961535 0.036934957
0003d0 1a 65 d3 3d 68 af c0 3d bb 3e e4 3d e6 25 22 3e
       0.10322018 0.09408456 0.111447774 0.1583477
0003e0 1c a1 09 bd 43 2a 34 bc 94 eb 45 3d 88 6e 8a bd
       -0.03360091 -0.010996404 0.048320368 -0.067593634
0003f0 f0 89 86 bd 80 91 22 bd 52 0d 59 3d 5b 4e 3d 3d
       -0.06569278 -0.03968954 0.05299122 0.046217304

lstm.weight_hh_l0 f4 [256, 64]
000000 33 06 34 3e a8 35 cd bd 80 ea e4 3d b9 5a 85 3d
       0.1758049 -0.1002 0.1117754 0.065114446
000010 a0 66 66 3d 7d 51 49 3d c2 27 cd bd 89 21 65 bd
       0.056250215 0.04914998 -0.10017349 -0.055940185
000020 33 ea 19 be ae 35 94 bd b0 24 31 3e e4 b3 6a bd
       -0.15030746 -0.07236801 0.17299151 -0.057300463
000030 70 0c 69 3d e5 9e bf bd 53 9a c7 bd 39 dd 10 bd
       0.056896627 -0.093564786 -0.09746232 -0.035367224
000040 a7 ab b6 3b b0 d9 c9 bc a6 95 0b be 93 65 8c bd
       0.005574662 -0.024639934 -0.13631305 -0.06855311
000050 36 0e ae 3d 89 f8 10 be 6d 63 c4 bc f8 07 f9 bb
       0.08498804 -0.14157309 -0.023973191 -0.007599827
000060 cf c2 95 3d 79 f9 3f bd 6d a0 4c 3d ca 4e 5a 3d
       0.073125474 -0.046868775 0.04995768 0.053297795
000070 38 a5 f0 3d 6d 1f 84 bd c5 3f fd 3b af c3 5d bd
       0.11750263 -0.064513065 0.007728549 -0.054141697
000080 06 35 3b 3d a4 a1 c6 3d da 9a f2 3d a9 c6 ef 3c
       0.045704864 0.09698799 0.11845942 0.029269533
000090 70 94 96 3d 84 4c 57 3d 5f 2a 20 be 90 f1 fd 3d
       0.07352531 0.052563205 -0.15641163 0.1239959
0000a0 0c 23 b7 3d dd 7e 40 bd f6 b7 36 3c 29 f7 d8 bc
       0.089422315 -0.046995986 0.011152258 -0.026485043
0000b0 6a 48 e4 3d f2 1f d7 39 40 84 1b be f7 84 61 3b
       0.111466244 0.00041031797 -0.15187168 0.0034411529
0000c0 1d c3 0c bd 7d 7f 82 3d 84 ca 29 3d f1 91 36 3e
       -0.034365762 0.06371973 0.0414529 0.1782911
0000d0 2b 8a cc bc c8 36 4a 3b a0 b2 e7 3c ff ca c1 bd
       -0.024968227 0.0030855406 0.028283417 -0.094625466
0000e0 46 59 08 be 8e 97 20 3e 4b 98 86 3c fd f6 28 3e
       -0.13315305 0.15682814 0.01643004 0.16500469
0000f0 68 49 59 bd b9 0c 90 bd ad 16 eb 3d f2 55 56 bd
       -0.05304852 -0.07033677 0.114789344 -0.052328058
000100 58 07 92 3d a8 63 0d 3d be 38 fa 3d 59 29 c7 3d
       0.07130307 0.034518868 0.12217854 0.09724683
000110 2a 3a b2 bd e9 4d e7 3d c3 b6 39 be c6 7d 28 3e
       -0.087025 0.11294157 -0.18136124 0.16454229
000120 66 fe a2 ba 38 e3 b6 3d b4 ea 86 bc ef ac ee 3d
       -0.0012435436 0.08930057 -0.016469337 0.11654078
000130 66 9b e9 bc 07 b1 39 be 4e 55 f7 3d e2 18 a3 3d
       -0.028516483 -0.18133937 0.120768175 0.079637304
000140 c5 af 57 bd 1c de ec 3d c5 c5 15 3d 75 2b e8 3d
       -0.05265786 0.115658015 0.03656556 0.11336414
000150 78 39 6b 3c 8b 65 0b be 72 cd 68 bc 8b 4e 92 3d
       0.014356963 -0.13612954 -0.014209138 0.07143887
000160 ee f7 40 3e ce 72 96 bc fc 70 43 3e 41 8a 0b be
       0.18844578 -0.01836529 0.19086069 -0.13626958
000170 8f 8c 00 3e df 05 b0 3d 6c 32 23 3e 07 28 84 3d
       0.12553619 0.0859487 0.15937203 0.06452947
000180 7c 99 e0 3d ac 51 58 3d 62 15 4e 3c 51 51 6b 3d
       0.10966775 0.052812263 0.01257834 0.057450596
000190 05 c4 26 3c 33 04 0a be 92 b4 19 3e 28 1f 02 3d
       0.010178571 -0.13478164 0.15010288 0.031767994
0001a0 aa a3 22 3e ba 63 ae 3d e6 19 0b 3d 10 ee 0f 3e
       0.15882745 0.08515115 0.033960246 0.14055657
0001b0 50 2b 84 bd bb 6c f5 3c 64 0a 98 bd 9a bf 86 bd
       -0.06453574 0.029959073 -0.07423857 -0.06579514
0001c0 fb ef 08 bd ca b6 05 3e 1e 60 38 3d 99 4a f2 bd
       -0.03343199 0.1305801 0.04501354 -0.118306346
0001d0 b8 e5 22 3e d9 9c 1f 3e f0 22 33 bc 8a 99 1b 3e
       0.15907943 0.15587176 -0.010933623 0.15195289
0001e0 ec ad 44 3d da 37 15 3d 23 50 1a 3e 0d 80 95 bc
       0.048017427 0.036430217 0.15069632 -0.018249536
0001f0 31 e2 6c bd 0e c5 86 bd 8e f9 18 3e b1 38 b1 3d
       -0.0578329 -0.06580554 0.14938948 0.08653391
000200 b5 38 d1 3d 26 0c 89 3b e4 07 2a bd f3 ef 5b 3d
       0.10215894 0.0041823564 -0.04151143 0.05369563
000210 8f 14 e7 3d 98 a7 f0 3d 9f 51 e4 bd f3 2f d1 3c
       0.11283218 0.11750716 -0.111483805 0.02553556
000220 d3 7a 08 bd 29 db 2c 3e e2 a7 13 bd 0d ba 9d bd
       -0.03332026 0.16880478 -0.036048777 -0.07701502
000230 ad 91 63 3d 4d 24 8e bc be 2f 13 3e 03 9f 4f 3d
       0.05555885 -0.017351294 0.14373681 0.050688755
000240 70 0f 14 bd 28 1c 82 3a 5c 1c 96 3d 78 e3 0b be
       -0.036147535 0.0009926604 0.07329628 -0.13660991
000250 f4 96 ab bd 9b bd 20 bd 90 44 af 3d 50 f3 90 bd
       -0.083784014 -0.039243322 0.08557999 -0.07077658
000260 af c1 ec bc ef de 91 3d 47 3c 1e 3d b4 4f ae 3d
       -0.02890095 0.07122599 0.038631704 0.08511296
000270 d2 bf 0e be 74 0c bc 3c b6 54 b1 3c e8 a0 9c 3d
       -0.13940361 0.022955157 0.021646839 0.07647878
000280 9b d7 11 be c1 c1 ce bd fb c0 23 bc 1a 1e 9f bd
       -0.14242403 -0.100955494 -0.009994741 -0.07769413
000290 29 2e 23 3e d6 10 cb bc 4c bf 15 bc 31 63 00 be
       0.15935577 -0.024788301 -0.009139847 -0.12537839
0002a0 5a 64 93 bd 58 df 2a 3b 75 87 db 3c 72 62 18 3e
       -0.07196875 0.0026073065 0.02679799 0.14881304
0002b0 dd 44 07 bd 5f 0f 99 3d cd 19 07 3c 63 fe ad 3a
       -0.033024658 0.07473635 0.0082458975 0.0013274666
0002c0 af 73 ef 3c f9 80 a0 bd 56 19 8a bc f1 b1 26 bc
       0.029229967 -0.078370996 -0.016857784 -0.0101742605
0002d0 73 4a 2f be 58 ac da 3d 59 2f 08 bd 6f c1 4f 3d
       -0.17118244 0.10677403 -0.03324828 0.050721582
0002e0 a9 3b 7b 3d a1 fd a3 3d 31 98 96 3d ed 97 27 bc
       0.061336193 0.0800736 0.07353247 -0.010229093
0002f0 f2 5b bc bc 8a 4b 82 bb f3 42 5a 3c 8d fd 16 bd
       -0.022993062 -0.00397629 0.013321626 -0.0368629
000300 f3 28 45 3d 73 06 d2 bd 71 80 3b bd 9e 54 a0 3c
       0.048134755 -0.10255136 -0.04577679 0.019571599
000310 fb 33 19 be 98 91 03 be a4 6a 12 be 38 a6 0f be
       -0.14961235 -0.12848508 -0.14298493 -0.14028251
000320 da 7e 26 3d 1f 29 f4 bd 6d ba 3a 3c 44 10 15 bd
       0.04064832 -0.11921906 0.011396986 -0.036392465
000330 9f de 43 3e d8 ee 56 3c 28 15 61 3d 1b 96 0c 3e
       0.19127892 0.013118468 0.054951817 0.13729136
000340 58 ba d0 3d 06 9e dc 3d 5e bf 1a 3e d6 90 3b 3d
       0.10191792 0.10772328 0.15112063 0.045792423
000350 d2 b6 d8 bd 2a 94 0d bb 52 de 3a 3e 6c ad 27 be
       -0.10581745 -0.0021603205 0.18248871 -0.16374749
000360 e9 63 f0 3c c9 3f 36 be 89 a1 88 3d 94 7d f0 3c
       0.029344516 -0.1779777 0.066714354 0.029356755
000370 94 19 23 be e7 03 29 3e 67 af 9e 3c b6 bb 9c 3d
       -0.15927726 0.16505395 0.019370748 0.076529905
000380 61 49 c1 3c 3c 89 ad 3c f0 16 37 be f3 d4 c1 bc
       0.02359456 0.021183603 -0.17879844 -0.023661112
000390 6d 84 b4 3c 99 b3 5a 3d 5c 15 02 3e 28 22 dc 3c
       0.022035802 0.053393934 0.1270346 0.026871756
0003a0 50 53 86 bd cd ae 64 bd 63 a1 71 bc df a8 d1 bd
       -0.06558859 -0.055830766 -0.01474795 -0.10237288
0003b0 4f a0 77 bd 34 6e d4 3d a4 08 ce bb a1 4f d8 3d
       -0.060455617 0.10372582 -0.006287651 0.10562063
0003c0 77 2b e3 3d e0 ff 82 3d 8b 7a 1c 3e 32 9e a9 bd
       0.11092275 0.063964605 0.15281121 -0.082821265
0003d0 b0 fc 12 be 3b 2d 11 be 64 d3 a0 3d 4b 6c 2e 3e
       -0.14354205 -0.1417741 0.078528196 0.17033498
0003e0 e2 72 27 3e a5 8e 99 3d 50 62 11 3e c6 1b a6 3c
       0.16352418 0.074979104 0.1419766 0.020276915
0003f0 67 34 02 3d 1f 5e e0 3d 34 73 cf bd a1 e7 a6 bd
       0.031788256 0.10955452 -0.10129395 -0.081496485

lstm.bias_ih_l0 f4 [256]
000000 bf 3e 14 3e a0 27 d4 bc 2d 15 06 be 36 6e ef 3c
       0.1447706 -0.0258978 -0.13094015 0.029227357
000010 9c ba 82 bb 9b 9a 6e bd 0d df 50 bd 87 88 c2 3d
       -0.0039895307 -0.058252912 -0.050993968 0.09498697
000020 41 9e 7f bd a4 1c 25 be 60 b5 07 3c 4f 7a bc 3d
       -0.062406782 -0.16124207 0.008282989 0.09203016
000030 59 11 0b 3e e7 3b 99 bc 71 ed b0 bb 57 89 b5 bd
       0.13580836 -0.018705321 -0.005399399 -0.08864086
000040 47 06 4a 3d 51 fe b3 bd e9 5f 02 bc 83 4a fc 3d
       0.049322393 -0.087887414 -0.007957437 0.123188995
000050 17 df 97 bd 74 20 92 3d e8 8b 47 bd f6 32 00 be
       -0.07415598 0.07135096 -0.04871741 -0.1251944
000060 c2 0c 75 bd 90 73 2f 3d d5 e7 fc bc 78 bc 00 3d
       -0.05982662 0.04283482 -0.030872265 0.031429738
000070 68 58 13 be fa aa 20 bd e3 e1 a2 bd df 6f 04 bd
       -0.14389193 -0.039225556 -0.07953241 -0.03233325
000080 9e bc ac 3c 36 83 b3 bd 6b 56 4c 3e d7 a2 ba bd
       0.021086033 -0.08765261 0.19954841 -0.091130905
000090 09 ac 60 bd 3e be 8b 3a 4c f5 97 3b 55 58 d6 bd
       -0.054851566 0.0010661555 0.004637396 -0.10466067
0000a0 b1 0b 03 be 71 a1 c0 3d 0a 84 00 3d 7e a4 8c 3c
       -0.12797429 0.094057925 0.031375922 0.01716828
0000b0 d3 3f a3 bb 4c ff 96 3d 80 95 3e be 80 33 11 be
       -0.0049819737 0.07372913 -0.18611717 -0.14179802
0000c0 3a b7 df bc 08 98 31 be ba 7f ff bd e2 a9 e3 bd
       -0.027309049 -0.17343152 -0.12475534 -0.11116387
0000d0 53 d2 be bd c2 46 fa bd 59 3c 96 3d c0 1b 95 3d
       -0.0931746 -0.12220527 0.07335729 0.072806835
0000e0 eb ae 2c 3e d6 26 67 bd 15 21 26 3e 13 01 e2 bd
       0.16863601 -0.05643352 0.16223557 -0.11035361
0000f0 1a fe 8a 3d 25 2f 5c 3d f7 3a 32 bd 49 e0 28 be
       0.06786747 0.053755898 -0.043513265 -0.16491808
000100 5d 8b fd bd ea 85 1f 3e e5 40 b4 bd f4 67 42 bd
       -0.12380097 0.15578428 -0.0880144 -0.04746242
000110 97 d1 fa bc 6e 07 6b 3d 3e ac 70 3d e3 d8 40 be
       -0.030617518 0.057380132 0.058758013 -0.18832736
000120 86 13 23 3d a8 a9 13 be a5 06 13 3e 27 7a ab bb
       0.03981354 -0.14420187 0.14358003 -0.0052330676
000130 d0 b2 84 bb f1 05 a7 bc 10 64 2a ba 44 6b 98 3d
       -0.0040496364 -0.020388575 -0.0006499896 0.07442334
000140 ef 2a 00 3d 21 92 0a bd 81 ca 89 bd ae eb 8b bd
       0.031290945 -0.033830766 -0.06728078 -0.06832062
000150 e0 74 80 bd 4a 51 02 3c 66 6d 89 3d c3 ae 30 3d
       -0.06272292 0.007953951 0.06710319 0.043135416
000160 0b 3c d3 3c f0 89 04 be d3 7f 68 bd 19 9b 97 3c
       0.025785467 -0.12943244 -0.056762528 0.018506574
000170 6a f6 71 3d fb 1f 94 bd 25 fe 1f be 3f 35 85 3e
       0.05907289 -0.07232662 -0.15624292 0.26017186
000180 87 3a db bd 5b 76 9d bd 59 7f 3d 3c 21 d2 ed bd
       -0.107045226 -0.0768859 0.011566007 -0.116123445
000190 c3 c2 8c 3b c4 c4 77 3e e4 b2 c2 3d 36 45 56 bd
       0.0042956783 0.24196154 0.09506777 -0.0523121
0001a0 3b 33 e6 3d 76 62 0a be 80 88 01 3d d4 d1 eb bd
       0.1124024 -0.13514122 0.031624317 -0.11514631
0001b0 27 f7 69 bd 91 dd c7 3a 90 da d8 bc 96 63 98 3a
       -0.05712047 0.0015248527 -0.026471406 0.0011626359
0001c0 53 61 0e be 1a 60 00 be 3c 02 32 bc da 26 9c 3d
       -0.13904314 -0.1253666 -0.0108647905 0.07624598
0001d0 24 d7 8b 3d 4e b2 ae bd 3e 8b 9d bd b8 29 a6 3d
       0.06828144 -0.08530103 -0.07692574 0.08113426
0001e0 3d 8a 5a 3c 8b cf a9 bd 6d 5d 3f 3d a7 76 d6 3c
       0.013338623 -0.08291539 0.046719957 0.026179625
0001f0 90 06 15 bd 47 b3 85 bd bd 13 cf bd 20 94 0f bd
       -0.03638321 -0.06528335 -0.10111187 -0.035053372
000200 f9 15 24 be 9b 27 38 be 0f 2e 1c be 53 ce e8 39
       -0.16024007 -0.17983858 -0.15251945 0.00044404212
000210 ce 25 49 bd bd ea e3 3d 8b ad e2 bd b2 6d e6 bd
       -0.04910832 0.11128757 -0.11068257 -0.112513915
000220 fa 57 63 bd 2d e2 28 bd eb 8c f7 3d e4 63 d0 bd
       -0.055503823 -0.041231323 0.12087425 -0.101753026
000230 95 d2 41 3d 0d dc 9c bd 5a 7d 04 3e b1 ed 3a 3e
       0.047319967 -0.07659159 0.12938443 0.18254735
000240 bb dd e9 3b aa 18 ab bc da 2d 17 bd 8b c4 ae bc
       0.007137028 -0.020885784 -0.03690896 -0.021333953
000250 eb f7 45 3e 38 4e 8f bd 3c 4c 54 bb 91 81 0a 3d
       0.19332854 -0.06997341 -0.0032394072 0.03381497
000260 5b 52 5e bd 23 4b ad 3c 47 b5 94 3d 16 b4 02 3e
       -0.05427776 0.021153992 0.072611384 0.1276401
000270 e7 b5 3f bb ae eb c8 3d 71 d2 16 3e 2e d9 15 3c
       -0.002925271 0.09810577 0.14728715 0.009146018
000280 5c fa 81 bc 2f b6 c4 bd f2 0c 4a 3d c3 9e 8c bb
       -0.015866451 -0.09605061 0.04932875 -0.004291387
000290 c5 cb 0f 3d 7a 44 0a be 87 7a 21 3d a3 80 6f bd
       0.03510644 -0.13502684 0.03942349 -0.058472287
0002a0 a3 66 46 3d ba d3 19 3e c7 5e a8 3d b4 6b b1 bd
       0.048437726 0.15022174 0.08221202 -0.08663121
0002b0 06 e0 2e bd 2b e6 46 3d 2c 44 19 bd e4 77 06 bd
       -0.042694114 0.04855935 -0.03741853 -0.03282918
0002c0 d9 cf 8a bc 5a 3c 31 3e 14 02 2b 3c 00 b7 09 be
       -0.016944813 0.17308179 0.010437507 -0.13448715
0002d0 67 0b 27 bd 1c aa 36 bd 39 c9 01 bd 75 d5 97 bd
       -0.04078236 -0.044595823 -0.03168604 -0.074137606
0002e0 09 ad 1c 3b ca 03 52 bc f4 64 01 3c a2 de b4 3d
       0.0023906848 -0.012818286 0.007897604 0.08831526
0002f0 8e 63 24 3c 7d fa fa bb bc cb 8c bd 29 75 2c 3c
       0.010033501 -0.007659255 -0.06874797 0.01052598
000300 2c 2c 24 3d 29 3a 3b 3c bd b9 a3 bd e5 97 9b bc
       0.040081188 0.011427441 -0.07994411 -0.018993327
000310 cf df 04 be 31 17 34 3e 1c d3 90 3d 15 5d 1e bd
       -0.12976001 0.17586972 0.07071516 -0.03866299
000320 2e 4a 3f be 7a 81 ef bd 1e d6 8c bd 27 79 26 3d
       -0.18680641 -0.116946176 -0.06876777 0.040642884
000330 2b 52 03 3e 46 00 90 bd 2c 8c f9 3d 7b 73 02 be
       0.12824313 -0.07031302 0.12184939 -0.12739365
000340 b4 66 4e bd 02 1a 94 bc 83 a9 0f 3d f5 5c 9a 3d
       -0.050390914 -0.018078808 0.03507377 0.075372614
000350 b4 44 a4 bd 63 62 59 3d 04 ac 9b bd a8 3a 7f ba
       -0.080209166 0.053072345 -0.07601169 -0.00097362185
000360 f5 fd 21 be a7 d8 ca 3c 63 21 d4 bd 18 ba 07 bd
       -0.15819533 0.024761511 -0.103579305 -0.033136457
000370 85 b0 92 bc 09 e4 11 3d 57 ff 16 3d d4 f1 97 bd
       -0.017906437 0.035617862 0.036864605 -0.07419172
000380 60 52 e8 bd be fd 22 be 51 e0 19 3e 1c 78 89 bd
       -0.11343837 -0.15917107 0.15026976 -0.06712362
000390 bb 5b 3b be 1b 78 18 3e 93 1a 0a 3d 8e 57 77 bd
       -0.18296711 0.14889567 0.03371675 -0.060386233
0003a0 ba fe 1b 3d 7e 14 e0 bc f0 e9 9b bd aa 5f 43 3d
       0.038084723 -0.027353521 -0.076129794 0.047698654
0003b0 2c b3 1b bc ba b7 b9 3b d8 48 c7 bd 52 20 99 bd
       -0.009503167 0.005667654 -0.09730691 -0.07476868
0003c0 c9 dc 72 bd 55 42 89 bd b4 bc 83 3c 34 88 c4 bd
       -0.05929259 -0.06702105 0.016081192 -0.09596291
0003d0 b6 d5 5e bb fa dd ca bc dc dc b9 3c 3d 04 4c 3d
       -0.0034001893 -0.02476405 0.022688322 0.04980873
0003e0 8c d0 29 bc b7 d6 8f bd d0 65 4a b9 99 3b 6e bd
       -0.010364663 -0.070233755 -0.0001930215 -0.058162306
0003f0 3c a9 42 bd db 4e 87 bd 5e f9 4b 3d cc e3 f0 3c
       -0.047524676 -0.06606837 0.049798362 0.029405497

lstm.bias_hh_l0 f4 [256]
000000 3f 5c 80 bd ca b0 ac bd e6 d2 d4 bd 14 9f 1d be
       -0.062675945 -0.08432157 -0.10391788 -0.15392715
000010 b5 0f 8f 3d 23 91 6a bd 88 56 a1 bd 0b e0 a1 3c
       0.06985418 -0.05726732 -0.07877833 0.019760152
000020 b0 0e b5 bd 22 5d 22 be fa 34 6e 3d bf 4c c7 3d
       -0.08840692 -0.1585584 0.05815599 0.09731435
000030 7b 21 ef 3d c8 05 bb bd b9 cd f7 bd 44 4b a8 bb
       0.11676308 -0.09131962 -0.12099785 -0.0051359255
000040 b7 26 3f bd a5 99 d6 bd d7 c2 e3 bd 8f 33 34 3c
       -0.04666778 -0.10478524 -0.11121147 0.010998621
000050 99 f5 e3 bc 50 db 57 3d 77 e0 9f bc 98 2b b2 3c
       -0.027827071 0.052699387 -0.019516213 0.021749303
000060 e9 b7 b5 bd 87 49 36 be e8 d3 21 3d 67 64 45 be
       -0.08872969 -0.17801486 0.03950873 -0.19276582
000070 c8 a3 1c be 88 1a 36 3d 7a 37 e5 3c a2 3e d5 bd
       -0.15296853 0.044458896 0.027980555 -0.10412337
000080 ec 99 9c bd 2f 38 ee 3c f6 9e ba 3d 0e 1c 62 bc
       -0.07646546 0.029079525 0.09112351 -0.013800634
000090 02 aa b8 bd 60 36 5a bd 2c 63 fd 3d aa 9e 88 3c
       -0.090168014 -0.053274512 0.12372431 0.01667722
0000a0 b3 e2 07 3d 77 1a bf 3d 2a 61 61 bd e5 15 44 3d
       0.03317518 0.0933122 -0.055024303 0.047872443
0000b0 98 53 0c bd d1 70 5d bd cc b9 07 3b ec 95 39 3d
       -0.03425941 -0.05406267 0.0020710109 0.045308992
0000c0 df 1d 11 be 2d a7 21 bd de 33 15 be 82 2b cb bd
       -0.14171551 -0.039466072 -0.14570567 -0.09920408
0000d0 21 21 8d bc 22 cd cf bd 74 d4 3d 3e 84 fb 3b bd
       -0.017227711 -0.10146548 0.18538076 -0.04589416
0000e0 b1 d4 42 bc b9 0d 4b bd 0d 19 87 bd 4a 5a 3a 3d
       -0.01189153 -0.049573634 -0.06596575 0.045496263
0000f0 3c b5 03 3e 6f 02 3c 3d e7 2c c2 3c 1a 25 aa bd
       0.12862104 0.04590076 0.023703052 -0.08307858
000100 df 23 bc 3c 4f be af 3d 5e 50 1b 3d 06 29 8d 3b
       0.022966323 0.0858122 0.03791844 0.004307869
000110 e1 d0 de bd f3 67 14 be bc 3a 93 3a 36 dd 5f be
       -0.10879684 -0.14492778 0.0011232714 -0.21861729
000120 78 20 af bd 2b 41 58 3d 77 e0 ce 3d c4 fe 67 3d
       -0.08551115 0.052796524 0.10101407 0.056639448
000130 d9 5c 8a 3d 7a ab 1e b8 19 2d 01 3d 25 c2 ad 3d
       0.067559905 -3.7829835e-05 0.03153715 0.08484296
000140 6e d1 14 bd 0d 2d 21 bd f6 af a8 3b ae 93 b7 3c
       -0.03633254 -0.039349604 0.0051479293 0.022409286
000150 c1 45 82 bc 59 3c d6 bd 94 60 1b 3d e9 43 d7 3d
       -0.015902402 -0.10460729 0.0379339 0.10511
000160 7c 29 9e 3c 71 9d 26 bd c7 9f ff bc 6c 67 57 bd
       0.01930689 -0.04067749 -0.031204117 -0.052588865
000170 eb a2 c7 bd 3d 0e ee bd 16 7f ec bd a8 42 fe 3d
       -0.09747871 -0.116238095 -0.11547677 0.124150574
000180 2f 63 04 bd dc 0c f9 bc 23 f3 dc 3d 62 53 17 bc
       -0.03232115 -0.03040164 0.10788562 -0.009236189
000190 54 82 40 be 93 05 12 3d 81 99 fe 3a 80 e9 9e bc
       -0.18799716 0.035649847 0.001942441 -0.01939845
0001a0 22 f1 73 3d 04 f8 74 3d 5b a1 14 be e4 e6 70 39
       0.059556134 0.05980684 -0.14514677 0.00022974197
0001b0 99 29 c1 3b b2 c1 63 3d fa aa 1d bb 2c a4 17 be
       0.0058948514 0.055604644 -0.0024058209 -0.1480872
0001c0 60 18 03 be a4 bb 0c be 0b cc 05 be 14 d1 5a bc
       -0.12802267 -0.13743454 -0.13066117 -0.013355512
0001d0 cf ab 1a 3e d4 0d ea bd fa 01 e4 bd fa 95 6b bc
       0.15104602 -0.11428419 -0.111331895 -0.014379019
0001e0 8d 0e 9f bb 4e e1 3e be d5 b3 c5 3d eb 41 0f be
       -0.0048540295 -0.18640634 0.09653441 -0.1398999
0001f0 51 08 b5 3d b6 ab 66 bd 77 40 96 bd 67 b6 30 be
       0.08839477 -0.0563161 -0.073365144 -0.17257081
000200 96 a5 fb bd db 0d 46 bc 9c 80 cf bb 50 8b 40 be
       -0.122874424 -0.012088264 -0.00633247 -0.18803144
000210 97 6f e1 bd f1 3d a1 3d e9 d8 b7 bd 80 85 e4 bd
       -0.11007612 0.078731425 -0.08976919 -0.111582756
000220 23 ea a2 bd 32 da 87 3d 1c 14 37 3e 22 4a a5 3d
       -0.07954814 0.06633414 0.17878765 0.0807078
000230 27 5c f5 3d d4 1f 54 bd f1 53 08 3e 8c e1 85 3d
       0.11980467 -0.051788166 0.13313271 0.0653716
000240 19 9e de bc 82 27 a5 bc 29 9c 09 3e c5 ce e8 3d
       -0.027174996 -0.02016044 0.13438477 0.11367563
000250 16 04 c9 3c 2a 89 0a 3e 4d 0d b6 3d eb 55 82 bc
       0.024538081 0.13528886 0.08889256 -0.01591011
000260 e3 95 30 3e 08 1c 05 be 13 6e 68 3d 51 91 e6 3d
       0.17244677 -0.12998974 0.0567456 0.11258186
000270 a5 1d 2d 3e d8 25 c6 3d e8 e7 50 3d 76 1f b1 3d
       0.1690584 0.09675187 0.051002413 0.08648579
000280 92 65 59 bd 86 12 44 bd 22 ec b4 bd 03 79 09 3e
       -0.05307538 -0.047869228 -0.08834101 0.13425069
000290 61 c0 15 be e8 b7 42 3d 69 17 df 3c 2f fa 84 3c
       -0.14624168 0.047538668 0.027232843 0.016232578
0002a0 df 42 59 3d 17 5c 18 3d 81 05 2a 3e 71 cb 3f bd
       0.05304229 0.0371972 0.16603662 -0.046824876
0002b0 9e 09 10 3e 35 40 4e bd 5f 2f 68 3b af 9e 0d 3d
       0.14066169 -0.0503542 0.0035428626 0.03457516
0002c0 8f 0a 40 3d 35 d0 29 3e b9 23 f2 bc cd 59 4b 3d
       0.04688507 0.16583331 -0.02955805 0.049646188
0002d0 ef 51 4c bc f8 b8 03 3e 6e 76 fc bd 01 1a dc 3d
       -0.012470706 0.12863529 -0.12327276 0.10747147
0002e0 58 ad a1 3c 41 e5 4c bd 72 0b 39 3b 8d b2 93 bc
       0.019735977 -0.05002332 0.0028235582 -0.018029476
0002f0 db 37 a3 bd 2f 8d a3 3d 05 c6 17 3e 0b 3b 0a 3d
       -0.07969638 0.07985913 0.14821632 0.033747714
000300 26 b6 3f be 31 d1 05 be 7e b6 bb 3b e2 4a e7 3b
       -0.18721828 -0.13068081 0.005728542 0.0070584873
000310 23 be 35 be f8 d9 b7 3d 8f 94 0a bd 1a a6 3a 3c
       -0.17748313 0.08977121 -0.033833083 0.011392141
000320 f6 6e 39 3c c3 47 19 3d b3 28 25 bd 2f e7 e8 bd
       0.011317959 0.037421953 -0.040322017 -0.1137222
000330 01 8d f4 3d 10 84 4b 3d d4 f4 88 3d cb 61 d7 bc
       0.11940957 0.04968649 0.06687322 -0.026291749
000340 c2 a4 9c bd d7 4b 01 bd 4e 0f 0c bd 81 82 ec bd
       -0.076486126 -0.031566467 -0.034194283 -0.11548329
000350 50 5d 2b be 93 0d 4a 3d b6 95 6a 3d de 70 97 bc
       -0.16734815 0.04932935 0.05727168 -0.018486436
000360 6a 24 bb bd b3 b2 1c be b8 9c 30 be 04 dd 69 bd
       -0.09137805 -0.15302543 -0.17247283 -0.057095543
000370 d2 e2 04 3d eb d5 82 3d 15 27 d5 3c 8d 23 d9 bd
       0.032442875 0.06388458 0.026019612 -0.10602484
000380 b4 82 35 be e3 21 9f 3d a4 93 53 3d 68 0d 6a 3d
       -0.1772564 0.07770135 0.051654473 0.05714169
000390 da b1 02 be e3 e9 d0 3d bb 16 f1 3d a1 87 62 3c
       -0.12763157 0.1020086 0.117719136 0.013826282
0003a0 2a 21 af 3d b2 b6 88 bd 3f df 06 3c bc 85 83 3c
       0.085512474 -0.06675471 0.008231937 0.01605498
0003b0 98 0a 75 ba 38 41 e7 bd 7c 4a 09 be 9e 21 51 3c
       -0.0009347587 -0.11291736 -0.1340732 0.012764363
0003c0 7d 6f 51 be 6b f0 d9 3d de 5e ff bd 08 16 09 bc
       -0.20452686 0.10641559 -0.12469266 -0.008367069
0003d0 1f bc cc 3c a2 46 d5 bc 5a b2 d9 bd 8d b6 17 3d
       0.024992047 -0.026034657 -0.10629721 0.03703933
0003e0 ff fa 9f 3d 78 84 0a be 0b e0 bc 3d 53 02 63 3d
       0.078115456 -0.13527095 0.0922242 0.05542214
0003f0 00 c2 d8 3d b2 86 87 3c 11 94 71 3d f7 98 b5 bb
       0.105838776 0.01654372 0.058979098 -0.0055419165

lstm.weight_ih_l1 f4 [256, 64]
000000 1b dc 02 be 20 a2 b7 3d db ae 58 bd 7d b9 a3 bd
       -0.12779276 0.0896647 -0.05290113 -0.079943635
000010 c0 b7 30 bd d1 ad a8 bd bf 78 e0 3d b8 de c6 3d
       -0.043143988 -0.08236278 0.109605305 0.09710449
000020 f5 d9 ba 3d 99 eb 1a 3e 5e 2e a0 be 34 50 ed 3d
       0.09123603 0.15128936 -0.31285375 0.11587563
000030 a9 ab a1 be 89 31 53 3c b7 ad 9d 3d ec e2 ba 3d
       -0.3157628 0.012890228 0.07699149 0.09125313
000040 a2 95 3d bd 90 7c 7f 3d 71 5f 60 3e e1 86 0f 3e
       -0.04628528 0.06237465 0.21911408 0.14016296
000050 49 66 d4 bd 9e 5c 60 be 38 63 a8 bd b7 2a 9e bd
       -0.10371072 -0.2191033 -0.082220495 -0.07722991
000060 bc 2d fc 3d 9f ad 53 3c 3a 08 11 be a7 d1 31 be
       0.12313411 0.012919812 -0.14163294 -0.17365132
000070 93 51 13 be 15 57 8d 3d 4e 07 ae 3d fd ba 3e 3e
       -0.14386587 0.06901375 0.08497487 0.18626018
000080 3a 56 14 be 91 86 8c bd de 66 1b be e9 13 67 3d
       -0.14486018 -0.06861604 -0.1517596 0.056415472
000090 af e2 b4 3c 0d 0c d3 bd 74 76 d4 3d 69 59 15 3d
       0.022080747 -0.10305033 0.10374156 0.03646222
0000a0 d6 4e 36 be 1d c6 8e bd fc ac 28 be d5 4f 43 3e
       -0.17803511 -0.06971381 -0.16472238 0.19073422
0000b0 a5 63 54 3d 12 30 e4 3c ac 33 dc bb 41 b3 f7 bc
       0.05185284 0.027854953 -0.006720027 -0.030236842
0000c0 dd 43 5a be ea 74 63 bd 23 67 18 3e 85 7d fd bd
       -0.2131495 -0.05553142 0.14883094 -0.123774566
0000d0 d6 3a 14 be 2d 3a 1c 3e 6b f0 c6 3d 47 14 6d 3d
       -0.14475569 0.15256567 0.09713825 0.057880666
0000e0 90 31 90 be dd 36 38 be 90 63 6f 3e 75 09 cf 3c
       -0.28162813 -0.17989679 0.23377824 0.025273064
0000f0 6a 09 1f 3e 3d 0a d8 3d 54 6d b5 3e 2b db bf 3b
       0.15530935 0.10548828 0.35434973 0.0058549843
000100 b5 44 15 3d d7 d0 57 bc b6 49 36 3d e2 65 b8 bd
       0.036442477 -0.01317235 0.04450389 -0.090038076
000110 e3 34 70 3d 59 c7 b1 bd 5f 48 15 be 27 ba 0e 3d
       0.058644187 -0.08680601 -0.14578389 0.034845497
000120 26 7d fa 3d b4 34 27 3e b6 b3 8b bc 73 f4 86 3d
       0.122309014 0.16328698 -0.017053466 0.06589594
000130 38 a4 c5 bd 87 ec f3 bd 25 2f 17 3e 18 71 b5 3d
       -0.09650463 -0.119103484 0.14764078 0.088594615
000140 e7 5b 7c 3d ae ab aa 3d 02 fc 59 bb 74 9f 97 3d
       0.061611082 0.083335266 -0.003326178 0.0740346
000150 13 f9 26 be d6 f1 1e be ee 7d ae 3d 4c b6 9d bd
       -0.16305952 -0.1552194 0.08520113 -0.07700786
000160 a9 65 af 3d 49 d9 26 3d d4 9c 05 3e 4d 4a d4 bd
       0.08564312 0.040734563 0.13048106 -0.10365734
000170 e0 34 fd bd 18 9d d8 3d eb 42 a7 3d 33 65 b8 bc
       -0.12363601 0.10576838 0.081670605 -0.022509193
000180 23 9f 8d 3d 0b ca 06 3d 36 9e 44 3e 5e 0b 61 bc
       0.069151185 0.032907527 0.19200978 -0.01373562
000190 0b cb dc bd 27 6e 02 be ac 83 8e bd ee a5 38 bd
       -0.10780915 -0.12737332 -0.06958708 -0.045080118
0001a0 f9 a9 9d bc 02 18 0d 3e 3a 69 77 bd 8b 40 9d 3c
       -0.019246088 0.1377869 -0.060403086 0.019195816
0001b0 7c 9b a2 bc 09 68 cb 3d b5 55 69 3d 71 32 c2 bd
       -0.019849531 0.099319525 0.056966502 -0.09482277
0001c0 66 d2 94 bd 32 5c 25 3e 25 f0 ee bc 0b a5 df bc
       -0.07266693 0.16148451 -0.029167244 -0.027300378
0001d0 c8 95 0b 3d 96 81 71 bd 87 93 bc bd 9c 67 bb 3c
       0.03407839 -0.058961473 -0.09207826 0.022876553
0001e0 4e bb 15 be 11 0a 04 3e 41 2f 9b 3d 10 24 cc bd
       -0.14622232 0.12894465 0.07577372 -0.09967816
0001f0 23 33 4c 3d 9e 44 49 3d d2 1d 50 3d 18 72 0d 3e
       0.049853455 0.049137704 0.05080969 0.13813055
000200 9e b9 80 3d 25 fd 29 3d 21 39 86 3d 33 df 39 bd
       0.06285404 0.041501183 0.06553865 -0.045378875
000210 d0 56 d7 bd 84 0a 4d 3d a8 2c d7 3d f1 1d 45 bd
       -0.10514605 0.050058857 0.105065644 -0.048124257
000220 13 9c ce 3d 0c 00 9f bd 47 95 05 be 32 93 61 bb
       0.100883625 -0.07763681 -0.13045226 -0.003442001
000230 6c c8 ff bb 69 08 05 3e cc 3c 1e 3e 46 63 07 3d
       -0.0078058746 0.1299149 0.1545288 0.03305366
000240 ab 5f 31 3d d9 eb da 3d 59 11 cb 3d 31 ea f5 3c
       0.043304127 0.106895156 0.09915418 0.030018898
000250 01 52 be bd 16 8a b4 3d a6 31 56 3c a9 2a 67 3c
       -0.09292985 0.088154 0.013073361 0.014109292
000260 38 6c ae 3d f5 46 cf 3d 6a 70 9e 3d 37 d3 fb bc
       0.08516735 0.10120956 0.07736285 -0.030740364
000270 bc 60 ea bd 19 57 2e 3d 9a d4 85 bd 96 0e 8b be
       -0.11444232 0.04256353 -0.06534691 -0.27159566
000280 4d 70 03 bd 54 18 8a 3d 0b c5 1b 3c 56 be c8 3d
       -0.03208952 0.067429215 0.009507428 0.09801929
000290 fb b1 7c 3c fa 3e d7 bd bf dc c3 bd 56 09 05 3e
       0.015423293 -0.10510059 -0.09563588 0.12991843
0002a0 6d e3 4f 3d 39 aa 4b bd 0a 5c 58 3d a8 37 a0 3d
       0.050754 -0.049722884 0.05282215 0.078231156
0002b0 80 c3 af 3d 6d 5b 25 3e 9e 9d e4 bb db ba 39 3b
       0.085822105 0.16148157 -0.0069767972 0.0028340134
0002c0 1e 59 a4 bc 8e c1 8c 3c 04 1d f6 3d 8a e3 5b 3e
       -0.020062026 0.017182138 0.12017253 0.21473518
0002d0 60 d2 ce bd 37 22 8e 3d 4d e1 00 3e 73 16 75 3d
       -0.100987196 0.0694012 0.12585945 0.059835862
0002e0 9a 9e 3c be fe 11 81 bd 2e 35 4c 3e 02 80 81 3c
       -0.18419877 -0.0630226 0.19942161 0.01580811
0002f0 d4 f5 17 3e 10 a4 4f be 6b 37 bd 3d 4f cf 1f 3d
       0.1483987 -0.20277429 0.09239086 0.039016064
000300 f9 ab 6e 3d cb 87 1a be c5 9e ff bd 76 f6 c1 bd
       0.058269475 -0.15090863 -0.12481455 -0.09470837
000310 d2 90 c5 bd 6b 3f e5 bd 72 21 0a 3b ee fd 22 3e
       -0.09646763 -0.11193737 0.0021077064 0.15917179
000320 4e 03 99 3b b4 3a 19 3e 05 eb c7 3c 4f 9b 36 3d
       0.0046695834 0.149638 0.024404058 0.044581708
000330 19 7e 29 be ec b9 91 bc 9c a6 44 3c a9 39 51 bd
       -0.16552009 -0.01778885 0.012002613 -0.05108038
000340 86 3e 81 3d 9d ed cc 3d cd 16 26 bc 8e bc 42 bd
       0.063107535 0.10006259 -0.010137272 -0.0475431
000350 e2 fa d8 bd f2 b3 92 3d 74 69 8c 3d 85 38 95 bd
       -0.10594727 0.07163228 0.06856051 -0.07286171
000360 38 02 3a 3d 96 35 1f be a1 72 0b 3d 6b 3b 32 be
       0.045412272 -0.15547785 0.034044866 -0.17405479
000370 e4 f9 9b bd 17 79 0a 3d 51 2e 19 3c 1e 1a 0f bd
       -0.07616022 0.033806887 0.009349422 -0.034937017
000380 53 ae 86 bd 77 8a f8 bc 61 b9 31 3e 63 5b 0c 3d
       -0.065762185 -0.030339463 0.17355873 0.03426684
000390 c4 3e 2a be 7e 11 38 3d 20 21 62 3d 0b 25 e1 bd
       -0.16625506 0.044938557 0.05520737 -0.109933935
0003a0 9c 58 c1 3d d5 e7 fa bc e4 7b ea bc 3a 95 b7 3c
       0.09440729 -0.030628124 -0.028623529 0.022410024
0003b0 2a 28 9b bd 44 5d 4f bd e7 9d e9 3c fd 5d dd bd
       -0.0757602 -0.050626054 0.028517677 -0.108089425
0003c0 13 4a 1b 3e 79 d2 93 3d db 23 81 bd 23 35 a9 bd
       0.15164976 0.07217879 -0.06305667 -0.08262088
0003d0 b6 c5 4e bd 17 f0 28 3e ee 4c 28 bc 68 65 16 3e
       -0.05048152 0.16497837 -0.010272248 0.14687121
0003e0 58 3d 14 be b4 4e 00 3d 9c bb 09 3d 58 48 d3 bd
       -0.14476526 0.031325057 0.033626184 -0.10316533
0003f0 91 b5 bb bb 53 dd 95 bd 1b 1d bd 3d 75 08 8e ba
       -0.0057284315 -0.07317605 0.09234067 -0.0010836261

lstm.weight_hh_l1 f4 [256, 64]
000000 ed 6a 2c be 37 18 bb bd 7e 2a 50 3d 78 c4 fb 3c
       -0.16837664 -0.09135478 0.050821774 0.030733332
000010 f6 a4 e3 3d 00 99 f6 3c 84 90 ef 3c 87 40 db 3c
       0.11115448 0.030102253 0.029243715 0.026764167
000020 b9 a6 9c bd 4b ba 76 3d c0 3b 5a bd eb 20 d5 3d
       -0.07648987 0.060236257 -0.05327964 0.10406669
000030 26 72 94 bd 74 8e f8 bd 92 51 56 3d ae 4d 2e be
       -0.072483346 -0.12136546 0.052323885 -0.1702182
000040 cf cb 8d bc ee 8c e4 bd 27 e6 6b 3d b4 09 c3 3d
       -0.017309098 -0.11159693 0.057592537 0.09523335
000050 f9 13 7c 3e 22 ec ae 3d cb 6c 17 be 92 40 60 bd
       0.24616994 0.085411325 -0.14787595 -0.05474908
000060 97 db 33 bd 7b f0 53 bd ec 77 3a be 64 42 3b bd
       -0.04391059 -0.051743012 -0.18209809 -0.045717612
000070 29 04 8e 3d 1f 55 53 3c da eb f5 3d 5b 9c 5e bc
       0.06934387 0.012898712 0.12007876 -0.013587083
000080 59 73 19 be 3c 7d bd bd 33 c8 35 bd 01 96 c1 3c
       -0.14985408 -0.09252402 -0.044380378 0.023631098
000090 c0 f2 95 3c a2 6c 4e 3d 19 88 b2 3b 84 91 21 3e
       0.018304229 0.05039657 0.005448353 0.15778166
0000a0 dd 6b 91 3a a0 21 88 3d 42 65 30 3e 31 6a fa 3d
       0.0011094768 0.066470385 0.17226127 0.12227286
0000b0 55 3c aa b9 67 f7 d0 3d 08 d4 15 3d de 25 49 3d
       -0.00032469878 0.10203438 0.036579162 0.04910838
0000c0 c9 8a f1 3d dc 6a 96 3b eb 87 d2 3d ef 8d 64 3b
       0.11794049 0.0045903753 0.102798305 0.0034874638
0000d0 1d b3 49 bd 63 ab 3f bd 03 96 45 bd a6 e6 9e bd
       -0.04924308 -0.046794306 -0.048238765 -0.077588364
0000e0 23 a9 13 3d 68 45 e9 3d 1d a6 dc 3d 55 fa b5 3c
       0.036049973 0.11390191 0.10773871 0.022214094
0000f0 27 36 59 3e 54 6a 28 bd ce c6 14 3c 74 04 08 bb
       0.21212064 -0.041117027 0.009080602 -0.0020754607
000100 34 4f b3 3c 58 71 01 3d 68 31 ff 3d e1 d7 24 be
       0.021888353 0.031602234 0.12460595 -0.16097976
000110 1b 5d 85 bc 25 9b aa bd a0 5a 98 3d ef 15 8f 3b
       -0.016279748 -0.08330373 0.0743916 0.0043666284
000120 01 ec 1c 3e 5b c7 67 3d 65 60 02 be ef 29 2b 3b
       0.15324403 0.056586605 -0.12732084 0.0026117524
000130 bb b2 06 3e 55 f2 07 bd 51 82 9a 3d b6 b9 31 bd
       0.13154118 -0.03319009 0.07544387 -0.04339
000140 cd 47 23 3e 00 b0 89 3a 40 92 8f bd 06 24 9a bd
       0.15945359 0.0010504723 -0.07010317 -0.07526402
000150 a8 b0 fb bd cb 18 05 be 0e 85 8c bd 04 0c 23 3e
       -0.12289554 -0.12997739 -0.06861316 0.15922552
000160 7b 7d 79 3d 17 91 50 3d a9 da 45 bd 70 13 ca 3d
       0.060910683 0.05091962 -0.048304234 0.09866989
000170 13 56 80 3c bd 81 28 bc 6e 54 d1 3a 53 9c 83 bd
       0.015666043 -0.010284838 0.0015970597 -0.06426301
000180 8c 20 b0 bd bc 25 99 bd cf b2 80 bd 7e fd 68 bd
       -0.08599958 -0.074779004 -0.06284105 -0.056882374
000190 2d a0 6b 3b 40 94 76 b9 8c 9b 8a bc 60 d0 62 bd
       0.0035953627 -0.00023515616 -0.016919874 -0.055374503
0001a0 b9 71 e2 3c 64 32 9e bc fb 59 70 bd 85 b0 4b be
       0.027642118 -0.019311137 -0.058679562 -0.19891556
0001b0 54 85 ec 3d 43 36 f9 bd e8 de 24 3e c7 50 8e bd
       0.11548868 -0.12168553 0.16100657 -0.06949001
0001c0 bd 9c 82 3d 10 ee f1 3c d6 41 d4 bd 39 e9 cf bd
       0.06377552 0.029532462 -0.1036412 -0.101519056
0001d0 fe 79 e3 bd 26 cf f5 3d f7 a2 03 3d a6 c5 f6 bd
       -0.111072525 0.12002401 0.032137837 -0.12049417
0001e0 bd a1 14 3e 82 b6 c2 bc 7a d9 2e bd 6f 17 21 be
       0.14514823 -0.023768667 -0.04268787 -0.15731595
0001f0 28 bc 05 bd ff e7 98 3d b3 95 65 bd 73 cc 13 bc
       -0.032650143 0.07466125 -0.056050967 -0.009020912
000200 32 9c dd 3d 47 c3 2f bd 37 cc 02 3e 29 82 32 bd
       0.108208075 -0.04291084 0.12773214 -0.04358116
000210 a4 38 c4 3c 42 3b 46 bd 68 10 18 be 7a 93 19 bd
       0.02395279 -0.048396356 -0.14850008 -0.03749416
000220 d5 b6 b9 bd 4c 24 3e 3d 39 8d b0 bd 12 7b 66 3d
       -0.090680756 0.046421334 -0.08620686 0.056269713
000230 f2 ae 28 3a bf 17 47 be c9 9a 41 3d 29 41 57 be
       0.000643476 -0.19442652 0.047266755 -0.2102095
000240 e0 6d ad bd b5 b2 a0 bc 67 22 a6 3b 46 f4 58 3d
       -0.084682226 -0.019616464 0.005070019 0.052967332
000250 9e db 98 3d 7a 46 a3 bd 6f bf 1d bd 22 0a 2a bd
       0.07463764 -0.07972427 -0.038512643 -0.04151357
000260 17 a2 82 3d e1 1b 00 be 1d 00 a4 3d 8e 7f 6a bd
       0.063785724 -0.12510635 0.08007834 -0.057250552
000270 b7 2f 8e 3d f9 13 35 3c da d0 26 3c 63 9b e1 bd
       0.06942695 0.011052125 0.01018163 -0.11015966
000280 0f 0a ce bd 40 a0 65 3d 6d 20 03 be b6 67 26 3b
       -0.10060512 0.05606103 -0.12805338 0.0025391406
000290 a5 49 15 be 50 97 dc bc 05 88 a8 3d 50 84 02 3e
       -0.14578874 -0.02692762 0.08229069 0.12745786
0002a0 1d ea 1c be c7 96 eb bd 4c bc 9f 3d 69 50 71 3d
       -0.15323682 -0.11503368 0.07799587 0.058914576
0002b0 67 c3 52 bc 53 65 4b bd ef f1 37 3d f1 87 e9 3d
       -0.01286397 -0.049657177 0.04490846 0.11402882
0002c0 02 93 4d 3e fb 76 1d 3e 90 4a 0f 3d eb 93 15 3e
       0.2007561 0.15377419 0.034983218 0.14607207
0002d0 ef 9b 95 bd 51 d0 af 3c 44 5b 41 3e 7e 9a 12 3e
       -0.073051326 0.021461638 0.18882471 0.14316747
0002e0 31 2d bc bd 2a da eb bd 09 34 01 be ee 96 d3 3c
       -0.09188307 -0.11516221 -0.12617506 0.025828805
0002f0 92 6e 17 3d 69 6b 2e 3d 5e 7f cb 3c d0 d4 b5 bd
       0.036970682 0.042582903 0.024841007 -0.088784814
000300 1d 5d 07 bd fd 21 cd bb 0b ad 0b 3e 83 37 60 bd
       -0.033047784 -0.0062601552 0.1364023 -0.05474044
000310 bc fd 63 3d 1e 5b 22 be 8c c3 18 3e 9e 0e 69 bd
       0.0556619 -0.15855071 0.14918345 -0.056898706
000320 3d f5 2b 3e 2d de 05 be d5 a4 1b bc 18 b1 d5 3d
       0.1679277 -0.13073035 -0.009499748 0.104341686
000330 8d f7 c1 bb 1a dc ab 3d 16 11 1a bd 8b bb 17 3e
       -0.005919403 0.083915904 -0.03761395 0.14817636
000340 d9 ab 41 3d 60 2a 46 3e b9 d4 c6 bd 86 2b 1d 3c
       0.047283027 0.19352102 -0.097085424 0.009592896
000350 2d 34 ce bd 9e 14 3a bd b4 42 49 bd 34 85 bc 3d
       -0.100685455 -0.04542982 -0.04913588 0.09205094
000360 4b 5a 7c 3d 9c 4a 29 3e cf 00 c5 bd 7e e0 69 3d
       0.061609548 0.16532367 -0.09619295 0.057098858
000370 eb 92 90 3d 41 c7 f6 3d b3 57 2c be 62 6f 14 bd
       0.070592724 0.120497234 -0.1683033 -0.036239035
000380 a2 f9 2e be a0 27 8e bc b2 25 19 3e 14 e6 0f be
       -0.17087415 -0.017352879 0.14955786 -0.14052612
000390 ef a3 bf 3d cc 9d 90 39 06 5e e1 bd 2f c5 33 bb
       0.0935744 0.00027583388 -0.11004262 -0.0027430763
0003a0 59 ab 2e 3e 78 05 b4 3d 70 dc c7 bd 86 b1 3d be
       0.17057551 0.087901056 -0.09758842 -0.18524751
0003b0 a9 b7 80 bd 25 22 66 3d 7e 79 0c bc a4 e4 d9 bd
       -0.062850304 0.056184907 -0.008573888 -0.10639313
0003c0 87 33 af 3b d8 0a 92 bd de f5 60 3d bd c2 a6 3d
       0.0053467187 -0.071309745 0.054921977 0.08142612
0003d0 d5 2f 9a 3c d0 f1 ac 3c d0 d0 1e 3d 2f d0 81 3d
       0.018821636 0.021111399 0.038773358 0.06338536
0003e0 50 54 9e 3d ec 9d 44 be f7 88 1f 3e 1f 06 ff bc
       0.07730925 -0.19200867 0.15579592 -0.031130848
0003f0 be c0 e9 bd 1c 61 f2 bd 98 df 30 bd 93 39 91 3c
       -0.11413716 -0.118349284 -0.043181986 0.017727649

lstm.bias_ih_l1 f4 [256]
000000 8c e5 d3 3d 89 e7 17 bd d7 08 af 3c b5 c6 ed ba
       0.10346517 -0.037086044 0.02136652 -0.0018140884
000010 e9 fc d3 bd fe 59 6b 3d 75 97 5b 3d 02 e3 f6 bd
       -0.10350973 0.05745887 0.053611238 -0.12055017
000020 f0 20 dc 3a 5f 8f da bd 29 eb 0c be e2 15 fe bd
       0.0016794484 -0.10671877 -0.13761581 -0.124065176
000030 14 09 62 bd 47 30 9a bb 43 e1 bf bd ce 9a 1a be
       -0.05518444 -0.004705462 -0.09369137 -0.15098116
000040 10 b3 9c bd de 96 47 3d 3e 36 d5 3c 99 aa 1d be
       -0.07651341 0.048727863 0.026026841 -0.15397109
000050 f5 87 9f 3d 12 0f a6 bd be 4c 10 bd 16 34 59 3d
       0.077896036 -0.08108343 -0.035229437 0.05302819
000060 98 b1 bd bd ff 37 73 3d 63 a8 b2 bb f6 8f 2c bc
       -0.09262389 0.059379574 -0.005452202 -0.01053237
000070 32 a7 49 be 6f cd 04 be b5 ee 29 be 7d 38 54 3c
       -0.19692686 -0.12968992 -0.16594966 0.012952921
000080 08 4d d6 bd 1c 5c b7 bc e5 cc bc bb 51 a5 e1 bd
       -0.10463911 -0.022382788 -0.00576173 -0.1101786
000090 e5 3a 91 3d 45 d3 0a be 41 5f 82 3d fa 2c 59 be
       0.07091311 -0.13557155 0.063658245 -0.21208563
0000a0 b3 00 1f 3d c5 bf 9c 3d 42 d2 02 be 25 f7 ae 3c
       0.038819026 0.07653765 -0.1277552 0.021358082
0000b0 c2 7f c4 bd dc 8a 96 bd ff d2 75 3c c0 f1 90 3c
       -0.0959468 -0.07350704 0.015003919 0.0176934
0000c0 43 1b 10 3d f1 5b 47 bd ea 20 9b bc 61 37 03 be
       0.03518225 -0.048671667 -0.018936593 -0.12814094
0000d0 4f f2 fe bd 18 01 29 3d 7f 31 22 3d a1 44 a4 3c
       -0.124485604 0.04126081 0.039597984 0.020052256
0000e0 8a d5 c4 bd 7d c5 a0 3d 53 97 17 be 1d a3 0a be
       -0.09611042 0.07850168 -0.1480382 -0.13538785
0000f0 76 bc e4 3d 8e 2d d5 bd 28 74 44 3d 07 bf b4 bd
       0.111687586 -0.104090795 0.047962338 -0.08825498
000100 f4 c1 0b be d8 8d a4 bc 80 f9 19 bd 11 03 8a bd
       -0.13648206 -0.020087168 -0.037591457 -0.06738866
000110 55 0c 5a be 30 1a da 3d ce 1b 08 be e2 85 39 bd
       -0.21293767 0.10649526 -0.13291857 -0.045293696
000120 88 86 b3 3c b9 30 1c be 7f 8b 5b bc b4 fb 26 bd
       0.021914735 -0.15252961 -0.013399958 -0.040767387
000130 b3 02 00 be 03 5d 29 be 16 4f 8e 3c f5 24 2d be
       -0.1250103 -0.16539387 0.017371695 -0.16908629
000140 65 9b 4c bc f2 90 cd bd 1f 1d 1d be 7b ed 98 3d
       -0.012488221 -0.10037412 -0.1534314 0.07467171
000150 d5 3d e7 3d 02 25 cd bd 1f 52 8f 3d ec 26 a1 bb
       0.112910904 -0.10016824 0.06998085 -0.00491797
000160 7a 3b 2f bd f4 1d 67 bd 7e 2e 1a be 1c c4 0c bd
       -0.04278133 -0.05642505 -0.15056798 -0.034366712
000170 4a c6 e1 bd 05 c0 c6 bd 03 5d 02 bd 9f c5 e0 bc
       -0.11024149 -0.097045936 -0.031826984 -0.027437983
000180 d6 30 0e 3d e0 78 20 be 84 75 24 3d 7e 3a f8 bd
       0.034714542 -0.1567111 0.040151134 -0.121205315
000190 89 5b 1f be 32 ab 16 be 3a a5 20 bd 39 7e 2b be
       -0.15562262 -0.14713743 -0.039220072 -0.16747369
0001a0 83 6e 22 be 04 2d 1f be b7 9a 92 bd d5 b9 13 3b
       -0.1586247 -0.15544516 -0.07158416 0.0022541184
0001b0 0f 6f d1 bd 3f 6e ec bd c0 3d 93 3d ab 70 b0 bd
       -0.10226261 -0.11544465 0.07189512 -0.0861524
0001c0 41 e5 ea bd fd 3c 21 3d 28 2a 9e bd 12 03 db bd
       -0.11469508 0.039364804 -0.077228844 -0.10693945
0001d0 2c 1b 07 3d 38 98 e3 3c 53 33 18 be 71 c5 1d 3d
       0.032984897 0.027782544 -0.14863329 0.038518373
0001e0 f8 ba 45 3d a6 5b 81 bd af 0e 05 3d 3b f3 87 3d
       0.04827401 -0.06316309 0.032484706 0.066381894
0001f0 8d 86 91 3d 44 68 af bd d7 52 a9 bd 71 6d 76 bd
       0.07105742 -0.08564809 -0.082677536 -0.060162965
000200 77 5a b0 3d 84 73 eb bd 74 5b 1d be 45 82 f0 bc
       0.08611005 -0.11496642 -0.15366918 -0.029358992
000210 e2 cb 8f 3d 96 53 47 3d b6 45 a2 3d 7d fb 1d 3e
       0.070213094 0.048663698 0.079234526 0.15427966
000220 94 a0 ef bc bf 6c 0e bd 3e e1 14 be 05 b2 b7 3c
       -0.029251374 -0.034771677 -0.14539048 0.022423754
000230 21 e7 be 3c 3e 8f c9 3d 3b 14 b8 bd 83 62 b0 3d
       0.02330357 0.098417744 -0.08988234 0.086125396
000240 ea fe 11 3e 82 c9 2f 3d 74 71 46 bd ff 91 19 3e
       0.14257398 0.042916782 -0.04844804 0.149971
000250 2f 2b fa 3d d2 17 0f bc ea f8 87 bd 7f 79 98 bc
       0.12215268 -0.008733707 -0.066392735 -0.018612621
000260 a7 ce d3 3d 3d 8f a7 3d ce 6d e5 bd 9f b7 cd bc
       0.1034215 0.081816174 -0.11202584 -0.025111971
000270 1b e2 f4 3d 80 84 80 3d d0 3e a0 3d d3 83 8b 3d
       0.11957189 0.06275272 0.078244805 0.06812253
000280 0e b3 bf 3c 49 c4 91 3d 01 c7 cd 3d 2e c4 a9 bd
       0.02340081 0.071175165 0.100477226 -0.082893714
000290 69 ed 81 bc 9e 13 54 3e 20 4d 2d 3e 99 e0 1f 3e
       -0.015860276 0.20710608 0.16923952 0.15613021
0002a0 83 01 0f 3e 63 78 6e bd 23 2e c3 bd e6 da 7d 3c
       0.1396542 -0.05822028 -0.09530284 0.015494084
0002b0 0c 35 2c 3e da db e1 bc 49 1b 36 be 79 3a 22 bc
       0.16817111 -0.027570654 -0.17783846 -0.009901636
0002c0 d2 5c 4a 3d f6 c7 4d 3c e2 43 07 3e 8f 66 c2 3b
       0.049404927 0.012559881 0.13209489 0.005932636
0002d0 89 2b f8 3c 50 bf 80 3d be a2 a0 bc 4d 4b ed bd
       0.030294197 0.0628649 -0.019608852 -0.11586628
0002e0 e6 58 37 bd 74 da 17 bd c0 f0 26 3e e7 84 97 3d
       -0.044762515 -0.037073568 0.16302776 0.07398396
0002f0 fe a2 02 3e 8e 21 80 bd 9a ba c5 bc 26 49 ca 3d
       0.12757489 -0.062564 -0.02413683 0.09877233
000300 82 45 97 bd 97 93 95 3c 62 32 fb bd 57 0e 3e 3d
       -0.073863044 0.018258853 -0.12265469 0.046400394
000310 02 38 04 bc fd 4a 9a bd 95 52 87 3c ac 07 88 3d
       -0.008069994 -0.07533834 0.01651887 0.06642088
000320 c3 8b 47 3d 73 04 e6 bb b1 d1 e4 3a fd ca 43 be
       0.04871727 -0.0070195734 0.0017457512 -0.19120403
000330 83 5f 51 3d ba 62 8a bd c2 40 98 ba 9f 40 fc 3c
       0.051116478 -0.06757112 -0.0011615979 0.030792532
000340 03 7d 57 3d 16 33 cd 3b bb 0e 25 3d 5f 9e 9a 3d
       0.052609455 0.0062621934 0.04029725 0.07549738
000350 80 20 8a bd cc 25 37 bd c9 28 08 be 38 1a fb bd
       -0.0674448 -0.04471378 -0.13296808 -0.1226086
000360 1b 07 0a 3d 8c 9e 93 bd 3f 15 ce 3c e6 e9 f8 3d
       0.033698183 -0.07207975 0.025156615 0.121539876
000370 f5 15 7a bb 88 3f a9 bb 0e b9 40 3c b9 c9 ae 3c
       -0.003816006 -0.005165044 0.0117628705 0.021336423
000380 70 f0 1c be aa f4 0f be 7e 44 31 3d e4 34 b6 bd
       -0.15326095 -0.14058176 0.04327821 -0.08896807
000390 64 a9 0e 3d 92 0d ec 3c f7 64 2c 3d 6e 7b d3 bd
       0.034829512 0.028815065 0.042088475 -0.10326277
0003a0 93 0e 0a bc 86 0d 2b be 42 c4 ba bc f3 c2 94 3d
       -0.008426326 -0.16704378 -0.022798661 0.07263746
0003b0 a3 78 d3 bd 95 49 20 3d e6 32 92 bd 92 4a 1b 3b
       -0.10325744 0.039132673 -0.07138614 0.002369557
0003c0 ee b1 70 bd da aa 8c 3d a2 16 7a bd 9c 85 64 bc
       -0.058763437 0.06868525 -0.06105674 -0.013947871
0003d0 b9 b5 48 bb 80 08 3a bd 01 4b 2a be e4 c4 98 bc
       -0.0030625893 -0.045418262 -0.16630174 -0.018648572
0003e0 50 d6 89 3b d9 ea ab bd f1 ef 8c 3d fc 69 99 3d
       0.0042064562 -0.08394403 0.06881703 0.07490918
0003f0 fb 94 da 3d e5 e4 09 be 91 93 16 be 66 6e b1 bd
       0.10672947 -0.13466223 -0.1470473 -0.08663635
