Competition/TrainAI/model/s70/model_weights_1.pth (torch, 241895 bytes, 10 tensors)

lstm.weight_ih_l0 f4 [256, 36]
0	0xbd7fde58	-0.062467903
1	0x3e27e0a3	0.16394286
2	0xbe7c1fbd	-0.24621482
3	0xbdac778f	-0.084212415
4	0xbdcb0548	-0.09913117
5	0xbe1e993d	-0.15488143
6	0xbdd23db8	-0.10265678
7	0x3c91edcc	0.017813586
8	0xbe2b5cc4	-0.16734606
9	0x3cb9195d	0.022595102
10	0x3e3293b3	0.17439155
11	0x3ddb5f6d	0.107115604
12	0x3d6402e6	0.055666827
13	0xbc3eab53	-0.011637527
14	0xbdc3fde9	-0.09569914
15	0x3e80008b	0.25000414
16	0xbdbbb65d	-0.091656424
17	0x3e97c31f	0.29641053
18	0x3d044345	0.032290716
19	0x3e158fba	0.14605609
20	0x3d62107d	0.055191506
21	0x3d130fba	0.03590367
22	0x3daa5392	0.08316721
23	0xbd5ac648	-0.053411752
24	0x3df8c759	0.121473975
25	0x3da959dc	0.082690924
26	0xbd992dfa	-0.074794725
27	0x3e5fe853	0.21865968
28	0x3e1e097d	0.15433307
29	0xbc057249	-0.0081449235
30	0xbc685e51	-0.014182643
31	0xbb9f5fa2	-0.0048636952
32	0xbe113304	-0.14179617
33	0xbc2368c6	-0.00997371
34	0xbde8851f	-0.11353516
35	0x3c364522	0.011124881
36	0xbe670940	-0.22562122
37	0x3e31e871	0.17373826
38	0xbded2d32	-0.11580886
39	0xbd07938e	-0.033099703
40	0xbdbec7fd	-0.093154885
41	0xbc1fed04	-0.009761099
42	0x3dc02200	0.09381485
43	0xbe36b8f4	-0.17843992
44	0xbe12573e	-0.14291093
45	0x3dde681c	0.10859701
46	0x3d6d7144	0.057969347
47	0x3d3ef637	0.046621528
48	0xbd27242b	-0.040805977
49	0xbdb22136	-0.08697741
50	0xbd07a6f3	-0.0331182
51	0xbdae327d	-0.085057236
52	0xbc1a13f6	-0.009404173
53	0xbd9423ed	-0.07233415
54	0x3e20cac9	0.15702356
55	0x3df1f8e6	0.11815052
56	0xbd980b8c	-0.074240774
57	0xbe4784b2	-0.19484213
58	0xbd6e4308	-0.058169395
59	0xbdd91bfb	-0.1060104
60	0xbd4697f5	-0.04848476
61	0xbdbb01f1	-0.0913123
62	0xbe216cf3	-0.15764217
63	0x3d7a2096	0.061066233
64	0xbdcae348	-0.09906632
65	0xbdaa811c	-0.08325407
66	0xbb298b61	-0.002587043
67	0x3ca76a6d	0.02043649
68	0x3c0a30cf	0.008434488
69	0x3e40f1d4	0.1884225
70	0x3dae1b84	0.08501342
71	0x3d9ca44d	0.076485254
72	0x3dc1ce39	0.09463162
73	0x3ce0fda4	0.027464695
74	0x3d7c2156	0.06155523
75	0xbd63d664	-0.05562438
76	0xbdae7e67	-0.08520203
77	0xbdfd23ff	-0.12360381
78	0x3becc3a5	0.007225471
79	0xbc2dfd14	-0.010619421
80	0xbc0b1db1	-0.008490966
81	0xbe1617d3	-0.14657526
82	0x3d1ae9b2	0.037820525
83	0x3e546d9a	0.20744935
84	0xbd84ca37	-0.06483882
85	0xbe0ff9ed	-0.14060183
86	0x3cfefaeb	0.031125506
87	0x3e191bc3	0.14951997
88	0xbe19d6a5	-0.15023287
89	0xbd5fd1f8	-0.0546436
90	0xbe63ea55	-0.2225736
91	0xbe649031	-0.2232063
92	0x3e13f4f3	0.1444891
93	0xbe245677	-0.16048609
94	0x3dbaed91	0.091273434
95	0xbe5143c8	-0.20436013
96	0xbda7385c	-0.081650466
97	0xbe88c878	-0.26715446
98	0xbd128f41	-0.03578115
99	0x3e2cfb10	0.16892648
100	0x3dfa2845	0.12214712
101	0x3e206581	0.1566372
102	0xbcdf85a2	-0.0272854
103	0x3e36262c	0.17787999
104	0xbdbb5429	-0.09146912
105	0xba321d5c	-0.0006794536
106	0xbd78cd9a	-0.060742952
107	0x3e4ae824	0.19815117
108	0xbdf937ca	-0.12168844
109	0x3ddee4c6	0.10883479
110	0x3e004d09	0.12529387
111	0xbcef6e3b	-0.029227367
112	0x3d41636c	0.047213957
113	0x3d5fef5a	0.054671623
114	0x3e0e4f90	0.13897538
115	0xbd8026d7	-0.06257408
116	0x3e26377a	0.162321
117	0x3d32a9c8	0.043618947
118	0x3bd892e8	0.0066093095
119	0xbe0f140f	-0.13972495
120	0x3cc0aff5	0.023521403
121	0xbe0af537	-0.13570105
122	0xbdff90b2	-0.1247877
123	0xbd9442ff	-0.07239341
124	0xbd58a71e	-0.05289375
125	0xbe62ea17	-0.2215961
126	0x3c837a95	0.016049663
127	0x3cc99a4f	0.024609713
128	0x3d3e56ad	0.04646938
129	0xbc8c664d	-0.017138625
130	0xbcfdb832	-0.03097162
131	0xbddfb867	-0.10923844
132	0xbbe4a4c0	-0.0069776475
133	0xbdffdfc1	-0.124938495
134	0xbe296efc	-0.16546243
135	0xbd745593	-0.059651922
136	0x3dbc65db	0.09199115
137	0xbe306e12	-0.17229488
138	0xbcdb2bad	-0.026754225
139	0xbc231094	-0.009952683
140	0x3e06604c	0.13122672
141	0xbdab4438	-0.08362621
142	0x3ccf64dc	0.025316648
143	0x3c06917f	0.0082134
144	0x3de25ebb	0.11053225
145	0xbdde318a	-0.108492926
146	0x3b9a32f6	0.004705782
147	0xbe34a1d3	-0.17639856
148	0x3e396040	0.18103123
149	0x3e208bc1	0.15678312
150	0xbd6a067a	-0.057135083
151	0x3dba27d3	0.09089627
152	0x3d10a022	0.035308965
153	0xbb4c5c56	-0.0031182966
154	0xbdfe2659	-0.12409658
155	0x3db4cb75	0.08827869
156	0xbb8281d4	-0.003982762
157	0xbd25a6cd	-0.040442277
158	0x3d80deec	0.06292519
159	0x3d7e7b10	0.06212908
160	0x3e12bdc5	0.14330204
161	0x3dc6c2d2	0.09705128
162	0x3e16abf0	0.14714026
163	0xbdf0f27e	-0.11765002
164	0x3d6d0c67	0.057873156
165	0xbd8633b4	-0.0655283
166	0xbdcb09c1	-0.0991397
167	0xbe081cb4	-0.132922
168	0x3d563a9e	0.052301995
169	0x3caed8f9	0.021343695
170	0x3d9808a3	0.07423522
171	0xbc5a34c5	-0.013318245
172	0x3d53a989	0.051675353
173	0x3d3f178e	0.046653323
174	0x3c0604d8	0.008179866
175	0xbdb45834	-0.08805886
176	0xbdc45b67	-0.09587746
177	0xbe1c2eaf	-0.15252183
178	0x3dce8a02	0.10084917
179	0x3c9a8de7	0.018866492
180	0xbdc61158	-0.09671277
181	0xbdcc3610	-0.09971249
182	0x3ddd7e52	0.10815109
183	0x3ca12271	0.019669743
184	0xbd8d7b3d	-0.069082715
185	0x3d577e2d	0.052610565
186	0xbcdff37b	-0.02733778
187	0x3d497f86	0.04919388
188	0xbd6eb1f4	-0.058275178
189	0xbd8e7f6c	-0.069578975
190	0x3d20a710	0.039221823
191	0x3e4d2d3b	0.20036785
192	0xbd99651a	-0.07489987
193	0x3dc57935	0.09642259
194	0x3bee5c76	0.007274206
195	0x3e0f3c07	0.13987742
196	0xbd84eea0	-0.064908266
197	0xba804605	-0.0009786492
198	0x3defd506	0.11710553
199	0xbd9235bb	-0.071391545
200	0x3a4ac60c	0.00077352
201	0x3d42998c	0.047509715
202	0x3d4ec7b4	0.05048342
203	0x3d4cc3fd	0.049991596
204	0xbd81f123	-0.06344821
205	0xbd82ea98	-0.063924015
206	0x3e0ba0e7	0.13635598
207	0xbc97d913	-0.018536126
208	0x3e3c5d09	0.18394865
209	0x3dd92fb6	0.10604803
210	0x3e00ed99	0.12590636
211	0xbe41fb3b	-0.18943493
212	0x3da5cc89	0.080956526
213	0xbde34849	-0.11097772
214	0x3e55b54f	0.20869945
215	0x3d27e82d	0.040992904
216	0x3d631adc	0.055445537
217	0x3d320b29	0.043467674
218	0xbd2d34c3	-0.042286646
219	0x3e0498e8	0.12948954
220	0x3e13c94b	0.14432256
221	0x3d6952b9	0.056963656
222	0x3d15fbed	0.03661721
223	0x3dd10169	0.10205347
224	0xbdba016b	-0.09082302
225	0x3df13de9	0.117793866
226	0x3d994c5d	0.07485268
227	0x3df12519	0.11774654
228	0x3d5c481a	0.0537797
229	0xbd231a50	-0.039820015
230	0x3d0d088c	0.03443198
231	0x3c83f045	0.01610578
232	0xbd953ec5	-0.07287363
233	0x3e29d833	0.1658638
234	0x3d5138fd	0.05107974
235	0xbd9ca9ce	-0.07649575
236	0x3de81d69	0.113337345
237	0x3d5dccca	0.05415038
238	0x3de0eca6	0.10982637
239	0xbd0d7def	-0.034543928
240	0x3e0e38af	0.1388881
241	0x3d25db49	0.04049233
242	0x3ddb3370	0.1070317
243	0xbd862130	-0.06549299
244	0x3db694fb	0.089151345
245	0xbc4a1db0	-0.01233618
246	0x3d93805b	0.07202216
247	0x3bfeee04	0.0077798385
248	0xbd94b415	-0.072609104
249	0xbcd4e1f0	-0.025986642
250	0x3e3b83d4	0.18312007
251	0x3e1ff781	0.15621759
252	0xbd907bc2	-0.07054855
253	0x3e0c9cb9	0.1373166
254	0xbd510a6a	-0.051035322
255	0x3da8de63	0.08245542

lstm.weight_hh_l0 f4 [256, 64]
0	0xbdf9b93e	-0.12193535
1	0x3d900fd8	0.07034272
2	0x3db29294	0.08719364
3	0x3dda41d2	0.106570855
4	0xbda65c88	-0.08123118
5	0xbd338246	-0.04382541
6	0xbd7e2ce8	-0.062054545
7	0x3dd9acd4	0.106286675
8	0x3dba65bf	0.09101438
9	0xbd4a8d37	-0.04945108
10	0x3e4939c3	0.1965094
11	0x3d1e08c7	0.03858259
12	0xbd510629	-0.051031265
13	0x3c36c1b2	0.011154579
14	0x3de8d2ea	0.11368354
15	0x3dcd237f	0.10016536
16	0xbcf95a4d	-0.030438567
17	0xbe4ccedd	-0.20000787
18	0x3a43d7b0	0.00074707996
19	0x3c39a04f	0.011329724
20	0x3d052261	0.03250349
21	0x3d8dfb59	0.069327064
22	0x3d999910	0.074998975
23	0xbd7b4d15	-0.061352808
24	0xbe989183	-0.29798517
25	0x3da3c3a5	0.079963006
26	0x3d88f0ce	0.06686555
27	0xbd350008	-0.044189483
28	0x3c2ce628	0.01055292
29	0x3e04bf99	0.12963714
30	0xbe47d5b1	-0.1951511
31	0xbe4a04e4	-0.19728428
32	0x3c9d1971	0.01917717
33	0x3e0362f2	0.12830713
34	0xbd74581d	-0.059654344
35	0x3d0a8e06	0.03382685
36	0x3bb54036	0.005531336
37	0x3d5b91be	0.053605787
38	0x3c91514c	0.01773896
39	0xbe40ba41	-0.1882105
40	0xbd1dcd92	-0.038526125
41	0x3e127508	0.14302456
42	0x3d73ccb8	0.059521407
43	0x3d922ad8	0.07137078
44	0xbda0be98	-0.07848853
45	0x39897c0a	0.00026223093
46	0xbe221a13	-0.15830259
47	0x3db46ac3	0.08809426
48	0xbe491724	-0.19637734
49	0xbd83a3d8	-0.06427735
50	0xbd66610b	-0.05624489
51	0x3e12aca1	0.14323665
52	0xbcaecffb	-0.021339407
53	0x3e3e963c	0.18611997
54	0xbe294dcc	-0.16533583
55	0xbc5a926c	-0.013340574
56	0xbcabac7a	-0.020956267
57	0x3d80f7c2	0.06297256
58	0x3ccd4e92	0.02506188
59	0x3d263d0d	0.040585566
60	0xbddb7c03	-0.10717013
61	0xbd99802c	-0.0749515
62	0x3e1e47e3	0.1545711
63	0xbe43701f	-0.1908574
64	0xbd46c6bc	-0.04852937
65	0x3dc441ae	0.0958284
66	0xbdb5bbdc	-0.08873722
67	0x3caf692e	0.021412458
68	0x3e3a8ff8	0.18218982
69	0x3c1b2043	0.009468141
70	0x3d53e9e7	0.05173674
71	0x3de4e4a7	0.111764245
72	0xbdb2d600	-0.087322235
73	0x3c3088f7	0.010774842
74	0xbc998ec5	-0.018744836
75	0x3d48cdb7	0.04902431
76	0xbd9671aa	-0.073458984
77	0x3defc91b	0.1170828
78	0x3d8a3615	0.067485966
79	0x3dc0c2dc	0.094121665
80	0xbd2eec63	-0.042705905
81	0x3db4f723	0.088362
82	0x3e00f1d4	0.1259225
83	0xbe056b6a	-0.13029256
84	0xbd8b6437	-0.06806224
85	0xbcfe3e16	-0.031035464
86	0x3dba044a	0.09082849
87	0x3e28e764	0.16494519
88	0x3ca58ee0	0.02020973
89	0x3e29699b	0.16544192
90	0xbdcd3d16	-0.10021417
91	0xbdd1621a	-0.102237895
92	0xbd8d95aa	-0.06913312
93	0xbdea3471	-0.11435784
94	0x3be77215	0.00706316
95	0x3cd8fef6	0.026488762
96	0xbd9fe107	-0.078065924
97	0xbe182029	-0.14856018
98	0x3dd5284c	0.10408077
99	0xbce33dba	-0.027739394
100	0xbc9680b0	-0.01837191
101	0x3d1a5a41	0.03768373
102	0x3c71628f	0.014732971
103	0xbdb84d88	-0.08999163
104	0x3d8ef587	0.069804244
105	0xbe3f8c63	-0.18705897
106	0xbd8f32d5	-0.06992117
107	0xbcc25fd4	-0.023727335
108	0x3dbe1a60	0.092823744
109	0xbdf82f0d	-0.12118349
110	0x3c803473	0.01565001
111	0x3e05ba01	0.13059236
112	0x3c5833bf	0.013195931
113	0xbd02a9d4	-0.031900242
114	0x3d65103a	0.055923678
115	0xbda074fb	-0.07834812
116	0xbd0d4bec	-0.034496233
117	0xbd8b84b8	-0.068124235
118	0x3e798f99	0.24371184
119	0x3ddb5912	0.10710348
120	0xbda5f4a0	-0.08103299
121	0x3e5008fb	0.20315926
122	0xbe17cb1c	-0.14823574
123	0x3e5e147e	0.21687505
124	0x3dd3b353	0.10336938
125	0xbc17286b	-0.009225945
126	0x3d83563e	0.06412934
127	0x3cf4f50e	0.029902007
128	0x3e2bc8f7	0.16775881
129	0x3dfe7192	0.124240056
130	0xbda318b1	-0.07963694
131	0x3e5049ee	0.20340702
132	0x3e3b014a	0.1826221
133	0xbd909355	-0.07059351
134	0xbe068ab1	-0.13138844
135	0xbddcf26f	-0.10788428
136	0xbdc39722	-0.09550311
137	0x3d989ff6	0.07452385
138	0xbe31d2c8	-0.17365563
139	0x3d89d838	0.067306936
140	0x3d3c0a5d	0.04590832
141	0x3d4fa478	0.05069396
142	0xbd21fd7c	-0.039548382
143	0x3d841476	0.06449215
144	0xbe8730ba	-0.26404363
145	0x3d5bf2af	0.053698238
146	0x3df41bca	0.11919363
147	0xbcb3c220	-0.021943152
148	0xbc60c91c	-0.013719823
149	0xbe207cb1	-0.15672566
150	0x3de41874	0.111374766
151	0x3d894c83	0.067040466
152	0x3e0f89ee	0.1401746
153	0x3cfa5c6d	0.03056165
154	0xbc5e1a56	-0.013556084
155	0xbe2f218d	-0.17102642
156	0x3dc83d55	0.09777323
157	0xbe37933c	-0.17927259
158	0x3a44a96c	0.00075020525
159	0xbd7073a9	-0.058704052
160	0x3d590146	0.05297973
161	0xbd841284	-0.06448844
162	0x3b2c0dd9	0.002625337
163	0xbd7a3f7a	-0.061095692
164	0xbe15174b	-0.14559667
165	0xbd702cd3	-0.058636498
166	0x3c3f3978	0.011671416
167	0xbd0c8cff	-0.03431415
168	0x3cb24900	0.021763325
169	0xbe72d30d	-0.23713322
170	0xbdac09c5	-0.08400301
171	0xbe622d46	-0.22087583
172	0x38ae4d46	8.31136e-05
173	0x3b6c808c	0.0036087362
174	0x3dca94da	0.098916724
175	0x3dc3884a	0.095474795
176	0x3e3729d0	0.17887044
177	0xbd33ee32	-0.043928333
178	0x3daa4d87	0.083155684
179	0x3df44182	0.11926557
180	0x3e294e97	0.16533886
181	0xbdd39fcd	-0.10333214
182	0x3e35fdeb	0.17772643
183	0x3d91adb3	0.071132086
184	0x3dba160e	0.09086238
185	0x3dc278c5	0.09495691
186	0x3c39efd3	0.011348682
187	0xbb5d7824	-0.0033793533
188	0x3cb75bef	0.022382705
189	0x3e56d7ab	0.20980708
190	0x3cbc5a4d	0.022992278
191	0x3ce76c9e	0.028250035
192	0x3df7de75	0.12102977
193	0xbd9c1b85	-0.076224364
194	0xbbcd700a	-0.0062694596
195	0xbd873ddb	-0.06603595
196	0x3e1c116a	0.15241018
197	0xbdb952e8	-0.09049016
198	0x3df3a5d0	0.118968606
199	0xbbe1ef34	-0.0068949703
200	0x3d8fb0ca	0.07016142
201	0x3e0aceef	0.13555501
202	0xbd281a8e	-0.04104095
203	0xbd6c7c11	-0.057735506
204	0xbcdcb11b	-0.02693992
205	0x3e34c48c	0.17653102
206	0xbdbf9680	-0.093548775
207	0xbbce8a23	-0.0063030883
208	0xbdaac355	-0.08338038
209	0x3d2de48f	0.0424543
210	0x3dc34129	0.09533913
211	0xbe5b6280	-0.21424294
212	0x3b53dc7c	0.0032327464
213	0xbd4bcaf9	-0.049754117
214	0xbe05c5e5	-0.13063772
215	0x3dc568be	0.096391186
216	0x3ccd2653	0.025042688
217	0x3ddde497	0.10834616
218	0x3df9ce73	0.1219758
219	0x3c1774d0	0.009244159
220	0xbcaffca4	-0.021482773
221	0xbd95ba6f	-0.0731095
222	0x3e14a870	0.14517379
223	0x3d87160a	0.065960005
224	0xbdedef8b	-0.11617955
225	0xbd91f69c	-0.07127115
226	0xbdfaea88	-0.122517645
227	0xbda44cdf	-0.080224745
228	0xbe07c2ee	-0.13257954
229	0xbde6a55a	-0.11262007
230	0xbd817171	-0.06320465
231	0xbe0f2257	-0.13977943
232	0xbdadab3e	-0.084799275
233	0xbe1c99e6	-0.15293083
234	0xbe1aa927	-0.15103589
235	0xbdf9ba5e	-0.1219375
236	0x3c985ff8	0.018600449
237	0xbcc18713	-0.023623979
238	0xbd21526f	-0.039385255
239	0xbd4b9b07	-0.049708392
240	0x3e197235	0.14984973
241	0x3d71c164	0.059022322
242	0xbd042ac9	-0.032267366
243	0xbe0a7b05	-0.1352349
244	0xbe201e14	-0.15636474
245	0xbc5c24c2	-0.013436498
246	0x3dececfd	0.115686394
247	0x3d614cd1	0.0550049
248	0x3d070e0e	0.032972388
249	0x3cc5ea90	0.0241597
250	0x3b80b7fc	0.0039281826
251	0x3d57ec2f	0.052715477
252	0xbc2ba78e	-0.01047696
253	0x3db8e452	0.09027924
254	0xbd9e527f	-0.07730579
255	0x3dce6387	0.10077577

lstm.bias_ih_l0 f4 [256]
0	0x3bd201b6	0.0064088954
1	0xbdfc8aa4	-0.12331131
2	0xbdf1eef1	-0.118131526
3	0xbdc049bf	-0.09389066
4	0xbdca998b	-0.09892567
5	0xbe01a944	-0.12662226
6	0x3c482d56	0.01221784
7	0x3d8b6d3d	0.06807945
8	0x3c0b8539	0.0085156495
9	0xbdc34ce7	-0.09536152
10	0xbdcfca30	-0.10145986
11	0x3d8ce58f	0.06879722
12	0x3e309563	0.17244487
13	0xbdf33cc6	-0.11876826
14	0xbc893aa3	-0.016751593
15	0x3dc0e7ff	0.0941925
16	0xbc367ee1	-0.011138649
17	0x3e036a8b	0.12833612
18	0x3e4edee4	0.20202214
19	0x3e0f9948	0.14023316
20	0xbcb51fc9	-0.022109883
21	0x3d6f9b54	0.05849774
22	0xbe495099	-0.19659652
23	0xbe158e47	-0.14605056
24	0x3e318576	0.17336068
25	0xbcdf3e0a	-0.027251262
26	0x3cfcb8dc	0.030849867
27	0xbd64ce18	-0.05586061
28	0xbb2215d2	-0.0024732244
29	0x3c9f3ec4	0.019439109
30	0x3d176c82	0.036968715
31	0xbe19f0fc	-0.15033334
32	0xbd8168a0	-0.06318784
33	0xbc331862	-0.010931106
34	0xbd98fced	-0.07470117
35	0xbd383235	-0.044969756
36	0x3c2f4e78	0.010699861
37	0xbe311772	-0.172941
38	0xbd4f3de6	-0.05059614
39	0x3db32090	0.08746445
40	0xbd14fc9c	-0.03637372
41	0x3e2ebd14	0.17064315
42	0xbdaf6d84	-0.0856581
43	0xbd8806b9	-0.06641907
44	0x3cc96ee0	0.024589002
45	0xbc7259c1	-0.014791907
46	0xbdd9ab97	-0.10628431
47	0x3dc0abef	0.09407794
48	0xbe42b8a1	-0.19015743
49	0xbd45f21d	-0.0483266
50	0x3d945cf6	0.072442934
51	0xbe379643	-0.17928414
52	0xbd835740	-0.06413126
53	0xbd9bf86e	-0.076157436
54	0x3db677b1	0.08909548
55	0xbdd3f79d	-0.10349963
56	0xbd85b069	-0.06527788
57	0x3d766858	0.060158104
58	0xbd273545	-0.040822286
59	0xbcd64455	-0.02615563
60	0xbca25780	-0.019817114
61	0xbe306cd7	-0.17229019
62	0xbdad851c	-0.08472654
63	0x3d57fe08	0.052732497
64	0xbd2cefdf	-0.042220946
65	0xbde06955	-0.109575905
66	0xbe024f14	-0.12725478
67	0xbdbab6e7	-0.09116917
68	0xbd1181e7	-0.035524275
69	0x3d3503ee	0.0441932
70	0x3e056440	0.13026524
71	0x3c53daca	0.012930581
72	0xbdf969ca	-0.12178381
73	0x3cf17a58	0.029477283
74	0x3db0d053	0.08633485
75	0x3d711c31	0.058864776
76	0x3e2a9656	0.16658911
77	0xbc833c59	-0.016019987
78	0xbcdf8785	-0.0272863
79	0x3bc09089	0.005876605
80	0x3c64ed84	0.013972644
81	0x3cfff4f1	0.031244727
82	0x3d252520	0.04031861
83	0xbdba2713	-0.09089484
84	0xbdbc80d1	-0.09204257
85	0xbdbbc713	-0.0916883
86	0xbe51fb7e	-0.20506093
87	0xbd45a50f	-0.048253115
88	0x3e1fce1d	0.1560597
89	0x3e28c52f	0.1648147
90	0x3e2eced6	0.17071089
91	0xbba97ff3	-0.0051727234
92	0x3d364472	0.04449887
93	0x3de9ea20	0.11421609
94	0x3dd767c1	0.10517836
95	0x3d30d17a	0.043168522
96	0x3c0f7a36	0.008757165
97	0xbdeba145	-0.11505369
98	0x3e098a5f	0.1343169
99	0xbd83f773	-0.064436816
100	0xbe157720	-0.14596224
101	0x3de3796a	0.11107142
102	0x3d9e8aad	0.07741294
103	0x3c78c781	0.015184284
104	0x3d93ada2	0.07210852
105	0x3e10a185	0.14124115
106	0xbc975106	-0.018471252
107	0xbdb11c7e	-0.086480126
108	0xbcace6fe	-0.02110624
109	0xbc6f4264	-0.014603231
110	0xbd95d44f	-0.07315885
111	0xbd4de338	-0.05026552
112	0xbe73a8ad	-0.23794813
113	0x3d3d00ea	0.04614345
114	0xbc51f2a0	-0.012814194
115	0xbe0d7a19	-0.13816108
116	0x3db4977c	0.08817956
117	0x3d9615aa	0.07328351
118	0x3de39638	0.11112636
119	0x3d19b206	0.037523292
120	0x3cb59a3e	0.022168275
121	0xbe286216	-0.16443667
122	0xbb3566e6	-0.002767974
123	0x3cca7852	0.024715576
124	0xbd08388d	-0.033257056
125	0xbdf71413	-0.12064376
126	0x3caebde1	0.021330776
127	0xbd131467	-0.03590813
128	0xbe08cc1f	-0.13359116
129	0x3ca6d6af	0.020366041
130	0xbe354cbb	-0.17705052
131	0xbd967631	-0.07346762
132	0x3c9abbfb	0.018888464
133	0xbc9027e2	-0.017597143
134	0x3d50f27a	0.051012494
135	0x3d98443b	0.07434889
136	0xbd6564d1	-0.05600435
137	0xbdf0ee68	-0.117642224
138	0xbd7d35ca	-0.061818875
139	0xbdda137b	-0.10648247
140	0x3d2c9511	0.04213435
141	0x3e1f8c23	0.15580802
142	0xbdb18e91	-0.086697705
143	0x3d900122	0.07031466
144	0xbdb377e2	-0.087631
145	0x3db78f28	0.08962852
146	0xbda497ef	-0.080367915
147	0x3d69c20c	0.057069823
148	0xbdca30f2	-0.09872617
149	0xbe049309	-0.12946714
150	0xbc55b5a0	-0.013043791
151	0x3d253df8	0.0403423
152	0xbe062e4d	-0.131036
153	0x3daaffb0	0.0834955
154	0x3e3da14f	0.18518566
155	0x3ded5914	0.11589256
156	0x3db0cf3a	0.08633275
157	0x3b9f330d	0.0048583806
158	0x3b89238e	0.0041851467
159	0x3dc6b319	0.09702129
160	0x3ce6507c	0.02811455
161	0x3ca8bb52	0.020597134
162	0x3db3ac14	0.08773056
163	0xbe238445	-0.15968426
164	0xbd124a8e	-0.035715632
165	0xbdec152d	-0.115274765
166	0xbc995312	-0.018716369
167	0xbe61b483	-0.22041516
168	0xbe048d46	-0.12944517
169	0x3d91ab43	0.07112744
170	0xbd9e535d	-0.07730744
171	0xbddd09e0	-0.10792899
172	0x3c2d6469	0.010583022
173	0xbde07e5f	-0.109616034
174	0xbb8f8354	-0.004379669
175	0xbe099325	-0.13435037
176	0xbc111a24	-0.00885633
177	0x3ddba4b1	0.10724772
178	0xbdab34b0	-0.08359659
179	0xbd1b8095	-0.037964422
180	0xbdebc888	-0.11512858
181	0xbdd019b5	-0.10161153
182	0xbd8f7085	-0.07003883
183	0xbda14298	-0.0787403
184	0xbcc7547c	-0.024332277
185	0x3c632f3f	0.013866245
186	0x3d476026	0.04867568
187	0xbc53e5cd	-0.012933207
188	0x3c628d33	0.01382761
189	0xbde2326b	-0.11044773
190	0x3cd7b45b	0.026331117
191	0x3d64f7ad	0.055900265
192	0xbca3dd55	-0.020003
193	0xbbbfae2e	-0.0058496213
194	0xbcd1ece4	-0.025625654
195	0xbda977f0	-0.082748294
196	0xbe0c4349	-0.13697542
197	0xbd83b088	-0.06430155
198	0xbe16287e	-0.14663884
199	0x3cce1da9	0.025160627
200	0x3d85c4b6	0.0653166
201	0xbe153ac3	-0.14573197
202	0xbe009e4f	-0.1256039
203	0x3d57a8eb	0.052651327
204	0x3e41ef53	0.18938951
205	0xbe1b07d4	-0.15139705
206	0xbdc78906	-0.09742932
207	0x3d15d267	0.03657761
208	0x3d84154b	0.06449374
209	0xbc826f5d	-0.015922243
210	0x3e11f412	0.14253262
211	0xbd8f16e4	-0.06986788
212	0x3ddfe8dc	0.10933086
213	0xbe30131d	-0.17194791
214	0xbcd922e4	-0.026505895
215	0x3dbdfabd	0.0927634
216	0xbddfe8e0	-0.10933089
217	0xbddd63a1	-0.10810018
218	0x3d0b7e13	0.03405578
219	0xbd1d81d7	-0.038453903
220	0x3cdde9b5	0.02708898
221	0xbddb5c7e	-0.10711001
222	0x3c47687b	0.012170906
223	0x3d2bf2bd	0.04197954
224	0xbd843d06	-0.06456952
225	0x3d247877	0.040153947
226	0xbc668aa7	-0.014071143
227	0xbdafc64a	-0.085827425
228	0xbdb9aa80	-0.090657234
229	0xbded00fd	-0.11572454
230	0x3d62e4da	0.05539403
231	0x3b8a45b8	0.004219737
232	0x3e14a970	0.1451776
233	0xbdf69ed9	-0.120420165
234	0xbe034d8c	-0.1282255
235	0xbd64cf31	-0.055861656
236	0x3cb58877	0.022159798
237	0x3c652d4e	0.013987852
238	0xbe1eff31	-0.15527035
239	0x391e41a9	0.00015092515
240	0x3d899b18	0.06719035
241	0xbe025e62	-0.12731317
242	0x3d2f1a1c	0.04274951
243	0xbc1567b9	-0.009118968
244	0x3d94c047	0.072632365
245	0xbc39a481	-0.011330725
246	0xbd75c9ef	-0.060007032
247	0x3db42ab3	0.08797207
248	0xbcc2212c	-0.023697458
249	0xbe028a58	-0.12748086
250	0xbe0ea68b	-0.13930719
251	0xbd1deb19	-0.038554285
252	0x3a9ef792	0.0012128225
253	0xbd835099	-0.06411857
254	0xbcd3c294	-0.025849618
255	0x3e03f75c	0.12887329

lstm.bias_hh_l0 f4 [256]
0	0xbd8b11dc	-0.06790516
1	0xbe153e63	-0.1457458
2	0xbe49f4a2	-0.19722226
3	0xbda44566	-0.08021049
4	0xbe02d01e	-0.12774703
5	0xbd16ac83	-0.036785614
6	0x3d65f648	0.056143075
7	0x3de39892	0.11113085
8	0x3cc0e822	0.02354819
9	0xbdd57f88	-0.10424715
10	0x3d54f675	0.051992852
11	0xbdaac01a	-0.08337422
12	0xbd3e0bfb	-0.046398144
13	0xbe419648	-0.18904984
14	0xbd25a439	-0.040439818
15	0x3dbb5a77	0.09148114
16	0x3d253625	0.04033484
17	0x3e3703f5	0.17872603
18	0x3e0987bd	0.13430686
19	0x3dd17b87	0.10228639
20	0xbd345643	-0.044027578
21	0xbd8bdee5	-0.06829623
22	0x3b2a1747	0.0025953816
23	0xbda278a6	-0.07933168
24	0x3e79989a	0.24374619
25	0xbc220e7c	-0.009891149
26	0x3da860ed	0.08221612
27	0x3d147a71	0.03624958
28	0x3d15fc65	0.036617655
29	0xbd9e88ff	-0.07740974
30	0xbe15e868	-0.14639437
31	0x3b004a75	0.001957563
32	0xbd827564	-0.06370047
33	0xbcaa1d4e	-0.020765927
34	0x3e1270ec	0.14300889
35	0x3d00dc72	0.031460233
36	0xbe375820	-0.17904711
37	0xbcadc77c	-0.021213286
38	0xbd193a18	-0.03740892
39	0x3e792240	0.24329472
40	0xbc81f6eb	-0.01586481
41	0x3e68fb21	0.22752048
42	0x3cf4d376	0.029885989
43	0xbd21c472	-0.039493985
44	0x3d998bfe	0.074974045
45	0xbdc270c2	-0.09494163
46	0xbdb0454d	-0.08606968
47	0xbdddad41	-0.10824061
48	0xbcf70f2a	-0.030158598
49	0xbd8e4655	-0.069470085
50	0x3cd9043f	0.026491283
51	0xbdf577e1	-0.11985756
52	0xbd3f140b	-0.046649974
53	0xbdf6f298	-0.1205799
54	0xbd6e3344	-0.05815436
55	0xbdc0cce3	-0.09414079
56	0xbdd5f82f	-0.10447728
57	0x3d1010e5	0.035172362
58	0x3d07b0ab	0.033127468
59	0x3dc75fcb	0.09735068
60	0x3d53055d	0.051518787
61	0xbdeefff1	-0.11669911
62	0xbe502313	-0.2032588
63	0x3db16bcc	0.08663139
64	0xbdd9b0b5	-0.10629407
65	0x3cebe7b2	0.028797004
66	0x3c5508a2	0.0130025465
67	0xbae83b5b	-0.0017717885
68	0xbd4da82d	-0.050209213
69	0xbde4d03d	-0.11172531
70	0xbdbc527c	-0.0919542
71	0x3d806a49	0.06270272
72	0xbda6705a	-0.08126898
73	0xbd411f99	-0.047149274
74	0xbdecc878	-0.11561674
75	0x3d8f473a	0.06996007
76	0x3e2a02f8	0.16602695
77	0xbe24487a	-0.16043273
78	0xbd1add38	-0.037808627
79	0xbe0fb12f	-0.14032434
80	0xbcb588dc	-0.022159986
81	0xbe301ca8	-0.17198431
82	0xbdb95673	-0.09049692
83	0x3d87b010	0.06625378
84	0x3d8a7267	0.06760102
85	0x3d679f63	0.056548487
86	0xbd86e9fe	-0.06587599
87	0xbe07ed41	-0.13274099
88	0x3d2c77d5	0.04210647
89	0x3df73a43	0.120716594
90	0xbd3569bb	-0.044290286
91	0xbde18f88	-0.110137045
92	0xbd4f7b06	-0.050654434
93	0xbcb2771e	-0.021785315
94	0x3d39df79	0.045379136
95	0x3c94f696	0.018183988
96	0xbe01addd	-0.1266398
97	0xbe4ffe4f	-0.20311855
98	0x3dd03758	0.10166806
99	0xbe10ed2d	-0.14152975
100	0xbe25be41	-0.16185857
101	0x3db0f3f8	0.08640283
102	0xbd985019	-0.074371524
103	0x3e23feff	0.16015242
104	0x3c48bdfa	0.012252325
105	0x3e51eb65	0.20499952
106	0xbd2f3d06	-0.042782806
107	0x3d68424d	0.056703854
108	0xbe2d4342	-0.16920188
109	0xbc0f1300	-0.008732557
110	0xbd6fb818	-0.058525175
111	0x3cf8853f	0.030336974
112	0xbd46d8b5	-0.04854651
113	0x3c783349	0.015148946
114	0xbe3370af	-0.17523454
115	0xbba2db2f	-0.0049699764
116	0x3d9f97fc	0.077926606
117	0xba404445	-0.00073343917
118	0x3df6c430	0.120491385
119	0xbda1d45e	-0.07901834
120	0xbe166094	-0.14685279
121	0xbd470d55	-0.0485967
122	0xbd379b17	-0.04482564
123	0xbde3319e	-0.11093448
124	0xbdd1189d	-0.10209773
125	0xbdbf524c	-0.09341869
126	0x3cce4c51	0.025182875
127	0xbe1cf27e	-0.15326878
128	0xbd01792e	-0.031609707
129	0x3dafe367	0.085882954
130	0xbca19f83	-0.019729381
131	0xbc22c467	-0.009934521
132	0x3e1948ce	0.14969179
133	0x3e06894c	0.13138312
134	0x3e173e10	0.14769769
135	0x3ce8ad6b	0.028403005
136	0x3dd9d73c	0.10636756
137	0x3d0c6d91	0.03428418
138	0xbda252be	-0.07925938
139	0xbd8a5ce3	-0.06755998
140	0x3d44efe0	0.048080325
141	0x3e411fc0	0.18859768
142	0xbdd319d7	-0.10307663
143	0xbd788453	-0.06067307
144	0x3cbbb503	0.022913462
145	0x3e0d3732	0.13790587
146	0xbe1b3d29	-0.1516005
147	0x3dc240ce	0.09485017
148	0xbe10499d	-0.14090581
149	0xbd8d486a	-0.068985775
150	0x3d3433d5	0.043994743
151	0x3dde039d	0.10840533
152	0x3c72f719	0.0148294205
153	0x3d11af4f	0.035567578
154	0xbc5a3263	-0.013317677
155	0x3dbf830c	0.09351167
156	0x3b6e3e8c	0.0036353199
157	0x3c347fdb	0.011016811
158	0x3b9deb51	0.0048193117
159	0x3e487512	0.19575909
160	0xbd36a6e1	-0.044592742
161	0xbe4aa389	-0.19788946
162	0x3dc874df	0.097879164
163	0xbdc72133	-0.09723129
164	0xbe1907ac	-0.14944333
165	0x3d922fab	0.07137998
166	0x3c1bc3f9	0.009507173
167	0xbd13598f	-0.03597408
168	0xbdad7315	-0.08469216
169	0x3da8fb9d	0.082511164
170	0x3d4f6da0	0.050641656
171	0x3d78d98b	0.06075434
172	0xbbf90b8e	-0.0076002544
173	0xbdcc3ee4	-0.09972933
174	0x3cd23f1e	0.025664862
175	0xbd67b77c	-0.05657147
176	0x3dce86c3	0.100842975
177	0xbd91c5f5	-0.071178354
178	0x3daf88fb	0.08571049
179	0xbde1ec3d	-0.11031387
180	0xbc519d2a	-0.0127938185
181	0x3d785fea	0.060638346
182	0x3e19427e	0.14966771
183	0x3de60047	0.11230522
184	0xbd4ce394	-0.050021723
185	0x3d9ed652	0.07755722
186	0xbe299798	-0.16561735
187	0x3d1edbd1	0.038783852
188	0x3d50fda1	0.05102313
189	0x3d0bc0a9	0.034119282
190	0xbdfa5d65	-0.12224845
191	0x3d0614f2	0.03273482
192	0x3e50e3ad	0.20399351
193	0x3d019012	0.031631537
194	0x3cc37867	0.023861123
195	0x3ca46407	0.020067228
196	0x3bbd7844	0.005782159
197	0xbde4f7ca	-0.111800745
198	0xbd9e0c4a	-0.07717188
199	0x3cc7e339	0.02440034
200	0xbcb531f0	-0.022118539
201	0xbda99a49	-0.08281381
202	0xbda8055a	-0.08204146
203	0x3d65f808	0.056144744
204	0xbc0878dc	-0.008329596
205	0x3d46a4ba	0.04849694
206	0x3a91dd34	0.0011128546
207	0xbcdf8bb4	-0.027288295
208	0x3e1b2145	0.1514941
209	0x3d280aee	0.04102605
210	0x3cf443ec	0.029817544
211	0xbd642042	-0.055694826
212	0xbcc1088d	-0.023563648
213	0xbdcb29af	-0.0992006
214	0xbdd0732c	-0.10178217
215	0x3df434b1	0.119241126
216	0x3da6a0a4	0.081361085
217	0xbddd3663	-0.10801389
218	0xbe35c5f1	-0.1775129
219	0xbd428892	-0.047493525
220	0xbdd00dd6	-0.10158889
221	0x3d45171f	0.048117753
222	0xbd99b632	-0.07505454
223	0xbd810e25	-0.06301526
224	0xbe1193bd	-0.14216514
225	0xbd644b89	-0.0557361
226	0x374dd450	1.2268385e-05
227	0x3d8bd97b	0.068285905
228	0x3dd904a2	0.10596587
229	0xbdfdc1c2	-0.12390472
230	0xbd76f57e	-0.060292713
231	0xbc8a014c	-0.016846322
232	0x3d5b4d75	0.053540666
233	0x3d0fcfeb	0.035110395
234	0xbdac4af8	-0.08412737
235	0xbdd823a0	-0.1055367
236	0xbce9b3a3	-0.02852804
237	0x3dbd2611	0.09235776
238	0x3be8dc06	0.007106307
239	0xbc698bb4	-0.014254499
240	0x3c82a665	0.015948484
241	0xbe10f7b7	-0.14156996
242	0xbe08b9f8	-0.13352191
243	0xbddce2ce	-0.10785447
244	0x3db46c18	0.0880968
245	0xbde27a8c	-0.1105853
246	0xbdd040a1	-0.10168577
247	0xbe02c34c	-0.12769812
248	0xbdb6ca09	-0.08925254
249	0x3d812259	0.063053794
250	0xbe003b27	-0.12522565
251	0x3cc13c3a	0.023588289
252	0xbdb98501	-0.090585716
253	0xbc0d42b4	-0.00862186
254	0x3d8e4df6	0.069484636
255	0x3e7676b6	0.24068722

lstm.weight_ih_l1 f4 [256, 64]
0	0x3c0d437c	0.008622047
1	0x3c8a072c	0.016849123
2	0x3dcf233e	0.10114144
3	0x3c759b95	0.014990707
4	0x3de74c86	0.112938926
5	0xbd9d2320	-0.07672715
6	0xbc4323f8	-0.011910431
7	0x3dbc42cb	0.09192427
8	0x3b9609ee	0.0045788204
9	0xbd827236	-0.0636944
10	0x3cf31274	0.029671885
11	0xbb4e04d0	-0.0031435974
12	0xbdfdf95f	-0.124010794
13	0x3d2cfea0	0.042235017
14	0xbe15ed7b	-0.14641373
15	0x3d449abe	0.047999136
16	0xbd0e6c3d	-0.034771193
17	0xbdab47af	-0.08363282
18	0x3db062f5	0.086126246
19	0xbdb0202f	-0.085998885
20	0x3cec8697	0.028872771
21	0x3e128912	0.143101
22	0xbe11eab2	-0.14249685
23	0x3e3e79a7	0.18601094
24	0xbdc2e141	-0.0951562
25	0xbcdfa2d4	-0.027299322
26	0xbe17c74b	-0.14822118
27	0x3e49ad6f	0.19695066
28	0x3d085e89	0.03329328
29	0xbd36728c	-0.044542834
30	0xbd32846c	-0.04358332
31	0x3deacfa5	0.11465386
32	0xbe119dcf	-0.14220355
33	0xbc9dd608	-0.019267097
34	0xbe4871c2	-0.19574645
35	0xbdbfa771	-0.09358109
36	0x3dc74dd9	0.09731645
37	0x3de7fa64	0.11327055
38	0xbcb326e0	-0.021869123
39	0x3df49f7b	0.11944481
40	0xbd09d737	-0.03365251
41	0x3c221d5c	0.009894695
42	0xbdb66cc4	-0.08907464
43	0xbd11ff70	-0.035643995
44	0xbdc1d47a	-0.09464355
45	0xbcacb628	-0.021082953
46	0x3d2a150c	0.041523978
47	0xbbe0e1c6	-0.006862852
48	0x3c86b4b2	0.016443584
49	0xbde9d0ba	-0.114167646
50	0x3d81e5d9	0.06342668
51	0x3c2862fa	0.010277504
52	0x3d687d74	0.056760266
53	0x3e0552d8	0.13019884
54	0xb89c2603	-7.44574e-05
55	0x3db01052	0.08596863
56	0x3e3692d5	0.1782945
57	0xbdf9e357	-0.12201565
58	0xbc211266	-0.009831047
59	0xbd9118eb	-0.07084831
60	0x3bf971c3	0.0076124384
61	0xbdbae862	-0.09126355
62	0x3d3243a0	0.043521523
63	0x3e4e4996	0.20145258
64	0x3e4692d1	0.19391944
65	0xbdfd3773	-0.12364092
66	0x3c3d2442	0.011544289
67	0xbdb05b96	-0.08611219
68	0xbd5a435c	-0.053286895
69	0xbe1eb8c6	-0.15500173
70	0xbcad48a1	-0.021152796
71	0xbcfdbaf2	-0.030972932
72	0xbd9e28f6	-0.077226564
73	0x3d29aae7	0.04142275
74	0xbbf452e0	-0.0074561685
75	0x3e3b195c	0.18271393
76	0x3d7bbae9	0.06145755
77	0x3b5d588f	0.003377471
78	0x3d903233	0.07040825
79	0x3d2d3cf8	0.042294472
80	0xbe600468	-0.21876681
81	0xbdb7c41d	-0.089729525
82	0xbddb77a2	-0.107161775
83	0xbd17949e	-0.037006967
84	0x3d4dffc3	0.05029274
85	0xbc9e6372	-0.019334529
86	0x3e160a47	0.14652358
87	0x3e4bb909	0.19894804
88	0x3e12e223	0.14344077
89	0x3df37dfe	0.118892655
90	0xbde3c6b9	-0.11121888
91	0xbe458a6f	-0.1929109
92	0xbd2017d9	-0.039085243
93	0x3caa2e05	0.020773897
94	0x3d9dda3b	0.0770764
95	0x3e1441dd	0.1447825
96	0xbd5f8be8	-0.054576784
97	0x3d9e700b	0.07736214
98	0xbe426cc7	-0.18986808
99	0x3c169da6	0.00919286
100	0x3d84a024	0.06475857
101	0xbc77deec	-0.015128832
102	0xbd676874	-0.0564961
103	0x3dd59d2f	0.10430371
104	0x3d38f948	0.045159608
105	0x3e3013a3	0.17194991
106	0xbd9edeb4	-0.07757321
107	0x3d3f61dd	0.04672419
108	0xbc47ea50	-0.012201861
109	0x3e592f86	0.21209535
110	0x3b986bd2	0.004651525
111	0xbd910f63	-0.07083013
112	0x3b2d95e3	0.0026487045
113	0xbe2a860d	-0.16652699
114	0xbe253e50	-0.16137052
115	0x3d1780f5	0.036988217
116	0xbe01b4dd	-0.1266665
117	0xbe3ba0e7	-0.18323098
118	0xbd876bfb	-0.066123925
119	0x3e02136c	0.12702721
120	0x3cf1f19e	0.029534157
121	0x3d1785bd	0.036992777
122	0x3c22dca6	0.009940302
123	0x3e0802b7	0.13282286
124	0x3d8e9ea5	0.06963853
125	0xbd3a0c88	-0.045422107
126	0xbd8a37e7	-0.06748944
127	0xbdcd6b35	-0.10030214
128	0x3cdc1c0d	0.026868844
129	0x3be5d086	0.0070133833
130	0xbdde89d8	-0.10866135
131	0xbdebd84c	-0.11515865
132	0x3d1eef75	0.038802583
133	0xbdb88b3b	-0.09010931
134	0x3d4ff955	0.05077489
135	0xbdfcb524	-0.12339237
136	0xbe16da18	-0.14731634
137	0x3e2ece16	0.17070803
138	0xbd66d8ac	-0.05635898
139	0x3dc38e75	0.09548656
140	0xbde87b96	-0.11351697
141	0xbd29331d	-0.04130851
142	0xbe370080	-0.17871284
143	0xbaea1b84	-0.0017860983
144	0xbe11fdd2	-0.14256981
145	0x3e1ed5e7	0.15511285
146	0xbd022e98	-0.031782717
147	0xbd7d5a2b	-0.06185357
148	0x3cbc194c	0.022961281
149	0x3c52fe90	0.012878075
150	0xbce4d4c6	-0.02793349
151	0xbc6de9fa	-0.014521116
152	0x3d4a32d9	0.0493649
153	0x3da78e6d	0.081814624
154	0xbdc53f14	-0.09631172
155	0xbe0728d0	-0.13199162
156	0xbe0347ec	-0.12820405
157	0xbe0d6f5c	-0.13812011
158	0x3c3f4313	0.011673707
159	0x3d801434	0.062538534
160	0xbe0fc2ef	-0.14039205
161	0xbd7b34a5	-0.061329503
162	0xbe1d09cd	-0.1533577
163	0xbdcfee7a	-0.10152908
164	0x3c969657	0.018382234
165	0xbd5ddb99	-0.054164503
166	0xbd970fac	-0.07376036
167	0x3dbf3b44	0.09337476
168	0x3d4d9aef	0.050196584
169	0x3bfd765f	0.007735058
170	0xbe0231a2	-0.12714246
171	0x3d89317f	0.06698894
172	0xbc9e55ee	-0.019328084
173	0xbcd84410	-0.026399642
174	0xbdcd492f	-0.10023724
175	0xbd7e16a4	-0.06203331
176	0xba57d56a	-0.00082334003
177	0x3cf20328	0.02954252
178	0xbd6da94b	-0.05802278
179	0xbdc81ff2	-0.09771718
180	0x3b777f52	0.0037765098
181	0x3d04daed	0.032435346
182	0x3c713de1	0.014724226
183	0x3d48a6dc	0.048987255
184	0x3d64263f	0.055700537
185	0xbd30fc4c	-0.04320936
186	0xbd0c3883	-0.03423358
187	0x3e247598	0.16060483
188	0x3d2d82e1	0.042361144
189	0xbd69ebd4	-0.05710967
190	0xbe23c4c8	-0.15993035
191	0x3b192659	0.0023368804
192	0x3e660968	0.22464526
193	0xbddf5a79	-0.10905928
194	0xbc1dc33c	-0.009629067
195	0xbdf79620	-0.12089181
196	0xbd1ee50d	-0.03879266
197	0xbd4ead99	-0.050458524
198	0x3e3e5f76	0.18591103
199	0xbc6f73a8	-0.014614977
200	0xbe0cb09a	-0.13739243
201	0x3d229d11	0.03970057
202	0xbd928c7b	-0.07155701
203	0x3de16003	0.11004641
204	0xbddc66d3	-0.107618
205	0x3dcf65d4	0.10126844
206	0xbdb247f5	-0.08705131
207	0xbdc68862	-0.09693982
208	0xbe7c56e3	-0.2464252
209	0x3e32b920	0.17453432
210	0xbd2dd7be	-0.042442076
211	0xbd6b2301	-0.05740643
212	0xbc1795c8	-0.009252019
213	0x3df8748b	0.12131604
214	0x3db5f88f	0.088852994
215	0x3d4b0224	0.04956259
216	0xbe24a863	-0.1607986
217	0x3e1cba2c	0.15305394
218	0x3dd354cd	0.10318909
219	0xbe34b13e	-0.17645738
220	0xbd66626a	-0.0562462
221	0x3d8708dd	0.065934874
222	0x3dded20d	0.10879908
223	0x3d106f3c	0.03526233
224	0x3d273fd9	0.040832374
225	0x3d01b387	0.03166535
226	0xbbc75944	-0.0060836393
227	0xbbd0ced4	-0.006372312
228	0x3d87e618	0.06635684
229	0xbdebdf07	-0.115171485
230	0xbd75f859	-0.060051296
231	0x3d4a95ad	0.04945915
232	0xbe339c65	-0.17540129
233	0xbdf0c843	-0.11756947
234	0xba31fbd6	-0.00067895406
235	0x3b8a8961	0.0042278026
236	0x3d2feae9	0.042948637
237	0x3e04315c	0.12909454
238	0xbd6f3a97	-0.058405485
239	0xbd6a1820	-0.057151914
240	0x3dff8a5e	0.12477563
241	0xbdf7c11e	-0.12097381
242	0xbbc8fff5	-0.006134028
243	0xbe23e24e	-0.16004297
244	0xbd8c5a75	-0.06853191
245	0x3b8b17e7	0.0042447927
246	0x3dc441a7	0.09582835
247	0x3da70fac	0.08157286
248	0xbc4b8f19	-0.012424254
249	0xbdc63799	-0.09678573
250	0xbb0b1795	-0.0021223773
251	0x3cdf7eda	0.027282167
252	0xbd8dccfe	-0.06923865
253	0xbd64fcdd	-0.05590521
254	0x3d513bc7	0.0510824
255	0x3e0de239	0.13855828

lstm.weight_hh_l1 f4 [256, 64]
0	0xbc2d7e1d	-0.01058915
1	0xbd82f8b7	-0.06395095
2	0x3ccbb8cb	0.02486839
3	0xbe2d69c6	-0.1693488
4	0xbd72a18e	-0.0592361
5	0xbdc3cef2	-0.09560956
6	0xbe113b78	-0.14182842
7	0xbe23653e	-0.1595659
8	0xbd589b64	-0.052882567
9	0x3e7c50b3	0.2464016
10	0xbe501981	-0.20322229
11	0xbde06d8a	-0.10958393
12	0x3c2146e9	0.009843566
13	0xbabcd11a	-0.0014405579
14	0xbe0d4bfc	-0.13798517
15	0x3d45ff03	0.0483389
16	0x3d9f1db9	0.07769341
17	0x3dbb3f9b	0.09142991
18	0xbdf37f9c	-0.11889574
19	0x3e2a967b	0.16658966
20	0xbddedb7f	-0.10881709
21	0x3bbcc8f7	0.0057612616
22	0xbd5d738f	-0.054065283
23	0x3dae6e89	0.08517177
24	0xbb809bc9	-0.003924821
25	0x3d109667	0.035299685
26	0x3da90830	0.08253515
27	0xbdaa788e	-0.08323775
28	0x3d8bbc0e	0.06822978
29	0x3c69cd39	0.01427012
30	0xbd71b470	-0.05900997
31	0x3d586c11	0.052837435
32	0xbe4e084c	-0.20120353
33	0x3dc759c9	0.09733922
34	0x3bba844a	0.0056920396
35	0x3d8d367c	0.06895158
36	0x3d58652b	0.052830856
37	0xbd7b4b53	-0.06135113
38	0xbe249c7e	-0.16075322
39	0xbc0acb33	-0.008471298
40	0xbbf04d7f	-0.007333457
41	0x3d445c32	0.047939487
42	0xbd3f664d	-0.04672842
43	0xbd9a6387	-0.075385146
44	0xbd23d855	-0.040001232
45	0xbe122eea	-0.14275709
46	0x3cd05f33	0.02543602
47	0xbd916516	-0.07099359
48	0x3d5dfd80	0.054196835
49	0xbd8d888d	-0.069108106
50	0x3e24a612	0.16078976
51	0xbe2f7219	-0.17133369
52	0x3afc8bd6	0.0019267749
53	0xbcc08cfb	-0.023504725
54	0xbbe02930	-0.0068408474
55	0xbe6ff776	-0.23434243
56	0xbcaaad1f	-0.020834504
57	0xbdb786cb	-0.089612566
58	0x3d948659	0.07252187
59	0x3bda6a83	0.006665529
60	0xbc893f60	-0.016753852
61	0x3dbd20f3	0.092348
62	0x3dc0e3eb	0.09418472
63	0x3de36358	0.11102933
64	0xbd3fc0b4	-0.046814635
65	0x3d804877	0.062638216
66	0x3da233ef	0.07920062
67	0x3dc8e665	0.09809569
68	0xbcefd8db	-0.02927821
69	0x3b04fdab	0.00202928
70	0xbd8d4c60	-0.06899333
71	0x3e2669f2	0.16251352
72	0xbba16d18	-0.004926335
73	0x3b3f9baf	0.0029237082
74	0x3dd47f52	0.10375847
75	0x3de09bcb	0.10967215
76	0x3e200b90	0.1562941
77	0x3b52dec7	0.0032176243
78	0xbcfeb3f6	-0.031091671
79	0xbd0b9778	-0.03408
80	0xbc3e164a	-0.011601994
81	0xbe174a95	-0.14774545
82	0x3d189192	0.0372482
83	0xbd7139fd	-0.058893193
84	0xbb6e2363	-0.003633701
85	0xbd442566	-0.04788723
86	0x3dd7cf14	0.10537544
87	0xbc929360	-0.01789254
88	0x3e0f4e70	0.13994765
89	0xbe11ea66	-0.14249572
90	0x3e365c8f	0.17808746
91	0xbc7e1861	-0.015508742
92	0xbcd7a5f5	-0.026324252
93	0xbd47c4ae	-0.048771553
94	0x3d165090	0.036697924
95	0xbd5e1d7d	-0.05422734
96	0x3dda7a4d	0.10667858
97	0x3d185ed1	0.0371998
98	0x3c2352cf	0.009968474
99	0x3e17e14b	0.14832036
100	0xbca39006	-0.019966137
101	0x3daca56b	0.084299885
102	0x3daf3402	0.085548416
103	0x3ad7fc74	0.0016478435
104	0xbdf14e57	-0.1178252
105	0x3c3dc39f	0.011582284
106	0xbc1e4568	-0.009660102
107	0x3d732f52	0.0593713
108	0x3e0b15c2	0.13582519
109	0x3e0c1a4e	0.1368191
110	0xbd991c6c	-0.07476124
111	0xbe179fbd	-0.14807029
112	0xbbfd560b	-0.0077312044
113	0x3e16c9a0	0.14725351
114	0xbd5ff2d6	-0.054674946
115	0x3dc593a9	0.096473046
116	0x3dc2086a	0.09474261
117	0x3d8bd8a9	0.06828434
118	0xbe2afcd0	-0.16698003
119	0xbcd68d47	-0.026190413
120	0xbd617ec9	-0.055052552
121	0x3d78e833	0.060768317
122	0x3d93fb3f	0.07225656
123	0xbd960470	-0.07325065
124	0x3d14129d	0.036150564
125	0xbdb40983	-0.08790877
126	0xbe062663	-0.13100581
127	0xbdaba257	-0.08380573
128	0x3d81d449	0.06339318
129	0xbd7dabef	-0.061931547
130	0xbd4efcea	-0.050534166
131	0x3e165bbc	0.14683431
132	0x3b9ea77d	0.0048417435
133	0xbd19feae	-0.037596397
134	0x3cff9f26	0.031203818
135	0x3bfcb37b	0.0077118254
136	0xbd55ae9d	-0.052168477
137	0x3ca82db7	0.020529611
138	0x3da8f9d8	0.08250779
139	0x3d096c25	0.0335504
140	0xbd0da22f	-0.0345785
141	0xbc4093f6	-0.011754027
142	0x3c0370d2	0.008022504
143	0xbe2301ac	-0.15918607
144	0xbcd1c4a6	-0.025606465
145	0xbdc0dde0	-0.09417319
146	0xbd4b7bf5	-0.04967876
147	0xbdd9a899	-0.106278606
148	0x3dac8370	0.08423507
149	0x3e00b119	0.12567557
150	0x3d937037	0.07199138
151	0xbbd2b24b	-0.0064299456
152	0xbdf5dc70	-0.12004936
153	0xbd482374	-0.048861936
154	0xbd1f530d	-0.038897563
155	0x3e29c658	0.16579568
156	0x3da21da6	0.07915811
157	0xbb3ce0de	-0.0028820555
158	0xbb1f1abf	-0.0024277417
159	0x3dd730cb	0.105073534
160	0x3e08067f	0.13283728
161	0xbdb88519	-0.09009761
162	0x3c9400ec	0.018066846
163	0x3e2c226c	0.16810006
164	0xbdd5fd41	-0.10448695
165	0x3d8e18bf	0.06938314
166	0x3d9b270f	0.07575809
167	0x3d44797b	0.047967415
168	0xbda64a17	-0.081196
169	0x3d2c3190	0.042039454
170	0xbd639eb4	-0.055571273
171	0x3d928bbd	0.07155559
172	0x3e07e1dd	0.13269754
173	0x3cd22544	0.025652535
174	0x3e298209	0.1655351
175	0xbdb772cd	-0.089574434
176	0x3d4308bc	0.04761575
177	0x3d0f15e6	0.034932993
178	0x3d00ee7e	0.031477444
179	0x3b4e016c	0.0031433953
180	0x3dea2456	0.11432712
181	0xbcd16b96	-0.025563996
182	0xbc10c042	-0.0088349
183	0xbcb1bdc4	-0.021696933
184	0x3d49d966	0.049279593
185	0xbdf94be1	-0.12172676
186	0x3ce02ae5	0.027364204
187	0xbd95bde2	-0.07311608
188	0x3d5a06e6	0.053229235
189	0xbdec54f1	-0.11539639
190	0xbd794833	-0.06085987
191	0xbe2fc819	-0.17166175
192	0x3ca20c60	0.019781291
193	0x3cd28021	0.025695862
194	0xbd3ebdf1	-0.04656786
195	0x3e1ba3e0	0.15199232
196	0xbd8be742	-0.06831218
197	0x3d908309	0.07056243
198	0xbc822e3b	-0.015891185
199	0x3d7fe7e4	0.062477008
200	0xbce6eb2c	-0.02818831
201	0x3c0d01d1	0.00860639
202	0x3e1a15c2	0.15047362
203	0xbd72dc89	-0.05929235
204	0x3d8d8656	0.06910388
205	0x3d1e7179	0.038682435
206	0x3d03768c	0.032095477
207	0x3ca70392	0.020387445
208	0x3e09f226	0.13471279
209	0xbdd55f36	-0.10418551
210	0x3bf6d32c	0.007532498
211	0xbd404477	-0.046940293
212	0x3df4aeaa	0.11947377
213	0xbd5ae363	-0.05343951
214	0x3e1cf4e6	0.15327796
215	0x3e177878	0.14792049
216	0x3da84f74	0.082182795
217	0xbda133d1	-0.07871211
218	0xbc612f5e	-0.013744203
219	0x3c56e447	0.013115949
220	0xbd6eb253	-0.058275532
221	0xbdf4a9d4	-0.11946455
222	0xbe436728	-0.1908232
223	0x3b06cb48	0.0020567942
224	0x3dcfca5e	0.1014602
225	0x3d63385b	0.055473667
226	0x3cdebe86	0.027190458
227	0x3d7dac94	0.06193216
228	0xbe0de82f	-0.13858102
229	0x3d32b961	0.043633822
230	0xbd28dae5	-0.04122438
231	0xbbd125a2	-0.00638266
232	0xbdf9baed	-0.121938564
233	0xbc4b2f9a	-0.012401486
234	0x3de42812	0.11140455
235	0x3e16543a	0.14680567
236	0x3e39a46d	0.1812913
237	0x3dd54822	0.10414149
238	0x3dda6df1	0.10665501
239	0xbdfab6eb	-0.1224192
240	0x3c424be2	0.011858912
241	0x3c9ab89b	0.018886855
242	0x3e0ec4c3	0.13942246
243	0x3c9dba34	0.019253828
244	0x3e16acd9	0.14714374
245	0xbd81e465	-0.06342391
246	0xbdfb25f0	-0.122630954
247	0x3deef219	0.1166727
248	0xbd471824	-0.048607007
249	0xbe1a158b	-0.1504728
250	0xbdebef1f	-0.11520218
251	0x3cacd765	0.021098802
252	0x3c4e9970	0.012609825
253	0xbe2309ff	-0.15921782
254	0x3d829a86	0.06377129
255	0xbd9e556e	-0.07731138

lstm.bias_ih_l1 f4 [256]
0	0x3b9d5b85	0.0048021697
1	0xbdcd05df	-0.100108854
2	0xbdda571b	-0.10661145
3	0xbe11b9e4	-0.14231068
4	0x3d649258	0.055803627
5	0xbd2c1181	-0.04200888
6	0xbdbfb72a	-0.09361108
7	0xbdbc8477	-0.09204953
8	0x3d1784ac	0.03699176
9	0xbd8fd1c1	-0.07022429
10	0xbe23e633	-0.16005783
11	0xbdc38b42	-0.09548046
12	0xbbea5ee8	-0.007152427
13	0xbb1e1eb3	-0.0024127185
14	0xbd0ffd1a	-0.035153486
15	0x3d1f9d95	0.03896864
16	0xbe197b3b	-0.14988415
17	0xbe211ce5	-0.15733679
18	0xbdb1979c	-0.08671495
19	0x3cf47576	0.029841166
20	0x3d3e1215	0.046403963
21	0xbe1f16dd	-0.15536065
22	0xbde83cb2	-0.11339702
23	0x3d132a5b	0.035929065
24	0xbe65fc01	-0.22459413
25	0x3d83b4aa	0.06430943
26	0xbda4b046	-0.08041434
27	0xbdcbff13	-0.09960761
28	0x3c9667ba	0.018360008
29	0x3d2f43d9	0.042789314
30	0xbdd7160e	-0.105022535
31	0xbdac9f01	-0.08428765
32	0xbddced51	-0.10787452
33	0xbd7bd2fc	-0.061480507
34	0x3dd0713b	0.10177847
35	0xbaad58f6	-0.0013225365
36	0xbc6da167	-0.014503813
37	0xbceff5e3	-0.029292053
38	0xbe1b67d8	-0.15176332
39	0xbe0891fa	-0.13336936
40	0xbd4b5af8	-0.0496473
41	0xbdca1130	-0.098665595
42	0xbc53fa29	-0.012938061
43	0x3cb8d805	0.022563944
44	0x3d283f01	0.04107571
45	0xbd1390bd	-0.036026705
46	0xbb35fee6	-0.002777034
47	0xbe0c09c2	-0.13675597
48	0x3d086a83	0.033304702
49	0xbc2f380c	-0.010694515
50	0x3d97ead5	0.074178375
51	0xbe3ff927	-0.18747388
52	0xbdd6bde7	-0.1048544
53	0x3d870d18	0.06594294
54	0xbd657f6a	-0.056029715
55	0xbda4e22c	-0.08050951
56	0x3cfcbdf5	0.030852297
57	0x3d3b07ac	0.045661613
58	0xbd59607f	-0.05307054
59	0xbe034e18	-0.12822759
60	0xbd8ae59e	-0.06782077
61	0xbdb3dc75	-0.08782283
62	0x3b0ed4ae	0.0021794247
63	0x3cfc1ce7	0.0307755
64	0x3d3ea2e6	0.04654207
65	0xbd0c50b2	-0.034256645
66	0xbb57030b	-0.003280821
67	0x3d2ce433	0.042209815
68	0x3d7173bd	0.058948267
69	0xbdf84f2f	-0.12124478
70	0xbde450cf	-0.111482255
71	0xbe19a0ef	-0.15002798
72	0x3dd820f8	0.10553163
73	0xbdaddbc2	-0.08489181
74	0xbd6e23e4	-0.058139697
75	0xbe299d89	-0.16564001
76	0xbd2d92de	-0.04237639
77	0xbe0ca34a	-0.13734165
78	0xbdc8f92b	-0.0981315
79	0xbdece972	-0.11567964
80	0x3c731c05	0.014838223
81	0xbe0d9bb2	-0.13828924
82	0xbdfc86ca	-0.123303965
83	0xbdc99a34	-0.09843865
84	0xbd9aa77b	-0.075514756
85	0xbe26d630	-0.16292644
86	0xbd964e2a	-0.07339127
87	0xbd9560c3	-0.072938465
88	0xbdc8e2da	-0.098088935
89	0x3c1b537c	0.009480353
90	0xbdb96501	-0.09052468
91	0xbd6076fa	-0.054800965
92	0xbdea2e68	-0.114346325
93	0x3d87d3b0	0.06632173
94	0x3d968291	0.07349122
95	0xbd8d8372	-0.06909837
96	0xbdce3f0d	-0.1007062
97	0xbd93d91d	-0.072191454
98	0x3b019598	0.0019773003
99	0xbbce7a2b	-0.0063011847
100	0x3cf4b4d2	0.029871378
101	0x3cc8da07	0.024518026
102	0xbe42c1f4	-0.190193
103	0xbe466b4c	-0.19376868
104	0x3d508901	0.050911907
105	0xbabcd767	-0.0014407457
106	0xbd36ef8e	-0.04466205
107	0x3c444452	0.011979179
108	0x3c6b8788	0.014375575
109	0x3d92937a	0.07157035
110	0xbe029840	-0.12753391
111	0xbd8e5a04	-0.06950763
112	0xbe0c9676	-0.13729271
113	0xbcdebef0	-0.027190655
114	0xbe1f4e1d	-0.15557142
115	0x3a82b75b	0.0009972857
116	0xbe34d7c4	-0.17660433
117	0x3d4007b4	0.046882346
118	0x3d5be2c9	0.053683076
119	0xbe101faa	-0.14074579
120	0x3caa1ccd	0.020765686
121	0xbe188dbe	-0.1489782
122	0xbdcf052f	-0.101084106
123	0x3d8d947d	0.069130875
124	0xbe4913ca	-0.19636455
125	0xbe0dfd3a	-0.1386613
126	0xbde02174	-0.10943881
127	0x3da18744	0.07887128
128	0x3da3506b	0.07974323
129	0xbd13304a	-0.035934724
130	0x3e04db7d	0.12974353
131	0x3cc41514	0.023935832
132	0x3da852d0	0.0821892
133	0x3c52e919	0.012872958
134	0x3e1fdf2a	0.15612474
135	0x3d69c996	0.057077013
136	0x3da50929	0.08058388
137	0xbe0c7b53	-0.1371892
138	0xbbbd1af8	-0.005771037
139	0x3c1d23ef	0.009591087
140	0xbdca3c42	-0.098747745
141	0xbd2bcc9f	-0.04194319
142	0xbdff43b6	-0.12464087
143	0xbcaa5c67	-0.020796014
144	0x3df04c39	0.11733288
145	0xbbbbd309	-0.0057319445
146	0x3c22a476	0.009926906
147	0x3d60a628	0.05484596
148	0xbde337f5	-0.11094657
149	0x3de22edd	0.11044095
150	0x3d839c62	0.06426312
151	0x3da55ea1	0.0807469
152	0xbc8375ac	-0.016047321
153	0x3d82e336	0.06390993
154	0xbda15069	-0.07876665
155	0xbc26cf7e	-0.010181306
156	0xbe340502	-0.17580035
157	0xbc001a91	-0.007818834
158	0xbd5ee318	-0.054415792
159	0xbc1c899e	-0.009554295
160	0x3d83deda	0.0643899
161	0xbd942b1f	-0.07234787
162	0x3dcec079	0.10095305
163	0xbd5380f1	-0.05163664
164	0xbe01d625	-0.12679346
165	0xbc661f8f	-0.01404561
166	0xbd533165	-0.05156078
167	0x3d2bc7bf	0.04193854
168	0xbd0b6846	-0.03403499
169	0x3ceef250	0.029168278
170	0x3dfa97a0	0.122359514
171	0xbd91566f	-0.07096564
172	0x3cf78d38	0.030218706
173	0xbd116e31	-0.035505477
174	0x3d43b501	0.04778004
175	0xbd75595f	-0.059899684
176	0x3da843d6	0.08216064
177	0x3e03ceb6	0.12871823
178	0x3b9e35f3	0.0048282086
179	0x3dbe582f	0.092941634
180	0x3d10cb08	0.035349876
181	0xbd829176	-0.06375401
182	0x3cc40389	0.023927467
183	0xbc9ecd31	-0.019384952
184	0xbd479f7b	-0.048736077
185	0xbdda2edd	-0.1065347
186	0x3cd2e5d7	0.025744362
187	0xbdf11c89	-0.11773021
188	0xbdeed3c4	-0.11661485
189	0xbdb14e2e	-0.0865749
190	0xbcfee647	-0.031115664
191	0xbd7ba0b6	-0.061432563
192	0x3d1d4164	0.03839244
193	0x3d327faa	0.04357878
194	0xbde7f262	-0.11325528
195	0x3c97bcea	0.018522698
196	0xbdd7e1e4	-0.10541132
197	0x3d372305	0.04471113
198	0x3cdeee1f	0.027213154
199	0xbdba020c	-0.09082422
200	0x3d909540	0.07059717
201	0xbd86a4bf	-0.065743916
202	0xbb84dc3a	-0.0040545734
203	0xbe0dee8d	-0.13860531
204	0xbce871a1	-0.028374495
205	0xbe0eddd4	-0.13951808
206	0xbe10ae94	-0.14129096
207	0xbe058634	-0.13039476
208	0xbe1e9abf	-0.15488718
209	0xbd627526	-0.055287503
210	0xbe25a487	-0.16176043
211	0xbe1d9fb6	-0.15392956
212	0x3d29086e	0.041267805
213	0x3d96cd02	0.07363321
214	0xbe4d2db9	-0.20036973
215	0xbe03dd77	-0.12877451
216	0xbd8aeb75	-0.06783191
217	0x3c49e63e	0.01232296
218	0xbdc1bf33	-0.094602965
219	0xbe120af3	-0.1426199
220	0xbd9902a0	-0.07471204
221	0xbdfe40c9	-0.124147005
222	0xbe109f41	-0.1412325
223	0xbda0adc9	-0.07845647
224	0xbe522559	-0.2052206
225	0xbd1fb386	-0.038989566
226	0xbd117256	-0.03550943
227	0xbdee4fb3	-0.11636295
228	0xbd3e0821	-0.04639447
229	0xbe1316b0	-0.14364123
230	0x3c5d8e99	0.013522767
231	0x3cc95641	0.024577262
232	0xbd8fcce7	-0.07021504
233	0x3c783345	0.015148942
234	0xbd964679	-0.0733766
235	0xbd84619a	-0.064639285
236	0xbd828b1f	-0.063741915
237	0x3c8864d3	0.01664964
238	0x3d29354a	0.041310586
239	0x3d9bec1e	0.07613395
240	0x3d126c0b	0.03574757
241	0xbe3e99ae	-0.18613312
242	0xbdd3b0fd	-0.10336492
243	0xbe484fbd	-0.19561668
244	0xbe34c259	-0.17652263
245	0xbd171c33	-0.036892127
246	0xbc919f22	-0.017776076
247	0xbdd91b04	-0.10600856
248	0xbd938854	-0.07203737
249	0xbc8dfb15	-0.01733164
250	0xbd868ec0	-0.06570196
251	0xbe0d9fd2	-0.13830498
252	0xbe1c3cc1	-0.15257551
253	0xbdee5391	-0.11637033
254	0xbd0b2621	-0.03397191
255	0x3db1a428	0.086738884
