Competition/TrainAI/model/s40/model_weights_1.pth (torch, 443791 bytes, 18 tensors)

lstm.weight_ih_l0 f4 [256, 36]
0	0xbdc19a74	-0.09453288
1	0xbe10627f	-0.14100073
2	0xbe6da98d	-0.2320921
3	0x3e7c6406	0.24647531
4	0x3c21a0cc	0.009864997
5	0x3bbc7a50	0.0057518855
6	0x3e5c12e6	0.21491584
7	0x3e327868	0.17428744
8	0xbbbefe3b	-0.0058286465
9	0x3e2e63cf	0.17030261
10	0x3e0ab4a5	0.13545473
11	0xbdac67bd	-0.08418224
12	0x3d067a99	0.032831762
13	0xbd73800d	-0.05944829
14	0x3da0997e	0.07841776
15	0x3d6247cb	0.05524425
16	0x3dea26e6	0.114332005
17	0x3ddcd708	0.107832015
18	0xbccdd3b0	-0.025125355
19	0x3e27505b	0.16339247
20	0xbde2c5fc	-0.11072919
21	0x3e0179f9	0.12644185
22	0xbb84b8a2	-0.0040503303
23	0x3d1792d1	0.03700525
24	0x3cc46c69	0.023977475
25	0x3d502613	0.05081756
26	0x3dcbc8fc	0.09950444
27	0xbdf85fac	-0.12127623
28	0xbda3b126	-0.07992773
29	0xbd826e9c	-0.06368753
30	0x3c80361f	0.015650807
31	0x3d0a7158	0.0337995
32	0xbcfc11ac	-0.030770145
33	0xbd6ada23	-0.057336938
34	0xbe83be21	-0.25730994
35	0xbe6a8743	-0.22903161
36	0xbe508c3e	-0.20365998
37	0x3db3b487	0.08774667
38	0xbbec6885	-0.007214608
39	0xbdae2e1c	-0.085048884
40	0xbddc6ffe	-0.10763548
41	0xbdbd1de4	-0.09234217
42	0xbe0ff7e7	-0.14059411
43	0xbd61eee9	-0.055159483
44	0x3d72f44d	0.059315015
45	0xbd268820	-0.040657163
46	0x3e81c5f0	0.25346327
47	0xbdba8f07	-0.091093116
48	0xbe68bbb8	-0.22727859
49	0xbd93c783	-0.07215788
50	0xbe044488	-0.12916768
51	0x3cc0bdf0	0.02352807
52	0xbbe6c860	-0.0070429295
53	0x3d520183	0.051270973
54	0xbd88ac5e	-0.066735014
55	0x3d9ff325	0.07810048
56	0xbda5e799	-0.08100814
57	0xbdbb88ee	-0.09156977
58	0xbd524417	-0.051334467
59	0x3d998e8c	0.07497892
60	0xbd81021a	-0.06299229
61	0x3daae01d	0.083435275
62	0xbdfd178b	-0.12358006
63	0xbda131f8	-0.07870859
64	0x3d9d7182	0.076876655
65	0xbcc57a36	-0.024106126
66	0x3beddf03	0.007259251
67	0xbcd6711a	-0.026176978
68	0xbdde2c50	-0.10848296
69	0xbe3e636d	-0.18592615
70	0xbdf1948b	-0.117959104
71	0x3e0c2d8f	0.13689254
72	0xbc07bf41	-0.008285345
73	0x3ca4790b	0.020077249
74	0x3c8e9492	0.017404828
75	0xbdce5343	-0.10074475
76	0x3c3c731f	0.011502056
77	0xbdc281b7	-0.094973974
78	0xbe00e627	-0.12587796
79	0xbd115b9c	-0.035487756
80	0xbd99a054	-0.07501283
81	0x3cc25e14	0.0237265
82	0x3d40edc5	0.047101755
83	0x3dfacec3	0.12246468
84	0xbc968f19	-0.018378781
85	0x3db6e39c	0.08930132
86	0x3d262516	0.04056271
87	0x3d89cf24	0.06728962
88	0xbda53930	-0.08067548
89	0xbd1afcba	-0.037838675
90	0xbd910568	-0.07081109
91	0x3d0226e4	0.03177537
92	0x3dd2233e	0.10260628
93	0xbd141c69	-0.036159907
94	0x3e3efe8d	0.18651791
95	0xbd82f4aa	-0.06394322
96	0xbe0d4adc	-0.13798088
97	0xbd8a33f3	-0.0674819
98	0x3c8d963b	0.01728355
99	0x3e18017c	0.14844316
100	0x3defa27e	0.11700915
101	0x3e08b0f5	0.13348754
102	0x3e0a2a3d	0.13492675
103	0xbd82df0e	-0.063902006
104	0xbc46a83e	-0.012125073
105	0x3cb62874	0.022236086
106	0x3d6e3d54	0.058163956
107	0x3d00deaa	0.03146235
108	0x3e2172b3	0.1576641
109	0x3d8caf03	0.06869318
110	0x3d9349bc	0.07191798
111	0x3de8d9ad	0.11369643
112	0xbda14d0d	-0.078760244
113	0x3dcc8400	0.099861145
114	0x3db9b76d	0.09068189
115	0x3df0624a	0.11737497
116	0xbd06c63b	-0.03290389
117	0xbda3357e	-0.07969187
118	0x3e1e002a	0.1542975
119	0x3da87838	0.08226055
120	0x3e0575a3	0.13033156
121	0x3daeeae8	0.085408986
122	0xbda4e2ee	-0.08051096
123	0x3d8269f5	0.06367866
124	0x3e06ac8c	0.13151759
125	0xbdd4cfc7	-0.10391193
126	0x3c6c6447	0.014428205
127	0xbd8f3888	-0.06993204
128	0x3da35670	0.07975471
129	0x3d8c6bb7	0.068564825
130	0x3d9ea09a	0.07745476
131	0x3d968987	0.0735045
132	0xbd3c5f74	-0.04598947
133	0x3e1a4e7a	0.15068999
134	0xbda52d79	-0.08065314
135	0x3da7a2aa	0.081853226
136	0xbd2676a4	-0.04064049
137	0x3dc4cff1	0.09609974
138	0xbcf9e9ae	-0.030506935
139	0xbda231df	-0.079196684
140	0x3c915d66	0.017744731
141	0x3d88ddc2	0.06682922
142	0xbd4b5f6e	-0.049651556
143	0x3e07ce7b	0.1326236
144	0xbbfe7fb2	-0.0077666873
145	0x3c730faa	0.014835278
146	0xbe0cf08d	-0.13763638
147	0xbd77bdf5	-0.06048389
148	0x3d64c7ff	0.055854794
149	0x3dfebb62	0.12438084
150	0xbc534d4c	-0.012896847
151	0x3b93e75a	0.0045136632
152	0xbd2ba400	-0.04190445
153	0xbe160560	-0.14650488
154	0xbe10137f	-0.14069937
155	0x3bc0615b	0.0058709807
156	0xbd5f1df8	-0.05447194
157	0x3d4e7383	0.05040313
158	0x3cea4294	0.0285962
159	0xbcf47b0e	-0.029843833
160	0xbd2c8b97	-0.04212531
161	0xba227b51	-0.0006198185
162	0xbcffc93e	-0.03122389
163	0xbc662669	-0.014047244
164	0x3e3bd494	0.18342811
165	0x3d2a30ac	0.041550323
166	0x3e013f66	0.12621841
167	0xbd917b1f	-0.071035616
168	0x3da78ece	0.08181535
169	0xbd8e2b7e	-0.06941889
170	0xbd6d420b	-0.05792431
171	0x3dc09d1f	0.094049685
172	0x3d58d395	0.052936155
173	0xbd72c0bc	-0.059265837
174	0x3cbc52e1	0.022988738
175	0xbcc3ba51	-0.023892554
176	0xbdfbe70d	-0.12299929
177	0x3e2e0ff5	0.16998275
178	0x3c855c5f	0.016279398
179	0x3ceabd37	0.028654678
180	0xbd75543b	-0.05989478
181	0x39fd8cb5	0.00048360755
182	0x3d5a84f9	0.05334947
183	0xbd524681	-0.05133677
184	0x3d2822fb	0.041048985
185	0x3d2a8e7c	0.04163979
186	0xbd3bab9e	-0.045817964
187	0xbdb14d55	-0.08657328
188	0xb9b2a147	-0.00034070967
189	0xbdafbcd4	-0.08580938
190	0xbdd8f872	-0.10594262
191	0x3d34b741	0.044120077
192	0x3d0fccb9	0.035107348
193	0xbca266e9	-0.019824462
194	0xbdcd38d7	-0.10020607
195	0x3db8defb	0.09026905
196	0x3c2beebd	0.010493931
197	0xbe019c8f	-0.12657379
198	0xbd433376	-0.0476565
199	0x3d22088c	0.039558932
200	0xbd8632f7	-0.065526895
201	0x3d4e57c8	0.050376683
202	0x3c01c5be	0.007920681
203	0x3cb90d96	0.022589486
204	0x3c1d2afe	0.00959277
205	0xbdcb703c	-0.099335164
206	0xbd737bc9	-0.059444223
207	0xbd7c2b6d	-0.06156485
208	0xbe11ef84	-0.14251524
209	0xbdc4a43e	-0.09601639
210	0xbc96a24a	-0.018387932
211	0x3bcf87b5	0.006333316
212	0x3cd699e1	0.026196422
213	0xbe1b8596	-0.15187678
214	0x3dc05213	0.093906544
215	0x3e300877	0.17190729
216	0x3d2d1594	0.042256907
217	0x3e2ec3b5	0.17066844
218	0xbda45c14	-0.08025375
219	0xbdf6ee57	-0.120571785
220	0x3d056413	0.03256614
221	0xbcb53a6b	-0.022122582
222	0xbe1f1d15	-0.15538438
223	0xbda8295b	-0.08211013
224	0xbe36ffe4	-0.17871052
225	0xbd5ecdab	-0.05439536
226	0xbc94f516	-0.018183272
227	0xbc3dee32	-0.011592435
228	0xbe523a31	-0.20530011
229	0x3dbdacd4	0.0926148
230	0x3dc876ae	0.09788261
231	0xbc475e98	-0.012168549
232	0xbd0ff561	-0.03514612
233	0xbd3d879e	-0.046271913
234	0xbe01bf0e	-0.12670538
235	0x3e226ca5	0.15861757
236	0x3e223448	0.15840256
237	0xbca15746	-0.019694936
238	0x3df9f627	0.12205153
239	0x3b0b331b	0.0021240178
240	0x3e1b6482	0.1517506
241	0x3e491b20	0.19639254
242	0x3d0a4554	0.033757523
243	0x3e32fd65	0.17479475
244	0x3e30cc09	0.17265333
245	0xbcf30b58	-0.029668495
246	0x3db305f4	0.0874137
247	0xbd6017ce	-0.054710202
248	0x3c9e46cb	0.019320866
249	0x3d9207b0	0.071303725
250	0xbd70e146	-0.058808587
251	0x3d9597ec	0.073043674
252	0x3d7a0c6c	0.061047003
253	0x3df64a71	0.12025917
254	0x3d4972d2	0.049181767
255	0x3d1f0077	0.038818803

lstm.weight_hh_l0 f4 [256, 64]
0	0xbe196523	-0.14979987
1	0x3e193a3d	0.14963622
2	0xbd04c5d6	-0.032415234
3	0xbe19640b	-0.1497957
4	0x3cf2e184	0.02964855
5	0x3e0e5ed5	0.13903363
6	0xbbf13a1a	-0.0073616626
7	0xbd35192b	-0.044213455
8	0xbda3cce6	-0.07998066
9	0xbd67ce3c	-0.056593165
10	0x3e29307b	0.165224
11	0x3e7db5ee	0.24776432
12	0x3e3429f7	0.17594133
13	0xbe054ec2	-0.13018325
14	0x3d0f3b7b	0.034968834
15	0xbde29b6d	-0.11064801
16	0x3d993d58	0.074824035
17	0xbe81babf	-0.25337788
18	0x3d1da82a	0.038490452
19	0x3e3f5171	0.18683411
20	0x3e086c68	0.13322604
21	0x3dd3f305	0.10349087
22	0xbd770655	-0.060308773
23	0x3e1cc8ac	0.15310925
24	0x3d75fdaa	0.060056366
25	0xbe0a8dd0	-0.1353066
26	0xbe1b7e39	-0.15184869
27	0xbd9f6ee0	-0.077848196
28	0x3d4d793e	0.050164454
29	0xbe26fd53	-0.16307573
30	0x3d35394c	0.044244096
31	0x3dd7169c	0.10502359
32	0x3dc2eeed	0.09518228
33	0xbc5d2ef0	-0.01349996
34	0xbd2d0a3e	-0.042246096
35	0xbe206a6e	-0.156656
36	0xbd80dcb9	-0.062920995
37	0xbceb7c7b	-0.02874588
38	0x3d95cb05	0.073141135
39	0x3d1c3aeb	0.038142126
40	0x3dfb9674	0.12284556
41	0xbbef2399	-0.0072979447
42	0xbb8a4485	-0.004219594
43	0xbd43cb3b	-0.047801238
44	0xbd228e8c	-0.039686725
45	0x3a23c35e	0.00062470685
46	0x3d91a98b	0.07112416
47	0xbdb3ec44	-0.087852985
48	0x3c4b4253	0.01240595
49	0x3d162162	0.03665293
50	0xbd9a9ec4	-0.075498134
51	0xbd93ba88	-0.072133124
52	0xbdac3c40	-0.08409929
53	0x3dc38111	0.09546102
54	0x3de84cb4	0.11342755
55	0xbdd6c015	-0.104858555
56	0x3c28f9c6	0.010313457
57	0x3d326670	0.043554723
58	0x3d80bda2	0.062861696
59	0xbd5e9bf1	-0.054347936
60	0x3cfeb6c7	0.031093014
61	0x3d167937	0.036736693
62	0xbd6bf015	-0.057602007
63	0xbd635acc	-0.055506513
64	0x3d55ab8a	0.052165546
65	0x3dc5d98e	0.09660636
66	0xbd5a0124	-0.053223744
67	0x3d9ad975	0.07561008
68	0xbda6e2a8	-0.081487
69	0xbe06b5ac	-0.1315524
70	0x3d88bd10	0.06676686
71	0xbe36f57a	-0.1786708
72	0xbe1e610c	-0.15466708
73	0x3d4413cf	0.047870453
74	0x3cbd3ee9	0.023101287
75	0x3da481b6	0.08032553
76	0x3da0ec3c	0.07857558
77	0xbe4d58ea	-0.2005345
78	0x3d10164d	0.035177518
79	0xbd37e918	-0.04490003
80	0xbb0f1342	-0.0021831547
81	0xbdf84080	-0.121216774
82	0xbdcad992	-0.099047795
83	0xbb81bca2	-0.0039592544
84	0x3ca02063	0.019546693
85	0x3c1535fc	0.009107109
86	0x3e5065f4	0.20351392
87	0x3d741cde	0.059597842
88	0x3c5e164d	0.013555122
89	0x3c717eb5	0.014739682
90	0xbcb0a1e3	-0.021561569
91	0x3c356421	0.011071236
92	0x3d0d33c2	0.03447319
93	0xbe3657bd	-0.17806907
94	0x3e37ec23	0.17961173
95	0xbcffe67c	-0.031237833
96	0xbc1ce8ab	-0.009576957
97	0xbc5898b5	-0.013220002
98	0x3de15d3d	0.11004112
99	0x3d4bd8f8	0.049767464
100	0xbe2824f3	-0.16420345
101	0x3e0cba55	0.13742955
102	0xbe306e9e	-0.17229697
103	0x3cd602e4	0.026124425
104	0xbd497236	-0.049181186
105	0xbd4de1b4	-0.050264075
106	0xbd776d2d	-0.060406853
107	0x3d8b39bd	0.06798122
108	0xbd9a312a	-0.075289086
109	0x3c9b4ca9	0.018957453
110	0xbd91dcd6	-0.07122199
111	0x3deafc0a	0.11473854
112	0xbdf53acb	-0.119741045
113	0xbd7bea81	-0.061502937
114	0x3dae913a	0.085237935
115	0xbe1202c7	-0.14258872
116	0x3c6a2b39	0.014292532
117	0xbdf623f3	-0.120185755
118	0x3da94b90	0.082663655
119	0x3d5b241e	0.05350124
120	0x3d2c8115	0.04211529
121	0x3dbff155	0.09372202
122	0xbe65615e	-0.22400424
123	0x3cb759f3	0.022381758
124	0xbdd1f61f	-0.10252022
125	0xbc231702	-0.009954216
126	0xbdd468f4	-0.10371581
127	0xbd925b2d	-0.07146297
128	0x3db69b15	0.08916298
129	0xbe0d63e5	-0.13807638
130	0x3dde4743	0.10853436
131	0xbe03aa29	-0.1285788
132	0x3d197beb	0.037471693
133	0x3e3351b6	0.17511639
134	0x3c88cbb3	0.016698694
135	0xbb71aae8	-0.003687555
136	0xbe157b73	-0.14597873
137	0x3dd23786	0.102644965
138	0x3d9e9b24	0.077444345
139	0x3e0a42f4	0.13502103
140	0x3dcb2791	0.09919656
141	0xbd291279	-0.041277383
142	0xbc92ba05	-0.017910967
143	0xbdbd27a6	-0.09236078
144	0xbcf5eca1	-0.03002006
145	0xbc369fd0	-0.011146501
146	0xbe232606	-0.15932474
147	0x3d200a05	0.039072055
148	0x3e42e68d	0.1903326
149	0x3d864a3b	0.06557127
150	0x3df3ed70	0.11910522
151	0x3e05da39	0.13071527
152	0x3d881f8d	0.06646643
153	0x3d3fa12c	0.046784565
154	0xbe14d551	-0.14534499
155	0xbe46db96	-0.19419703
156	0xbc8786f6	-0.016543847
157	0x3d8104a7	0.062997155
158	0x3d9d838d	0.07691107
159	0x3d051e54	0.032499626
160	0x3d5502d1	0.05200464
161	0xbcef1fa5	-0.029189894
162	0xbd367a77	-0.044550385
163	0x3d92c8d3	0.071672104
164	0xbe41f16a	-0.18939748
165	0xbdb1dd78	-0.0868482
166	0xbda48101	-0.08032418
167	0xbe45be5d	-0.19310899
168	0x3e402758	0.18765008
169	0x3dbb7cd9	0.09154672
170	0x3c932cf3	0.01796577
171	0xbdf4bedd	-0.11950467
172	0xbd39ae2d	-0.045332123
173	0x3d2c34ba	0.04204247
174	0x3e1c1f58	0.15246332
175	0xbdc67ce9	-0.096917935
176	0x3dd171e1	0.10226799
177	0xbe35b77c	-0.17745775
178	0xbd598a67	-0.053110506
179	0x3d478598	0.04871139
180	0xbe054ead	-0.13018294
181	0x3e1307dc	0.14358467
182	0x3c552390	0.013008967
183	0x3ba150a3	0.0049229427
184	0xbce9dc85	-0.028547535
185	0xbdb548a7	-0.08851748
186	0x3b80e95c	0.0039340686
187	0x3d3e8c6d	0.04652064
188	0xbe15aced	-0.14616747
189	0x3a30a2be	0.00067381177
190	0xbd50981d	-0.050926317
191	0x3d8f7da3	0.07006385
192	0x3e283bf8	0.16429126
193	0xbe1a9700	-0.15096664
194	0x3d9be65c	0.07612297
195	0x3d32a548	0.043614656
196	0x3d4c202b	0.049835365
197	0x3d8e70f5	0.069551386
198	0x3dde6573	0.10859194
199	0xba5ce4f3	-0.000842645
200	0x3d18a6bd	0.03726839
201	0xbdadffd8	-0.08496064
202	0x3d3c2736	0.045935832
203	0x3b844521	0.004036561
204	0xbd486e98	-0.048933595
205	0x3dc9d2ca	0.09854658
206	0xbe39c30c	-0.1814081
207	0xbd4d84d7	-0.050175514
208	0x3bb68ce1	0.0055709933
209	0x3d1fa3b0	0.038974464
210	0x3dd53ed6	0.10412376
211	0x3cc1244c	0.023576878
212	0x3cc591a5	0.0241173
213	0x3db0a62f	0.08625447
214	0x3b4f76ee	0.003165658
215	0x3e383e49	0.1799251
216	0x3df2d18b	0.118563734
217	0xbdf8694b	-0.12129458
218	0xbdbf3707	-0.093366675
219	0xbcd65f19	-0.026168393
220	0xbd63b957	-0.055596676
221	0x3db0a995	0.08626095
222	0xbbc8586e	-0.0061140573
223	0x3d355e72	0.044279523
224	0x3e22d611	0.15901972
225	0xbd56b1bc	-0.052415594
226	0xbd887834	-0.06663552
227	0xbd1eefb2	-0.03880281
228	0xbd6303a3	-0.05542339
229	0xbe140b49	-0.1445743
230	0x3dfe06d2	0.124036446
231	0x3d479a6a	0.048731245
232	0xbd7c9cbb	-0.061672907
233	0xbdecb58a	-0.11558063
234	0x3a0dc184	0.0005407559
235	0x3cb4c92b	0.02206858
236	0x3e67dd27	0.22642957
237	0x3d37b1d0	0.04484731
238	0xbe0d1a4d	-0.13779564
239	0x3d022c13	0.031780314
240	0x3d39be5c	0.045347556
241	0xbdb0c14a	-0.08630617
242	0xbdc87f19	-0.09789867
243	0xbc9f286c	-0.019428454
244	0x3d3a88fd	0.0455408
245	0x3e139e00	0.14415741
246	0x3d74ff16	0.05981358
247	0x3e5bcb90	0.21464372
248	0xbc89fb83	-0.016843563
249	0xbe2ced0e	-0.16887304
250	0x3ccbc9d8	0.02487652
251	0xbce2cf5c	-0.027686767
252	0xbd7429a0	-0.05961001
253	0x3c81ff30	0.015868753
254	0x3cf02c59	0.029318022
255	0xbd8b23b7	-0.067939214

lstm.bias_ih_l0 f4 [256]
0	0xbd47c19c	-0.048768625
1	0xbe45ccf6	-0.19316468
2	0xbe314b0c	-0.17313784
3	0x3d6a9b38	0.057276934
4	0xbd21fbc0	-0.039546728
5	0xbde76df0	-0.11300266
6	0x3c254881	0.010088087
7	0xbe283ca0	-0.16429377
8	0xbe46a2a5	-0.19397981
9	0xbdc07e3c	-0.09399077
10	0xbe13ea89	-0.14444937
11	0x3e1a1c5e	0.15049884
12	0x3daff27f	0.08591174
13	0xbce5dbf2	-0.02805898
14	0xbd860c06	-0.06545262
15	0xbd9d8c88	-0.0769282
16	0xbcd1b579	-0.025599228
17	0xbdfc2160	-0.12311053
18	0x3da0aab5	0.0784506
19	0x3e1feeaa	0.15618387
20	0xbdc6d3ad	-0.09708343
21	0x3e060eea	0.13091627
22	0xbdac2d31	-0.08407057
23	0xbd96e8bf	-0.073686115
24	0xbcdd1cb7	-0.026991231
25	0x3c7c3de0	0.0153956115
26	0x3de8e5fa	0.113719895
27	0xbd485fdd	-0.048919547
28	0xbe1ee918	-0.15518606
29	0x3d403601	0.046926502
30	0x3e07628a	0.13221183
31	0xbd43d7b6	-0.04781314
32	0xbd2f8acd	-0.04285698
33	0xbd977d4f	-0.073969476
34	0xbd92da87	-0.07170587
35	0x3e31c6c0	0.17360973
36	0xbcd71281	-0.02625394
37	0x3dcb360a	0.099224165
38	0x3e009682	0.12557414
39	0xbe0da244	-0.1383143
40	0xbd9775b7	-0.07395499
41	0x3d871a84	0.06596854
42	0xbac60e19	-0.0015110403
43	0x3d4c0ea1	0.04981864
44	0xbd9bab39	-0.076010175
45	0x3c5bb2ac	0.013409298
46	0x3dbc6ef5	0.09200851
47	0x3e88ffe5	0.26757732
48	0x3d9196be	0.0710883
49	0xbe4764c5	-0.19472034
50	0xbc0680df	-0.008209436
51	0xbc976cbc	-0.018484466
52	0xbe3240bf	-0.17407511
53	0xbd9efde8	-0.077632725
54	0xbdeaef4f	-0.11471426
55	0x3cd12e62	0.025534812
56	0xbdac8f9c	-0.08425829
57	0x3d4aaa20	0.04947865
58	0x3d8d3cde	0.06896375
59	0xbd2aa347	-0.04165962
60	0xbdbe34cb	-0.09287413
61	0x3d8356f5	0.0641307
62	0x3e201cd4	0.15635997
63	0xbe0bf5d2	-0.13667992
64	0xbe354283	-0.17701153
65	0x3c93524f	0.017983584
66	0xbd98064e	-0.074230775
67	0xbe3ec761	-0.18630745
68	0xbe1bf06e	-0.15228435
69	0xbe198902	-0.1499367
70	0xbe425c7d	-0.18980594
71	0x3dd9cb27	0.10634451
72	0xbe0fb3b2	-0.14033392
73	0xbe2390c3	-0.15973191
74	0xbb90aa9b	-0.004414869
75	0x3de8b8e4	0.1136339
76	0xbd61fed5	-0.055174667
77	0xbd935464	-0.071938306
78	0x3c729d9a	0.014808083
79	0xbd79aa82	-0.060953625
80	0x3db8a0a4	0.09015015
81	0xbe4c1d26	-0.19932994
82	0xbd19b685	-0.03752758
83	0xbd8a5fe3	-0.0675657
84	0xbd3d3b84	-0.046199337
85	0xbddd50e0	-0.10806441
86	0xbd7be08d	-0.061493445
87	0xbd919973	-0.07109346
88	0x3cd18887	0.025577797
89	0xbdacac46	-0.08431296
90	0x3d675d5e	0.056485526
91	0xbddd0b47	-0.107931666
92	0xbe4cf51a	-0.20015374
93	0x3dc20cd2	0.094751015
94	0x3d16432d	0.036685158
95	0xbc924ad2	-0.017857943
96	0xbd972641	-0.07380343
97	0xbe0a5d3d	-0.1351213
98	0x3cbfd41f	0.023416577
99	0xbdde18cb	-0.10844573
100	0xbd7e54b6	-0.062092505
101	0x3dd50c11	0.10402692
102	0x3cdce722	0.026965681
103	0x3dd79622	0.105266824
104	0xbd688818	-0.056770414
105	0xbd996a35	-0.074909605
106	0xbe038b91	-0.12846209
107	0x3e1f66bd	0.15566535
108	0x3dc2557b	0.0948896
109	0xbe322fe5	-0.17401083
110	0xbdc2950f	-0.09501087
111	0x3b3be143	0.0028668202
112	0xbdf646fd	-0.12025259
113	0x3bc68a46	0.006058964
114	0xbe09f03a	-0.13470545
115	0x3d3ec850	0.04657775
116	0x3dc3dd9b	0.09563752
117	0x3d80c183	0.062869094
118	0x3e2fdc5d	0.17173906
119	0xbd86fc4f	-0.06591093
120	0xbd410407	-0.04712298
121	0xbdf237d0	-0.11827052
122	0xbd1a329d	-0.037645925
123	0x3e09b32e	0.13447258
124	0xbd781ecb	-0.06057624
125	0xbda6bc4b	-0.08141383
126	0xbd46fcd9	-0.048580978
127	0xbe278cf3	-0.16362362
128	0x3d99afaf	0.07504212
129	0xbc46acdf	-0.012126177
130	0x3da47bc0	0.08031416
131	0xbda9889b	-0.082780086
132	0xbd7c6962	-0.06162394
133	0x3d457b64	0.048213378
134	0x3c358bde	0.01108071
135	0x3e013d93	0.12621145
136	0x3b9b4f75	0.0047396966
137	0x3d987fd9	0.0744626
138	0xbd6fe67f	-0.058569428
139	0xbe3b766b	-0.18306892
140	0x3e3218a9	0.1739222
141	0x3d95d84b	0.07316645
142	0xbdf542ec	-0.11975655
143	0xbda7bb8f	-0.08190071
144	0xbe346a4f	-0.17618679
145	0xbd34afd6	-0.044113003
146	0x3ddd0c3e	0.10793351
147	0x3e1ce30c	0.15320987
148	0x3e0450f9	0.12921514
149	0xbcc633d7	-0.024194641
150	0x3cbe733e	0.023248311
151	0xbc0e3ea4	-0.008681927
152	0x3e15956f	0.14607786
153	0x3e0821cb	0.13294141
154	0x3e1530b2	0.14569357
155	0x3ce730eb	0.028221568
156	0xbdcee6e2	-0.10102631
157	0x3e106e78	0.1410464
158	0xbdd38085	-0.103272475
159	0xbe021ea5	-0.12707002
160	0x3d2e5c05	0.042568225
161	0x3d784b3d	0.060618628
162	0x3dd9b380	0.1062994
163	0x3dc610d6	0.0967118
164	0xbd7f376a	-0.062308706
165	0xbe170bde	-0.1475062
166	0x3e4b8647	0.19875441
167	0xbddac6ef	-0.10682475
168	0x3de53ac7	0.111928515
169	0xbda881fb	-0.08227917
170	0x3d45fc0f	0.048336085
171	0xbd228d83	-0.039685737
172	0x3de66ab8	0.11250824
173	0x3d8bebfa	0.06832118
174	0xbdb5ea60	-0.08882594
175	0xbd2270aa	-0.039658226
176	0x3cc68c75	0.024236897
177	0xbddc831e	-0.10767196
178	0xbd8d79ba	-0.06907983
179	0x3d257530	0.04039496
180	0x3db90286	0.090336844
181	0xbd4dde9c	-0.050261125
182	0xbcb446dc	-0.022006445
183	0xbd603787	-0.054740455
184	0x3c93436a	0.017976481
185	0xbe2a9b49	-0.16660799
186	0x3da61103	0.081087135
187	0x3b3b9aca	0.0028626197
188	0xbbd336f1	-0.0064457585
189	0xbb2cdd46	-0.0026377006
190	0x3d47e51b	0.048802476
191	0xbd04695c	-0.03232704
192	0xbe0e4f3b	-0.13897412
193	0xbe42525c	-0.1897673
194	0x3c185108	0.009296663
195	0x3d422813	0.0474015
196	0xbe143408	-0.14472973
197	0xbdd56ab4	-0.10420743
198	0x3d154e37	0.036451545
199	0xbdd197fd	-0.102340676
200	0xbd22250f	-0.039586123
201	0xbd3eff7f	-0.04663038
202	0x3def6ee1	0.1169107
203	0xbd243838	-0.040092677
204	0xbe34757b	-0.1762294
205	0xbe6342eb	-0.22193496
206	0x3dded7f4	0.108810335
207	0xbcb1beda	-0.02169745
208	0xbd9ee0fa	-0.077577546
209	0xbdeb59b4	-0.11491719
210	0xbdc0db8c	-0.09416875
211	0x3d59c0cc	0.05316238
212	0x3ca78366	0.020448398
213	0xbe41063f	-0.18850039
214	0x3c6aa1c0	0.014320791
215	0xbd137a74	-0.036005452
216	0xbdaf427e	-0.08557604
217	0xbdcb2c64	-0.09920576
218	0xbdda0a3d	-0.10646484
219	0xbd46dff3	-0.04855342
220	0xbddefab4	-0.108876616
221	0xbd41ba4e	-0.047296815
222	0xbdd8d455	-0.10587374
223	0x3b0bbe7d	0.0021323257
224	0xbdb0e44a	-0.08637293
225	0xbe39e3b6	-0.18153271
226	0xbe33d42e	-0.17561409
227	0x3cee67b0	0.029102176
228	0x3d8d0a6b	0.06886753
229	0x3da1eb1d	0.079061724
230	0xbd85e93b	-0.06538626
231	0x3b78eb62	0.0037982096
232	0x3d3def5d	0.046370853
233	0xbd507057	-0.050888386
234	0xbe81afb4	-0.25329363
235	0x3c66b7e6	0.014081931
236	0x3c8c9942	0.017162923
237	0xbdacd31f	-0.08438706
238	0xbdc26277	-0.09491437
239	0xbd6ac1cb	-0.05731372
240	0xbda975fd	-0.082744576
241	0x3d94860a	0.072521284
242	0xbd3425e1	-0.043981437
243	0xbe25fe07	-0.16210185
244	0xbd68abd3	-0.05680449
245	0xbd52943e	-0.051410906
246	0x3cd010a3	0.025398558
247	0x3d692ddd	0.056928504
248	0x3d546cec	0.05186169
249	0xbd042f84	-0.032271877
250	0xbda7d8f7	-0.0819568
251	0x3c11df47	0.008903331
252	0xbd60bff2	-0.054870553
253	0x3d6fe13d	0.058564413
254	0x3d387285	0.04503109
255	0xbdfbdba8	-0.122977555

lstm.bias_hh_l0 f4 [256]
0	0xbd954041	-0.07287646
1	0xbd87c4e0	-0.06629348
2	0xbe36de7f	-0.17858313
3	0xbd24ee4e	-0.040266328
4	0xbd8d8542	-0.069101825
5	0xbddb63f4	-0.10712424
6	0xbd61f972	-0.05516953
7	0xbd08c527	-0.033391144
8	0xbe34e0d2	-0.17663887
9	0x3c69ab73	0.014262068
10	0xbe2f6a4f	-0.17130397
11	0x3c57a3e4	0.013161633
12	0xbe1a4528	-0.15065444
13	0xbe26da86	-0.16294298
14	0xbd88f0e2	-0.0668657
15	0xbb1b7959	-0.0023723452
16	0x3cb81795	0.022472182
17	0x3d752397	0.059848394
18	0x3d98c183	0.074587844
19	0x3d69fada	0.057123996
20	0xbe286b1b	-0.16447107
21	0xbd32530e	-0.04353624
22	0xbd3dcb1c	-0.04633628
23	0x3c4082a9	0.011749902
24	0x3de728b6	0.11287062
25	0xbd0a5701	-0.03377438
26	0x3d30fcb5	0.04320975
27	0x3e05a41a	0.13050881
28	0xbd694afd	-0.05695628
29	0x3dc346c5	0.095349826
30	0x3d85adbc	0.06527278
31	0x3dbfb1b1	0.09360064
32	0xbde9c837	-0.11415141
33	0x3d8e3cd9	0.069451995
34	0x3dd73b81	0.10509396
35	0x3df0eb25	0.117636
36	0xbde58843	-0.112076305
37	0xbd6c8807	-0.057746913
38	0xbcd1a7d3	-0.02559272
39	0x3cd49735	0.025951007
40	0xbd4827e1	-0.048866156
41	0x3d65290e	0.055947356
42	0x3e070782	0.13186458
43	0xbe1326cd	-0.1437027
44	0xbd522a2e	-0.051309757
45	0xbd683f79	-0.056701157
46	0xbd8bc9e7	-0.06825619
47	0x3d86e3df	0.06586432
48	0x3cc5dd42	0.024153356
49	0xbd6b62ca	-0.05746726
50	0xbd70a48f	-0.058750685
51	0x3d64de9a	0.055876352
52	0xbd6e8a69	-0.058237467
53	0xbe576b21	-0.2103696
54	0xbd52a37e	-0.05142545
55	0xbd75d512	-0.060017653
56	0x3c4ce906	0.012506729
57	0xbd3ffb44	-0.046870485
58	0xbd6dba46	-0.058038972
59	0xbc805358	-0.015664741
60	0x3d9b9a8f	0.07597839
61	0xbc11d996	-0.008901974
62	0xbd4ff937	-0.05077478
63	0x3b27ff82	0.0025634472
64	0xbe158b8b	-0.14604013
65	0xbd14fd1a	-0.03637419
66	0xbdf84410	-0.12122357
67	0x3cd67a38	0.026181325
68	0x3d7b75a8	0.061391503
69	0x3d3189a2	0.043344148
70	0x3c94f6e5	0.018184135
71	0xbc5942f7	-0.013260595
72	0xbe0ec35a	-0.13941708
73	0xbdf86358	-0.12128323
74	0x3e07bab6	0.13254818
75	0x3d79517b	0.06086872
76	0x3dfd7858	0.123764694
77	0xbdc80af8	-0.09767717
78	0x3c9a8673	0.018862939
79	0xbd35ce9f	-0.044386502
80	0x3c210506	0.009827858
81	0xbdbd3f6b	-0.09240612
82	0x3cea26ba	0.02858292
83	0xbb9e56f7	-0.0048321444
84	0xbd91edba	-0.07125421
85	0x3db31c81	0.08745671
86	0xbca65c3d	-0.020307655
87	0x3d84814d	0.06469975
88	0x3dc0e911	0.09419454
89	0xbd21b91e	-0.039483182
90	0x3ce687ab	0.028140863
91	0xbdb725d2	-0.089427605
92	0xbd083baa	-0.033260025
93	0x3e00ea19	0.12589301
94	0xbc01a41b	-0.007912661
95	0xbc81b271	-0.015832158
96	0xbde7f533	-0.11326065
97	0xbe5d62b1	-0.21619679
98	0x3d8984b6	0.06714766
99	0x3cee53be	0.029092666
100	0xbded5c57	-0.11589878
101	0x3d587a9d	0.052851308
102	0x3e034424	0.12818962
103	0x3e0672d8	0.13129747
104	0xbd7f153c	-0.06227611
105	0x3cf4e8bf	0.029896138
106	0xbe092e03	-0.13396458
107	0x3d038559	0.032109592
108	0xbc3b219d	-0.011421588
109	0xbdf9947d	-0.12186525
110	0xbdc3a4b5	-0.095529
111	0xbd027c78	-0.031856984
112	0xbdded1f4	-0.10879889
113	0x3d4825dd	0.048864234
114	0xbd3cdaa1	-0.04610694
115	0xbd6f6f14	-0.05845554
116	0x3cdc81eb	0.026917418
117	0xbd968222	-0.073490396
118	0x3c0a7057	0.0084496355
119	0xbc9bb009	-0.019004839
120	0xbe493583	-0.1964932
121	0xbdb269f9	-0.08711619
122	0x3d2f3765	0.042777438
123	0x3e11d3b7	0.14240919
124	0x3d4918a9	0.049095783
125	0xbd870159	-0.06592054
126	0x3e21f136	0.15814671
127	0xbe069d31	-0.13145901
128	0x3d418ac1	0.047251467
129	0x3e0aa692	0.13540104
130	0x3daa13fa	0.083045915
131	0x3c4f723e	0.012661515
132	0xbc54c83c	-0.012987193
133	0x3e163fec	0.14672822
134	0x3d9d1a27	0.07671004
135	0x3ddff4a8	0.10935336
136	0xbd016052	-0.031586
137	0x3e118a54	0.14212924
138	0xbd35df0d	-0.04440217
139	0xbd7e6bbe	-0.06211447
140	0x3dd57260	0.10422206
141	0x3db82481	0.089913376
142	0xbd01b36e	-0.031665258
143	0xbcadf9bd	-0.021237249
144	0xbd9a0491	-0.07520402
145	0xbce53b35	-0.027982334
146	0x3deebbc2	0.11656906
147	0x3dfeb8ea	0.12437613
148	0x3ded7e08	0.11596304
149	0x3de0f46b	0.10984119
150	0x3cac8525	0.021059582
151	0x3e216beb	0.15763824
152	0x3cd93d21	0.026518406
153	0x3c020162	0.0079349
154	0x3d23a368	0.03995076
155	0x3da18a53	0.078877114
156	0xbdfae6de	-0.12251066
157	0xbc76c1c9	-0.01506085
158	0xbe1397fc	-0.14413446
159	0xbe2008a6	-0.15628299
160	0xbd5ae7fb	-0.05344389
161	0xbdb1846b	-0.08667835
162	0x3e3b353c	0.18282026
163	0x3e42bc00	0.19017029
164	0xbd158d05	-0.03651144
165	0x3d5cb9ef	0.053888258
166	0x3c97c3a6	0.01852591
167	0xbdc5d591	-0.09659875
168	0x3d2fd318	0.042925924
169	0x3d1c046f	0.038090166
170	0x3e1b21c7	0.15149604
171	0xbe4e4ae2	-0.20145753
172	0x3dde1e32	0.10845603
173	0x3e28daea	0.16489759
174	0x3d492523	0.049107682
175	0xbcb9cf30	-0.022681803
176	0xbc1db2ba	-0.009625131
177	0x3d3af7eb	0.04564659
178	0xbe05b4b9	-0.13057221
179	0xbca85ce1	-0.0205521
180	0x3da06195	0.07831112
181	0xbd8ba86d	-0.06819234
182	0x3cbd09b2	0.023075912
183	0xbd536295	-0.051607687
184	0xbc8fa3c5	-0.017534146
185	0xbdef0d9d	-0.116725184
186	0xbc689624	-0.014195953
187	0xbcad2eff	-0.021140574
188	0xbd29bac5	-0.041437883
189	0xbdbdb74e	-0.09263478
190	0x3c9e3c2e	0.019315805
191	0x3e081c4a	0.13292041
192	0x3d23e57b	0.04001377
193	0xbcefadb0	-0.029257625
194	0xbd087b11	-0.03332049
195	0x3d20e868	0.03928414
196	0xbdc8fb13	-0.098135136
197	0xbdacd92f	-0.08439862
198	0xbe4c93ee	-0.19978306
199	0xbdfd58df	-0.123704664
200	0xbe338812	-0.17532375
201	0xbd912b72	-0.07088365
202	0x3ddb1c97	0.106988125
203	0x3c5fbffc	0.0136566125
204	0x3cf4fd3e	0.029905912
205	0xbd3b214b	-0.045686048
206	0xbdbb2d98	-0.09139556
207	0x3d4cfa72	0.05004353
208	0x3d71464c	0.05890493
209	0xbe6b4fa4	-0.22979599
210	0x3d6c3dc9	0.05767611
211	0x3e15e6c1	0.14638807
212	0xbda0d4df	-0.07853102
213	0xbe466d03	-0.19377522
214	0xbd843675	-0.06455699
215	0xbba86d5a	-0.005139989
216	0x3dddea59	0.10835714
217	0xbd535841	-0.051597837
218	0x3baa4554	0.005196253
219	0xbe142426	-0.14466915
220	0xbe3c97d1	-0.18417288
221	0xbda5c6a1	-0.08094526
222	0xbd38d5ec	-0.045125887
223	0x3c607301	0.013699294
224	0x3d1af102	0.0378275
225	0xbdae9d0e	-0.085260496
226	0xbdb96d82	-0.0905409
227	0xbde8e7a9	-0.11372311
228	0xbd0a0825	-0.033699173
229	0x3dcac509	0.09900863
230	0x3dc87d67	0.097895436
231	0xbd57d7b3	-0.05269594
232	0xbd77ed31	-0.060528938
233	0xbdbc868e	-0.09205352
234	0xbd4d52eb	-0.050127905
235	0x3e2cd817	0.16879307
236	0x3d6e9b89	0.0582538
237	0xbcc86ae2	-0.024465028
238	0x3d27973c	0.040915713
239	0xbdc8d86d	-0.09806905
240	0xbe430dc7	-0.19048224
241	0xbd53107b	-0.05152939
242	0xbd3398e1	-0.04384697
243	0xbe3f8ed9	-0.18706836
244	0x3dce6dab	0.10079511
245	0xbdd4e532	-0.10395278
246	0xbce61d63	-0.028090185
247	0x3ccc7621	0.024958672
248	0xbda07aef	-0.07835948
249	0x3d17c341	0.037051443
250	0x3d28751c	0.04112731
251	0xbce508a3	-0.02795822
252	0xbde9b729	-0.11411888
253	0x3d83f3f9	0.064430185
254	0x3d0be546	0.0341542
255	0xbd91b1d0	-0.07113993

lstm.weight_ih_l1 f4 [256, 64]
0	0xbca2d974	-0.01987908
1	0x3ce9b1f2	0.028527234
2	0xbc54e881	-0.012994886
3	0xbe0da3b8	-0.13831985
4	0xbdca7e58	-0.098873794
5	0xbe1fca64	-0.1560455
6	0x3e156404	0.14588934
7	0x3c4dbd73	0.012557375
8	0xbbb9640c	-0.0056576785
9	0xbc1553fa	-0.00911426
10	0xbda37d33	-0.07982864
11	0x3d673ca1	0.056454305
12	0x3cb70c6d	0.022344792
13	0x3c98aa2f	0.018635837
14	0x3d38fbeb	0.045162123
15	0xbdc1b9b9	-0.09459252
16	0x3d94352e	0.07236706
17	0xbd292e1c	-0.04130374
18	0xbd095f9a	-0.03353844
19	0xbd092a16	-0.033487402
20	0x3d6eae84	0.0582719
21	0x3d40a956	0.04703649
22	0xbc647696	-0.013944289
23	0x3dff8a8c	0.124775976
24	0x3bd610b6	0.006532754
25	0x3e02ac75	0.127611
26	0xbdcf0bb9	-0.10109658
27	0x3d7d9d67	0.06191769
28	0xbb939d7c	-0.0045048576
29	0xbdd4db77	-0.10393422
30	0x3a0d75af	0.00053962594
31	0xbd69c2a7	-0.0570704
32	0xbcd87424	-0.026422568
33	0xbd8c4ba4	-0.06850365
34	0x3e2474ec	0.16060227
35	0x3dc46d8e	0.095912084
36	0xbde05b9d	-0.10954974
37	0x3d115f76	0.03549143
38	0x3dd00897	0.101578884
39	0xbdb06fe0	-0.086150885
40	0x3ccab2cd	0.024743462
41	0xbd9fe9f1	-0.07808293
42	0x3e0b513d	0.13605209
43	0xbccaed46	-0.024771344
44	0xbdcf0cd6	-0.1010987
45	0x3d05a256	0.03262552
46	0x3d9daab9	0.076985784
47	0x3e2c264e	0.16811487
48	0x3d44e031	0.048065368
49	0xbe0294b1	-0.12752034
50	0x3d9cf9b4	0.076648146
51	0x3d6d4c3c	0.05793403
52	0xbda903bd	-0.08252666
53	0x3d0291a0	0.03187716
54	0x3cbba6e4	0.022906728
55	0x3d0a4035	0.03375264
56	0xbdb9d1bf	-0.09073209
57	0x3dfa9491	0.12235368
58	0xbcaa7c99	-0.020811366
59	0x3ddf0d5d	0.10891221
60	0xbdc24e09	-0.0948754
61	0x3e05e5bf	0.13075922
62	0x3bd2b2f1	0.006430023
63	0x3d35df58	0.04440245
64	0xbd5875e4	-0.052846804
65	0xbe58d34b	-0.21174352
66	0xbdcc8968	-0.09987146
67	0xbd63cba9	-0.055614147
68	0xbc9a6991	-0.018849166
69	0xbdde2894	-0.108475834
70	0xbde375ec	-0.11106476
71	0xbd07a56a	-0.033116736
72	0xbe0418e8	-0.12900126
73	0x3bca09b5	0.006165708
74	0xbd89a233	-0.0672039
75	0x3dcd0fde	0.10012792
76	0xbb44b567	-0.003001535
77	0xbe3fbeb7	-0.18725096
78	0x3d02388a	0.0317922
79	0x3e06ae2e	0.13152382
80	0x3dbfb862	0.0936134
81	0x3e3d23f3	0.18470745
82	0xbe1982f1	-0.14991356
83	0xbea3d306	-0.31996936
84	0xbcaccf4c	-0.02109494
85	0xbe0ccf78	-0.13751018
86	0xbe14fb5d	-0.14549012
87	0xbc9c8c39	-0.019109832
88	0xbe27fc65	-0.16404875
89	0xbdbde485	-0.09272102
90	0xbd17e394	-0.03708227
91	0xbe2b9383	-0.1675549
92	0xbb1abef3	-0.002361235
93	0xbe217c38	-0.15770042
94	0x3e7572b5	0.23969539
95	0xbd5fda7c	-0.054651722
96	0x3d64ac62	0.05582846
97	0x3ddf01a2	0.10888983
98	0x3e027d32	0.1274307
99	0x3d952137	0.07281726
100	0x3d1874e0	0.037220836
101	0xbc80c1c9	-0.015717404
102	0xbe9e8749	-0.3096259
103	0x3dcb3ccf	0.09923708
104	0x3d208c29	0.039196167
105	0x3dd111c9	0.102084704
106	0x3c49e832	0.012323426
107	0x3e2e1ec2	0.1700392
108	0xbe70afbc	-0.23504537
109	0x3db4e5d3	0.08832898
110	0x3ddbbd10	0.1072942
111	0x3c172ac7	0.0092265075
112	0xbda3c782	-0.079970375
113	0x3cd78949	0.02631058
114	0xbda479c9	-0.08031041
115	0xbd14b6fd	-0.036307324
116	0xbe201712	-0.156338
117	0x3dbaadfb	0.091152154
118	0x3e9d587e	0.30731577
119	0x3dbe159c	0.092814654
120	0xbdecedfd	-0.1156883
121	0x3d6d8e43	0.057997
122	0x3db9a1fd	0.090641
123	0x3c239b30	0.00998573
124	0xbdd0455f	-0.101694815
125	0xbbfe7d9b	-0.007766438
126	0x3d86f7d8	0.06590241
127	0xbe2d90f1	-0.16949822
128	0x3d2fa878	0.042885274
129	0x3db68a28	0.0891307
130	0xbd9857ce	-0.074386224
131	0xbe2accd1	-0.16679694
132	0xbe1f81b5	-0.15576823
133	0x3d435967	0.047692683
134	0x3d8100fa	0.062990144
135	0xbdc1cae0	-0.094625235
136	0xbd813b65	-0.06310157
137	0xbc295443	-0.010335031
138	0x3d4d868d	0.050177146
139	0xbd5ec812	-0.05439002
140	0x3e0053ff	0.12532042
141	0xbe3a95ff	-0.18221281
142	0x3e029a47	0.12754165
143	0xbe0e9a00	-0.13925934
144	0xbe0aa482	-0.13539317
145	0x3cfad99c	0.030621342
146	0xbddbb4d0	-0.107278466
147	0xbd6ed844	-0.058311716
148	0x3e1dbbe1	0.15403701
149	0xbaa8b830	-0.0012872275
150	0x3d131596	0.035909258
151	0x3d856d22	0.06514956
152	0xbc6804fe	-0.0141613465
153	0xbda46b41	-0.080282696
154	0xbe0f7242	-0.1400843
155	0xbc9783ec	-0.018495522
156	0x3d6ee166	0.058320425
157	0x3e28fbd7	0.1650232
158	0x3d70b9b8	0.058770865
159	0x3da9ca6d	0.08290563
160	0xbe1aaa93	-0.15104131
161	0x3d9db34a	0.07700212
162	0x3dd57850	0.104233384
163	0x3d907d0e	0.07055102
164	0x3d0b563e	0.034017794
165	0x3e2ed3ad	0.17072935
166	0xbd51c13d	-0.051209677
167	0xbd8181fe	-0.06323622
168	0x3cba7005	0.022758493
169	0x3d625a29	0.055261765
170	0x3d1b85e8	0.0379695
171	0x3e006ee6	0.12542304
172	0xbd5a9923	-0.0533687
173	0xbce6b5c8	-0.028162852
174	0x3e04428b	0.12916009
175	0x3e174bad	0.14774962
176	0xbc9e782c	-0.019344412
177	0x3908d3c5	0.00013048861
178	0xbe36c708	-0.17849362
179	0x3c9d236c	0.01918193
180	0xbdb76e65	-0.08956603
181	0x3c96cc4c	0.018407963
182	0x3e0916bf	0.13387583
183	0xbdd3d6a9	-0.103436776
184	0x3c9cb770	0.019130439
185	0xbbe2d564	-0.006922411
186	0xbd82ca3f	-0.06386232
187	0x3d3c8c42	0.046032198
188	0x3bef9f7a	0.0073127123
189	0xbd069fd3	-0.032867264
190	0xbe19fd19	-0.15037955
191	0x3d8ea912	0.06965841
192	0xbe36da3f	-0.17856692
193	0x3ddc3371	0.10751999
194	0x3e469a5a	0.19394818
195	0xbcaebda6	-0.021330666
196	0xbdabda66	-0.083912656
197	0x3da188fa	0.07887454
198	0x3e24043f	0.16017245
199	0xbd112581	-0.035436157
200	0xbd21ed9f	-0.039533254
201	0x3e1cd378	0.15315044
202	0x3d2387cc	0.039924428
203	0x3b1717ec	0.002305503
204	0x3cbe8e65	0.023261258
205	0x3d6ef339	0.058337424
206	0x3ccaa27d	0.024735684
207	0xbddbf32a	-0.10739739
208	0x3d1433cb	0.036182206
209	0x3d06414c	0.032777116
210	0x3c91a4b1	0.017778726
211	0xbc5f8d67	-0.013644553
212	0x3d01e211	0.031709734
213	0x3d5c7bd4	0.05382903
214	0xbcf8f23c	-0.030388944
215	0x3dd1ad59	0.102381416
216	0x3d0ecc98	0.034863085
217	0xbd18da59	-0.037317608
218	0xbca6b609	-0.020350473
219	0xbd86061c	-0.06544134
220	0x3d46e2b7	0.048556056
221	0xbdb7e660	-0.089794874
222	0x3cb844ad	0.022493685
223	0xbdab6db7	-0.08370536
224	0x3b1b6257	0.0023709738
225	0xbe0dd540	-0.1385088
226	0x3bb6d854	0.0055799875
227	0x3df430c0	0.11923361
228	0xbe0d151f	-0.13777588
229	0x3d922ce7	0.07137471
230	0x3c80424d	0.015656615
231	0xbd8e5a25	-0.069507875
232	0xbd342018	-0.04397592
233	0x3e0f80be	0.14013955
234	0x3da04f75	0.07827655
235	0x3d5cc1fd	0.05389594
236	0x3d995446	0.07486777
237	0x3e3150bd	0.17315955
238	0x3d7c28d9	0.061562393
239	0xbcfd0f50	-0.03089109
240	0x3da99c5c	0.08281776
241	0x3db10594	0.08643642
242	0xbe2450f1	-0.16046502
243	0x3bff7ab4	0.00779661
244	0xbd369829	-0.044578705
245	0xbd5d13df	-0.05397403
246	0x3d3c1d8e	0.045926623
247	0xbe400bdd	-0.18754525
248	0xbd9732d6	-0.07382743
249	0x3cb632a3	0.022240942
250	0x3dde04d2	0.10840763
251	0x3d51b900	0.05120182
252	0xbd62c1a2	-0.055360444
253	0x3de769b0	0.11299455
254	0x3d8c3b29	0.068472214
255	0xbd523c56	-0.051327072

lstm.weight_hh_l1 f4 [256, 64]
0	0xbdec552e	-0.11539684
1	0xbc867c71	-0.01641676
2	0x3cecbbcc	0.028898142
3	0x3d560ec5	0.05226018
4	0x3d15737f	0.0364871
5	0x3dce6278	0.10077375
6	0xbd3a4d45	-0.045483846
7	0x3d6a29ef	0.057168897
8	0xbd53b6ca	-0.051687993
9	0x3d76221a	0.060091116
10	0xbd6b2241	-0.057405714
11	0x3df2a5e9	0.11848051
12	0x3d7fb527	0.06242862
13	0x3d2f0f74	0.042739347
14	0xbc9688a9	-0.018375712
15	0xbe331805	-0.17489631
16	0xbdb0e702	-0.08637811
17	0x3cf02408	0.029314056
18	0x3ccf59f7	0.025311453
19	0xbd9067fc	-0.070510834
20	0x3d942abe	0.07234715
21	0xbdd3b405	-0.103370704
22	0x3d3680be	0.044556372
23	0xbccfeb17	-0.025380654
24	0x3e31123a	0.17292109
25	0x3c15168a	0.009099612
26	0xbd39cb8f	-0.045360144
27	0xbc9c2983	-0.019062763
28	0x3dab534b	0.08365496
29	0x3cfda5b3	0.0309628
30	0xbda63311	-0.08115209
31	0x3d299ee6	0.041411303
32	0xbe3ffe51	-0.18749358
33	0xbe454321	-0.19263889
34	0xbd0f0714	-0.03491886
35	0x3d882e1f	0.06649422
36	0x3e00b187	0.12567721
37	0x3e01be0d	0.12670155
38	0x3e377480	0.17915535
39	0x3d809675	0.062786974
40	0x3e430a8a	0.19046989
41	0x3d0aad97	0.033856954
42	0xbe3f617a	-0.18689528
43	0x3b9e79b1	0.004836284
44	0xbd1ecd78	-0.03877017
45	0x3d2315cb	0.039815705
46	0xbe1dc482	-0.15406993
47	0xbdef732c	-0.11691889
48	0xbd9f5033	-0.07778969
49	0x3d108815	0.035286028
50	0x3e24aeb5	0.1608227
51	0x3ce559bf	0.027996896
52	0xbd32ee76	-0.043684445
53	0x3caa3dd8	0.020781443
54	0xbc860df7	-0.01636408
55	0xbe242533	-0.16029815
56	0x3d2eaf47	0.042647626
57	0xbe044a8f	-0.12919067
58	0xbd9253f3	-0.07144918
59	0x3dd8dae9	0.10588629
60	0xbd1a2793	-0.037635397
61	0x3de9d846	0.11418204
62	0xbe2bf5d0	-0.16792989
63	0xbdacb2ef	-0.084325664
64	0x3ced87b9	0.028995382
65	0xbe0bcba7	-0.13651906
66	0x3d784746	0.060614847
67	0xbe267f80	-0.16259575
68	0xbb013c4f	-0.0019719785
69	0xbcf85693	-0.03031472
70	0xbd2191d5	-0.039445717
71	0x3d9abecc	0.07555923
72	0x3d054f24	0.032546178
73	0xbc266977	-0.010156981
74	0xbc8cbe78	-0.017180666
75	0xbe14b7cf	-0.14523242
76	0x3d56e242	0.05246187
77	0xbc55754f	-0.013028457
78	0xbd2ff382	-0.042956837
79	0x3c2b9ae1	0.010473938
80	0xbd2142c9	-0.039370332
81	0xbbb8953f	-0.005633026
82	0xbdbdfcf6	-0.09276764
83	0x3d6f3617	0.058401193
84	0x3bdef1d4	0.0068037305
85	0xbc8ecc49	-0.017431395
86	0xbdaf7871	-0.08567894
87	0x3d96d5c6	0.07364993
88	0x3d79b4df	0.060963508
89	0x3d787713	0.060660433
90	0x3dab8716	0.08375375
91	0xbd9b89d8	-0.07594651
92	0xbe26337c	-0.16230577
93	0x3d381eb4	0.044951156
94	0xbd9bb323	-0.07602527
95	0x3c90ffad	0.01770004
96	0x3c25c465	0.010117625
97	0x3d924a08	0.071430266
98	0xbd177455	-0.036976177
99	0x3c9fd1af	0.019509165
100	0x3d481454	0.04884751
101	0x3dee57ae	0.11637817
102	0x3d65aab2	0.05607099
103	0xbd45aca1	-0.048260335
104	0xbd40778e	-0.046989016
105	0x3d47b715	0.048758585
106	0xbe25937f	-0.16169547
107	0x3beb34b7	0.007177915
108	0xbe10aab9	-0.14127626
109	0xbc8d1431	-0.017221542
110	0x3cff7302	0.03118277
111	0xbd1bcc61	-0.038036708
112	0x3dbc06f7	0.09181016
113	0x3dc8bed9	0.09802026
114	0x3bbbe8ce	0.0057345396
115	0xbdc54e7c	-0.0963411
116	0x3d8a2607	0.067455344
117	0x3dc0d82d	0.09416232
118	0x3da8b3d6	0.08237426
119	0x3c2defb4	0.010616232
120	0xbc83d28c	-0.016091608
121	0x3d8d46e9	0.06898291
122	0xbdd08100	-0.10180855
123	0xbd99b2df	-0.0750482
124	0x3cdc45e5	0.026888797
125	0xbe230011	-0.15917994
126	0xbd4361dd	-0.04770075
127	0xbccb3714	-0.024806537
128	0xbd1dd302	-0.03853131
129	0xbd3c8d74	-0.046033338
130	0xbd44b4f0	-0.048024118
131	0x3dae6303	0.08514979
132	0xbdeaba7b	-0.114613496
133	0x3d83ddd0	0.06438792
134	0x3de48bb7	0.11159461
135	0xbe40bc71	-0.18821885
136	0xbd0cc299	-0.03436527
137	0x3e1356df	0.14388607
138	0x3d2f8116	0.042847715
139	0xbcca06d9	-0.024661468
140	0xbcb03a01	-0.021512033
141	0x3d575f05	0.052580852
142	0x3cd63fe9	0.026153522
143	0x3d9a742e	0.07541691
144	0x3c2a49b7	0.010393552
145	0x3dc60760	0.096693754
146	0x3e138e13	0.14409666
147	0xbd83b534	-0.06431046
148	0x3db11cfb	0.08648106
149	0xbd289898	-0.04116115
150	0xbda83a71	-0.08214272
151	0xbcd720cf	-0.026260762
152	0x3b3c2078	0.0028705876
153	0x3cf7843a	0.030214418
154	0x3d24167a	0.040060498
155	0xbd32446c	-0.043522283
156	0xbcce0a6b	-0.025151452
157	0xbd7b2fbf	-0.06132483
158	0xbe02ffaf	-0.12792848
159	0xbd17e47b	-0.03708313
160	0xbe0ede50	-0.13951993
161	0xbddc06de	-0.10743497
162	0x3d77ce72	0.060499616
163	0xbc8e7ac5	-0.017392525
164	0x3e0b730b	0.13618104
165	0x3d9c0e67	0.076199345
166	0x3dd4535e	0.103674635
167	0xbe1938d0	-0.14963078
168	0x3db358d2	0.087571755
169	0x3bf23b1f	0.0073923017
170	0x3db70cd2	0.08937992
171	0xbde964d7	-0.11396187
172	0x3d3e199d	0.046411145
173	0x3b214616	0.0024608425
174	0x3d8aa35d	0.0676944
175	0x3c59d2fe	0.013294933
176	0xbe224048	-0.15844834
177	0x3c7a970a	0.0152948
178	0x3da82a9e	0.082112536
179	0x3dc29d5b	0.095026694
180	0xbd1a45b4	-0.03766413
181	0x3d07e6ee	0.033179216
182	0xbdc0773e	-0.09397744
183	0xbe02809f	-0.12744378
184	0xbdc9ffba	-0.09863229
185	0x3cd1ae30	0.025595754
186	0xbb04bccf	-0.002025414
187	0xbd8671b2	-0.065646544
188	0x3d76f195	0.060288984
189	0x3e11a28e	0.14222166
190	0xbda253ac	-0.079261154
191	0x3e150c08	0.14555371
192	0xbad7e38f	-0.0016471016
193	0x3df2b2ef	0.11850535
194	0xbca15d9c	-0.019697957
195	0x3d01f658	0.031729072
196	0xbdbadbb2	-0.09123935
197	0x3ddb5de8	0.107112706
198	0x3c6589bd	0.01400989
199	0xbd5d2383	-0.053988945
200	0x3e193136	0.14960179
201	0x3e3de807	0.18545543
202	0xbe1db58a	-0.15401283
203	0x3d83a327	0.06427603
204	0xbd2f9b00	-0.04287243
205	0xbda9374b	-0.082624994
206	0xbd6a9a91	-0.057276312
207	0xbd7abc2f	-0.061214622
208	0x3d8bd5b1	0.06827868
209	0x3b1531a8	0.0022765193
210	0x3d8f7986	0.07005601
211	0xbe385c4f	-0.18003963
212	0xbbe59fab	-0.0070075593
213	0x398e71c0	0.000271691
214	0xbd32aba8	-0.043620735
215	0xbe2976c8	-0.16549218
216	0x3de15992	0.11003412
217	0xbda45897	-0.0802471
218	0xbdea1d48	-0.11431366
219	0x3e2c160f	0.1680529
220	0xbd505b7e	-0.050868504
221	0x3c54ab78	0.012980334
222	0x3d118085	0.035522956
223	0xbc76ffaa	-0.0150756035
224	0x3c9a8616	0.018862765
225	0xbe153952	-0.14572647
226	0xbd3fac24	-0.046795025
227	0x3dcddbf1	0.10051716
228	0x399fcd2d	0.0003047971
229	0xbb2366aa	-0.0024933019
230	0x3e001c8d	0.12510891
231	0xbe03201f	-0.12805222
232	0x3dd02e36	0.10165064
233	0xbd8b6135	-0.0680565
234	0x3d03d63e	0.03218674
235	0xbd83b895	-0.064316906
236	0x3c845db2	0.016157959
237	0x3e077196	0.13226923
238	0xbe1faee9	-0.15594067
239	0xbe34c734	-0.17654115
240	0xbda5e8eb	-0.08101066
241	0x3cff78be	0.031185504
242	0x3c653fc1	0.013992251
243	0x3df1057d	0.11768625
244	0xbe42fedb	-0.19042532
245	0x3cc12284	0.023576029
246	0x3d316b42	0.04331518
247	0xbe21aae0	-0.1578784
248	0x3be0e489	0.006863181
249	0xbe2a9410	-0.16658044
250	0x3ca19f48	0.019729272
251	0x3d5192de	0.051165454
252	0xbd5975c5	-0.05309083
253	0x3de9c3a2	0.11414267
254	0xbe251fad	-0.16125365
255	0x3cc58347	0.02411045

lstm.bias_ih_l1 f4 [256]
0	0xbda457f0	-0.08024585
1	0x3db9b354	0.09067407
2	0xbe06e9f3	-0.13175182
3	0xbe3d94ef	-0.18513845
4	0xbe46f188	-0.19428074
5	0xbd0616c0	-0.03273654
6	0xbd072e47	-0.033003118
7	0xbda9354b	-0.08262118
8	0x3d8cb178	0.06869787
9	0xbca26b54	-0.019826569
10	0xbcb39f67	-0.021926595
11	0xbdc8f138	-0.09811634
12	0xbe1692ed	-0.14704485
13	0xbd1d502d	-0.03840654
14	0xbdc7584f	-0.097336404
15	0xbdad8b3a	-0.08473821
16	0xbd012105	-0.03152563
17	0xbd970379	-0.07373709
18	0xbdcb5916	-0.09929101
19	0xbdfcaa69	-0.12337191
20	0xbd7d0531	-0.06177253
21	0xbe386da6	-0.18010578
22	0xbe292533	-0.16518097
23	0x3da3f7c1	0.0800624
24	0x3dae8257	0.08520954
25	0xbd2c7b5d	-0.042109836
26	0xbdb53d2a	-0.08849557
27	0x3d4047ab	0.046943348
28	0xbe523a86	-0.20530137
29	0xbe3c37c9	-0.18380655
30	0xbe326568	-0.17421496
31	0xbdd27503	-0.102762245
32	0xbdd87957	-0.10570019
33	0xbda969f5	-0.08272163
34	0xbdd18a47	-0.102314524
35	0xbdca3e90	-0.09875214
36	0xbd32e2ef	-0.043673452
37	0xbe12dbff	-0.14341734
38	0xbe1e3b7e	-0.15452382
39	0x3cacc4be	0.021089908
40	0x3c8c1be9	0.017103152
41	0xbe23d7c2	-0.16000274
42	0xbda03801	-0.07823182
43	0xbdb4b842	-0.08824207
44	0xbd9d1db5	-0.07671682
45	0xbd91937d	-0.07108209
46	0x3c00b24a	0.007855007
47	0xbe392f80	-0.18084526
48	0xbd95362b	-0.07285722
49	0xbd8f53e2	-0.06998421
50	0xbd25e047	-0.04049709
51	0xbd70343c	-0.058643565
52	0x3da84fd3	0.0821835
53	0x3cecc4ef	0.028902499
54	0xbb67f961	-0.0035396444
55	0xbdee8f61	-0.11648441
56	0xbe33cf37	-0.17559515
57	0xbe2de8c5	-0.16983326
58	0xbd61cc11	-0.055126254
59	0xbe265b5e	-0.16245791
60	0xbd9d6240	-0.07684755
61	0x3e23139b	0.15925448
62	0xbd8c1283	-0.06839468
63	0xbdbc8b66	-0.09206276
64	0xbe676104	-0.22595602
65	0xbdacb0a3	-0.08432128
66	0x3d8e2355	0.06940333
67	0xbdd49035	-0.10379068
68	0xbe10842b	-0.14112918
69	0xbdeb12fc	-0.1147823
70	0xbdf72d62	-0.12069203
71	0xbddf1324	-0.10892323
72	0x3d1f97fa	0.038963296
73	0xbca7f7a8	-0.020503834
74	0x3bf440fb	0.0074540353
75	0xbd106881	-0.035255913
76	0x3bd1df65	0.0064048045
77	0xbe1fc0e4	-0.15600926
78	0x3d8d9ad6	0.06914298
79	0xbaa5c316	-0.0012646641
80	0xbdb7c660	-0.08973384
81	0xbd1483da	-0.036258556
82	0xbd81ccd0	-0.06337893
83	0xbdf84f7f	-0.12124538
84	0xbe315cf4	-0.17320615
85	0xbd8677da	-0.065658286
86	0xbca8ae2d	-0.020590866
87	0xbd499d86	-0.04922249
88	0xbe0fbeef	-0.14037679
89	0xbd906e45	-0.07052282
90	0xbc7c820b	-0.015411864
91	0x3d44f1ba	0.04808209
92	0xbddeef78	-0.10885519
93	0x3ccfd3f8	0.02536963
94	0xbdaeb737	-0.08531039
95	0xbdaddf0d	-0.08489809
96	0xbd8eefc4	-0.069793254
97	0xbd4ce519	-0.050023172
98	0xbbfb224d	-0.007664001
99	0xbe15238e	-0.14564344
100	0x3d53a41e	0.051670186
101	0x3cd499fc	0.025952332
102	0x3c161d61	0.009162278
103	0x3d4caea2	0.04997123
104	0xbe12b344	-0.14326197
105	0x3cf6de8c	0.030135415
106	0xbd095471	-0.033527795
107	0xbe113b9e	-0.14182898
108	0xbdee4ce2	-0.11635758
109	0xbe12beef	-0.14330648
110	0xbdb20f7f	-0.08694362
111	0x3d1d0779	0.038337205
112	0xbe2f36b4	-0.17110711
113	0xbda08b1f	-0.07839035
114	0xbe2d94a0	-0.16951227
115	0xbdb9979a	-0.09062119
116	0xbd9b4d17	-0.07583063
117	0xbe368ca7	-0.17827092
118	0xbc35e7f8	-0.011102669
119	0xbe1f387e	-0.15548894
120	0xbd4dc92c	-0.05024068
121	0xbe02033f	-0.12696551
122	0xbc8fe8ae	-0.017567005
123	0xbd6854d1	-0.056721512
124	0xbd50bdb9	-0.050962184
125	0x3d2c554c	0.042073533
126	0x3d3d8edc	0.04627882
127	0xbe045659	-0.12923564
128	0x3c2ea22c	0.010658782
129	0xbccbe6f4	-0.0248904
130	0x3c55f662	0.0130592305
131	0xbd17a667	-0.037023928
132	0x3c7ef335	0.015560915
133	0x3db16ef3	0.0866374
134	0xbce05130	-0.027382463
135	0xbdd90c8f	-0.105980985
136	0xbded5acd	-0.115895845
137	0x3bd8af62	0.006612704
138	0x3d05cc66	0.032665633
139	0xbd89b9b8	-0.06724876
140	0xb941e7a6	-0.0001849221
141	0xbcd57fe0	-0.026061952
142	0x3b89b01d	0.0042019025
143	0x3c8fcc46	0.01755346
144	0x3dbe485d	0.09291146
145	0x3c01b5ba	0.007916862
146	0x3e4d8a06	0.20072183
147	0x3d71643e	0.05893349
148	0x3db2d7ca	0.08732565
149	0xbe200ea4	-0.15630585
150	0x3e19d4a0	0.15022516
151	0xbd51cd6d	-0.0512213
152	0x3c9df6aa	0.019282658
153	0x3d6dbb4d	0.058039952
154	0xbcfad85e	-0.03062075
155	0x3d63a3d5	0.055576164
156	0x3d47b64b	0.048757832
157	0x3d0fead8	0.035136074
158	0x3c238837	0.009981207
159	0xbd81a9cd	-0.06331215
160	0xbdb29493	-0.087197445
161	0xbd490a13	-0.049081873
162	0xbca8b3d0	-0.020593554
163	0x3cb832bd	0.022485131
164	0xbd58d8a7	-0.05294099
165	0xbdf25f97	-0.118346386
166	0xbd9b876f	-0.07594191
167	0xbcb229d5	-0.021748463
168	0xbd2c6305	-0.04208662
169	0x3d280015	0.041015703
170	0xbda5e1c7	-0.08099704
171	0x3d1ae87a	0.037819363
172	0x3e059447	0.13044845
173	0xbd11c023	-0.035583626
174	0xbde8354b	-0.1133829
175	0xbc9e3029	-0.019310074
176	0x3c9879c4	0.01861275
177	0x3e061f6f	0.13097928
178	0xbca7edeb	-0.02049919
179	0x3e2428cb	0.16031186
180	0x3c9d8c45	0.019231925
181	0xbc68858f	-0.014191999
182	0x3d8e0c85	0.06935982
183	0xbdc44c04	-0.09584811
184	0xbd4da892	-0.05020959
185	0x3d84f660	0.06492305
186	0x3cea1b30	0.028577417
187	0x3d7b44bf	0.06134486
188	0x3e02b621	0.12764789
189	0x3c7c52c0	0.0154005885
190	0x3d9039e8	0.07042295
191	0xbc67b50e	-0.014142288
192	0xbe34913d	-0.17633529
193	0x3d6d7c9a	0.057980157
194	0xbd320ca6	-0.043469094
195	0x3d5287b8	0.051398963
196	0x3c1a3de5	0.009414171
197	0xbd84496d	-0.06459317
198	0x3cbb5485	0.02286745
199	0xbd89636c	-0.06708416
200	0x3dba4ce2	0.090966955
201	0xbe26d759	-0.16293086
202	0x3c0d5410	0.008625999
203	0xbd3fa573	-0.046788644
204	0x3d58b053	0.05290253
205	0xbda0fb61	-0.07860447
206	0xbd5a9288	-0.0533624
207	0xbdb3af11	-0.08773626
208	0x3cb27c2d	0.021787727
209	0x3bbe6a59	0.0058110175
210	0xbe1ea988	-0.15494359
211	0xbd8d120b	-0.06888207
212	0xbd88e3e7	-0.06684094
213	0xbd789644	-0.06069018
214	0xbdab7b0f	-0.08373081
215	0xbd3cd5ac	-0.04610221
216	0xbdfca061	-0.12335277
217	0xbd69246b	-0.056919497
218	0xbe07bcd6	-0.13255629
219	0x3e19a602	0.15004733
220	0xbe536361	-0.20643379
221	0xbdb47a33	-0.0881237
222	0xbb959100	-0.0045644045
223	0xbe19f043	-0.15033059
224	0xbdc91c50	-0.09819853
225	0xbe135d9f	-0.14391182
226	0xbe247683	-0.16060834
227	0xbcbb5aff	-0.022870539
228	0xbd81ec28	-0.06343871
229	0xbd998611	-0.07496274
230	0xbd564420	-0.052311063
231	0xbe263602	-0.1623154
232	0xbcd0afd7	-0.025474472
233	0x3c3efccd	0.011656952
234	0xbd071ff6	-0.032989465
235	0xbe2966f9	-0.16543187
236	0xbddc99f7	-0.10771554
237	0xbd7a0bed	-0.06104653
238	0xbce02546	-0.027361523
239	0xbe0926fe	-0.1339378
240	0xbbd86886	-0.006604257
241	0xbce92f96	-0.028465074
242	0x3d657d9c	0.056027994
243	0x3c9becbf	0.019033788
244	0xba9e86ae	-0.0012094581
245	0xbe208261	-0.15674736
246	0x3dd3bfd2	0.10339321
247	0xbe1bdde3	-0.15221362
248	0xbe16c0d5	-0.14721997
249	0xbd4d8e09	-0.050184283
250	0xbdd8183d	-0.10551498
251	0x3be22a21	0.006901995
252	0x3c81ce2a	0.015845377
253	0x3cabe05a	0.020981003
254	0xbd9928e9	-0.07478506
255	0x3cd9707b	0.026542893
