Competition/TrainAI/model/c100/model_weights_1.pth (torch, 239847 bytes, 10 tensors)

lstm.weight_ih_l0 f4 [256, 34]
0.17239 0.01598122 -0.031807244 0.1349645 0.107085206 -0.05263452 0.18040408 0.13817942
-0.16278744 -0.02942443 0.07945969 0.017681848 -0.035322458 0.13768585 0.16524549 0.044574413
-0.06492726 0.15243173 -0.009493019 -0.17449094 0.0924474 -0.09610472 0.09495917 -0.058451403
0.06561756 0.030348023 0.015271671 -0.049770385 0.03902785 0.08550423 0.023890892 -0.090596795
-0.11393629 -0.09279014 0.147069 0.23750915 -0.018400932 0.06681519 -0.073902465 -0.19756132
-0.027301738 0.036329225 -0.051152878 -0.013234974 0.036589466 -0.077989 0.09461239 0.09021926
-0.0018309576 0.1616541 -0.18056528 -0.065161906 0.02247076 0.18332729 0.024704415 -0.10768794
-0.06787521 0.06876521 -0.08676014 0.10505735 0.054763727 -0.025327476 0.09043099 0.086701386
0.015692506 -0.073844805 0.014985323 -0.10952115 -0.12199911 -0.13931684 -0.03758164 -0.26628032
-0.06331195 0.014852618 -0.09898318 0.11706659 -0.03808128 0.015460478 -0.056051213 -0.0035161292
-0.044077136 -0.0023534643 -0.044726055 -0.05202801 0.07755243 -0.057657972 -0.024998188 -0.06628907
-0.057856016 -0.0021749008 0.06702455 0.08401063 0.1324444 -0.04907404 0.0059703426 0.082181156
0.114592545 0.022100702 0.0819855 0.054947495 0.09305697 0.08596459 -0.041069083 0.050198477
-0.039535366 0.037128173 0.021094501 0.1250239 0.029423878 0.09678776 -0.06314195 -0.09930751
0.06606163 -0.13805412 0.16151169 -0.0038953319 0.1458163 0.032590445 -0.016775567 0.01718512
-0.03165938 -0.057743236 0.1016517 0.17587693 0.058361568 -0.034852844 0.11604283 -0.059062067
0.041121796 -0.045993228 -0.08014386 0.08825083 0.07211396 -0.044916563 -0.08131174 -0.013624341
0.18068618 0.070841156 -0.09810977 -0.1554612 -0.1329813 0.083976254 -0.08637126 -0.16044325
0.12151639 -0.0055206027 0.024567606 -0.0092108175 0.04026559 0.05866953 -0.1187361 -0.015547934
-0.09682048 0.056746807 -0.1349399 -0.08524246 0.08215969 0.042142272 0.079156704 -0.027686281
-0.012912903 0.098090015 0.14165826 0.14805463 0.042604566 0.12120854 0.10228901 0.11635439
-0.12359619 0.015563816 -0.1013959 0.054735616 -0.0751635 -0.2028958 -0.19141112 -0.026760004
-0.057143908 -0.19616614 -0.12524074 0.08412325 -0.01761132 0.010466845 -0.106267944 -0.14544906
0.04037902 0.061493207 -0.06306341 -0.008616264 -0.038417593 -0.06640043 0.009153391 -0.12359654
-0.065355405 0.024179945 0.023499286 -0.0025850632 -0.07548761 0.0028069895 -0.030999174 0.05858118
0.054180175 -0.10908216 0.020256016 -0.05782325 -0.277513 0.018831834 -0.074498 -0.033013105
0.15158507 0.098850675 -0.1683823 0.10669346 0.1546898 -0.12092477 -0.090804994 0.0107522635
-0.021404719 -0.07981352 -0.059636854 0.036175918 -0.11753932 -0.038685467 -0.03194453 0.000900588
-0.072862536 0.07830692 0.0986509 0.009307039 -0.11477748 0.024230706 -0.10735117 0.021505758
0.042683393 0.08912205 -0.07560265 -0.110757545 -0.07116951 -0.045955807 -0.14309675 0.004701285
-0.16003892 0.05383618 0.09843118 0.024712566 0.20414497 0.23499534 0.10634347 0.09635983
-0.063912824 -0.03307743 -0.10191408 -0.031126453 -0.029613016 0.11515194 0.058537196 0.17938599
00000000: 0187 303e 0ceb 823c 5048 02bd 2234 0a3e
00000010: 7d4f db3d 4b97 57bd d9bb 383e e87e 0d3e
00000020: c0b1 26be 810b f1bc c3bb a23d 86d9 903c
00000030: 48ae 10bd 85fd 0c3e 1d36 293e a993 363d
00000040: 95f8 84bd 1017 1c3e 9c88 1bbc c1ad 32be
00000050: 1055 bd3d 8dd2 c4bd f479 c23d bd6a 6fbd
00000060: 8062 863d 6b9c f83c 0836 7a3c 08dc 4bbd
00000070: abdb 1f3d d71c af3d d5b6 c33c d08a b9bd
00000080: 6e57 e9bd c208 bebd 4299 163e 9935 733e
00000090: 8dbd 96bc 67d6 883d 2d5a 97bd 844d 4abe
000000a0: e5a7 dfbc f4cd 143d ae85 51bd 81d7 58bc
000000b0: d6de 153d b2b8 9fbd 24c4 c13d e0c4 b83d
000000c0: befc efba a788 253e 1be6 38be 9b73 85bd
000000d0: 9914 b83c 26ba 3b3e ea60 ca3c 7f8b dcbd
000000e0: 2802 8bbd c6d4 8c3d 4daf b1bd 4f28 d73d
000000f0: ee4f 603d 917b cfbc e233 b93d 7f90 b13d
00000100: 928d 803c f23b 97bd 0085 753c a04c e0bd
00000110: abda f9bd 13a9 0ebe 35ef 19bd e555 88be
00000120: b2a9 81bd 6558 733c b2b7 cabd 9cc0 ef3d
00000130: 1efb 1bbd f24d 7d3c f595 65bd dc6e 66bb
00000140: 3a8a 34bd 943c 1abb ab32 37bd 531b 55bd
00000150: cfd3 9e3d c42a 6cbd 00c9 ccbc 90c2 87bd
00000160: 6efa 6cbd c888 0ebb 2b44 893d c40d ac3d
00000170: 819f 073e dc01 49bd dda2 c33b 984e a83d
00000180: 7faf ea3d 880c b53c 04e8 a73d a010 613d
00000190: a794 be3d 340e b03d 0e38 28bd eb9c 4d3d
000001a0: d6ef 21bd b613 183d 60ce ac3c 4406 003e
000001b0: 580a f13c a938 c63d 9150 81bd bc61 cbbd
000001c0: 524b 873d 0f5e 0dbe 5263 253e d348 7fbb
000001d0: de50 153e 8f7d 053d ea6c 89bc cfc7 8c3c
000001e0: 44ad 01bd 2c84 6cbd c42e d03d 1519 343e
000001f0: 8a0c 6f3d dbc1 0ebd dda7 ed3d 11eb 71bd
00000200: 546f 283d 6563 3cbd 7722 a4bd dabc b43d
00000210: 7cb0 933d 6efa 37bd c586 a6bd a138 5fbc
00000220: cc05 393e 2b15 913d c6ed c8bd 3931 1fbe
00000230: 402c 08be befb ab3d 6ae3 b0bd 3c4b 24be
00000240: 96dd f83d 2ce6 b4bb 0142 c93c f8e8 16bc
00000250: 88ed 243d 764f 703d ea2b f3bd c3bc 7ebc
00000260: d149 c6bd 576f 683d af2d 0abe 9993 aebd
00000270: 5743 a83d 609d 2c3d e91c a23d 57ce e2bc
00000280: a490 53bc 6be3 c83d dd0e 113e a29b 173e
00000290: 2082 2e3d 2f3c f83d e77c d13d 364b ee3d
000002a0: 0020 fdbd 60ff 7e3c a7a8 cfbd 7432 603d
000002b0: 52ef 99bd ebc3 4fbe 4701 44be cc37 dbbc
000002c0: bb0f 6abd c7df 48be 1c3f 00be cf48 ac3d
000002d0: 9d45 90bc 217d 2b3c 02a3 d9bd 99f0 14be
000002e0: 7964 253d 4de0 7b3d 6427 81bd 3b2b 0dbc
000002f0: c45b 1dbd f3fc 87bd 1bf8 153c 2f20 fdbd
00000300: 0ed9 85bd 0515 c63c 9381 c03c 2a6a 29bb
00000310: 4099 9abd 78f5 373b fbf1 fdbc d2f2 6f3d
00000320: 08ec 5d3d 7866 dfbd f2ef a53c 12d8 6cbd
00000330: 2f16 8ebe 3845 9a3c 6892 98bd c038 07bd
00000340: 1e39 1b3e 3972 ca3d 696c 2cbe 1a82 da3d
00000350: 0167 1e3e 68a7 f7bd f8f7 b9bd 432a 303c
00000360: f358 afbc 4575 a3bd c645 74bd 332d 143d
00000370: 74b8 f0bd a774 1ebd 44d8 02bd 7015 6c3a
00000380: f438 95bd 615f a03d 7c09 ca3d 8d7c 183c
00000390: 7510 ebbd 797f c63c eeda dbbd d82c b03c
000003a0: c8d4 2e3d 9f85 b63d 90d5 9abd dad4 e2bd
000003b0: 52c1 91bd 283c 3cbd f487 12be 3d0d 9a3b
000003c0: 3ee1 23be 5483 5c3d 4996 c93d 0272 ca3c
000003d0: 610b 513e 9ea2 703e 9bca d93d 4d58 c53d
000003e0: bae4 82bd 337c 07bd 54b8 d0bd e7fc febc
000003f0: ff96 f2bc c8d4 eb3d b3c4 6f3d f6b0 373e

lstm.weight_hh_l0 f4 [256, 64]
0.13606414 0.06664363 0.04275235 0.11259297 0.06369491 0.03713132 0.0548885 0.09986435
0.14897333 -0.054445345 -0.012688621 0.11782737 -0.1125033 0.08232721 0.14290175 -0.10259514
-0.070362195 -0.16692795 -0.13443445 -0.110985935 -0.26252475 0.08169423 0.115218356 0.06351128
-0.07520139 0.009143331 -0.06612767 -0.009816539 -0.0005489217 -0.14209564 0.010815507 -0.10267334
0.019305654 -0.07130295 -0.12549204 -0.2082036 -0.17219359 0.04200773 -0.122583106 -0.06680328
0.123860165 -0.18325622 -0.1411211 -0.019663168 0.0015820401 0.0061919168 -0.10462294 -0.019196194
0.1470473 -0.09893081 0.09734674 -0.12743707 -0.06665633 0.10171775 -0.027991764 0.040431127
-0.18233672 -0.113293566 0.008492895 0.110446684 0.1475977 0.21559657 -0.17099698 -0.006300798
-0.08648549 0.04933705 -0.051884532 0.093046404 -0.012268212 0.034456886 0.12610215 0.03971118
0.06207392 -0.08821449 -0.07893907 0.14997737 -0.06554308 0.06403039 -0.105385154 -0.090673365
0.09424739 0.10041835 -0.02464644 0.057451405 0.034872152 -0.13890052 -0.0126087405 0.009329517
0.12318316 0.022468949 -0.015270273 0.075349934 0.07125738 0.055957995 -0.07057368 -0.08205408
0.00440111 -0.057849098 0.0039451797 0.099079825 -0.058899313 -0.005854057 -0.059168674 -0.041120984
-0.04788841 -0.07155297 0.014550418 -0.07169269 -0.16634934 -0.070880465 0.11469314 -0.100452885
0.023105467 0.06686417 0.017960446 -0.043520432 0.0244019 0.07240512 0.18236016 -0.027052002
-0.08323454 0.11665643 -0.01791052 0.0751069 -0.008561347 -0.067027785 0.15403804 -0.054709826
-0.0636129 -0.013888431 0.10031742 -0.121478856 -0.07759063 0.14306994 -0.003394103 -0.07253983
-0.026974171 0.08865575 -0.039629888 -0.0094522685 0.13169627 0.088471375 0.011540716 -0.071308315
-0.17515871 0.0022245296 -0.10630956 -0.17275205 0.041077085 0.055904306 0.153942 -0.056874137
0.011616844 0.095118515 0.004191114 -0.09783318 -0.17292617 -0.04289954 0.13891086 0.15026104
-0.0055252677 0.047819927 -0.09944062 0.12415352 0.058617786 0.012957824 0.11133554 -0.03190307
-0.06169683 0.14615718 -0.029328499 0.11163142 -0.1122678 -0.078082785 -0.11918625 0.23209049
-0.116129376 0.1498311 -0.07971916 -0.085981004 0.12242249 0.19429755 -0.12855525 -0.04885104
-0.10973095 -0.088941485 -0.12059525 0.065738104 0.09871159 0.22409901 0.048090346 0.1439818
-0.081466064 -0.050262824 -0.21110576 0.0219083 -0.115106426 -0.05161508 0.16906963 -0.06003934
0.021208556 0.110304825 0.035406157 -0.12487813 0.10128943 -0.08091483 0.044603597 -0.04292336
-0.11508608 -0.10394959 -0.012933842 0.14137739 -0.10102597 0.15013973 -0.075922206 0.0236838
-0.01625694 -0.09339573 0.053513598 -0.05678253 0.11983472 -0.16001432 -0.028971184 0.09226931
0.15255648 -0.1196966 -0.06852844 0.046357565 0.050142124 -0.1788572 -0.13364285 0.15000947
0.039614696 -0.10675537 0.054075107 0.010680423 0.07915614 0.03727308 -0.20463333 0.14984328
-0.13284034 -0.0063868384 0.0006975597 0.08576331 -0.13280743 0.053303648 0.052608475 0.076762035
-0.10882021 -0.051085092 0.07289287 -0.021910086 0.05271419 -0.0025759134 0.038472723 -0.03535057
00000000: 6654 0b3e 757c 883d 171d 2f3d 2597 e63d
00000010: 7a72 823d 0317 183d c4d2 603d ae85 cc3d
00000020: 778c 183e 1502 5fbd efe3 4fbc 7a4f f13d
00000030: 2168 e6bd 2b9b a83d d654 123e 671d d2bd
00000040: 0e1a 90bd 29ef 2abe 2fa9 09be 984c e3bd
00000050: a569 86be 4e4f a73d 9af7 eb3d 3412 823d
00000060: 3003 9abd e9cd 153c f26d 87bd 8cd5 20bc
00000070: 83e5 0fba 8581 11be 8633 313c 6646 d2bd
00000080: e426 9e3c 4807 92bd fc80 00be 5333 55be
00000090: 8453 30be 4c10 2c3d da0c fbbd 28d0 88bd
000000a0: 66aa fd3d 85a7 3bbe 0d82 10be a714 a1bc
000000b0: 755c cf3a 90e5 ca3b 8d44 d6bd 5641 9dbc
000000c0: 9193 163e 3d9c cabd ba5d c73d dd7e 02be
000000d0: 1d83 88bd 6551 d03d fc4e e5bc 1c9b 253d
000000e0: 7ab6 3abe 7506 e8bd c925 0b3c df31 e23d
000000f0: da23 173e 59c5 5c3e d519 2fbe ed76 cebb
00000100: 4e1f b1bd a615 4a3d e084 54bd 1d8f be3d
00000110: 9c00 49bc aa22 0d3d ec20 013e 31a8 223d
00000120: 3941 7e3d cca9 b4bd cfaa a1bd ab93 193e
00000130: 733b 86bd 5d22 833d 2cd4 d7bd f5b2 b9bd
00000140: c704 c13d 23a8 cd3d 55e7 c9bc 2a52 6b3d
00000150: 1ad6 0e3d f03b 0ebe e494 4ebc d5da 183c
00000160: 7447 fc3d cd10 b83c 2b30 7abc 1151 9a3d
00000170: 64ef 913d 3634 653d ef88 90bd f80b a8bd
00000180: 3037 903b 2df3 6cbd 9146 813b 5dea ca3d
00000190: 6840 71bd 64d3 bfbb da5a 72bd 7a6e 28bd
000001a0: a326 44bd 5d8a 92bd e064 6e3c 9ed3 92bd
000001b0: 7b57 2abe c729 91bd 3de4 ea3d 3eba cdbd
000001c0: ad47 bd3c 15f0 883d c921 933c 7b42 32bd
000001d0: 7ee6 c73c 2349 943d 9fbc 3a3e 299c ddbc
000001e0: df76 aabd 91e9 ee3d 15b9 92bc a5d1 993d
000001f0: e444 0cbc dd45 89bd 26bc 1d3e 6917 60bd
00000200: 7b47 82bd 4d8c 63bc 3873 cd3d e8c9 f8bd
00000210: d6e7 9ebd ed80 123e 996f 5ebb c38f 94bd
00000220: f0f8 dcbc 2591 b53d f352 22bd b0dd 1abc
00000230: 63db 063e 7b30 b53d 4515 3d3c 180a 92bd
00000240: ce5c 33be 6ac9 113b d4b8 d9bd eae5 30be
00000250: 7240 283d eafb 643d f9a2 1d3e dbf4 68bd
00000260: 9354 3e3c 7fcd c23d 9d55 893b c35c c8bd
00000270: 8f13 31be 6eb7 2fbd a63e 0e3e 08de 193e
00000280: 4e0d b5bb d4de 433d 86a7 cbbd 3344 fe3d
00000290: 3419 703d 0e4d 543c e303 e43d cbac 02bd
000002a0: d1b5 7cbd 3aaa 153e 5242 f0bc 049f e43d
000002b0: a9ec e5bd dee9 9fbd ec17 f4bd 21a9 6d3e
000002c0: 3dd5 edbd 536d 193e cd43 a3bd cf16 b0bd
000002d0: a4b8 fa3d f0f5 463e fda3 03be 0718 48bd
000002e0: 9fba e0bd f426 b6bd a4fa f6bd b3a1 863d
000002f0: 4d29 ca3d 367a 653e 62fa 443d f76f 133e
00000300: aed7 a6bd 64e0 4dbd 1c2c 58be 0979 b33c
00000310: ebbc ebbd 566a 53bd 9720 2d3e d0eb 75bd
00000320: 91bd ad3c 7fe7 e13d 0c06 113d 1bc0 ffbd
00000330: d570 cf3d adb6 a5bd 43b2 363d 68d0 2fbd
00000340: 40b2 ebbd 86e3 d4bd 77e8 53bc 3cc5 103e
00000350: b4e6 cebd 3bbe 193e 1a7d 9bbd 8704 c23c
00000360: 462d 85bc 4346 bfbd 1331 5b3d cc94 68bd
00000370: e86b f53d cbda 23be fa54 edbc b1f7 bc3d
00000380: c437 1c3e 7e23 f5bd a458 8cbd 6ee1 3d3d
00000390: d461 4d3d 5826 37be acd9 08be 159c 193e
000003a0: 0543 223d 8fa2 dabd dc7d 5d3d f1fc 2e3c
000003b0: 9d1c a23d a8ab 183d 668b 51be 8470 193e
000003c0: 4c07 08be af48 d1bb 70dc 363a ada4 af3d
000003d0: acfe 07be ed54 5a3d fc7b 573d 6a35 9d3d
000003e0: 21dd debd 9a3e 51bd db48 953d c87c b3bc
000003f0: d6ea 573d a8d0 28bb 9395 1d3d c2cb 10bd

lstm.bias_ih_l0 f4 [256]
0.0696248 0.07893792 -0.09648126 -0.076975964 -0.000513942 -0.13464537 -0.11023252 0.045268215
-0.007456132 -0.17694637 -0.064411975 -0.13404705 0.009682494 -0.012982457 0.12188596 -0.04531485
-0.05825177 -0.12708351 0.030126713 -0.21984376 -0.00256414 -0.020727534 0.063482955 0.09305589
0.07523884 -0.16468504 0.042543795 -0.03415263 -0.08313282 -0.083112836 0.02710202 -0.16536325
0.07737826 0.08970659 -0.016299564 0.04757268 -0.22823648 -0.12886833 -0.01227822 -0.21603067
0.093187824 0.09920153 -0.04830088 -0.12949772 0.045251988 -0.0083926115 -0.116376266 0.010646603
0.11295908 -0.07764082 -0.10352574 0.05862351 0.038264092 -0.21564329 -0.0052352524 -0.12597458
0.068045974 -0.1681464 0.029169606 -0.0798959 0.019437334 -0.01935711 -0.14881422 -0.16475773
-0.06549323 -0.033351865 -0.041692365 0.01236716 -0.16476454 0.052405488 -0.007372159 -0.019844443
-0.14882037 -0.16966672 -0.16142534 -0.0034976334 -0.050308328 -0.06040002 -0.111117184 -0.11839144
0.077367604 -0.09625862 -0.15685412 -0.20325698 0.020915153 -0.00493654 -0.04174039 -0.077514954
0.08873612 -0.13366964 0.095479466 -0.026363732 -0.15761025 -0.07292158 -0.12826729 -0.0029789635
-0.2092828 0.11436637 0.06592857 -0.13158134 0.010436603 0.0538963 -0.024974667 -0.021544656
-0.111871034 -0.13248938 -0.1597288 0.00013534506 -0.0074396464 0.049707983 -0.13371317 -0.039710823
0.05874105 -0.086428285 0.04492252 0.15569949 -0.08792526 -0.37117782 -0.041234657 -0.054236196
-0.044479936 -0.07826435 0.036031924 0.0357269 -0.09998609 -0.0151383495 -0.13349378 0.03527017
-0.059077654 -0.09580105 -0.0272742 -0.079327375 -0.016501246 -0.074891135 0.041669566 -0.19706768
0.17697418 -0.18191731 -0.06256156 0.14802076 -0.22919731 -0.0651062 -0.054538403 0.012237591
0.20097281 0.111266755 0.14169429 0.018241804 0.095644124 0.07865193 0.030351518 0.11488792
-0.029041156 0.12138837 0.07022187 0.024758218 -0.03184423 -0.023976393 0.064986445 -0.015616574
0.0035291254 -0.1242784 -0.067013904 0.1280954 0.21785697 -0.085887164 -0.08744626 -0.006052256
-0.04396682 -0.012833881 -0.141654 0.13151973 -0.13551271 -0.01847068 0.14490983 -0.10294461
0.089416385 -0.046515368 -0.0958977 0.042658787 0.09670599 0.0674227 -0.004014255 -0.027482891
0.15180649 0.012970055 0.061448902 0.1198524 -0.0064023584 -0.07019766 0.07343592 -0.012897297
-0.08278169 0.0673431 0.12133699 -0.13516639 -0.072576515 -0.1542436 -0.057264447 -0.030064622
-0.009889165 0.049594987 -0.22883405 -0.07012144 0.0008854335 -0.055927876 -0.050427184 -0.04636732
0.20722756 0.029806139 -0.095688455 -0.14089991 -0.079680115 -0.115364045 -0.13037622 -0.00029373588
0.07648767 0.093993925 -0.07319693 -0.1131678 -0.4009231 0.02058666 -0.11158365 -0.063405305
-0.14256872 -0.13273369 -0.086357795 -0.35093954 -0.24512245 -0.025752854 -0.014757861 -0.049708
-0.043981403 -0.022474108 -0.13661623 0.042599365 0.0051296414 -0.16212264 -0.00527997 -0.18539837
0.050974112 0.089077756 0.018692069 -0.12687616 0.042223867 0.09344229 -0.022734994 -0.08949817
0.065456875 -0.05067587 -0.018498244 -0.114296615 -0.1461302 0.014557303 -0.08738885 -0.051856406
00000000: 7297 8e3d 34aa a13d f897 c5bd 93a5 9dbd
00000010: 10ba 06ba 7ae0 09be 96c1 e1bd 2a6b 393d
00000020: 9252 f4bb 6e31 35be 6dea 83bd a143 09be
00000030: 53a3 1e3c 5fb4 54bc 599f f93d 109c 39bd
00000040: 6899 6ebd 2e22 02be 4ccc f63c b91e 61be
00000050: 210b 28bb cacc a9bc 5a03 823d 1694 be3d
00000060: d216 9a3d 32a3 28be 6742 2e3d a1e3 0bbd
00000070: 8a41 aabd 1037 aabd 0e05 de3c fc54 29be
00000080: 7e78 9e3d 17b8 b73d aa86 85bc 92db 423d
00000090: d3b6 69be 0ff6 03be 962a 49bc 2537 5dbe
000000a0: 42d9 be3d 2c2a cb3d 25d7 45bd 0d9b 04be
000000b0: 265a 393d 2a81 09bc ae56 eebd 176f 2e3c
000000c0: 1757 e73d 2602 9fbd 4e05 d4bd 351f 703d
000000d0: cfba 1c3d 98d1 5cbe 7b8c abbb 7bff 00be
000000e0: b05b 8b3d 922e 2cbe 19f5 ee3c 76a0 a3bd
000000f0: 0b3b 9f3c cd92 9ebc c162 18be 40b6 28be
00000100: 5121 86bd f79b 08bd 9dc5 2abd a19f 4a3c
00000110: 09b8 28be 23a7 563d 2792 f1bb d090 a2bc
00000120: 5e64 18be 1dbd 2dbe af4c 25be 8d38 65bb
00000130: 1b10 4ebd 0366 77bd 6891 e3bd 3677 f2bd
00000140: e872 9e3d 3d23 c5bd 5e9e 20be 9922 50be
00000150: 4156 ab3c b3c2 a1bb f9f7 2abd 29c0 9ebd
00000160: 48bb b53d b2e0 08be bd8a c33d c1f8 d7bc
00000170: 9564 21be e957 95bd 8058 03be b73a 43bb
00000180: 3b4e 56be ea38 ea3d 8f05 873d 42bd 06be
00000190: 49fe 2a3c 5ec2 5c3d ac97 ccbc 6b7e b0bc
000001a0: a41c e5bd 4cab 07be f28f 23be 6aeb 0d39
000001b0: 47c8 f3bb 999a 4b3d 1bec 08be d1a7 22bd
000001c0: 759a 703d 5001 b1bd ad00 383d b06f 1f3e
000001d0: 2912 b4bd 050b bebe ace5 28bd c626 5ebd
000001e0: 9830 36bd 0f49 a0bd 3696 133d 5f56 123d
000001f0: 82c5 ccbd d706 78bc 98b2 08be 7477 103d
00000200: 69fb 71bd 5733 c4bd 256e dfbc 6476 a2bd
00000210: 9f2d 87bc 8660 99bd b5ad 2a3d 1ccc 49be
00000220: b838 353e 8848 3abe 4620 80bd c192 173e
00000230: b3b2 6abe 6656 85bd a963 5fbd 2d80 483c
00000240: d1cb 4d3e d3df e33d 4f18 113e d66f 953c
00000250: 11e1 c33d 4314 a13d bfa3 f83c 5c4a eb3d
00000260: b8e7 edbc 779a f83d 7cd0 8f3d bfd1 ca3c
00000270: 186f 02bd 246a c4bc 9d17 853d a9dc 7fbc
00000280: e648 673b ac85 febd 963e 89bd 712b 033e
00000290: e615 5f3e 9ce5 afbd 0617 b3bd 0152 c6bb
000002a0: 8d16 34bd 3345 52bc bf0d 11be 1cad 063e
000002b0: d8c3 0abe d34f 97bc 3e63 143e a0d4 d2bd
000002c0: f01f b73d e686 3ebd 0366 c4bd fbba 2e3d
000002d0: ca0d c63d ea14 8a3d 038a 83bb cd23 e1bc
000002e0: 2973 1b3e 5b80 543c d8b1 7b3d 2d75 f53d
000002f0: e0ca d1bb cac3 8fbd 9265 963d 2f4f 53bc
00000300: 7289 a9bd 2eeb 893d 877f f83d 0f69 0abe
00000310: ffa2 94bd 09f2 1dbe 208e 6abd 154a f6bc
00000320: 2a06 22bc 1d24 4b3d 7953 6abe d49b 8fbd
00000330: 701c 683a a114 65bd bc8c 4ebd a9eb 3dbd
00000340: 7633 543e 012c f43c 4ff8 c3bd 1148 10be
00000350: 542f a3bd fc43 ecbd 5881 05be 9000 9ab9
00000360: 91a5 9c3d e37f c03d 46e8 95bd 85c4 e7bd
00000370: cb45 cdbe 5ba5 a83c f885 e4bd a4da 81bd
00000380: 89fd 11be 57eb 07be 5bdc b0bd 59ae b3be
00000390: 6101 7bbe a6f7 d2bc f5ca 71bc 9e9a 4bbd
000003a0: d825 34bd 9f1b b8bc 20e5 0bbe ac7c 2e3d
000003b0: 8d16 a83b 7a03 26be 9903 adbb 12d9 3dbe
000003c0: 3bca 503d 666e b63d 1c20 993c d3eb 01be
000003d0: eff2 2c3d ac5e bf3d bd3e babc d14a b7bd
000003e0: 410e 863d 8091 4fbd a189 97bc 5814 eabd
000003f0: 28a3 15be c181 6e3c edf8 b2bd 6267 54bd

lstm.bias_hh_l0 f4 [256]
-0.16376893 0.14135121 -0.047356397 -0.0945775 -0.09958475 -0.16702458 -0.25429016 -0.14770494
-0.046924435 -0.031082183 -0.03618653 -0.13330775 -0.1111967 -0.018896753 0.034816496 0.116595566
-0.07067001 0.05925836 0.011294241 -0.0076529575 0.11821999 0.052029613 -0.015344103 -0.02841992
-0.029032582 -0.12965575 -0.019569306 0.04866822 0.030993676 -0.1426648 0.012064357 -0.06954283
-0.021674316 -0.13378055 -0.024324302 0.13304603 -0.27183 0.008320919 0.035815265 -0.15111193
-0.14685988 -0.054192487 -0.09945328 -0.10384435 0.0006199197 -0.07506135 -0.0962958 -0.14634036
0.12110054 -0.14560528 0.082680926 0.079034716 -0.0326572 -0.20167768 -0.026944311 -0.16396157
-0.094797164 0.022969747 -0.030080799 0.013828887 -0.1689128 -0.09045131 -0.19142158 -0.1732063
-0.15290141 -0.0422198 -0.18914418 0.0008078661 -0.006860116 -0.057213385 -0.020273264 -0.0062542055
-0.12517722 -0.07393342 0.021461716 0.013452037 -0.004809339 -0.054149058 0.04941983 -0.10481952
0.0730546 -0.09051685 0.007985525 -0.060224425 -0.1505678 -0.045780625 -0.15141636 -0.11806225
0.017273301 0.008673225 -0.04951096 -0.10116029 -0.09863924 -0.0031573751 -0.10870719 0.11819375
-0.080781646 -0.025919853 0.025826935 0.026562922 -0.073535495 -0.019617472 -0.07726316 -0.117821895
0.010930696 0.0023036383 -0.13388546 0.015130205 -0.10459508 0.13940863 -0.0037695018 -0.04175752
-0.05564688 0.14733803 -0.042102184 0.15422346 -0.08508121 -0.36828417 -0.20777142 0.00803952
0.027965404 -0.04355749 0.00026026252 0.042267185 -0.085162 -0.091626786 -0.19391473 -0.0878823
0.027814426 -0.022200916 0.008822269 -0.030896096 -0.14637548 0.085976236 -0.17413643 -0.17360212
0.11835201 -0.18359768 0.07577891 -0.018428557 -0.19616519 0.019189855 0.0067503965 -0.019415166
0.12953055 -0.10081794 -0.040093098 -0.06181155 -0.13531967 0.05671846 -0.10938786 -0.080726236
-0.049072556 0.0010283699 0.018507564 0.12601314 0.1360775 -0.0003028929 -0.051354565 -0.12144707
0.07479986 0.081115484 -0.114974946 0.15199341 0.013597904 0.0063473736 -0.16131225 -0.0041453564
0.030234901 0.03776624 0.088339366 0.13193256 0.0173869 0.003912992 0.06678275 -0.121587425
0.094977334 -0.08423807 -0.059667192 0.10702924 0.03154373 -0.12878233 -0.123879366 -0.040360555
0.10401688 -0.09492762 -0.016289664 0.15262236 0.02525041 -0.104062706 0.10228645 0.03504502
0.00078365044 -0.1259609 -0.060110614 -0.03740172 -0.061470903 -0.063927904 -0.080757365 -0.013392687
0.078532904 -0.08813181 -0.025023088 0.07871115 0.048081677 -0.13827367 -0.098810524 -0.032688733
-0.009363692 -0.11344717 -0.19148816 -0.08062117 0.04740128 0.002069846 -0.13907951 -0.0026345863
-0.023995668 0.09072887 -0.06167652 0.050051976 -0.4264645 0.003958925 -0.11842841 -0.061374884
-0.06036971 0.059877016 -0.019281227 -0.31992015 -0.05138006 -0.15721352 0.01651032 -0.027213203
-0.07588668 -0.011460843 -0.123713 0.041274086 0.009947971 -0.0030221778 0.094071455 -0.07057232
0.0904967 0.067825586 -0.09676831 -0.094659 -0.022593595 0.04882293 -0.13345684 0.0037064939
0.05742756 -0.015579559 0.015221763 -0.009084297 -0.117312886 -0.08308181 -0.27692235 -0.020355556
00000000: 0bb3 27be 5fbe 103e c8f8 41bd d9b1 c1bd
00000010: 17f3 cbbd 7e08 2bbe 5232 82be f73f 17be
00000020: d633 40bd 10a0 febc 5438 14bd d481 08be
00000030: 18bb e3bd 5dcd 9abc be9b 0e3d a8c9 ee3d
00000040: 70bb 90bd e5b8 723d 7b0b 393c a9c5 fabb
00000050: 521d f23d 011d 553d d565 7bbc e4d0 e8bc
00000060: bdd5 edbc 7ac4 04be cf4f a0bc 5458 473d
00000070: 73e6 fd3c b916 12be 95a9 453c 796c 8ebd
00000080: 568e b1bc c5fd 08be c243 c7bc 383d 083e
00000090: 4d2d 8bbe 7754 083c 07b3 123d 16bd 1abe
000000a0: 7062 16be f1f8 5dbd 29ae cbbd 59ac d4bd
000000b0: 1b82 223a c4b9 99bd bb36 c5bd 3fda 15be
000000c0: 8f03 f83d 8d19 15be 9e54 a93d f4dc a13d
000000d0: 8ec3 05bd 9884 4ebe 51ba dcbc 8be5 27be
000000e0: 0425 c2bd 0d2b bc3c 026c f6bc 8e92 623c
000000f0: 7af7 2cbe 893e b9bd 0504 44be fe5c 31be
00000100: 3092 1cbe abee 2cbd 03af 41be fac6 533a
00000110: d3ca e0bb 9558 6abd 1e14 a6bc 14f0 ccbb
00000120: 752e 00be 686a 97bd 7bd0 af3c ef65 5c3c
00000130: a997 9dbb 67cb 5dbd 736c 4a3d 9eab d6bd
00000140: a69d 953d e660 b9bd b8d5 023c e3ad 76bd
00000150: 722e 1abe 7784 3bbd e40c 1bbe 9fca f1bd
00000160: bd80 8d3c 241a 0e3c 01cc 4abd 202d cfbd
00000170: 5f03 cabd f7eb 4ebb e0a1 debd 910f f23d
00000180: d970 a5bd df55 d4bc 0293 d33c 7c9a d93c
00000190: c799 96bd d2b4 a0bc 263c 9ebd 9b4c f1bd
000001a0: a916 333c a3f8 163b 4519 09be aee4 773c
000001b0: f235 d6bd 23c1 0e3e bf09 77bb ef09 2bbd
000001c0: fced 63bd c8df 163e 5773 2cbd c1ec 1d3e
000001d0: 0f3f aebd be8f bcbe 08c2 54be 31b8 033c
000001e0: b417 e53c 5769 32bd d873 8839 5b20 2d3d
000001f0: 6a69 aebd d3a6 bbbd 9591 46be a3fb b3bd
00000200: 14db e33c b2de b5bc 478b 103c cf19 fdbc
00000210: 74e3 15be 4f14 b03d d250 32be c1c4 31be
00000220: 8a62 f23d 0801 3cbe f931 9b3d 7cf7 96bc
00000230: 87df 48be 0b34 9d3c 6e32 dd3b 8e0c 9fbc
00000240: a8a3 043e a379 cebd a938 24bd 1c2e 7dbd
00000250: 3d91 0abe 9e51 683d be06 e0bd cc53 a5bd
00000260: 4e00 49bd 5eca 863a 2d9d 973c 9709 013e
00000270: e657 0b3e 99cd 9eb9 2a59 52bd 3eb9 f8bd
00000280: ab30 993d e01f a63d fc77 ebbd 29a4 1b3e
00000290: bec9 5e3c a1fd cf3b 0a2f 25be c5d5 87bb
000002a0: 2faf f73c c6b0 1a3d 45eb b43d 5419 073e
000002b0: f96e 8e3c 8e38 803b 65c5 883d d402 f9bd
000002c0: 7a83 c23d 0285 acbd 9665 74bd 2532 db3d
000002d0: 0034 013d 84df 03be 77b4 fdbd 1c51 25bd
000002e0: cd06 d53d 6969 c2bd e771 85bc 0949 1c3e
000002f0: f3d9 ce3c d41e d5bd 8f7b d13d 5e8b 0f3d
00000300: e46d 4d3a e5fb 00be 8c36 76bd 8c32 19bd
00000310: eac8 7bbd a2ec 82bd 1e64 a5bd 006d 5bbc
00000320: dcd5 a03d 737e b4bd 38fd ccbc 5033 a13d
00000330: 4bf1 443d 9d97 0dbe 2c5d cabd 9fe4 05bd
00000340: 2c6a 19bc fd56 e8bd 7915 44be b61c a5bd
00000350: d827 423d 41a6 073b dc6a 0ebe 06a9 2cbb
00000360: 9092 c4bc 0fd0 b93d 85a0 7cbd 4d03 4d3d
00000370: 8e59 dabe dfb9 813b 988a f2bd 3b64 7bbd
00000380: 3b46 77bd 9a41 753d aaf3 9dbc 93cc a3be
00000390: e673 52bd 95fc 20be a740 873c 39ee debc
000003a0: 7a6a 9bbd 42c6 3bbc 3e5d fdbd 040f 293d
000003b0: d1fc 223c bb0f 46bb 89a8 c03d 3888 90bd
000003c0: 5556 b93d 24e8 8a3d 772e c6bd 94dc c1bd
000003d0: 3416 b9bc 8dfa 473d e9a8 08be a6e8 723b
000003e0: 2939 6b3d 6841 7fbc b464 793c 4ed6 14bc
000003f0: bd41 f0bd cc26 aabd c4c8 8dbe b2c0 a6bc

lstm.weight_ih_l1 f4 [256, 64]
0.12530346 0.32747844 -0.119112216 0.10425786 -0.049907725 -0.09887087 0.107511185 0.11227676
-0.1901597 0.013951287 -0.015522309 -0.13324162 0.056614455 0.12937927 0.13489798 0.19273049
-0.34331238 0.00057272764 -0.025952581 -0.01362337 0.13016106 -0.16308148 0.051420424 0.09047611
-0.2697309 0.025624363 0.1913982 0.054247003 0.12110077 -0.15005665 0.13296232 -0.0014171246
0.16231366 -0.0810828 -0.000111012865 -0.018790357 0.107350305 0.15313905 0.17027113 0.22557758
-0.093962334 0.031152565 -0.103514865 0.15440013 -0.03957882 -0.09472285 -0.1797542 -0.07962619
-0.13760419 -0.11119764 0.0941468 -0.110608555 0.040980775 0.31431323 -0.127674 0.0028204883
0.10796522 -0.17290288 0.04571061 -0.10936369 -0.04269684 0.108862735 -0.18624268 0.10591032
0.10950186 0.1282543 -0.03812863 0.0035190713 0.16058512 -0.18455048 0.09889253 0.21632425
-0.21097447 -0.015801607 -0.15191552 -0.1753682 -0.05732323 0.12152574 -0.042467177 0.11749657
-0.12211772 0.024947412 0.1686642 0.018285371 0.1395392 -0.007952712 0.103942744 0.17163306
-0.016187591 0.050002616 0.1302881 0.07223563 0.023085505 -0.04886242 -0.14536454 -0.025077846
0.11216944 -0.010636887 -0.1631621 0.027070476 0.0019895574 0.008030708 0.1530409 0.0306284
-0.10974565 0.12964576 -0.03874815 0.14351237 -0.023074297 0.007036115 -0.17680112 0.068679966
-0.25129303 0.05411465 0.065242305 -0.00044914326 -0.03254747 0.3060986 -0.08142674 -0.15728348
0.18148293 -0.04699152 0.09138675 -0.15623866 -0.1122175 -0.025972888 0.019460332 0.055401877
0.097393714 0.23420258 0.094611645 -0.124720894 -0.04648563 0.010393401 0.08072167 0.20099974
-0.15458766 -0.07855136 -0.17027512 -0.04061971 -0.117843516 0.04867932 -0.018811835 -0.0109218545
-0.06857883 -0.02332865 0.10177934 0.0016433997 0.21233277 -0.050572928 0.024537344 -0.07773661
0.105513625 -0.14802727 -0.10685456 0.15151231 0.15783003 -0.15080091 0.09483596 -0.050006017
-0.14786065 -0.054835267 -0.15810157 0.1921575 0.18012875 -0.034709778 -0.020956209 0.17364189
-0.17966345 -0.032639723 -0.023152433 0.20280433 -0.1110311 0.16745679 0.003977677 0.013591353
-0.052226257 -0.053516544 0.19099212 -0.16348442 0.1203015 0.3061277 0.16159077 -0.04090536
0.12836121 -0.23909706 0.13099526 -0.15257071 0.05353585 -0.062176242 -0.0035767315 0.050156675
0.094525926 0.2183064 0.044064946 0.0018917804 0.17967351 -0.0739317 0.07351102 -0.009979513
-0.23885691 -0.04058747 0.05124591 0.021344423 0.012521154 0.08809426 0.029347548 0.095395006
-0.009267395 -0.019641414 0.07135199 -0.08970357 0.118561596 -0.052991003 0.120778956 0.056802783
0.058439393 -0.09950998 0.12509952 0.055442736 0.12557606 -0.37756914 0.13264851 0.10825811
-0.008362087 -0.032914393 -0.04623242 0.12934804 0.15521309 -0.1278447 0.17806834 0.13606405
-0.19736986 0.13572875 -0.10750732 0.19721812 -0.027822778 0.054896217 -0.13218904 -0.059764184
-0.066877164 0.014017101 0.20711802 -0.20283604 0.20200694 0.15794198 0.022212509 -0.035639707
0.094535045 -0.18529357 0.021813275 -0.17762887 -0.1863318 0.1764453 -0.035583243 -0.08116572
00000000: 8d4f 003e 41ab a73e 1bf1 f3bd 2585 d53d
00000010: 0b6c 4cbd d07c cabd d32e dc3d 5cf1 e53d
00000020: 39b9 42be f093 643c 4851 7ebc 7e70 08be
00000030: 8fe4 673d 007c 043e b222 0a3e 245b 453e
00000040: a4c6 afbe 1a23 163a 829a d4bc 8e34 5fbc
00000050: f148 053e d5fe 26be 399e 523d 8a4b b93d
00000060: 2b1a 8abe 2fea d13c e4fd 433e 1b32 5e3d
00000070: ae03 f83d 73a8 19be 4627 083e d0be b9ba
00000080: 8d35 263e bd0e a6bd 94cf e8b8 3cee 99bc
00000090: 7ada db3d 7cd0 1c3e 8e5b 2e3e cffd 663e
000000a0: 536f c0bd aa33 ff3c 9aff d3bd 111b 1e3e
000000b0: 671d 22bd 0efe c1bd 7c11 38be 0e13 a3bd
000000c0: 1de8 0cbe 97bb e3bd 0ad0 c03d bd86 e2bd
000000d0: 75db 273d aaed a03e f9bc 02be f1d7 383b
000000e0: df1c dd3d 740d 31be 0c3b 3b3d 12fa dfbd
000000f0: e2e2 2ebd 6df3 de3d 67b6 3ebe 83e7 d83d
00000100: 8342 e03d 1855 033e c42c 1cbd 38a0 663b
00000110: 6d70 243e cdfa 3cbe 2b88 ca3d 1b84 5d3e
00000120: b109 58be 5f72 81bc be8f 1bbe b993 33be
00000130: c3cb 6abd 7de2 f83d 10f2 2dbd 0ba2 f03d
00000140: db18 fabd 845e cc3c 4fb6 2c3e 34cb 953c
00000150: 5de3 0e3e 174c 02bc efdf d43d 94c0 2f3e
00000160: d79b 84bc 8bcf 4c3d 3e6a 053e 46f0 933d
00000170: d01d bd3c f623 48bd 71da 14be 0e70 cdbc
00000180: 17b9 e53d 5646 2ebc f713 27be e7c2 dd3c
00000190: 3c63 023b 3b93 033c c1b6 1c3e 69e8 fa3c
000001a0: 54c2 e0bd dcc1 043e 61b6 1ebd e8f4 123e
000001b0: 4f06 bdbc 368f e63b 5a0b 35be 15a8 8c3d
000001c0: 7ba9 80be 53a7 5d3d c29d 853d fd7a ebb9
000001d0: 7f50 05bd f5b8 9c3e 10c3 a6bd ec0e 21be
000001e0: a9d6 393e 2e7a 40bd fa28 bb3d 07fd 1fbe
000001f0: 4ad2 e5bd 18c5 d4bc 466b 9f3c 14ed 623d
00000200: 5b76 c73d cdd2 6f3e c0c3 c13d ab6d ffbd
00000210: b767 3ebd 1549 2a3c 6751 a53d e0d2 4d3e
00000220: 3a4c 1ebe 89df a0bd 9a5c 2ebe da60 26bd
00000230: f157 f1bd f763 473d 471b 9abc 94f1 32bc
00000240: 0f73 8cbd ba1b bfbc b071 d03d 5867 d73a
00000250: c36d 593e 8f25 4fbd 8a02 c93c 5f34 9fbd
00000260: 8717 d83d 7694 17be 90d6 dabd 0b26 1b3e
00000270: 329e 213e 8e6b 1abe 5b39 c23d 1cd3 4cbd
00000280: c868 17be f29a 60bd 61e5 21be f0c4 443e
00000290: ac73 383e d72b 0ebd 5bac abbc 2ecf 313e
000002a0: b2f9 37be 3bb1 05bd 2caa bdbc f0ab 4f3e
000002b0: 4664 e3bd cb79 2b3e 2c57 823b 44ae 5e3c
000002c0: 33eb 55bd 2a34 5bbd 7093 433e 7668 27be
000002d0: a260 f63d c5bc 9c3e 0d78 253e 618c 27bd
000002e0: 1f71 033e dcd5 74be 9f23 063e 7f3b 1cbe
000002f0: 6848 5b3d 84ac 7ebd 9967 6abb 1671 4d3d
00000300: cf96 c13d b78b 5f3e 727d 343d 9ef5 f73a
00000310: 55fc 373e 8169 97bd f28c 963d 1c81 23bc
00000320: e896 74be 0c3f 26bd 3be7 513d 80da ae3c
00000330: 8725 4d3c c36a b43d 456a f03c 755e c33d
00000340: 46d6 17bc 08e7 a0bc fe20 923d 81b6 b7bd
00000350: 6cd0 f23d 180d 59bd f55a f73d 09aa 683d
00000360: 255e 6f3d e3cb cbbd 171a 003e ec17 633d
00000370: 0397 003e be50 c1be 03d5 073e 6eb6 dd3d
00000380: 2301 09bc 3ed1 06bd 355e 3dbd d073 043e
00000390: 2ef0 1e3e b9e9 02be 8c57 363e 6054 0b3e
000003a0: 531b 4abe 7afc 0a3e cc2c dcbd 8cf3 493e
000003b0: 98ec e3bc dbda 603d 905c 07be 4acb 74bd
000003c0: e5f6 88bd fca7 653c bf16 543e 40b4 4fbe
000003d0: e8da 4e3e 8bbb 213e 02f7 b53c f1fa 11bd
000003e0: 979b c13d 99bd 3dbe c1b1 b23c 58e4 35be
000003f0: c3cd 3ebe 14ae 343e bcbf 11bd 373a a6bd

lstm.weight_hh_l1 f4 [256, 64]
0.09417538 0.106389925 -0.1822062 0.045256328 0.11307262 0.06918074 -0.032393053 -0.08107372
0.07527037 -0.0832824 -0.18646055 0.086848035 -0.03507023 0.09199031 0.057751097 -0.08882636
0.091929086 -0.06990271 0.1354607 -0.07084789 0.010046057 -0.047469568 -0.16676211 0.0011869106
0.08609057 -0.04755507 -0.12578124 0.086477384 -0.0076965643 0.110844135 0.021407587 -0.04395083
-0.10212895 -0.13502346 0.15706816 -0.06799314 -0.16166751 0.10904844 0.07614366 -0.005074986
0.033426233 0.062384877 0.05229642 0.047166217 -0.017557714 0.08737643 0.052175075 0.033006262
-0.05613806 0.09557953 -0.098774485 0.057822775 -0.079599924 0.020836782 0.04207535 -0.089712225
0.0096493745 -0.027786462 -0.04955154 0.18178675 -0.19430776 0.059728272 0.032084867 0.16229086
0.08067246 0.072522834 -0.120031506 0.044168282 -0.06758191 0.033835422 0.20120406 0.057800137
-0.13282908 -0.023479272 -0.0981492 0.10627341 0.091712415 0.11403329 -0.10680357 -0.06706306
-0.035062894 0.09710059 0.017694784 -0.022801656 -0.062316697 0.12993118 -0.19363259 -0.14044058
0.17197727 -0.005252064 -0.04997887 0.1028078 -0.15897682 -0.049075145 -0.022787487 0.022879219
-0.0501621 -0.113602005 -0.07237634 -0.10394374 -0.07250697 0.07736736 -0.029083373 -0.10411942
-0.16124819 -0.039708108 -0.091325365 0.18381473 0.086452514 -0.07197304 0.12241533 -0.09186529
0.059473637 -0.1338714 -0.022454988 0.025891976 -0.028007122 0.20252882 0.060127486 -0.059432544
0.038612228 0.010538744 -0.14043193 0.1733915 -0.01637112 0.09231154 0.015844611 0.12868758
-0.07546554 -0.10535603 -0.1726865 0.1520526 0.124551795 0.090673335 -0.058615226 -0.06327189
0.045700103 0.036511686 -0.091512986 -0.06006836 -0.030577678 -0.04273944 -0.110286675 -0.14512074
0.059727337 0.033186883 0.00016571794 -0.12547502 -0.051374372 0.1017789 -0.09525537 -0.096692346
0.18059488 -0.023867792 0.02894781 0.10728711 -0.17611581 -0.049636167 0.041135937 0.016162587
0.013317376 -0.10531955 0.048621584 -0.100562215 -0.07958018 0.09223388 -0.06822635 0.069058396
-0.009802209 0.041265596 -0.06527505 0.037602793 0.05106944 -0.051510237 -0.094194256 -0.02915389
0.109145544 -0.12692386 -0.1750421 -0.083543114 -0.0326586 0.024798676 -0.067331515 0.09619604
0.009880702 0.025263682 -0.13720538 -0.004784051 -0.18749784 -0.09826205 0.038343962 0.016503435
-0.07777396 0.030422803 -0.033882517 -0.021442499 0.12092993 0.016449317 -0.03217375 -0.1022168
0.03439379 -0.12009845 -0.10085758 0.060467124 0.059465107 0.18581264 -0.108047605 -0.10539931
-0.01561526 0.1113593 0.037763245 -0.12800714 -0.06470454 0.14495878 -0.20390636 -0.044008918
0.20336877 -0.023611464 -0.0426 0.1813432 -0.15047345 -0.015476077 0.06304869 -0.082730204
-0.06823773 0.07001484 0.1680628 -0.188018 -0.0742482 0.08868627 -0.08053896 0.033319563
-0.12829608 0.19313204 -0.020466799 -0.003862853 -0.038163804 0.11364793 0.051328078 0.024126874
0.036587566 0.033388007 -0.22003052 0.020502456 0.025777658 0.112782784 -0.100600265 -0.093718864
-0.14614044 -0.14796382 -0.0074852454 0.20828722 0.020856965 0.046493497 0.03288529 -0.009935625
00000000: 06df c03d f6e2 d93d 4394 3abe b35e 393d
00000010: 9e92 e73d a2ae 8d3d 94ae 04bd fa09 a6bd
00000020: 5a27 9a3d f78f aabd 84ef 3ebe 62dd b13d
00000030: cda5 0fbd 6a65 bc3d 6a8c 6c3d 98ea b5bd
00000040: 5145 bc3d 2729 8fbd 36b6 0a3e b318 91bd
00000050: 3898 243c 736f 42bd b0c3 2abe 1c92 9b3a
00000060: 4150 b03d 1bc9 42bd cccc 00be 0e1b b13d
00000070: 7633 fcbb 4002 e33d f75e af3c c905 34bd
00000080: fc28 d1bd 9743 0abe 7ad6 203e fd3f 8bbd
00000090: 2b8c 25be ca54 df3d 35f1 9b3d 114c a6bb
000000a0: f2e9 083d 4987 7f3d c534 563d 5d31 413d
000000b0: 32d5 8fbc 6af2 b23d 88b5 553d 9331 073d
000000c0: 06f1 65bd 33bf c33d 474a cabd 93d7 6c3d
000000d0: 4905 a3bd e6b1 aa3c 3457 2c3d 0bbb b7bd
000000e0: 6918 1e3c 6fa0 e3bc 8ef6 4abd 4e26 3a3e
000000f0: 9df8 46be a2a5 743d 6c6b 033d 932f 263e
00000100: 9a37 a53d da86 943d 14d3 f5bd cde9 343d
00000110: 6268 8abd 0397 0a3d 7008 4e3e d6bf 6c3d
00000120: 5904 08be 9a57 c0bc 7302 c9bd e0a5 d93d
00000130: b8d3 bb3d 498a e93d d5bb dabd 5c58 89bd
00000140: 1c9e 0fbd addc c63d a7f4 903c 8aca babc
00000150: cb3f 7fbd ae0c 053e 9f47 46be a8cf 0fbe
00000160: cf1a 303e 8219 acbb a5b6 4cbd e58c d23d
00000170: d2ca 22be 0503 49bd d3ac babc 336d bb3c
00000180: c676 4dbd 2ba8 e8bd 0c3a 94bd 75e0 d4bd
00000190: 897e 94bd c772 9e3d 4140 eebc 903c d5bd
000001a0: 3f1e 25be f8a4 22bd cb08 bbbd ee39 3c3e
000001b0: 040e b13d 9a66 93bd e3b4 fa3d df23 bcbd
000001c0: a19a 733d 9615 09be 86f3 b7bc 691b d43c
000001d0: 316f e5bc b763 4f3e 3d48 763d 8a6f 73bd
000001e0: db27 1e3d b2aa 2c3c 63cd 0fbe 8b8d 313e
000001f0: ba1c 86bc d50d bd3d 8fcc 813c adc6 033e
00000200: ad8d 9abd e7c4 d7bd bbd4 30be adb3 1b3e
00000210: 0315 ff3d f1b2 b93d 8516 70bd b194 81bd
00000220: 0830 3b3d 478d 153d 296b bbbd 3e0a 76bd
00000230: 0a7e fabc 8d0f 2fbd fbdd e1bd 889a 14be
00000240: a7a4 743d f8ee 073d 92c4 2d39 867c 00be
00000250: ef6d 52bd 7571 d03d 3f15 c3bd a306 c6bd
00000260: dded 383e 6386 c3bc f523 ed3c 58b9 db3d
00000270: b457 34be 4b4f 4bbd 287e 283d 6767 843c
00000280: 2031 5a3c c7b1 d7bd 6d27 473d 90f3 cdbd
00000290: effa a2bd 1ee5 bc3d 42ba 8bbd 7d6e 8d3d
000002a0: 7299 20bc 1d06 293d edae 85bd 6305 1a3d
000002b0: 302e 513d 66fc 52bd ebe8 c0bd 24d4 eebc
000002c0: b387 df3d 54f8 01be 3c3e 33be a718 abbd
000002d0: 06c5 05bd 9826 cb3c 1be5 89bd 6e02 c53d
000002e0: abe2 213c c8f5 ce3c 917f 0cbe 87c3 9cbb
000002f0: 6fff 3fbe 9d3d c9bd 8f0e 1d3d 3632 873c
00000300: f447 9fbd 3e39 f93c 65c8 0abd 2ea8 afbc
00000310: 1caa f73d b8c0 863c 9fc8 03bd 0b57 d1bd
00000320: 81e0 0c3d 2df6 f5bd 6b8e cebd 60ac 773d
00000330: af91 733d ab45 3e3e 1048 ddbd 98db d7bd
00000340: 26d7 7fbc 5810 e43d a2ad 1a3d 4e14 03be
00000350: d083 84bd 1370 143e d4cc 50be b242 34bd
00000360: e73f 503e d46c c1bc 567d 2ebd 08b2 393e
00000370: b615 1abe 5f8f 7dbc ac1f 813d 746e a9bd
00000380: 39c0 8bbd f163 8f3d a818 2c3e ca87 40be
00000390: 710f 98bd 26a1 b53d 9cf1 a4bd 187a 083d
000003a0: 0c60 03be 68c4 453e fda9 a7bc eb27 7dbb
000003b0: a651 1cbd 3fc0 e83d 643d 523d b9a5 c53c
000003c0: d8dc 153d ddc1 083d ae4f 61be c4f4 a73c
000003d0: ab2b d33c a9fa e63d 8307 cebd adef bfbd
000003e0: d7a5 15be d483 17be ca46 f5bb 3f49 553e
000003f0: 3adc aa3c f76f 3e3d bab2 063d 08c9 22bc

lstm.bias_ih_l1 f4 [256]
-0.05907448 -0.043861177 -0.21492769 -0.19575301 -0.075276926 -0.2068788 -0.089796595 -0.18929483
0.041546233 -0.107035145 0.08628243 0.038099613 -0.102925256 -0.0703691 0.0013300102 0.07789291
-0.14376831 -0.05890379 0.009613986 -0.15826495 -0.108955316 -0.13400137 -0.08943379 -0.13096918
-0.011125964 -0.036536515 0.04090928 -0.124404445 -0.010017301 -0.106934495 -0.021947302 0.0043216245
0.055130165 0.02141754 0.069205366 -0.17104904 -0.056183726 0.040700983 -0.13344653 0.0045630843
0.12739955 -0.01327463 -0.112834215 0.0125877885 -0.06315595 -0.08921752 -0.087021925 -0.07838518
0.00910576 0.00030315516 0.06212587 -0.005871895 0.030733831 0.008284915 -0.20327625 -0.13885131
-0.110811755 -0.18014407 -0.015871204 -0.11930457 -0.013131216 -0.123468176 -0.07582279 0.024358891
-0.1691061 0.0368852 -0.11314201 0.014911201 0.022165516 -0.01804313 -0.005188527 -0.18054534
-0.046770085 0.059961244 -0.055778418 -0.09329751 0.00960836 -0.076616995 -0.14057514 0.016747694
0.053027544 -0.11072632 -0.094682276 -0.11884627 0.011901106 -0.1866498 -0.026595004 -0.19276908
-0.043173097 -0.13766575 -0.0044169184 -0.16733383 -0.045631833 -0.06640335 0.053191718 -0.018614173
-0.023670124 0.025773298 -0.03616949 0.000118509415 -0.036812413 0.003158961 -0.09006338 -0.03138112
-0.07613134 0.005032816 -0.07721228 -0.014503542 -0.20027104 0.066442855 -0.108965576 -0.027108032
-0.09918471 -0.082639605 -0.0631013 0.047833037 -0.07226005 -0.122091696 -0.081052616 0.054811627
0.006466388 -0.118630484 0.014973274 -0.086498775 -0.06660988 -0.034717385 -0.11050331 -0.030865643
-0.07132066 -0.06756115 -0.0081070205 -0.0031196019 -0.11803246 -0.050890807 -0.08801134 -0.121668555
0.027593302 -0.07193848 0.11823344 0.11395057 -0.092059165 0.010990318 -0.08244772 0.10879801
-0.07436512 -0.030557366 0.009110262 0.031122698 -0.11279829 0.07646927 0.003780946 -0.060034018
-0.033372488 -0.014886699 -0.008872639 -0.031131666 0.011866876 0.009472833 -0.07590326 -0.055785764
0.03350611 -0.0014483191 -0.005219549 0.021771291 -0.0561112 0.052618038 0.028111668 -0.07432768
0.13902691 0.10661052 0.015582258 0.0018194531 -0.07715447 0.09168801 0.021779792 0.011173021
-0.044576053 -0.08146189 -0.009706347 -0.12640975 -0.12086796 -0.07279441 0.0033984822 -0.013658382
0.079100564 0.041621257 0.06118928 -0.057589304 0.005259595 0.13051692 0.08252918 -0.0443289
0.021009166 1.9396539e-05 -0.10338357 -0.019027876 -0.14475627 -0.15919991 0.046626244 0.008728745
-0.12004694 0.005126512 -0.12858331 -0.15990388 -0.13426377 0.050048392 -0.13337581 -0.06424283
-0.0075895325 0.0036128305 -0.013459746 -0.022349754 -0.04619155 -0.1445915 -0.11947064 0.016851207
-0.035026856 -0.17031209 0.06846889 -0.05184209 0.026216703 -0.23873703 -0.00020623808 -0.15979022
0.009537996 0.052722316 -0.12889555 -0.017702028 -0.23384555 -0.02328714 0.036478978 -0.1234785
-0.059465654 -0.034485452 -0.087968014 -0.09891674 -0.13324535 0.028222246 -0.0910572 -0.005219921
0.0045652743 -0.08298767 -0.019085445 -0.14760007 -0.10355975 -0.01652504 -0.015622146 0.06069971
-0.16693151 -0.11676198 0.018973036 -0.07683148 -0.031525865 -0.14731632 -0.10385559 -0.025389213
00000000: 15f8 71bd c7a7 33bd 0116 5cbe 7a73 48be
00000010: ca2a 9abd 09d8 53be 47e7 b7bd 81d6 41be
00000020: 622c 2a3d 3e35 dbbd d8b4 b03d 570e 1c3d
00000030: 7aca d2bd ad1d 90bd bd53 ae3a 5186 9f3d
00000040: 0038 13be 1a45 71bd fb83 1d3c 3510 22be
00000050: f723 dfbd a837 09be 1029 b7bd c91c 06be
00000060: ad49 36bc 50a7 15bd 7d90 273d c2c7 febd
00000070: 9b1f 24bc 7900 dbbd d4ca b3bc 6a9c 8d3b
00000080: 2bd0 613d d673 af3c 8bbb 8d3d 7b27 2fbe
00000090: e820 66bd 13b6 263d 35a6 08be ed85 953b
000000a0: 0775 023e d57d 59bc a015 e7bd 033d 4e3c
000000b0: e857 81bd adb7 b6bd 8d38 b2bd 6988 a0bd
000000c0: 5330 153c ccf0 9e39 b277 7e3d 0669 c0bb
000000d0: 84c5 fb3c 74bd 073c a627 50be 0a2f 0ebe
000000e0: 46f1 e2bd b077 38be 5404 82bc f455 f4bd
000000f0: 5024 57bc e2dc fcbd fb48 9bbd 4c8c c73c
00000100: 262a 2dbe ef14 173d 00b7 e7bd 1c4e 743c
00000110: 7594 b53c 30cf 93bc 8504 aabb e1e0 38be
00000120: fd91 3fbd ec99 753d e977 64bd c412 bfbd
00000130: 626c 1d3c 5fe9 9cbd eef2 0fbe 7632 893c
00000140: 6933 593d 7bc4 e2bd c8e8 c1bd ac65 f3bd
00000150: dbfc 423c 2021 3fbe c4dd d9bc 4265 45be
00000160: 46d6 30bd 40f8 0cbe ccbb 90bb 8f59 2bbe
00000170: 72e8 3abd 7bfe 87bd 8fdf 593d c07c 98bc
00000180: d9e7 c1bc 8622 d33c 7626 14bd 4288 f838
00000190: 9dc8 16bd 9206 4f3b 2673 b8bd 7d89 00bd
000001a0: bfea 9bbd 52ea a43b 7921 9ebd 44a0 6dbc
000001b0: da13 4dbe 3113 883d 5829 dfbd aa11 debc
000001c0: 5a21 cbbd f43e a9bd 413b 81bd 93ec 433d
000001d0: 14fd 93bd 360b fabd eafe a5bd 2882 603d
000001e0: fee3 d33b 8af4 f2bd 7752 753c 4526 b1bd
000001f0: c36a 88bd d133 0ebd 8f4f e2bd f2d9 fcbc
00000200: 9110 92bd 805d 8abd 4fd3 04bc 3c72 4cbb
00000210: 01bb f1bd e172 50bd 4a3f b4bd 5d2d f9bd
00000220: 590b e23c 7b54 93bd 6024 f23d eb5e e93d
00000230: 8489 bcbd bc10 343c 5ada a8bd 7ed1 de3d
00000240: bd4c 98bd 7153 fabc 3543 153c 07f5 fe3c
00000250: ca02 e7bd ec9b 9c3d bfc9 773b 3be6 75bd
00000260: 97b1 08bd 57e7 73bc 8c5e 11bc d607 ffbc
00000270: 496d 423c f133 1b3c 2b73 9bbd 9d7f 64bd
00000280: b43d 093d 86d5 bdba c008 abbb b559 b23c
00000290: dcd4 65bd 0386 573d 714a e63c 1c39 98bd
000002a0: 125d 0e3e 9e56 da3d ba4c 7f3c b77a ee3a
000002b0: 2a03 9ebd ecc6 bb3d 896b b23c 0c0f 373c
000002c0: 6195 36bd 7ed5 a6bd 5f07 1fbc 8f71 01be
000002d0: 9f89 f7bd 3c15 95bd 12b9 5e3b 68c7 5fbc
000002e0: 7aff a13d 0d7b 2a3d 9ca1 7a3d c3e2 6bbd
000002f0: ae58 ac3b 3aa6 053e 0f05 a93d 3892 35bd
00000300: 6a1b ac3c c0b5 a237 c4ba d3bd 59e0 9bbc
00000310: fd3a 14be 4d05 23be 29fb 3e3d 0303 0f3c
00000320: 2cdb f5bd 4dfc a73b 58ab 03be d8bd 23be
00000330: 717c 09be 8bff 4c3d ab93 08be bf91 83bd
00000340: 9db1 f8bb 3dc5 6c3b 4486 5cbc d516 b7bc
00000350: 5a33 3dbd cb0f 14be 06ad f4bd 8b0b 8a3c
00000360: 5278 0fbd 4b66 2ebe 6b39 8c3d 5f58 54bd
00000370: 69c4 d63c 7b77 74be 9d41 58b9 0ca0 23be
00000380: 4145 1c3c 5bf3 573d 32fd 03be d803 91bc
00000390: 3575 6fbe acc4 bebc fb6a 153d 4ce2 fcbd
000003a0: 4292 73bd 9e40 0dbd 9328 b4bd dc94 cabd
000003b0: 7871 08be 5732 e73c 337c babd df0b abbb
000003c0: 4c98 953b 71f5 a9bd 1459 9cbc 7924 17be
000003d0: 2217 d4bd 855f 87bc 08f4 7fbc 42a0 783d
000003e0: 18f0 2abe e820 efbd 576d 9b3c d359 9dbd
000003f0: 4421 01bd 17da 16be 3db2 d4bd 0afd cfbc
