Competition/TrainAI/model/c100/model_weights_2.pth (torch, 441743 bytes, 18 tensors)

lstm.weight_ih_l0 f4 [256, 34]
000000 fd 89 b4 3c 71 a4 bd 3d 26 44 05 bd 42 db 14 3b
       0.022038454 0.0925988 -0.032535695 0.0022713696
000010 e8 64 8a 3e fa b4 dd 3e 62 cb 84 bd 71 66 4c 3e
       0.2703011 0.43302137 -0.06484105 0.19960953
000020 a8 37 f2 3e 5b 55 dc bd 1f 3e bf bd 51 59 85 bd
       0.47308087 -0.10758468 -0.093380205 -0.065111764
000030 e7 df cb bd 4a 86 1a 3e 90 44 3a bc d0 e1 da 3c
       -0.09954815 0.1509029 -0.011368886 0.026719004
000040 22 94 4f 3e 82 2c 03 3e e7 91 83 3e 4c 5a 81 3d
       0.20271352 0.12809947 0.25697252 0.06316051
000050 c8 e4 a0 3d 5d 2b 47 3d ed b7 f0 3d 1d 38 6f bc
       0.078561366 0.04862534 0.11753831 -0.014600781
000060 21 be 2a 3c 21 75 e7 bd cf 9e f4 3d b4 4a 85 bd
       0.010421307 -0.113016374 0.11944353 -0.06508389
000070 09 94 90 3d 35 51 ac bd 49 c8 10 3e 78 47 a7 bc
       0.070594855 -0.084139265 0.14138903 -0.020419821
000080 10 d5 8b 3d 8a 94 c8 3c 29 8f 34 be ba b2 6e bc
       0.06827748 0.024484891 -0.17632736 -0.014568979
000090 65 26 7c 3d af e5 a3 3d ce dd 96 be 86 f5 b2 bd
       0.061560053 0.08002793 -0.294661 -0.08738236
0000a0 82 55 59 3b 9e 1b 8a bd 64 aa 0f be a9 b5 3b 3d
       0.003316254 -0.06743549 -0.14029843 0.04582754
0000b0 55 14 64 3d 65 2c a4 3c 68 45 3a bd a6 c6 d3 3d
       0.055683453 0.0200407 -0.045476347 0.103406236
0000c0 3e b8 d9 b8 ea 5c 37 be fe bd 5e bd 5c b4 16 be
       -0.00010381684 -0.17906538 -0.05438041 -0.14717239
0000d0 76 71 c2 3c cf bb 46 bd 00 32 08 3e d5 8e 97 bd
       0.023735743 -0.048518952 0.13300323 -0.0740029
0000e0 4e 8e 2a be 34 fa 70 3c 0a ce db 3d c7 af af bc
       -0.16655847 0.014708091 0.10732658 -0.021446122
0000f0 9a ea b5 bd 3d 09 13 3e 6b eb 89 bd 8a ae 8d bb
       -0.08882637 0.14358993 -0.067343555 -0.004323785
000100 97 c4 29 3c b1 54 03 bd 53 8d 8f 3d 21 73 33 3d
       0.010361812 -0.03206319 0.07009377 0.043810967
000110 7e 4f b5 3d 96 56 2c 3e 64 ab 36 3e 99 0a cd bd
       0.088530526 0.16829905 0.17838818 -0.10011787
000120 1e 63 d3 bb c0 d8 aa 3b 06 f0 f2 bb 31 8c ff bd
       -0.0064510247 0.005213827 -0.007413867 -0.12477911
000130 00 b8 5b 36 1f fe 66 be 61 b8 a7 bd 67 f4 d7 bc
       3.2740645e-06 -0.22557877 -0.08189464 -0.026361657
000140 f5 d0 2d be ba df 27 be 90 0c 31 be d8 ac 97 be
       -0.16974242 -0.16393939 -0.17289948 -0.29624057
000150 05 66 a9 3d e3 9b cc bd f1 a3 75 3c 2b 13 ce 3d
       0.08271412 -0.099906705 0.0149927 0.1006225
000160 34 2c 6c be c0 cc f5 3a 24 76 26 be 0a 68 60 3d
       -0.23063737 0.0018753037 -0.16256005 0.05478672
000170 0f 52 20 bd 37 67 92 3d d6 65 ef 3d a7 09 1d bd
       -0.039140757 0.07148593 0.116893455 -0.038339283
000180 93 0a 0e bd 04 6c f3 bd ee 0e 4d 3c 3d df 1d bd
       -0.034678053 -0.11885837 0.012515767 -0.038542975
000190 60 f0 3d 3d 0b 85 c7 3d e2 4a 17 be 3a 0b 4e 3d
       0.046371818 0.09742173 -0.1477466 0.050303675
0001a0 c8 75 11 3e f0 45 29 bd 43 12 09 3e 01 d0 9b bb
       0.14205086 -0.041326463 0.13385873 -0.0047550206
0001b0 5a d3 15 3e fa f9 ed 3d eb a6 22 3d eb 8e 2c 3d
       0.14631405 0.11619945 0.039709967 0.042128485
0001c0 1a 2f a6 bc 37 78 5d 3e 93 7e 35 3e 55 b8 7d bd
       -0.020286132 0.2162789 0.17724065 -0.06194337
0001d0 38 74 2c bc ec aa 7e 3d 57 ea ad bc e8 d5 30 bd
       -0.010525756 0.062174723 -0.021229906 -0.043172747
0001e0 17 dd 87 bc 30 3f 3a bd 23 70 b4 bd 2e ba a7 bd
       -0.016584916 -0.045470417 -0.08810451 -0.08189808
0001f0 cf bf 1a 3e a3 4e e7 3d 14 ae a6 bd d1 b8 8d bd
       0.15112232 0.11294296 -0.081386715 -0.069200166
000200 8d 8c 08 3e a5 50 01 be d6 49 c1 3c ae 70 1f bd
       0.13334866 -0.1262842 0.023594778 -0.03892582
000210 30 4e 51 bd 07 31 97 bd 2f d4 dd 3d 5f e2 39 be
       -0.051099956 -0.07382398 0.108314864 -0.1815276
000220 92 be 29 bd e4 fe 04 be fe e3 90 bd 06 8d 04 be
       -0.041441508 -0.12987858 -0.07074736 -0.12944421
000230 4f 7f 35 be 83 c1 ed bd 36 18 d3 bd f1 d7 b4 3b
       -0.17724346 -0.11609175 -0.10307352 0.0055189063
000240 ee 39 15 be e5 28 1e 3d 72 40 2f 3d c1 37 8b bc
       -0.1457288 0.03861322 0.04278607 -0.016994359
000250 22 fd 0d be 14 ee 96 3d 99 cf 8a 3d e3 5f 25 3e
       -0.13866094 0.073696285 0.06777877 0.16149859
000260 54 8f 3d bd 5c aa 00 3e 8b 2b b0 b9 83 9c ae 3d
       -0.046279266 0.12564987 -0.00033601778 0.08525946
000270 c2 f9 bf 3d 47 58 b6 bd 3b e7 57 bd 58 dc 11 be
       0.093738094 -0.08903556 -0.052710753 -0.1424421
000280 86 0e 28 be 3b ec f4 bd 60 d7 33 3d c4 64 17 3d
       -0.1641179 -0.1195912 0.04390657 0.036961332
000290 66 05 14 3d 82 a4 fd 3d d3 d5 91 bd b3 73 f2 3d
       0.03613796 0.12384893 -0.07120862 0.11838474
0002a0 56 11 06 bc cc 4a 14 3e 55 04 20 3e 57 e2 13 3d
       -0.008182844 0.14481658 0.15626653 0.036104526
0002b0 33 6a 39 3d eb d7 83 3c 99 18 37 bd 8d 52 87 bb
       0.045267295 0.016094169 -0.044701193 -0.004129714
0002c0 4e 48 d7 bd 21 4a f2 3a 29 4d 5d 3d 50 eb 06 be
       -0.10511838 0.0018485227 0.054028664 -0.13175702
0002d0 35 76 0a 3d b9 78 f0 bd 8c 55 38 bd 53 d1 c8 3d
       0.033804137 -0.11741776 -0.04500346 0.098055504
0002e0 2f 46 ed 3d 53 45 d3 3d cd fd d6 bd d4 18 f7 3d
       0.11585652 0.10315957 -0.104976274 0.120652825
0002f0 1d b4 97 bd 12 b0 78 3c e6 30 0e be 7a 1d 30 3d
       -0.07407401 0.015178697 -0.13885841 0.04299686
000300 70 5c 3d 3d a5 6a d5 bb 6a 4c 85 3d 49 40 12 bd
       0.046230733 -0.006512957 0.065087155 -0.03570584
000310 b2 1e 90 3c 6d a7 2f bd c8 a1 5a 3d 9a 2c ec 3d
       0.017592762 -0.04288428 0.053376943 0.115319446
000320 1e 5a ba 3d 60 cd 09 bd 6c 7e 1d bd e0 a3 c1 3d
       0.0909922 -0.033643126 -0.038450643 0.09455085
000330 4e ff 16 be 23 a4 90 3d 4a 12 44 bc 69 1b 41 bb
       -0.14745829 0.070625566 -0.011967251 -0.00294658
000340 c3 09 3a bc 69 6c 24 be 1d fd 96 bd 1e 07 37 bd
       -0.011354866 -0.1605698 -0.07372496 -0.04468452
000350 d9 6e 1a be 07 19 0b 3c df 88 30 3e 69 45 b8 bc
       -0.15081348 0.008489854 0.17239712 -0.022494035
000360 ce ab 0b 3e 3b f4 8d bc 31 c2 46 3d b1 28 1a 3d
       0.13639757 -0.017328372 0.04852504 0.037636463
000370 d1 61 32 3c 33 99 83 bd a5 56 e1 bd 98 b6 2d 3e
       0.010887579 -0.06425705 -0.11002854 0.16964185
000380 69 9b 8d bc ab dc 4f 3e 56 a4 0d be b0 e9 00 3e
       -0.01728602 0.20299022 -0.1383222 0.12589145
000390 33 6c 3e 3e 03 4a f6 3d ca b0 27 bd 8c ea 2f 3d
       0.18595962 0.12025835 -0.040940084 0.04294829
0003a0 e2 43 ea 3c 63 5e b6 bd 51 b0 5f bd 64 64 c7 bd
       0.028596822 -0.089047216 -0.054611508 -0.09735945
0003b0 82 b7 ed 3d 8c d7 b3 bd 38 a5 6e bd 84 5b 11 be
       0.11607267 -0.08781347 -0.058263034 -0.14195067
0003c0 ee b7 1e 3c 88 15 06 3e e7 1b 7b 3e 03 b4 67 3e
       0.009687407 0.13094151 0.24522363 0.22627263
0003d0 b4 9b b9 3c b9 d3 83 3e f6 e0 8c 3e 0f 41 04 be
       0.022657253 0.2574747 0.27515382 -0.12915443
0003e0 10 c3 6d bd 3e ec c1 bd 9c 71 08 be 0e f2 44 bc
       -0.058047354 -0.09468888 -0.13324589 -0.012020601
0003f0 8c c9 7c bd ab f8 8e 3e 29 40 b0 3c 6d 37 8a 3e
       -0.061715648 0.27924094 0.021514969 0.26995412

lstm.weight_hh_l0 f4 [256, 64]
000000 52 04 80 3d 74 ad 7b 3d 0f 82 91 bc 3e 70 16 bd
       0.06250824 0.061444715 -0.017762212 -0.036728136
000010 14 5a 92 bc c2 4f f6 bd d1 96 ff bd 46 29 b5 3d
       -0.017865218 -0.12026931 -0.12479938 0.08845763
000020 12 32 e3 3d 74 66 d8 bd 0a 53 b6 bd 48 1f 65 bd
       0.110935345 -0.105664164 -0.08902557 -0.055938035
000030 d4 df 1f bd 02 c2 fc 3d d0 a5 18 3e c3 3e 3b 3d
       -0.03903182 0.123416916 0.14907002 0.04571415
000040 97 e6 b6 3d 67 17 e9 bc f6 51 b0 bd 88 7e a7 3d
       0.089307 -0.028453542 -0.08609383 0.08178431
000050 ad 64 23 bd 58 56 53 3d 1f 7a 59 bd 8b c2 96 bd
       -0.039890934 0.051596016 -0.05309498 -0.07361325
000060 26 99 2b bd a4 ee 90 3c 77 b5 3e bd 8e 77 6a bc
       -0.0418941 0.017691918 -0.046559777 -0.014310731
000070 1d 3b 06 bd 0b 96 0d be 50 15 37 3e 11 30 4a 3d
       -0.03277122 -0.13826768 0.17879224 0.049362246
000080 d2 2f 92 3d 66 b4 d5 3d 17 02 05 3c 20 1f f1 3d
       0.07138027 0.10434799 0.008118174 0.11773515
000090 76 3c b6 bd 2c c2 95 bd 3d 60 bf bd 44 ff 7f bd
       -0.08898251 -0.07312426 -0.09344528 -0.0624993
0000a0 87 40 1d 3e aa 84 35 bd 6a 2b b5 3d b0 af 00 3e
       0.15356646 -0.04431597 0.08846171 0.1256702
0000b0 92 5d e0 3c e3 c2 19 bd 45 ca 19 3e 58 e6 46 be
       0.027388368 -0.037539374 0.15018566 -0.19423807
0000c0 22 d1 00 3c 42 ce b1 3d 24 a9 98 bd 66 a4 2f bd
       0.007862361 0.08681919 -0.07454136 -0.042881392
0000d0 23 e5 3d 3d 33 be 93 3d b7 47 0f bb cf b2 e9 3d
       0.0463611 0.07214012 -0.0021862814 0.11411058
0000e0 3c 57 4e be c4 07 03 bc e5 e9 9b 3d 3e d5 9b 3c
       -0.20150465 -0.007997457 0.07612971 0.01902258
0000f0 da 23 d6 3a 3c 4d 8b bd 77 e9 b0 bd 16 24 bc 3d
       0.0016337589 -0.06801841 -0.0863828 0.0918657
000100 0e 10 47 3e 6b 2b 3f bc 4a b5 41 be 37 ae eb 3d
       0.19439718 -0.0116680665 -0.18916813 0.11507838
000110 2d 82 82 bd a0 18 ae bc bd bb 9b 3d 98 a5 00 be
       -0.06372485 -0.021251976 0.076041676 -0.12563169
000120 71 bd c6 bd 9d 8e 59 be f4 c0 bb bd 70 a9 47 3d
       -0.09704102 -0.21245809 -0.09167662 0.048745573
000130 3e f8 c7 3c ce bd 64 3c 2b ba 0a be 35 44 96 3b
       0.024410363 0.013961269 -0.1354758 0.0045857676
000140 c2 61 cd bc f1 ea 0b be 2f 5c e5 3d 27 27 2a bd
       -0.025071029 -0.13663842 0.11199223 -0.041541245
000150 9d 6c 31 3e 7a b7 4a bd 84 27 27 bd e8 9d 6d be
       0.17326589 -0.049491383 -0.04080917 -0.23204768
000160 41 70 4f be d6 eb ec ba 0c 8e a8 3c de a7 6e b9
       -0.20257665 -0.0018075656 0.020575546 -0.00022759984
000170 12 14 3f 3c b7 31 b1 bd 7a 17 41 3d 61 ab 9f bd
       0.0116625 -0.086520605 0.04714153 -0.0779636
000180 b4 de 58 bd 3b 07 d5 3d d6 d1 9e bc f4 b0 e3 bc
       -0.05294676 0.1040177 -0.019387167 -0.027794339
000190 25 a9 07 be f2 26 1a be ee 2c bd bd a2 9c 08 bd
       -0.13248117 -0.15053919 -0.09237085 -0.0333525
0001a0 97 6c 65 3d 84 1d 30 3e 3a aa 59 be e8 b0 df 3c
       0.056011762 0.1719876 -0.21256343 0.027306035
0001b0 cd d4 69 bd 73 5a 00 3d 7f 66 c8 bc d8 42 1f be
       -0.05708771 0.03133626 -0.024462936 -0.15552843
0001c0 aa 50 8a bd e2 9c ae 3d ee 7d 11 be 0a 18 10 bb
       -0.06753667 0.08526017 -0.14208195 -0.0021986985
0001d0 c1 4d 17 3d 7f 4c a6 bd cc 0b 96 3c 02 89 d6 bd
       0.036939386 -0.08120059 0.018316172 -0.10475351
0001e0 0a 20 1c bb 9d dd 36 bd a5 e4 40 3c b2 ea 3c 3e
       -0.0023822808 -0.04464494 0.011773263 0.18448904
0001f0 b6 ad 9c 3c 02 4d e5 3d 29 12 3d bd 6f 94 83 bd
       0.0191258 0.11196329 -0.046159897 -0.06424796
000200 06 de a6 bd b4 93 7e bd cb 98 03 3e 7b eb 45 3d
       -0.08147816 -0.06215258 0.12851255 0.048320275
000210 ca 88 4b bd 71 45 85 bb 84 5e 44 bd bf 54 e6 bc
       -0.049691 -0.004067116 -0.0479417 -0.028116582
000220 7f b0 84 be 47 bc 39 be a5 91 df bc 6a 74 af bd
       -0.25915906 -0.18138228 -0.027291128 -0.08567126
000230 da 48 80 bd 4b 1a e4 3d 7a 9f b4 bd 39 78 80 bc
       -0.06263895 0.111378275 -0.0881948 -0.015682327
000240 60 dc e3 bd 22 8d bb bb 76 e2 91 3c 78 ca b5 3d
       -0.111260176 -0.0057236115 0.01780818 0.088765085
000250 52 ac 42 3d 8f 9a 4a bd 33 ab dd bd a1 57 9f bd
       0.04752762 -0.049463805 -0.10823669 -0.07780386
000260 af 31 07 3d ba 68 ae bc 1b 31 65 bc 2d 09 0e 3e
       0.033006366 -0.021290172 -0.013988758 0.13870688
000270 78 0c 05 bd 09 61 60 3e 35 e6 ab 3d 25 5b fa bd
       -0.032482594 0.21912016 0.08393518 -0.12224416
000280 08 f4 19 3e 36 7a 27 3e aa 86 09 ba a0 5f c4 bd
       0.15034497 0.16355214 -0.0005246202 -0.095885515
000290 a1 0d fd bd 89 46 ed bd cf 3b 7e bd 82 9e 25 bd
       -0.12356115 -0.11585719 -0.062068757 -0.040434368
0002a0 19 92 94 3d fb 36 5b 3d f6 00 12 3e 48 b4 a8 bb
       0.072544284 0.05351923 0.14258179 -0.0051484443
0002b0 3f 61 e4 3d 42 68 20 bd 49 52 09 be 64 f9 ad bd
       0.11151361 -0.039161928 -0.13410296 -0.08494833
0002c0 bc 06 89 3c 36 36 b6 39 f0 35 5e 3e b2 e3 fa 3d
       0.016726844 0.00034754135 0.21700263 0.12250461
0002d0 0c fd 19 3d 59 e8 94 bc 13 51 20 bd 1c 4f 8a 3d
       0.03759484 -0.018177198 -0.03913982 0.0675337
0002e0 32 16 f1 bc ba 04 e0 bd 88 c7 ed 3c 3f ce 15 bd
       -0.029429529 -0.109384015 0.029025808 -0.036573645
0002f0 5e c4 95 bd 36 88 2b 3d d0 56 46 3d 42 5e 50 3d
       -0.07312845 0.041877948 0.048422635 0.05087114
000300 4f c7 c4 bc 6b 0b 02 be 05 4f 29 3d a9 22 ac 3d
       -0.024020819 -0.12699668 0.041335125 0.084050484
000310 c5 bd 4f 3c ea b0 3a be b7 8d 02 be b9 1e d3 bd
       0.012679522 -0.1823155 -0.12749372 -0.10308594
000320 0b 25 01 3e e6 af 35 bd 91 f3 31 3e fd 30 4f 3d
       0.12611787 -0.044357203 0.1737807 0.05058383
000330 09 9d 43 bd 40 d5 c5 3d a7 e4 4f 3d 90 8c 28 bd
       -0.047757182 0.09659815 0.05075517 -0.041149676
000340 e9 ce 0a bd 96 5d 5b be c6 3c 05 3e bd 78 10 be
       -0.03388873 -0.21422419 0.13011464 -0.14108558
000350 65 5a dd bd ac 45 bc 3d 6d 1e be 3d 50 d9 00 3d
       -0.10808257 0.09192976 0.09283147 0.031457245
000360 d8 66 a6 bd 29 21 32 3e 89 31 95 bd 4d 9a db bd
       -0.08125085 0.17395462 -0.07284839 -0.1072279
000370 19 b2 38 bc 93 0c 04 3c 7f b1 65 3e 18 cf 4b bd
       -0.011272931 0.008059639 0.2243099 -0.049758047
000380 41 f6 2d be f9 5d e5 bc 51 76 2b bc fe c1 b7 3d
       -0.1698847 -0.027998911 -0.010465221 0.08972548
000390 38 08 25 3e ff c5 e4 3c ff a8 f8 bd fa fd 0e be
       0.16116416 0.027926443 -0.121416084 -0.13964072
0003a0 38 ae a5 bb 6f 3e 20 be e0 67 0e 3c ed db 8d 3d
       -0.005056169 -0.15648817 0.008691758 0.06926713
0003b0 60 d7 05 3d 3d df cc 3c 83 ab 17 3e b7 51 70 be
       0.0326761 0.025008792 0.1481152 -0.23468672
0003c0 3c a6 84 3d cd 79 ef bc 19 80 43 be 70 99 a6 3d
       0.06477019 -0.029232884 -0.19091834 0.08134735
0003d0 bf 90 f4 3d e8 0f cd 3d 8f 95 16 be 7a 4a 0e 3e
       0.119416706 0.100127995 -0.1470549 0.13895598
0003e0 8d d9 e9 bd cb 9d 29 3e fb c2 e2 bd 67 ca d7 bd
       -0.11418448 0.165641 -0.11072346 -0.10536652
0003f0 2b 56 18 bd c5 15 a6 3d e6 8e 18 be 91 96 a5 3c
       -0.03719155 0.08109621 -0.14898261 0.020213397

lstm.bias_ih_l0 f4 [256]
000000 6d f9 e1 3d 26 d3 b4 bd a0 35 99 3c f0 61 18 bd
       0.11033902 -0.08829336 0.018702328 -0.037202775
000010 db 18 0b 3d 37 04 17 3e 16 59 24 be 12 6d e0 3d
       0.03395925 0.14747702 -0.16049609 0.109583035
000020 75 92 b5 3d cd 1d 68 3d b2 13 2b be 18 57 d0 3d
       0.08865825 0.056669045 -0.16706732 0.10172862
000030 d6 b9 08 be 62 1b 5c 3d c1 96 73 3d c9 31 8b bc
       -0.13352141 0.05373705 0.059469942 -0.016991513
000040 27 d9 63 3d ac 9e 27 3e 06 65 66 bd 7b d7 03 3e
       0.055627014 0.16369122 -0.056248687 0.12875168
000050 0c f9 ec bb 8c fc fd bd 7c 87 ab ba de ae 2f 3b
       -0.007231837 -0.12401685 -0.0013086642 0.002680711
000060 ef fa 8b bc 0e 94 42 be e9 0a bc 3c 7c c3 fe 3c
       -0.017087428 -0.19001791 0.022954421 0.031099074
000070 77 14 dc bd 5a cc bb 3d 6f d6 17 3d da e3 16 3c
       -0.10746091 0.09169836 0.037069734 0.0092095975
000080 dd 1f 8a bb dd 8d 1d be 75 e7 fa bd 51 c6 40 bd
       -0.004215224 -0.15386148 -0.12251178 -0.04706413
000090 7e 75 22 bd 83 ca 7e 3d bf 44 f3 3b 05 f5 0f 3d
       -0.03966283 0.06220485 0.0074239667 0.03514578
0000a0 18 1e 7e 3d 6d 8d 47 be fc 31 02 be db de ac bc
       0.06204042 -0.19487543 -0.1271438 -0.02110236
0000b0 59 33 f1 bb 09 37 e1 bd 3c c9 5c 3d 49 74 03 3e
       -0.0073608574 -0.10996825 0.05390285 0.12837328
0000c0 ba 34 bf bd 68 0a 35 be d2 ef 80 3d 2d 4d 0c bd
       -0.09336229 -0.17679751 0.06295742 -0.034253288
0000d0 b8 04 52 bd ea 8e f0 bd e8 ab 16 be c7 a0 07 3a
       -0.05127403 -0.11746009 -0.14714015 0.0005173799
0000e0 22 d6 0c 3e b4 62 99 3a 2b ab 43 3b 39 5c 84 3d
       0.1375356 0.001170239 0.0029856663 0.064629026
0000f0 00 a7 3e 3d 9e 12 ef 3d 85 dc 1e be 6a 36 d4 bd
       0.046545982 0.11673473 -0.15513809 -0.10361941
000100 84 47 80 bd 73 cd c3 3d a2 2b db bd 15 89 38 be
       -0.062636405 0.09560671 -0.10701682 -0.18021043
000110 4c 2e 00 3e 97 df 23 be 37 55 a9 3c 41 91 af 3d
       0.12517661 -0.16003262 0.020670516 0.08572627
000120 df a4 72 3c a9 88 21 be c4 8d 3b 3e ae d2 1e 3d
       0.014809816 -0.15774788 0.18315798 0.03877514
000130 6e 7f 17 be f5 89 91 3c 92 df 9f 3c f2 6e 34 be
       -0.14794704 0.017765978 0.019515786 -0.17620447
000140 ab d0 65 bd dc eb 33 3e 9a e1 2a be f5 4f 8d 3c
       -0.056107204 0.17570442 -0.16687623 0.01725004
000150 0c 5d 3d bc e5 f0 47 be 71 65 03 3d b5 87 04 be
       -0.011557829 -0.19525488 0.032079164 -0.12942393
000160 9d 42 09 be ea 5b 19 3c f9 78 99 bc 07 fa d9 3b
       -0.13404317 0.009360293 -0.018734442 0.00665212
000170 52 9e 9c bd ea 78 d9 3d b6 17 e8 3c d6 f6 36 be
       -0.07647385 0.10618766 0.028331619 -0.17867598
000180 81 05 72 3c 5c f9 fd 3c 80 9c 05 be 43 63 05 3e
       0.01477182 0.031002693 -0.13047981 0.13026147
000190 40 96 2c be 0d 9f 9b 3b 08 4e d5 bc e6 02 34 be
       -0.16854191 0.004749185 -0.026038185 -0.1757923
0001a0 a9 8d d4 3c 84 5a c2 bb 23 5c d9 3c c9 fc 28 be
       0.025946455 -0.0059312005 0.026533192 -0.1650268
0001b0 4f 69 df bc ec 19 79 bd 5d 93 04 3d b0 4d cd bc
       -0.027271895 -0.060815737 0.0323671 -0.025061458
0001c0 eb 65 2c 3e a7 da 9a bd 32 d2 45 ba ee 55 21 be
       0.16835754 -0.07561236 -0.0007546275 -0.15755436
0001d0 eb 22 af bd 4e 2c 4f 3d 2d 2c 91 3d 15 85 30 bd
       -0.08551582 0.05057936 0.07088504 -0.043095667
0001e0 b5 14 21 3d 4d fb 26 3d ff a5 fb 3d d9 f6 13 be
       0.03932639 0.040767003 0.122875206 -0.14449634
0001f0 76 12 76 3c 05 6c ab bd fc 7d 83 bd 2d c8 82 3d
       0.01501905 -0.083702125 -0.06420514 0.06385837
000200 de 6f af 3c fb 78 ef 3d 10 40 0b bd 09 13 d6 bd
       0.021415647 0.11692997 -0.03399664 -0.104528494
000210 12 de a2 bd 85 d3 9d bd 08 c8 cf bd c0 d1 4d 3e
       -0.07952513 -0.0770636 -0.10145575 0.20099545
000220 3d c4 2b be cb 03 a1 3d 9d ff 45 be 90 15 06 3e
       -0.16774078 0.078620516 -0.1933579 0.13094163
000230 d9 ae 62 bd c8 2d 33 bd 39 d3 f7 bd 6c 09 1b bd
       -0.05534253 -0.043744832 -0.121008344 -0.037850782
000240 b3 57 49 bd fc 80 26 3e 98 2e 53 bd bd cf 45 be
       -0.049155902 0.16260141 -0.051558107 -0.19317527
000250 bc 80 a3 bd 66 46 01 3c 35 12 dc 3d 40 6a cb bd
       -0.079835385 0.007890319 0.1074566 -0.09932375
000260 9c 43 52 39 5e b5 3a bd ef 0a 96 3d b3 6b c4 bb
       0.00020052347 -0.04558312 0.07326304 -0.005994284
000270 35 f3 de bd 02 eb 6a 3d a6 fe 2f be 3c 8e fe 39
       -0.10886232 0.057353027 -0.17186984 0.00048552628
000280 b1 b5 7c 3d 5a a6 b1 bb b3 41 f1 3b a1 7f 5e bd
       0.061696712 -0.005421442 0.0073625683 -0.054320935
000290 f4 21 d1 bd da 23 bf 3d 3d 7a 18 3e e8 f4 66 bd
       -0.10211554 0.0933301 0.1489038 -0.056385905
0002a0 a2 1c 85 3d eb c2 1d bd bc d6 44 3c ca c8 92 bd
       0.06499602 -0.038515966 0.012014087 -0.07167204
0002b0 f1 6f f2 3d a2 cd 49 be 05 94 25 3d 2f df c0 3c
       0.118377574 -0.19707349 0.040424366 0.023543922
0002c0 e2 a1 0a 3d 43 bc 0e be fd 17 87 bd ec 82 1d 3d
       0.03384579 -0.13939004 -0.06596372 0.038454935
0002d0 3d eb 82 bd 79 95 f0 bd d4 a3 bc 3b c8 ab 0b be
       -0.063925244 -0.1174726 0.0057568345 -0.13639748
0002e0 f7 e1 68 bd 9b 11 25 3c 7e a6 8a bd 6d 6c 0b 3d
       -0.056856122 0.010074998 -0.06770037 0.03403895
0002f0 13 6f 90 bd 08 aa b0 3d dd 0e 39 bd 66 9c 8f 3d
       -0.07052436 0.08626181 -0.04518019 0.070122525
000300 2b b2 cf 3c 8d 9d b5 3d 75 28 02 3e e9 2b 01 3d
       0.025353512 0.08867941 0.12710746 0.031536017
000310 5d 22 65 be 74 16 de bd 79 58 14 be a0 fc 35 3d
       -0.2237639 -0.10844126 -0.14486875 0.044430375
000320 47 6b 9a 3d c8 58 3f 3d 58 ba 25 3c e7 d5 3e be
       0.07539993 0.046715528 0.010115229 -0.18636285
000330 3a 76 01 be d6 8d 71 3d a5 9f c0 3a bf e1 68 bd
       -0.12642756 0.058973156 0.0014696015 -0.056855913
000340 5e 30 12 be d2 6f 04 be c8 21 d4 3d e1 10 9a 3d
       -0.14276263 -0.12933281 0.10358006 0.07522751
000350 d1 54 2a be 4e 1d 66 bd 42 85 4e bc 20 56 15 be
       -0.16633917 -0.05618029 -0.012605013 -0.14583635
000360 45 01 e3 bd 83 7a 0c be f7 2b 5c 3d 50 f4 e0 3d
       -0.110842265 -0.1371861 0.053752866 0.10984099
000370 b2 d7 cd 3d cd 43 39 3e 82 df 72 bb f3 e5 15 be
       0.10050906 0.1809227 -0.003705949 -0.146385
000380 2c c6 51 be 11 d7 ba bd f5 3e 25 3d 79 7a 60 bd
       -0.20485753 -0.09123052 0.040343244 -0.0548043
000390 3a d3 13 be 3b e0 10 3d 27 6e ab 3d d7 2c 91 bd
       -0.14436045 0.035370093 0.08370619 -0.07088631
0003a0 fc 7d b0 3c a0 1e 74 bd 79 cc 64 3c 22 ec 52 bd
       0.021544449 -0.05959952 0.013964766 -0.051494725
0003b0 94 de d5 3d 80 e6 08 bd a8 ee 29 3e 59 89 14 3c
       0.10442844 -0.033422947 0.16594946 0.009065949
0003c0 b6 48 0d be 21 f6 1a 3d fb a0 0b 3e 32 d8 90 3c
       -0.13797268 0.037832383 0.13635628 0.017681215
0003d0 b8 ee a9 bd d5 7c b4 bd 0c f4 8d 3d 53 0d a9 bd
       -0.08297485 -0.08812872 0.06931314 -0.082544945
0003e0 5f 96 5d bd 79 a0 1b 3d 5b b9 8c bc 8d 64 43 be
       -0.054098483 0.037994836 -0.017178228 -0.19081326
0003f0 10 4b 2d be fe 59 71 3c fd 2a 85 3d 20 32 40 3d
       -0.16923165 0.0147309285 0.0650234 0.046922803

lstm.bias_hh_l0 f4 [256]
000000 2d f7 05 3d e6 d1 5c 3c 24 eb 98 bd d9 2e d1 bc
       0.03270643 0.013477778 -0.074667245 -0.025535034
000010 28 0c 09 3e 0f a8 ea 3d c3 49 87 bc bb aa 1e 3e
       0.13383543 0.11457836 -0.016514665 0.15494816
000020 75 e2 ab bd 2d 9e 43 bd 52 5c e3 bd e6 30 50 3b
       -0.083928026 -0.04775827 -0.11101593 0.0031767427
000030 d5 88 c1 bd ce 5b 48 bd 0c 9a 48 bd 4f 9a 86 ba
       -0.09449927 -0.048915677 -0.048975036 -0.0010269376
000040 c0 07 a4 bb f3 94 0d 3e c6 f0 0c bd ad 9a 7f 3c
       -0.0050058067 0.13826351 -0.034409307 0.015600842
000050 d3 0c 82 bc b5 c3 c6 bd 2f be 51 3d ff bc b9 bd
       -0.015875256 -0.09705297 0.051206764 -0.09069251
000060 87 e9 19 bd 0c e2 c2 bc f5 3e 0d 3d ab 74 11 3d
       -0.037576225 -0.023789428 0.03448387 0.035511654
000070 81 ab 87 bd 22 d0 57 3c 90 fd 3f bc 4e 01 5c 3d
       -0.06624509 0.013172181 -0.011718169 0.05371218
000080 a0 bd 98 3d fb 8a 13 3d 93 c9 87 bd 29 54 ac 3d
       0.07458043 0.036021214 -0.06630244 0.0841449
000090 56 13 20 bd d1 cd da 3c c5 02 1d 3b 51 74 57 bd
       -0.03908094 0.026709469 0.002395795 -0.052601162
0000a0 b4 a0 ad bd 0d 1f 39 be 08 09 9d bd f8 61 41 be
       -0.08477917 -0.18078251 -0.07667738 -0.18885028
0000b0 40 5a b1 bc 50 02 05 bc 1e 2e e6 bc 36 10 30 3d
       -0.02164948 -0.008118227 -0.028098162 0.04298421
0000c0 24 43 eb bd 70 62 56 bc f1 12 15 3c 32 31 51 3d
       -0.114874154 -0.013084993 0.009098754 0.051072307
0000d0 0e 17 38 bd cb 9f 42 be 61 85 b8 bc 1a 01 66 bd
       -0.04494386 -0.19006269 -0.022524538 -0.056153394
0000e0 34 72 65 3d 98 ef 96 3b 74 db bf 3c 0e df 9b bc
       0.056017116 0.0046061985 0.023420073 -0.01902726
0000f0 9f a3 25 3d 5e 27 62 bd af 85 a6 bd fa 46 54 bd
       0.040439244 -0.055213325 -0.08130967 -0.0518255
000100 ff 1a 07 be b9 96 fb bd e5 c3 48 3c 41 fd 8f bd
       -0.13193892 -0.122846074 0.012253736 -0.07030726
000110 3f 95 89 3a a4 ac ef bd 62 9f 24 ba da 33 37 3e
       0.0010496749 -0.117028505 -0.00062798534 0.17890874
000120 92 73 67 3d aa 8c 06 3d 2e 67 09 3c a1 46 e8 3c
       0.0565067 0.03284899 0.008386416 0.028353991
000130 e2 13 1e be 38 d3 9e bd 2c 6e 80 3d b2 c9 59 be
       -0.15437272 -0.077551305 0.062710136 -0.21268347
000140 b7 cb 14 be 2b de 8b 3c 4a 39 0d be 96 fa df bd
       -0.14530836 0.017073711 -0.13791385 -0.10936467
000150 b3 27 67 bd 87 9d e8 3c b5 ec ba bc 0e de 3c bc
       -0.056434345 0.028395427 -0.022817949 -0.011527551
000160 3b 1d 54 bd 03 ce 3e be 0e 92 93 3d a4 98 bc 3a
       -0.05178569 -0.18633275 0.07205592 0.0014388752
000170 84 fd 17 bd 38 02 e3 3d 29 85 88 3d d4 da 89 bd
       -0.037107006 0.110844076 0.06666023 -0.06731191
000180 f8 f3 89 3d 36 e1 be bd 1a b2 75 bd 75 3c 25 3e
       0.067359865 -0.09320299 -0.059984304 0.16136344
000190 6a 9f 35 3b e0 2c eb 3d 14 cc fb bc 66 7c 20 be
       0.0027713426 0.114831686 -0.03073696 -0.15672454
0001a0 d6 fb 08 3d e7 02 97 bc 19 ba e5 bd e5 3c 3b 3d
       0.033443294 -0.018434001 -0.11217136 0.04571237
0001b0 b9 98 4d bc 07 f1 02 3c d6 02 9c bd 93 68 97 3d
       -0.012548619 0.007992036 -0.076177284 0.07392993
0001c0 e0 63 f8 bc 52 b1 2e be d5 87 ea bc 93 c8 12 be
       -0.030321062 -0.1705983 -0.028629223 -0.14334325
0001d0 57 a7 09 be b0 58 06 3e 4c c4 0e be 8b 69 b7 bc
       -0.13442741 0.13119769 -0.13942069 -0.022389194
0001e0 06 1b 76 3c 52 9a 04 bd 13 d0 c0 bd 44 d3 81 3d
       0.015021091 -0.032373734 -0.09414687 0.06339124
0001f0 0b 8c e9 bd eb 7c c4 3d 96 15 da bd 43 96 c9 3d
       -0.11403664 0.09594139 -0.106486484 0.09843113
000200 be 6a 87 3d 0d 85 0e 3e aa d8 3c 3c 20 10 19 be
       0.06612156 0.13917942 0.011526266 -0.14947557
000210 30 db 05 3c fd 44 1f 3a 08 40 9c bc 60 5d 1c 3e
       0.008169934 0.00060756487 -0.019073501 0.15269995
000220 f1 d4 fd 3c 93 3b f7 3d ea 14 fd bd b2 41 d7 3d
       0.030985327 0.1207191 -0.12357505 0.10510577
000230 52 b6 d2 bd e6 3c 07 3d 51 3b 3e bd 3a 4b 21 be
       -0.10288681 0.03301706 -0.046443287 -0.15751353
000240 b8 30 0a 3d b6 d1 8f bd 22 49 c2 bc 70 8a d5 bd
       0.033737868 -0.07022421 -0.023716513 -0.104267955
000250 62 3b 7a ba 1d d4 40 bd bb b5 0a 3d 87 e6 b8 3c
       -0.0009545592 -0.047077287 0.033864718 0.022570862
000260 38 8a 45 bc 90 d0 24 3e 36 fc 6d 3d bb 3a a9 bc
       -0.01205688 0.16095185 0.058101855 -0.020657888
000270 42 13 c9 3d 80 e0 72 bd 0b c4 77 be f8 7d e8 3c
       0.09818126 -0.05929613 -0.24195878 0.02838038
000280 08 eb d0 3d 2b 99 d6 3d f6 88 ca b9 81 e3 d1 bd
       0.10201079 0.10478433 -0.00038630486 -0.10248471
000290 cf ab 39 bd 9a d7 73 bd 52 ca 70 bc 07 2f 36 3d
       -0.045329865 -0.059531786 -0.014696674 0.044478443
0002a0 4d a6 bc 3d 1f e1 c5 bd 97 c2 be bd 9b 91 40 3d
       0.09211407 -0.09662079 -0.09314459 0.04701386
0002b0 e9 77 86 bd 11 df 99 bb ea b2 41 3d 13 e0 1b 3e
       -0.0656584 -0.004695781 0.047289766 0.15222196
0002c0 12 a0 2b 3d fa 44 b3 bc 32 95 18 3e 2c 48 a6 3d
       0.0419007 -0.021883477 0.14900663 0.081192344
0002d0 d7 68 b5 bd 88 8e 63 3d f1 ad ae 3d 65 98 93 bd
       -0.08857887 0.05555585 0.085292704 -0.07206801
0002e0 82 0b 6b bc 01 f0 9b 3d c5 1e 29 3c e3 a8 c9 3d
       -0.014346005 0.076141365 0.010322277 0.09846666
0002f0 88 d7 31 3d 1c 82 16 bc 5b 58 91 bd e5 f8 1d 3e
       0.043418437 -0.009186294 -0.070969306 0.15426977
000300 11 38 37 3d 03 64 c6 3d 40 46 09 3e 2b 96 a1 b9
       0.044731203 0.096870445 0.13405704 -0.00030820197
000310 bb 92 6f bc 44 de 69 3d bb 66 9c 3c 6b b6 c3 3d
       -0.014622386 0.057096735 0.019091954 0.09556278
000320 a2 d3 5b 3e 5e 9d 20 be d8 4c 93 bc c6 44 09 be
       0.2146745 -0.15685031 -0.017980978 -0.13405141
000330 b9 47 70 3d c8 4f e5 3d 09 b4 95 bd 3c 49 7c bc
       0.05866215 0.11196858 -0.073097296 -0.01539832
000340 79 9a 2b 3d cc a5 23 be 58 29 23 3e 88 3a 46 3d
       0.041895363 -0.15981215 0.1593374 0.048395663
000350 9d fa b4 bc 1a 8b 39 3d de 68 b3 bd f5 28 84 bb
       -0.022092158 0.045298673 -0.08760236 -0.004033203
000360 3f d7 f3 3c 51 d3 c5 bd 56 51 92 3d a7 b9 c2 3c
       0.029765723 -0.09659446 0.0714442 0.023770167
000370 8c 73 ce 3d 32 e2 f2 3d 39 35 03 3e cf 9c 2f be
       0.100806326 0.118595496 0.12813272 -0.17149661
000380 de 30 2d be 6c fb 62 3d e2 e2 82 3c 90 8a 27 3e
       -0.16913173 0.055415556 0.015977327 0.16361451
000390 4c 6b e0 bd d2 5c b6 bd b3 63 cc bd eb b3 61 bd
       -0.10957965 -0.08904423 -0.099799536 -0.055103224
0003a0 50 38 60 bc 4d a3 0a be 89 d0 ef bd 20 00 0e be
       -0.013685301 -0.13538857 -0.11709697 -0.13867235
0003b0 25 a6 30 ba 4c dc 07 be 7d 81 04 3d fa e7 c7 bd
       -0.00067386247 -0.1326763 0.032350052 -0.09761043
0003c0 14 58 2e be b7 4d 12 be b8 c8 d7 3d 03 d3 22 bd
       -0.17025787 -0.14287458 0.10536331 -0.039752018
0003d0 f9 b9 f7 bd 59 7f 67 bc 66 25 64 bd 10 65 01 3d
       -0.12096018 -0.014129483 -0.05569973 0.03159052
0003e0 10 ab b5 3d 82 ae 8a 3d 35 c6 01 bd de ce 5c be
       0.08870518 0.06771566 -0.031683166 -0.21563289
0003f0 aa 7c ac bd 4e 0c 3d 3e 96 e8 d6 bd 26 d4 fb 3d
       -0.08422215 0.18461725 -0.10493581 0.122963235

lstm.weight_ih_l1 f4 [256, 64]
000000 c3 03 36 3e d4 8a 0a 3e db 1d 34 be ae e4 1d bd
       0.17774872 0.13529521 -0.17589514 -0.038548164
000010 c4 59 53 3e c8 2d 08 3e 79 cb 6b bd 09 67 8a 3d
       0.20639712 0.13298714 -0.057567094 0.06757934
000020 4b c1 3e 3d bb 09 14 3e c5 f7 a6 3d 0e 5e 06 3d
       0.046571057 0.14456837 0.08152727 0.03280454
000030 45 51 ac 3d 4a 04 ac 3d 92 c4 45 3c 47 07 09 be
       0.084139384 0.083992556 0.012070792 -0.13381682
000040 1b 0f 3c 3d db 9d 20 be b1 b7 cb bd 11 08 50 3e
       0.045912843 -0.15685217 -0.09947146 0.20315577
000050 4c 71 e2 bb 72 a0 0d 3e ad b7 1f bd 9b fd 14 bc
       -0.0069104787 0.13830736 -0.038993526 -0.009093667
000060 f4 b5 42 3d 5a 6d 37 3e e2 41 a6 3c 17 31 ea 3d
       0.047536805 0.17912808 0.020295087 0.114351444
000070 d1 f9 74 3d a7 38 88 bd a4 3e 11 3e 35 ca 86 bd
       0.059808556 -0.066514306 0.14184052 -0.06581537
000080 d4 c7 ee bd 58 9f 0b be 76 ee 4f bd a1 ae 8d 3d
       -0.11659208 -0.13635004 -0.050764523 0.069180734
000090 8d 7b 35 3e 7f 36 93 3d 58 43 97 3c 4f 2b 6a bd
       0.17722912 0.07188129 0.01846473 -0.05717021
0000a0 28 92 de bc f1 f7 1c be 5e 3e 22 bd ca 69 f9 bd
       -0.027169302 -0.15328957 -0.03961026 -0.12178381
0000b0 22 e1 18 bd 90 7f 12 3e f2 dd be 3d 21 ea a6 bd
       -0.03732408 0.14306474 0.093196765 -0.08150125
0000c0 87 aa 90 3b 47 f2 cc 3d 06 80 9d 3c c5 d3 47 3e
       0.0044148597 0.10007148 0.019226085 0.19514377
0000d0 f5 bf 21 bd 84 50 fa bd 7f 27 1c bc 7b af e0 bd
       -0.039489705 -0.122223884 -0.009530901 -0.1097097
0000e0 ba 5e 44 be 50 9d 9e bc 14 5a 4a be 32 7b 33 3c
       -0.1917676 -0.019362122 -0.19760925 0.010954665
0000f0 d5 67 de 3d ab 72 fa 3d f0 6d 04 3d 0a 72 03 be
       0.10859648 0.122289024 0.032331407 -0.12836471
000100 1b 19 91 bb a0 58 68 be 7e 89 25 3e 45 a0 89 bd
       -0.0044280416 -0.22690058 0.1616573 -0.06720022
000110 31 20 14 bd af a1 2c be 87 15 75 3d 1a be 5c be
       -0.036163513 -0.16858552 0.059834983 -0.21556893
000120 c3 f9 0e 3e f8 e5 df 3d a8 52 97 bc 6e 84 18 3d
       0.13962464 0.10932535 -0.01847203 0.03723567
000130 ae b0 49 bd 92 54 6e 3e 62 9b 91 bd d2 cb b7 bd
       -0.04924076 0.23274449 -0.07109715 -0.089744225
000140 e5 ad 8f bc 2f 45 0f 3c 21 f1 11 3e 2a 29 9c 3d
       -0.017538974 0.008744522 0.1425214 0.07625039
000150 c2 ef ac 3d 0c 47 c3 3b 7f 38 fb bc 49 71 83 3d
       0.08444168 0.005959397 -0.030666588 0.06418092
000160 c7 83 3a be d8 25 ee 3d 85 33 64 3e 79 f0 0e 3e
       -0.18214332 0.11628312 0.22285278 0.1395892
000170 74 7c bf bc 33 ad 39 3d 27 d4 19 3e 1b da 24 be
       -0.023374774 0.04533119 0.15022336 -0.16098826
000180 2f 03 3b be 9d 2d 30 be a3 fb 7d 3d 69 45 3b 3e
       -0.18262933 -0.172049 0.062007558 0.18288197
000190 a1 46 e6 bb b2 8d c7 3d 29 4a 3d 3d df a2 d6 bd
       -0.0070274626 0.09743823 0.046213303 -0.10480284
0001a0 c5 93 16 3e e4 fa 2a 3d be 97 b2 bd d1 96 a6 3c
       0.14704807 0.041743174 -0.08720349 0.020335587
0001b0 7b 50 4d bd 00 ae 2c 3e 71 f6 67 3e f4 a4 c4 bd
       -0.05012558 0.1686325 0.22652604 -0.09601775
0001c0 bb b3 7c 3d f9 cf 00 3d 97 3f 53 bb 59 19 20 3c
       0.06169484 0.03144834 -0.0032233947 0.009771668
0001d0 89 c6 48 bd 3f ea b1 3c 5a d2 c3 3d 52 7e 1e 3c
       -0.049017463 0.021718143 0.09561606 0.009673672
0001e0 cc 11 30 be 2f e8 25 bd 5e ff 2d be ba 75 c6 bd
       -0.17194289 -0.04050463 -0.16991946 -0.09690423
0001f0 d7 f3 8a bc 0d 02 c4 3d 2d 63 21 be aa 06 52 bd
       -0.016961975 0.09570704 -0.15760489 -0.051275887
000200 b3 12 82 3d ec b3 5b 3d 24 b8 4d be 63 a0 6e bc
       0.06351223 0.053638384 -0.20089775 -0.014564606
000210 8e a5 62 3d b8 6f 33 bd 28 0b fc bd 3c 59 c9 bd
       0.055333667 -0.043807715 -0.123068154 -0.09831473
000220 c5 fc d9 3d ae 94 55 3d f6 08 25 3e b1 10 aa 3d
       0.10643915 0.052143745 0.161167 0.08303965
000230 2b 5a 62 3c dd e4 82 bd b5 df eb bd a0 a2 ab bd
       0.013815443 -0.063913085 -0.11517278 -0.08380628
000240 6b 4f b7 bc 2c 8e 48 3d c1 71 4a bd b7 f6 6e bd
       -0.022376737 0.04896371 -0.04942489 -0.058340754
000250 75 90 10 3e f2 38 1f 3e db a7 a5 3d b6 85 47 3d
       0.14117606 0.15549067 0.080886565 0.0487115
000260 f5 9f 05 3d eb 3c 4b 3d b4 01 d8 3d d4 60 e6 3d
       0.03262325 0.049618643 0.105472 0.11248937
000270 1f 71 16 be 62 fe 43 3d a4 92 49 3e 81 fa 0d 3d
       -0.1469159 0.04785002 0.19684845 0.034662727
000280 6a 43 87 39 1d 75 0b be 6b 84 62 3d f2 bf af 3d
       0.00025799434 -0.13618894 0.055302065 0.085815325
000290 ec 3a 23 3e db fe 47 bb e7 64 d2 3c 31 65 48 be
       0.15940446 -0.0030516896 0.02568288 -0.19569851
0002a0 42 3b 2c 3e 19 fb c9 3d 89 0e 32 be e4 a1 a8 3c
       0.1681948 0.09862346 -0.17388357 0.020585008
0002b0 06 1f 12 be 52 f0 81 3e b1 7f f1 3d c4 d9 d4 3c
       -0.14269647 0.25378662 0.11791933 0.025982745
0002c0 7e 20 ae bc e5 69 55 3e de f3 d1 bd 5a 34 66 3d
       -0.021255728 0.20841177 -0.10251592 0.05620227
0002d0 ee 33 39 be fd 9e 73 3d 83 3e bd bc 4a b7 4d be
       -0.18086216 0.059477795 -0.023101097 -0.2008945
0002e0 5e 87 37 3c a1 25 01 3d 18 c2 58 bc 62 04 78 be
       0.011201708 0.031530026 -0.013229869 -0.24220422
0002f0 c9 e2 84 bc 6c e6 52 3e ca 35 2c bd 05 52 37 bd
       -0.01622142 0.20595711 -0.042043485 -0.044755954
000300 d8 5d d9 bc 87 b7 2a bd db 3a 2c 3e 68 92 bd bd
       -0.026534006 -0.04167893 0.16819327 -0.092564404
000310 b1 86 26 3e 53 6d 1a be bd 36 25 bd 65 34 9b bd
       0.16262318 -0.15080766 -0.040335406 -0.07578353
000320 b2 b4 55 bc 06 3c 52 be 50 8c a9 3d 7f 68 4a 3e
       -0.013043569 -0.2053071 0.082787156 0.19766425
000330 4c 31 a3 bb c8 80 8a 3c 7f 24 df bd 2c fe 92 bd
       -0.004980242 0.01690711 -0.10895633 -0.07177386
000340 e7 8a 7c 3d d6 f5 02 be 23 05 8b 3d 92 b1 f8 3b
       0.061655905 -0.12789091 0.06788089 0.0075895274
000350 db b6 48 bd 78 11 4c 3d 5f 37 72 bd ed cc 14 be
       -0.04900251 0.049821347 -0.059134837 -0.14531298
000360 62 a1 77 bc 2b 4b 72 3d f3 44 5f bc 92 15 be bd
       -0.01511416 0.059153717 -0.013627279 -0.09281458
000370 a4 80 8c 3d ee f7 c2 3c f4 0c e1 bd d1 74 05 be
       0.06860474 0.023799863 -0.10988799 -0.13032843
000380 5b ba 20 be 71 76 bc 3c f8 e7 fb 3d eb 5a f1 3d
       -0.15696089 0.023005696 0.12300104 0.11784919
000390 8d 4f 99 bc 84 7b 24 3e e6 04 82 be 9b af b6 3d
       -0.01871469 0.16062742 -0.25394362 0.08920213
0003a0 d6 0a d7 3c 60 ea 5d bc e7 a3 8d bd d4 2c 78 3d
       0.026250284 -0.013544649 -0.069160275 0.060589626
0003b0 af b6 2a 3d c1 e4 fa bc 46 f0 18 be 7d 83 68 bc
       0.041678127 -0.030626656 -0.14935407 -0.0141915055
0003c0 30 77 42 be 12 f4 2c 3d d6 58 5d bd aa 31 17 be
       -0.18990779 0.04222495 -0.0540398 -0.14765039
0003d0 8a 93 de bd 61 32 8a bd f9 09 0e 3e 00 1a 7b 3d
       -0.108679846 -0.0674789 0.13870992 0.061304092
0003e0 57 8c 08 be 20 9d 14 3e 3e 4d 2f 3d 1c 3f e4 3c
       -0.13334785 0.14513063 0.042798273 0.027862124
0003f0 48 31 2a 3d 98 f1 dd 3d b6 3c 8e 3d 0d b4 6c bd
       0.041550905 0.10837096 0.069451734 -0.057788897

lstm.weight_hh_l1 f4 [256, 64]
000000 17 c9 d8 bd 0a e2 46 3d 41 ba 00 bc 1b 52 14 3b
       -0.1058523 0.04855541 -0.007856906 0.0022631946
000010 65 79 4b 3c 93 84 9a ba df 2f 92 bd 91 22 6f bd
       0.012419079 -0.0011788778 -0.07138037 -0.058382574
000020 35 0d 14 bc 66 54 a3 bc f8 bc 53 bd 18 d6 36 be
       -0.009036352 -0.019937705 -0.051693887 -0.17855108
000030 89 ee 28 3e 23 0f 1f be d1 d1 f2 3c 18 74 a7 3b
       0.16497244 -0.15533118 0.029641064 0.005110275
000040 f1 3a 4c bd b5 d7 98 3d 24 ef 46 be 7d 1e f6 bd
       -0.0498609 0.07463018 -0.19427162 -0.12017534
000050 9d 4d fe 3d 70 00 f7 bd 8b 72 c0 bc 61 92 9c bd
       0.12417147 -0.1206063 -0.023492118 -0.07645107
000060 73 92 fe 3d 88 26 b2 3d 69 91 cd 3d 6f b8 d5 3a
       0.12430277 0.086987555 0.100375004 0.0016305576
000070 b2 7c 63 3d df 0d 5f 3b f3 92 8c bd c0 f8 0e be
       0.05553884 0.0034035367 -0.06863966 -0.13962078
000080 97 16 0c be 5f ad ea bd f7 81 44 3c ad 45 37 3e
       -0.13680492 -0.11458849 0.011993877 0.17897673
000090 01 d1 01 3e 0d 04 0a 3e 52 71 59 bd 31 90 43 3e
       0.12677385 0.13478108 -0.053086586 0.19097973
0000a0 0c 76 9c bd aa 5b 82 bd 19 d8 e9 3d df 82 06 3d
       -0.07639703 -0.0636514 0.114181705 0.032839652
0000b0 00 b3 ec bd 80 a4 ea 3d 6c 42 0e bb f5 4f 4c bd
       -0.11557579 0.11457157 -0.002170707 -0.04988094
0000c0 65 2a 34 bc 15 f6 39 bd 9e 3b bf bd 3c 56 1d be
       -0.010996436 -0.045400698 -0.09337543 -0.15364927
0000d0 b3 bc 59 3d fc 30 19 be f0 63 a8 3c 7b b8 6a 3c
       0.053158473 -0.14960092 0.020555466 0.01432621
0000e0 4b 31 bb 3d cb 60 6d 3d d8 17 20 be fd 71 bf bd
       0.09140261 0.057953637 -0.15634096 -0.093479134
0000f0 ab 0a 9f 3b 2b fb 02 be 3c 20 c1 bd 9c ba 62 3d
       0.0048535666 -0.12791125 -0.09429976 0.055353746
000100 a2 92 39 3c c8 ba 8d 3c a9 fb a1 3d 31 84 95 bd
       0.011326464 0.017300978 0.079093285 -0.07300604
000110 e9 7a 4c bd 33 4f 73 3d 53 eb 0c 3d 11 31 d6 bd
       -0.049921904 0.059401702 0.03440411 -0.104585774
000120 1f 06 fd bd 4e e6 06 3d bb 1e 2a be 47 db dc bc
       -0.12354683 0.03293448 -0.16613285 -0.026960028
000130 04 12 fd bc dd 4a 29 3e 82 0e cd bb 6d 5f c4 3c
       -0.03089238 0.16532464 -0.006257833 0.023971284
000140 2f 0e f6 bd 88 86 bf 3d 3e 32 f4 bd ee 25 8f 3c
       -0.12014424 0.09351832 -0.119236454 0.017474141
000150 b6 70 18 be db 86 26 3d 73 7b 4b be 41 a4 98 3c
       -0.14886746 0.040655952 -0.19871311 0.01863301
000160 94 25 01 bd b9 97 2d 3d b8 5e 74 bc 59 4a 6e 3d
       -0.031529978 0.042381022 -0.014915161 0.058176372
000170 4b 27 7a 3d 04 9b bb bd 48 e1 02 be 07 89 43 bd
       0.06107263 -0.09160426 -0.1278125 -0.0477381
000180 de 40 70 3d 4a d2 96 bd a7 3f 51 3d 74 71 b8 3b
       0.058655612 -0.07364328 0.051086094 0.005628759
000190 f0 c7 d5 bc 84 2f 2c 3e 9f 83 06 3d f6 f3 20 3e
       -0.026096314 0.16815001 0.032840367 0.15718064
0001a0 5a 9a 1f 3e ef 5c dd 3d 67 e5 6d bc d3 8b d2 bd
       0.15586224 0.10808741 -0.014520026 -0.102805756
0001b0 3f e6 a3 3d f4 fa 07 3e 8e ba 11 be b2 6d 77 bc
       0.080029 0.13279325 -0.14231321 -0.015101837
0001c0 9a 53 9c 3d 9b a8 a1 bd 23 9b 16 be ac 22 0b bc
       0.07633133 -0.07893487 -0.14707617 -0.008492153
0001d0 39 6e 21 be e1 5d a7 bd c6 d7 62 bc 40 44 36 be
       -0.15764703 -0.08172203 -0.01384539 -0.17799473
0001e0 d9 76 3d 3d 27 26 88 bd 49 b6 65 3d 34 d1 63 bc
       0.04625592 -0.06647902 0.056082044 -0.013904858
0001f0 58 16 b4 3d 76 13 fe bd 4d 7e 1d bc 46 a4 4b 3d
       0.08793324 -0.12406056 -0.009612632 0.04971721
000200 b8 dd da bc 3a 21 d4 3d 65 0f f0 3b 3e 55 73 3c
       -0.026717052 0.103579 0.007326054 0.014851866
000210 b6 4b fd bd cd 39 e2 bd 4e c0 6e 3d 05 5c 60 3d
       -0.12367956 -0.11046181 0.058288865 0.054775257
000220 02 9e 75 bd e3 70 98 3c 76 17 86 3d c1 21 85 3d
       -0.05996514 0.018608516 0.065474436 0.06500579
000230 21 cd 5d bd 92 81 5a bd 9c 92 2e bd 68 4c 6e bd
       -0.054150704 -0.053346224 -0.042620286 -0.058178335
000240 f3 90 3f bd f0 41 6a bd 12 80 37 be 48 de 36 3d
       -0.046769094 -0.05719179 -0.17919949 0.044645578
000250 fb 39 c0 3d 5f 56 0b 3d 2f 7e 63 3d 55 24 f7 bd
       0.09386059 0.034017917 0.05554026 -0.12067477
000260 49 bf 24 be 35 df bf 3d c4 f3 ac 3d c6 df 2a 3e
       -0.16088594 0.09368745 0.08444932 0.16686925
000270 ba c2 15 be fd 02 8d bd 3d 81 6d 3d 08 84 2e be
       -0.14625064 -0.068853356 0.05798458 -0.17042553
000280 b2 6a 0b bc 04 71 fb bd 0d 98 d4 bc 6e 75 d1 3c
       -0.008509325 -0.122774154 -0.02595141 0.02556869
000290 d5 87 c8 bc 26 fa 02 3e 92 fe cb 3b 20 24 1f 3e
       -0.024478832 0.12790737 0.0062254155 0.15541124
0002a0 c0 89 59 3d ab cd 3f 3d be 2b 30 3e 65 e1 22 be
       0.053109884 0.046827 0.17204186 -0.15906294
0002b0 a8 6f ff bd bb da b9 3c 0a 9f 2c be 86 8b 5c 3d
       -0.124724686 0.022687307 -0.16857544 0.053843997
0002c0 53 58 f0 3c b1 a4 17 bd 25 58 74 bd 29 10 d2 bd
       0.029338991 -0.037022296 -0.059654374 -0.102569886
0002d0 59 79 9f bb 74 f2 29 be d1 08 2a bd d5 a5 f6 3d
       -0.0048667607 -0.16596395 -0.041512314 0.12043349
0002e0 2e b4 43 3c 1f 2a f1 bd a4 61 c3 bd 22 da 20 bc
       0.011944814 -0.11775612 -0.09540108 -0.009817632
0002f0 de 3f 26 3e e0 c6 69 3d b0 26 c7 bc 85 e4 01 3e
       0.16235301 0.057074428 -0.02431044 0.1268483
000300 ee 46 bf 3c 9c 25 05 3d 43 80 f8 ba 6b 90 30 bb
       0.023349252 0.03250657 -0.0018959123 -0.0026941549
000310 a6 fd 8b bd 95 e2 56 3c 32 bb 97 3c 31 3c 3e bd
       -0.06835489 0.013115545 0.018521879 -0.04644412
000320 95 cd 10 be 28 14 bf 3c de 7b 18 3d f2 e2 c1 3d
       -0.14140923 0.023325041 0.037227504 0.094671145
000330 77 97 c5 3d 97 3d 28 be b0 fd 0f be 4e 05 22 3d
       0.0964803 -0.16429745 -0.14061618 0.03955584
000340 c7 12 e7 3d d9 cd c4 bd 5c 59 45 bd ba bb 70 3d
       0.11282878 -0.09609575 -0.048180923 0.05877278
000350 d6 b6 d6 3d fc 86 a2 bd 19 8d 51 3e 7d 8b 7a bc
       0.10484092 -0.079359025 0.2046398 -0.015292046
000360 cd 68 44 3d c3 cd d6 3d 82 85 2d 3b c7 4d 87 3c
       0.04795151 0.10488465 0.0026477282 0.01651658
000370 8d ca 0a be 17 22 f0 3d e0 26 5b 3d a4 4b 29 3b
       -0.1355383 0.11725252 0.05350387 0.002583244
000380 63 24 f3 bd 80 43 44 3d a9 03 09 be 45 04 3b 3e
       -0.118721746 0.047915936 -0.13380302 0.18263347
000390 28 6d 52 bc 3c ff a9 3d 00 07 b9 3c b9 cc c3 3d
       -0.012843408 0.08300635 0.022586346 0.09560532
0003a0 21 ac 92 3d 49 26 1c bd fc bb 81 bd 49 15 42 3c
       0.07161737 -0.03812245 -0.06334683 0.011845895
0003b0 ec a4 b4 bd 7d ca 7e 3d 4e df 22 bd 85 b9 e2 3d
       -0.08820519 0.062204827 -0.03976374 0.11070541
0003c0 6e 60 f9 3d 07 62 7b bc d0 9a 4d 3d 44 a2 4e 3d
       0.12176596 -0.015343196 0.05019647 0.050447717
0003d0 9e ca d5 3c 90 80 cf bc d0 10 a3 bb 36 5f 9d bd
       0.026097592 -0.025329858 -0.0049763694 -0.07684176
0003e0 57 73 a6 3d 33 8c ab bd 68 eb 63 3b 23 d6 17 be
       0.08127468 -0.0837635 0.0034777764 -0.1482778
0003f0 1d 74 88 bd a2 6b c0 bd 8b a1 4f bd 49 d8 ce bb
       -0.06662772 -0.09395529 -0.05069117 -0.0063124043

lstm.bias_ih_l1 f4 [256]
000000 42 21 76 bd f2 19 d4 3c b7 33 af 3c da 85 1a be
       -0.06009031 0.025891278 0.021386964 -0.15090123
000010 8e 39 ef bc 6f f6 94 bd 60 6c 03 be 67 9f c6 bd
       -0.029202249 -0.07273566 -0.1283431 -0.09698372
000020 bf c2 dc bb 86 ba 2f 3d 08 e2 2d be 48 ae d1 bc
       -0.0067370827 0.042902492 -0.16980755 -0.0255958
000030 62 55 63 3d 8c c4 a5 3c 36 50 82 3d 9c 6d a6 3c
       0.05550135 0.020235322 0.06362955 0.020315938
000040 54 fe a7 3b 90 9e c4 bd bb af ce 3d 83 15 61 3d
       0.005126754 -0.09600556 0.10092112 0.054952156
000050 d2 78 a4 3c f3 23 13 bb c1 67 8f bd f4 78 74 3d
       0.020077143 -0.0022451847 -0.07002211 0.059685662
000060 32 65 a1 ba 2b d7 3a be b3 95 3b 3d 6b 79 34 be
       -0.0012313484 -0.18246143 0.04579706 -0.17624442
000070 99 24 95 bd 00 58 fa bd 28 9f 36 3d b0 27 47 3d
       -0.07282371 -0.12223816 0.044585377 0.048621833
000080 d6 72 22 3d 87 c6 93 3d 00 b8 1c be f7 ae 98 3c
       0.039660297 0.072156005 -0.15304565 0.018638117
000090 6f 1c ad bd d7 7c 02 be 57 fd 2f bc a3 27 cd bc
       -0.08452689 -0.12742935 -0.010741553 -0.025043314
0000a0 f3 70 31 3d ec 49 26 be 78 0e b2 3d cb f4 e6 3d
       0.043320607 -0.16239136 0.08694166 0.11277159
0000b0 97 78 6a bd 85 b0 6d 3c 09 f0 b4 bc 37 52 85 bd
       -0.05724391 0.014507418 -0.022087114 -0.06509822
0000c0 67 71 6b 3b 34 18 b9 bd 0c c0 20 be 0e 04 d3 3d
       0.0035925747 -0.090378195 -0.1569826 0.10303508
0000d0 c8 91 bc bc b5 59 6e 3d 78 7e 16 be d1 f1 b5 bd
       -0.023018733 0.05819102 -0.14696681 -0.088840134
0000e0 a7 27 73 bd 2d f0 bf bd b1 de cd bc 9f 28 16 be
       -0.059363987 -0.09371982 -0.025130602 -0.14663933
0000f0 77 24 b5 3b 31 1e d8 3d 11 cd 89 bd ba 69 5f bd
       0.0055280286 0.105526336 -0.067285664 -0.054544188
000100 09 74 fd bd 70 e7 6a bc a7 0a 03 3d 26 03 c0 3c
       -0.123756476 -0.014337406 0.03199258 0.023439001
000110 cb ae 2b be 99 20 c3 3b 04 b2 1a bc 55 d0 ac bd
       -0.16765897 0.0059548137 -0.009441856 -0.08438174
000120 c0 09 0f be 65 83 5f 3d ac ae 19 be 79 91 fa 3b
       -0.13968563 0.054568667 -0.15008038 0.007646736
000130 80 99 07 3e c0 fd 1f be f8 a9 7b bd ef 07 f5 bd
       0.1324215 -0.15624142 -0.06144139 -0.11964404
000140 7f df 90 3d 95 0d b1 bd f7 ea 42 3c 8a 95 88 3d
       0.070738785 -0.08645169 0.01189684 0.06669147
000150 bb f9 10 be 03 6c ba bd 84 83 3b bd 0a 8f 48 3d
       -0.14157765 -0.09102633 -0.04577972 0.048964538
000160 3a 16 fa bd be 6d e3 3c 62 df b2 bc db ea 42 be
       -0.12211271 0.02776229 -0.021835033 -0.19034903
000170 1b f4 02 be c3 5f a0 bd 54 d2 98 3d 8c d1 57 bd
       -0.12788431 -0.07830765 0.07461992 -0.052690074
000180 c8 45 f0 3d c9 f3 83 bd 63 af a7 3c 6b 1d 79 3d
       0.1173206 -0.06442983 0.020469373 0.06081907
000190 57 10 33 bd ad 31 1e bc 8e bf 7a 3d 3b 4b 65 bd
       -0.043716755 -0.009655398 0.061217837 -0.05597995
0001a0 aa 5a 3f 3d e3 57 17 be 63 66 c1 bc 19 76 57 bd
       0.046717323 -0.1477962 -0.023608392 -0.05260286
0001b0 8d f9 ea ba 8c b2 08 bd 81 5a 22 3d c0 1f 28 be
       -0.0017927155 -0.0333734 0.039637093 -0.16418362
0001c0 a3 4a 1f bd 63 30 9c bb 34 60 22 be 2e 94 bf bd
       -0.03888954 -0.0047665103 -0.15857011 -0.09354435
0001d0 48 70 06 3d 4c d9 c5 bd f6 94 23 be e6 e9 8f bc
       0.032821923 -0.09660587 -0.15974793 -0.017567586
0001e0 d4 2d ac bc 46 d7 a1 bd 20 50 9a bd 9f fc 5b bc
       -0.021017946 -0.07902388 -0.07534814 -0.013426929
0001f0 d9 d9 6d bd e4 05 d5 3d 97 bd 0a bb a7 60 28 be
       -0.058069084 0.10401514 -0.0021170133 -0.1644312
000200 bf 00 a5 bd 25 ce e9 ba e7 c5 14 bd c1 20 36 bd
       -0.08056783 -0.0017837925 -0.036321547 -0.04446483
000210 0a 94 4b bd 34 3c 9d bb b5 51 54 3d ba 63 5a 3d
       -0.049701728 -0.0047984365 0.051835734 0.053317763
000220 02 a7 b6 bd da 18 02 3c 97 b0 e9 3c 7d 79 a5 3c
       -0.08918573 0.007940495 0.028526587 0.020199532
000230 d3 57 a4 bc ae 90 a5 bd 19 5a 97 3c 4f 94 92 bc
       -0.02006141 -0.08084236 0.01847558 -0.017892985
000240 79 87 95 3d f6 4c f9 3c 3b 7c 93 bd c6 47 03 3d
       0.0730123 0.030432206 -0.072014295 0.03205087
000250 7d c8 f8 3d 12 a7 b9 3d 42 65 5d bc a7 94 2a 3e
       0.12147615 0.09065069 -0.013512911 0.16658269
000260 3c f0 5f bd 5d 5d db bd 1a 75 f9 3d 11 07 22 3e
       -0.054672465 -0.10711167 0.121805385 0.15823008
000270 fb 49 b5 bd 86 b5 8b 3c 36 2a 96 3d f0 34 ff b9
       -0.08852001 0.01705433 0.0733227 -0.00048676832
000280 f1 7f ba ba ef 26 6c 3d 56 03 ed bd 39 b7 53 3d
       -0.0014228803 0.057654317 -0.11572902 0.051688407
000290 35 22 f4 bb ed 1b 9e bd cd 97 d2 bd bd d5 3a be
       -0.007450367 -0.0772017 -0.1028286 -0.18245597
0002a0 4a 28 51 bd 4f 55 88 bd 89 e5 a3 bc 32 c9 4e bd
       -0.051063813 -0.06656896 -0.020006912 -0.050484844
0002b0 e5 9a cb bd 6e ac ae bc 2a 6a 1a 3d c6 a1 1f 3e
       -0.09941653 -0.021322455 0.037698902 0.15589055
0002c0 72 b6 06 bd 58 8e 25 3d 77 98 bb 3c 9c 76 00 3e
       -0.032888837 0.040418953 0.02289985 0.12545246
0002d0 b9 d5 2a 3d a0 c0 bf 3d 76 a2 9c 3d b2 d0 0b 3e
       0.041707728 0.09362912 0.076481745 0.1365383
0002e0 bc 02 b6 bc 75 d6 ed bc 82 4a a7 bd d2 e5 fb 3c
       -0.0222181 -0.029032925 -0.08168508 0.030749235
0002f0 f0 40 92 bd 78 a5 88 bc 4b ca a2 bc 57 89 8c bc
       -0.07141292 -0.016680464 -0.019871851 -0.017155332
000300 e5 33 cc bb cb c3 e4 3c 5e 2d 93 3c 47 91 13 3c
       -0.0062317722 0.027925393 0.017965969 0.009006805
000310 3f 6a 00 be 16 92 43 3d d0 26 48 bd e3 ba 51 be
       -0.1254053 0.04774674 -0.04886514 -0.20481448
000320 d2 56 09 be be 60 95 3d cf 36 23 be a4 68 c3 3c
       -0.13412026 0.07293843 -0.15938877 0.023853607
000330 eb 2b 56 3d ff 89 c6 bd 9b 62 a6 3c d8 6f 81 3d
       0.052287977 -0.096942894 0.02031069 0.063201606
000340 45 23 f6 3d 36 0d 8d 3c 61 1f df 3c 3c 01 d7 bd
       0.12018446 0.017218214 0.027236642 -0.10498282
000350 b2 2f 31 be cb 60 d4 bd 27 d4 44 be 12 5c d5 bd
       -0.1730335 -0.10370024 -0.19221555 -0.10417952
000360 ae 3e 3e be 96 72 26 be 10 97 11 be e2 89 c2 bc
       -0.18578598 -0.16254649 -0.14217782 -0.023747388
000370 a9 46 2b be 41 81 08 bd 17 32 d3 3c 45 c5 37 bd
       -0.16726173 -0.03332639 0.02578072 -0.044865865
000380 f1 67 b3 3b 9b 52 0d 3e 08 1c 59 bc fc 69 ec 3c
       0.0054750373 0.13801043 -0.013251312 0.028859131
000390 16 2e a6 3b e9 c8 fc bc b0 f1 c4 bd b1 c1 64 3d
       0.005071412 -0.03085752 -0.09616411 0.05584878
0003a0 6a ef 9e bb b2 34 6e 3d ca 0f 93 bd 1c f6 8e bd
       -0.0048503177 0.058155723 -0.07180746 -0.069805354
0003b0 f4 bd 2b 3d e1 bd 7f 3d 83 12 d2 3d 05 ad 46 be
       0.0419292 0.062436942 0.10257437 -0.19401939
0003c0 17 27 98 3c 94 7a 44 bc d9 d0 9c bc c7 3e ab 3d
       0.018573327 -0.0119921155 -0.019142555 0.08361583
0003d0 09 ca ff bc 95 3f 74 3d cd 48 d6 bd 83 52 29 bd
       -0.031224268 0.05963095 -0.104631044 -0.041338455
0003e0 01 ff 28 3b 4b 05 9c bd df 9e 40 3d 52 5e 27 be
       0.002578676 -0.07618197 0.04702651 -0.16344574
0003f0 15 62 88 3c 56 ec b3 3d b0 5d 3b 3d c4 3b 8f bd
       0.016648332 0.08785312 0.045743644 -0.06993821
