Competition/TrainAI/model/c/BILSTM_weights.pth (torch, 609723 bytes, 18 tensors)

lstm.weight_ih_l0 f4 [256, 34]
-0.35648295 0.03592414 -0.0049333265 0.07323456 0.03348693 -0.18794781 0.07337853 -0.14107126
-0.2759338 0.084091365 -0.15737885 0.016899273 -0.02223272 -0.09684894 0.01961928 -0.0035778347
0.01509852 -0.13899511 -0.16864759 -0.027813466 0.031231562 0.21498679 0.16959448 0.04329855
-0.028683187 -0.014680337 0.11515218 -0.10166821 0.16605008 0.12352449 -0.039947953 -0.06448549
0.01683557 0.013034895 0.037702657 -0.6706814 0.1994787 -0.7034393 -0.8287117 -0.6520849
-0.5878509 -0.8087452 -0.7799093 0.11887503 -0.082829595 0.019213215 0.24438077 0.33930054
0.33739772 -1.0417439 -1.113953 -1.0650086 -1.0691018 0.1328909 0.09693729 -0.0125219235
0.34442863 0.5347171 -0.30075195 0.44171408 -0.3002282 0.4397707 -0.25822416 0.31648383
-0.21845675 -0.035618816 0.0656275 -0.05830157 0.406445 0.18856487 0.10807245 -0.1470866
-0.08337948 -0.118922 -0.13615745 0.06049446 -0.1431725 0.0048157596 0.087773316 0.05001546
-0.055649836 0.01057117 -0.011990747 0.0516819 0.064371884 0.0002620467 0.084700264 0.0062975665
-0.030889977 0.013143008 -0.034072757 -0.0698369 0.05697356 -0.043488245 0.11977754 0.011548013
0.05986214 -0.0059882244 -0.12128831 -0.09730273 0.021097315 -0.14535633 0.037499465 0.03822095
-0.25219566 -0.059170984 -0.12665853 0.015958397 0.08723455 0.047579415 -0.19097483 0.2942854
0.60245204 0.25162008 0.082659885 0.20539126 0.06602987 0.18131538 0.04195308 0.24341996
0.13350853 0.24077047 -0.0415258 0.33767328 -0.1317102 0.11887614 0.4401789 0.09165345
0.14363699 0.0023587798 -0.16726322 0.06682843 -0.11190624 -0.052712053 0.46789074 -0.31740916
-0.022173006 0.62795943 0.2399407 0.029632417 -0.20193885 -0.35271853 -0.040014517 -0.3140535
-0.412234 -0.20044366 -0.073139966 0.33681068 -0.061520312 0.34616867 0.6110901 -0.27158847
0.021832382 -0.08792814 -0.20519057 -0.51942724 0.16674589 0.07187497 0.28643206 -0.49250576
0.13331185 -0.42888248 0.015625268 0.1369586 0.22738937 0.072081916 0.2637957 0.10118142
-0.41332543 0.32107577 -0.05448727 0.06391542 0.19402033 0.06287615 -0.03414301 0.059448145
0.028154222 -0.105788656 -0.055177692 -0.21145588 0.016491376 0.03701042 -0.06311348 -0.03957708
-0.07535138 0.057929467 -0.029896813 0.27313447 0.026495313 -0.38589495 0.09215182 -0.032962047
-0.1023041 -0.3578139 -0.14402713 0.041095454 -0.031846285 -0.036222454 -0.08087883 -0.035350323
0.11842046 0.06853707 0.104935974 0.07283072 -0.06350445 -0.06260728 0.043479595 0.25508308
0.08551293 -0.22343414 0.14310822 -0.019243568 -0.23074032 0.31167522 0.0016722626 -0.33668905
0.6343794 0.15601496 -0.18781479 0.24958876 0.00815106 0.36609936 0.06500529 0.34472314
-0.13819733 0.265076 0.18396124 0.32755822 0.385925 0.19369495 0.31039765 -0.036598135
0.17790547 -0.0075495415 0.13094328 -0.012663899 0.13868691 -0.11012886 0.015720168 0.11273769
0.1281495 -0.09220191 0.25772804 0.11428876 -0.22496808 0.07874555 0.27211377 0.12834843
-0.16727404 0.06684702 0.019107016 -0.038223237 -0.1563504 -0.26278746 0.1266782 -0.13585559
00000000: ef84 b6be 3125 133d bea7 a1bb 00fc 953d
00000010: 9729 093d 6475 40be 7c47 963d fc74 10be
00000020: 3247 8dbe 1838 ac3d ec27 21be 5870 8a3c
00000030: 6521 b6bc bd58 c6bd 9db8 a03c 1b7a 6abb
00000040: c85f 773c bc54 0ebe f4b1 2cbe 11d9 e3bc
00000050: 55d9 ff3c 7f25 5c3e 2daa 2d3e d259 313d
00000060: 01f9 eabc cc85 70bc e8d4 eb3d 6c37 d0bd
00000070: 0809 2a3e 68fa fc3d 77a0 23bd f810 84bd
00000080: c0ea 893c 5090 553c 1a6e 1a3d c7b1 2bbf
00000090: 2544 4c3e 9914 34bf 7326 54bf 09ef 26bf
000000a0: 667d 16bf ed09 4fbf 23a8 47bf c074 f33d
000000b0: 90a2 a9bd 0865 9d3c f43e 7a3e cdb8 ad3e
000000c0: 65bf ac3e dd57 85bf 0396 8ebf 3452 88bf
000000d0: 54d8 88bf 8d14 083e 0f87 c63d c128 4dbc
000000e0: f358 b03e 38e3 083f 29fc 99be 5928 e23e
000000f0: 83b7 99be a029 e13e f535 84be 2b0a a23e
00000100: 20b3 5fbe 09e5 11bd b667 863d a1cd 6ebd
00000110: 8f19 d03e 2617 413e 1755 dd3d df9d 16be
00000120: dcc2 aabd 618d f3bd dc6c 0bbe 0ac9 773d
00000130: d09b 12be 85cd 9d3b 7fc2 b33d 03dd 4c3d
00000140: 15f1 63bd b332 2d3c d774 44bc 66b0 533d
00000150: 68d5 833d 5063 8939 5577 ad3d d15b ce3b
00000160: fa0c fdbc c555 573c e08f 0bbd a606 8fbd
00000170: 1c5d 693d bb20 32bd ed4d f53d e133 3d3c
00000180: 0132 753d de38 c4bb 0166 f8bd a746 c7bd
00000190: 47d4 ac3c 4ad8 14be 0a99 193d 928d 1c3d
000001a0: ca1f 81be 465d 72bd c6b2 01be 2fbb 823c
000001b0: 07a8 b23d a2e2 423d e88e 43be 93ac 963e
000001c0: 4c3a 1a3f 59d4 803e 9649 a93d 1652 523e
000001d0: ab3a 873d bdaa 393e fed6 2b3d 1543 793e
000001e0: 76b6 083e 898c 763e f516 2abd 83e3 ac3e
000001f0: 0adf 06be 5575 f33d 215f e13e ceb4 bb3d
00000200: 9315 133e c295 1a3b 0d47 2bbe 58dd 883d
00000210: 192f e5bd 98e8 57bd 608f ef3e 7483 a2be
00000220: 2aa4 b5bc f3c1 203f 04b3 753e afbf f23c
00000230: 0fc9 4ebe 8697 b4be 43e6 23bd 9fcb a0be
00000240: 5610 d3be 1a41 4dbe 68ca 95bd 7372 ac3e
00000250: b9fc 7bbd 053d b13e 6770 1c3f a50d 8bbe
00000260: d3d9 b23c ab13 b4bd 7a1d 52be 2ff9 04bf
00000270: 6fbf 2a3e 2f33 933d 39a7 923e b729 fcbe
00000280: e782 083e 7c96 dbbe 9000 803c e03e 0c3e
00000290: c2d8 683e af9f 933d 3b10 873e 3438 cf3d
000002a0: 649f d3be 0b64 a43e 0b2e 5fbd 16e6 823d
000002b0: 44ad 463e 36c5 803d 8ad9 0bbd e67f 733d
000002c0: afa3 e63c b9a7 d8bd 0102 62bd e487 58be
000002d0: ec18 873c 3d98 173d a441 81bd 941b 22bd
000002e0: d351 9abd 7347 6d3d 29ea f4bc 48d8 8b3e
000002f0: b30c d93c 0694 c5be 18ba bc3d 3603 07bd
00000300: d084 d1bd 6233 b7be d97b 13be b553 283d
00000310: 4071 02bd ff5d 14bd cda3 a5bd 80cb 10bd
00000320: 6d86 f23d 2a5d 8c3d ace8 d63d 4628 953d
00000330: 9f0e 82bd 3f38 80bd a917 323d 409a 823e
00000340: 6721 af3d ebcb 64be f68a 123e b0a4 9dbc
00000350: 3147 6cbe e593 9f3e d22f db3a 8262 acbe
00000360: b066 223f 63c2 1f3e 8552 40be 3294 7f3e
00000370: 068c 053c 6071 bb3e 7e21 853d 8d7f b03e
00000380: 9a83 0dbe 0bb8 873e 5660 3c3e b6b5 a73e
00000390: f697 c53e f857 463e 71ec 9e3e ede7 15bd
000003a0: da2c 363e 2562 f7bb ff15 063e 3e7c 4fbc
000003b0: f103 0e3e 3d8b e1bd 95c7 803c 05e3 e63d
000003c0: 9f39 033e 5bd4 bcbd eef4 833e 3a10 ea3d
000003d0: 085e 66be 5945 a13d 7f52 8b3e c56d 033e
000003e0: e349 2bbe 17e7 883d 5186 9c3c f88f 1cbd
000003f0: 521a 20be 148c 86be eeb7 013e ba1d 0bbe

lstm.weight_hh_l0 f4 [256, 64]
-0.078085735 0.07412511 0.16797586 0.0010330353 0.029227156 0.011743083 0.06486304 -0.12513347
0.12188654 0.072292596 -0.17685418 -0.028149802 0.023745447 -0.015450684 0.08939485 0.00062135793
-0.1578651 -0.12572172 -0.056529913 0.15943378 0.050965503 -0.042094465 -0.037624743 -0.26466843
0.009771939 -0.05290042 0.09808332 0.03199511 -0.039517194 -0.0527849 0.09419078 0.12872277
0.08548567 -0.021385252 0.13668822 -0.28043416 -0.02731261 0.09209018 0.18050814 0.1851878
0.017162394 0.050358973 0.08378743 0.10189488 -0.13332292 -0.09442463 -0.03920694 0.015486029
0.13088983 0.027049521 -0.07261956 -0.05139386 0.04445578 -0.06693214 -0.11373985 -0.0038696807
-0.028331168 0.1601477 -0.022620294 0.19162169 -0.015172277 0.00441889 -0.02636634 -0.053862218
-0.088948876 0.24389751 0.110362254 -0.025366567 -0.4032116 -0.13093029 -0.061495088 -0.12529655
0.42389306 -0.3699904 -0.13209254 -0.2416995 -0.14008406 -0.22703739 0.10962673 0.33192277
-0.34117693 0.1516895 0.14099252 0.32917616 -0.18306905 0.19281042 0.006868615 0.048755508
0.14801906 0.2742612 0.114125304 0.07914118 0.41590968 0.21139087 -0.00976218 0.10286622
-0.20978758 -0.02866679 -0.02737131 -0.030172631 0.44442722 0.13391975 -0.06724752 0.22937368
0.038303774 0.121767335 0.07781643 0.022577582 0.17868616 -0.05766729 0.15269706 0.2073812
0.14590478 0.32907912 0.030342542 -0.08166548 -0.1381527 -0.3813884 -0.25939384 0.22526301
-0.15952319 0.53025556 0.08489683 -0.024755254 0.41061622 -0.25462177 -0.1463693 0.20131694
0.27064154 0.052247554 -0.29285714 0.2159624 0.0025212201 0.09000845 0.043718185 0.14772214
-0.036250446 0.15115403 -0.23473564 0.15100732 0.046570297 0.025629979 0.045250747 -0.19844472
0.08785886 -0.054034945 0.05955322 -0.19685638 0.08349495 -0.17286564 0.12793395 0.011047849
0.017069302 -0.10562534 -0.23132922 -0.13045463 -0.15097445 0.1320377 0.033131845 0.17392814
0.1403736 0.13539574 0.047052912 -0.2211758 0.048788037 -0.06969678 0.17144059 0.034503747
-0.10231559 0.008739027 -0.04226049 0.04480996 -0.08639965 0.25992927 0.033560034 -0.10886692
-0.17653684 -0.22769977 -0.07055161 -0.023023093 0.15411961 0.19500802 0.2488564 -0.036214434
0.25247383 -0.104403175 -0.06605072 0.009700688 -0.34915814 0.07671347 0.123192206 -0.1805625
-0.031880893 -0.042788163 0.6019331 0.37858114 -0.44623792 -0.07738474 -0.089610934 -0.4268065
0.48198798 0.017253967 -0.10864919 -0.0721755 0.020530723 -0.37915888 -0.49506634 0.2667996
-0.6600465 0.14859524 0.11045417 0.29687732 -0.6306936 0.19643849 0.2631462 0.19217376
-0.18379505 0.533013 0.6049338 0.15929915 0.2247279 0.5629138 0.32066694 -0.101882234
-0.06648764 -0.09339014 0.20151187 0.059126075 -0.30484742 0.046533365 0.11938352 0.6313505
-0.28864995 -0.10941237 -0.09033226 -0.0024608017 0.24461535 -0.2681251 0.36329392 0.61584353
0.46917942 0.15525863 -0.000805664 0.15225972 -0.221236 -0.6226385 -0.7076117 0.03477127
-0.32289854 0.76509494 -0.34717688 -0.24358375 0.21647358 0.07463357 -0.55889165 0.4870111
00000000: 6aeb 9fbd e8ce 973d dd01 2c3e ea66 873a
00000010: ca6d ef3c 0f66 403c ead6 843d fd22 00be
00000020: a69f f93d 240e 943d 4319 35be 6a9a e6bc
00000030: d085 c23c de24 7dbc a614 b73d a0e2 223a
00000040: 64a7 21be 32bd 00be e98b 67bd 9c42 233e
00000050: 34c1 503d 3f6b 2cbd 671c 1abd 9f82 87be
00000060: 7c1a 203c 1cae 58bd e8df c83d 4e0d 033d
00000070: c8dc 21bd fb34 58bd 18e7 c03d e7cf 033e
00000080: 1c13 af3d 2030 afbc fff7 0b3e 1195 8fbe
00000090: b2be dfbc c799 bc3d 20d7 383e dfa1 3d3e
000000a0: 2698 8c3c 3645 4e3d be98 ab3d 43ae d03d
000000b0: ce85 08be b361 c1bd 7597 20bd 1db9 7d3c
000000c0: fc07 063e f596 dd3c 90b9 94bd 5e82 52bd
000000d0: 4417 363d b813 89bd 70f0 e8bd 789a 7dbb
000000e0: c416 e8bc c2fd 233e 324e b9bc 7a38 443e
000000f0: 2495 78bc 56cc 903b 39fe d7bc a19e 5cbd
00000100: d42a b6bd 45c0 793e 9b05 e23d 8ccd cfbc
00000110: c071 cebe 9712 06be 46e2 7bbd bd4d 00be
00000120: 8308 d93e 626f bdbe 4443 07be 1380 77be
00000130: 3272 0fbe 7d7c 68be fb83 e03d c8f1 a93e
00000140: beae aebe 7e54 1b3e 5860 103e c789 a83e
00000150: 7476 3bbe 1870 453e 1e12 e13b dbb3 473d
00000160: 4f92 173e f76b 8c3e 87ba e93d c514 a23d
00000170: 1df2 d43e d976 583e 8df1 1fbc 86ab d23d
00000180: 8ed2 56be 9ed6 eabc cc39 e0bc 982c f7bc
00000190: f78b e33e 4222 093e 11b9 89bd efe0 6a3e
000001a0: 6be4 1c3d 2761 f93d 385e 9f3d 9ff4 b83c
000001b0: 81f9 363e 8934 6cbd 9e5c 1c3e bd5b 543e
000001c0: 1068 153e 0f7d a83e ec90 f83c 3b40 a7bd
000001d0: e777 0dbe 5745 c3be 45cf 84be 59ab 663e
000001e0: 0c5a 23be d4be 073f 64de ad3d 88cb cabc
000001f0: 4a3c d23e c95d 82be d5e1 15be 0726 4e3e
00000200: 8791 8a3e 8801 563d 5ff1 95be 3f25 5d3e
00000210: 0e3b 253b 5a56 b83d d711 333d 7944 173e
00000220: 597b 14bd 1fc8 1a3e 8a5e 70be aaa1 1a3e
00000230: 7fc0 3e3d f6f5 d13c d958 393d 1835 4bbe
00000240: 59ef b33d bf53 5dbd 14ee 733d b894 49be
00000250: 66ff aa3d b103 31be 1e01 033e 0a02 353c
00000260: ecd4 8b3c 1952 d8bd 91e1 6cbe e695 05be
00000270: 0c99 1abe e434 073e 42b5 073d 381a 323e
00000280: 19be 0f3e 2ea5 0a3e 8eba 403d e97b 62be
00000290: f7d5 473d 2fbd 8ebd 1f8e 2f3e cd53 0d3d
000002a0: d68a d1bd 232e 0f3c 5619 2dbd a68a 373d
000002b0: 4df2 b0bd 7315 853e 3f76 093d 9ff5 debd
000002c0: 13c6 34be 212a 69be 5d7d 90bd ed9a bcbc
000002d0: 88d1 1d3e 2fb0 473e 36d4 7e3e 9655 14bd
000002e0: 4044 813e 55d1 d5bd 9a45 87bd a2ef 1e3c
000002f0: dbc4 b2be f41b 9d3d 324c fc3d 60e5 38be
00000300: 8a95 02bd a442 2fbd 4a18 1a3f 63d5 c13e
00000310: 4c79 e4be e47b 9ebd f085 b7bd 6286 dabe
00000320: 21c7 f63e 3158 8d3c 7783 debd c0d0 93bd
00000330: 0c30 a83c 1d21 c2be 5679 fdbe f599 883e
00000340: cff8 28bf 5a29 183e cc35 e23d 4e00 983e
00000350: 2375 21bf 2c27 493e 19bb 863e 33c9 443e
00000360: c534 3cbe 8a73 083f f1dc 1a3f 511f 233e
00000370: 121f 663e 1e1b 103f 752e a43e a2a7 d0bd
00000380: ac2a 88bd 5443 bfbd 2159 4e3e 2f2e 723d
00000390: f614 9cbe c599 3e3d 597f f43d 30a0 213f
000003a0: edc9 93be 9813 e0bd 1f00 b9bd 6745 21bb
000003b0: 727c 7a3e b147 89be a901 ba3e eca7 1d3f
000003c0: 4938 f03e 1efc 1e3e 3233 53ba f9e9 1b3e
000003d0: b18b 62be 3d65 1fbf 0a26 35bf 526c 0e3d
000003e0: f552 a5be 43dd 433f 2bc1 b1be 056e 79be
000003f0: 40ab 5d3e 7cd9 983d 8613 0fbf 8559 f93e

lstm.bias_ih_l0 f4 [256]
0.0012491216 -0.37034512 0.15056793 -0.6132653 -0.0047942437 0.14015026 -0.014245043 -0.19047561
0.7882427 -0.9607702 0.11517927 0.10736177 -0.02335686 0.42012915 -0.03933634 -0.0020817188
0.10544169 -0.050267305 -0.517662 0.26312086 0.1999464 -0.6292005 0.16557014 -0.13680126
-0.13211927 0.17661388 0.9822351 -0.049439527 -0.06859649 -0.11408475 0.16798827 -0.0090549
-0.053158227 -0.19153923 -0.18757643 -0.0835765 -0.1293284 0.073083594 -0.28170866 0.08989165
0.14556032 0.0015984095 -0.28797168 -0.14582628 -0.18950067 -0.07702106 0.05896696 0.08085777
-0.35247895 0.18787275 -0.121256426 -0.59143054 -0.17938627 0.08637908 -0.14609411 -0.49738947
0.60443664 0.73289025 -0.19453454 -0.014612513 0.35377213 0.12311013 0.052325115 0.6829426
0.06435344 -0.05572598 0.09428673 -0.061018214 -0.16798866 0.22765206 -0.059458386 -0.30816907
-0.020905852 -0.12422825 0.1832631 0.027867792 -0.09444665 -0.07175969 -0.070455894 -0.12141449
0.064340614 -0.18194303 -0.32801473 -0.2742687 -0.20945981 -0.18272077 -0.07613339 0.22206643
-0.08890457 0.14740396 0.4303292 0.13439412 -0.39569145 -0.28739485 -0.1910081 0.05977051
-0.014096192 -0.022267936 -0.06026759 -0.1335706 -0.122976914 0.25487262 -0.115050666 -0.23973927
-0.13987967 0.063888505 -0.17360398 0.0012182551 -0.020514298 0.57451534 0.21644719 -0.095565826
-0.0028104405 0.08376586 -0.20709158 -0.20370337 -0.09237266 -0.24509974 -0.0058848583 -0.1429571
0.25837785 -0.041301746 0.030766558 -0.04122084 0.27888563 0.11158433 0.21838628 -0.011463245
0.16668217 0.061955318 -0.19024278 0.08333672 0.23962119 0.16224648 0.01626923 0.1422446
-0.27687106 0.184047 0.02350016 0.1230928 -0.34986052 0.14196357 -0.0018729684 -0.17865123
0.15611622 0.12036397 0.0693186 -0.24089962 0.22716528 -0.015957043 -0.09670308 0.049768202
0.040819068 -0.15178077 -0.35851294 -0.20734747 0.030626416 -0.2124934 -0.22085877 0.14595768
0.07768025 0.117670484 0.0825196 -0.15597072 -0.12569699 -0.08887624 -0.014180461 -0.11905703
0.12117684 -0.041368157 -0.08769062 0.019553447 -0.22684167 0.31600586 -0.010201425 0.0070650997
-0.13885747 -0.27852303 0.037209097 -0.22600922 0.22591294 0.04249168 0.21827635 0.004738003
0.07240889 -0.11049503 -0.03949077 0.01839145 -0.26409784 0.16860947 0.09491871 -0.20255594
0.14609121 -0.3463514 1.1762692 0.26487604 0.9478687 0.056073956 0.02588425 0.22934604
0.3209157 -0.03474796 -0.018009968 0.15053472 -0.12503509 0.28334442 -0.5503175 -0.07799156
0.20321509 -0.11287211 -0.23777625 0.2153756 -0.075308934 0.0033157137 -0.16490239 0.09050611
-0.16659333 0.29138172 0.09351727 0.31388262 0.54144704 0.8511484 -0.16766775 0.08508813
-0.04700261 -0.36551934 -0.19405337 0.017354641 -0.082200676 -0.28566986 0.07250691 0.16172762
-0.08536854 -0.26653427 -0.05239092 0.3909935 -1.14907 0.009579738 -0.041647125 0.5823152
-0.5018784 0.5063295 -0.16240902 -0.21808101 -0.011625544 0.09118192 0.9632916 -0.55162185
0.08760741 0.34827372 0.252909 0.08584322 0.2439359 0.010526616 0.3020099 0.07557202
00000000: 91b9 a33a e09d bdbe 7b2e 1a3e f4fe 1cbf
00000010: 0819 9dbb 8d83 0f3e 0a64 69bc 0a0c 43be
00000020: 46ca 493f 09f5 75bf 1ce3 eb3d 7de0 db3d
00000030: e356 bfbc 2b1b d73e 241f 21bd 726d 08bb
00000040: d0f1 d73d 17e5 4dbd 7f85 04bf c7b7 863e
00000050: c0be 4c3e 4913 21bf 388b 293e a115 0cbe
00000060: 464a 07be 45da 343e c273 7b3f 1a81 4abd
00000070: 517c 8cbd 44a5 e9bd 1e05 2c3e 015b 14bc
00000080: 71bc 59bd dc22 44be 0914 40be 282a abbd
00000090: aa6e 04be daac 953d 1e3c 90be 1d19 b83d
000000a0: c40d 153e b981 d13a 0671 93be 7c53 15be
000000b0: 770c 42be 38bd 9dbd 5787 713d c298 a53d
000000c0: 1f78 b4be b761 403e 4a55 f8bd fe67 17bf
000000d0: 09b1 37be 84e7 b03d b299 15be d5a9 febe
000000e0: 5cbc 1a3f b29e 3b3f 1034 47be 5269 6fbc
000000f0: 9f21 b53e 2a21 fc3d dc52 563d 54d5 2e3f
00000100: bdcb 833d ed40 64bd 6719 c13d 3cee 79bd
00000110: 3805 2cbe 9f1d 693e a38a 73bd 56c8 9dbe
00000120: c042 abbc 616b febd 52a9 3b3e ff4a e43c
00000130: 3f6d c1bd bff6 92bd 2e4b 90bd 29a8 f8bd
00000140: 03c5 833d 464f 3abe 8cf1 a7be f26c 8cbe
00000150: a27c 56be 271b 3bbe d3eb 9bbd 6265 633e
00000160: 9913 b6bd 10f1 163e 1c54 dc3e 9d9e 093e
00000170: 1298 cabe 6b25 93be a197 43be ecd1 743d
00000180: b7f3 66bc 3f6b b6bc 26db 76bd bbc6 08be
00000190: 52db fbbd aa7e 823e af9f ebbd 367e 75be
000001a0: 9e3c 0fbe fad7 823d 3ec5 31be dcad 9f3a
000001b0: 9a0d a8bc 7013 133f 55a4 5d3e 04b8 c3bd
000001c0: 5e2f 38bb 6f8d ab3d d10f 54be 9e97 50be
000001d0: e12d bdbd 6dfb 7abe c5d5 c0bb 5963 12be
000001e0: 1a4a 843e 052c 29bd 260a fc3c 2fd7 28bd
000001f0: 19ca 8e3e 5386 e43d a7a0 5f3e 56d0 3bbc
00000200: bbae 2a3e dcc4 7d3d 01cf 42be 71ac aa3d
00000210: 425f 753e f123 263e 0c47 853c 92a8 113e
00000220: 0bc2 8dbe d176 3c3e 6883 c03c 1418 fc3d
00000230: eb20 b3be e65e 113e 647e f5ba 59f0 36be
00000240: eedc 1f3e 6381 f63d e9f6 8d3d 64ae 76be
00000250: 049e 683e 58b8 82bc 440c c6bd bed9 4b3d
00000260: e531 273d 6b6c 1bbe 028f b7be e552 54be
00000270: 40e4 fa3c df97 59be cd28 62be ee75 153e
00000280: d316 9f3d 39fd f03d 0900 a93d cab6 1fbe
00000290: b6b6 00be bf04 b6bd 2a55 68bc 2cd4 f3bd
000002a0: 902b f83d a871 29bd 2497 b3bd 8d2e a03c
000002b0: 2f49 68be 85cb a13e e123 27bc 5a82 e73b
000002c0: a730 0ebe 929a 8ebe 9168 183d f66e 67be
000002d0: b955 673e c10b 2e3d d683 5f3e 4041 9b3b
000002e0: 1d4b 943d 384b e2bd 13c1 21bd aba9 963c
000002f0: d537 87be f6a7 2c3e be64 c23d d36a 4fbe
00000300: ef98 153e f854 b1be fd8f 963f d59d 873e
00000310: 86a7 723f cead 653d 350b d43c b0d9 6a3e
00000320: 104f a43e e053 0ebd a489 93bc c625 1a3e
00000330: 3309 00be 8512 913e 9ce1 0cbf 0aba 9fbd
00000340: 9e17 503e 7e29 e7bd 9e7b 73be 6c8b 5c3e
00000350: 923b 9abd 724c 593b 2cdc 28be 445b b93d
00000360: 7197 2abe fc2f 953e fc85 bf3d 39b5 a03e
00000370: 469c 0a3f dde4 593f 18b1 2bbe af42 ae3d
00000380: cf85 40bd 5a25 bbbe edb5 46be 522b 8e3c
00000390: d458 a8bd 5243 92be 817e 943d ed9b 253e
000003a0: b3d5 aebd 2e77 88be dd97 56bd 4d30 c83e
000003b0: ba14 93bf 55f4 1c3c 2d96 2abd 9c12 153f
000003c0: 1a7b 00bf cf9e 013f 8d4e 26be a150 5fbe
000003d0: 1179 3ebc 96bd ba3d 479a 763f 1737 0dbf
000003e0: 846b b33d ef50 b23e 4a7d 813e 92ce af3d
000003f0: 55ca 793e d477 2c3c 0ba1 9a3e 81c5 9a3d

lstm.bias_hh_l0 f4 [256]
0.051108886 -0.34185344 0.19076578 -0.47099584 0.16061045 -0.045651346 -0.16842194 -0.23029429
0.7057986 -1.0136749 0.024520388 -0.05150046 -0.06528315 0.38868728 -0.090393744 0.0448937
0.11647663 -0.051317226 -0.38135952 0.24354868 0.18259993 -0.6540312 0.20828095 -0.10352129
-0.2482665 0.15463854 1.0034412 -0.12632202 -0.03675076 -0.15038131 0.12646933 0.0972126
0.06245187 -0.06852978 -0.13337849 -0.08984327 -0.03955118 0.17468216 -0.28184384 0.29913458
0.08574196 0.014387555 -0.22409053 -0.080620416 -0.112811394 0.12245367 0.14670525 0.16535026
-0.34411588 0.17828716 -0.15101647 -0.5207636 -0.21462671 0.25420225 -0.09613688 -0.57352597
0.5792318 0.7296181 -0.090394795 -0.070218496 0.38708845 0.13667509 0.11794319 0.63336754
0.08021344 -0.1753411 0.09958523 -0.06726972 -0.13513187 0.16137029 -0.17279392 -0.32889938
0.18893199 -0.24071081 0.213155 0.032709286 -0.01785312 0.008640908 0.017171305 -0.18588655
0.095048174 -0.27994725 -0.2192233 -0.13359526 -0.3619674 -0.09327246 -0.10091225 0.1516589
-0.0012788784 -0.011086214 0.5625192 0.087635376 -0.5504374 -0.32696918 -0.19758572 0.21890868
-0.10024665 -0.1237233 0.038314566 0.009499759 -0.112209775 0.046703175 -0.25025496 -0.120548464
-0.013948638 -0.054127824 0.0040931446 0.035971746 0.07243573 0.46521056 0.11297355 0.011645368
-0.093675144 0.22023666 -0.21490322 -0.15021616 -0.14419357 -0.24056563 0.015587032 -0.012397642
0.37540707 -0.09420583 -0.094994955 -0.022704873 0.35775986 0.16607906 0.10794225 -0.042852473
-0.055464026 0.00036202426 -0.3560074 -0.061628122 0.014277408 0.031534873 0.06511777 0.18759497
-0.173972 0.27753413 0.09916287 0.08096354 -0.18374676 0.09868977 -0.011597582 -0.1991374
0.21971393 -0.05189692 -0.15987061 -0.10478852 0.088577956 -0.12536769 0.059071716 -0.012659865
-0.06538725 -0.25473282 -0.18894215 -0.026284916 -0.10240648 -0.23500092 -0.03975723 0.11765456
-0.026054572 0.06650621 0.009827503 -0.040856346 -0.19140491 -0.18516731 -0.107023045 -0.15523247
0.031361084 0.036924798 -0.14029758 -0.028473796 -0.06748064 0.15026031 0.12799844 -0.13578139
0.015457816 -0.34828374 0.0039809146 -0.10895201 0.007316378 -0.089726545 0.22707617 0.013693364
0.25975305 -0.19102514 -0.031530563 -0.028336173 -0.07117142 0.065053284 0.115308926 -0.1916389
0.003808756 -0.33953106 1.0639876 0.13685133 1.146742 0.16773254 -0.1168138 0.19202983
0.18495946 -0.08838987 -0.17734861 0.0857143 -0.05207998 0.13782115 -0.60425043 -0.0054189735
0.19988069 -0.12683716 -0.26032192 0.15933362 -0.23355854 -0.066527635 0.012231811 0.124604955
-0.22559504 0.27379608 -0.0009258353 0.3574094 0.4302243 0.871411 -0.2431987 -0.046279185
0.17386347 -0.22017694 -0.3426009 -0.06305235 0.035834182 -0.23507358 0.11681937 0.21558009
0.0044674957 -0.14140743 -0.19425546 0.32911322 -1.0455886 0.14699307 -0.287404 0.75823605
-0.58620715 0.48881948 -0.27942947 -0.17125712 -0.06798192 0.09374721 1.07595 -0.556845
0.25266272 0.26702702 0.33736247 0.20042904 0.13488291 -0.09500588 0.13194622 0.17785141
00000000: 8d57 513d 6a07 afbe 1b58 433e 5e26 f1be
00000010: 1177 243e e8fc 3abd cd76 2cbe 44d2 6bbe
00000020: 38af 343f 19c0 81bf fbde c83c 25f2 52bd
00000030: 2cb3 85bd 0502 c73e 5b20 b9bd 75e2 373d
00000040: 4d8b ee3d 0332 52bd 8e41 c3be d364 793e
00000050: 7afb 3a3e 976e 27bf 9a47 553e f802 d4bd
00000060: 9339 7ebe 9159 1e3e c370 803f 8f5a 01be
00000070: f787 16bd 8ffd 19be 2d81 013e 6617 c73d
00000080: 88cd 7f3d 5759 8cbd 5f94 08be c0ff b7bd
00000090: 6b00 22bd e1df 323e d64d 90be 2b28 993e
000000a0: 7b99 af3d c8b9 6b3c fd77 65be 511c a5bd
000000b0: a909 e7bd fdc8 fa3d e739 163e 9451 293e
000000c0: f52f b0be e990 363e 10a4 1abe c350 05bf
000000d0: 1bc7 5bbe cc26 823e 6ae3 c4bd 99d2 12bf
000000e0: 8948 143f 40c8 3a3f e820 b9bd b7ce 8fbd
000000f0: 7530 c63e 8ef4 0b3e 338c f13d 6024 223f
00000100: f246 a43d 9e8c 33be 57f3 cb3d b5c4 89bd
00000110: 0260 0abe 413e 253e e4f0 30be 8065 a8be
00000120: 6377 413e e57c 76be 4e45 5a3e 2cfa 053d
00000130: b540 92bc 9892 0d3c d6aa 8c3c 0b59 3ebe
00000140: 9ea8 c23d 3f55 8fbe 137c 60be 32cd 08be
00000150: cb53 b9be a205 bfbd 15ab cebd 784c 1b3e
00000160: 0aa0 a7ba f4a2 35bc 4201 103f 2d7a b33d
00000170: 77e9 0cbf 8168 a7be e953 4abe 9929 603e
00000180: 1e4e cdbd a462 fdbd bcef 1c3d e1a4 1b3c
00000190: 3dce e5bd d44b 3f3d 6b21 80be 1de2 f6bd
000001a0: d488 64bc 23b5 5dbd c91f 863b 1c57 133d
000001b0: 2f59 943d 1430 ee3e ad5e e73d 37cc 3e3c
000001c0: c1d8 bfbd b885 613e 970f 5cbe 44d2 19be
000001d0: 7ba7 13be d656 76be c060 7f3c 7b1f 4bbc
000001e0: 5b35 c03e fcee c0bd b78c c2bd 92ff b9bc
000001f0: 4d2c b73e a110 2a3e d410 dd3d 1386 2fbd
00000200: 3f2e 63bd 13ce bd39 9a46 b6be c56d 7cbd
00000210: caeb 693c b62a 013d 775c 853d e518 403e
00000220: b725 32be f418 8e3e e715 cb3d 36d0 a53d
00000230: 1c28 3cbe dd1d ca3d c903 3ebc adea 4bbe
00000240: b0fc 603e dd91 54bd 1fb5 23be 5d9b d6bd
00000250: 5c68 b53d 6360 00be 2ff5 713d 536b 4fbc
00000260: c0e9 85bd 576c 82be 0d7a 41be 7753 d7bc
00000270: 7dba d1bd 15a4 70be 7ad8 22bd e0f4 f03d
00000280: 6670 d5bc 6834 883d 8903 213c fc58 27bd
00000290: a6ff 43be 809c 3dbe e62e dbbd 43f5 1ebe
000002a0: 7b74 003d 753e 173d 2baa 0fbe e141 e9bc
000002b0: 4a33 8abd d7dd 193e 0612 033e 470a 0bbe
000002c0: c842 7d3c 3f52 b2be 5572 823b 3b22 dfbd
000002d0: 3abe ef3b 8dc2 b7bd a886 683e 225a 603c
000002e0: 5afe 843e 189c 43be 3126 01bd 4321 e8bc
000002f0: 52c2 91bd a83a 853d 1627 ec3d fd3c 44be
00000300: 529c 793b 04d7 adbe bf30 883f c122 0c3e
00000310: 71c8 923f 14c2 2b3e 133c efbd 78a3 443e
00000320: 0366 3d3e c005 b5bd e09a 35be fb8a af3d
00000330: d151 55bd fd20 0d3e 28b0 1abf a591 b1bb
00000340: 86ad 4c3e 9ae1 01be ea48 85be 5a28 233e
00000350: f829 6fbe a43f 88bd ef67 483c e230 ff3d
00000360: 6302 67be 002f 8c3e c1b3 72ba 5dfe b63e
00000370: 5c46 dc3e cb14 5f3f 1409 79be 3e8f 3dbd
00000380: 4409 323e 1076 61be 6369 afbe 9721 81bd
00000390: ddc6 123d 21b7 70be fe3e ef3d 07c1 5c3e
000003a0: 1264 923b 1ccd 10be e7ea 46be 8781 a83e
000003b0: d9d5 85bf 5a85 163e 9e26 93be c21b 423f
000003c0: ac11 16bf 8c46 fa3e 6111 8fbe 075e 2fbe
000003d0: 1b3a 8bbd 8afe bf3d bbb8 893f 658d 0ebf
000003e0: 025d 813e c4b7 883e c6ba ac3e 453d 4d3e
000003f0: bf1e 0a3e 7192 c2bd e91c 073e ae1e 363e

lstm.weight_ih_l0_reverse f4 [256, 34]
0.011140367 0.23602416 -0.013450882 0.07475067 -0.018141575 -0.22594993 -0.021905718 -0.13948932
-0.17453098 0.29327554 0.11796261 0.03303013 0.29489663 0.3611059 0.20341185 0.07373241
-0.17593989 0.11528265 -0.22482128 -0.14310862 0.38783062 0.4743529 0.1278845 -0.007907649
0.32487804 0.0005202121 0.21751268 0.31121933 -0.09123661 0.12372967 0.04775004 -0.088373564
0.1869651 -0.17023526 -0.016419875 -0.009735663 0.20339212 0.25274405 -0.42255405 -0.44538462
0.02205185 -0.44080928 -0.43896356 -0.31327227 0.281579 0.72399205 -0.2143717 0.6232478
0.81956637 0.28573462 -0.15630625 0.13605687 -0.35364792 -0.21111158 0.45878452 -0.186499
0.3869142 -0.49252945 0.18506022 -0.22458749 0.09384609 0.7911902 0.50039864 0.6416636
0.40108618 0.19600417 -0.38313487 0.36538476 -0.002964461 -1.3863301 -0.5879219 0.107686944
-0.57615083 -0.38817906 -0.006170462 -0.5507503 -0.62758726 -0.13165586 -0.048042063 -0.18994036
-0.37354815 -0.43399286 -0.340592 -0.21082166 -0.3450663 -0.31620353 -0.37852573 0.34849146
-0.13941336 -0.06696986 -0.5266381 0.2284292 -0.05120403 0.18056846 -0.12977691 -0.061028387
-0.73427045 0.014807865 -0.47746584 -0.223791 0.35881558 -0.30262977 -0.11216307 0.4313786
-0.16464913 0.04979999 0.040350758 0.09467365 -0.07453224 -0.10048894 0.11467837 -0.2941903
-0.21554394 -0.23096403 -0.08643399 -0.04992482 0.06893766 -0.14594147 -0.11627389 -0.16246769
0.09568323 -0.12145797 0.1391674 -0.4978662 0.016149882 -0.25836906 -0.3108449 -0.18666576
-0.23196314 -0.08686103 0.15759745 0.057074465 0.073555514 -0.023197899 -0.1192531 0.23967507
0.06703759 0.61672366 -0.35704398 0.69549805 0.47300422 -0.022813372 0.70668536 0.47760674
0.15546638 -0.1676841 -0.0430989 0.041427508 0.30330035 0.25165528 0.20229569 -0.07452442
0.25031698 -0.105786495 0.64497244 -0.14877042 -0.16179901 0.051232327 0.2962974 -0.090697914
0.030117374 0.030464914 0.11543537 -0.35794017 0.48950115 -0.11496254 0.27076873 0.1304243
-0.051559296 0.14437836 0.15350418 -0.068446696 0.10298037 -0.08861528 0.08739336 -0.06931486
0.123260014 0.09772164 -0.09311392 0.018623125 -0.045912072 -0.06178026 0.083263725 -0.09798843
-0.09029049 0.19079241 0.033997387 0.10284281 0.063615784 -0.047906965 0.1605295 0.022190407
-0.111725345 0.120555654 -0.014089991 0.04012199 0.05527579 0.14316837 -0.02009131 0.022486195
0.10906181 0.037816238 -0.06583013 -0.10269461 -0.028428897 0.11727483 -0.12829831 -0.0020966234
0.10145707 0.14701276 0.013038433 -0.07760895 0.019428948 0.24050055 0.052901287 -0.14241551
0.21192364 0.011021379 -0.18962602 0.108182445 0.11992982 0.043721326 -0.015146431 0.07745919
-0.2657623 0.17141727 0.008818483 -0.02099974 0.2431498 -0.12012457 0.1323041 -0.2627902
-0.004568694 -0.10534552 0.040685482 -0.080179825 -0.07029368 -0.094552904 -0.13113403 0.36195278
-0.5886284 -0.26882958 0.28166485 0.38016662 -0.37072003 0.10101569 0.4150392 0.30521128
0.0661432 -0.042970005 -0.05395772 -0.02453374 -0.10025555 0.20250152 -0.017609077 0.22047344
00000000: 1686 363c 51b0 713e 1761 5cbc e116 993d
00000010: a49d 94bc 6b5f 67be 9f73 b3bc 4ad6 0ebe
00000020: 40b8 32be 3628 963e 6296 f13d 9a4a 073d
00000030: b1fc 963e dfe2 b83e 324b 503e 0501 973d
00000040: 9629 34be 4f19 ec3d 8d37 66be 118b 12be
00000050: bc91 c63e 62de f23e 28f4 023e 158f 01bc
00000060: 6a56 a63e d85e 083a a5bb 5e3e 2458 9f3e
00000070: 43da babd fb65 fd3d 8c95 433d 33fd b4bd
00000080: c773 3f3e 2752 2ebe f982 86bc 5582 1fbc
00000090: 0646 503e ab67 813e 0159 d8be 7409 e4be
000000a0: 15a6 b43c c1b1 e1be d5bf e0be 3965 a0be
000000b0: 1f2b 903e 8b57 393f 4184 5bbe 2b8d 1f3f
000000c0: 1acf 513f cf4b 923e bf0e 20be 7e52 0b3e
000000d0: 5711 b5be a22d 58be cee5 ea3e 98f9 3ebe
000000e0: 9e19 c63e d22c fcbe 6d80 3d3e 43fa 65be
000000f0: 6132 c03d 718b 4a3f 201a 003f 1144 243f
00000100: 2b5b cd3e 51b5 483e 412a c4be b613 bb3e
00000110: 6747 42bb 4473 b1bf 0d82 16bf f98a dc3d
00000120: 9f7e 13bf 68bf c6be 9631 cabb f9fd 0cbf
00000130: 8fa9 20bf cbd0 06be c1c7 44bd ba7f 42be
00000140: b441 bfbe 5034 debe 1362 aebe a2e1 57be
00000150: 88ac b0be 6ee5 a1be 20ce c1be 796d b23e
00000160: 60c2 0ebe 7e27 89bd c1d1 06bf 58e9 693e
00000170: 51bb 51bd f0e6 383e 3de4 04be e7f8 79bd
00000180: 26f9 3bbf b09c 723c 6776 f4be 7829 65be
00000190: adb6 b73e 4af2 9abe c0b5 e5bd a8dd dc3e
000001a0: c899 28be 13fb 4b3d d646 253d 42e4 c13d
000001b0: 5ca4 98bd 25cd cdbd 7edc ea3d 1ca0 96be
000001c0: 8db7 5cbe d681 6cbe 4e04 b1bd f87d 4cbd
000001d0: 302f 8d3d ae71 15be 0121 eebd ee5d 26be
000001e0: 92f5 c33d f5be f8bd e681 0e3e 52e8 febe
000001f0: c24c 843c f348 84be 1027 9fbe 4f25 3fbe
00000200: bf87 6dbe 32e4 b1bd 3a61 213e eac6 693d
00000210: 46a4 963d 8509 bebc f83a f4bd 626d 753e
00000220: 014b 893d 9ae1 1d3f 78ce b6be 290c 323f
00000230: 9c2d f23e 1ce3 babc 55e9 343f df88 f43e
00000240: 9432 1f3e 61b5 2bbe 7988 30bd e4af 293d
00000250: 2f4a 9b3e f6d8 803e 9a26 4f3e 42a0 98bd
00000260: 8c29 803e 97a6 d8bd ea1c 253f 4657 18be
00000270: a4ae 25be fdd8 513d 4bb4 973e d4bf b9bd
00000280: b6b8 f63c 8e91 f93c 6169 ec3d ef43 b7be
00000290: e59f fa3e 7b71 ebbd 33a2 8a3e f38d 053e
000002a0: d72f 53bd ecd7 133e 3330 1d3e c82d 8cbd
000002b0: 5fe7 d23d ee7b b5bd 4afb b23d f3f4 8dbd
000002c0: bf6f fc3d 4822 c83d 83b2 bebd 868f 983c
000002d0: 4c0e 3cbd 4c0d 7dbd 2c86 aa3d 28ae c8bd
000002e0: 38ea b8bd 165f 433e d840 0b3d 409f d23d
000002f0: fe48 823d 183a 44bd d861 243e a8c8 b53c
00000300: 42d0 e4bd e2e5 f63d b5d9 66bc f556 243d
00000310: de68 623d bb9a 123e 8896 a4bc f834 b83c
00000320: cc5b df3d 33e5 1a3d f2d1 86bd 8d51 d2bd
00000330: b8e3 e8bc c92d f03d a260 03be 8167 09bb
00000340: b9c8 cf3d 838a 163e 279f 553c 71f1 9ebd
00000350: 7529 9f3c c745 763e 05af 583d 5fd5 11be
00000360: 8302 593e 0493 343c 532d 42be c28e dd3d
00000370: c49d f53d 2215 333d bc28 78bc eca2 9e3d
00000380: ff11 88be 0288 2f3e 667b 103c a607 acbc
00000390: 43fc 783e df03 f6bd ba7a 073e 708c 86be
000003a0: fcb4 95bb 64bf d7bd d2a5 263d 5235 a4bd
000003b0: 22f6 8fbd f4a4 c1bd 0048 06be e051 b93e
000003c0: 5ab0 16bf 08a4 89be 6036 903e 33a5 c23e
000003d0: 04cf bdbe 50e1 ce3d 0580 d43e a744 9c3e
000003e0: 1676 873d 5101 30bd c502 5dbd fbfa c8bc
000003f0: c852 cdbd 8f5c 4f3e e940 90bc cac3 613e

lstm.weight_hh_l0_reverse f4 [256, 64]
-0.22387359 0.15911011 -0.093123116 -0.06695904 0.123609975 0.28070554 0.062944844 0.28611282
0.13299769 0.008077994 0.0028415632 0.07440232 -0.34038723 -0.03427607 -0.4733247 -0.1301152
0.036538906 -0.0957302 0.23965558 -0.023620043 -0.24871632 0.004454626 -0.15744959 0.025974397
-0.14914556 -0.1368894 0.04521461 0.13134864 0.11597243 0.15687762 -0.05080612 -0.12236182
-0.40160063 0.11466141 0.110675916 -0.37954193 0.06159686 -0.24793643 -0.2826321 0.39308298
0.00870158 0.0077055665 0.07324457 -0.0839719 -0.3382568 0.23795573 -0.10759744 0.19957697
0.32117277 -0.30760536 -0.07980762 0.12807421 -0.0619696 -0.1880469 0.17576735 -0.037659664
0.090524025 -0.18111493 0.03983231 0.046001595 -0.025139248 0.1454663 0.08919146 0.011013117
-0.09758551 -0.30219498 0.1097835 0.05597191 -0.2520587 0.3552144 0.01632321 0.014273678
-0.2753486 0.034850433 0.41253775 -0.03177838 0.059796073 -0.07998987 0.069277935 -0.011834555
-0.1135407 -0.15055622 0.008804042 -0.11708264 -0.03231394 0.112923145 -0.26008365 -0.11209128
-0.04359511 0.015163936 0.08913464 0.06138965 0.16930918 -0.04434429 -0.029984213 0.13460515
-0.10718071 0.4728499 0.3068419 0.061068512 0.022325836 -0.00035159016 -0.16407284 0.2473558
-0.03268859 0.13884175 0.00095346564 -0.23250677 -0.0063804155 0.41081154 -0.01730291 0.26353756
0.32332736 -0.4071665 0.03270811 0.22517942 -0.101836205 0.2872164 -0.16847003 -0.16475002
-0.105822645 0.3075916 -0.009300093 -0.3082134 -0.42673513 0.18255484 -0.012796644 0.042667966
-0.041947313 0.56270677 0.22328451 0.268384 -0.0794157 0.5081453 -0.1269091 -0.024631267
-0.67470056 -0.08204978 0.6063378 -0.12997192 -0.2570462 0.09100872 -0.43829373 -0.009895191
-0.115804054 -0.36402902 0.022669982 -0.0039915703 0.060775526 -0.15680511 -0.4064308 -0.054495
-0.052555945 0.07935152 0.025327826 0.017543463 -0.02155879 0.028012069 0.13127697 -0.054038823
-0.029545853 0.2720222 0.5636963 0.22081037 -0.032693554 0.053916868 -0.16232933 0.061250925
0.08445562 -0.55008537 0.2746603 -0.24399787 -0.17450908 0.3561065 0.18735202 0.4866058
0.32887068 -0.4260847 0.11017288 0.22235817 0.19703943 0.19669501 0.33837453 -0.5755647
-0.12237699 -0.4656166 0.2084089 -0.06479664 -0.009872183 0.029656727 0.07467417 -0.042565227
-0.18032183 -0.10862429 -0.16526282 -0.1156953 -0.13219865 0.10328612 0.0172492 -0.17122541
0.0997221 0.056852948 0.24407783 0.10656349 0.12292705 0.058281 0.10242573 -0.0758069
-0.09025693 0.07230545 0.013778526 0.023659306 -0.36481228 0.19846119 -0.21500619 -0.03112728
-0.50773394 0.12959743 0.0955418 0.23792095 0.1856792 0.2067412 0.02951197 0.21784365
0.04590968 0.0770995 0.27537987 -0.27166966 -0.15114927 -0.21700653 -0.009802609 0.16998558
0.03294763 0.001526933 0.14561294 -0.4213461 -0.47557688 0.09710331 -0.15361108 0.021862881
-0.21642694 -0.11559583 -0.08288032 -0.28768072 0.11701398 -0.68095386 -0.033788208 -0.024328375
0.20234707 0.38528955 0.22465637 -0.09250291 -0.28337678 0.19154854 -0.17251034 -0.27481437
00000000: 1e3f 65be c3ed 223e 55b7 bebd d221 89bd
00000010: 3a27 fd3d a3b8 8f3e 3ae9 803d 617d 923e
00000020: 8c30 083e 9059 043c 8539 3a3b 3e60 983d
00000030: 3c47 aebe 1065 0cbd 9d57 f2be eb3c 05be
00000040: d2a9 153d 320e c4bd 4668 753e d27e c1bc
00000050: 7eaf 7ebe 1cf8 913b 773a 21be 42c8 d43c
00000060: 9db9 18be bc2c 0cbe f432 393d 4280 063e
00000070: f482 ed3d 87a4 203e 141a 50bd d598 fabd
00000080: 999e cdbe 9ad3 ea3d 0eaa e23d 5253 c2be
00000090: fd4c 7c3d 0ce3 7dbe 28b5 90be 2c42 c93e
000000a0: 1291 0e3c fa7e fc3b 4001 963d 76f9 abbd
000000b0: ff2f adbe abaa 733e 0c5c dcbd e85d 4c3e
000000c0: c270 a43e 737e 9dbe 2d72 a3bd e325 033e
000000d0: d6d3 7dbd 5e8f 40be 5bfc 333e 0541 1abd
000000e0: a964 b93d 3176 39be 3427 233d 2b6c 3c3d
000000f0: d3f0 cdbc 1ef5 143e 03aa b63d 5c70 343c
00000100: e9da c7bd 4db9 9abe 2cd6 e03d cd42 653d
00000110: d70d 81be a9de b53e 41b8 853c 25dc 693c
00000120: 7efa 8cbe 54bf 0e3d 2638 d33e 0c2a 02bd
00000130: baec 743d bbd1 a3bd 97e1 8d3d b9e5 41bc
00000140: 0788 e8bd 692b 1abe d43e 103c 06c9 efbd
00000150: 9f5b 04bd 4044 e73d af29 85be 1d90 e5bd
00000160: c990 32bd 2872 783c 398c b63d b773 7b3d
00000170: 635f 2d3e 5ca2 35bd 74a1 f5bc efd5 093e
00000180: 8f81 dbbd 6219 f23e 621a 9d3e fa22 7a3d
00000190: ace4 b63c a255 b8b9 b602 28be d74a 7d3e
000001a0: 79e4 05bd 882c 0e3e fff1 793a 4116 6ebe
000001b0: ce12 d1bb e455 d23e d5be 8dbc 65ee 863e
000001c0: 2a8b a53e 2178 d0be f0f8 053d 6f95 663e
000001d0: 808f d0bd 070e 933e 6883 2cbe 3bb4 28be
000001e0: 8bb9 d8bd a57c 9d3e 6b5f 18bc 26ce 9dbe
000001f0: 077d dabe a8ef 3a3e 04a9 51bc 9bc4 2e3d
00000200: f2d0 2bbd 8d0d 103f b2a4 643e a169 893e
00000210: b3a4 a2bd cf15 023f 76f4 01be 83c7 c9bc
00000220: 2db9 2cbf b709 a8bd f438 1b3f 5c17 05be
00000230: 8f9b 83be c862 ba3d 0968 e0be 701f 22bc
00000240: ad2a edbd 0362 babe 66b6 b93c b8cb 82bb
00000250: c2ef 783d 8591 20be b317 d0be 2636 5fbd
00000260: e744 57bd 0d83 a23d 4d7c cf3c 4fb7 8f3c
00000270: 0f9c b0bc 9179 e53c 786d 063e d057 5dbd
00000280: 250a f2bc 7e46 8b3e 674e 103f 1d1c 623e
00000290: ade9 05bd efd7 5c3d a939 26be 40e2 7a3d
000002a0: 11f7 ac3d 65d2 0cbf 46a0 8c3e 94da 79be
000002b0: 82b2 32be 9753 b63e 35d9 3f3e 6524 f93e
000002c0: bd61 a83e c627 dabe 52a2 e13d dcb1 633e
000002d0: b4c4 493e 6b6a 493e 6d3f ad3e 3558 13bf
000002e0: caa0 fabd 4d65 eebe 2569 553e 1ab4 84bd
000002f0: f0be 21bc aaf2 f23c c5ee 983d e058 2ebd
00000300: 49a6 38be 6976 debd a83a 29be a8f1 ecbd
00000310: 155f 07be ac87 d33d 324e 8d3c b755 2fbe
00000320: 1a3b cc3d a3de 683d 8aef 793e f63d da3d
00000330: 2dc1 fb3d 0fb8 6e3d 95c4 d13d a640 9bbd
00000340: a0d8 b8bd e114 943d 54bf 613c 29d1 c13c
00000350: adc8 babe 6939 4b3e 952a 5cbe a3fe febc
00000360: dafa 01bf 30b5 043e 6bab c33d 8da1 733e
00000370: b022 3e3e f7b3 533e 16c3 f13c 6812 5f3e
00000380: ca0b 3c3d 58e6 9d3d 97fe 8c3e 4918 8bbe
00000390: e0c6 1abe f636 5ebe 1f9b 20bc b310 2e3e
000003a0: 18f4 063d 5f23 c83a 8f1b 153e adba d7be
000003b0: d07e f3be 1ade c63d 394c 1dbe c919 b33c
000003c0: 069f 5dbe 82bd ecbd 28bd a9bd e34a 93be
000003d0: 07a5 ef3d fe52 2ebf 8165 0abd 4d4c c7bc
000003e0: 1234 4f3e ac44 c53e 520c 663e 2a72 bdbd
000003f0: c316 91be 4d25 443e 8da6 30be 78b4 8cbe

lstm.bias_ih_l0_reverse f4 [256]
-0.11232342 -0.27849022 -0.30944845 -0.11181096 0.2916238 0.34614298 0.069157235 -0.024169652
-1.274841 -0.1998502 0.07234419 0.065292805 0.0943628 0.1455291 0.20965038 0.12717232
-0.008223106 0.06682326 -0.17999576 0.0545983 0.0024027186 -0.17479824 0.5883899 -0.28459725
0.11477058 0.09171161 0.01268675 0.10919057 0.19078526 -0.000249701 -0.22899494 -0.13830507
-0.083836935 0.18630189 0.1436499 -0.09313902 0.047121536 0.07119331 -0.6402413 0.15769117
0.12612033 -0.14171249 -0.09646409 -0.081774555 -0.25033063 0.10900092 -0.14704536 0.049308095
0.26901197 0.5580135 -0.013819849 0.07264655 -0.048987724 0.18453538 0.4839971 0.09149941
-0.1427367 0.09973025 -0.43051252 -0.15010405 -0.1883631 0.1507358 -0.025883248 -0.09683747
-0.18009537 -0.20334128 -0.15901881 -0.041954953 0.18705687 0.4867182 0.04147643 0.03928186
-0.028080326 -0.0023761154 0.043279782 0.10363268 0.048932165 0.33516678 0.02370347 0.06285043
-0.06933032 0.030572273 -0.0040911944 -0.10851484 -0.13618651 0.1535175 0.0073886206 -0.0036495205
-0.1978308 -0.26428533 -0.017723314 0.29278466 0.11527628 0.012359166 0.18271442 -0.13820353
-0.07852838 0.1154984 0.048644524 -0.11927333 -0.040653154 -0.011759391 0.13899879 0.20946997
0.017380359 -0.28346607 0.12660687 -0.36220434 -0.15638591 0.069767274 0.12820819 0.060132917
0.055385076 -0.045242142 0.02710958 -0.047941994 -0.15763636 0.09152202 -0.2393058 0.16859595
-0.089319706 0.33606505 -0.014279418 -0.27059492 -0.17335728 -0.031413622 -0.07486036 0.021189718
0.24766648 -0.3669778 -0.017417703 -0.20091805 0.024143945 -0.26820132 -0.1987795 -0.054972738
-0.3652941 0.15922594 -0.030583046 0.09131489 0.51921713 -0.19239429 -0.0017649729 0.15761925
0.04791502 0.0019807408 -0.012799348 -0.012666429 0.22949883 -0.17783742 0.24879843 -0.010392684
0.20968758 0.11408446 0.0035459795 -0.1484255 0.039646536 0.014821643 -0.15846665 0.1705704
0.01150069 -0.1459213 0.07358065 0.11050317 0.03464404 -0.08571629 -0.013370225 -0.19158716
0.008072577 -0.05122005 0.030729562 0.054554943 0.11360422 -0.17572722 -0.15897053 0.028062839
-0.938834 0.096761204 -0.21440949 0.1000439 -0.20812629 -0.12037194 -0.009127799 0.18296534
-0.12865973 -0.16111171 -0.026081612 0.082614526 0.1866065 -0.107960396 -0.19371203 0.18144917
-0.09963934 -0.6577017 -0.6122443 -0.013456022 -0.07225585 0.44868693 -0.0023886915 -0.0638534
-0.49102458 -0.07803246 0.2546355 0.06148916 0.07418804 0.19944899 -0.18917356 -0.12450352
-0.40749493 -0.34891763 -0.041364055 -0.005021325 -0.0072944527 0.13728108 0.19662052 -0.24793756
0.13599977 -0.104784645 -0.35081112 -0.0042024394 0.4002386 0.0897336 0.10740113 0.35935774
0.15429889 0.5022351 -0.85389453 1.1936607 -0.18089333 0.44904882 -0.6401195 0.25240844
-0.039152313 -0.06676028 -0.70598197 -0.5772113 0.4277488 0.22788599 -0.028435243 0.45923236
0.19120349 -0.009404138 0.07065042 0.10196758 0.09692007 0.34937638 0.28648844 0.22150801
-0.037263207 0.16622385 -0.18575752 -0.39149597 1.0407262 -0.123333275 0.1974725 0.030330075
00000000: d209 e6bd 4596 8ebe 0770 9ebe 25fd e4bd
00000010: b74f 953e a739 b13e 4fa2 8d3d 6fff c5bc
00000020: fd2d a3bf 88a5 4cbe 3129 943d 3cb8 853d
00000030: 4941 c13d 9505 153e 97ae 563e 7639 023e
00000040: 35ba 06bc a2da 883d cf50 38be 78a2 5f3d
00000050: ee76 1d3b 4ffe 32be b8a0 163f bbb6 91be
00000060: d60c eb3d 4cd3 bb3d 16dc 4f3c 4e9f df3d
00000070: 365d 433e 4dea 82b9 a67d 6abe d89f 0dbe
00000080: b3b2 abbd ecc5 3e3e f618 133e acbf bebd
00000090: 8302 413d cccd 913d dbe6 23bf cb79 213e
000000a0: b025 013e 141d 11be f78e c5bd 6b79 a7bd
000000b0: 562b 80be e03b df3d 0f93 16be 49f7 493d
000000c0: f0bb 893e f9d9 0e3f a66c 62bc b7c7 943d
000000d0: 5aa7 48bd d8f6 3c3e 78ce f73e 0b64 bb3d
000000e0: 9229 12be 603f cc3d 236c dcbe e0b4 19be
000000f0: 42e2 40be 7c5a 1a3e 1b09 d4bc b952 c6bd
00000100: ec6a 38be b238 50be d4d5 22be f5d8 2bbd
00000110: d68b 3f3e 2133 f93e 30e3 293d 04e6 203d
00000120: b608 e6bc 9ab8 1bbb 2446 313d 5f3d d43d
00000130: 186d 483d fb9a ab3e c82d c23c bab7 803d
00000140: 0efd 8dbd b472 fa3c 6d0f 86bb 073d debd
00000150: 7a74 0bbe b133 1d3e 3e1c f23b cb2c 6fbb
00000160: 2894 4abe 6850 87be 7c30 91bc dfe7 953e
00000170: f815 ec3d 197e 4a3c 7d19 3b3e 3a85 0dbe
00000180: 7dd3 a0bd 6d8a ec3d 7b3f 473d 9345 f4bd
00000190: ec83 26bd 76aa 40bc b355 0e3e 4c7f 563e
000001a0: 4161 8e3c 7722 91be 3ba5 013e d972 b9be
000001b0: a123 20be 25e2 8e3d 0249 033e ef4d 763d
000001c0: 76db 623d d34f 39bd e914 de3c d35e 44bd
000001d0: 6d6b 21be e66f bb3d 940c 75be 6ba4 2c3e
000001e0: 40ed b6bd b810 ac3e 38f4 69bc 6b8b 8abe
000001f0: 9284 31be 92ab 00bd 6350 99bd 0f96 ad3c
00000200: 489c 7d3e 84e4 bbbe 92af 8ebc 76bd 4dbe
00000210: 86c9 c53c af51 89be da8c 4bbe 182b 61bd
00000220: d407 bbbe 200c 233e 4c89 fabc 4d03 bb3d
00000230: 6aeb 043f 0203 45be aa56 e7ba f166 213e
00000240: 8a42 443d 51cf 013b 5bb4 51bc db86 4fbc
00000250: be01 6b3e 031b 36be 04c5 7e3e 1346 2abc
00000260: 57b8 563e 1da5 e93d aa63 683b dbfc 17be
00000270: 6864 223d 7ad6 723c 1545 22be 02aa 2e3e
00000280: 646d 3c3c 656c 15be 74b1 963d 7c4f e23d
00000290: e9e6 0d3d 068c afbd ca0e 5bbc 6d2f 44be
000002a0: d842 043c 1dcc 51bd 90bc fb3c 0175 5f3d
000002b0: 54a9 e83d d6f1 33be 2cc9 22be 0ae4 e53c
000002c0: 6d57 70bf bd2a c63d 298e 5bbe d1e3 cc3d
000002d0: 0f1f 55be 9085 f6bd c48c 15bc 445b 3b3e
000002e0: 60bf 03be 78fa 24be 1ba9 d5bc ce31 a93d
000002f0: c615 3f3e 571a ddbd 725c 46be d0cd 393e
00000300: b60f ccbd 235f 28bf 0bbc 1cbf a676 5cbc
00000310: e0fa 93bd 4bba e53e 988b 1cbb 92c5 82bd
00000320: 9367 fbbe 7bcf 9fbd 965f 823e 0fdc 7b3d
00000330: e6ef 973d 5b3c 4c3e b7b6 41be b4fb febd
00000340: 2da3 d0be 55a5 b2be 5b6d 29bd ed89 a4bb
00000350: 4e06 efbb 6993 0c3e e456 493e 58e3 7dbe
00000360: 8643 0b3e 5599 d6bd 849d b3be 9eb4 89bb
00000370: 13ec cc3e 40c6 b73d 20f5 db3d bdfd b73e
00000380: 8700 1e3e 7b92 003f d598 5abf e0c9 983f
00000390: 1a3c 39be bae9 e53e dfde 23bf ae3b 813e
000003a0: 2d5e 20bd 9db9 88bd 3cbb 34bf 1fc4 13bf
000003b0: e401 db3e f25a 693e 07f1 e8bc 8120 eb3e
000003c0: d9ca 433e d013 1abc 2bb1 903d 61d4 d03d
000003d0: 087e c63d 76e1 b23e 9dae 923e ffd2 623e
000003e0: 4ea1 18bd 9636 2a3e 3837 3ebe 2972 c8be
000003f0: 8436 853f 2896 fcbd 3b36 4a3e c776 f83c

lstm.bias_hh_l0_reverse f4 [256]
-0.26025945 -0.25991717 -0.38770893 -0.0866368 0.3063074 0.15507664 0.26824513 0.00018268991
-1.2754403 -0.13912061 -0.0936993 -0.1273687 0.20877257 0.27365202 0.051652893 0.07525607
0.0070934505 0.101655476 -0.09425749 0.13272549 -0.12700006 0.050240427 0.61458194 -0.18339388
0.27422324 0.09173809 -0.12050137 0.09218012 0.2486234 -0.12339102 -0.21931311 -0.18477003
-0.10153936 0.21702152 0.17123488 -0.11832099 0.03371662 -0.13102052 -0.48908243 0.13637102
-0.025181111 -0.17924061 -0.08515895 -0.089873575 -0.25979498 0.09970549 0.027150603 0.03590791
0.15043335 0.5954345 -0.14245267 0.13987526 -0.0628521 0.015792126 0.35763732 0.06962209
-0.19229555 -0.052978624 -0.27870506 -0.15894565 -0.07219756 0.17447194 0.011747295 -0.082471065
-0.22199348 -0.1538707 -0.2364732 -0.029894548 0.08722104 0.3869613 0.06867612 -0.1898883
0.007841528 -0.13131684 0.03423503 -0.059388738 0.08944152 0.1306361 -0.07523146 0.12589064
-0.06640321 -0.14015102 0.009340828 -0.047560684 -0.13082227 0.060637273 -0.13696525 0.033222023
-0.2660892 -0.07108646 -0.043202482 0.20308557 0.0060460465 0.07034983 0.08167858 -0.30376592
-0.08816626 0.011926293 -0.12764049 -0.06489855 -0.19395146 0.081156924 -0.04995091 0.28368127
0.043434773 -0.11172933 0.11394534 -0.38411388 -0.00029240127 0.055471182 0.017287727 0.0311968
0.0107820025 -0.043908957 -0.0736258 -0.026285566 0.023847597 -0.11042195 -0.06750739 0.059276424
0.070777446 0.48641372 -0.08742709 -0.17979848 -0.27633864 -0.028532838 0.13389024 -0.023882767
0.20279846 -0.5602963 -0.22926663 -0.20909485 0.012054775 -0.22947833 -0.11992957 -0.18362848
-0.15364638 0.057237733 -0.004140181 0.10204861 0.5133849 -0.2794802 0.112601705 0.16478537
-0.06815702 0.06984949 0.16761227 0.14015108 0.27128175 -0.18577592 0.16741802 0.05269032
0.041388724 0.18772481 -0.042221267 -0.206809 0.12933372 -0.02371932 -0.10708379 0.17287533
0.008198724 -0.12443366 -0.034720507 0.1470926 -0.03371948 -6.0531015e-06 -0.010680675 -0.016932482
0.015088886 0.036576282 0.020514235 -0.009288594 0.1101747 -0.15732294 -0.066242196 -0.17340562
-1.0756238 0.08435459 -0.007168006 -0.117355354 -0.2536598 -0.09090801 0.083392315 0.1566345
0.06312886 -0.1001194 -0.11490307 -0.043898568 0.26695266 0.021643449 -0.2357127 0.09493176
-0.16459912 -0.62187296 -0.4980266 0.008864971 -0.15121661 0.27488387 0.015138473 -0.15500641
-0.70183516 -0.28432557 0.070655644 0.0577211 -0.0790457 0.22961183 -0.02394433 -0.006864737
-0.31230232 -0.22716627 -0.17419115 -0.0116278175 -0.08510832 0.023013545 0.09102433 -0.20429637
0.27116352 -0.081134684 -0.20502569 -0.0045745634 0.40555766 0.1358087 0.05970612 0.21684755
0.083397724 0.44272733 -0.9005323 1.2118495 -0.021392588 0.3939203 -0.7450636 0.34731868
-0.06123044 -0.07338885 -0.7723175 -0.68496615 0.492968 0.1905132 -0.11347179 0.28642872
-0.03901194 -0.012151349 -0.042195227 0.06790421 0.11867684 0.28227788 0.072114095 0.31950364
-0.021417864 0.2547626 -0.13187662 -0.43318495 1.1048236 -0.15929864 0.16324352 0.026989497
00000000: ba40 85be dd13 85be c981 c6be a26e b1bd
00000010: 53d4 9c3e 69cc 1e3e 6d57 893e 7390 3f39
00000020: a141 a3bf a275 0ebe 6be5 bfbd f16c 02be
00000030: 7ac8 553e 1e1c 8c3e fc91 533d db1f 9a3d
00000040: 2d70 e83b bf30 d03d 120a c1bd 31e9 073e
00000050: 4e0c 02be e8c8 4d3d 3e55 1d3f 9bcb 3bbe
00000060: fd66 8c3e 2ee1 bb3d 6cc9 f6bd eec8 bc3d
00000070: 2297 7e3e 6eb4 fcbd 9e93 60be 5b34 3dbe
00000080: def3 cfbd e43a 5e3e 3258 2f3e 4652 f2bd
00000090: 701a 0a3d 3e2a 06be 0369 fabe d8a4 0b3e
000000a0: 9e48 cebc da8a 37be d167 aebd a30f b8bd
000000b0: d903 85be 6432 cc3d f16a de3c 2c14 133d
000000c0: 330b 1a3e 656e 183f 1ddf 11be 763b 0f3e
000000d0: 9ab8 80bd 7d5e 813c 3d1c b73e 0796 8e3d
000000e0: 20e9 44be 1d00 59bd 6eb2 8ebe a6c2 22be
000000f0: 50dc 93bd c6a8 323e ba77 403c 97e6 a8bd
00000100: 4252 63be 4890 1dbe 0826 72be 69e5 f4bc
00000110: f2a0 b23d cb1f c63e 11a6 8c3d 1472 42be
00000120: c179 003c ec77 06be 083a 0c3d 9b41 73bd
00000130: 1e2d b73d 78c5 053e f412 9abd 7ae9 003e
00000140: 68fe 87bd c083 0fbe 460a 193c fece 42bd
00000150: 46f6 05be ca5e 783d 9e40 0cbe d113 083d
00000160: d83c 88be c795 91bd 16f5 30bd aaf5 4f3e
00000170: ea1d c63b 9213 903d 1947 a73d 3587 9bbe
00000180: 8390 b4bd 8066 433c 30b4 02be 88e9 84bd
00000190: 369b 46be 9a35 a63d 5399 4cbd ac3e 913e
000001a0: a9e8 313d 59d2 e4bd 2d5c e93d 93aa c4be
000001b0: 6f4d 99b9 c035 633d fe9e 8d3c 6e90 ff3c
000001c0: ffa6 303c e1d9 33bd 20c9 96bd d454 d7bc
000001d0: 095c c33c e724 e2bd 5141 8abd d6cb 723d
000001e0: c4f3 903d 380b f93e f90c b3bd 181d 38be
000001f0: 427c 8dbe b3bd e9bc 861a 093e cba5 c3bc
00000200: 66aa 4f3e 946f 0fbf dfc4 6abe f61c 56be
00000210: 6481 453c 5efc 6abe a29d f5bd 1b09 3cbe
00000220: 7a55 1dbe 1d72 6a3d 5baa 87bb ddfe d03d
00000230: 316d 033f 0718 8fbe b99b e63d 7fbd 283e
00000240: e895 8bbd 400d 8f3d 8da2 2b3e c483 0f3e
00000250: 71e5 8a3e 0b3c 3ebe a16f 2b3e ced1 573d
00000260: 3987 293d ef3a 403e 35f0 2cbd bdc5 53be
00000270: 0f70 043e 054f c2bc bf4e dbbd 3b06 313e
00000280: f153 063c 13d7 febd 1737 0ebd 719f 163e
00000290: 701d 0abd bf1b cbb6 fffd 2ebc fdb5 8abc
000002a0: 6037 773c 03d1 153d 780d a83c 302f 18bc
000002b0: 46a3 e13d 4419 21be fda9 87bd 3e91 31be
000002c0: 0aae 89bf 19c2 ac3d 98e1 eabb 0158 f0bd
000002d0: b3df 81be fb2d babd 97c9 aa3d cb64 203e
000002e0: b449 813d 660b cdbd 4d52 ebbd fcce 33bd
000002f0: 05ae 883e 9a4d b13c ac5e 71be 956b c23d
00000300: ac8c 28be 1133 1fbf 58fd febe 623e 113c
00000310: 87d8 1abe 94bd 8c3e 5c07 783c 00ba 1ebe
00000320: 78ab 33bf 1f93 91be e8b3 903d f66c 6c3d
00000330: b6e2 a1bd 5d1f 6b3e e626 c4bc 96f1 e0bb
00000340: 17e6 9fbe 469e 68be 2a5f 32be 9a82 3ebc
00000350: 454d aebd e786 bc3c f76a ba3d 1133 51be
00000360: f2d5 8a3e f129 a6bd 41f2 51be 38e6 95bb
00000370: 41a5 cf3e 7011 0b3e 688e 743d 490d 5e3e
00000380: 6dcc aa3d 28ad e23e 4989 66bf e21d 9b3f
00000390: 823f afbc ecaf c93e 7dbc 3ebf c1d3 b13e
000003a0: c5cc 7abd e54c 96bd 9ab6 45bf f159 2fbf
000003b0: 4d66 fc3e e415 433e e663 e8bd c9a6 923e
000003c0: fcca 1fbd 7416 47bc e7d4 2cbd 5d11 8b3d
000003d0: d80c f33d ba86 903e 8eb0 933d fb95 a33e
000003e0: 8474 afbc 3e70 823e aa0a 07be 6bca ddbe
000003f0: dc6a 8d3f 2f1f 23be 4f29 273e 1419 dd3c
