Competition/TrainAI/model/c/BILSTMGRU_weights.pth (torch, 239871 bytes, 10 tensors)

lstm.weight_ih_l0 f4 [256, 34]
000000 ed de ab bc af e5 c8 bd 69 f1 db bd 3b 04 de 3c
       -0.020980323 -0.09809434 -0.10739405 0.027101627
000010 f3 a6 e0 3d 5d bf e7 3d 43 3f 5e 3d df b3 2b bc
       0.10969343 0.113157965 0.05425955 -0.010479896
000020 4a bc cb bd a9 1f 15 3d 43 1c 05 bd 4e 8a 17 3d
       -0.09948023 0.036407147 -0.032497656 0.036997132
000030 0a df 7b 3d b5 4d 5c bd b2 db db 3d ac f1 5a bd
       0.061492004 -0.053785045 0.10735263 -0.053453133
000040 e7 36 4e bb f8 e2 f7 bd a7 18 ee bd 1d 04 ee 3d
       -0.003146583 -0.12103838 -0.11625796 0.11621878
000050 a9 41 3b bc a6 a0 b0 3d 5e 52 e5 3d 68 2a 4e 3d
       -0.011429229 0.08624391 0.11197351 0.05033341
000060 3d ca e8 bb 59 9c 92 bd 8a 69 e1 bc 59 c1 c7 bd
       -0.007104187 -0.07158727 -0.027516145 -0.09753675
000070 1c bf ac bd 37 61 bf bd 0b 1c 69 ba b2 f2 86 3c
       -0.08434889 -0.09344714 -0.00088924234 0.016473148
000080 2c 75 d9 3d 8c e5 a4 3d 13 97 e5 bc b2 8a 9c 3d
       0.10618052 0.08051595 -0.02802614 0.076436415
000090 db 08 df bd ed 04 01 3e 60 a8 b7 bd 54 d6 57 3d
       -0.10890361 0.12599535 -0.08967662 0.052694634
0000a0 e4 56 1d bd e0 e8 e0 3b cf a5 32 bd 3b 58 e0 3d
       -0.038412943 0.0068636984 -0.04361516 0.109543286
0000b0 52 85 76 3c 40 3f 82 bd d8 81 9c bd 4f 29 7d bd
       0.0150464345 -0.0635972 -0.07641953 -0.061806973
0000c0 ef d2 3e bd c6 82 47 3c 11 d1 11 3c 27 5f ef bd
       -0.04658788 0.012177175 0.008899943 -0.11688071
0000d0 26 3c dc bc a9 0c 0d bd aa c8 40 bd e9 6e f1 bd
       -0.02688415 -0.0344359 -0.04706637 -0.117887326
0000e0 a0 6f de 3d 02 9f cf 3c a8 a0 f2 3c 93 4f 95 39
       0.108611345 0.025344376 0.029617622 0.00028478782
0000f0 98 54 55 bb 88 ca 3b bc ed 40 8a bd 4e fa 91 bd
       -0.0032551643 -0.011461861 -0.06750665 -0.0712782
000100 1e 81 ed bd 8e ac 78 bd 65 40 2f 3d 81 b5 91 bd
       -0.11596893 -0.060711436 0.04278602 -0.07114697
000110 2d ac d1 3d 67 f2 11 3b d9 d9 35 3d 02 5c 92 3d
       0.10237918 0.0022269727 0.04439721 0.07146455
000120 40 cd 84 3d c3 cd ac bd 98 ba d8 3d 50 65 18 bb
       0.06484461 -0.084376834 0.10582465 -0.0023253746
000130 54 ab 3d 3d dd de 9a 3d 85 b5 17 bb 2e d4 32 3d
       0.04630597 0.07562039 -0.0023148966 0.04365938
000140 33 36 a6 bb ce 02 85 3d 1d 52 f6 ba b8 db c2 3d
       -0.005072379 0.064946756 -0.0018792782 0.09514564
000150 2f a5 b7 3d 62 b4 d7 3d 6e af 81 3d c4 6d c7 bb
       0.08967053 0.10532452 0.06332289 -0.006086083
000160 4a 58 d9 bd 0c bc 7a 3d f8 e2 05 be bc 43 e2 3c
       -0.10612543 0.06121449 -0.13074863 0.027620189
000170 09 d8 50 3d f5 94 e5 3d 23 1e f9 bd f8 48 dd 3d
       0.050987277 0.11210052 -0.12163951 0.10804933
000180 59 ac b0 3d af a8 99 3c 89 43 19 bd fc 82 be 3d
       0.08626623 0.018757192 -0.037417922 0.09302327
000190 40 90 e5 bc ea 8f e9 3d 8d 1b f5 bd 82 e8 a7 3d
       -0.028022885 0.114044026 -0.119681455 0.08198644
0001a0 6c 4e f5 bc 5a a2 dc bd 38 d9 3d bd 6e f1 bc 3d
       -0.029944621 -0.107731536 -0.046349734 0.092257366
0001b0 28 40 e7 bd 69 fa 97 3d 32 7d ca bc 17 a1 de 3d
       -0.11291534 0.07420809 -0.0247179 0.10870569
0001c0 9f 10 7a 3d de 46 7f 3d d0 e5 45 3d 95 49 65 3d
       0.061051007 0.062323444 0.04831487 0.055978376
0001d0 2f ca 87 3d 88 d3 a0 3d a2 4e 3b 3b 50 50 87 bd
       0.0663036 0.078528464 0.0028580804 -0.06607115
0001e0 e9 04 bb 3d 31 89 9a 3d 05 b4 d2 bd 18 69 89 3d
       0.09131796 0.075456984 -0.10288242 0.06709498
0001f0 b4 e1 a3 3c 4a 95 93 bd 8d fa d9 3d 40 d1 c4 bd
       0.020005085 -0.07206209 0.10643492 -0.09610224
000200 56 21 9e bd 5b 4a d6 bc 2f 82 c4 3d 1a 52 cf bc
       -0.07721202 -0.026158502 0.09595143 -0.025307704
000210 99 3e 13 bc 88 8f 33 3d d8 46 cd bd 5c e5 44 bd
       -0.008987092 0.043838054 -0.10023278 -0.048070297
000220 e7 f9 e1 3d 38 46 d3 3d 85 a0 5b 3c 5f a3 c2 bd
       0.11033993 0.103161275 0.01340497 -0.09503817
000230 e0 93 c7 bd 80 49 a4 3d 5c e8 e1 bd 5c 92 91 bd
       -0.09745002 0.080218315 -0.11030647 -0.07107994
000240 fa 6c bd bd 38 ee 91 bd f0 96 d4 bd 61 8a b4 bc
       -0.09249301 -0.07125515 -0.103803515 -0.02203864
000250 37 7b e5 3b d5 f3 a8 bd d8 26 ac 3c 4f da c2 bd
       0.0070032137 -0.08249632 0.021014616 -0.09514295
000260 58 ea 99 bb 43 ac e8 bc 73 6a 69 3d 94 89 05 bc
       -0.0046971254 -0.028402453 0.056986284 -0.008150477
000270 2f b5 d0 bd ca 00 1a 3d 9e b3 90 3d fd b1 00 bb
       -0.10190808 0.03759841 0.07065509 -0.001963734
000280 54 58 c5 3c 03 ba cf 3d d1 96 95 bd a4 3b 91 bd
       0.02408997 0.10142901 -0.073041566 -0.07091454
000290 96 23 2f 3b 5b f8 dd 3d 37 ac d5 3d b2 59 fc bd
       0.0026724092 0.10838386 0.10433238 -0.123217955
0002a0 70 47 73 3d e0 70 28 bd cd 63 2b 3d d9 bd d3 bd
       0.0593943 -0.04112327 0.041843224 -0.10338945
0002b0 4b d1 14 3d 36 0c b6 bd c4 d1 9b bd 30 59 a5 3d
       0.03633241 -0.08889048 -0.07608369 0.08073652
0002c0 e3 b1 7b bd 64 cc b9 3d 5a 58 b3 3d fd 73 bd 3d
       -0.061448943 0.090721875 0.08757086 0.09250639
0002d0 f4 5c af bd 79 b0 1b bd e1 6c ce bd 8f 40 e2 bd
       -0.08562651 -0.038010094 -0.10079361 -0.1104747
0002e0 00 45 e2 bc 3e d0 7d bd b2 6c 04 3e 66 1e 2c 3d
       -0.027620792 -0.061966173 0.12932089 0.042021178
0002f0 3f 26 7c bd e3 ba 3c bd 26 ec 86 bd 40 b9 05 3a
       -0.06155991 -0.046076667 -0.065880105 0.0005101152
000300 e5 0a 13 3c 9d 70 28 3d 46 61 40 bd 47 60 63 3d
       0.008974765 0.04112302 -0.046967767 0.05551174
000310 d5 2e 2d bd 29 dd ad bc 2e 21 29 3d 94 47 94 bd
       -0.04228099 -0.021223621 0.04129141 -0.07240215
000320 8c 6a e0 3d f8 61 f7 bc 54 8b 50 3d 42 e4 fe bd
       0.10957822 -0.030198082 0.050914124 -0.124458805
000330 ca 51 7f bd 71 29 bb bd 9e 20 bb 3c 0f 1d 81 bd
       -0.06233386 -0.09138764 0.022842702 -0.063043706
000340 a4 16 e3 bd 50 07 b6 3d 7a 7c 6b bd e4 88 0b bd
       -0.11088303 0.088881135 -0.057491757 -0.034066096
000350 9b d6 90 3d 91 56 81 3d eb 8a 45 bc 7d 49 92 3d
       0.07072183 0.06315339 -0.012057046 0.07142923
000360 08 86 51 3d a3 bb 52 bd 84 f0 3e 3d 29 63 ab 3d
       0.051153213 -0.051448476 0.046616092 0.08368523
000370 45 df a0 3d b9 29 73 bd 08 22 8a bd 67 44 d0 b9
       0.07855085 -0.05936596 -0.06744772 -0.00039723815
000380 72 24 e3 3d 9f 79 f5 bd f6 78 ef 3d 1c 31 a8 bd
       0.11090936 -0.11986088 0.11692993 -0.08212492
000390 b7 af 91 bd bf 70 c9 bc a6 c8 7f 3d 60 bc c1 bd
       -0.07113593 -0.024589894 0.062447213 -0.09459758
0003a0 c7 7f d2 bc 81 1a bc 3d 6f 48 a2 bd b8 e8 23 bd
       -0.025695695 0.09184743 -0.07923972 -0.04001686
0003b0 c2 72 82 3d b7 c1 a1 3d 78 7e d1 3d 84 72 96 bd
       0.063695446 0.07898276 0.102292 -0.07346061
0003c0 80 87 84 3c 54 b8 ec 3d e3 0c 98 bd 1e 73 4a bc
       0.016177893 0.11558595 -0.07424333 -0.012356548
0003d0 75 b0 2a 3a 91 89 cb bd b7 87 12 bd 60 97 56 3d
       0.00065112795 -0.09938348 -0.03577396 0.052390456
0003e0 6d 2d 60 bc dc 78 a7 bd 1f da da bd 8b 18 e9 3b
       -0.013682705 -0.08177349 -0.106861345 0.0071135215
0003f0 ed 1e df 3d 53 00 e0 3d 40 36 a5 bc a0 25 69 bd
       0.108945705 0.10937562 -0.02016747 -0.056920648

lstm.weight_hh_l0 f4 [256, 64]
000000 a7 e3 a1 3c 77 9c c0 3d 78 3e 86 3d 35 a4 42 bd
       0.019761873 0.09404843 0.06554884 -0.04751988
000010 66 26 a0 bc 1e 2b 11 bd d0 cb cd 3b fc c7 83 bc
       -0.01954956 -0.03544151 0.0062804 -0.01608657
000020 37 48 11 3d 55 ee d3 bd e6 0b 59 bd 92 70 03 be
       0.03546926 -0.103481926 -0.052989863 -0.12835911
000030 22 7f d6 bd 81 94 b0 3c c3 c1 a2 3d 29 a1 c5 3b
       -0.104734674 0.021555187 0.07947113 0.0060311747
000040 df 0e d4 bb c2 57 5f 3d 02 d6 b5 3c 7d c7 26 bd
       -0.0064714993 0.05452705 0.022196773 -0.04071759
000050 56 f3 c7 bd c2 cb e5 bc dd 45 cc bc 01 dc 15 bd
       -0.097632095 -0.02805126 -0.024935657 -0.036586765
000060 e0 70 42 3b 06 d2 ef bd 11 fd b4 bd f0 e3 f2 3d
       0.002966933 -0.11709981 -0.08837331 0.11859882
000070 1c 64 31 3c 3a a1 ce 3b 99 e4 8a bd f7 fa c6 bb
       0.010827091 0.006305841 -0.06781883 -0.006072398
000080 e9 5a b6 bd 91 d4 71 3d 27 b6 ee bd 6a 41 4c 3d
       -0.089040585 0.05904061 -0.116558366 0.04986707
000090 6b 51 28 bd fb f4 7c bc 89 4e 52 bd 43 5f b5 3d
       -0.04109327 -0.015439267 -0.05134443 0.0885606
0000a0 04 74 57 3d a3 1d ec bd 51 fc d6 bd 39 c0 c3 bc
       0.052600875 -0.1152909 -0.10497344 -0.02389537
0000b0 4d 50 e4 bd 67 6e a8 bd 35 96 02 3d ac ef e6 bd
       -0.11148129 -0.082241826 0.03188153 -0.112761825
0000c0 5b 24 e0 3d 1a 6a aa bc 59 a3 78 bd bf 0b 00 3d
       0.10944434 -0.020802546 -0.060702655 0.031261202
0000d0 39 eb 80 3d a4 3a 90 bd bb 60 ea bd 0e 9e 5c bd
       0.06294865 -0.07042435 -0.11444231 -0.05386167
0000e0 80 0f 6d bc 83 3f 5a bd fc 35 c2 bd 10 ba cf 3d
       -0.0144690275 -0.053283226 -0.09482953 0.101429105
0000f0 6d 78 81 3d 9a d8 d0 3d 0c 1c e3 3d 41 34 91 3c
       0.063217975 0.101975635 0.11089334 0.017725112
000100 a2 8c cc 3d 20 a7 b7 bd b0 53 a0 3d 65 e9 c4 bd
       0.09987761 -0.089674234 0.07828462 -0.09614829
000110 6b 72 af bd 40 31 94 bb e6 bc 02 3d 37 80 64 3c
       -0.08566745 -0.0045224726 0.03191843 0.013946584
000120 35 5b b3 3d aa 45 6b bd 5a 8e 8c bd b5 b2 a4 bd
       0.08757631 -0.057439484 -0.06863089 -0.08041898
000130 16 76 62 bd 21 67 9f bd 29 78 65 bc 3d 1f de 3d
       -0.055288397 -0.07783342 -0.014005699 0.10845802
000140 bc 81 16 3d 18 8b 29 bd d0 a7 32 bd ba 28 8d bd
       0.036744818 -0.041392416 -0.04361707 -0.068925336
000150 18 51 1c bd 02 3a 8d 3d 6c 2d cf bb 33 10 d2 3d
       -0.038163275 0.0689583 -0.0063225534 0.10256996
000160 8e c4 a4 3d 0c b5 90 3d cc b2 78 3d a7 4d ed 3c
       0.08045302 0.07065782 0.06071739 0.028967692
000170 d1 90 54 bc 84 6a 11 bd d9 74 7f bd 60 61 25 3d
       -0.01297398 -0.03550197 -0.062367294 0.040376067
000180 ad a6 06 bd 79 39 65 bd 71 76 f8 bd 4a 63 11 bd
       -0.0328738 -0.055963013 -0.12131966 -0.03549508
000190 84 44 ff bc 1e e6 a0 3d 2c 10 74 3d ec 5e 98 3d
       -0.0311606 0.07856391 0.059585735 0.0743998
0001a0 34 e1 b8 3d 93 b3 ce bd 2a fd d7 bd 7e fb d9 bd
       0.09027329 -0.10092845 -0.10546334 -0.106436715
0001b0 93 f3 98 3d 79 37 84 bc f0 67 d1 bd 85 87 8f bd
       0.07468333 -0.016139733 -0.10224903 -0.0700827
0001c0 18 46 e3 bd 33 04 df 3c 6d 35 61 3d c1 bd d9 3d
       -0.11097354 0.027223682 0.05498259 0.10631896
0001d0 35 e6 91 bd 65 2a af 3d a5 81 9a bd e8 89 91 3d
       -0.07123987 0.08553008 -0.07544259 0.07106382
0001e0 e6 1f 02 bc 3b e6 e0 bd 84 08 49 3d ff 1c 30 3b
       -0.0079421755 -0.10981413 0.049080387 0.0026872752
0001f0 02 30 f6 bd 26 7f a0 3d f2 a5 a4 bd b4 17 da bc
       -0.120208755 0.07836752 -0.08039464 -0.02662263
000200 0e ca 91 3b 18 cd ed bd 43 d3 00 3d a7 79 d7 3d
       0.0044491356 -0.11611384 0.031451475 0.1052125
000210 05 f6 e2 3a b2 cc 49 3d c9 39 c4 bd 05 7d 57 bd
       0.0017315751 0.04926748 -0.09581334 -0.052609462
000220 7c 37 82 bd 35 5a 17 3d 11 1a a7 3d a4 ac 72 bd
       -0.06358239 0.036951263 0.08159269 -0.059246674
000230 31 ab f3 3d 16 da 3c 3d aa 95 6a bd d7 e1 0e 3d
       0.118978865 0.04610642 -0.057271637 0.034883346
000240 b7 38 8d 3c 6a 00 f4 bd 24 a6 ad 3d 24 08 c7 bd
       0.017238958 -0.119141415 0.084789544 -0.097183496
000250 04 6b e2 3d 80 2b b6 3c 8e f1 9a bb 1c 89 e6 3c
       0.11055568 0.02223754 -0.0047285026 0.02814155
000260 23 89 9a bc b4 5d a2 3d 41 b0 38 bd 50 38 b4 bd
       -0.01886422 0.07928029 -0.045089964 -0.08799803
000270 1a c5 0c bd 1c f3 b2 3d c4 1b f7 bd b1 75 c0 bd
       -0.03436766 0.08737776 -0.12065843 -0.09397448
000280 56 37 ae 3c 7d 53 7d bd 3a 70 30 3d 50 29 ce bc
       0.02126662 -0.0618472 0.043075778 -0.025166184
000290 19 ce f0 3d 9e d4 09 3d f5 88 28 3d aa b8 a7 3d
       0.1175806 0.033650033 0.041146237 0.08189519
0002a0 b4 f4 52 bd 15 75 e7 3c ff 79 0a bd c5 63 cc 3c
       -0.0515029 0.028254071 -0.03380775 0.024949918
0002b0 38 67 dc bc bf 70 5a bd 40 83 f2 3c 4d 21 e2 bb
       -0.026904687 -0.05333018 0.0296036 -0.0069009424
0002c0 1f 64 86 3b 8f 59 fd 3d 0b 72 42 bd 87 e4 34 3d
       0.004101291 0.123705976 -0.04747204 0.044163253
0002d0 43 9d e0 3d a1 e6 38 bd 10 9d d6 bc f4 27 2f 3d
       0.10967495 -0.04514182 -0.02619794 0.04276271
0002e0 8f 57 06 3e 72 e5 8c bd cb cf 0f 3c 81 ac b5 3d
       0.13119338 -0.06879701 0.008777569 0.08870793
0002f0 4d ea 83 3b 58 5e f2 bd 10 37 15 3d 8b 55 af bb
       0.0040257336 -0.11834401 0.036429465 -0.0053507737
000300 7d 61 f0 bd a5 e2 46 bd 20 b8 c1 3d 45 9e 06 bd
       -0.117373444 -0.04855599 0.09458947 -0.03286578
000310 7d 4c 76 bc 6d ec e2 bd 58 0e 1f bd cc 26 47 bd
       -0.015032885 -0.11080251 -0.03883204 -0.048620984
000320 ae 9b 33 3d cf bc c2 3d 3b cd 86 bd d1 39 7f bd
       0.04384964 0.09508669 -0.06582113 -0.062310997
000330 a4 77 a3 3c 8a 09 69 3d c9 6a 9a 3d 75 bf 8c 3d
       0.01995451 0.056893863 0.07539899 0.06872455
000340 bc b6 e9 bc 09 46 e4 3c 6f fb c3 3d 9a 4f b3 bd
       -0.028529517 0.027865427 0.095694415 -0.08755417
000350 53 ff 8a 3c ed 11 9d 3d 38 39 22 3d d3 a3 93 bb
       0.016967451 0.07669435 0.03960535 -0.0045056134
000360 9b c2 cf bd 51 be 4b 3d 34 4f 11 3c 73 d0 45 bc
       -0.1014454 0.049742047 0.008868981 -0.012073624
000370 72 2b 98 3d 76 4b 88 bd b2 f0 17 3c 6c 91 78 bd
       0.074301615 -0.06655018 0.009273695 -0.06068556
000380 6d 1b 6e bd 82 6a b1 bc e9 a7 9e 3d 69 ce e3 bc
       -0.058131624 -0.021657232 0.0774687 -0.027808385
000390 11 bc f4 3d 0b 9d b2 3d 04 3b ab 3d f2 77 b8 3b
       0.11949933 0.0872136 0.08360866 0.005629533
0003a0 ef 42 59 3d c2 51 f7 bc 67 64 76 bd 73 7c 6b 3c
       0.05304235 -0.030190352 -0.060154345 0.014372933
0003b0 28 f8 4a bd 14 ec 35 bd 37 1c ac 3c bf fe 17 3d
       -0.049553066 -0.044414595 0.021009548 0.03710818
0003c0 81 4b e5 3d 29 11 e7 bd 83 5a ba 3c a4 ef 1b 3d
       0.11196042 -0.1128257 0.022748237 0.038070336
0003d0 14 5b de bd 59 e4 ac bc a2 c8 f9 3c c1 84 e6 3d
       -0.108572155 -0.021104978 0.030491177 0.112557895
0003e0 fa 8d 05 be a3 84 17 bd 4b ad 80 bd f3 10 2d bd
       -0.13042441 -0.036991727 -0.06283053 -0.042252492
0003f0 da 81 b9 bd 1d 63 e4 bd 02 04 5e 3c 7b 8b 45 bd
       -0.0905797 -0.11151717 0.01355076 -0.048228722

lstm.bias_ih_l0 f4 [256]
000000 44 f0 80 bd e1 b8 98 3d ae 19 bb 3d 92 94 c6 3d
       -0.06295827 0.07457138 0.091357574 0.09696306
000010 af d5 6d bd d8 8d 19 3c e1 78 2b 3d a4 78 d9 bd
       -0.058065113 0.009372197 0.041863326 -0.106187135
000020 d7 67 bc bb 8b 97 ae 3d 25 31 af 3d 8c a4 c6 bc
       -0.0057496834 0.08524998 0.085542955 -0.024248384
000030 43 9a db 3d 71 f6 aa 3d b7 16 a3 3d 90 44 45 bd
       0.107227825 0.08347786 0.07963317 -0.04816109
000040 ed 1c 43 3d 61 ca 2d bd 77 79 25 3d ac c8 cc bd
       0.047635008 -0.04242933 0.04039904 -0.099992126
000050 c8 f1 fc bc c0 b1 66 bc a4 65 3f 3b 8a 7c 9e 3d
       -0.030877009 -0.014080465 0.002920487 0.07738598
000060 67 e8 b9 bd 24 fd b6 3c 88 b8 92 bd 50 5e 0d bd
       -0.0907753 0.022337504 -0.07164103 -0.03451377
000070 a6 e2 8a bc 62 58 8c 3d 24 8e 75 3d 91 ac 07 bc
       -0.016953778 0.06852795 0.05995001 -0.008280889
000080 b9 a3 d5 bd 1e ba 65 3d 77 bc 4c bd 20 44 5d 3d
       -0.10431618 0.0560857 -0.04998442 0.054020047
000090 3c bd d5 3d bc a0 08 3d 56 ce 44 3d 5d e7 a3 bd
       0.10436484 0.033356413 0.04804834 -0.080031134
0000a0 9a 26 01 3e a2 46 ca bd 78 22 4f 3d c8 30 92 bd
       0.12612382 -0.098767534 0.05056998 -0.071382105
0000b0 91 23 c5 bc 07 ae 6a bd 0e d4 dc 3c 3e a7 87 3c
       -0.024064811 -0.05729487 0.026956584 0.01655924
0000c0 58 85 68 bd dd 3a 26 bd 2c a4 17 3d 61 ea c5 3d
       -0.05676779 -0.04058348 0.0370218 0.09663845
0000d0 6f cc f0 bd 41 4e 09 3d c3 01 d8 bd 47 c0 45 bd
       -0.117577426 0.033521894 -0.10547211 -0.048279073
0000e0 52 f9 ca bc 3a 65 2a bd 3a 56 ae bc d3 a3 f8 3d
       -0.024777088 -0.041600443 -0.02128135 0.12140622
0000f0 e7 53 71 3d 29 0d 1f 3d 4f 05 ea 3c 5d f1 3f 3d
       0.058917906 0.03883091 0.028566984 0.04686104
000100 38 80 47 3d 20 54 83 3d 6c f9 f5 3b aa 2f a3 3a
       0.048706263 0.0641253 0.00750654 0.0012450118
000110 49 1c 4e 3d ef 25 d7 bd d2 ff d3 bd e1 73 ef 3d
       0.050319944 -0.10505282 -0.10351528 0.11692024
000120 65 41 c3 bd 5f 6e fd bc c4 75 1f bc 59 ca 5f bc
       -0.095339574 -0.030936418 -0.009732667 -0.013659083
000130 56 86 8c bc 5d b1 e2 3d f7 42 8c bd 8c d0 a3 3d
       -0.0171539 0.110689856 -0.0684871 0.079987615
000140 10 f8 d5 3d 53 ac ff bd 1b 51 f3 bd b6 5d b8 3d
       0.10447705 -0.1248404 -0.11880704 0.09002249
000150 d4 0b a3 bd 22 35 bd 3d ca d0 cc 3c b9 27 18 bd
       -0.079612404 0.0923865 0.025001902 -0.037147257
000160 77 2b 77 bd 2c f6 91 bd e1 73 62 bd a1 36 8d 3d
       -0.060344186 -0.07127032 -0.055286292 0.06895185
000170 72 77 dc bd cc e8 f3 bd b3 f5 7f 3d 2b 70 51 3d
       -0.1076497 -0.11909637 0.062490176 0.051132362
000180 83 a6 f7 3c c9 66 d9 3d 40 54 18 bd cc ee 46 3c
       0.030230766 0.10615308 -0.037189722 0.012141895
000190 3a 1c 90 bd 97 28 af 3d e0 31 e4 3d 37 e6 ef bd
       -0.07036634 0.08552664 0.111423254 -0.11713832
0001a0 a0 81 c0 3d bb 64 41 bd a4 ee 75 3d 07 99 a3 3d
       0.09399724 -0.047215205 0.06004204 0.07988172
0001b0 b6 59 60 3c 4b 80 af 3c 65 c9 57 3d 3c fb 20 bd
       0.013693264 0.02142348 0.0526823 -0.039302096
0001c0 ea 61 c6 3d 6f 74 bd bc ae ac ab bc 6a 1c 4c 3d
       0.096866444 -0.023126809 -0.020956364 0.049831785
0001d0 78 15 36 3b 58 2b 96 3d 88 d8 a6 bc 3e 3d 1e bd
       0.0027783792 0.07332486 -0.020366922 -0.038632624
0001e0 9b b5 ef bd 45 4f 81 bd 5c 0c d9 bd 1c 9e 08 bd
       -0.1170456 -0.063139476 -0.105980605 -0.03335391
0001f0 d3 4c e1 3d 1c 62 d0 3b 5c ba 39 3d 4b 37 8f 3c
       0.11000981 0.006359352 0.04534374 0.01748242
000200 24 a6 74 bd 99 17 e7 bb b7 84 7e bd 2b f1 21 3c
       -0.059728757 -0.0070523736 -0.062138285 0.009884159
000210 d3 94 11 3c ca 36 b7 bc bb 80 41 bd 2c 65 68 3d
       0.00888558 -0.022364993 -0.047241908 0.05673711
000220 f4 95 11 3d 5e d0 8f bc 3a 19 8c bd c5 ee 23 3c
       0.035543397 -0.017555412 -0.06840749 0.010005658
000230 f8 ba c5 bc 5c c0 a9 bb e2 ef a0 3d 9b a1 49 3c
       -0.024137005 -0.0051804017 0.07858254 0.012306596
000240 7a 74 bb bd 11 55 a9 3d 22 55 4b bb 36 e8 1d bd
       -0.091530755 0.08268178 -0.0031026085 -0.03855153
000250 90 32 d5 bd 8e e0 1b 3d 5c 2f ef 3d a6 f4 a1 bd
       -0.10410035 0.03805595 0.11678955 -0.07907991
000260 81 fb d1 bd 11 d1 9e 3d 78 9d b8 bd 86 96 eb bd
       -0.10253049 0.0775472 -0.0901441 -0.115033194
000270 cd 09 a4 bd 1e ca e5 bc 3f c2 5d bd 2d 6c 91 3b
       -0.08009682 -0.028050479 -0.054140326 0.0044379444
000280 e9 cd 8a bd f9 b8 e8 bd 9b e2 aa 3d a4 2b 7a bc
       -0.067775555 -0.11363406 0.08344003 -0.015269194
000290 79 b0 a0 3d db 70 a2 bd 1b 6b ef 3d 91 10 49 bd
       0.078461595 -0.07931682 0.116903506 -0.049088065
0002a0 3b 0f 10 3d 14 59 d7 3d 37 e3 de 3b 4e 41 c8 3d
       0.035170775 0.10515037 0.0068019885 0.09778081
0002b0 91 3d ea bc 52 81 b8 3d 09 30 cc 3d a6 c9 c9 bd
       -0.02859381 0.09009041 0.099700995 -0.098529145
0002c0 f2 b4 23 bd 62 76 99 3d ff da b8 3d fd ef 97 3d
       -0.039967485 0.07493283 0.09026145 0.07418821
0002d0 16 9c 02 bd 26 5b 8f bd 7a 78 e8 3d 27 53 0c 3d
       -0.031887136 -0.06999807 0.11351104 0.034258988
0002e0 45 b2 31 bd 76 01 c5 bd 92 27 74 3d 70 b1 92 3d
       -0.0433829 -0.09619419 0.05960805 0.0716275
0002f0 d6 25 73 3d 15 54 e5 bb e0 63 11 3c 5f ce 76 3d
       0.059362255 -0.0069985487 0.00887391 0.060255405
000300 2d 67 07 3d 54 80 af bd d1 fc 9a bd 57 d9 cd 3d
       0.03305738 -0.085693985 -0.07567752 0.1005122
000310 02 d7 ea 3d 52 c8 98 bd 06 67 c9 3b 7e 01 85 3d
       0.11466791 -0.07460083 0.0061463146 0.06494425
000320 0f fe b2 bd b8 2c dd bd c1 0f 91 3d 80 3c f1 bd
       -0.08739864 -0.10799545 0.07083083 -0.117791176
000330 56 c8 04 be c9 fb 88 bd ea 78 e5 bc f2 43 f9 3d
       -0.12967047 -0.06688649 -0.028011758 0.12171163
000340 e8 3d b5 3d 0c d1 2c bd 99 e8 ab bd 87 56 2f bd
       0.08849698 -0.04219155 -0.08393974 -0.04280713
000350 dc d8 1f bd 5a f0 4a 3b eb 17 eb bd 59 e8 c6 bd
       -0.039025173 0.0030966015 -0.11479171 -0.097122855
000360 5e a9 91 3d 9f 8b aa bd 59 2b a9 3d 35 f7 03 be
       0.07112382 -0.08327412 0.08260221 -0.12887271
000370 83 75 3c 3c f4 45 92 3d b8 f2 3a bc d3 cf a9 3d
       0.011502626 0.07142249 -0.011410408 0.082915924
000380 f9 04 60 3d 00 ab a2 bd 9d e6 38 bc ba bd d7 3d
       0.054692242 -0.07942772 -0.011285451 0.10534234
000390 21 f0 81 3d 67 69 35 3d 86 52 7d 3d af 6c ad bc
       0.06344629 0.044289973 0.06184628 -0.021169988
0003a0 6c 4c cb 3d 31 4a 8b 3d 4f 50 f8 bd d9 e9 d4 bc
       0.09926686 0.0680126 -0.12124693 -0.025990414
0003b0 24 db 7b 3d b8 10 f4 3d e4 68 5f bd d2 39 b3 bc
       0.061488286 0.11917251 -0.05454339 -0.021878157
0003c0 a7 0c c4 3c 17 4d 8f bd 36 40 ee bd 33 31 e4 3d
       0.023931814 -0.069971256 -0.11633341 0.111421965
0003d0 75 fc 8a 3d 73 a1 ba 3c ec 47 93 bd ef ec ba 3d
       0.067864336 0.022782063 -0.071914524 0.09127223
0003e0 18 35 5c bd be b1 ab bd 4f 2d 9b bd 7b 6e b2 bd
       -0.05376157 -0.08383511 -0.07577001 -0.08712479
0003f0 ad a2 be 3d 28 52 7e bd b5 a2 9d bd e3 b0 b4 3d
       0.09308372 -0.06209007 -0.076970495 0.08822801

lstm.bias_hh_l0 f4 [256]
000000 ce 96 a4 bd bb 44 ee 3d 88 e9 07 3e 69 06 24 bd
       -0.08036576 0.11634203 0.13272679 -0.040045176
000010 ca de cf 3d 0a 3d 7f 3d d1 29 96 3d c0 75 9a 3d
       0.101499155 0.06231407 0.073321946 0.0754199
000020 d8 50 69 3d a6 3d 19 3d 9f c0 af 3d 0e 1e 45 3d
       0.056961864 0.03741231 0.085816614 0.048124366
000030 38 48 93 3b 37 42 a1 bc f5 7a 97 3d 37 06 ab 3d
       0.004494693 -0.019684894 0.07396499 0.08350795
000040 91 d0 ab 3d c7 8e 52 3d 01 1c 86 bb 46 c6 a1 3b
       0.0838939 0.051405694 -0.004092694 0.004936966
000050 18 50 c3 3c 34 bb b0 bd 57 dd 95 3d da 8b 0f 3d
       0.023841903 -0.08629456 0.07317608 0.035045482
000060 c9 2f d0 bd a6 a4 c4 bd 64 90 85 bd 91 e2 b0 3d
       -0.10165364 -0.09601717 -0.06521681 0.08636964
000070 0f 06 04 bd 1c 49 eb 3d 72 4a 81 bd 8e 84 d8 bd
       -0.03223234 0.11488554 -0.063130274 -0.10572158
000080 21 b1 91 3d 12 d7 91 bd 6b df 28 bd a5 77 f7 bc
       0.07113863 -0.071210995 -0.041228693 -0.030208418
000090 24 d7 33 bd f9 bf 7f 3d 1e 7b 6c 3d 5b 91 e4 bd
       -0.043906346 0.06243894 0.0577346 -0.11160537
0000a0 b4 d3 90 3d 96 68 37 3d 2f a6 46 3b 2e d1 28 3d
       0.07071629 0.044777475 0.0030311455 0.041215114
0000b0 25 02 ea 3c f1 e6 16 3c da 78 88 3d b8 8f 79 bd
       0.028565476 0.009210334 0.066636756 -0.060928077
0000c0 87 7e 09 bd fd 96 14 bd c0 17 a0 3d 27 02 ca 3c
       -0.03356793 -0.036276806 0.0781703 0.02465923
0000d0 20 3f b0 bb 27 25 93 bd 98 de c2 3c ea 4c 1a bd
       -0.005378619 -0.071848206 0.023787782 -0.037671007
0000e0 c4 bd d3 3d 4e 41 ef bc 43 d7 c5 3d f6 ba aa 3b
       0.10338929 -0.029205944 0.096601985 0.0052102758
0000f0 33 cf 64 3d f8 ec a9 3d 6d c1 d8 3d 82 46 d7 3d
       0.055861663 0.08297151 0.10583768 0.10511495
000100 a0 47 12 bd 1a 3c 82 bd 28 55 ce 3d c9 2f 32 bd
       -0.03571284 -0.0635912 0.10074836 -0.043502603
000110 d7 8a 86 bc 0f 38 8f bd 68 8e c2 bd 23 49 eb bd
       -0.016423626 -0.06993114 -0.09499818 -0.11488559
000120 97 12 83 3d 48 c1 d5 3d 04 6e 41 bc c0 ab 4e 3d
       0.0640003 0.10437256 -0.011806015 0.050456762
000130 9e 47 dd 3d 77 1a 56 3d 93 2a ac bd ca ae 9b bd
       0.108046755 0.052271333 -0.08406558 -0.07601698
000140 22 4f c8 bd 7b 90 06 bd f6 0b 3a 3c fa 42 68 3d
       -0.097807184 -0.03285263 0.011355391 0.0567045
000150 a0 7f 77 3d b5 88 72 bc cc 98 d4 3d 21 47 27 bd
       0.060424447 -0.014803101 0.10380706 -0.04083932
000160 4d 34 b8 3d 94 f5 c6 3d 05 da 92 bd 14 bc 4b 3d
       0.089943506 0.09714809 -0.0717049 0.049739912
000170 ca b9 c1 3d 0e 51 47 3d 57 18 a5 3b 90 cd d6 bd
       0.094592646 0.048661284 0.005038302 -0.10488427
000180 dc 91 ce 3d 6c c1 eb 3b 14 60 5e 3d ad d6 68 bd
       0.10086414 0.0071946885 0.054290846 -0.056845356
000190 15 e8 29 3b 0b 17 c3 3d 4d 0d b1 3b 95 5c c4 bd
       0.0025925685 0.095258795 0.005403197 -0.09587971
0001a0 a2 47 ce 3d b0 06 aa bc 23 31 97 3d 90 af e6 b9
       0.100722566 -0.020755142 0.07382419 -0.00043999823
0001b0 fa a3 d8 bd 01 b4 00 3d 25 5f 30 3d cc ba 62 bd
       -0.10578151 0.031421665 0.043059487 -0.055353925
0001c0 99 50 98 bc d1 8b e0 bd c6 39 a7 bd 5f 7d 8a bd
       -0.01859312 -0.10964168 -0.08165316 -0.06762194
0001d0 65 8b 33 bd 38 70 fa 3a a2 00 a4 3d 8a 39 25 bd
       -0.04383411 0.001910693 0.08007933 -0.040338077
0001e0 0f 38 99 3d 7d 54 be bd 99 da 54 bc b2 c5 e2 3d
       0.074813955 -0.092934586 -0.012991571 0.11072864
0001f0 e5 6d 8b bd e3 6c d5 3d d2 53 d7 bd 3d 49 b5 bc
       -0.0680807 0.10421159 -0.10514034 -0.02212965
000200 2c 65 9a bd aa a3 97 3d 17 68 78 3c f5 66 68 3d
       -0.07538828 0.07404263 0.015161536 0.056738812
000210 e7 e0 bf bd 95 90 da bd 1a 6f 86 bd 69 68 36 3d
       -0.093690686 -0.10672108 -0.0656416 0.044533167
000220 b2 43 9a 3d c6 1c a4 3b 88 a3 a2 bd bf 22 2d 3d
       0.07532443 0.005008313 -0.07941347 0.042269465
000230 0b fb 4f bd 3d 9e 36 bd 8e 0a cc bd b0 db 67 3d
       -0.050776523 -0.0445845 -0.09962951 0.056605995
000240 5a 0f b1 bd 75 fd b4 3d d5 16 ef 3d 28 d3 b8 3d
       -0.08645506 0.088374056 0.11674277 0.0902465
000250 da f5 93 3d 65 e4 cd bd 7e 10 c0 bd 8a 8f c2 3d
       0.07224627 -0.100533284 -0.09378146 0.09500034
000260 29 3b 84 3d 6b 88 f5 bd a6 f9 e5 ba 57 58 5c bd
       0.064565964 -0.1198891 -0.0017545715 -0.053795185
000270 51 f8 95 3d 35 81 e2 bd 1d de ac bd 58 3e ec 3d
       0.07322753 -0.110598005 -0.08440802 0.115353286
000280 81 7d d4 bd 96 ef 9c bc b2 44 25 3d e9 68 19 bc
       -0.103755005 -0.019157212 0.040348716 -0.009363391
000290 5c 31 52 3d 45 49 f3 3d 77 b3 4c bd 4b e3 6c bd
       0.051316604 0.118792094 -0.04997584 -0.05783395
0002a0 50 16 c0 3c a2 23 1f bd d4 aa 24 bd ac a5 d4 3d
       0.02344814 -0.03885234 -0.040201977 0.10383162
0002b0 6d a5 8a 3d 0c 26 cc 3d 64 0c 24 bd 8c 3f f1 bd
       0.06769834 0.09968194 -0.04005088 -0.11779699
0002c0 f3 d4 f0 3d 30 6f 05 bd fc 0d 45 bd 0d b9 57 38
       0.11759367 -0.03257674 -0.04810904 5.1432336e-05
0002d0 92 25 b5 3d 11 9f 98 3c 38 cb d0 3d 99 4d eb bd
       0.088450566 0.018630536 0.10195011 -0.1148941
0002e0 b6 da 9f 3d 90 9b 8e 3d 54 a2 cc 3d 1e 94 92 bd
       0.07805388 0.06963265 0.09991899 -0.07157157
0002f0 ef 05 06 be 06 f4 3d 3c 27 33 56 bd 55 71 d2 3c
       -0.13088201 0.011593824 -0.052294876 0.025688807
000300 6f fb a3 bd 51 ba c4 3c 39 00 ec bd f8 d1 e9 bc
       -0.080069415 0.024014624 -0.1152348 -0.028542504
000310 20 c3 3d 3b 7a 70 6b 3d ce aa 9d bd ea c4 05 be
       0.0028955415 0.057480313 -0.07698594 -0.13063398
000320 7f c7 fb bd c5 db 03 bd e4 25 8c 3d 4e a9 36 bd
       -0.1229391 -0.03219201 0.068431646 -0.044595055
000330 db ca ce bc d6 2e 5f bd 76 f0 cb 3c d1 34 d9 bd
       -0.025243213 -0.054488026 0.024894934 -0.10605777
000340 4a c5 85 3d c1 bc 6d bb c5 43 ef 3d 32 07 02 3e
       0.065317705 -0.0036275836 0.11682848 0.12698057
000350 9c 48 bf bd f6 c3 b8 bd 37 f9 e3 3d 49 82 9b 3d
       -0.09340021 -0.090217516 0.11131518 0.07593209
000360 14 e0 be bd cd 96 c3 bd 1a c3 98 bc 42 5b b6 3d
       -0.09320083 -0.09550247 -0.01864772 0.08904125
000370 bc f6 db 3d 2c 4f e9 ba f8 b2 39 bd d7 4c c2 bc
       0.1074042 -0.0017800084 -0.045336694 -0.02371828
000380 e9 a9 f5 bc f0 b8 a9 3d 5c 70 85 bd 5f d4 30 bd
       -0.029988246 0.08287227 -0.065155715 -0.043171283
000390 6d 84 2a 3d 63 cd 75 3d f9 6c a5 bd 91 a9 b0 3c
       0.041630197 0.060010325 -0.080774255 0.02156523
0003a0 2e 90 db bd cf 0a 44 bd 6b 64 85 3d f7 0a a8 3c
       -0.107208595 -0.04786187 0.06513294 0.020513041
0003b0 8d 2c 0a 3d a0 8d e8 3d ce 6d d3 3d ae a5 fd bd
       0.033733893 0.11355138 0.10323678 -0.123851165
0003c0 4b 25 c0 3d 2b 4e b7 bb 99 44 85 bd 23 07 74 3c
       0.09382113 -0.005594035 -0.065072246 0.01489428
0003d0 fa 15 24 3d a9 da ab 3d e3 3d 1a 3d b1 68 13 bd
       0.04006002 0.083913155 0.037656676 -0.035988513
0003e0 aa f5 c7 3d 94 eb cb 3c e7 90 9f bd 27 b6 cd 3d
       0.097636536 0.024892606 -0.0779131 0.100445084
0003f0 e4 bf 94 bc b1 60 b0 3d 28 56 6a 3d d4 13 03 bd
       -0.018157907 0.086121924 0.05721107 -0.03200133

lstm.weight_ih_l1 f4 [256, 64]
000000 e6 65 9c 3d 54 6b d6 3c 12 06 56 3c fe 8a 4c 3d
       0.07636623 0.026174225 0.013062971 0.04993724
000010 8d 90 55 bd 5a 25 c7 bd 4a 39 8b bd fd 38 b5 3d
       -0.052139807 -0.09723921 -0.067980364 0.0884876
000020 a0 29 13 bd 9f 32 84 bc 3f 06 a7 3d e1 2e 30 3c
       -0.03592837 -0.01613742 0.08155488 0.010753364
000030 47 9c 20 bd 9c 17 10 bd 50 f1 86 3d ca cb bd 3c
       -0.039211538 -0.035178766 0.065889955 0.023168463
000040 0b 08 3d 3d 7f d2 97 bd 38 9a 7c bd 7b bd 90 bd
       0.04615025 -0.07413196 -0.061670512 -0.070673905
000050 f4 33 cd bd 7f 88 26 3b bd ec cf 3c 53 9a 93 bb
       -0.10019675 0.0025410948 0.02538144 -0.004504481
000060 f0 22 88 3d d1 9a ab bc 17 ad 06 bd 0c 0b d5 bd
       0.06647289 -0.020947846 -0.032879915 -0.10402498
000070 e7 f9 ed bd c7 97 8a 3d 4e 4b 00 bb 26 41 94 bd
       -0.11619931 0.067672305 -0.0019576135 -0.072389886
000080 f5 8d c9 bc 15 16 76 3d 7a c2 c9 bc 91 03 55 3b
       -0.024603823 0.060079653 -0.024628866 0.0032503346
000090 2f 39 0a be 79 87 f5 bc 6c b8 99 bd f7 22 a2 bd
       -0.13498376 -0.029971825 -0.07505879 -0.07916825
0000a0 3a fd b6 3d f6 d8 05 bd 3d d1 29 3d 38 a5 6c 3d
       0.08935018 -0.032677613 0.04145931 0.057774752
0000b0 eb 37 c0 bd 78 13 9b bd b5 4f 59 bc c9 60 fa bc
       -0.093856655 -0.07572073 -0.013263633 -0.030563729
0000c0 e4 04 4a 3d 6d c9 f0 3c d3 d8 8d 3d 52 3e d7 3d
       0.04932107 0.029392922 0.069261216 0.105099335
0000d0 5b c6 7c bd 70 7f cc ba ff d5 9c 3d 12 1b 72 3d
       -0.061712604 -0.0015601944 0.07658004 0.059107848
0000e0 df 87 05 3c 96 e3 27 3c 89 67 b8 bd db 46 b4 bd
       0.00815007 0.010247132 -0.09004123 -0.08802577
0000f0 f5 20 30 bd 15 5b 86 bd 3e fc 15 bd c6 03 c2 bd
       -0.04300018 -0.06560341 -0.03661751 -0.09473376
000100 c7 4e 14 bd 7f eb 58 bd 0e d7 e4 3d 4d 5c c8 3c
       -0.03620794 -0.05295896 0.11173831 0.024458075
000110 36 60 d3 3c b4 16 82 3d 6e 22 e3 3d 30 ec db bd
       0.025802713 0.063519865 0.11090551 -0.107384086
000120 52 79 aa 3d 12 1f b1 3c d6 f2 b3 3d fa 74 cb bd
       0.08323921 0.02162126 0.08786552 -0.09934421
000130 dc da 16 bd f3 93 d6 bd fd 71 9a bd 5f 8d ae bd
       -0.036829814 -0.10477438 -0.07541273 -0.08523058
000140 82 ba f1 3c 09 cc 05 3d f7 40 8b 3d 8c 46 94 bd
       0.02950788 0.032665286 0.067995004 -0.07240018
000150 88 b5 42 bd e5 48 9a 3d 24 7e db 3d 76 3a ae bb
       -0.047536403 0.07533435 0.10717419 -0.0053170277
000160 da cf ec bd 01 a9 f1 3c 6b 66 ae bd 31 54 55 bd
       -0.11563082 0.029499533 -0.085156284 -0.052082244
000170 a0 19 0e 3d ae 0c c9 3c b2 64 04 bc 1e 99 ae 3c
       0.034692407 0.024542179 -0.008080648 0.021313246
000180 cc a3 b5 3d 87 93 95 3d e9 5d 39 bd e0 5e ba bc
       0.088691324 0.07303529 -0.045255575 -0.022750318
000190 fe 3e c6 3d 1c 5d 6b 3d f3 6b 89 3d 90 86 4b bc
       0.096799836 0.057461843 0.06710043 -0.012422219
0001a0 61 5c 16 3d 6b 58 02 3e 6f b6 6a 3d c1 b0 d8 3c
       0.036709193 0.12729041 0.05730289 0.02645147
0001b0 aa 40 85 bd 83 b6 c6 3d 8c eb a1 3b 32 15 4e bc
       -0.06506474 0.0970278 0.0049414095 -0.012578296
0001c0 b0 8b d0 3d 22 53 94 bd c1 75 e4 bc 54 6d 2d bd
       0.10182893 -0.07242419 -0.02788818 -0.04234059
0001d0 49 f2 d6 bd 3b a9 f6 3d 60 a8 9c 3d 4a d2 7b 3d
       -0.10495431 0.12043997 0.076493025 0.061479844
0001e0 31 8c 01 be b6 79 af bd c9 4e b2 3d 16 7c 69 3d
       -0.12651135 -0.085681364 0.08706433 0.057003103
0001f0 ed c0 db bd 5f 1e 42 3c cf e4 9f 3d 8e 32 93 3d
       -0.10730157 0.011848061 0.07807314 0.07187377
000200 6c ba ff bd 2d de de 3d fc 7b 7a 3d e9 c8 f7 3d
       -0.12486729 0.108822204 0.061153397 0.120988674
000210 7e 42 54 bd 50 aa a5 3d 43 f6 8e bc 4d 65 40 3d
       -0.051821224 0.08089125 -0.017451411 0.046971608
000220 7c 2d cc 3d cf 47 db 3d 08 29 cc 3d ec 44 0c 3d
       0.09969613 0.10707056 0.099687636 0.034245417
000230 eb 9f fc bd 75 59 62 3d cc 62 fe bd a8 cd 8b bd
       -0.123351894 0.055261094 -0.12421188 -0.06826335
000240 c6 ef 84 bc 9e 78 95 3d 45 f4 30 3d e0 d7 09 3c
       -0.016227614 0.072983965 0.043201704 0.008413285
000250 9f 1f ad 3d b9 59 a1 bc ef f4 19 3d a9 6a 52 bd
       0.08453297 -0.019696103 0.037587103 -0.05137125
000260 8c ae dd 3d f0 40 fd 3d 34 41 9f 3a f3 90 5b bd
       0.10824308 0.123659015 0.0012150169 -0.05360503
000270 33 7c e7 3d 34 e1 f0 bc b3 08 06 3c 37 9b ca 3d
       0.11302986 -0.02940426 0.008180785 0.09892886
000280 7f b6 36 3d a3 bf e7 3c ca e9 9c 3d a9 ad 96 3d
       0.044607636 0.028289622 0.07661779 0.07357342
000290 3c ae 60 3b 5d 44 88 bd a5 0f c1 3d db 2f 2a bd
       0.003428354 -0.06653664 0.09426812 -0.041549545
0002a0 8c b8 00 bd f2 b6 a9 bd 5c 1b 3b 3c a4 1f a3 bb
       -0.031425998 -0.08286847 0.011420097 -0.004978137
0002b0 f1 9d fa 3c 13 9b 87 bd 68 c4 de bd 6d 94 d0 bd
       0.03059289 -0.06621375 -0.10877305 -0.1018456
0002c0 f3 50 12 bd 73 e1 98 3c 35 8a 20 3d eb 33 07 be
       -0.03572173 0.01866219 0.039194304 -0.13203399
0002d0 24 06 ea bd 42 18 64 3d 80 17 83 3d 17 62 98 bd
       -0.114269525 0.055687197 0.06400967 -0.07440584
0002e0 3f 3c 47 3d ac eb 80 bd 4e f7 fe 3d 32 63 7a bd
       0.04864144 -0.06294951 0.124495134 -0.061129756
0002f0 49 01 cb 3d a4 01 87 3d ac 82 c3 3d 80 03 99 3d
       0.099123545 0.0659211 0.09546408 0.07471371
000300 12 cf ce bd fc e4 a3 bd 7c 96 fb bd 5d 56 49 3d
       -0.10098089 -0.0800266 -0.12284562 0.049154628
000310 c7 d0 a7 bd 40 2c 6c bb 54 5f e6 3d f0 69 84 bc
       -0.08194118 -0.0036037117 0.11248651 -0.016163796
000320 6d 96 24 3d 39 f5 8f bd f7 0a 8c 3c 0d a2 6a bd
       0.04018252 -0.070291944 0.017095072 -0.05728345
000330 6a 88 32 bb 52 14 86 bd 23 94 ad 3b ac 1f 0a 3e
       -0.0027241954 -0.065468445 0.0052972003 0.13488644
000340 fa 54 30 bc 54 8f 3f bd 57 c4 c6 3c f1 76 3f 3d
       -0.0107624475 -0.046767548 0.024263544 0.04674429
000350 de c6 59 3c 92 af 99 3c cc 90 96 bc d6 dd 65 bd
       0.013292043 0.018760476 -0.018379591 -0.056119762
000360 b4 61 d2 3d 7d ef d7 bc 69 56 bb bb 56 02 a8 bd
       0.10272542 -0.026359314 -0.005717088 -0.082035705
000370 b4 33 b4 3d 15 43 e6 bd 17 19 22 3c 3c a2 d2 bd
       0.08798924 -0.11243264 0.009893677 -0.1028485
000380 49 90 90 bd 0d f7 ab bc 16 9e 76 3d 95 dc 82 bd
       -0.0705877 -0.020991826 0.060209356 -0.06389729
000390 8f 35 dc bc b2 cb 52 bd ef 2e 04 bc 98 08 db bd
       -0.026881007 -0.05146379 -0.0080678305 -0.106949985
0003a0 94 91 be 3d bd 5c 99 bd d2 33 dd 3c 62 c9 02 be
       0.093051106 -0.074883915 0.027002249 -0.12772134
0003b0 55 34 bc 3d aa 0f cf bd 2e 68 bb bd 55 16 65 3d
       0.09189669 -0.101104096 -0.0915073 0.0559295
0003c0 e0 55 f1 3c 12 c4 8b bd a4 98 c7 3d 04 50 dd ba
       0.029459894 -0.06824507 0.09745911 -0.0016884808
0003d0 aa d5 0b 3d 1a 4f 04 bd 07 61 36 bd 2b 42 a1 bd
       0.034139313 -0.032302 -0.044526126 -0.07873949
0003e0 65 f0 9a bd ee 2d 0e bd bf f4 e6 bd c1 73 45 3b
       -0.07565383 -0.03471177 -0.1127715 0.003012881
0003f0 b7 fd cd bc 56 2a 15 bd a6 8e a7 bd 9c 2b 85 bd
       -0.025145395 -0.036417328 -0.08181505 -0.065024585

lstm.weight_hh_l1 f4 [256, 64]
000000 ba 26 ed 3b 42 cd 06 be ee b8 8c 3d eb 2e 57 bd
       0.0072372826 -0.13164237 0.0687121 -0.05253498
000010 45 6e 71 3a 1f 46 c3 3d 61 c9 37 3d 71 bc dd bd
       0.0009209852 0.09534859 0.044869784 -0.10826958
000020 80 6e 5c 3d 47 5b b7 3d 91 e5 5b 3b 94 cb 90 bd
       0.05381632 0.08952957 0.003355358 -0.070700794
000030 eb 9d 64 bd 90 05 94 bd 69 80 42 3d 51 78 79 3d
       -0.055814665 -0.072276235 0.047485743 0.06090576
000040 94 f8 4b bd 03 3f da 3d 7b 8e 8e 3c 4d 87 a2 3d
       -0.04979761 0.1065655 0.017401924 0.07935963
000050 bd 16 ce 3d ab 9b d3 3d 86 fc 6d bd ca bb cb b9
       0.10062931 0.10332426 -0.058102153 -0.0003885909
000060 7a 86 8e bd 65 3b 85 bd a0 b7 92 bd 12 9e 63 3a
       -0.06959243 -0.06505469 -0.0716393 0.0008682917
000070 03 20 cd 3d 08 2d 0e 3d 07 0f d2 3d 09 ce af 3d
       0.100158714 0.034710914 0.102567725 0.0858422
000080 55 a5 f9 3d 72 c8 f8 3d 8d 35 77 bc 2e 60 a1 3c
       0.12189738 0.12147607 -0.015088451 0.019699182
000090 96 0a 3e 3d cb d9 41 bc 77 80 7f 3d 46 4b 95 bd
       0.046396814 -0.011831711 0.062378373 -0.07289748
0000a0 36 a7 e7 bd a1 68 c7 bd ce 67 a2 bd 8f b8 de 3d
       -0.1131119 -0.09736753 -0.079299554 0.108750455
0000b0 a7 55 74 3b 53 66 03 3d db 9c 1c bd 50 a8 cb bd
       0.0037282498 0.032080006 -0.038235527 -0.099442124
0000c0 6d 1d 2a bd 6c 57 6f 3d b1 0b 65 3b 3a 77 a5 3d
       -0.04153197 0.05843298 0.0034949596 0.08079381
0000d0 1c 02 11 be 7f 34 dc bc 2e e1 03 bc 68 b0 c0 3d
       -0.14160961 -0.0268805 -0.0080492925 0.09408647
0000e0 03 d1 ec bd c3 a3 0c 3d a6 23 fa bd 76 21 83 3c
       -0.11563303 0.034335863 -0.12213831 0.016007166
0000f0 b4 5a d6 bd 3c 31 87 3c 19 5a 9d bd 23 24 ef bd
       -0.10466519 0.016502969 -0.076832004 -0.116768144
000100 36 52 95 3c be 30 37 bc 81 3b f0 bc f4 31 f5 3d
       0.018227678 -0.011181055 -0.029325249 0.119724184
000110 75 4e 37 bc 1c 00 49 3d ba 23 d8 3d 5e f7 d2 3c
       -0.011188139 0.04907237 0.10553689 0.02575272
000120 14 de 42 bd c5 bd 4c 3c d4 93 98 bc dc 5e a4 bd
       -0.04757507 0.012496416 -0.018625177 -0.080259055
000130 a7 e7 ee bd 4e fd 82 3d 16 67 eb bd 66 f0 c9 bd
       -0.11665278 0.0639597 -0.114942715 -0.098603055
000140 06 b5 e6 bd 00 f2 05 3e 56 cb 13 3d fb 95 b2 3c
       -0.11264996 0.13080597 0.036082588 0.021800032
000150 e2 d7 c0 3d 44 07 27 3c 18 a0 2b 3c 6d e0 02 bd
       0.094161764 0.010194603 0.010475181 -0.03195231
000160 5a 3f 88 bc 09 b1 a5 3d 11 09 5e bd 75 97 02 3e
       -0.01663177 0.080904074 -0.054207865 0.12753089
000170 f8 4b bb 3d e4 ab db bd 02 f6 87 bd e8 80 bb 3d
       0.09145349 -0.10726145 -0.06638719 0.09155446
000180 53 c3 1d bd 0d 3f c7 3c 99 bf ab 3d 28 5d 08 be
       -0.038516354 0.024322057 0.08386154 -0.13316786
000190 5c 26 b4 3d 02 f3 92 bd c2 c4 a2 bd 93 d0 ef bd
       0.08796379 -0.07175256 -0.07947685 -0.11709704
0001a0 d4 19 ed ba 93 bb 8b 3d 5e 29 9b bd b0 da 20 3c
       -0.0018089362 0.06822886 -0.075762495 0.009817764
0001b0 e2 3e ae bd 2b 26 f7 bd 71 ca 00 3c 1b 2b 13 bd
       -0.08508088 -0.12067827 0.007860766 -0.03592978
0001c0 63 59 da 3d ec 70 48 bd 8b 55 83 3c 44 41 96 3d
       0.106615804 -0.048935816 0.016032001 0.07336667
0001d0 20 b6 82 3d a1 42 83 3d 2b 77 c3 3d 02 e9 68 3d
       0.06382394 0.06409193 0.09544214 0.05686284
0001e0 51 9d 54 3d dd 2a 7b bd 9f 1c 99 3d ab 13 e2 3d
       0.05190784 -0.061320174 0.07476162 0.110389076
0001f0 f3 2c 21 3d 02 d0 a0 3d 79 6a d6 bd 6f 5a 22 3a
       0.039349508 0.07852174 -0.10469527 0.0006193285
000200 ab 90 f6 3d 2b 5e 8e 3c 9a 5e 1b 3d 14 7a e1 3d
       0.12039312 0.017378887 0.037932016 0.11009613
000210 1d c9 b2 bc 19 cc e7 bd 48 31 b9 3c 54 b1 80 3d
       -0.021824414 -0.113182254 0.022606507 0.06283823
000220 ce ed c9 3d 94 69 9c 3d 2f e4 ca 3c bf 39 22 3d
       0.09859811 0.07637325 0.02476701 0.039605852
000230 6e f9 00 be fc 76 d4 3d 3f 70 cf bd 45 a1 fb bc
       -0.1259515 0.10374257 -0.10128831 -0.030716548
000240 fe 3a d0 3d 4d ba dc 3d 18 5d 8a 3d 40 f1 a8 3d
       0.10167502 0.107777216 0.067560375 0.0824914
000250 17 18 99 bd 9a 67 14 3d 01 03 f7 bd c0 06 ce bd
       -0.07475298 0.036231615 -0.1206112 -0.10059881
000260 0b 18 f1 bc 0b 50 84 3d 14 0a 67 bc 31 06 26 3d
       -0.02943041 0.064605795 -0.014101524 0.04053325
000270 cf d3 59 3c 33 ce 02 3e 48 bc be 3d e2 cd ac bd
       0.013295128 0.12773971 0.093132555 -0.084377065
000280 89 d3 0c bd 30 7f f4 3d 4c d1 ca bd 5b 50 01 3d
       -0.034381423 0.119383216 -0.099032015 0.031570774
000290 f2 16 e9 3d 3e 1d be 3b f1 64 5e 3d a1 69 39 bd
       0.113813296 0.005801826 0.054295484 -0.04526675
0002a0 bc 9a de bc 36 3a 8c bd 76 d8 21 bd ca c1 c3 3c
       -0.027173392 -0.0684704 -0.039513074 0.023896117
0002b0 0f 27 94 bd a8 93 ef 3d 70 d4 a1 3d f4 ff e7 3d
       -0.07234012 0.11698085 0.07901847 0.11328116
0002c0 54 ba e8 bd 99 fa d1 3d b0 99 30 3d 8e 5e 10 3d
       -0.11363664 0.10252876 0.043115318 0.035246424
0002d0 15 c9 b4 bd 92 0b 85 3d 4d ec e0 3d d2 7d f3 bd
       -0.08827416 0.064963475 0.10982571 -0.11889233
0002e0 87 44 8a bd d7 38 64 3d 06 d6 15 bd 98 25 a3 3d
       -0.06751352 0.05571827 -0.03658106 0.07966155
0002f0 d0 ee 31 bd f2 59 55 3d 25 46 89 3c 30 4f 12 3d
       -0.04344064 0.05208773 0.01675708 0.03572005
000300 62 2b 0e 3d a2 cd 90 3c 17 fe f1 3c 91 66 b6 bd
       0.03470934 0.017676178 0.029540105 -0.08906282
000310 c7 c1 c8 bd cf 0e d3 3d 05 d9 81 bc 63 a0 82 3c
       -0.09802585 0.10305559 -0.015850553 0.015945619
000320 f2 2a 1c bd 27 b4 8a 3d 86 e8 74 bd 5a 6b 5d 3d
       -0.038126893 0.067726426 -0.059792064 0.054057457
000330 47 05 f2 3d f9 71 7a 3d 73 b3 ff 3d 6f eb 4d 3d
       0.11817413 0.06114385 0.12485399 0.050273355
000340 a4 50 33 bd 70 95 e1 ba b8 5c 24 3d fa a8 e0 bc
       -0.043778077 -0.0017210674 0.040127486 -0.027424324
000350 5e 13 41 bd d0 b9 d4 bd 03 da c1 bd c1 c0 8e 3d
       -0.04713761 -0.103870034 -0.094654106 0.06970359
000360 0c 28 dc 3d f8 9a b5 bc f8 3d ae bd 2b 56 e6 bc
       0.10749826 -0.022168621 -0.08507913 -0.02811726
000370 57 0b 5c bd 68 f5 06 be 0d 9d bc 3d 92 c3 2a bd
       -0.053721752 -0.13179553 0.092096426 -0.041690417
000380 92 c8 8a bc 3e e3 c8 bd 8e 97 44 bd 01 a0 df bd
       -0.016941343 -0.09808968 -0.047996096 -0.1091919
000390 38 63 e9 bc f9 e3 35 3c 75 0d 70 3d d6 ed bf bd
       -0.028489694 0.011101716 0.058606584 -0.093715355
0003a0 a8 5f a1 3d dd ad d7 3d 9d 47 02 bd c6 4d 8d bd
       0.07879573 0.10531209 -0.031806577 -0.068996
0003b0 74 78 13 bd 42 bc 09 bd 22 f7 eb bd 14 35 63 3d
       -0.036003545 -0.033626802 -0.11521746 0.05547054
0003c0 e4 1f b5 bd 58 5c 6a 3d 78 57 5e 3d 35 e3 f9 3c
       -0.08843973 0.057216972 0.054282635 0.030503849
0003d0 aa 41 26 3d d0 9a 17 3d cb 14 8a 3d fd e9 de bd
       0.040589966 0.037012875 0.06742247 -0.108844735
0003e0 fb 59 bf bd 0e f1 1b 3c 4e 1d b1 3c 98 61 86 bd
       -0.09343334 0.009517921 0.021620419 -0.06561583
0003f0 33 94 00 3d db 11 d4 3d 27 a9 7c 3b ca c5 00 bc
       0.031391334 0.10354968 0.003855297 -0.007859657

lstm.bias_ih_l1 f4 [256]
000000 30 2c 68 bc 57 f1 00 3d f5 a2 32 bd a9 c0 e8 bd
       -0.014170691 0.03148016 -0.04361244 -0.11364872
000010 33 b4 a6 3d 35 a1 ac 3d 9e d3 c7 3d ba 84 df bc
       0.08139839 0.08429185 0.0975716 -0.027284969
000020 fd 9d e3 bd 74 69 92 bd ea 9c eb 3d 56 b3 c5 bb
       -0.11114118 -0.0714902 0.11504538 -0.0060333414
000030 6a 79 1b 3d 71 fa ab bc ea 9f 69 bb 5a f5 3d bc
       0.037957586 -0.020993443 -0.0035648295 -0.011594141
000040 02 a9 a3 bd 17 97 d1 3d dd 24 86 3d de e2 52 3d
       -0.0799122 0.10233896 0.0655 0.05148589
000050 18 f9 9e 3c a1 c9 1e 3d 86 e9 a9 bd d3 66 fb bd
       0.019405887 0.038766507 -0.08296494 -0.122754715
000060 5b 65 ed 3d 56 27 eb bd 3b a3 92 3c c9 cf cd bd
       0.11591598 -0.11482112 0.0179001 -0.100493975
000070 90 c9 3e 3d 32 b3 d5 3d 04 7f df bc 15 ab 3c 3d
       0.046578944 0.104345694 -0.027282245 0.046061594
000080 c5 14 c9 3d 53 70 be 3d 4c 66 9b bd 02 a3 cd bd
       0.098184146 0.09298768 -0.07587871 -0.10040857
000090 21 b5 b4 bc ec 84 c5 bd 07 58 9a 3d 89 c3 fc bd
       -0.022059025 -0.096444935 0.07536321 -0.12341983
0000a0 19 68 eb 3d 81 78 c9 3c 78 1d 7e bd 9d 91 02 3e
       0.114944644 0.024593594 -0.062039822 0.1275086
0000b0 03 00 91 bd d2 7a b5 3d 87 76 55 3c c6 87 94 ba
       -0.0708008 0.08861317 0.013028747 -0.0011331968
0000c0 1f 55 f5 3c d2 f1 f8 bd 26 6e 44 3d 3a 65 22 bd
       0.029947815 -0.121554986 0.04795661 -0.03964732
0000d0 c9 cf e2 bc 68 b3 e2 3d ed 46 c0 bd 07 fa 9d 3c
       -0.02768697 0.11069375 -0.09388528 0.019284261
0000e0 e8 1a 5b 3c 44 01 6a bd 08 60 96 bd f0 d6 05 3d
       0.013373114 -0.057130113 -0.07342535 0.032675683
0000f0 43 cd 10 3d 46 df d7 3d 2d 95 68 bc dd 65 f2 bd
       0.035352003 0.10540633 -0.0141957225 -0.11835835
000100 4e ce 7b 3d e2 ae 1d 3d 92 12 14 bd a4 52 39 3c
       0.061476044 0.03849686 -0.036150523 0.011311207
000110 0d 0f 9d 3d 68 e0 37 3c 21 10 4b 3d 07 9f 42 bc
       0.07668886 0.011222936 0.04957593 -0.011878735
000120 65 16 94 3d 14 8d bb bd 5c 96 70 bd 26 b3 3d 3a
       0.07230834 -0.09157768 -0.058737144 0.0007236473
000130 2d f4 a6 3d 86 5e e5 bc 59 93 fe bc 3d f4 1f 3b
       0.081520416 -0.027999174 -0.03107612 0.0024407052
000140 b4 cb 4f 3d 9d ae d4 3d 56 6c 4d bd fb 3c d1 bd
       0.050731376 0.10384867 -0.050152145 -0.10216709
000150 88 01 ef bd 00 47 8d bd 34 68 85 bd e1 eb ac 3d
       -0.11670214 -0.06898308 -0.06514016 0.08443428
000160 3b 8a d0 3d aa 3d 38 3d b0 df 4d bd 06 a5 43 3d
       0.10182615 0.044980682 -0.050262153 0.0477648
000170 ae bb a8 bd 72 8a 1e bd 3c 42 f5 3b dc 81 d1 bd
       -0.08238922 -0.03870625 0.0074847024 -0.10229847
000180 34 e9 46 bc 54 0b 88 bd 8a 03 c2 3c 91 6c a8 3d
       -0.012140561 -0.06642786 0.023683328 0.082238324
000190 e4 e5 c9 bd 77 c1 95 bd 72 40 a2 3d 4f 8f 7a 3d
       -0.09858301 -0.07312291 0.07922448 0.061171826
0001a0 c7 b3 d0 bc 41 7c f2 bd 36 9a e3 3c 57 ae 54 bd
       -0.02547635 -0.11840106 0.027783494 -0.051924076
0001b0 fc ff 6c bc c2 40 a8 3d d9 e3 dc bd a9 ff c4 bd
       -0.014465328 0.082154766 -0.10785646 -0.09619076
0001c0 dc 3a b6 3d fd e6 03 3c 00 54 52 bd 79 5c 86 bd
       0.08897945 0.008050677 -0.05134964 -0.065606065
0001d0 21 9a b1 3d 0c 28 1f 3d 66 a1 c2 bd 50 48 c1 bd
       0.08671976 0.03885655 -0.095034406 -0.09437621
0001e0 bf 75 5b bb 0e 17 eb bd 36 f3 ad bd 3c 36 71 3d
       -0.003348693 -0.11479007 -0.084936544 0.058889613
0001f0 8b fb 8d 3d 12 24 49 3d 4e 6c 88 3d 15 ab ed bc
       0.06932744 0.049106665 0.066612825 -0.029012242
000200 5a e0 33 3d 4c e1 e0 bd 1b e7 a7 3d 47 32 c3 bb
       0.04391513 -0.10980472 0.08198377 -0.0059569213
000210 1d 9a 4f 3d 7e d1 93 bd ac 5e a2 3d 18 00 a3 bd
       0.050684083 -0.07217692 0.079282135 -0.07959002
000220 74 c7 59 bc 4c 1e 01 3e 92 ec c5 3d 54 49 8a 3d
       -0.013292182 0.12609214 0.09664263 0.067522675
000230 96 e3 80 bb 64 60 75 bd 5c 4d f9 3c 82 b1 ac bd
       -0.0039333804 -0.05990638 0.030432396 -0.084322944
000240 a1 2e ca bd dc 4a 86 39 20 bc d6 3c ba 39 ff bd
       -0.09872175 0.00025614246 0.026212752 -0.12462182
000250 8b bc b0 3d 38 05 cb 3d ce 9f 75 bd 93 24 dd bd
       0.08629712 0.09913105 -0.059966855 -0.107979916
000260 e2 75 de 3d 71 24 7a 3d 21 8c a0 bd 7b 16 20 bd
       0.10862328 0.06106991 -0.078392275 -0.03908394
000270 b4 e6 d6 3b fb 2f 96 bd 7e 84 b1 39 81 02 4d 3d
       0.0065582637 -0.0733337 0.00033858785 0.050051216
000280 a1 3f fc 3c 4e 56 d3 3a 9f 0a 5a 3d b0 ae ec 3d
       0.03079206 0.0016123743 0.053232785 0.115567565
000290 cd 5f b8 3d ab a5 a5 bd d2 35 cc bd c3 af 8b bd
       0.090026475 -0.08088239 -0.09971203 -0.06820633
0002a0 9b 94 2c 3d 80 44 eb bd 96 55 a5 bd 22 31 c4 bc
       0.04213391 -0.11487675 -0.08072965 -0.02394921
0002b0 d0 ec 9b bd 3a a0 13 bc 74 a8 ef bd c4 de 91 bd
       -0.07613528 -0.009010369 -0.11702052 -0.07122567
0002c0 4c 9d 08 bd d8 e0 5c 3d 03 7d 45 3c 34 50 94 3c
       -0.033353135 0.053925365 0.012053731 0.01810465
0002d0 f3 90 be bd fd 36 ec 3c 28 93 61 bd 50 a4 93 bd
       -0.093049906 0.028834814 -0.05507198 -0.072090745
0002e0 18 2b 37 3b 67 07 bc bc 68 f6 ab 3b 37 d6 ba bd
       0.002794927 -0.022952748 0.00524788 -0.091228895
0002f0 ce 6b ed bb 38 60 bf bd 9f 11 e3 bd 67 15 cb 3d
       -0.0072455173 -0.09344524 -0.11087345 0.099161915
000300 0f 88 49 3d 11 a6 af 3d 61 6e 0d bb d8 b6 c9 3c
       0.04920202 0.085765965 -0.0021580684 0.02462332
000310 4a 3c d5 3c 22 bd 2c bd 60 51 9f 3d b7 62 e3 bd
       0.026029725 -0.04217256 0.07779193 -0.11102813
000320 9a cb 69 bd 00 b1 b0 3d 43 2b 78 bd dc 51 65 3d
       -0.057078935 0.0862751 -0.060588133 0.05598627
000330 23 41 58 3d ff d5 c9 3d 7b f9 68 bd 9e 68 a9 3d
       0.052796494 0.0985527 -0.056878548 0.08271907
000340 52 44 9a bd 61 89 50 3c be 14 24 3d 3c f1 b7 3c
       -0.07532562 0.012728066 0.040058844 0.022453897
000350 d9 b7 1a bd 14 13 73 3c 8f f9 6a bd 0b a7 94 3d
       -0.037772987 0.014836092 -0.057366904 0.072584234
000360 7c 2c 8a bb b1 bf 6d bd 73 0d 93 3c 5d 5d d2 bd
       -0.0042167287 -0.05804414 0.017950749 -0.10271714
000370 b0 e8 d8 3b 2a 11 da 3d 5e 01 a7 bd bf f9 41 3d
       0.0066195354 0.10647805 -0.08154558 0.047357317
000380 0c fa dc 3c 94 66 a3 3d 03 bd d9 bb 26 98 8a bd
       0.0269747 0.079785496 -0.0066448464 -0.06767301
000390 3e e2 a4 bd 21 53 a8 bd c5 51 c0 3d 9a 03 8c bd
       -0.08050965 -0.082189806 0.09390596 -0.068366244
0003a0 1a 70 b3 3d 79 59 3b 3d a5 b4 6d 3d 70 c7 29 3b
       0.08761616 0.045739625 0.058033604 0.0025906228
0003b0 21 81 d5 bd 2f 55 c9 3b 7c 12 4e 3d 09 3c 66 bd
       -0.1042502 0.006144188 0.050310597 -0.056209598
0003c0 89 bd 02 bd 6e 74 79 3d e2 62 da 3d 96 69 98 bd
       -0.031919036 0.06090205 0.10663392 -0.07442014
0003d0 6f b8 cd 3d 35 76 1e bd 61 c8 00 3d 8f 29 82 bd
       0.100449435 -0.03868695 0.031441096 -0.06355583
0003e0 9e db 96 3d cf 7a 30 bc 00 07 de 3d 42 e5 c6 bd
       0.073661074 -0.010771467 0.10841179 -0.09711696
0003f0 45 4b ef bc bc 83 a3 3b f4 28 a6 bd 9f 32 ca 3d
       -0.029210696 0.004990069 -0.0811328 0.098729365
