Competition/TrainAI/model/c/model_weights_4.pth (torch, 441743 bytes, 18 tensors)

lstm.weight_ih_l0 f4 [256, 34]
-0.22009477 -0.019548357 0.07382059 -0.31904656 -0.22064598 0.14617953 -0.21864359 -0.2103676
-0.061453585 0.12447042 -0.015051298 -0.080101 -0.060689516 -0.22561726 -0.17203924 0.025426894
-0.13450582 0.014799155 -0.04150846 -0.2689942 2.5943384e-05 0.021558544 -0.10726123 -0.04541434
-0.012939728 -0.13374253 -0.118089125 -0.0414805 -0.07014328 0.1346827 -0.051733218 -0.057912834
-0.03853776 -0.11610269 0.014252149 -0.6883743 -0.06898898 -0.62806934 -0.55501986 -0.36205438
-0.5828577 -0.6521731 -0.3800925 -0.12115603 -0.10369418 -0.024748717 -0.042026863 -0.118445
-0.12961578 -0.43341064 -0.38809755 -0.38258487 -0.56246287 -0.013531898 -0.21056752 0.11565718
-0.26741913 0.020314084 -0.19797799 0.116557285 -0.13963722 -0.12472391 -0.3064369 0.022021782
-0.25898963 -0.07130621 0.19845094 -0.14943366 -0.25543538 0.06311531 -0.12820482 0.01098327
0.1647707 0.08680221 0.12618046 0.11732642 -0.07952343 0.02457361 -0.15726529 -0.029870506
-0.15172854 -0.15188712 -0.080162786 0.19674292 -0.13547383 0.116407104 0.03854041 -0.116453685
-0.089277 -0.042144053 0.048410565 0.037305772 0.1264204 0.049573522 0.16832726 0.06026042
-0.0721757 0.012052253 0.040633436 0.015945824 -0.11876209 -0.10679014 0.08092411 -0.15753415
0.1802196 0.17928725 -0.10578085 -0.39048818 0.2996614 -0.2297642 -0.44745234 -0.07402476
-0.092973374 -0.12620476 -0.2622273 -0.24191056 -0.20923696 0.38338733 0.1885182 0.34077203
0.23997028 -0.006512997 -0.0821694 0.023917597 0.053928714 -0.101436906 -0.13397819 -0.010237771
-0.16760643 -0.0026023076 -0.045048825 -0.063782655 0.007793078 -0.04878688 0.0919324 -0.04178901
-0.15251823 -0.057023417 0.011150921 0.048051007 0.19550107 0.014585574 0.06936834 0.09405169
0.18070029 0.1394981 0.13305372 0.11682868 0.013555177 0.07049983 0.14511074 -0.11341034
-0.1423736 0.011376282 -0.05748417 0.053045917 -0.048379973 -0.004767819 0.07590653 -0.032756485
0.054187186 -0.024139484 0.09273682 -0.033965416 0.17902002 -0.038095824 0.07591756 -0.105761155
0.08329569 -0.0078015476 0.0533718 -0.027387278 -0.01840663 0.07028781 0.13457257 0.08200853
-0.024855323 0.24899773 0.10882933 0.2927966 0.37124282 0.14981692 0.18394695 0.18422842
0.21661696 0.12972951 0.046499263 0.14773443 0.07327031 0.21885073 0.19736522 0.037844103
0.25579613 0.0839273 0.25047874 0.29943204 0.12256954 0.14258105 0.24329165 0.020890929
0.20359446 -0.10303085 -0.07447764 0.104013965 0.009090078 -0.12153899 -0.10601515 0.027517034
0.044790674 -0.1633777 -0.035145525 0.0899722 -0.01939256 -0.13281588 0.24020423 0.36496833
-0.2479709 0.17171626 0.21196191 -0.2527046 -0.10637467 -0.24108061 -0.20908166 -0.23134984
0.040381763 -0.26473832 0.3434933 -0.31249008 -0.39619756 -0.23385791 -0.1937638 0.21976417
0.11684561 0.36797634 0.14556332 -0.019322809 0.08427355 0.014544566 0.011794802 -0.13758
-0.29360592 -0.23446898 -0.09487026 0.16090974 -0.14623106 -0.042649925 0.004968918 -0.03864064
0.073053665 0.0694927 -0.21451943 -0.2466215 -0.19591 -0.10847765 -0.06123838 0.12209572
00000000: 8660 61be e023 a0bc 402f 973d 125a a3be
00000010: 05f1 61be 16b0 153e 1be4 5fbe 9b6a 57be
00000020: c1b6 7bbd 59ea fe3d b899 76bc fe0b a4bd
00000030: 9295 78bd 3608 67be 0e2b 30be 104c d03c
00000040: e5bb 09be 2878 723c c604 2abd 9cb9 89be
00000050: fea0 d937 8b9b b03c c7ab dbbd 6304 3abd
00000060: 2701 54bc cdf3 08be b6d8 f1bd 75e7 29bd
00000070: 48a7 8fbd 43ea 093e 36e6 53bd 0236 6dbd
00000080: c5d9 1dbd 3fc7 edbd d881 693c 4c39 30bf
00000090: 184a 8dbd 27c9 20bf c815 0ebf 315f b9be
000000a0: 2a36 15bf d1f4 26bf 7c9b c2be a720 f8bd
000000b0: 9d5d d4bd d2bd cabc 5c24 2cbd 4b93 f2bd
000000c0: 00ba 04be 00e8 ddbe b9b4 c6be 2ae2 c3be
000000d0: 91fd 0fbf e5b4 5dbc 039f 57be acdd ec3d
000000e0: 29eb 88be b969 a63c beba 4abe 96b5 ee3d
000000f0: 0ffd 0ebe 406f ffbd 4ce5 9cbe 0667 b43c
00000100: 4a9a 84be fd08 92bd b936 4b3e 2305 19be
00000110: 6dc8 82be 9a42 813d 2048 03be 2cf3 333c
00000120: a6b9 283e 5bc5 b13d 7335 013e d648 f03d
00000130: 2edd a2bd 984e c93c 270a 21be feb2 f4bc
00000140: ba5e 1bbe 4c88 1bbe 632c a4bd fa76 493e
00000150: a7b9 0abe d966 ee3d 8ddc 1d3d 457f eebd
00000160: dcd6 b6bd 3e9f 2cbd 284a 463d f0cd 183d
00000170: 5974 013e 9b0d 4b3d fb5d 2c3e a1d3 763d
00000180: dad0 93bd d076 453c 3f6f 263d d1a0 823c
00000190: 8a39 f3bd cab4 dabd 8abb a53d a250 21be
000001a0: 7d8b 383e 1497 373e a1a3 d8bd 11ee c7be
000001b0: 386d 993e 4e47 6bbe 7918 e5be 4b9a 97bd
000001c0: d368 bebd d23b 01be a842 86be 67b7 77be
000001d0: 3742 56be 584b c43e ea0a 413e ac79 ae3e
000001e0: c5ba 753e fb6a d5bb 6e48 a8bd d6ee c33c
000001f0: 5be4 5c3d 27be cfbd 9431 09be 53bc 27bc
00000200: 05a1 2bbe 7a8b 2abb 1e85 38bd 7ba0 82bd
00000210: 145d ff3b c0d4 47bd 0e47 bc3d f42a 2bbd
00000220: bd2d 1cbe 6391 69bd 5ab2 363c 22d1 443d
00000230: 6f31 483e 55f8 6e3c fd10 8e3d 2c9e c03d
00000240: 7f09 393e 97d8 0e3e 3c3f 083e e043 ef3d
00000250: 8816 5e3c 3762 903d e997 143e ae43 e8bd
00000260: 63ca 11be 9663 3a3c 8574 6bbd ad46 593d
00000270: 142a 46bd 5d3b 9cbb e274 9b3d aa2b 06bd
00000280: 62f3 5d3d 2bc0 c5bc cdec bd3d 521f 0bbd
00000290: 0651 373e 5e0a 1cbd aa7a 9b3d 4e99 d8bd
000002a0: ee96 aa3d 20a4 ffbb 639c 5a3d 495b e0bc
000002b0: 80c9 96bc 0ef3 8f3d 64cd 093e 17f4 a73d
000002c0: 649d cbbc 43f9 7e3e e9e1 de3d 70e9 953e
000002d0: 8a13 be3e 9b69 193e 975c 3c3e 60a6 3c3e
000002e0: d6d0 5d3e d0d7 043e 0376 3e3d b247 173e
000002f0: bf0e 963d 681a 603e 1c1a 4a3e 6b02 1b3d
00000300: b6f7 823e 14e2 ab3d c03e 803e 284f 993e
00000310: bd05 fb3d c400 123e 7221 793e 7423 ab3c
00000320: 117b 503e d701 d3bd bc87 98bd 4605 d53d
00000330: 8dee 143c 6fe9 f8bd 791e d9bd 676b e13c
00000340: 6d76 373d 7c4c 27be c1f4 0fbd 5843 b83d
00000350: 25dd 9ebc e300 08be 19f8 753e 21dd ba3e
00000360: 15ec 7dbe 63d6 2f3e 8b0c 593e 7f62 81be
00000370: f7da d9bd d6dd 76be 8119 56be f9e6 6cbe
00000380: 5967 253d c88b 87be 5bde af3e b3fe 9fbe
00000390: 68da cabe 7378 6fbe 056a 46be dc09 613e
000003a0: c04c ef3d 6567 bc3e 8d0e 153e de4a 9ebc
000003b0: 9c97 ac3d 554c 6e3c fc3e 413c c6e1 0cbe
000003c0: 8453 96be a318 70be 574b c2bd 86c5 243e
000003d0: 98bd 15be b0b1 2ebd 4ed2 a23b a645 1ebd
000003e0: 299d 953d 3052 8e3d fbaa 5bbe 598a 7cbe
000003f0: a29c 48be 8829 debd 18d5 7abd 520d fa3d

lstm.weight_hh_l0 f4 [256, 64]
0.1443595 0.06459944 -0.017542107 -0.014296524 0.18416248 0.048653804 -0.21826792 0.17012279
0.05365309 -0.16546491 -0.29218516 0.14463484 0.17216057 0.103561714 -0.06435336 0.22183208
-0.014697062 0.04038405 -0.05584657 -0.049233463 0.026986929 -0.08037173 0.04085259 -0.041513477
0.18627486 0.06491828 -0.13029361 0.10554724 0.09242404 -0.12245273 -0.14163536 -0.021837229
0.051021893 -0.092864335 -0.14370723 -0.026863437 0.1623579 0.015316438 0.20020153 0.023975743
0.062752806 -0.07167741 -0.027319923 -0.3170743 0.089159586 -0.14895321 -0.05171212 0.25258568
-0.08784032 -0.02388568 -0.10002581 0.2268911 -0.10468179 0.10147052 -0.11074515 -0.09122695
0.11819627 0.13841657 -0.10699079 0.12156917 0.08366828 -0.07526703 -0.05913401 -0.07571391
0.18519396 -0.24138305 -0.0032991609 -0.27773654 -0.013519801 -0.25390264 0.1816848 0.2634638
0.4016619 -0.5567676 -0.12021905 0.24318965 -0.032277256 -0.38129768 -0.30539817 0.10928401
-0.15921725 0.35390204 0.10093187 -0.20389695 -0.04228757 0.03034171 -0.07956797 -0.35635987
0.08776301 -0.097720556 0.0087000625 0.22738282 0.06460582 0.79153734 -0.10427452 0.4414201
-0.15479413 0.18541682 -0.41561544 -0.018920524 0.08652435 0.36502108 0.23485623 0.25981128
0.09938451 -0.09015768 0.0166979 -0.40155664 -0.049710434 -0.33715427 0.1366069 -0.01011965
-0.19234517 -0.08679108 0.03328059 -0.008763064 0.023888309 -0.1953133 0.042293888 -0.13876621
0.11806171 0.07571667 -0.53201425 -0.47538355 -0.21897525 -0.17158824 0.23219411 0.10809488
0.22807221 0.09029454 0.072548896 -0.04777445 -0.01572035 -0.11397504 -0.044276293 -0.09794426
-0.18097132 0.08586333 -0.04357898 -0.1308513 0.042263404 -0.15198272 -0.06640175 0.054357428
-0.116989255 0.04601592 0.10066801 -0.1058757 -0.19108152 -0.07084617 0.06694826 -0.03143163
-0.031439845 0.16363023 -0.18274978 0.018842831 0.057353396 0.050260853 0.08430042 -0.1988421
-0.071870886 0.28455034 -0.13583106 0.09586365 0.2143475 -0.0049209557 -0.06457289 -0.004256884
0.0009886418 0.09407025 -0.1082147 -0.1412357 0.1270974 -0.1471175 -0.039380014 0.073154695
-0.043258034 -0.02455987 -0.030028611 0.07186123 -0.026790826 -0.23290788 -0.009705993 0.26233083
0.120886356 -0.004981352 -0.07784894 -0.05221261 0.18245949 0.19622153 -0.035133194 -0.14738373
-0.082523234 -0.09536704 -0.060388073 0.017217673 0.037329648 -0.09084873 -0.043955557 0.26444086
0.21786992 -0.18365441 -0.0077344906 0.16904216 0.079079404 0.090456784 0.23860663 -0.06551476
-0.19370928 0.105984665 -0.11257795 0.09121504 0.017548354 0.03670046 0.031405307 -0.0741847
-0.057829347 -0.10533348 -0.2504027 -0.05628643 -0.037353445 0.00064860424 -0.052160654 0.11574836
0.102925435 0.11046897 -0.103182636 0.04883807 0.0500166 0.083296865 0.12990978 0.087757155
-0.060183115 0.07911991 -0.0716668 -0.006098335 -0.017124597 0.10550024 -0.09741223 -0.026637835
-0.043425843 0.014458857 -0.10931204 0.11169572 -0.12432124 0.01835766 0.004111674 -0.04649983
0.19255354 0.09674716 -0.08521653 -0.24306516 0.2595533 -0.16090302 0.065350674 0.18924966
00000000: fad2 133e b64c 843d 77b4 8fbc f83b 6abc
00000010: 1795 3c3e 3649 473d a081 5fbe ab34 2e3e
00000020: 58c3 5b3d a26f 29be 4b99 95be 281b 143e
00000030: dc4a 303e 2a18 d43d b2cb 83bd f327 633e
00000040: f2cb 70bc bf69 253d 5fbf 64bd 07a9 49bd
00000050: b113 dd3c ef99 a4bd 0c55 273d 090a 2abd
00000060: d6be 3e3e e0f3 843d b06b 05be 2729 d83d
00000070: d148 bd3d 7fc8 fabd dc08 11be fde3 b2bc
00000080: 55fc 503d a82f bebd fd27 13be b610 dcbc
00000090: 2641 263e ccf1 7a3c a101 4d3e c768 c43c
000000a0: 8b84 803d 9bcb 92bd 08ce dfbc 9057 a2be
000000b0: 4d99 b63d 3187 18be 17d0 53bd e952 813e
000000c0: a0e5 b3bd e7ab c3bc 55da ccbd 2456 683e
000000d0: 6863 d6bd c7cf cf3d 5ace e2bd 32d5 babd
000000e0: e310 f23d 13bd 0d3e fd1d dbbd 42f9 f83d
000000f0: 465a ab3d 9a25 9abd 8136 72bd e50f 9bbd
00000100: 7ca3 3d3e 1e2d 77be bc36 58bb 7c33 8ebe
00000110: 2882 5dbc 87ff 81be 950b 3a3e bae4 863e
00000120: a1a6 cd3e 5288 0ebf 6835 f6bd b506 793e
00000130: 2835 04bd 7339 c3be 265d 9cbe 4cd0 df3d
00000140: d909 23be a632 b53e 5eb5 ce3d 5dca 50be
00000150: bb35 2dbd 2e8f f83c 88f4 a2bd cd74 b6be
00000160: 18bd b33d b721 c8bd b58a 0e3c 0bd7 683e
00000170: 0e50 843d 31a2 4a3f e18d d5bd d101 e23e
00000180: 5a82 1ebe e8dd 3d3e 8ccb d4be 37ff 9abc
00000190: ae33 b13d 0be4 ba3e 277e 703e fc05 853e
000001a0: 1b8a cb3d 97a4 b8bd 09ca 883c d598 cdbe
000001b0: 2b9d 4bbd 7c9f acbe aee2 0b3e e3cc 25bc
000001c0: 22f6 44be 86bf b1bd 3a51 083d f492 0fbc
000001d0: 6ab1 c33c 3600 48be 5b3c 2d3d bb18 0ebe
000001e0: 56ca f13d 5711 9b3d 1632 08bf 7965 f3be
000001f0: 0c3b 60be d4b4 2fbe 4bc4 6d3e d960 dd3d
00000200: c38b 693e 58ec b83d 8494 943d 24af 43bd
00000210: f7c7 80bc bf6b e9bd 0f5b 35bd 0097 c8bd
00000220: 8c50 39be 1dd9 af3d df7f 32bd e2fd 05be
00000230: 641c 2d3d 5ca1 1bbe a4fd 87bd e5a5 5e3d
00000240: 1098 efbd 307b 3c3d 082b ce3d 5cd5 d8bd
00000250: e0aa 43be cc17 91bd 2b1c 893d 74be 00bd
00000260: 11c7 00bd af8e 273e c222 3bbe 485c 9a3c
00000270: 65eb 6a3d 53de 4d3d b3a5 ac3d 439d 4bbe
00000280: 0b31 93bd 95b0 913e 4c17 0bbe 2954 c43d
00000290: e97d 5b3e f83f a1bb cb3e 84bd 557d 8bbb
000002a0: 5095 813a e7a7 c03d ab9f ddbd 17a0 10be
000002b0: d225 023e f8a5 16be f04c 21bd 21d2 953d
000002c0: 562f 31bd c831 c9bc 90fe f5bc fb2b 933d
000002d0: 6f78 dbbc 677f 6ebe e305 1fbc 3a50 863e
000002e0: 4493 f73d 9c3a a3bb 446f 9fbd e4dc 55bd
000002f0: a9d6 3a3e 4cee 483e d3e7 0fbd c3eb 16be
00000300: f101 a9bd cb4f c3bd 7c59 77bd 140c 8d3c
00000310: f9e6 183d e60e babd be0a 34bd cb64 873e
00000320: 4b19 5f3e e70f 3cbe 9c71 fdbb 6319 2d3e
00000330: 62f4 a13d 6841 b93d 4c55 743e 9a2c 86bd
00000340: ba5b 46be 7d0e d93d 458f e6bd f3ce ba3d
00000350: 91c1 8f3c 3953 163d daa2 003d 26ee 97bd
00000360: 77de 6cbd 14b9 d7bd c834 80be 9a8c 66bd
00000370: edff 18bd 1807 2a3a 69a6 55bd 7a0d ed3d
00000380: 92ca d23d 8e3d e23d 6b51 d3bd 6e0a 483d
00000390: 35de 4c3d 8c97 aa3d 1207 053e 06ba b33d
000003a0: 9282 76bd 9f09 a23d 0bc6 92bd 8bd4 c7bb
000003b0: e248 8cbc 8310 d83d 1080 c7bd 9737 dabc
000003c0: 4cdf 31bd d7e4 6c3c fede dfbd bac0 e43d
000003d0: 229c febd ce62 963c 39bb 863b 9b76 3ebd
000003e0: c12c 453e 6023 c63d 0186 aebd 13e6 78be
000003f0: 2ce4 843e c3c3 24be 93d6 853d aaca 413e

lstm.bias_ih_l0 f4 [256]
0.0100486195 -0.40464035 -0.035383772 -0.19422635 -0.1617157 -0.081509076 0.09164418 0.06465659
-0.023858264 1.106581 0.047102265 0.072538994 -0.08955099 0.083977364 0.07382439 -0.12014654
-0.98488945 0.24367529 -0.23196581 0.19589137 -0.0026043649 -0.12393157 -0.058309246 -0.031865653
-0.09569289 0.029735891 -0.068183996 0.16798286 -0.08580061 0.47885343 0.06801463 0.14169097
-0.571423 -0.28033465 0.01116379 -0.21912907 0.012770424 0.15263489 0.14536963 0.048012044
-0.23571768 -0.21066074 -0.1397661 0.11412699 -0.14619386 0.020674733 0.086756654 -0.08926691
0.50532895 0.027090082 0.1823796 -0.15713014 -0.16987701 -0.16748886 -0.019626977 -0.17762993
-0.32097307 -0.12207341 1.0307109 0.21112713 0.52796644 0.069204666 -0.04905345 0.16799909
0.003323399 -0.32580823 -0.09636201 0.03732895 0.0847345 -0.09416159 -0.2700087 -0.08127086
0.02359573 -0.035475116 0.055291217 -0.058378305 -0.10470458 0.08941034 -0.27662408 -0.043651614
-0.07894609 -0.20562775 -0.17655629 -0.2243733 -0.025389917 0.016058156 -0.17508982 -0.040614452
-0.021473903 0.029219704 0.14333323 -0.07156419 0.050237842 -0.098861285 -0.029671399 0.06164212
0.045459345 -0.022603365 0.12721528 -0.1518836 0.18754728 0.1332881 -0.123371966 0.06005495
-0.26840305 -0.13437082 -0.0996503 0.006334597 -0.13342181 0.05965891 0.03348899 -0.14231995
-0.043412928 0.14318664 0.099840164 -0.25091356 -0.38910532 -0.11951594 -0.021298205 -0.19500653
-0.013972218 -0.024254944 -0.23672992 0.15849786 0.11916514 0.15311264 -0.117986955 0.061287105
0.2530618 0.10537223 0.0108679375 -0.09853276 0.07581762 0.067740954 -0.037357744 0.003921777
-0.24408759 0.116008446 -0.18020974 0.07192937 0.09940505 0.016271763 -0.017089648 0.0021609503
-0.012823687 -0.2176961 0.17562912 0.1367231 -0.103785746 -0.08431118 0.045440003 0.09913974
0.12735875 -0.042426676 -0.19813788 -0.10713079 0.17370571 0.046133574 0.10060566 -0.19122939
-1.0821558 -0.020462906 -0.034361657 -0.16169211 0.10676285 -0.11513722 0.000597514 0.08664341
-0.10456872 -0.02564972 -0.023199309 0.15283257 -0.086259164 -0.01385484 0.048627004 0.13100956
0.043803807 0.06532169 -0.05681766 0.019055834 -0.15472886 0.07954831 0.0052228984 0.060201563
-0.13790038 0.06907129 -0.005572849 0.25678283 0.3468122 -0.12966728 -0.18582918 -0.11858723
0.088900305 -0.9635664 0.076172516 -0.1410157 -0.21709833 0.15493378 -0.23788078 -1.0957586
1.1198995 -0.010797879 0.044885773 -0.18203524 0.007345914 0.10256522 0.24602532 -0.072740994
-0.3277031 0.7843555 -0.8219282 -0.26910704 0.3485382 -0.11680326 -0.13980664 -0.05015279
-0.06415206 -0.08408471 -0.080155395 0.21999945 0.13587205 -0.15300746 0.106624976 -0.034494724
0.20106469 -0.41785556 0.29593992 -0.36954418 0.054341488 0.51228905 0.1307167 -0.1255195
-0.119037636 -0.10651901 1.2803451e-05 0.34115627 -0.16804576 0.33082917 0.093817234 0.16544777
-0.051105574 -0.10926781 0.06635646 -0.17739435 -0.48139584 -0.12834054 -0.095290676 -0.118783236
-0.21169509 -0.095350005 0.20113413 -2.0525473e-05 0.051004373 -0.40480596 -0.15156128 0.03198605
00000000: f7a2 243c 052d cfbe 93ee 10bd 46e3 46be
00000010: cd98 25be 3bee a6bd f2af bb3d ad6a 843d
00000020: 6872 c3bc 72a4 8d3f 4eee 403d 538f 943d
00000030: 8266 b7bd 53fc ab3d 3e31 973d 640f f6bd
00000040: b721 7cbf 0486 793e 7288 6dbe bf97 483e
00000050: fead 2abb d6cf fdbd add5 6ebd 8f85 02bd
00000060: a2fa c3bd af98 f33c 0da4 8bbd b303 2c3e
00000070: 3bb8 afbd 472c f53e 414b 8b3d 7017 113e
00000080: c748 12bf 0688 8fbe 54e8 363c 5f63 60be
00000090: 0a3b 513c 524c 1c3e c7db 143e 47a8 443d
000000a0: fa5f 71be 73b7 57be d81e 0fbe 69bb e93d
000000b0: d8b3 15be 0f5e a93c 79ad b13d 92d1 b6bd
000000c0: 3d5d 013f 05ec dd3c b8c1 3a3e b9e6 20be
000000d0: 3df4 2dbe 3382 2bbe c1c8 a0bc 9fe4 35be
000000e0: 9556 a4be a001 fabd 56ee 833f b631 583e
000000f0: cf28 073f 2dbb 8d3d 45ec 48bd f407 2c3e
00000100: 62cd 593b 56d0 a6be 7259 c5bd 3ee6 183d
00000110: 4889 ad3d cbd7 c0bd 953e 8abe 5671 a6bd
00000120: d54b c13c 5b4e 11bd 0b79 623d 171e 6fbd
00000130: 5b6f d6bd c51c b73d aca1 8dbe 09cc 32bd
00000140: 7dae a1bd 1590 52be 2ccb 34be 1dc2 65be
00000150: 84fe cfbc 658c 833c bf4a 33be 575b 26bd
00000160: 0aea afbc 295e ef3c f2c5 123e 3f90 92bd
00000170: 32c6 4d3d c977 cabd 6f11 f3bc 737c 7c3d
00000180: 9433 3a3d b12a b9bc b944 023e 6087 1bbe
00000190: 650c 403e ad7c 083e 71aa fcbd 2efc 753d
000001a0: 206c 89be 8198 09be 7515 ccbd 7392 cf3b
000001b0: ba9f 08be e75c 743d c02b 093d 52bc 11be
000001c0: c1d1 31bd 859f 123e 0079 cc3d be77 80be
000001d0: d038 c7be c6c4 f4bd 9379 aebc cbaf 47be
000001e0: bbeb 64bc 4eb2 c6bc 5469 72be 434d 223e
000001f0: da0c f43d 8fc9 1c3e 25a3 f1bd 3008 7b3d
00000200: 5191 813e 65cd d73d 6f0f 323c 8bcb c9bd
00000210: 4546 9b3d c5bb 8a3d 6f04 19bd 4082 803b
00000220: 19f2 79be d695 ed3d e788 38be b54f 933d
00000230: e094 cb3d 5c4c 853c 97ff 8bbc bb9e 0d3b
00000240: 711a 52bc baeb 5ebe 1fd8 333e 2401 0c3e
00000250: 9f8d d4bd 57ab acbd 4c1f 3a3d c709 cb3d
00000260: 556a 023e 98c7 2dbd a8e4 4abe 6367 dbbd
00000270: e9df 313e 8ff6 3c3d 570a ce3d a3d1 43be
00000280: 1584 8abf d3a1 a7bc cfbe 0cbd 9e92 25be
00000290: 7ba6 da3d 10cd ebbd 7ca2 1c3a 1a72 b13d
000002a0: 2028 d6bd 5d1f d2bc 7a0c bebc 2480 1c3e
000002b0: a5a8 b0bd 69ff 62bc 1c2d 473d 5f27 063e
000002c0: 9f6b 333d 61c7 853d a2b9 68bd fb1a 9c3c
000002d0: 3e71 1ebe 39ea a23d d924 ab3b ea95 763d
000002e0: c235 0dbe 4075 8d3d 729c b6bb 0a79 833e
000002f0: 5e91 b13e 80c7 04be 014a 3ebe dddd f2bd
00000300: 5d11 b63d 4aac 76bf 5600 9c3d 6b66 10be
00000310: 064f 5ebe f6a6 1e3e 0597 73be d141 8cbf
00000320: de58 8f3f 96e9 30bc 25da 373d 7267 3abe
00000330: feb5 f03b b70d d23d 10ee 7b3e 3bf9 94bd
00000340: b3c8 a7be 86cb 483f e369 52bf 66c8 89be
00000350: 9973 b23e 8c36 efbd 7929 0fbe 036d 4dbd
00000360: 2862 83bd 9b34 acbd 8328 a4bd 8947 613e
00000370: 0b22 0b3e fdad 1cbe 325e da3d 574a 0dbd
00000380: e7e3 4d3e 2af1 d5be 7085 973e e534 bdbe
00000390: 2e95 5e3d 6025 033f 99da 053e 2f88 00be
000003a0: 01ca f3bd a426 dabd 67ce 5637 09ac ae3e
000003b0: 3014 2cbe 7162 a93e 4023 c03d 246b 293e
000003c0: 1454 51bd cdc7 dfbd e5e5 873d dda6 35be
000003d0: 8479 f6be b46b 03be c227 c3bd a044 f3bd
000003e0: 99c6 58be dd46 c3bd 1bf6 4d3e 1e2e acb7
000003f0: f6e9 503d ba42 cfbe e132 1bbe ce03 033d

lstm.bias_hh_l0 f4 [256]
0.012367626 -0.5365813 -0.1047811 -0.02791947 -0.19966125 0.032070547 -0.072229445 0.25659424
0.058916975 1.1931462 0.06632759 0.20306413 -0.22186531 0.18327673 0.084541366 -0.09198152
-0.9041441 0.38243198 -0.29592288 0.237514 0.12622151 0.056042258 -0.23279683 -0.051513594
0.01838458 0.11571899 -0.11142649 0.14671126 -0.07513005 0.3389903 0.06124071 -0.027742771
-0.48526967 -0.18157797 -0.039588675 -0.27128237 0.071039006 0.031328544 0.113548465 0.16555734
-0.06260961 -0.21074449 -0.24223085 0.17945538 -0.07666454 -0.12358591 0.0025503272 -0.116195776
0.55861354 0.16549559 0.18062513 -0.2140456 -0.012932273 -0.020976894 -0.22335857 -0.18674321
-0.20149417 0.031305175 0.8568844 0.28615674 0.29077506 0.21559215 -0.1430174 0.19475543
-0.03628408 -0.5602872 0.09272297 0.07589772 -0.085762404 0.008612034 -0.2815743 0.083105445
0.1886513 0.010292212 -0.085102946 0.05641974 -0.14944847 0.116395116 -0.05957029 -0.19559708
-0.116340674 -0.081363216 -0.2741485 -0.091446966 -0.008509881 -0.060632918 -0.19129156 -0.10305529
-0.17798252 0.040905654 0.064143084 0.020738933 0.012924127 -0.13969912 0.06470197 0.056972407
-0.01510505 -0.22107422 0.015839603 -0.14849702 0.15532489 0.24864213 -0.27118972 -0.058681063
-0.12347021 -0.29246515 0.053418662 -0.021089472 -0.06977441 0.09777673 0.06589966 -0.016575761
-0.13446246 0.053265348 0.09501018 -0.035293587 -0.21174191 -0.105022885 -0.108932726 -0.09561214
0.044582915 -0.15817468 -0.22889972 0.1455765 -0.001896889 0.0724734 -0.023698654 0.048391074
0.054580886 -0.099442765 0.06011654 0.13715722 -0.0921383 0.18604246 -0.14443578 0.03504228
-0.12678185 0.15684234 -0.113877974 0.15129684 0.016723795 0.15509726 0.08872998 -0.04984352
-0.06805996 -0.10024606 0.14740105 0.06800749 -0.062184185 0.06438024 -0.04436767 0.015420811
0.11536567 -0.16758437 -0.047236905 -0.029414719 -0.0010754288 -0.013657666 0.18446381 -0.098024584
-1.0492762 -0.08883888 0.088287815 -0.1530259 0.036179647 -0.19239411 -0.09461148 -0.020821868
-0.04569901 -0.06671349 0.034860283 0.041828025 -0.06438198 -0.028593631 0.009915208 0.23967427
0.16274728 -0.09169217 -0.03767746 -0.095809326 -0.22705266 0.10475487 -0.03426112 0.11215862
-0.053916287 0.18732762 0.04096456 0.15111277 0.17834221 -0.13023685 -0.019071726 -0.005107962
0.08169284 -1.0606399 -0.0006951878 -0.15604848 -0.18698859 0.12407491 -0.30995017 -1.2438381
1.0153263 0.12594916 0.03065634 -0.02758052 -0.13648802 0.31869003 0.112498134 -0.14517747
-0.16335377 0.9496144 -0.6225865 -0.16528006 0.4186686 -0.09433352 -0.023985872 -0.13829349
0.081646204 -0.11252582 0.10587502 0.3723785 0.03858755 -0.17781703 0.019328494 -0.23291545
0.21890025 -0.43264592 0.21987954 -0.33526173 0.02225187 0.40866348 0.07092096 -0.1337019
-0.1470216 -0.1560787 -0.18440993 0.52857935 -0.21092862 0.31767455 0.04955418 0.17388208
-0.090062626 0.073526 0.13662769 -0.08162016 -0.6170554 -0.049584404 0.07403867 -0.19895929
-0.30763027 -0.23209463 0.14211026 0.016040705 -0.0071961237 -0.561181 -0.18856703 0.07058645
00000000: 95a1 4a3c 645d 09bf 7997 d6bd 5fb7 e4bc
00000010: 0074 4cbe 685c 033d 08ed 93bd 5260 833e
00000020: ed52 713d 04b9 983f c2d6 873d 0bf0 4f3e
00000030: a930 63be e5ac 3b3e 0624 ad3d cf60 bcbd
00000040: fd75 67bf 20ce c33e 3483 97be df36 733e
00000050: 3640 013e 918c 653d 4b62 6ebe ebff 52bd
00000060: 429b 963c 14fe ec3d 9233 e4bd 7a3b 163e
00000070: c9dd 99bd 2390 ad3e 8ad7 7a3d cf44 e3bc
00000080: 4475 f8be 93ef 39be bc27 22bd 86e5 8abe
00000090: e67c 913d 5c52 003d 198c e83d dd87 293e
000000a0: 7839 80bd 67cd 57be 5d0b 78be 27c3 373e
000000b0: 4c02 9dbd 9c1a fdbd 6423 273b 0df8 edbd
000000c0: 4c01 0f3f ad77 293e cbf5 383e c52e 5bbe
000000d0: e2e1 53bc bcd7 abbc 1cb8 64be 9d39 3fbe
000000e0: 7d54 4ebe db39 003d c75c 5b3f 2383 923e
000000f0: 78e0 943e 30c4 5c3e 2773 12be f86d 473e
00000100: 9e9e 14bd fb6e 0fbf 8ae5 bd3d 4470 9b3d
00000110: 33a4 afbd 7d19 0d3c 822a 90be 3033 aa3d
00000120: ce2d 413e aaa0 283c 744a aebd 6318 673d
00000130: 0509 19be 9060 ee3d faff 73bd 9a4a 48be
00000140: 0544 eebd c2a1 a6bd 315d 8cbe 8c48 bbbd
00000150: 076d 0bbc 395a 78bd efe1 43be a70e d3bd
00000160: 0d41 36be b08c 273d 735d 833d b2e4 a93c
00000170: b8bf 533c 490d 0fbe 7782 843d e65b 693d
00000180: 2c7b 77bc 4861 62be 0ec2 813c 9a0f 18be
00000190: 7d0d 1f3e 0b9c 7e3e 61d9 8abe 8e5b 70bd
000001a0: f3dd fcbd febd 95be 87cd 5a3d d4c3 acbc
000001b0: e3e5 8ebd 2b3f c83d 67f6 863d e4c9 87bc
000001c0: 87b0 09be c42c 5a3d b294 c23d 0290 10bd
000001d0: dfd2 58be 3d16 d7bd 1f18 dfbd 4cd0 c3bd
000001e0: 939c 363d 8bf8 21be b064 6abe 0212 153e
000001f0: 08a1 f8ba ef6c 943d ae23 c2bc b835 463d
00000200: 3590 5f3d a6a8 cbbd c33c 763d f172 0c3e
00000210: 01b3 bcbd ea81 3e3e f9e6 13be 7e88 0f3d
00000220: 1ad3 01be 479b 203e db38 e9bd 8fed 1a3e
00000230: 5700 893c d1d1 1e3e 10b8 b53d b828 4cbd
00000240: 0563 8bbd ce4d cdbd 4df0 163e 8347 8b3d
00000250: d8b4 7ebd cad9 833d e0ba 35bd 92a7 7c3c
00000260: d644 ec3d 3d9b 2bbe 7c7b 41bd 23f7 f0bc
00000270: 67f5 8cba 67c4 5fbc 15e4 3c3e 1dc1 c8bd
00000280: af4e 86bf 29f1 b5bd 3ed0 b43d d2b2 1cbe
00000290: 1c31 143d f602 45be aac3 c1bd 9f92 aabc
000002a0: e32e 3bbd 15a1 88bd a8c9 0e3d dd53 2b3d
000002b0: b3da 83bd 313d eabc 6673 223c 2c6d 753e
000002c0: 39a7 263e 1bc9 bbbd ae53 1abd ae37 c4bd
000002d0: 7e80 68be b989 d63d 6355 0cbd 6bb3 e53d
000002e0: 53d7 5cbd d0d2 3f3e 74ca 273d 4ebd 1a3e
000002f0: 579f 363e cf5c 05be 4f3c 9cbc b160 a7bb
00000300: 934e a73d 0cc3 87bf 433d 36ba 2ccb 1fbe
00000310: f079 3fbe fd1a fe3d cab1 9ebe 1636 9fbf
00000320: 36f6 813f d1f8 003e 0123 fb3c 8bf0 e1bc
00000330: 84c3 0bbe 572b a33e 6c65 e63d 67a9 14be
00000340: 3646 27be ee19 733f d461 1fbf 2d3f 29be
00000350: bb5b d63e ef31 c1bd 057e c4bc cf9c 0dbe
00000360: 2036 a73d f073 e6bd 01d5 d83d 65a8 be3e
00000370: fb0d 1e3d ab15 36be ca56 9e3c 6381 6ebe
00000380: 6327 603e c483 ddbe 1a28 613e 6da7 abbe
00000390: 8e49 b63c 573c d13e 023f 913d 27e9 08be
000003a0: d58c 16be 18d3 1fbe f5d5 3cbe fa50 073f
000003b0: acfd 57be 3da6 a23e 53f9 4a3d 250e 323e
000003c0: c172 b8bd cd94 963d 21e8 0b3e 7828 a7bd
000003d0: 58f7 1dbf 0419 4bbd 96a1 973d fcbb 4bbe
000003e0: b781 9dbe 37aa 6dbe 5a85 113e cc67 833c
000003f0: 76cd ebbb 8fa9 0fbf b717 41be a18f 903d

lstm.weight_ih_l1 f4 [256, 64]
-0.2765942 -0.08563348 0.14498655 -0.11336629 0.09170364 -0.19555616 0.24725549 0.14402054
-0.011514359 -0.23986329 0.08873338 -0.06302608 0.14735791 -0.1622465 -0.1296051 -0.11426573
-0.28715688 0.09128904 0.009132808 -0.050746534 0.12201801 0.18633369 0.16833861 -0.069120705
-0.03588933 0.059207335 0.11343376 -0.1281961 -0.08471656 0.037982706 -0.15268888 0.20520487
-0.2785782 0.103068314 -0.11988947 -0.27329654 -0.12608355 0.12510866 0.34584838 0.06208032
-0.18632908 -0.26837662 -0.115520135 -0.14477274 -0.08425055 -0.019620117 -0.093892574 -0.2856182
0.0018835624 -0.0006478111 -0.15029375 0.046788715 0.0008515632 -0.21004215 0.15823953 0.08061318
0.042794585 -0.08826613 -0.25175148 -0.23179275 0.11153431 -0.053515695 0.021615958 0.1872913
-0.29939926 0.12958616 -0.088503 -0.31240067 0.020793056 0.057588834 0.16773993 0.0742753
-0.2143184 -0.23520562 0.21702853 0.13888088 0.1261737 -0.1669398 -0.048813708 0.042681932
-0.20502698 0.10988616 0.573107 0.21932429 0.19024356 0.12991168 -0.09326629 -0.25452518
0.17034002 0.16816635 0.05269551 -0.16840838 -0.20378771 -0.2394844 -0.3723039 0.07143422
0.010789389 0.026717119 -0.05287479 -0.15207335 -0.25525132 0.2693995 0.15976498 -0.049887702
-0.09118863 -0.22566688 -0.1623777 -0.611057 -0.13729793 0.1991866 -0.21656153 -0.19910142
0.06809544 -0.16364676 0.044796485 0.05362348 -0.0074276817 0.11203329 0.025593247 0.06784099
0.18400183 0.08315146 -0.28225634 -0.13906312 0.25947022 -0.16773197 0.15330128 0.14252423
-0.12098864 -0.25196692 -0.090622686 -0.06317834 -0.058087174 -0.009457888 -0.18947877 0.11238387
0.3505498 -0.07816139 -0.056428224 -0.27847382 -0.13212806 -0.36895397 0.10730228 -0.08979403
-0.3693536 0.1064998 0.24533239 -0.12090028 -0.047950957 0.06263204 0.21035345 -0.050405122
0.0879315 -0.13483824 0.24740349 0.13131349 -0.07898629 0.060564842 -0.37346184 0.14290589
-0.072333455 -0.04729214 -0.24024357 -0.045404743 -0.08441834 0.24979559 0.012617068 0.2943894
-0.25864184 -0.0540108 -0.18903518 0.04604923 -0.037255738 -0.014456025 0.07817604 -0.2544676
-0.11621181 -0.037160236 -0.017825775 0.12977792 -0.33213073 -0.21882354 -0.1583631 0.04905239
0.05698445 -0.114826515 -0.05095667 -0.38006696 0.017769393 -0.18370242 0.097172625 0.07062334
0.061082512 -0.4128127 -0.26463693 -0.22419792 0.11798915 -0.22530341 -0.011501885 0.34246597
0.35503927 -0.31334093 0.05958159 0.022826917 -0.029134445 -0.5782839 -0.14719346 0.062346388
-0.27460626 0.21442685 0.58947796 0.2909411 -0.11067684 -0.08582828 0.015580546 -0.19017476
0.042907096 0.051006734 0.15405385 0.24443564 -0.12291262 0.2652996 -0.1565011 0.12272047
-0.06989035 0.12911265 -0.36181137 -0.2500825 -0.0706057 0.36657426 0.25752944 0.10787056
-0.11429639 -0.112347275 0.067847736 -0.20035475 -0.12898196 0.026481615 -0.12440474 -0.008364795
-0.07696528 -0.108670644 0.09982505 0.024583878 -0.25705844 0.065893956 -0.04898632 0.03612689
0.13256225 -0.15707466 -0.2474503 -0.33353028 0.15294732 -0.35689366 0.4109028 0.010144436
00000000: c19d 8dbe 9b60 afbd 5b77 143e 962c e8bd
00000010: 1ecf bb3d e03f 48be 8b30 7d3e 1f7a 133e
00000020: b9a6 3cbc b99e 75be d9b9 b53d d113 81bd
00000030: fee4 163e f223 26be 33b7 04be 2704 eabd
00000040: 3a06 93be c0f5 ba3d c6a1 153c 99db 4fbd
00000050: 94e4 f93d 42ce 3e3e f560 2c3e 288f 8dbd
00000060: b100 13bd 6483 723d f64f e83d d745 03be
00000070: e07f adbd c193 1b3d 795a 1cbe 3a21 523e
00000080: cda1 8ebe 7b15 d33d 9c88 f5bd 86ed 8bbe
00000090: 0c1c 01be 7c1c 003e 0a13 b13e ef47 7e3d
000000a0: 0dcd 3ebe a968 89be d295 ecbd 4e3f 14be
000000b0: 8d8b acbd 5eba a0bc c04a c0bd 8c3c 92be
000000c0: dee1 f63a ded1 29ba 9be6 19be 86a5 3f3d
000000d0: 703b 5f3a 4a15 57be 8b09 223e 8618 a53d
000000e0: 6049 2f3d dfc4 b4bd 92e5 80be 145b 6dbe
000000f0: 1a6c e43d 4633 5bbd f313 b13c 4ac9 3f3e
00000100: dc4a 99be 3cb2 043e 1041 b5bd fbf2 9fbe
00000110: 3356 aa3c 45e2 6b3d 04c4 2b3e a61d 983d
00000120: 4876 5bbe bed9 70be ba3c 5e3e ca36 0e3e
00000130: ae33 013e 44f2 2abe e2f0 47bd 40d3 2e3d
00000140: 98f2 51be ff0b e13d 24b7 123f 8c96 603e
00000150: 35cf 423e 9107 053e 6602 bfbd 2051 82be
00000160: 9d6d 2e3e cd33 2c3e 3fd7 573d 3f73 2cbe
00000170: baad 50be 663b 75be 9e9e bebe 1b4c 923d
00000180: fac5 303c dcdd da3c 3c93 58bd 1eb9 1bbe
00000190: 4db0 82be bbee 893e 6e99 233e 0c57 4cbd
000001a0: 1bc1 babd 3815 67be 5746 26be 3b6e 1cbf
000001b0: d497 0cbe 92f7 4b3e 4ec2 5dbe 3ee1 4bbe
000001c0: 9f75 8b3d 0493 27be 857c 373d 4ba4 5b3d
000001d0: e963 f3bb b671 e53d eea8 d13c 38f0 8a3d
000001e0: fa6a 3c3e 504b aa3d e783 90be 9066 0ebe
000001f0: 48d9 843e eec1 2bbe 03fb 1c3e dff1 113e
00000200: e4c8 f7bd cf01 81be 6398 b9bd a563 81bd
00000210: d1ec 6dbd 42f5 1abc b906 42be 8429 e63d
00000220: 437b b33e 1413 a0bd 4821 67bd 1f94 8ebe
00000230: 944c 07be 89e7 bcbe 4cc1 db3d efe5 b7bd
00000240: ea1b bdbe 911c da3d 6a38 7b3e 919a f7bd
00000250: 3968 44bd 3a45 803d e566 573e 9a75 4ebd
00000260: 6e15 b43d 0913 0abe 5757 7d3e 0b77 063e
00000270: 90c3 a1bd d712 783d 6436 bfbe ec55 123e
00000280: 9023 94bd 67b5 41bd 6902 76be 53fa 39bd
00000290: 86e3 acbd 6aca 7f3e d2b7 4e3c 35ba 963e
000002a0: b46c 84be 6e3a 5dbd 7092 41be 1e9e 3c3d
000002b0: 7999 18bd f7d8 6cbc c21a a03d 9449 82be
000002c0: 7500 eebd 5535 18bd 5c07 92bc 81e4 043e
000002d0: 0a0d aabe 4713 60be f029 22be 29eb 483d
000002e0: 8768 693d 2a2a ebbd f1b7 50bd 2398 c2be
000002f0: 1e91 913c 7d1c 3cbe 7102 c73d f8a2 903d
00000300: a831 7a3d 305c d3be 7e7e 87be 2494 65be
00000310: 4ca4 f13d f0b5 66be 6772 3cbc b357 af3e
00000320: b5c7 b53e 396e a0be d30b 743d 84ff ba3c
00000330: 5cab eebc 6a0a 14bf e2b9 16be ed5e 7f3d
00000340: 3199 8cbe b692 5b3e 07e8 163f 3bf6 943e
00000350: 8aaa e2bd bdc6 afbd 8c45 7f3c 2cbd 42be
00000360: 5abf 2f3d 70ec 503d 4bc0 1d3e 564d 7a3e
00000370: 9db9 fbbd 59d5 873e d341 20be df54 fb3d
00000380: ac22 8fbd 1b36 043e 573f b9be d00a 80be
00000390: b999 90bd 9faf bb3e e6da 833e 3deb dc3d
000003a0: 3a14 eabd 5416 e6bd c1f3 8a3d cc29 4dbe
000003b0: d913 04be f9ef d83c eac7 febd 7e0c 09bc
000003c0: f99f 9dbd b78e debd 1371 cc3d 2164 c93c
000003d0: 2a9d 83be 69f3 863d e1a5 48bd caf9 133d
000003e0: 66be 073e 2ed8 20be 9d63 7dbe 7bc4 aabe
000003f0: 399e 1c3e c4ba b6be da61 d23e d934 263c

lstm.weight_hh_l1 f4 [256, 64]
-0.29802796 0.10669159 -0.019188214 -0.062231444 -0.024007587 -0.014025405 0.10160312 0.00947534
0.1328863 -0.22207718 0.12750037 0.0026665493 0.07797873 -0.0879326 0.04159405 0.07297985
0.062281605 -0.04273933 0.017784828 -0.11976961 0.11983083 0.09057898 -0.023158759 0.026293997
-0.118576035 -0.08670748 0.002529196 0.09975772 -0.030607276 -0.12319471 0.108981706 -0.092660725
0.04391959 -0.15595536 0.04521695 -0.08412114 -0.06736713 -0.23317374 0.11455485 0.13648145
-0.024946665 -0.04036907 -0.0010100618 0.15527432 0.039638717 0.09722471 -0.043113127 -0.0657734
-0.1520827 0.4091575 -0.15453182 0.3066237 0.053567253 -0.08493859 -0.31716597 0.115415886
-0.24448025 -0.02669813 -0.039635193 0.0806393 -0.08279849 0.13549453 0.18259825 -0.07948758
-0.077697426 0.08005591 -0.02928186 -0.02087646 0.018972145 0.13799538 0.17947373 0.052929234
0.1951066 -0.249773 -0.05174749 -0.07086969 0.05453733 -0.111972645 -0.009488525 0.07565364
-0.02908433 -0.044687275 0.019112904 -0.19893621 0.06707096 0.10884527 0.1997139 0.18409695
-0.18797292 0.020248529 0.12312163 -0.01626614 0.14976645 -0.054918062 0.08865443 -0.11494703
0.10425626 0.016598118 -0.01747813 -0.10944832 -0.24215312 -0.10440729 -0.045962315 0.013896805
-0.13627808 -0.10199868 -0.073768735 0.026206972 -0.036813367 0.07281762 -0.07599123 -0.22226502
0.030265223 0.15369974 -0.17143339 -0.0198073 0.009621919 0.09797362 -0.17742838 -0.123717204
-0.030960433 0.10876624 0.060429033 0.17521729 -0.044008743 0.22333227 0.14577065 -0.09954056
-0.08289521 0.10771961 0.015503486 0.047813702 -0.039178967 0.24049254 0.117120385 0.02602872
0.1281468 -0.2002709 -0.10481455 -0.04902929 0.13115901 -0.100730956 -0.01572156 0.0733739
0.17370337 -0.031044481 0.11882085 -0.13636394 0.17212462 0.082367264 -0.061796322 0.13125631
-0.19416316 -0.20718727 -0.083306216 0.19823302 0.13937195 0.031151682 -0.13614918 0.030425068
0.07127798 -0.05861446 -0.06539638 -0.10333054 -0.033004854 -0.14601639 -0.028872138 0.07060181
-0.021856539 -0.016699344 -0.017371912 -0.06933328 -0.04983997 -0.06892659 -0.04573114 -0.08526456
-0.095151864 -0.026188677 -0.15428488 0.18509205 -0.012517412 0.09714602 0.07528479 0.16705637
-0.030910434 -0.103679575 0.08344742 -0.028160796 0.094992146 0.120241925 -0.10232339 -0.030648785
-0.17800984 0.0100011155 -0.09787607 -0.060016733 -0.09193148 -0.07332277 0.26223055 0.023459816
0.060770944 -0.086564384 0.049182814 -0.0704276 0.07030784 -0.032767784 0.09129535 0.055691782
0.06381185 -0.10108897 0.09661838 -0.18445456 0.013815956 -0.016820727 0.09473154 0.18265963
-0.17034304 -0.13843082 0.077183425 0.15161888 0.1387371 -0.17226177 0.04822738 -0.12679844
0.033921674 -0.030515296 -0.020688843 0.1386022 -0.020078555 0.024764918 -0.086147875 0.093061395
-0.0327073 -0.026464952 0.059892885 0.08054935 -0.15735881 -0.07792922 0.07651072 0.055241868
-0.04302066 0.19895074 0.03912796 0.12363663 -0.08729284 0.030867852 -0.029261183 -0.114343375
-0.065528266 -0.111738816 0.15894786 0.10532852 0.09877898 -0.03133201 0.010783105 -0.13852069
00000000: 1f97 98be 1f81 da3d 9a30 9dbc 66e6 7ebd
00000010: 8fab c4bc d0ca 65bc 4c15 d03d 753e 1b3c
00000020: 5913 083e 3368 63be 758f 023e 46c1 2e3b
00000030: 50b3 9f3d 0216 b4bd 865e 2a3d 7676 953d
00000040: ff1a 7f3d 700f 2fbd 7db1 913c c549 f5bd
00000050: de69 f53d 7981 b93d 70b7 bdbc 8266 d73c
00000060: fed7 f2bd b193 b1bd dec0 253b c74d cc3d
00000070: 1cbc fabc 824d fcbd cd31 df3d e8c4 bdbd
00000080: 07e5 333d c3b2 1fbe 6935 393d b447 acbd
00000090: c7f7 89bd 19c5 6ebe bc9b ea3d cbc1 0b3e
000000a0: f35c ccbc 0a5a 25bd 0d64 84ba 3b00 1f3e
000000b0: 355c 223d c01d c73d 6497 30bd 34b4 86bd
000000c0: 91bb 1bbe 187d d13e 973d 1ebe c8fd 9c3e
000000d0: 5669 5b3d 49f4 adbd 9463 a2be 2a5f ec3d
000000e0: 0859 7abe 09b6 dabc 8358 22bd 3826 a53d
000000f0: 4192 a9bd 14bf 0a3e 09fb 3a3e 62ca a2bd
00000100: d41f 9fbd 5af4 a33d 83e0 efbc 1c05 abbc
00000110: 796b 9b3c a94e 0d3e f6c7 373e 53cc 583d
00000120: 06ca 473e 7ec4 7fbe 2df5 53bd 2124 91bd
00000130: 8962 5f3d ea51 e5bd c275 1bbc 4cf0 9a3d
00000140: 4342 eebc 010a 37bd aa92 9c3c efb5 4bbe
00000150: 805c 893d 45ea de3d cd81 4c3e e983 3c3e
00000160: f97b 40be 3ee0 a53c 3127 fc3d 9140 85bc
00000170: 605c 193e c3f1 60bd 7490 b53d 5969 ebbd
00000180: 4e84 d53d c7f8 873c 4c2e 8fbc 7126 e0bd
00000190: fdf6 77be 7dd3 d5bd fb42 3cbd 6daf 633c
000001a0: 7b8c 0bbe afe4 d0bd 1014 97bd 01b0 d63c
000001b0: 9dc9 16bd 6821 953d 4aa1 9bbd 7199 63be
000001c0: c6ee f73c 7763 1d3e 3c8c 2fbe eb42 a2bc
000001d0: 41a5 1d3c 65a6 c83d c9af 35be 725f fdbd
000001e0: bca0 fdbc d6c0 de3d 6f84 773d 296c 333e
000001f0: 8342 34bd 37b1 643e e744 153e ecdb cbbd
00000200: f7c4 a9bd 199c dc3d 5502 7e3c 4dd8 433d
00000210: 207a 20bd ad43 763e d0dc ef3d 2f3a d53c
00000220: ea38 033e d113 4dbe 03a9 d6bd f0d2 48bd
00000230: 8c4e 063e 084c cebd 80ca 80bc 0e45 963d
00000240: 4cdf 313e ff50 febc 5958 f33d fda2 0bbe
00000250: 7041 303e 2bb0 a83d 241e 7dbd 0e68 063e
00000260: b5d2 46be e628 54be 739c aabd 99fd 4a3e
00000270: 85b7 0e3e d031 ff3c b16a 0bbe fe3d f93c
00000280: 31fa 913d b715 70bd 8aee 85bd f69e d3bd
00000290: 1930 07bd 5285 15be 4385 ecbc af97 903d
000002a0: 7c0c b3bc 10cd 88bc 8a4f 8ebc 9bfe 8dbd
000002b0: ff24 4cbd 6229 8dbd 9350 3bbd 309f aebd
000002c0: fbde c2bd a389 d6bc dbfc 1dbe c588 3d3e
000002d0: d515 4dbc 7ef4 c63d e92e 9a3d d310 2b3e
000002e0: e137 fdbc f555 d4bd 7be6 aa3d 78b1 e6bc
000002f0: 3e8b c23d 6641 f63d ed8e d1bd 2913 fbbc
00000300: 3648 36be b8db 233c 4073 c8bd 1bd4 75bd
00000310: 9246 bcbd 402a 96bd 1543 863e cd2e c03c
00000320: f4ea 783d ab48 b1bd eb73 493d 583c 90bd
00000330: 8ffd 8f3d 8337 06bd 0ef9 ba3d 111d 643d
00000340: caaf 823d bc07 cfbd dbdf c53d a8e1 3cbe
00000350: 525c 623c 9fcb 89bc 9c02 c23d 200b 3b3e
00000360: 686e 2ebe cfc0 0dbe 5812 9e3d fb41 1b3e
00000370: 1911 0e3e 6465 30be 138a 453d 73d7 01be
00000380: 74f1 0a3d 37fb f9bc a67b a9bc bced 0d3e
00000390: c87b a4bc ccdf ca3c 4c6e b0bd f996 be3d
000003a0: 17f8 05bd 07cd d8bc 3e52 753d 0ff7 a43d
000003b0: ab22 21be 5b99 9fbd a7b1 9c3d 4c45 623d
000003c0: 6e36 30bd beb9 4b3e a444 203d 3435 fd3d
000003d0: 97c6 b2bd 94de fc3c 26b5 efbc dc2c eabd
000003e0: af33 86bd 52d7 e4bd 3ac3 223e 7bb6 d73d
000003f0: a24c ca3d fe55 00bd 9fab 303c 5ed8 0dbe

lstm.bias_ih_l1 f4 [256]
-0.3334274 -0.12750626 -0.21557762 -0.35641325 -0.045937553 -0.011572162 0.32559258 -0.105971366
-0.07127717 -0.08324485 -0.3642085 -0.43505833 -0.37955326 -0.08845973 -0.46313426 -0.29398054
-0.28748673 -0.43962884 -0.20039955 0.12296577 -0.146066 -0.2506158 -0.17253494 -0.103313
-0.16215855 -0.1702868 -0.19554196 0.036704887 -0.095652156 -0.22858287 -0.16944306 -0.27169558
-0.2552415 -0.22492906 -0.09129444 -0.31641755 -0.24275485 -0.09830293 0.08256062 -0.23951918
-0.29143155 0.03709839 -0.19123285 -0.20594661 -0.36192936 -0.21876252 -0.21941009 -0.016132563
-0.060889497 0.0858173 -0.37576503 0.06827558 -0.2141892 -0.112270474 0.08367196 -0.19349228
0.1882961 -0.39475712 -0.34980702 -0.2676315 -0.020256456 -0.2584765 0.14963081 -0.40467316
-0.3045266 -0.06810976 -0.2630244 -0.119059734 -0.09897229 -0.3356363 -0.16544256 -0.10878612
-0.27121896 -0.29244864 -0.41806605 -0.42873275 -0.32019797 -0.29244575 -0.101655185 -0.3878764
-0.2669322 -0.25629714 -0.2753619 0.04261592 -0.08533552 -0.3496696 -0.40142116 -0.2743211
-0.14681302 -0.42166772 -0.22666872 0.031381685 -0.34659263 -0.23358922 -0.102586485 -0.3924131
-0.051705603 -0.13336232 -0.09440133 -0.11524597 -0.27265173 -0.22976552 -0.1377853 -0.25343397
-0.19997576 -0.10451851 -0.3109824 -0.12148336 -0.2788663 -0.33869696 -0.44266468 -0.14116417
-0.22748546 -0.1518344 -0.22225668 0.052562907 -0.31544426 -0.18980011 -0.104013726 -0.24926439
-0.13403709 -0.23924085 -0.17693546 -0.14445238 -0.081610546 -0.2268302 0.093776256 -0.24443945
-0.06726655 -0.15618996 -0.09738766 -0.011255979 -0.07394733 -0.1418828 -0.013581306 0.024697961
-0.04739674 0.0926512 -0.019345934 -0.14736776 -0.10919953 0.08855123 -0.029551182 -0.08633662
0.0894581 0.027485603 -0.044861548 0.06972912 -0.15897968 -0.08998128 0.010145853 0.028431958
0.019702407 -0.10713668 0.056395568 0.018934328 -0.10678899 0.10411287 -0.014050461 0.017360076
-0.01235785 0.06149197 -0.063682705 -0.048842564 -0.08695361 -0.020729547 0.13239579 -0.079168126
-0.012995879 0.10769125 0.07559142 -0.083953865 0.081478305 0.03693426 -0.027135532 0.058523145
-0.07944619 0.011668183 0.11298805 -0.110887796 0.08242218 -0.056245796 0.039650165 0.096425794
-0.058951765 -0.007053509 -0.04239494 -0.14056166 -0.051630042 -0.061076667 -0.0306673 0.06584637
-0.2658843 -0.121973604 -0.29511812 -0.27009487 0.028211465 0.0695228 0.118783124 -0.13720244
-0.06620928 -0.046426214 -0.32517022 -0.43882787 -0.29850355 -0.15696877 -0.43160167 -0.41824165
-0.37660125 -0.3902631 -0.24451788 0.14466746 -0.18085785 -0.4144358 -0.112841636 -0.20928377
-0.28921553 -0.2195743 -0.10031325 0.23773918 -0.25860173 -0.099024616 -0.29964748 -0.4557032
-0.057744652 -0.26044592 -0.23016404 -0.2250607 -0.26545656 -0.18401477 0.02085893 -0.1475894
-0.35140485 0.061589647 -0.20161328 -0.21713783 -0.1757165 -0.20314428 -0.35787326 0.027279306
-0.02529826 0.18625252 -0.20922662 0.10353294 -0.27823833 -0.19068693 0.30319488 -0.13821147
0.067551486 -0.34764192 -0.25658777 -0.27271375 0.02383701 -0.079498485 -0.046420023 -0.43763337
00000000: ffb6 aabe 0091 02be 61c0 5cbe cc7b b6be
00000010: 0429 3cbd 2a99 3dbc 12b4 a63e 8407 d9bd
00000020: c4f9 91bd 477c aabd 8979 babe f7bf debe
00000030: ce54 c2be 602a b5bd ef1f edbe 9e84 96be
00000040: 7631 93be 0817 e1be 8a35 4dbe 7ad5 fb3d
00000050: 5392 15be b750 80be 00ad 30be c495 d3bd
00000060: e40c 26be aa5f 2ebe 273c 48be dd57 163d
00000070: 47e5 c3bd a111 6abe 7b82 2dbe af1b 8bbe
00000080: 04af 82be ce53 66be 94f8 babd 7b01 a2be
00000090: ba94 78be 0c53 c9bd 8b15 a93d 8444 75be
000000a0: 8436 95be 7bf4 173d 8bd2 43be abe3 52be
000000b0: ce4e b9be 4803 60be 0aad 60be 7028 84bc
000000c0: 4467 79bd fbc0 af3d 4664 c0be 11d4 8b3d
000000d0: 6a54 5bbe 10ee e5bd 345c ab3d d722 46be
000000e0: b1d0 403e 9b1d cabe e819 b3be ff06 89be
000000f0: def0 a5bc 0857 84be d238 193e 5231 cfbe
00000100: e9ea 9bbe 217d 8bbd 22ab 86be 97d5 f3bd
00000110: fcb1 cabd 85d8 abbe c669 29be 42cb debd
00000120: 36dd 8abe d4bb 95be c10c d6be dc82 dbbe
00000130: fdf0 a3be 73bb 95be 9830 d0bd bc97 c6be
00000140: 56ab 88be 6139 83be 3cfc 8cbe 088e 2e3d
00000150: 64c4 aebd e507 b3be 1387 cdbe d173 8cbe
00000160: 2756 16be d5e4 d7be d81b 68be 158a 003d
00000170: 9774 b1be 0332 6fbe dd18 d2bd 5fea c8be
00000180: 41c9 53bd 2290 08be 7c55 c1bd 1406 ecbd
00000190: 0299 8bbe a747 6bbe 9717 0dbe 19c2 81be
000001a0: 72c6 4cbe cd0d d6bd 1639 9fbe 45cc f8bd
000001b0: 90c7 8ebe b069 adbe f2a4 e2be 578d 10be
000001c0: f3f1 68be 7a7a 1bbe 4197 63be 344c 573d
000001d0: e981 a1be f65a 42be 2605 d5bd 2a3f 7fbe
000001e0: 0541 09be 8efb 74be 922e 35be 53eb 13be
000001f0: 6e23 a7bd 2d46 68be c40d c03d 564e 7abe
00000200: 0cc3 89bd 43f0 1fbe 2e73 c7bd ff6a 38bc
00000210: b371 97bd ba49 11be 2084 5ebc 6153 ca3c
00000220: 1623 42bd eabf bd3d 5d7b 9ebc 93e7 16be
00000230: 01a4 dfbd 595a b53d 5215 f2bc 41d1 b0bd
00000240: cf35 b73d 7d29 e13c bec0 37bd 24ce 8e3d
00000250: 92cb 22be 1b48 b8bd cb3a 263c 23ea e83c
00000260: f166 a13c 7a6a dbbd 0aff 663d 2a1c 9b3c
00000270: 30b4 dabd 2139 d53d e833 66bc b836 8e3c
00000280: 9478 4abc 01df 7b3d 146c 82bd 240f 48bd
00000290: bc14 b2bd 03d1 a9bc c392 073e e622 a2bd
000002a0: abec 54bc 3b8d dc3d adcf 9a3d 01f0 abbd
000002b0: 19de a63d 6148 173d 564b debc f7b5 6f3d
000002c0: afb4 a2bd e82b 3f3c 4766 e73d 2419 e3bd
000002d0: f6cc a83d fe61 66bd 3668 223d e37a c53d
000002e0: 6877 71bd 1f21 e7bb 51a6 2dbd 65ef 0fbe
000002f0: 067a 53bd 872b 7abd fd39 fbbc 76da 863d
00000300: fd21 88be 4ccd f9bd b919 97be e049 8abe
00000310: bb1b e73c f861 8e3d 9144 f33d cc7e 0cbe
00000320: bb98 87bd 6a29 3ebd b67c a6be 0cae e0be
00000330: 75d5 98be 6cbc 20be e5fa dcbe c523 d6be
00000340: e1d1 c0be 91d0 c7be e562 7abe b523 143e
00000350: cd32 39be ee30 d4be 8419 e7bd 7c4e 56be
00000360: 0f14 94be 16d8 60be 0971 cdbd e671 733e
00000370: 7267 84be 6bcd cabd 656b 99be ee51 e9be
00000380: a885 6cbd 2b59 85be 1fb0 6bbe 5076 66be
00000390: ece9 87be 5e6e 3cbe 59e0 aa3c ad21 17be
000003a0: 56eb b3be 6d45 7c3d b673 4ebe 6159 5ebe
000003b0: 07ef 33be 0e05 50be 2a3b b7be da78 df3c
000003c0: 4c3e cfbc fbb8 3e3e 813f 56be 1409 d43d
000003d0: 4175 8ebe 6f43 43be 5c3c 9b3e 4f87 0dbe
000003e0: 6f58 8a3d 1ffe b1be 795f 83be 23a1 8bbe
000003f0: d545 c33c 1ad0 a2bd ec22 3ebd 7b11 e0be

lstm.bias_hh_l1 f4 [256]
-0.3178592 -0.16011585 -0.3024527 -0.19946826 0.16054925 -0.0086897835 0.30664444 0.052143045
0.09334442 -0.26188472 -0.33796552 -0.3128172 -0.28311014 -0.1284704 -0.41543117 -0.318067
-0.2590752 -0.28662884 -0.37685478 0.24769057 -0.12213963 -0.21686767 -0.112769604 -0.16824588
-0.23871043 -0.24827738 -0.1665615 0.22233012 -0.118146926 -0.12723947 -0.2843772 -0.22655185
-0.19900808 -0.13894531 -0.16190511 -0.24968201 -0.26598167 -0.09342337 0.042119138 -0.10217804
-0.28023195 -0.062555864 -0.18334006 -0.24760449 -0.30056375 -0.3961974 -0.36154163 0.042634033
-0.16453293 0.038148474 -0.29164708 0.059229907 -0.28439322 -0.23126477 0.09473875 -0.24333648
0.2415369 -0.44951507 -0.25719553 -0.24360989 -0.08274234 -0.29792184 0.035034608 -0.36404473
-0.118489 -0.14090125 -0.2980879 -0.2244856 -0.33761826 -0.3009806 0.01806209 -0.07877475
-0.21237908 -0.24941838 -0.38832012 -0.24108538 -0.31959632 -0.088500045 -0.089753255 -0.3493941
-0.27774447 -0.1932564 -0.3679631 -0.06068504 -0.26528937 -0.362475 -0.41011432 -0.27667043
-0.28730053 -0.327302 -0.26510552 0.10913477 -0.39757594 -0.2586524 -0.29870948 -0.22525884
-0.19993937 -0.09101124 -0.11164801 -0.1762844 -0.22319321 -0.30786467 -0.2434474 -0.2811586
-0.15652359 -0.06592926 -0.18281174 -0.20455137 -0.18637355 -0.15248255 -0.24870637 -0.030503815
-0.07375712 -0.17121358 -0.2902247 -0.14447041 -0.3533456 -0.3311304 -0.054382533 -0.32149282
-0.06880901 -0.27295673 -0.0790295 -0.08279262 -0.09965633 -0.28244603 -0.08037804 -0.20779637
0.15367521 -0.072809525 0.035433635 -0.053107582 -0.009281459 -0.13546485 -0.04195079 -0.0138265025
-0.08515631 0.028966777 0.05473041 0.09250757 0.09106437 -0.11529832 -0.1406448 -0.11031336
0.056190472 0.073890604 0.058840327 -0.11306161 -0.14979929 -0.008342639 -0.16617982 -0.079923056
0.08449163 -0.1399936 -0.047777146 -0.024679787 -0.0608412 0.0570819 -0.047582693 0.069573276
-0.02653914 -0.02336001 0.11783679 0.07760942 -0.0578922 0.04471409 0.08404798 -0.06601507
-0.0049154195 -0.0030155496 -0.05056339 -0.0917064 0.021762857 0.0724529 0.14281188 -0.044325095
0.038118284 0.00649634 0.10832872 -0.120005995 -0.012622986 -0.12015033 -0.115108825 0.016712533
-0.03965414 0.09250752 0.041028667 -0.07107431 0.09137009 -0.14110072 -0.03722359 0.1333412
-0.2280153 -0.110349655 -0.20033665 -0.37044117 0.05968043 0.07620269 0.07245337 -0.170768
-0.14475515 -0.019152656 -0.2256198 -0.47351855 -0.44458708 -0.05193381 -0.44005916 -0.24463464
-0.40517047 -0.23431535 -0.26484174 0.19636102 -0.25906688 -0.23735628 -0.25285962 -0.23887514
-0.15670256 -0.34169227 -0.24518022 0.025072206 -0.28567755 -0.077641256 -0.33899513 -0.305682
-0.14338866 -0.14963178 -0.11340969 -0.19806895 -0.2526958 -0.2827756 0.099074416 -0.21039566
-0.12357819 -0.10055847 -0.27118662 -0.1884665 -0.2887153 -0.17263499 -0.4383003 -0.062449127
-0.13526006 0.14537883 -0.25044075 0.049137972 -0.20260973 -0.28526375 0.30757278 -0.11019984
0.08566233 -0.42965856 -0.22878323 -0.26417956 0.16039702 -0.3095872 0.15910132 -0.44106188
00000000: 71be a2be 69f5 23be 15db 9abe 6841 4cbe
00000010: 0667 243e 985f 0ebc 8000 9d3e f293 553d
00000020: 5c2b bf3d c115 86be d109 adbe 9329 a0be
00000030: d0f3 90be bf8d 03be 65b3 d4be aed9 a2be
00000040: 81a5 84be 04c1 92be 1cf3 c0be 99a2 7d3e
00000050: 5824 fabd 8f12 5ebe c0f3 e6bd a648 2cbe
00000060: 8270 74be 6d3c 7ebe 198f 2abe 82aa 633e
00000070: 04f7 f1bd 104b 02be e399 91be 35fd 67be
00000080: c6c8 4bbe ae47 0ebe 74ca 25be a4ac 7fbe
00000090: c02e 88be c054 bfbd 1e85 2c3d b842 d1bd
000000a0: 907a 8fbe 4a1d 80bd 7fbd 3bbe 088c 7dbe
000000b0: 7ee3 99be 63da cabe fc1b b9be 06a1 2e3d
000000c0: 527b 28be 9341 1c3d c452 95be 0f9b 723d
000000d0: fd9b 91be acd0 6cbe 6406 c23d 332d 79be
000000e0: 7355 773e d726 e6be 22af 83be df74 79be
000000f0: d174 a9bd 3689 98be 7380 0f3d 1264 babe
00000100: 5caa f2bd 6b48 10be fa9e 98be 8edf 65be
00000110: 4ddc acbe 211a 9abe f3f6 933c a854 a1bd
00000120: e779 59be 8867 7fbe e5d1 c6be 16df 76be
00000130: 21a2 a3be 833f b5bd 8ed0 b7bd c9e3 b2be
00000140: 8634 8ebe 01e5 45be a965 bcbe e090 78bd
00000150: 02d4 87be 5396 b9be 81fa d1be bfa7 8dbe
00000160: 0e19 93be 2194 a7be e9bb 87be 0d82 df3d
00000170: 138f cbbe 166e 84be 73f0 98be 41aa 66be
00000180: e8bc 4cbe 1a64 babd b6a7 e4bd e683 34be
00000190: c38c 64be 70a0 9dbe 464a 79be 05f4 8fbe
000001a0: b847 20be eb05 87bd 0033 3bbe ea75 51be
000001b0: b5d8 3ebe 6324 1cbe e2ac 7ebe 23e3 f9bc
000001c0: f90d 97bd 9d52 2fbe 5598 94be 0df0 13be
000001d0: b7e9 b4be ec89 a9be 38c0 5ebd b59a a4be
000001e0: bdeb 8cbd fcc0 8bbe 38da a1bd 2d8f a9bd
000001f0: 9e18 ccbd c49c 90be 3e9d a4bd 92c8 54be
00000200: 095d 1d3e 291d 95bd dc22 113d 5687 59bd
00000210: 4311 18bc 4cb7 0abe 97d4 2bbd 8e88 62bc
00000220: 6e66 aebd bc4b ed3c ff2c 603d 9c74 bd3d
00000230: f57f ba3d 8721 ecbd 3105 10be f9eb e1bd
00000240: fb27 663d f553 973d 8e02 713d d88c e7bd
00000250: fc64 19be 90af 08bc 0b2b 2abe b3ae a3bd
00000260: f309 ad3d 7b5a 0fbe f8b1 43bd 442d cabc
00000270: 9f34 79bd b6ce 693d 12e6 42bd 6f7c 8e3d
00000280: 9c68 d9bc 7e5d bfbc 6a54 f13d b0f1 9e3d
00000290: 5f20 6dbd 1f26 373d 5921 ac3d e932 87bd
000002a0: 8711 a1bb 87a0 45bb 8f1b 4fbd 91d0 bbbd
000002b0: 0548 b23c 3062 943d 473d 123e 3b8e 35bd
000002c0: eb21 1c3d 40df d43b 73db dd3d b4c5 f5bd
000002d0: a4d0 4ebc 6011 f6bd 2dbe ebbd b9e8 883c
000002e0: 616c 22bd 9574 bd3d ad0d 283d 688f 91bd
000002f0: 3e20 bb3d b57c 10be c377 18bd 988a 083e
00000300: d87c 69be 00ff e1bd 0d25 4dbe 77aa bdbe
00000310: 7773 743d 2810 9c3d 6f62 943d cedd 2ebe
00000320: b23a 14be 08e6 9cbc e008 67be 0671 f2be
00000330: eba0 e3be 8cb8 54bd 6f4f e1be 8181 7abe
00000340: 8172 cfbe 5df0 6fbe 5699 87be dd12 493e
00000350: 6aa4 84be 860d 73be d176 81be af9b 74be
00000360: a376 20be 4af2 aebe 8610 7bbe 3a64 cd3c
00000370: 5444 92be 6102 9fbd c590 adbe 5a82 9cbe
00000380: 7ad4 12be 1339 19be 5743 e8bd 96d2 4abe
00000390: 5861 81be f7c7 90be 87e7 ca3d f671 57be
000003a0: 9016 fdbd 99f1 cdbd f9d8 8abe 5dfd 40be
000003b0: 7ed2 93be 3ac7 30be e668 e0be a8ca 7fbd
000003c0: 9d81 0abe 30de 143e c539 80be e644 493d
000003d0: ed78 4fbe 170e 92be 2e7a 9d3e 74b0 e1bd
000003e0: bb6f af3d 35fc dbbe 2746 6abe 8b42 87be
000003f0: 1e3f 243e 3782 9ebe 75eb 223e ddd2 e1be
