Competition/TrainAI/model/c/model_weights_3.pth (torch, 239847 bytes, 10 tensors)

lstm.weight_ih_l0 f4 [256, 34]
0	0x3e2a5035	0.16632159
1	0xbeca8935	-0.39557806
2	0x3e98d6fd	0.29851523
3	0xbd49ac42	-0.049236543
4	0xbc5895c9	-0.013219305
5	0x3dcdc6b4	0.10047665
6	0xbe5ebdb4	-0.21752053
7	0xbc5c9a68	-0.013464548
8	0x3d96f3f1	0.07370747
9	0xbce40a42	-0.027836923
10	0x3e4fa30a	0.20277038
11	0x3da99ecd	0.08282242
12	0x3d958972	0.07301606
13	0x3e19539d	0.14973302
14	0x3dfabc6f	0.12242972
15	0xbe19e780	-0.15029716
16	0xbe431578	-0.19051158
17	0xbe954942	-0.29157454
18	0xbea85b2a	-0.32882053
19	0x3e456d04	0.19279867
20	0xbc49992f	-0.012304588
21	0xbc12a64a	-0.008950779
22	0xbd33a030	-0.04385394
23	0x3e6b4e22	0.22979024
24	0xbc2efc8b	-0.010680328
25	0x3e109c53	0.14122133
26	0xbd072e6c	-0.033003256
27	0xbcb62ac4	-0.02223719
28	0x3dced893	0.10099902
29	0x3da71fc4	0.08160356
30	0xbcc16dee	-0.023611989
31	0x3d4148e8	0.04718867
32	0x3af729b6	0.0018857035
33	0x3dfcc2cb	0.12341841
34	0x3e198f43	0.14996056
35	0x3e8229d0	0.25422525
36	0xbe5e555a	-0.21712247
37	0x3e9d8382	0.30764395
38	0x3eb84ae8	0.3599465
39	0x3ed44e94	0.414662
40	0x3e4a7328	0.19770491
41	0x3e93d387	0.2887232
42	0x3ed47292	0.4149366
43	0x3dc79af2	0.0974635
44	0x3d6c2d06	0.057660125
45	0xbd3f1ede	-0.046660297
46	0xbdbbdd00	-0.09173012
47	0xbd850636	-0.06495325
48	0xbc407927	-0.011747635
49	0x3e305873	0.1722124
50	0x3eae6a4b	0.3406547
51	0x3e6efbf6	0.23338303
52	0x3ecbb137	0.39783642
53	0x3e09c52b	0.1345412
54	0x3cca38b7	0.024685247
55	0x39ebe018	0.00044989656
56	0x3e6aa1c3	0.2291327
57	0x3dfba1bf	0.1228671
58	0xbdd0b03c	-0.10189864
59	0x3db3feb8	0.08788818
60	0xbdd142e9	-0.1021784
61	0xbde6d64f	-0.11271345
62	0x3e813a14	0.25239623
63	0xbe189200	-0.14899445
64	0x3e7088c7	0.23489676
65	0xbc0c4b07	-0.00856281
66	0xbd5191da	-0.051164486
67	0x3de7f44b	0.11325892
68	0xbd9eeefd	-0.07760427
69	0x3e44ba7c	0.19211763
70	0x3baa5137	0.00519767
71	0x3e507632	0.20357588
72	0x3e831249	0.25599888
73	0x3e7c88aa	0.24661508
74	0x3e51ee6b	0.20501105
75	0x3e00d680	0.12581825
76	0x3dd3ecd8	0.10347909
77	0xbe5116af	-0.2041881
78	0xbcd915fb	-0.026499739
79	0xbc98dd57	-0.01866023
80	0x3d982e9a	0.074307635
81	0x3e15c38b	0.14625375
82	0x3e29b8a5	0.16574343
83	0x3dd4b443	0.10385945
84	0x3e18ee04	0.14934546
85	0xbd8ebf2a	-0.069700554
86	0x3e8c765d	0.27434054
87	0xbcdbbf63	-0.026824659
88	0xbd939777	-0.07206624
89	0xbe4be16f	-0.19910215
90	0x3bdb36cb	0.0066898814
91	0xbdf8f598	-0.12156218
92	0xbe4863cb	-0.19569318
93	0x3da989cb	0.08278235
94	0xbb171b66	-0.0023057102
95	0x3d508c36	0.050914966
96	0x3e91186a	0.2833894
97	0x3d64a8ea	0.05582515
98	0x3e8840f1	0.26612046
99	0xbdcb4fca	-0.09927328
100	0x3e2bd85a	0.1678175
101	0xbe86c000	-0.2631836
102	0xbdaafbd8	-0.08348817
103	0xbce571ba	-0.02800833
104	0x3d85875a	0.06519957
105	0x3e4bb815	0.1989444
106	0x3e0c8930	0.13724208
107	0xbd363f14	-0.04449375
108	0x3d5c20f9	0.053742383
109	0xbd124fda	-0.035720684
110	0xbdc1e058	-0.09466618
111	0x3d00c6d0	0.031439602
112	0xbe196a5c	-0.14981979
113	0xbe190c2a	-0.14946046
114	0x3e58bdf6	0.21166214
115	0xbbea4a44	-0.0071499664
116	0xbe8540d6	-0.26026028
117	0x3cc86ce5	0.024465987
118	0x3e28a8b6	0.16470608
119	0xbd9c6bd2	-0.076377526
120	0x3de1dd50	0.1102854
121	0x3ca0f21e	0.0196467
122	0xbe199f0f	-0.15002082
123	0x39142c36	0.0001413085
124	0x3d76920a	0.060197867
125	0x3e1773a6	0.1479021
126	0x3e368b1d	0.17826505
127	0x3dc2809b	0.09497186
128	0x3dabd168	0.083895504
129	0xbe5a9039	-0.21344079
130	0xbe0cec22	-0.13761953
131	0xbe4137f7	-0.18869005
132	0x3e01927f	0.1265354
133	0xbdb58c74	-0.0886468
134	0xbca09641	-0.019602897
135	0x3e1f863d	0.15578552
136	0xbc4c9fd3	-0.012489277
137	0x3d714099	0.058899496
138	0xbd68b909	-0.05681709
139	0x3d016e7c	0.031599507
140	0x3de82c0e	0.11336528
141	0x3d0b24dd	0.033970702
142	0x3dcbe8df	0.09956526
143	0x3e6cb49c	0.23115772
144	0x3d1d9aac	0.038477585
145	0xbe5abae2	-0.21360353
146	0xbe00ca8b	-0.12577264
147	0xbdfed015	-0.12442032
148	0xbe1074a1	-0.1410699
149	0xbe8effe3	-0.279296
150	0xbdf1452b	-0.11780771
151	0x3def48ff	0.11683845
152	0xbdff84a2	-0.124764696
153	0xbd4330fb	-0.047654133
154	0xbd5a2e2d	-0.053266693
155	0x3d73beaf	0.059508022
156	0xbe3150a8	-0.17315924
157	0xbe0da397	-0.13831936
158	0xbe146e9f	-0.14495324
159	0xbd885c79	-0.06658263
160	0xbd93b680	-0.072125435
161	0x3b925c4e	0.00446657
162	0xbe1b6ae7	-0.15177499
163	0xbe0a5bc0	-0.13511562
164	0xbdcbd5d4	-0.09952894
165	0xbe1875a9	-0.14888634
166	0x3db60ec6	0.088895366
167	0xbcdbed18	-0.026846454
168	0xbdfbd596	-0.12296598
169	0xbd1ac9d4	-0.037790135
170	0x3d32b5dc	0.043630466
171	0xbf3fdf3b	-0.7495
172	0x3dfa3624	0.12217358
173	0xbde47674	-0.11155406
174	0xbe41cd54	-0.18925983
175	0xbcd14c07	-0.025548948
176	0xbd3f8448	-0.046757013
177	0xbe243647	-0.1603633
178	0xbdbbf6c5	-0.09177927
179	0xbe38df05	-0.18053825
180	0xbb38f5ff	-0.0028222797
181	0xbba0365d	-0.004889293
182	0xbe0bb5cd	-0.1364357
183	0x3c91ed55	0.017813364
184	0xbe062204	-0.13098913
185	0x3f154e28	0.5832238
186	0x3e39e484	0.18153578
187	0x3f25723d	0.6462744
188	0x3de13d07	0.10997968
189	0xbe7abbe2	-0.24485734
190	0xbd959f0a	-0.07305725
191	0xbe564ada	-0.20926991
192	0x3e75672d	0.2396514
193	0xbe85cd6f	-0.26133296
194	0xbee01e0e	-0.4377293
195	0xbe3928ce	-0.18081972
196	0xbec1cb81	-0.37850574
197	0x3b06ed75	0.0020588313
198	0x3ceb1594	0.028696813
199	0xbc0c3377	-0.008557192
200	0x3dfff392	0.12497629
201	0xbda86581	-0.08222485
202	0xbb646569	-0.0034850484
203	0xbdf3f8a2	-0.11912657
204	0x3e2af507	0.16695033
205	0xbe0dd13e	-0.13849351
206	0x3e3f6ac8	0.18693078
207	0xbdbc3343	-0.09189465
208	0x3d837da0	0.064204454
209	0x3df05998	0.11735839
210	0xbda7f404	-0.08200839
211	0x3c3dbada	0.011580193
212	0x3e076cec	0.13225144
213	0x3cb17ba8	0.02166541
214	0xbe801aad	-0.25020352
215	0xbe3bf3f0	-0.18354774
216	0x3d7fe546	0.06247451
217	0xbe056665	-0.13027342
218	0xbbf7ee82	-0.007566274
219	0x3df047d7	0.11732452
220	0x3c43675f	0.011926501
221	0x3d8a96d7	0.06767052
222	0x3b0f00ff	0.0021820662
223	0xbe4528d8	-0.19253862
224	0x3ca24d44	0.019812234
225	0x3b43faa5	0.0029904034
226	0xbd8b8497	-0.06812399
227	0xbe853b12	-0.2602163
228	0x3d89215a	0.066958144
229	0x3a3ad648	0.00071272673
230	0xbd7ffdc4	-0.06249787
231	0xbde3dec8	-0.111264765
232	0x3d0fa59c	0.035070047
233	0xbd4c2534	-0.049840167
234	0xbdd81d6c	-0.10552487
235	0x3dac53d2	0.08414425
236	0xbde0dcde	-0.10979627
237	0x3cec6a95	0.028859416
238	0xbe0db842	-0.1383982
239	0xbd2e5477	-0.04256102
240	0xbbf9c44e	-0.0076222783
241	0x3e793d2c	0.24339741
242	0x3d69a855	0.0570453
243	0x3daca167	0.084292226
244	0x3e83b35d	0.2572278
245	0x3cccbe27	0.024993015
246	0xbd009ad9	-0.031397674
247	0xbcdaa209	-0.026688593
248	0x3e1c2eec	0.15252274
249	0xbc994db4	-0.01871381
250	0xbdb254ba	-0.087075666
251	0xbbe293ba	-0.006914583
252	0x3d9d0bc0	0.07668257
253	0xbccb7714	-0.024837054
254	0x3e0c818a	0.1372129
255	0x3c107a4e	0.008818222

lstm.weight_hh_l0 f4 [256, 64]
0	0x3e669d3b	0.22520916
1	0x3e06d583	0.13167386
2	0xbdc3ab3a	-0.09554143
3	0xb8e45177	-0.00010887061
4	0xbdbd975a	-0.09257384
5	0xbd7a9cb8	-0.061184615
6	0x3d364139	0.044495795
7	0x3d8fc759	0.070204444
8	0x3d98b70a	0.07456787
9	0xbca96946	-0.020680081
10	0xbdbff3c4	-0.093726665
11	0x3cefa4bc	0.029253356
12	0xbe0374d3	-0.12837534
13	0xbc2e2ed3	-0.010631281
14	0x3e97fad6	0.2968356
15	0x3dccf714	0.10008064
16	0xbdef4025	-0.116821565
17	0x3d6bb5ba	0.057546355
18	0x3c70eaaf	0.01470439
19	0x3d74497e	0.0596404
20	0x3e36afa1	0.17840435
21	0xbdcae608	-0.09907156
22	0x3c918b68	0.01776667
23	0xbd63ce97	-0.05561694
24	0xbdcbb663	-0.09946897
25	0xbd12c654	-0.03583367
26	0x3df2a52e	0.11847912
27	0xbc429ab9	-0.011877709
28	0xbd00fb9f	-0.031489965
29	0x3e17f3c5	0.14839084
30	0x3e0adcdc	0.13560814
31	0x3d6fb519	0.058522318
32	0xbda14d4d	-0.07876072
33	0xbd3dde01	-0.046354298
34	0xbd18635e	-0.03720414
35	0x3d83d39a	0.06436844
36	0x3dcce03a	0.10003705
37	0xbd9a1a9f	-0.07524609
38	0x3d9eadb2	0.077479735
39	0x3e31b800	0.17355347
40	0xbd92b917	-0.07164209
41	0xbd8ef8a9	-0.06981022
42	0xbe34dcf0	-0.17662406
43	0x3b3ebd8f	0.0029104685
44	0xbea6b8be	-0.32562822
45	0xbd08bdbc	-0.03338407
46	0xbac586c3	-0.0015070069
47	0x3d7df7bd	0.06200384
48	0x3db5e78b	0.08882054
49	0xbdc13310	-0.094335675
50	0xbd6837f8	-0.056694
51	0xbced4bff	-0.028966902
52	0xbdd2448b	-0.1026698
53	0x3d1bd083	0.03804065
54	0xbd605d5e	-0.054776542
55	0xbdf99adc	-0.1218774
56	0x3d70193f	0.058617827
57	0x3df9057d	0.1215925
58	0xbc06b584	-0.008221988
59	0xbdcfbf3a	-0.101438954
60	0xbdacdd02	-0.084405914
61	0xbe8dcfe4	-0.2769767
62	0xbe69c44c	-0.22828788
63	0x3d5f5dbd	0.054532755
64	0xbdc52662	-0.096264616
65	0xbcb6ee0d	-0.022330308
66	0xbda200dd	-0.07910321
67	0xbe5ff5dc	-0.21871132
68	0x3d5bdc11	0.05367667
69	0x3e1ba10a	0.1519815
70	0xbe68e15f	-0.22742222
71	0x3d39477e	0.045234196
72	0xbe4760d5	-0.19470532
73	0x3d8363d3	0.06415524
74	0xbdcae81a	-0.09907551
75	0x3da23584	0.079203635
76	0x3df3025a	0.11865683
77	0x3dea5a6a	0.11443026
78	0x3d428e9e	0.04749929
79	0x3ea776c6	0.32707804
80	0x3e7867e0	0.24258375
81	0xbe944fec	-0.28967226
82	0xbd1d7c6a	-0.03844873
83	0x3e1fb1d3	0.15595178
84	0xbd356715	-0.04428776
85	0xbdabe75f	-0.0839374
86	0x3e56deb1	0.20983388
87	0x3e032244	0.1280604
88	0x3e9c2f53	0.30504856
89	0xbe8502cb	-0.25978693
90	0xbe8af971	-0.27143434
91	0xbd780261	-0.060549144
92	0xbd5f33e8	-0.05449286
93	0xbe2b4b9d	-0.16728063
94	0xbe8294a8	-0.2550404
95	0xbbaa813a	-0.0052033933
96	0x3ceacb3e	0.028661367
97	0x3e2c6280	0.1683445
98	0x3db7d0b9	0.089753576
99	0xbd9b38ba	-0.07579179
100	0x3c9196da	0.017772127
101	0xbd93d95d	-0.07219193
102	0xbe16cec1	-0.14727308
103	0x3d7fdb67	0.062465098
104	0xbe328218	-0.1743244
105	0xbe06ce7f	-0.1316471
106	0xbdf5ed83	-0.120081924
107	0x3df59342	0.11990978
108	0xbde33809	-0.11094672
109	0x3e69fd6c	0.22850579
110	0xbd979138	-0.07400745
111	0x3e361706	0.1778222
112	0x3e3ad6dc	0.18246025
113	0x3e2f3753	0.17110948
114	0x3e6254b7	0.22102629
115	0xbd8e071f	-0.06934952
116	0xbdb867f0	-0.090041995
117	0xbd6ff1ad	-0.05858009
118	0xbddf5b55	-0.10906092
119	0x3ca79043	0.020454532
120	0x39acb4a5	0.00032940987
121	0xbab61161	-0.0013890677
122	0x3e31570a	0.17318359
123	0x3c759078	0.014988057
124	0x3e4adc22	0.19810537
125	0xbe02641f	-0.12733506
126	0xbe14ece5	-0.14543493
127	0xbe8bdc3e	-0.2731647
128	0xbd6873bc	-0.056750998
129	0xbe0636ad	-0.13106795
130	0xbcf5fc80	-0.030027628
131	0x3ea53c1b	0.3227242
132	0x3d7136ef	0.05889028
133	0x3de173c4	0.11008409
134	0xbe1c2890	-0.15249848
135	0x3e44c47d	0.1921558
136	0xbce4f063	-0.027946657
137	0xbe3c99c9	-0.1841804
138	0x3e5d1941	0.21591665
139	0xbcb51d2e	-0.02210864
140	0x3e4120ce	0.1886017
141	0x3d7ff9a6	0.062493943
142	0x3d4dae83	0.050215255
143	0xbd777fce	-0.06042462
144	0xbbb28621	-0.0054481183
145	0xbe066e59	-0.13128032
146	0xbd45740c	-0.048206374
147	0xbe24ecb4	-0.1610592
148	0xbd0279a9	-0.031854305
149	0xba38c4f9	-0.0007048394
150	0x3d5e1642	0.054220445
151	0x3bfe4481	0.007759631
152	0x3d3982b8	0.04529068
153	0x3de8694a	0.11348207
154	0x3e0b7435	0.13618548
155	0x3d3c6a75	0.045999963
156	0xbe04f8e8	-0.12985575
157	0xbe86e526	-0.263467
158	0xbe17343d	-0.14766021
159	0xbd8a73ea	-0.0676039
160	0x3e0cd52e	0.13753197
161	0x3d00ef06	0.03147795
162	0x3e43f8e1	0.19137909
163	0xbdd4313a	-0.10360952
164	0xbd67ce9d	-0.056593526
165	0x3ddf1dae	0.10894333
166	0xbd9e4919	-0.07728786
167	0xbd2e39eb	-0.042535704
168	0xbe3df8f7	-0.18552004
169	0x3d83522a	0.06412156
170	0xbe46aeef	-0.1940267
171	0x3e62b3fa	0.22138968
172	0x3ce7cb9a	0.028295327
173	0xbd3303b7	-0.043704715
174	0xbe9c3458	-0.30508685
175	0xbdcd9a78	-0.10039228
176	0xbb17086b	-0.002304579
177	0x3ddf980a	0.10917671
178	0x3e43da58	0.1912626
179	0x3ddd8238	0.10815853
180	0xbd853616	-0.06504457
181	0xbd383556	-0.04497274
182	0x3d8268c0	0.06367636
183	0xbd83e399	-0.06439895
184	0xbdb8c0d1	-0.09021152
185	0x3ca13b89	0.019681709
186	0x3e4e66ba	0.20156375
187	0x3e5425a2	0.20717481
188	0xbd24d518	-0.040242285
189	0x3e15c82d	0.14627142
190	0x3e3e4731	0.18581845
191	0x3b04100b	0.0020151164
192	0x3d4426fb	0.047888737
193	0x3e49a421	0.19691516
194	0xbe203bc9	-0.15647806
195	0x3d35687f	0.04428911
196	0xbd962dd9	-0.073329635
197	0x3ca50ccd	0.020147705
198	0xbd749c99	-0.059719656
199	0x3d0e452c	0.034733936
200	0x3d7d26b5	0.061804492
201	0x3bb25660	0.0054424256
202	0xbe0ce1a3	-0.13757949
203	0x3d4103b6	0.04712268
204	0xbe1703ff	-0.14747618
205	0xbcfbfc03	-0.030759817
206	0x3c40822c	0.011749785
207	0x3e51d07e	0.2048969
208	0x3d9f393c	0.077745885
209	0x3c8ef221	0.01744944
210	0x3cbdf195	0.023186484
211	0xbdbedb58	-0.0931918
212	0x3ca4ef08	0.02013351
213	0x3d0e99e6	0.034814738
214	0x3d241e01	0.040067676
215	0x3dfe7ee8	0.12426549
216	0x3e45fb5a	0.19334164
217	0x3c8c42a7	0.017121626
218	0xbbacfbac	-0.005279025
219	0xbd954436	-0.07288401
220	0x3ca24ca7	0.019811941
221	0x3b89c707	0.004204634
222	0x3d5e94a8	0.05434099
223	0x3e2d4a5a	0.16922894
224	0xbd5ec6ed	-0.05438893
225	0x3cd99972	0.026562426
226	0xbd26accd	-0.04069214
227	0xbddd4a47	-0.10805183
228	0xbda7d72d	-0.081953384
229	0xbc075830	-0.008260772
230	0x3dab3b37	0.08360904
231	0xbc0ff9d0	-0.008787587
232	0x3e00f437	0.1259316
233	0xbe1f25cf	-0.15541767
234	0xbb31a14f	-0.0027104204
235	0x3ac35a60	0.0014904253
236	0x3d9336c7	0.07188182
237	0xbced0fae	-0.02893814
238	0x3dd49222	0.10379435
239	0xbe2f78fe	-0.17135999
240	0xbda168f8	-0.07881349
241	0x3dc3d615	0.09562317
242	0xbd85362a	-0.065044716
243	0xbd4fd565	-0.05074062
244	0x3d363f90	0.04449421
245	0xbdd321c5	-0.103091754
246	0xbd14d45b	-0.03633533
247	0xbd93641b	-0.07196828
248	0xbe81fc68	-0.25387883
249	0x3dd09b68	0.101858914
250	0x3e1e6a7d	0.1547031
251	0x3cedd96a	0.029034335
252	0x3dcc0eee	0.09963785
253	0xbc9c72e2	-0.01909775
254	0xbe111e57	-0.1417173
255	0x3d3fcef8	0.04682824

lstm.bias_ih_l0 f4 [256]
0	0xbb03da13	-0.0020118996
1	0xbd1756b4	-0.03694792
2	0xbde96993	-0.1139709
3	0x3e02a23c	0.127572
4	0xba571263	-0.0008204339
5	0xbe09e6b1	-0.13466908
6	0x3dbb3224	0.09140423
7	0xbd9f2e53	-0.077725075
8	0xbd8ecd35	-0.06972734
9	0x3d82ca8d	0.0638629
10	0xbde38bcc	-0.111106485
11	0xbd7b05ec	-0.061284944
12	0x3f02431f	0.5088367
13	0xbe1bcadf	-0.15214108
14	0x3c8662f1	0.0164046
15	0xbd2572ca	-0.040392675
16	0xbdea57b6	-0.11442511
17	0xbebd52fa	-0.3697737
18	0x3ccec068	0.02523823
19	0xbd20b31f	-0.039233323
20	0xbe33ffa2	-0.17577985
21	0x3e0de458	0.13856637
22	0xbe0f1a3f	-0.13974856
23	0x3e3f3411	0.18672206
24	0xbe0a74df	-0.13521145
25	0x3f18d160	0.5969448
26	0x3def109b	0.11673089
27	0xbd3bfa64	-0.045893088
28	0xbe061b2e	-0.13096306
29	0xbf8cd833	-1.1003479
30	0xbc8ff88d	-0.017574573
31	0x3e990a35	0.298906
32	0xbd3a5585	-0.045491714
33	0xbd051b8d	-0.032496978
34	0x3d872076	0.06597988
35	0x3f0655b3	0.52474517
36	0x3bc41046	0.0059833853
37	0xbd035e52	-0.032072373
38	0x3dc145b0	0.0943712
39	0xbe68e3e2	-0.2274318
40	0xbe828e22	-0.25499064
41	0xbb5e5482	-0.0033924882
42	0x3d8ec984	0.0697203
43	0x3f9cbbfb	1.2244867
44	0xbda26c7c	-0.07930848
45	0x3cf9e482	0.030504469
46	0xbe2d8b8b	-0.16947763
47	0xbe630292	-0.22168949
48	0x3cf78edc	0.030219488
49	0x3e0392ae	0.12848923
50	0xbd5d5d1d	-0.054043878
51	0x3e1da723	0.15395789
52	0xbe11a4f4	-0.14223081
53	0xbea79e05	-0.32737747
54	0xbde77f0f	-0.113035314
55	0xbe85c634	-0.2612778
56	0x3eefc7f0	0.46832228
57	0xbd3cea10	-0.046121657
58	0xbe5973da	-0.212356
59	0xbdff20d0	-0.1245743
60	0x3e8df3fe	0.27725214
61	0xbd3b977b	-0.04579876
62	0xbe26e96e	-0.16299984
63	0xbe116ce4	-0.14201695
64	0x3c8d3f83	0.017242199
65	0x3a70a1d9	0.00091793906
66	0xbd7578bd	-0.059929598
67	0xbd2a0c3f	-0.041515585
68	0xbc2567bf	-0.010095536
69	0x3e168002	0.14697269
70	0xbd2769d2	-0.040872402
71	0x3cee06bb	0.029055944
72	0xbd9dd384	-0.07706359
73	0x3ce97ba8	0.028501347
74	0xbe318542	-0.1733599
75	0xbd61fdfc	-0.05517386
76	0xbdea7d9d	-0.1144974
77	0xbe4ad432	-0.19807509
78	0xbd642df1	-0.055707876
79	0x3df91ea3	0.121640466
80	0x3d191a0f	0.037378367
81	0x3dd58475	0.10425655
82	0xbdbecd19	-0.09316463
83	0x3c27fa50	0.01025255
84	0xbd41af56	-0.047286354
85	0x3c76485d	0.015031901
86	0xbd3e4358	-0.046450943
87	0x3ec1e2fd	0.3786849
88	0xbe0b875e	-0.13625857
89	0x3e8f7e12	0.28025872
90	0x3e88b801	0.26702884
91	0x3e32ccba	0.1746091
92	0xbdf40947	-0.11915832
93	0xbac44600	-0.0014974475
94	0x3d0efd1d	0.034909356
95	0xbc8bafe1	-0.017051639
96	0xbe4d24a8	-0.20033514
97	0xbdddc64f	-0.1082884
98	0xbcdf0b35	-0.027227024
99	0x3c876887	0.016529335
100	0xbe06e458	-0.13173044
101	0xbde21928	-0.110399544
102	0xbeaa83a5	-0.33303562
103	0xbd9c8e25	-0.076442994
104	0xbc406e05	-0.011744981
105	0xbdd6eebd	-0.104947545
106	0x3cf614fe	0.030039307
107	0xbd96dcf8	-0.07366365
108	0xbe98b0e7	-0.29822466
109	0x3c3d9401	0.011570931
110	0xbcb9a0e7	-0.022659732
111	0xbda7ced1	-0.08193744
112	0x3c276863	0.010217759
113	0xbe087d37	-0.13329016
114	0x3d58014b	0.052735608
115	0xbe41d434	-0.18928605
116	0xbed71ba3	-0.42013273
117	0xbe228947	-0.1587268
118	0xbca5b157	-0.020226164
119	0xbde0ab75	-0.10970203
120	0xbd09d6db	-0.033652168
121	0xbe2f3b1f	-0.17112397
122	0xbe2cc472	-0.16871813
123	0x3d1f0b4d	0.038829137
124	0xbdbcdc6c	-0.0922173
125	0xbd474492	-0.048649378
126	0x3b39bff6	0.0028343177
127	0xbd0bd135	-0.034135062
128	0x3e1077cc	0.14108199
129	0x3e665270	0.22492385
130	0xbbdc0d9f	-0.006715491
131	0xbdd97885	-0.106186904
132	0xbd94be7c	-0.072628945
133	0x3c04640d	0.008080495
134	0x3bfe5863	0.0077620014
135	0xbdb83672	-0.089947596
136	0x3d122ca0	0.03568709
137	0x3d4643cc	0.0484045
138	0xbcec2991	-0.028828414
139	0xbdcdd8e2	-0.10051133
140	0xbdf4debf	-0.11956548
141	0x3d6c76f3	0.057730626
142	0x3c61b196	0.01377525
143	0x3dbc5e6d	0.09197698
144	0x3e0e9341	0.1392336
145	0xbdc69890	-0.09697068
146	0x3e116906	0.1420022
147	0x3e033097	0.12811504
148	0x3d28f5a8	0.0412499
149	0xbd6d23da	-0.05789552
150	0xbdda7b17	-0.10668009
151	0x3d06864b	0.032842916
152	0xbcc14811	-0.023593934
153	0xbdd9c67f	-0.10633563
154	0x3e3579a9	0.17722191
155	0xbd2706e7	-0.040778067
156	0xbca4564f	-0.020060686
157	0x3d11f980	0.035638332
158	0xbdee1b83	-0.11626341
159	0x3cb39793	0.021922862
160	0xbd6974b3	-0.05699606
161	0x3c6e285a	0.014535988
162	0xbb7f2d45	-0.0038936895
163	0x3e88d3a6	0.26723975
164	0xbd6a1c34	-0.057155803
165	0xbb315524	-0.0027058804
166	0xbdaf7d4e	-0.08568822
167	0xbda5b702	-0.080915466
168	0xbc7bf9dd	-0.015379396
169	0x3c01f988	0.007933028
170	0x3c1bf114	0.009517927
171	0xbde06d73	-0.10958376
172	0x3dc54e85	0.09634117
173	0xbdc48167	-0.09594994
174	0xbde2eb09	-0.11079986
175	0xbdc110c4	-0.09427026
176	0x3dffde12	0.124935284
177	0x3c790579	0.015199059
178	0xbe032f4c	-0.12811011
179	0xbe2c214b	-0.16809575
180	0x3dfb0343	0.122564815
181	0xbca47fe2	-0.02008051
182	0x3a8a4fbf	0.0010552331
183	0xbd5af9b6	-0.0534608
184	0xbdd98ad6	-0.10622184
185	0x3dc629db	0.09675952
186	0x3d96c22e	0.073612556
187	0xbe05a5fd	-0.13051601
188	0xbc5faa5a	-0.013651455
189	0x3a6b89c8	0.00089850696
190	0xbd1bc6d6	-0.03803142
191	0xbe24d732	-0.16097715
192	0x3db0c68d	0.086316206
193	0x3f504c65	0.8136657
194	0x3db8ca78	0.09022993
195	0x3e22b7b7	0.15890394
196	0xbe498b47	-0.19682036
197	0x3e37e35c	0.17957824
198	0x3beb84d4	0.007187465
199	0xbe0be242	-0.1366053
200	0xbe059068	-0.13043368
201	0x3cc64f82	0.024207834
202	0xbe5dca47	-0.21659194
203	0xbd1865a4	-0.037206307
204	0x3e4d75ab	0.20064418
205	0xbd20257a	-0.03909824
206	0x3db360cd	0.08758698
207	0x3d9f98bf	0.07792806
208	0x3dbfb84e	0.09361325
209	0xbec5492e	-0.38532394
210	0x3e0014d7	0.1250795
211	0x3e37f913	0.17966108
212	0xbd77124c	-0.060320184
213	0xbd29028a	-0.041262187
214	0x3e6f9118	0.23395193
215	0xbcef37c0	-0.029201388
216	0xbe058c99	-0.13041915
217	0xbdec68d5	-0.115434326
218	0x3e454849	0.19265856
219	0x3e4f78d1	0.20260932
220	0xbe004af9	-0.125286
221	0xbe94e805	-0.29083267
222	0xba4d814b	-0.00078393955
223	0xbe4fffe3	-0.20312457
224	0xbe3a477f	-0.18191336
225	0x3d36c619	0.044622514
226	0x3dad1042	0.084503666
227	0x3e88bb6a	0.26705486
228	0xbe6b6ebb	-0.22991459
229	0xbf24a00e	-0.64306724
230	0xbeb7a548	-0.35868287
231	0x3b80bd38	0.0039288066
232	0xbd39e5b8	-0.045385092
233	0xbe384f96	-0.1799911
234	0x3b3f348e	0.0029175612
235	0xbb8c5c5a	-0.00428347
236	0xbf38264b	-0.7193343
237	0xbd613765	-0.05498447
238	0xbc9bbd44	-0.019011147
239	0xbbbd732e	-0.0057815528
240	0x3e1271c1	0.14301206
241	0x3d61f00c	0.055160567
242	0xbe350264	-0.17676693
243	0x3c9890fb	0.01862382
244	0xbf1a1dfa	-0.6020199
245	0xbce8ecde	-0.02843326
246	0xbe5a521d	-0.21320386
247	0xbdb1f02b	-0.086883865
248	0x3d59fabc	0.053217635
249	0x3d1174ce	0.035511784
250	0xbd03d6e6	-0.032187365
251	0x3d3af8d9	0.045647476
252	0xbf174f83	-0.591057
253	0xbfb6743e	-1.4254224
254	0x3d9d9034	0.0769352
255	0xbd3b94e7	-0.0457963

lstm.bias_hh_l0 f4 [256]
0	0xbc40b211	-0.011761204
1	0x3d80d3c9	0.06290395
2	0xbe3d0539	-0.18459024
3	0x3dd05c1c	0.101738185
4	0xbe29334c	-0.16523474
5	0xbe3b55fa	-0.18294516
6	0x3e2821de	0.1641917
7	0xbc2c4e54	-0.010516722
8	0xbdaccb75	-0.08437244
9	0x3dee8ca1	0.116479166
10	0x3c898d38	0.016790971
11	0xbd1f07c7	-0.038825776
12	0x3f259ccf	0.64692396
13	0xbe5d3cc1	-0.21605207
14	0xbdc76c75	-0.097374834
15	0x3d71cbb4	0.059032157
16	0x3c4a906b	0.0123635335
17	0xbeac9e66	-0.33714598
18	0x3de7514f	0.11294805
19	0xbe05056d	-0.12990351
20	0xbe9b2b64	-0.30306542
21	0x3e0bc1ef	0.13648199
22	0xbd45dfa5	-0.048308987
23	0x3e889351	0.26674893
24	0xbe565aeb	-0.2093312
25	0x3edd60e4	0.43237984
26	0x3e2836f3	0.16427211
27	0xbd51572c	-0.051108524
28	0xbe12c28a	-0.14332023
29	0xbf94cf5d	-1.1625782
30	0x3c7ca28e	0.015419615
31	0x3ea38aeb	0.31941923
32	0xbda8c133	-0.08239975
33	0xbdec665b	-0.1154296
34	0x3dd4b495	0.10386006
35	0x3efa9c93	0.48947582
36	0xbe3d22c1	-0.18470289
37	0x3d2c44a9	0.042057667
38	0xbd15ae1d	-0.036543
39	0xbd49c61b	-0.049261194
40	0xbe58ee8b	-0.21184747
41	0xbd182e18	-0.037153333
42	0x3e3150b7	0.17315947
43	0x3f843fd0	1.0331974
44	0xbe3b2cc0	-0.1827879
45	0xbdb99e79	-0.090634294
46	0x3c5b678c	0.013391387
47	0xbe9971ca	-0.29969627
48	0x3d88886e	0.06666647
49	0x3d53962c	0.051656887
50	0xbe6200e7	-0.22070657
51	0x3db2845f	0.08716654
52	0xbc5287d3	-0.012849766
53	0xbe9304eb	-0.2871469
54	0xbe2c5eb7	-0.16833006
55	0xbe312219	-0.17298163
56	0x3f160538	0.58601713
57	0x3d718d1c	0.058972463
58	0xbe4b9b66	-0.19883499
59	0x3df25572	0.11832704
60	0x3e9ff7b7	0.3124368
61	0xbcdeab63	-0.027181333
62	0x3d20e88d	0.039284278
63	0xbcc88f08	-0.024482265
64	0x3df348a6	0.11879091
65	0xbdb9478f	-0.09046852
66	0xbdec4429	-0.11536438
67	0xbc8234a1	-0.015894236
68	0x3b9f6091	0.0048638065
69	0xbd0285ee	-0.031866007
70	0xbd90bc35	-0.07067148
71	0x3c51666c	0.012780767
72	0xbe2d8a63	-0.16947322
73	0x3d0ae3eb	0.033908766
74	0xbdf09597	-0.11747282
75	0xbe31123d	-0.17292114
76	0x3da0611b	0.078310214
77	0xbdfa1258	-0.1221053
78	0x3d480363	0.048831355
79	0x3c896a94	0.016774453
80	0xbca53d94	-0.020170964
81	0xbceb53b7	-0.028726442
82	0x3cff30ba	0.031151164
83	0x3dd5110b	0.10403641
84	0xbcee18ba	-0.029064525
85	0x3dd5acd7	0.10433357
86	0xbc4ce96c	-0.012506824
87	0x3ecd6e07	0.40123007
88	0xbdf3cc18	-0.11904162
89	0x3e1d86b1	0.15383412
90	0x3eb90238	0.36134505
91	0x3e3edc56	0.18638739
92	0xbd274b4e	-0.0408433
93	0xbe017be2	-0.12644914
94	0x3c9cc6c1	0.019137742
95	0x3e0cf6e4	0.13766056
96	0xbe7210de	-0.23639247
97	0xbd5e8e66	-0.05433502
98	0x3d2c3110	0.042038977
99	0xbc86e21a	-0.016465236
100	0xbe81f55d	-0.2538251
101	0xbd1d5af5	-0.03841682
102	0xbe8c6548	-0.2742102
103	0x3cca51af	0.024697153
104	0xbdbd7d34	-0.09252396
105	0x3d0707eb	0.032966536
106	0xbdee9727	-0.11649924
107	0xbe021749	-0.12704195
108	0xbe9f2b67	-0.310878
109	0xbde55a54	-0.11198869
110	0xbd720f62	-0.0590967
111	0x3cc69973	0.024243092
112	0x3d026848	0.03183773
113	0xbe16f59f	-0.14742135
114	0xbdf92ac9	-0.12166364
115	0xbdaebca6	-0.085320756
116	0xbef57a0b	-0.47944674
117	0xbd83b5ed	-0.06431184
118	0xbe2c6ec5	-0.1683913
119	0xbe361ec7	-0.17785178
120	0xbdc42ffd	-0.095794655
121	0x3ccc1924	0.024914332
122	0xbe0fa298	-0.14026868
123	0xbd903c5c	-0.07042763
124	0xbe83d4f2	-0.25748402
125	0xbbb0f754	-0.0054005776
126	0x3d26cf70	0.04072517
127	0x3ca7fef2	0.02050731
128	0x3e2c91c9	0.16852488
129	0x3de9fe72	0.11425485
130	0xbe164b46	-0.14677152
131	0xbd98901b	-0.07449361
132	0xbd8c4184	-0.068484336
133	0xbe2ffbce	-0.171859
134	0x3df45d82	0.11931898
135	0xbd9e610c	-0.07733354
136	0xbd11ec3a	-0.035625674
137	0x3e126715	0.14297135
138	0x3ca6ab67	0.020345403
139	0xbd496d7a	-0.04917667
140	0xbe389908	-0.18027127
141	0x3d49b5fb	0.049245816
142	0x3e2f50c3	0.17120652
143	0xbda43ed5	-0.08019797
144	0xbd3777dc	-0.04479204
145	0x3df7c287	0.1209765
146	0xbda15196	-0.078768894
147	0x3d002d3d	0.031293143
148	0xbbc47ad1	-0.005996086
149	0xbd9a627a	-0.07538314
150	0xbde3cca4	-0.111230165
151	0x3c9a451c	0.018831782
152	0xbce6c0b7	-0.028168065
153	0xbdd96939	-0.10615773
154	0x3dde3a54	0.10850969
155	0xbe2127a5	-0.1573778
156	0xbdd09bee	-0.10185991
157	0x3db360b0	0.08758676
158	0xbd197bdf	-0.03747165
159	0x3e03a349	0.12855257
160	0x3d3a0d29	0.045422707
161	0x3d4981b8	0.049195975
162	0xbd270331	-0.040774528
163	0x3e64e20c	0.22351855
164	0xbe1d7758	-0.15377557
165	0x3d3b7bef	0.04577249
166	0xbc9b31d2	-0.018944655
167	0xbdca3e00	-0.09875107
168	0xbdaeeb36	-0.08540957
169	0x3e4efcc6	0.20213613
170	0xbce4914d	-0.027901316
171	0xbe342947	-0.17593871
172	0x3d63ee73	0.055647325
173	0x3dafae1d	0.08578131
174	0xbd0b2eab	-0.033980053
175	0xbdd8e5ef	-0.10590731
176	0x3e472010	0.19445825
177	0x3e178f2f	0.14800714
178	0xbe50394f	-0.20334361
179	0xbe00094c	-0.12503546
180	0x3debc2ae	0.115117416
181	0xbd4b8140	-0.04968381
182	0x3e376274	0.1790865
183	0x3d9241f9	0.071414895
184	0xbea20662	-0.31645495
185	0x3d2570a1	0.040390614
186	0x3df060c4	0.117372066
187	0xbdaa31a9	-0.08310253
188	0x3ce2e22f	0.027695743
189	0xbd958715	-0.073011555
190	0x3d7d41e2	0.06183041
191	0xbdfdf8ca	-0.124009684
192	0x3ceb3e09	0.028716104
193	0x3f7b1ceb	0.98091
194	0xbdc2100f	-0.09475719
195	0xbd67b0cf	-0.056565102
196	0xbccc857d	-0.024965996
197	0x3e4c1f36	0.19933781
198	0x3d775267	0.06038132
199	0xbcb6792b	-0.022274574
200	0x3d1dbbe0	0.03850925
201	0xbcfde14f	-0.030991225
202	0xbeacc3e2	-0.33743197
203	0xbd97d6e4	-0.07414034
204	0xbc911ebc	-0.01771485
205	0xbda67859	-0.08128423
206	0xbd283c74	-0.041073278
207	0xbb762e39	-0.0037564172
208	0x3d958967	0.07301598
209	0xbea4ab0c	-0.32161748
210	0x3d7ba8a6	0.061440133
211	0x3e112f7e	0.14178273
212	0xbda51a82	-0.080616966
213	0x3c702635	0.014657547
214	0x3d90e33f	0.07074594
215	0x3e49fb58	0.19724786
216	0x3d047858	0.03234133
217	0xbdd2f3d3	-0.10300412
218	0x3cef1894	0.029186524
219	0x3e1656a0	0.14681482
220	0xbe999991	-0.29999974
221	0xbe9ee412	-0.3103338
222	0xbe3d3029	-0.18475403
223	0xbe243f26	-0.16039714
224	0xbe06be8b	-0.13158624
225	0xbc770919	-0.015077853
226	0xbcbe17e6	-0.023204755
227	0x3e5033ec	0.20332307
228	0xbd84d151	-0.064852364
229	0xbf2afdcc	-0.66793513
230	0xbea18cbd	-0.31552687
231	0xbcd9bfaa	-0.02658065
232	0x3d230036	0.039795123
233	0xbd23e54d	-0.0400136
234	0xbdb48966	-0.08815269
235	0xbb2c05c5	-0.0026248556
236	0xbf328969	-0.6974092
237	0xbd9a39cc	-0.07530555
238	0xbc638b9c	-0.013888266
239	0xbd8caf0d	-0.06869326
240	0x3d8f55e9	0.06998808
241	0xbc9c444c	-0.019075535
242	0xbe5e01c0	-0.21680355
243	0x3c9baba8	0.01900275
244	0xbf417057	-0.7556204
245	0xbe6d79ea	-0.23191038
246	0xbdac0078	-0.08398527
247	0xbe4bf870	-0.1991899
248	0x3e55ac96	0.20866618
249	0x3dbbb197	0.09164732
250	0xbd62b2cf	-0.055346306
251	0x3ce9bd33	0.0285326
252	0xbf14a4dd	-0.5806406
253	0xbf9e40be	-1.2363508
254	0xbdb54d2a	-0.088526085
255	0x3d934314	0.071905285

lstm.weight_ih_l1 f4 [256, 64]
0	0xbeef1a75	-0.46699873
1	0xbd525507	-0.05135062
2	0x3e4d7685	0.20064743
3	0x3e5476bc	0.20748419
4	0x3d84a2c2	0.06476356
5	0x3ed5393d	0.41645232
6	0xbddb2610	-0.10700619
7	0x3ddc6750	0.10761893
8	0xbd928bb6	-0.07155554
9	0xbe687f9c	-0.22704929
10	0x3e9a28cd	0.30109254
11	0x3e26e2c1	0.16297437
12	0x3dcaac1c	0.098961085
13	0xbd90850c	-0.07056627
14	0xbeb5a5e9	-0.35478142
15	0xbd769e29	-0.060209427
16	0xbead7ea2	-0.33885676
17	0xbdce0fda	-0.10061617
18	0xbda27277	-0.07931989
19	0xbe217fa5	-0.15771349
20	0xbd78a816	-0.060707174
21	0x3ec6a6d3	0.38799152
22	0x3ea05d1c	0.31321037
23	0xbec1b3d1	-0.37832502
24	0xbdd2d12b	-0.10293802
25	0x3e7742aa	0.24146524
26	0xbd71be61	-0.05901945
27	0x3e1444cc	0.14479369
28	0x3d8b3252	0.06796707
29	0xbe70e6e9	-0.23525585
30	0xbb6fd156	-0.003659328
31	0xbe437f45	-0.19091518
32	0xbc2481a6	-0.010040676
33	0xbc4b6e7a	-0.012416476
34	0x3e41d476	0.18928704
35	0xbd1aec35	-0.03782292
36	0xbd68a941	-0.056802038
37	0x3dfd7035	0.123749174
38	0xbe282fbd	-0.1642446
39	0xbdaa108f	-0.083039396
40	0x3d726f33	0.05918808
41	0x3c4b1889	0.012395986
42	0x3e8e0c46	0.2774374
43	0x3c5ab907	0.013349778
44	0x3dddd593	0.10831752
45	0xbaf3cf50	-0.0018601213
46	0x3dc1a562	0.094553724
47	0xbe549424	-0.20759636
48	0x3d3a5e3e	0.045500033
49	0xbc038ddb	-0.008029426
50	0x3f0d1ccf	0.55122083
51	0x3eaa3c88	0.33249307
52	0x3e118706	0.14211664
53	0xbd6956d0	-0.056967556
54	0xbccaaafa	-0.024739731
55	0x3e34fc14	0.17674285
56	0x3e962c0d	0.29330483
57	0x3dc3e512	0.09565176
58	0x3d3fb2ac	0.046801254
59	0x3e306dc0	0.17229366
60	0xbdbff7c1	-0.09373427
61	0x3e8ded9d	0.27720347
62	0x3d37a3d1	0.044833962
63	0x3d5e3d8a	0.054257907
64	0xbe1ea616	-0.15493044
65	0xbd78621d	-0.060640443
66	0x3ea90486	0.33011264
67	0x3e13968c	0.14412898
68	0x3dec6451	0.11542571
69	0x3e8db6d7	0.27678558
70	0xbe7b898f	-0.24564193
71	0xbdba7590	-0.091044545
72	0xbe01e5e5	-0.12685354
73	0xbddf2123	-0.10894992
74	0x3e84242f	0.25808856
75	0x3de65800	0.112472534
76	0x3d48b147	0.04899719
77	0xbdd827ac	-0.10554442
78	0x3c8aa522	0.016924445
79	0xbdb499e6	-0.08818416
80	0xbeacb091	-0.3372846
81	0xbe7f0313	-0.24903516
82	0xbcfb67a8	-0.030689076
83	0xbd8795bc	-0.066203564
84	0xbe139446	-0.1441203
85	0x3e7b4b68	0.24540484
86	0x3e15fb0b	0.14646547
87	0xbe956caa	-0.29184467
88	0x3ca1e7f0	0.019763917
89	0x3f279d05	0.6547397
90	0x3e4241d4	0.18970424
91	0x3a0c269d	0.000534633
92	0xbddb9df6	-0.10723488
93	0x3dcad96f	0.099047534
94	0xbe2dad7e	-0.16960713
95	0x3e1fcba2	0.15605024
96	0x3df96976	0.12178318
97	0xbd512c29	-0.051067505
98	0x3e1cd852	0.15316895
99	0xbe0d9587	-0.13826571
100	0x3d976b44	0.07393506
101	0x3ec8432e	0.39113754
102	0xbd804ac6	-0.06264262
103	0x3e022ebc	0.1271314
104	0x3d62e75d	0.055396426
105	0x3d5da170	0.054109037
106	0x3e4528e5	0.19253881
107	0x3dbd7967	0.09251671
108	0x3d7d0ae4	0.061777964
109	0xbcba5fad	-0.0227507
110	0x3de922c3	0.113835834
111	0x3ddf9025	0.10916165
112	0x3e157967	0.14597093
113	0xbf023613	-0.5086376
114	0x3ca981dd	0.020691806
115	0x3ddc859e	0.10767673
116	0xbdd9c42e	-0.106331214
117	0xbe22133f	-0.15827654
118	0xbd5da37d	-0.054110993
119	0x3e6cc041	0.23120214
120	0x3e886528	0.26639676
121	0xbe184fae	-0.14874145
122	0x3e0cd0ec	0.13751572
123	0x3e4f4e87	0.202448
124	0xbe8bfe4f	-0.2734246
125	0x3e2cea4d	0.16886254
126	0x3cf91dfb	0.030409804
127	0xbd6c63fa	-0.057712533
128	0xbe159373	-0.14607029
129	0xbe96b379	-0.29433802
130	0x3db15cf2	0.08660306
131	0x3ebeac2c	0.37240732
132	0x3d78db02	0.060755737
133	0x3db867f8	0.090042055
134	0xbd754f4f	-0.059890088
135	0xbe04d91f	-0.1297345
136	0x3e577261	0.21039726
137	0xbe0684a2	-0.13136533
138	0xbc639b37	-0.013891987
139	0xbdaaaef6	-0.083341524
140	0x3e790e1c	0.24321789
141	0x3d18d51c	0.037312612
142	0x3ca5772d	0.020198429
143	0xbe3506a4	-0.17678314
144	0xbc65aaf5	-0.01401781
145	0xbd396e9b	-0.045271497
146	0xbdd940f6	-0.106080934
147	0x3e32c4dc	0.17457908
148	0xbd9bf8e9	-0.07615835
149	0x3e1305aa	0.1435763
150	0x3ef54d33	0.4791046
151	0xbddf8478	-0.10913938
152	0xbe4b956d	-0.1988122
153	0x3cc79769	0.02436419
154	0xbed907a7	-0.4238865
155	0x3e82bbf7	0.2553403
156	0xbc79021d	-0.015198258
157	0x3e06b0ac	0.13153332
158	0x3cfd58b4	0.030926086
159	0xbe1b9954	-0.15195209
160	0xbdac6951	-0.08418525
161	0xbe40dceb	-0.18834274
162	0x3e48a901	0.1959572
163	0xbd052c3f	-0.0325129
164	0xbe892439	-0.26785448
165	0xbe13f9b0	-0.14450717
166	0xbddfa439	-0.10919995
167	0x3e6ae259	0.22937907
168	0xbdef93e3	-0.11698129
169	0x3d0b59fc	0.034021363
170	0xbb8112fc	-0.0039390307
171	0x3eb1e561	0.34745315
172	0x3cb5f76d	0.022212708
173	0x3e880054	0.2656275
174	0x3c02a56f	0.007974013
175	0xbe0e551e	-0.13899657
176	0xbde4e139	-0.1117577
177	0x3e235612	0.15950802
178	0xbd771c68	-0.060329825
179	0x3e591b82	0.212019
180	0x3e27a511	0.16371562
181	0x3d7c49d5	0.06159385
182	0xbcb85d89	-0.022505539
183	0xbe51d530	-0.20491481
184	0x3e604d8b	0.2190458
185	0x3e84e684	0.2595712
186	0xbde80e75	-0.113308825
187	0xbda40d80	-0.080103874
188	0x3dbdddcb	0.09270819
189	0xbda5fb60	-0.081045866
190	0x3c110f4b	0.008853744
191	0x3ef48c08	0.47763085
192	0xbebaf7a1	-0.3651705
193	0xbedab4e9	-0.42716148
194	0x3e05e97a	0.13077345
195	0x3e98cda1	0.29844382
196	0x3e8618e9	0.2619088
197	0xbcfc2f09	-0.030784147
198	0xbed0b6b0	-0.4076438
199	0x3d76c55c	0.06024681
200	0xbd060097	-0.032715406
201	0xbdbce81e	-0.0922396
202	0x3ddc31a0	0.10751653
203	0x3e0a950f	0.13533424
204	0x3ecb2cc0	0.3968258
205	0xbd0f679e	-0.035010926
206	0x3c5b65b6	0.013390949
207	0xbebdaca4	-0.37045777
208	0xbec82f4c	-0.39098585
209	0x3d76d1db	0.060258728
210	0xbe3ae82a	-0.18252626
211	0xbe30e8e2	-0.17276338
212	0x3e50fd8d	0.20409222
213	0x3d9a8fba	0.07546945
214	0x3e8e2054	0.2775904
215	0xbde35b18	-0.11101359
216	0xbcec61f9	-0.02885531
217	0x3df57572	0.119852915
218	0xbe8e31db	-0.27772412
219	0x3e19613c	0.14978498
220	0xbeb48968	-0.35261083
221	0x3c904f17	0.017615838
222	0x3c392c00	0.011301994
223	0xbe996478	-0.29959464
224	0x3ea0dd12	0.31418663
225	0xbd757b96	-0.059932314
226	0x3eb23727	0.34807703
227	0xbe9defdd	-0.30847064
228	0x3ce3f799	0.027828025
229	0x3e6e0c60	0.23246908
230	0xbd86bcfb	-0.06579014
231	0x3d956bf0	0.07295978
232	0x3e0fd019	0.14044227
233	0x3d159406	0.03651812
234	0xbdcc7802	-0.09983827
235	0x3e0382f7	0.12842928
236	0xbb057db5	-0.0020369117
237	0x3e16d4f9	0.1472968
238	0xbe186b72	-0.14884737
239	0xbe1d1492	-0.15339878
240	0xbe3311f3	-0.17487316
241	0xbf238e5f	-0.63889116
242	0x3e18e4a9	0.14930977
243	0x3dbae2b4	0.091252714
244	0xbe1a49cc	-0.15067214
245	0xbc2ba8af	-0.010477229
246	0xbd0d0da1	-0.034436826
247	0x3d20cfac	0.03926055
248	0x3e2aff57	0.16698967
249	0x3e87d3e0	0.26528835
250	0x3eb801d5	0.35938898
251	0x3db94e69	0.09048159
252	0xbe9793fd	-0.29605094
253	0x3d3a728a	0.04551939
254	0xbbb3ca76	-0.0054867817
255	0x3e45e74b	0.19326513

lstm.weight_hh_l1 f4 [256, 64]
0	0x3ebd6b25	0.36995807
1	0xbb5b7006	-0.003348352
2	0xbeda4ba8	-0.42635846
3	0x3d24063a	0.040045
4	0xbdf75880	-0.12077427
5	0x3e55caa3	0.20878081
6	0x3a8c709c	0.0010714713
7	0xbe3de199	-0.1854309
8	0xbe577d47	-0.21043883
9	0x3c9fb4d5	0.019495407
10	0xbcea20d6	-0.02858011
11	0xbe4997f4	-0.19686872
12	0xbe38748c	-0.18013209
13	0x3e4b5e47	0.19860183
14	0x3e4efe30	0.20214152
15	0x3d87f141	0.066378124
16	0x3e319a1a	0.17343941
17	0xbe578474	-0.2104662
18	0x3d380567	0.044927027
19	0xbbc85838	-0.006114032
20	0xbdbc5e71	-0.09197701
21	0xbe60885e	-0.2192702
22	0xbda7b66d	-0.08189092
23	0xbc0f3b08	-0.0087421015
24	0x3e95ca7f	0.29256055
25	0xbeaffdc3	-0.34373292
26	0x3d983e08	0.074337065
27	0xbe540852	-0.20706299
28	0x3d5eb409	0.054370914
29	0xbde9ce48	-0.11416298
30	0xbd89050e	-0.06690417
31	0x3c9736f3	0.018458819
32	0xbd9a54dc	-0.07535717
33	0xbc24d297	-0.010059974
34	0xbd103b1b	-0.035212617
35	0xbcd4e6af	-0.025988905
36	0xbd8c6270	-0.06854713
37	0x3e2c1bd0	0.16807485
38	0xbdfd92e9	-0.123815365
39	0xbe473421	-0.1945348
40	0x3e2d7d3e	0.16942307
41	0x3d94610f	0.07245075
42	0x3e011c92	0.12608555
43	0xbe8c52ce	-0.27406925
44	0xbe7e7ab2	-0.24851492
45	0x3d97f1f3	0.07419195
46	0x3e0cd6f3	0.13753872
47	0xbebda698	-0.37041163
48	0x3e50a946	0.20377073
49	0x3e3dbd2c	0.18529195
50	0xbb67d4d6	-0.0035374663
51	0xbea1b6de	-0.3158483
52	0xbce612c8	-0.028085127
53	0xbce5927d	-0.028023953
54	0x3e9019fc	0.28144825
55	0xbb0cc087	-0.002147706
56	0xbe09827a	-0.13428679
57	0x3d82bdc3	0.063838504
58	0xbecf9b50	-0.40548182
59	0x3db38b1e	0.08766769
60	0x3c383ce4	0.011244986
61	0x3e427235	0.18988879
62	0x3d793ca9	0.060848866
63	0x3d804c8e	0.06264602
64	0x3e182be3	0.14860491
65	0x3e4ac58b	0.19801919
66	0xbd9ca675	-0.07648937
67	0xbdb18e9f	-0.08669781
68	0xbd169428	-0.036762387
69	0x3ca7edbb	0.0204991
70	0x3d4de3a9	0.05026594
71	0xbde62c92	-0.1123897
72	0x3d33db48	0.043910295
73	0x3cf6ab99	0.030111121
74	0x3c8c3a51	0.017117651
75	0x3e810f46	0.25206965
76	0xbe17848f	-0.14796661
77	0xbe09d405	-0.13459785
78	0x3de913ff	0.11380767
79	0x3f247e51	0.64255244
80	0xbdbda91d	-0.092607714
81	0xbc720e85	-0.01477397
82	0xbe564aea	-0.20927015
83	0x3d59b681	0.053152565
84	0xbd14eeef	-0.036360677
85	0xbec83fe8	-0.39111257
86	0xbdff4f44	-0.124662906
87	0xbdc29d85	-0.09502701
88	0x3dbe0f65	0.0928028
89	0xbde8acd4	-0.11361089
90	0x3d87103b	0.065948926
91	0x3caebed5	0.02133123
92	0x3c5d783e	0.0135174375
93	0xbceb012c	-0.028687082
94	0x3d948a43	0.07252934
95	0x3ca4cfd1	0.020118626
96	0xbe37460c	-0.17897815
97	0xbd197e2c	-0.037473843
98	0xbd28b017	-0.041183557
99	0xbd43c307	-0.047793414
100	0xbcaaaadc	-0.020833425
101	0xbd57c249	-0.05267552
102	0x3e71cee2	0.23614076
103	0x3d8a7dac	0.06762251
104	0xbce4f543	-0.027948981
105	0x3d8b9917	0.06816309
106	0x3ce80f77	0.028327687
107	0xbe3b6b51	-0.18302657
108	0xbc0faef1	-0.008769737
109	0x3c284d7d	0.010272381
110	0x3d469d9f	0.048490163
111	0x3d3ccf4d	0.046096135
112	0x3e050760	0.12991095
113	0x3e79bd34	0.24388582
114	0x3cec2d86	0.028830301
115	0xbdbf42a0	-0.093388796
116	0xbd0675d3	-0.03282721
117	0x3deae6f5	0.11469833
118	0xbc1823dd	-0.009285894
119	0xbca5f550	-0.020258576
120	0xbda4f69a	-0.08054848
121	0x3d42ceea	0.04756061
122	0xbe3071ba	-0.17230883
123	0xbdc1f9d3	-0.09471478
124	0x3bae8af2	0.005326622
125	0x3c4a2f48	0.012340374
126	0x3e246195	0.1605285
127	0x3e1c3463	0.15254359
128	0x3e9eb321	0.3099604
129	0xbe90a32f	-0.282495
130	0xbefc9d5b	-0.49338803
131	0xbeb97158	-0.36219287
132	0x3e0d03af	0.13770936
133	0x3ddc1b49	0.10747392
134	0xbe55fed6	-0.20897993
135	0x3e1fba96	0.1559852
136	0x3e18eebe	0.14934823
137	0x3d8a8eda	0.06765528
138	0xbd334613	-0.043768
139	0xbed464cd	-0.41483155
140	0x3d41bf2c	0.047301456
141	0x3df0cb6b	0.11757549
142	0xbe01ded2	-0.12682655
143	0xbe92fe38	-0.2870958
144	0xbe07494e	-0.13211557
145	0xbe5b75d4	-0.21431667
146	0xbd4bc3c0	-0.04974723
147	0x3d03653b	0.032078963
148	0xbde9205c	-0.11383125
149	0x3d9482aa	0.07251485
150	0x3e2c4c7b	0.1682605
151	0x3e0eb771	0.13937165
152	0x3ed02028	0.40649533
153	0x3e89d172	0.26917607
154	0x3e27e2fd	0.16395183
155	0xbde5e5fe	-0.11225508
156	0x3e029338	0.12751472
157	0x3f0a0421	0.5391255
158	0xbe350768	-0.17678607
159	0x3af4ed1c	0.0018686387
160	0x3d6b641b	0.057468515
161	0xbe1a084a	-0.15042225
162	0x3ba565c8	0.0050475337
163	0x3ed622f5	0.41823545
164	0x3d4d3cc4	0.05010678
165	0x3da03624	0.078228265
166	0xbe8055ff	-0.2506561
167	0xbe324fb0	-0.17413211
168	0x3bb770dd	0.005598171
169	0xbd8eb9c0	-0.06969023
170	0x3d6ca384	0.05777313
171	0xbc77ec74	-0.015132058
172	0xbe503e04	-0.20336157
173	0xbe0dcdc6	-0.13848028
174	0x3e3b2b52	0.18278244
175	0xbd12b977	-0.035821404
176	0xbecd5d76	-0.40110368
177	0xbd673ede	-0.05645644
178	0x3f0f4090	0.5595789
179	0x3de3d154	0.111239105
180	0x3ed768ee	0.42072242
181	0x3de65626	0.112469
182	0x3e808ab9	0.25105837
183	0xbbda7ea1	-0.0066679274
184	0xbdc63b62	-0.09679295
185	0xbdd00841	-0.10157824
186	0x3d07a502	0.033116348
187	0x3bb62e80	0.0055597425
188	0xba82f8d5	-0.0009992371
189	0xbaa247b0	-0.0012380984
190	0x3f0d03eb	0.55084103
191	0xbdd8a451	-0.10578216
192	0x3ddc9815	0.10771195
193	0xbd97c44b	-0.07410487
194	0xbf109e43	-0.5649149
195	0xbcdc6bf1	-0.02690694
196	0xbca0b192	-0.019615922
197	0xbe4be3ad	-0.1991107
198	0x3e51b10d	0.20477696
199	0xbe1fb638	-0.15596855
200	0x3dca3add	0.098745085
201	0x3df8995a	0.121386245
202	0x3cf21ef1	0.02955577
203	0x3e8d53ea	0.27603084
204	0xbd86b83f	-0.06578111
205	0xbdf0e952	-0.11763252
206	0x3e574b04	0.2102471
207	0xbdbc1ab2	-0.09184779
208	0x3d91a602	0.071117416
209	0xbdbae421	-0.091255434
210	0x3d8a0945	0.06740049
211	0xbd6853ca	-0.056720532
212	0x3d42132f	0.047381576
213	0x3d869d2c	0.06572947
214	0xbc31a3a9	-0.010842242
215	0xbe019106	-0.12652978
216	0x3dc7df69	0.09759409
217	0xbe12ce2b	-0.1433646
218	0x3aeca8f8	0.0018055728
219	0x3c2a502b	0.01039509
220	0x3dfb6756	0.12275569
221	0xbd9d2e82	-0.07674886
222	0x3cbc7180	0.02300334
223	0x3c4858c0	0.012228191
224	0xbe3195a2	-0.17342237
225	0x3c3a4919	0.011369967
226	0xbe49fd03	-0.19725423
227	0xbdfec02f	-0.12439
228	0xbdccfc37	-0.10009044
229	0x3e961f79	0.29320887
230	0xbe4013ac	-0.18757504
231	0xbdbc327b	-0.09189316
232	0x3d85f942	0.06541683
233	0x3e3bc1b0	0.18335605
234	0xbe1ef09e	-0.15521476
235	0xbd8a131e	-0.067419276
236	0x3d8785f6	0.06617348
237	0x3d9d07e1	0.076675184
238	0x3d2b312f	0.041794952
239	0x3d251d1c	0.040310964
240	0x3e2f3619	0.1711048
241	0xbddd4416	-0.10804002
242	0xbde2186c	-0.11039814
243	0xbd3e39f1	-0.046441976
244	0xbcf21332	-0.029550169
245	0x3db7867d	0.089611985
246	0x3e06fca5	0.13182314
247	0xbd94a83a	-0.07258649
248	0xbde3eb2c	-0.1112884
249	0xbdfa4d36	-0.12221758
250	0xbe727b54	-0.23679858
251	0xbcebf4d7	-0.028803272
252	0x3dbf14e0	0.093301535
253	0x3cfe8e12	0.031073604
254	0x3dc75cd4	0.097345024
255	0x3dc4c359	0.09607572

lstm.bias_ih_l1 f4 [256]
0	0xbe75aa15	-0.23990662
1	0xbe586f8f	-0.21136306
2	0xbe03ef05	-0.12884147
3	0xbe87262c	-0.2639631
4	0xbefbdd94	-0.49192488
5	0xbebe0476	-0.37112778
6	0xbd925d09	-0.07146651
7	0xbd849a52	-0.06474747
8	0xbe95cf2f	-0.2925963
9	0xbeda6aab	-0.42659506
10	0xbeaa5532	-0.33268124
11	0xbd28e623	-0.0412351
12	0xbe47e2ec	-0.19520158
13	0xbeb67189	-0.35633495
14	0xbe25e3ce	-0.16200182
15	0x3cec4ded	0.028845752
16	0xbeb0de56	-0.3454463
17	0xbe7d3af9	-0.24729528
18	0xbe49a838	-0.19693077
19	0xbef47949	-0.47748783
20	0xbe8a4245	-0.27003685
21	0xbd9b762a	-0.075908974
22	0xbe6c6050	-0.23083615
23	0xbe7505f6	-0.23928055
24	0xbeaf840c	-0.3428043
25	0xbe0a8b82	-0.1352978
26	0xbe3e2724	-0.18569618
27	0xbf046b72	-0.5172645
28	0xbeab3aae	-0.33443207
29	0xbda04f15	-0.07827584
30	0xbed54ad3	-0.4165865
31	0xbea7e202	-0.32789618
32	0xbe98a3de	-0.2981252
33	0xbeb48618	-0.35258555
34	0xbe917594	-0.28410017
35	0xbea5ddc9	-0.3239577
36	0xbe90ce8e	-0.2828259
37	0xbe8b9974	-0.27265513
38	0xbda4a836	-0.08039896
39	0xbeef8ae6	-0.4678566
40	0xbe723f51	-0.23656966
41	0xbe0e059a	-0.13869324
42	0xbe9967dd	-0.29962054
43	0xbeadcfaa	-0.33947498
44	0xbe842e58	-0.25816607
45	0xbed20ebe	-0.41026872
46	0xbe369738	-0.17831123
47	0xbe9ece7b	-0.31016907
48	0xbe36475a	-0.17800656
49	0xbd7246b9	-0.059149478
50	0xbeb9322f	-0.361711
51	0xbecfd163	-0.40589437
52	0xbdf6bf13	-0.12048163
53	0xbe89372e	-0.2679991
54	0xbed50053	-0.4160181
55	0xbec6f566	-0.388591
56	0xbe3bdfc1	-0.18347074
57	0xbe78bb57	-0.24290214
58	0xbdad811c	-0.08471891
59	0xbee022f4	-0.43776667
60	0xbee723b0	-0.45144415
61	0xbec0c4ec	-0.3765024
62	0xbe4a72dc	-0.19770378
63	0xbee3831f	-0.44435975
64	0xbea45b42	-0.32100874
65	0xbe77a559	-0.24184169
66	0x3e62906e	0.22125408
67	0xbe9daed4	-0.30797446
68	0xbead3c2e	-0.33834976
69	0xbde1cf8a	-0.11025913
70	0xbe09f716	-0.13473162
71	0xbe003843	-0.12521462
72	0xbe358010	-0.17724633
73	0xbe80c270	-0.25148344
74	0xbe530c18	-0.20610082
75	0x3d0cdf8f	0.03439289
76	0xbe76f5b6	-0.24117169
77	0xbdc57277	-0.09640973
78	0xbeab7e89	-0.33494976
79	0x3e9794a0	0.2960558
80	0xbda2a0a1	-0.07940794
81	0x3d1dfe61	0.038572673
82	0x3de86d51	0.113489754
83	0xbe498d6e	-0.19682857
84	0xbdb37019	-0.08761615
85	0x3dcc1bf7	0.09966271
86	0xbccb0ec7	-0.02478732
87	0x3df27e85	0.11840538
88	0xbe581929	-0.21103348
89	0xbe0d6e58	-0.13811624
90	0xbdd096b2	-0.10184993
91	0xbddbc7c1	-0.107314594
92	0xbe3e2cda	-0.18571797
93	0x3db522d6	0.08844535
94	0xbe996313	-0.299584
95	0xbd250e75	-0.04029699
96	0xbd92f161	-0.071749456
97	0xbe5db6e4	-0.21651798
98	0xbe696fbc	-0.2279653
99	0xbdc0b638	-0.094097555
100	0xbe86ef38	-0.26354384
101	0xbeb04efe	-0.34435266
102	0x3e108e7b	0.14116852
103	0xbebe754d	-0.37198868
104	0xbecea509	-0.40360287
105	0xbecd3a91	-0.40083745
106	0x3d1270e0	0.035752177
107	0xbe2d4d79	-0.16924085
108	0x3d12c039	0.03582785
109	0xbe7301cc	-0.23731154
110	0xbe95f6a9	-0.2928975
111	0xbe5622c4	-0.209117
112	0xbd8377d7	-0.06419342
113	0x3dd8c056	0.1058356
114	0x3e05d02b	0.13067691
115	0xbecf674c	-0.40508497
116	0xbd1d62de	-0.038424365
117	0xbdeaa3f5	-0.114570536
118	0xbdd7b999	-0.10533447
119	0xbd698301	-0.0570097
120	0xbe1d7799	-0.15377654
121	0xbe29d51b	-0.165852
122	0xbea6b846	-0.32562464
123	0xbe88ef87	-0.26745245
124	0xbe4de8ea	-0.20108381
125	0xbe9f7072	-0.31140476
126	0xbebb0193	-0.3652464
127	0xbe4eb156	-0.20184836
128	0xbd8f775d	-0.070051886
129	0x3e42f324	0.19038063
130	0x3d57eff4	0.05271907
131	0x3d0a7a39	0.033807967
132	0xbde4b6ec	-0.11167702
133	0xbdc8ad47	-0.09798675
134	0x3d28d9b5	0.041223247
135	0xbe024541	-0.12721731
136	0x3dee40ee	0.11633478
137	0x3dd8a505	0.1057835
138	0x3d80338e	0.06259833
139	0x3cfc5640	0.030802846
140	0xbdc1e045	-0.09466604
141	0xbe0437fb	-0.1291198
142	0x3c1d2a09	0.0095925415
143	0xbdd3b56c	-0.10337338
144	0xbded366e	-0.11582647
145	0xbdc5cf2d	-0.09658656
146	0xbca7d1e8	-0.020485833
147	0x3d09a72c	0.033606693
148	0x3d59cc03	0.053173076
149	0xbd688b1b	-0.056773286
150	0x3bbf150e	0.0058313673
151	0x3dde489e	0.108536944
152	0xbc79725e	-0.015225021
153	0x3cc7807e	0.024353262
154	0x3cb528c6	0.022114169
155	0xbd841e13	-0.06451049
156	0xbb97a6f3	-0.004628056
157	0x3cef94c8	0.02924575
158	0xbd3632e5	-0.04448213
159	0xbdaaa779	-0.08332724
160	0x3db3831d	0.08765242
161	0x3e376b53	0.17912035
162	0xbbe7e6aa	-0.007077058
163	0x3db5140a	0.08841713
164	0xbd89122c	-0.06692919
165	0x3c74064d	0.01489408
166	0xbbcaa308	-0.0061839856
167	0xbcf7f80e	-0.030269649
168	0x3cc1e46f	0.023668496
169	0xbd706314	-0.05868824
170	0x3d39bed4	0.045348004
171	0x3dcf9967	0.10136681
172	0xbbed8ee1	-0.0072496985
173	0xbd823ccd	-0.06359253
174	0xbc2a6256	-0.010399422
175	0xbddcf5f7	-0.107891016
176	0x3ccd03e5	0.025026271
177	0x3d9223e2	0.0713575
178	0x3db85973	0.09001436
179	0xbc5e010e	-0.013550056
180	0xbdfe69ea	-0.12422545
181	0xbde3bde3	-0.111202024
182	0xbdbd8f43	-0.09255841
183	0x3c546566	0.012963628
184	0x3d991e36	0.074764654
185	0x3d905539	0.07047505
186	0x3db44e7f	0.088040344
187	0xbc9bdd89	-0.019026535
188	0x3de7a178	0.113100946
189	0x3d7b07a3	0.06128658
190	0xbdbe3954	-0.09288278
191	0xbcd6030d	-0.026124502
192	0xbebb124a	-0.3653739
193	0xbeb10c14	-0.34579527
194	0xbdb44451	-0.08802093
195	0xbe91de38	-0.28489852
196	0xbee41481	-0.44546893
197	0xbea336fa	-0.3187788
198	0xbe069c7c	-0.13145632
199	0xbda46b90	-0.080283284
200	0xbed225ef	-0.41044566
201	0xbef50a31	-0.47859338
202	0xbefebf98	-0.4975555
203	0x3d1c229f	0.038118955
204	0xbe8e615d	-0.27808657
205	0xbec1fdbb	-0.37888893
206	0xbeabb352	-0.33535248
207	0x3e1012fe	0.14069745
208	0xbe509bff	-0.20372008
209	0xbe8bc6e5	-0.27300182
210	0xbe54df5c	-0.2078833
211	0xbe76e340	-0.24110126
212	0xbe8352fe	-0.25649256
213	0xbe1ee7a1	-0.15518047
214	0xbe09edcd	-0.1346962
215	0xbe1429c2	-0.14469054
216	0xbeb9e68b	-0.36308703
217	0xbd318591	-0.04334027
218	0xbe863349	-0.26211002
219	0xbeef22fa	-0.46706372
220	0xbeed31fb	-0.46327195
221	0xbe0ffc37	-0.14061056
222	0xbe832859	-0.2561672
223	0xbe895748	-0.26824403
224	0xbe24c992	-0.16092518
225	0xbe5ceb95	-0.21574242
226	0xbe8fdb36	-0.28096932
227	0xbdae0942	-0.084978595
228	0xbe958c67	-0.2920868
229	0xbe7d823f	-0.24756716
230	0xbc9bc117	-0.01901297
231	0xbea7643c	-0.3269366
232	0xbead5b72	-0.3385883
233	0xbe568a16	-0.20951113
234	0xbe716bd7	-0.23576294
235	0xbe281d8d	-0.16417523
236	0xbeb92039	-0.36157396
237	0xbecd0a5a	-0.4004696
238	0xbeb791d9	-0.3585346
239	0xbec5f4d0	-0.3866334
240	0xbe83151c	-0.25602043
241	0xbe40ff6c	-0.18847436
242	0xbeb56623	-0.35429487
243	0xbeb4a022	-0.35278422
244	0xbe2c437d	-0.1682262
245	0xbe92aaa1	-0.28645805
246	0xbe9913b0	-0.29897833
247	0xbeb683ca	-0.35647422
248	0xbe9b4ffa	-0.30334455
249	0xbe9f1aa8	-0.31075025
250	0xbe50d3b4	-0.20393258
251	0xbeca8947	-0.3955786
252	0xbee646ff	-0.4497604
253	0xbee7fc41	-0.45309642
254	0xbe335887	-0.17514239
255	0xbed44465	-0.4145843
