Competition/TrainAI/model/c40/model_weights_2.pth (torch, 441743 bytes, 18 tensors)

lstm.weight_ih_l0 f4 [256, 34]
000000 65 d1 d2 bd 33 68 bf bd dd 99 55 3e 28 35 1d 3d
       -0.10293845 -0.09346046 0.20859475 0.038380772
000010 c3 43 bd bd 2a d7 38 be ef 2f 59 bd a5 d7 59 bd
       -0.0924144 -0.18050829 -0.05302423 -0.05318417
000020 35 bc 3f be 32 cb 02 be 54 c8 73 bd 84 2d ea 3d
       -0.18724139 -0.12772825 -0.05951722 0.11434463
000030 39 7d 9a be b2 73 95 3d 4f 2f 4f 3e d8 29 41 3e
       -0.30173662 0.07297458 0.2023289 0.18863618
000040 ef d1 11 be be 43 22 3e f8 d1 cb bc 36 24 d4 3c
       -0.1424024 0.15846154 -0.024880394 0.025896173
000050 dc 18 d6 3d 7d 78 f4 bb 08 05 1f 3d df 5f 09 3b
       0.1045396 -0.0074606524 0.038823158 0.0020961685
000060 a5 48 15 bd 0e ae 24 3d fe 3a b0 3d bb 01 59 3e
       -0.036446232 0.040205054 0.08605002 0.21192066
000070 59 66 18 bd 0f 4f 5a 3e 85 8d f2 bd 78 a5 9f bc
       -0.03720698 0.21319221 -0.11843399 -0.019488081
000080 56 46 82 bd f0 c9 2d bd f6 65 d9 3d 73 73 3a 3c
       -0.06361072 -0.04242891 0.10615151 0.011380064
000090 aa 8a 96 bd 54 91 91 3d 66 2a 33 3e bb 8c 20 3d
       -0.07350667 0.07107797 0.17496642 0.03919671
0000a0 ed 3a 86 3d 55 5b 73 3c 0c da 0b 3e 7d c0 b3 3d
       0.06554208 0.014853318 0.13657397 0.087769486
0000b0 5e 0d 2c bd 13 43 06 3e 99 6e 20 3e 21 51 28 3e
       -0.042004935 0.13111524 0.1566719 0.16437198
0000c0 8d 4b b2 3d 0a 18 ad bc 04 03 28 3e e7 74 c3 bc
       0.087058164 -0.021129627 0.164074 -0.023859454
0000d0 91 ba 79 3d 77 87 53 3e 65 4c 22 3d 44 d8 bf 3d
       0.06096894 0.20657144 0.039623637 0.09367421
0000e0 f2 4c 1e 3c 99 2d 75 3c 5e 4b b2 3d d6 8a 2e 3e
       0.0096619 0.014964485 0.087057814 0.17045149
0000f0 33 1f bc 3d 9d 98 f1 bd 47 ff f8 bc 5d 19 59 3d
       0.09185638 -0.11796687 -0.030395163 0.053002704
000100 cd 0b c9 3d cd db bb bd 84 24 2f bc b0 4d 47 3c
       0.09816704 -0.09172783 -0.010689858 0.012164518
000110 4c e0 8e bd 8d 8b 14 3e e6 10 82 3c 12 28 17 3d
       -0.06976375 0.1450636 0.015877198 0.03690345
000120 f6 f4 ce 3c 93 8d 34 bb 64 c0 1a 3e 2c fc 38 3e
       0.02526329 -0.0027550205 0.15112454 0.18064946
000130 76 da 76 3d 2c c7 5d 3c 77 0f ea 3d 11 13 05 3d
       0.060266934 0.013536256 0.11428731 0.032488886
000140 ec 8f 6b 3d d3 30 c7 3d 14 3d 88 bd 62 55 97 bc
       0.0575103 0.09726109 -0.06652275 -0.01847333
000150 bc 9a b4 3c 6d 91 ac 3d ea ea 3b 3d a6 8b b5 bd
       0.02204644 0.08426175 0.04587833 -0.088645265
000160 70 c7 49 bd 3d d9 62 bd c4 73 a2 3d 51 d6 85 bd
       -0.049262464 -0.055382956 0.07932237 -0.06535018
000170 e1 25 e5 3c f4 28 51 3d 22 30 b2 3d f7 2f 0c 3d
       0.027972164 0.051064447 0.08700587 0.03422543
000180 0c 90 02 3e 35 99 c9 bc a1 8c 9d bc d0 6f 93 b8
       0.12750262 -0.024609188 -0.019232096 -7.030333e-05
000190 fb 6d bf 3b 7a 51 12 3e de a6 4d 3d ee 7a 1d 3d
       0.005841968 0.14288893 0.050207965 0.038447313
0001a0 7a c9 96 3c ef 9d ec bd ad a4 3c bc a2 1f 33 be
       0.018406618 -0.11553561 -0.011513871 -0.17492536
0001b0 eb 91 dc bd 86 24 ed 3c 11 df 1c be bd 89 09 3e
       -0.10770019 0.02894808 -0.15319468 0.13431449
0001c0 c7 cf 20 3e 5a 01 14 3e 98 be 58 3e 3f b3 48 3d
       0.15704261 0.1445364 0.21166456 0.048999067
0001d0 51 10 47 bd a0 4d 02 3d 23 74 8f 3b 57 c1 a7 3d
       -0.048599545 0.03181231 0.0043778582 0.081911735
0001e0 26 34 80 3d 6d b6 63 3e d9 db ac bd d3 99 57 bb
       0.062599465 0.22237559 -0.0844037 -0.0032898083
0001f0 95 07 dd bc 8b d8 d7 3d f6 14 35 3e 28 51 28 3d
       -0.026981154 0.10539349 0.17683777 0.04109302
000200 0f 90 ba bc 55 ed 3f 3d 73 f9 dc 3d 50 3e bf bd
       -0.02277377 0.046857197 0.10789766 -0.09338057
000210 8c c4 a9 3c 52 77 af 3d d0 d0 10 3d 8e b2 30 3d
       0.020723604 0.085676804 0.03535539 0.043139033
000220 36 8d bc bd 56 36 ab 3d e0 93 17 3d c5 82 a5 bc
       -0.09206621 0.08359973 0.03700626 -0.020203957
000230 e1 28 5a 3e f5 75 3f 3e 79 bf 1c 3d 44 a9 31 3e
       0.21304657 0.18697341 0.03826854 0.17349726
000240 28 1c c6 3d 6d 77 d9 bd 07 d8 6a bd 76 75 a4 bd
       0.09673339 -0.10618482 -0.057334926 -0.080302164
000250 c2 ce 44 3d dd c6 56 bb 5a 41 2c bd a4 38 e2 bd
       0.048048742 -0.003277234 -0.04205451 -0.110459596
000260 ac ff 83 bd 3d d6 83 bd 46 a2 f4 3c 06 c6 11 bc
       -0.0644525 -0.06437347 0.029862534 -0.00889731
000270 59 48 9e 3d 04 fd 95 bd 20 85 ac 3c 6e 0e 03 be
       0.07728643 -0.073236495 0.021059573 -0.12798473
000280 43 c5 8a ba 28 83 ad bd e1 bc 97 bd e0 f5 d6 bd
       -0.0010587353 -0.08472282 -0.07409073 -0.10496116
000290 9d ff a4 3e 6a c0 0f be 91 48 5c 3e 30 ad d7 3d
       0.32226267 -0.14038244 0.21512057 0.1053108
0002a0 59 40 6e 3d fa 9b 42 3d 85 a8 8c 3d 7f 27 a7 3c
       0.058166835 0.047512032 0.0686808 0.020404575
0002b0 68 ab a1 bd bf fb 27 3b 36 a3 12 be ad f2 58 bc
       -0.07894021 0.002563223 -0.14320073 -0.013241452
0002c0 69 74 f0 bd 04 34 a9 3b 03 49 2c be f3 8d 8a bd
       -0.117409535 0.0051636714 -0.16824727 -0.06765356
0002d0 a5 d3 cf bd 9d d1 9f bd 23 8a 18 3d 8d c9 b7 bd
       -0.1014779 -0.078036524 0.037241112 -0.0897399
0002e0 46 41 82 3d a5 0f b3 3d f0 b8 75 bd c8 d2 f0 3d
       0.06360106 0.08743218 -0.059990823 0.11758953
0002f0 10 12 b7 bc 9f 42 be bc 59 b9 09 be c1 9a c1 3d
       -0.02234748 -0.023225127 -0.13449611 0.09453345
000300 b0 f7 1e 3d 85 f4 84 3d 45 38 03 3e d3 32 92 3d
       0.038810432 0.06491951 0.12814434 0.071386
000310 25 2a 6a bb 8c 96 a0 3d 3d 6e a9 bd dd 51 b0 bd
       -0.0035730687 0.078412145 -0.082729794 -0.08609364
000320 a7 b0 f0 bd c7 6a cf bd 4c 78 3d 3e f3 09 69 bb
       -0.11752444 -0.10127788 0.18502921 -0.0035558909
000330 8c b0 7e 3d 47 8d cb bc 7f a6 ba 3b 2e 6f f7 3c
       0.062180087 -0.02484764 0.0056961174 0.030204382
000340 ff ce cb bc 63 ac 90 3c 06 fd 50 3c 69 60 80 bd
       -0.024878977 0.017660325 0.012755638 -0.06268389
000350 67 49 fc bc de 07 a7 bd 65 0a c9 bc da 4a 00 be
       -0.03079672 -0.081557974 -0.02454109 -0.12528554
000360 f6 8a 50 3c a9 cf b5 bd 85 af f7 bd 82 ff 25 be
       0.012728443 -0.08877499 -0.120940246 -0.1621075
000370 c3 18 4d 3e e2 a1 92 bd 90 42 b0 bc c2 8b 82 bd
       0.20028977 -0.07159783 -0.021516114 -0.06374313
000380 44 3a 30 3c 2d 33 61 bd c6 7e 97 bd ad 97 cb bd
       0.010756079 -0.054980446 -0.07397227 -0.09941039
000390 d7 0c 0f be 21 36 8d bd 74 c7 3a be 68 b8 bc 38
       -0.13969742 -0.0689509 -0.18240148 8.998887e-05
0003a0 72 38 8b 3c 6e ca 09 bd b1 18 7c bd cd 5a b9 bc
       0.016994689 -0.033640318 -0.061546985 -0.022626305
0003b0 6a d3 c1 3a 5c 52 7f bd 5d 61 d1 3d a8 fb 67 bc
       0.0014787738 -0.062334403 0.10223649 -0.014159121
0003c0 2a b4 ca 3d 1d e8 63 3d 04 37 8d 3e c7 a4 b6 3b
       0.09897645 0.055641282 0.27581036 0.005573842
0003d0 33 33 8d 3d c5 f5 dc 3d dd 06 55 3d 55 88 96 bd
       0.06894531 0.10789064 0.0520085 -0.07350222
0003e0 fb 64 30 3e 15 5d 02 3e d2 82 16 3e f0 0f 31 3e
       0.17226021 0.1273082 0.14698341 0.17291236
0003f0 7e 6c 36 3d 90 76 a1 3d 4b 9f 8e 3e 7a 00 fb bd
       0.04453706 0.07883942 0.27855906 -0.1225595

lstm.weight_hh_l0 f4 [256, 64]
000000 cd ec 20 bd c8 91 06 3e bb d3 5a bd cf 62 ed 3c
       -0.03928833 0.13141549 -0.05342458 0.02897778
000010 02 b7 ae bc f4 75 bd bd 0a 82 74 bd b3 00 04 3d
       -0.0213275 -0.092510134 -0.059694327 0.03222723
000020 80 c6 92 3c dd a4 ea 3d 7d ff ce bd 71 25 30 3e
       0.017916918 0.114572264 -0.10107324 0.17201783
000030 26 ee 19 3d d1 df 38 be 99 ba d5 3c 66 7f d8 3c
       0.03758063 -0.18054129 0.026089953 0.026427936
000040 4e 9a 07 3b 0b 60 07 3d 07 d6 9b 3c 79 8e 16 3e
       0.0020691338 0.033050578 0.019022955 0.14702787
000050 e3 59 74 3d cb b4 ee 3c 5b 29 9f 3d 79 7f 3c 3e
       0.059656035 0.029138943 0.0777156 0.18408002
000060 59 c7 fe bd 33 af 70 bd 96 7b 86 3b 22 af c9 bd
       -0.12440366 -0.058760833 0.004104088 -0.09847857
000070 d0 16 d5 bc 50 1b e0 bb 86 17 03 bd 14 23 45 bd
       -0.026011854 -0.0068391934 -0.032004856 -0.048129156
000080 11 7c 5f 3d 4c 2c 28 3d 44 4a 49 bb ca 29 f3 3d
       0.05456168 0.04105787 -0.0030714432 0.11873205
000090 2f 5c 02 3d fa ed 85 bd c5 a4 46 3d 9c a7 b9 3d
       0.031826194 -0.06539531 0.04849698 0.09065172
0000a0 4c 3d 7a bd 43 5f 25 be 58 67 0e be 4a f6 cc 3d
       -0.061093614 -0.1614962 -0.1390661 0.100079134
0000b0 33 1c dc 3d d7 8f 24 be 12 f3 03 be 35 ac 11 be
       0.10747566 -0.16070496 -0.12885693 -0.14225848
0000c0 22 1a 3c be db bb cc bd 92 73 3b 3c 50 6f 04 be
       -0.18369344 -0.09996768 0.011441128 -0.12933087
0000d0 3d 00 e6 bc 23 0c ac 3c 32 0f 45 bd 98 57 be 3d
       -0.028076285 0.021001881 -0.048110195 0.09294051
0000e0 86 3c 2c be 5a a3 76 be 53 94 79 bc 10 70 f1 bd
       -0.16819963 -0.24085751 -0.015233117 -0.11788952
0000f0 c9 f4 0e 3d 40 aa 7c bd 04 50 d3 3c 43 50 34 3d
       0.034901414 -0.0616858 0.02579499 0.044021856
000100 4f 95 e7 3d ff f1 d5 bc e9 94 42 bd 0e 37 ab bd
       0.11307775 -0.02611637 -0.047505293 -0.0836011
000110 93 76 83 bd 12 8f 29 3e 9d 93 8b bd 24 f9 56 bd
       -0.064191006 0.16558483 -0.068152644 -0.052483693
000120 1b 55 63 3d 3c 02 a9 3d 7f de e6 3b 96 96 65 bc
       0.055501085 0.08252379 0.0070455666 -0.014012953
000130 de 22 b5 3d 9d 0d b3 bd 46 c9 d1 bc ae 6d cf 3d
       0.08844541 -0.08742831 -0.02560867 0.101283416
000140 70 30 41 3d 20 4c 08 bd 5e 90 d8 3d 88 4a 0f be
       0.047165334 -0.033275723 0.10574411 -0.13993275
000150 14 a6 dc bd 89 00 67 bd 5f 1e 07 3e a1 9b 00 be
       -0.107738644 -0.056396995 0.1319518 -0.12559368
000160 af df 22 be 77 ae f9 3b 7a 36 ae bc c8 da 19 3e
       -0.15905641 0.007619675 -0.02126621 0.15024865
000170 6f 4b 87 3d 48 06 c6 3b e1 5d 08 3c ae cd 39 be
       0.06606185 0.0060432293 0.008323164 -0.18144867
000180 a9 6f 43 bd 1b ed 54 3d 0b e7 ee bc 98 65 46 bd
       -0.04771391 0.051983934 -0.029162904 -0.04843673
000190 02 1a 0b 3e 29 38 e5 bd 9e ce 86 3c 09 a0 e8 bc
       0.1358414 -0.11192352 0.016455945 -0.028396623
0001a0 e8 70 3a 3d 4c 19 23 3d 7b 39 5b 3d bd 15 33 bd
       0.045517832 0.039819047 0.053521615 -0.043721903
0001b0 4b 0b 0d 3d 14 88 29 bc f7 44 20 3d e2 b1 b8 bc
       0.034434598 -0.010347385 0.03912827 -0.022545759
0001c0 66 0e 9d bc 2a c1 37 3c bf 59 54 bc fa 67 49 3b
       -0.019171905 0.0112154875 -0.01296085 0.003073214
0001d0 c1 25 9e bc 6a 22 1a bd 63 65 b4 3d 10 35 c0 3c
       -0.019305112 -0.037630476 0.088084005 0.023462802
0001e0 7d ed 7f 3d a8 88 86 bd 5c 15 b1 3d 9b 65 9d 3c
       0.062482346 -0.06569034 0.08646652 0.019213488
0001f0 44 85 91 bd 99 8e 87 bd c0 70 69 3d da 6f 24 be
       -0.071054965 -0.06618995 0.056992292 -0.16058293
000200 3a 50 12 be b4 72 a8 3c 4a ac a8 bc 3a 0b 1d bc
       -0.14288417 0.020562507 -0.020589966 -0.009585196
000210 f6 2a aa bd a7 d3 7f 3d b7 1e ee bc f7 45 fc bd
       -0.083089754 0.062457707 -0.02906738 -0.12318032
000220 a1 ba 8d 3e 27 0b 3c 3e 8a ab 5a 3b b1 3e 06 3d
       0.2768145 0.1836363 0.0033366405 0.03277463
000230 a3 bc c8 bc d8 0b ef 3d 6f 12 14 be 32 ef b3 3d
       -0.024504011 0.11672181 -0.14460157 0.08785857
000240 29 0c bd 3d 95 cb 46 3d 09 cc bf 3c 6a f5 d3 bc
       0.09230835 0.048533995 0.023412721 -0.025873858
000250 06 c5 82 bc d1 1d 7d bd 74 d5 21 be 6b e9 15 3d
       -0.015963089 -0.061796013 -0.15804082 0.036599558
000260 52 a7 1e be 8a e7 e5 3d 4f f1 8f bd a3 3b d6 bd
       -0.15493515 0.11225803 -0.07028448 -0.104605936
000270 35 ea 33 3e 5a 91 88 bd ea 7e 52 3d 64 89 a6 bd
       0.17569812 -0.066683486 0.051390566 -0.08131674
000280 a4 ef 26 bc af f9 42 3d 0c 73 38 3e b7 e6 29 3e
       -0.010188971 0.047601398 0.18012637 0.16591917
000290 13 e4 2a be e1 8e 53 3d fd 13 a7 3e d6 71 3a bd
       -0.16688566 0.05164993 0.32632437 -0.04551872
0002a0 04 1c 79 bd 3d 28 4f 3d 02 bd 13 3d d6 9e 5a bd
       -0.060817733 0.050575484 0.036068924 -0.053374134
0002b0 2f 5c 20 bd 2e e8 84 bd 25 aa fb bb 57 3f ce bd
       -0.039150413 -0.06489597 -0.007680195 -0.10070675
0002c0 d2 d6 36 3d 78 7a 15 3b fb 1d 88 3d 1d c1 76 bd
       0.044638462 0.0022808593 0.06646343 -0.06024276
0002d0 71 79 e4 3d 6f 26 72 3d ce 40 1e bd 89 91 c5 3d
       0.111559756 0.059118684 -0.03863602 0.09646899
0002e0 cc 60 7b bd 90 ce 9a 3d 03 81 e4 bc b0 74 00 3d
       -0.06137161 0.0755893 -0.027893549 0.031361282
0002f0 3b 82 b1 bc 06 37 da bc 58 90 51 3c 44 7f 3d bd
       -0.021668544 -0.026637565 0.012790762 -0.046263948
000300 15 f6 ab 3d a2 24 7b bd a6 7c e1 ba 7b 60 ad bd
       0.08396546 -0.061314233 -0.0017203286 -0.08465668
000310 fa 24 bd bd 52 56 48 3d 97 04 6f bd 64 ed 12 bc
       -0.09235568 0.048910446 -0.058353987 -0.008967731
000320 e3 41 04 3d 46 9d 3b be 8d 56 fa 3b 2c df d7 bc
       0.032289397 -0.18321714 0.007639712 -0.026351534
000330 e8 53 2f 3e 01 a6 c2 bd f1 69 68 3d fe 17 42 3d
       0.17121851 -0.09504319 0.05674166 0.047386162
000340 43 25 cf 3c d2 ee a8 bd 0f c1 9c 3d 99 36 c5 3c
       0.025286322 -0.08248676 0.076540105 0.024073886
000350 ae 88 42 be 52 f8 61 bd c5 44 2f bd e9 57 90 3c
       -0.18997452 -0.055168457 -0.042790193 0.017620044
000360 c9 c1 8b 3d ca 33 09 3e 42 73 a6 3a be eb 23 3c
       0.06824071 0.13398662 0.0012699144 0.010004936
000370 60 20 94 3c 31 6d 76 bd c8 d4 0e bd 4f 0b 36 be
       0.018081844 -0.060162727 -0.034870893 -0.17777751
000380 35 62 14 bc dd 48 cc 3d 9d 05 06 3c 4a 4e 50 bd
       -0.0090566175 0.09974835 0.008180049 -0.050855912
000390 88 8e db 3c 03 69 1a be a6 15 1b be dc 2b b4 3d
       0.026801363 -0.15079121 -0.15144977 0.08797428
0003a0 ad fd 06 be e4 48 1a bd 5d 23 5c 3d ad 0b 3b bd
       -0.13182707 -0.03766717 0.053744663 -0.04566543
0003b0 32 0f eb bc 11 01 be 3d 0b 9b e0 3c 71 03 2c 3e
       -0.02869377 0.09277547 0.02741768 0.16798188
0003c0 f3 7a a8 3d 5b 31 54 bc c8 14 28 bd 30 f6 0b be
       0.08226576 -0.01295122 -0.041035444 -0.13668132
0003d0 0e 3e d7 bc 29 05 4b bd 27 f5 29 bd 02 9c 21 bd
       -0.026274707 -0.049565468 -0.04149356 -0.03945542
0003e0 f5 72 04 3e 64 9b 01 be 13 d9 cc 3d 45 88 c2 bd
       0.12934478 -0.12656933 0.10002341 -0.094986476
0003f0 62 66 d5 3c 60 1f e8 bd ed 56 b4 bc 1f 54 d8 bd
       0.026049796 -0.11334109 -0.022014106 -0.1056292

lstm.bias_ih_l0 f4 [256]
000000 8a 90 e5 3c 7a f7 a7 3d 75 e7 30 3d f6 17 26 bc
       0.028023023 0.08201499 0.043189485 -0.010137549
000010 a7 72 0d 3d 69 96 cc 3d d8 d6 c1 bd ff 9e 8a 3c
       0.03453317 0.09989626 -0.09464806 0.016921518
000020 2e 47 c9 bd c3 9f 6c bd 88 dc 14 be 88 91 6a 3b
       -0.098280296 -0.05776955 -0.14537251 0.003579231
000030 7e a1 c1 3d 5e e8 b9 3d d9 a4 a9 bd dc b8 b5 bd
       0.0945463 0.09077524 -0.08283395 -0.0887315
000040 03 d1 60 bd fb 50 dd 3d 30 86 bd bd f1 bd 0e be
       -0.05488683 0.108064614 -0.0925411 -0.13939644
000050 11 1e 4a 3b 22 b9 27 3d 9a 74 85 3d 44 aa 22 3e
       0.0030840675 0.04094804 0.065163806 0.15885264
000060 45 f7 bc bd 0b 6a 84 bd e1 1f 76 bd ef 08 0d 3d
       -0.092268504 -0.064655386 -0.060088996 0.034432348
000070 62 ec 25 be 2f 8d b6 bd 24 69 e1 3b 11 2c ed bd
       -0.16203454 -0.089136474 0.006878989 -0.115806706
000080 34 69 f4 3d 82 e4 3a bd 7b 6c b8 bd 4f 0d 8d bb
       0.119341284 -0.04562808 -0.09005066 -0.004304565
000090 0a 43 e9 3c fa b2 3a be 41 f8 12 be b8 6c cc 3d
       0.02847435 -0.18232337 -0.14352514 0.09981674
0000a0 78 da 26 3d 79 79 7b 3d 44 a0 97 bd cf 72 e9 bd
       0.04073569 0.061395142 -0.07403615 -0.11398851
0000b0 11 4b dd bd c0 74 fc bd 9d 89 81 3d 2f 0c a0 bd
       -0.108053334 -0.12326956 0.06325076 -0.07814824
0000c0 ab 3c 10 be f2 29 8e 3c ce 54 aa bd 42 51 b9 bd
       -0.14085643 0.017353985 -0.083169565 -0.09048702
0000d0 54 cd ba bd d0 87 bd bd dd 9a 66 be a0 23 99 3d
       -0.091211945 -0.0925442 -0.22520013 0.07477498
0000e0 a2 5f 33 bd d3 31 29 bd 1e 5b 59 bd 90 9e 58 3d
       -0.043792374 -0.04130728 -0.05306541 0.052885592
0000f0 01 75 d5 3b fc bc dc bd f6 12 89 3c 0c e7 80 bd
       0.006514192 -0.107782334 0.016732674 -0.06294069
000100 2f 10 43 bd 31 b6 d9 3d 18 e7 3d be b5 77 89 3d
       -0.047622856 0.106304534 -0.18545187 0.067122854
000110 52 52 2f bd f1 13 e5 bd a5 54 06 be 78 70 44 bd
       -0.042803116 -0.11185444 -0.13118227 -0.04795882
000120 2c e1 e5 bd 7f ff 4c bc 53 ca 32 be 13 40 ae 3c
       -0.11224589 -0.012512087 -0.17459993 0.021270787
000130 9d 4d fa bc 6e 75 31 bd ba 30 05 bd 06 98 2e 3d
       -0.030554587 -0.04332488 -0.032517172 0.04262545
000140 9b 8a 86 bd 6d 3d b9 3c 36 2a 38 3d c1 be c5 3b
       -0.06569406 0.022612298 0.04496213 0.0060347025
000150 df bd c4 bd bd 0e 2c bc f5 7c e7 3d 61 0d 67 bd
       -0.096065275 -0.010501561 0.113031305 -0.056409243
000160 59 ce 2d 3e d6 50 22 3d 6b 78 18 3d 2b e9 c3 3d
       0.16973247 0.039627872 0.037224215 0.09565958
000170 39 a6 d6 bd bd 2e e1 bc cc 67 32 be 63 6f 15 bd
       -0.10480923 -0.027488107 -0.17422408 -0.03648318
000180 66 96 4c be 6f 21 f2 3d 72 b2 0b be cb 40 c6 bd
       -0.19979247 0.11822783 -0.1364229 -0.09680327
000190 0f cd 7f b9 f8 c4 a0 bd ff 72 da bd 62 07 6b 3c
       -0.00024395085 -0.07850069 -0.10666465 0.014345022
0001a0 61 8f 21 3b 81 fa 57 bd e6 94 ae bd 4c e3 d5 bd
       0.002465211 -0.052729134 -0.08524494 -0.10443744
0001b0 74 f1 12 bd 50 4f 38 be 8c 92 cc bd a7 d5 71 3d
       -0.0358748 -0.17999005 -0.09988889 0.059041645
0001c0 70 a3 94 bd ce 89 dd 3d 82 88 05 3b e5 ba 51 3c
       -0.07257736 0.108173 0.0020375554 0.012800907
0001d0 a7 0b e9 3d 21 c4 b6 3d b8 8c 03 3c 1a f5 2e be
       0.11379176 0.08924127 0.008029155 -0.17085686
0001e0 b2 1b 76 bb fe aa c2 bc b5 8e 3b 3c 93 5f e7 bc
       -0.0037553129 -0.023763176 0.011447598 -0.028243816
0001f0 d2 e4 da 3c 59 f5 7e bd d1 0b 10 be 9c ec 5d be
       0.026720438 -0.0622457 -0.14067008 -0.2167229
000200 2c 80 20 be 78 ee 1a be ef d4 40 bd 52 3d e4 bd
       -0.15673894 -0.15130031 -0.04707807 -0.111445084
000210 37 10 1e 3e 94 2a 0a be e1 9d 91 3d fe ea 04 3d
       0.15435873 -0.13492805 0.07110191 0.03245067
000220 88 62 e6 3c 7b e3 84 bd 08 67 f6 bd 63 4a ba 3c
       0.028123155 -0.06488701 -0.120313704 0.022740548
000230 58 a6 42 be 7a 30 b6 bb 76 84 0f 3d 64 a9 b8 bd
       -0.19008768 -0.005559978 0.035038434 -0.09016684
000240 ed 35 f6 bc 08 c1 89 3d 54 09 fd 3d 7d 23 f9 bd
       -0.03005501 0.06726271 0.12355295 -0.12164972
000250 dc 6f 0d 3e 6a c9 c6 bd f7 14 cd 3d 7a 3f cf bc
       0.13812202 -0.097063854 0.10013764 -0.025298823
000260 a5 89 2a 3e 53 82 19 be b8 7f b7 bd f5 71 91 3d
       0.1665407 -0.14991121 -0.08959907 0.07101814
000270 69 7e d4 3d 7c 69 55 3d 27 85 e7 3d f9 a7 f3 bc
       0.10375673 0.05210255 0.11304694 -0.029743182
000280 39 00 62 bd f7 85 9f bd fa 68 31 bc 1b 21 8d 3c
       -0.055175994 -0.07789224 -0.010828251 0.0172277
000290 bc ae 9b 3d 82 95 ee bc 48 d9 1b 3e 25 95 45 3e
       0.07601687 -0.029124025 0.15219605 0.19295175
0002a0 92 c7 91 bd 8e d9 ad 3c 27 c6 4e 3c 1a 61 9e b9
       -0.07118143 0.021221902 0.012620485 -0.00030208455
0002b0 4c 01 0d be 5b 49 b3 bd 48 f2 1a 3e 67 31 9b bc
       -0.13770026 -0.08754226 0.15131485 -0.018944455
0002c0 bb da 1e 3e bf c2 4a be f8 cc 12 be f7 0f 56 3c
       0.15513127 -0.19800852 -0.14336002 0.01306533
0002d0 a3 3a 8c bd f3 cf 6c 3d d4 e4 13 3e 67 60 07 3e
       -0.068471216 0.057815503 0.1444276 0.13220368
0002e0 38 20 4c 3d 76 50 50 3d 47 dc ba bc bf 60 10 3e
       0.049835414 0.050857984 -0.022810115 0.14099406
0002f0 28 33 c4 3d a6 4c 43 bc c6 cf 26 3d 86 5d 0f 3d
       0.0958007 -0.01192013 0.040725492 0.0350013
000300 5f a1 d5 bd 2c 8a ac bd f7 df 64 bd 50 57 ba 3d
       -0.1043117 -0.08424792 -0.055877652 0.09098685
000310 45 88 28 3c 1a ea 04 3d e8 78 2c 38 d1 de bf bd
       0.010286395 0.03244982 4.11206e-05 -0.09368671
000320 55 89 a4 3b 2f c8 1e bc b0 a6 46 3c 1d 8a 0b 3d
       0.005021254 -0.009691282 0.012124702 0.034067262
000330 ff 61 fe 3c 01 91 d7 bd 3a db ee bc 23 ef 92 3d
       0.031052588 -0.10525704 -0.02915727 0.07174518
000340 0a 61 3f 3b 46 6b c0 bd 3b cd 6f bd 3d a5 b4 bc
       0.0029202127 -0.09395461 -0.058545332 -0.022051448
000350 50 25 41 be 8d 33 21 bc e9 fa 20 be 44 1e 2b 3d
       -0.1886189 -0.009838951 -0.15720715 0.04177691
000360 8f 9d 91 bc 10 fd 67 bd 45 64 11 be c5 da b8 bd
       -0.017775325 -0.056637824 -0.14198406 -0.09026102
000370 e3 b3 82 bd 6d 70 5d 3d 48 67 16 3d dd 9c c4 bd
       -0.06381967 0.054062296 0.03671959 -0.09600232
000380 49 ca ac bd aa 35 b1 bd ab 8e fe bd ee 30 b0 3c
       -0.0843702 -0.08652814 -0.124295555 0.021507706
000390 17 5f 7e 3d 8d 1b a0 3c 15 44 89 bd cc 5a 9f 3d
       0.062102403 0.019544387 -0.06702439 0.0778099
0003a0 f9 f1 b0 3d e9 79 bc bd 1e 0b 83 bd 2b 07 5e be
       0.086399026 -0.0920294 -0.06398605 -0.21682422
0003b0 e7 97 d9 bd b1 27 cd bd 3d e1 40 3d 15 d6 ef 3d
       -0.10624676 -0.10017336 0.047089804 0.11710755
0003c0 c0 e7 c1 bc 62 01 48 bd f6 77 b5 bd a4 b0 ba 3d
       -0.023670077 -0.048829444 -0.08860771 0.09115723
0003d0 c3 f4 14 bd ee 16 81 bc 27 ea 0e be 8d be 88 3c
       -0.036366235 -0.015758004 -0.1395651 0.016692424
0003e0 60 5b 07 be 1e 3f 8e 3d af 82 2b bc 46 a9 3f 3d
       -0.1321845 0.069456324 -0.010468169 0.04679229
0003f0 7e 59 2d bd 1a 09 91 3d f6 12 3b 3d d7 2a 7d 3d
       -0.042321675 0.07081814 0.04567238 0.061808433

lstm.bias_hh_l0 f4 [256]
000000 88 2a 96 bc 0c 1e 90 3d 1a 64 00 b9 f2 e2 00 3e
       -0.018330827 0.07036981 -0.00012244322 0.12586573
000010 91 a2 6a 3c 48 1c 01 bd 23 61 2c 3c 04 5a 5f bc
       0.014320985 -0.03152111 0.010521206 -0.013632301
000020 9b 06 05 bd f6 bb 35 bd f8 af 46 bd 88 67 b4 3d
       -0.032477003 -0.044368707 -0.04850766 0.088088095
000030 75 1e 6e 3d ba 5b 23 bc 16 8c 2e bd f4 0a df 3d
       0.058134515 -0.0099706 -0.042614065 0.10890761
000040 4a 78 0d be e4 92 4d 3c 6a 14 cd bc 62 bc 2e be
       -0.13815418 0.0125472285 -0.025034148 -0.1706405
000050 e3 ce 97 bd e7 74 3f 3d d6 a3 1f 3e 65 93 80 3c
       -0.074125074 0.046742346 0.15589842 0.015695283
000060 b4 55 5b bd c3 21 ad 3d aa c5 0d be 64 a6 3b 3c
       -0.05354853 0.08453705 -0.13844934 0.011453245
000070 32 8f ff bb 8b 53 f7 bd f2 de c6 bd a0 14 39 3d
       -0.0077990526 -0.120764814 -0.09710492 0.045185685
000080 a6 1f 3b 3d 3d d0 81 bd f0 1f e4 3c e3 b7 2d be
       0.04568448 -0.063385464 0.02784726 -0.16964678
000090 dc 82 8c 3d 65 c9 56 bd 4f 2c 0b be d0 7f 82 3d
       0.06860897 -0.05243816 -0.13591121 0.063720345
0000a0 a3 35 b0 bc 2c 96 2f be c3 d5 8e 3d 5f 5d 8d bd
       -0.021509951 -0.1714713 0.069743656 -0.06902575
0000b0 b8 db 64 be f9 f2 0f be c7 48 fd bd b8 24 04 3e
       -0.22349441 -0.1405753 -0.12367397 0.12904632
0000c0 bc 41 06 be 1c 41 af bc 3c c7 47 3d dc 12 28 bd
       -0.13111013 -0.021393351 0.04877399 -0.04103361
0000d0 fa 54 b7 3d 26 ad 80 3d 51 75 1a bd 25 0e 2d 3e
       0.08951755 0.062830254 -0.037709538 0.16899927
0000e0 ad 58 28 3b f6 80 04 3e 9a 97 00 3e b0 ce 3b 3d
       0.002568762 0.1293982 0.12557831 0.04585141
0000f0 0c 30 97 3a ec 34 0e 3d b0 b7 96 3d f7 1a 1a bd
       0.0011534705 0.03471844 0.07359254 -0.037623372
000100 c3 97 6d bd ab 00 89 bd ab 61 1d 3d ca ea b5 3d
       -0.05800606 -0.066895805 0.03842322 0.08882673
000110 dc 0f bb 3d ed d4 bd 3c 4e b5 9e bd 5a 2f b3 b9
       0.09133884 0.02317282 -0.07749425 -0.0003417682
000120 6d 8f 87 3c a1 30 82 3d 1c 17 58 be 96 4c 5f 3d
       0.016547883 0.063569315 -0.21102566 0.054516397
000130 44 aa aa bd e4 3a f1 3d 40 a9 22 be 97 08 1c 3c
       -0.08333257 0.117788106 -0.15884876 0.009523532
000140 00 35 76 3d f9 48 14 bd 4a d7 1e bd fd 5f 24 bc
       0.06010914 -0.036202405 -0.038779534 -0.010032651
000150 94 10 f0 bd 87 6b 95 3c 63 f4 2f bd 64 a4 64 3d
       -0.11721912 0.01823975 -0.042957675 0.055820838
000160 7f 39 90 bd 31 e0 bf 3d 35 66 21 bc 1e 32 52 bd
       -0.070422165 0.09368933 -0.009851028 -0.051317327
000170 a0 88 00 be 5d 62 46 3c 40 e2 9f bd 42 fc 22 3d
       -0.12552118 0.012108413 -0.07806826 0.039791353
000180 7b 6b 23 bd fc a5 1c 3e 4b 94 45 be e6 c6 e9 3b
       -0.039897423 0.15297693 -0.1929485 0.0071343062
000190 03 38 8d bc 3a a9 b2 bc 5f 38 9c bd ed 4d a1 bd
       -0.017238623 -0.02180921 -0.076279394 -0.07876191
0001a0 d8 60 60 bc 71 5f 38 3d ff bb 13 be 9a dd ec bd
       -0.013694964 0.045012895 -0.14427184 -0.11565705
0001b0 fa 9e 38 be 38 11 1b 3d 78 c4 6a bd 5e f8 84 3d
       -0.18029395 0.037858218 -0.057316273 0.06492685
0001c0 68 89 1a be 4d eb c2 3d 82 2a 6d 3d 1f 07 ee bd
       -0.15091479 0.09517536 0.057901867 -0.11622452
0001d0 df f1 f4 bd 12 12 17 3e 59 1e 5b be 1b e3 a8 bd
       -0.11960196 0.14752987 -0.21398295 -0.08246442
0001e0 95 66 e5 bd f9 fd c7 3d 17 32 a7 3d ae 4c 28 bd
       -0.112012066 0.09765238 0.08163851 -0.041088752
0001f0 8e cf f8 3d 11 b9 31 bd 49 e3 fb bd 8a ed 63 be
       0.12148963 -0.043389384 -0.122992106 -0.22258583
000200 99 77 04 be ef b5 3e be 68 6d 40 3d 49 e5 2d 3d
       -0.12936248 -0.1862409 0.046979338 0.04245499
000210 98 e4 1e 3e b0 63 0b 3d bd 4f bc bc 95 65 0b bd
       0.15516889 0.034030616 -0.02298724 -0.034032423
000220 5c 3f a6 bc 81 1d 6f bd 8c 50 53 bd 9e 70 0f be
       -0.020293884 -0.058377746 -0.051590487 -0.14007804
000230 2c 58 f5 bd 85 4b 35 3d 1e e1 32 3d d1 40 f8 3c
       -0.11979708 0.044261474 0.04367172 0.030304344
000240 f4 12 1d be 6f 95 38 bd d4 1e 58 bc 86 fe 3a 3d
       -0.15339261 -0.045064386 -0.013190944 0.04565289
000250 de 4d 42 3e c2 64 87 ba 86 31 8a 3c d6 b8 d6 bb
       0.18975016 -0.0010329711 0.016869318 -0.006552796
000260 87 7a 3c 3d b5 93 72 3d 90 9b f1 bd f8 0c 1f 3e
       0.04601529 0.059222896 -0.11797249 0.15532291
000270 6f 28 be 3d bf 0d e9 3d a2 2a 41 3e 63 cf f5 3d
       0.09285056 0.11379575 0.1886392 0.120024465
000280 23 24 37 bd 87 7d e9 3c c5 33 48 bd 31 c5 3b 3d
       -0.044712197 0.028502239 -0.048877496 0.045842353
000290 a4 32 86 3d 88 fd 34 3e 49 27 42 3d 3e 26 bf 3d
       0.06552628 0.1767484 0.047400746 0.09333466
0002a0 72 e1 2a be d9 58 46 bd 0d cc ba bd 54 73 8d bd
       -0.16687563 -0.048424575 -0.09120951 -0.06906763
0002b0 9d cf 16 be df a1 d2 bd aa 95 06 3d 0e 21 fb 3b
       -0.14727636 -0.10284781 0.032857575 0.0076638525
0002c0 1d 0f 01 3e dd c6 29 3c 9b 22 d2 bd 3d b2 98 bd
       0.12603422 0.010362354 -0.10260507 -0.07455871
0002d0 a2 5a 81 3d 78 1c 07 3e a1 86 a8 3d 4d 3e 07 3e
       0.06316115 0.13194454 0.082288034 0.1320736
0002e0 8a b4 95 3d 52 58 17 3e bc f1 05 bd a6 7c ad 3b
       0.07309826 0.14779785 -0.03270124 0.0052944003
0002f0 30 fa a4 3d ac 11 2e 3d da e9 0b bd f9 62 04 3e
       0.08055532 0.042497322 -0.034158565 0.1292838
000300 65 18 f5 bd 3f 19 2a be 27 85 f4 bd 7a 2d 76 3d
       -0.119675435 -0.16611193 -0.11939459 0.060101964
000310 c2 32 7a bd 7b 2e 74 3c 68 52 41 be c7 1f 7c 3d
       -0.061083563 0.01490366 -0.18879092 0.061553743
000320 47 cf 00 3e f1 1c 18 be 1b 12 e4 3d 67 45 f4 3c
       0.1257907 -0.1485479 0.11136266 0.02981825
000330 23 83 70 3c 63 e2 20 be a7 67 c1 bd 9b da 60 bd
       0.014679703 -0.1571136 -0.09443598 -0.05489598
000340 27 7f 78 3a 8b 9c c7 3c e2 53 c2 bd 94 52 16 be
       0.00094793964 0.024366638 -0.094886556 -0.14679939
000350 6b cd 3e be ef 31 f9 bd 61 a2 c4 bd 33 63 f4 3c
       -0.18633048 -0.12167727 -0.09601284 0.029832458
000360 e7 b1 a3 bd be ca af 3d 90 3b 52 bd 01 37 03 3d
       -0.079929166 0.08583592 -0.051326334 0.032034878
000370 a6 22 0e 3e fd 71 a1 bd d4 6a cf bd 5f ee 3d be
       0.13880405 -0.0788307 -0.10127798 -0.18547963
000380 00 1b e4 bc 52 a0 be bd 42 02 0c be ac da 55 be
       -0.027844906 -0.093079224 -0.13672736 -0.20884198
000390 1a 5f 1b bc 1b f9 1d bd 8c e3 92 bd a7 0f c7 3c
       -0.009483123 -0.038567644 -0.07172307 0.024299456
0003a0 9f d8 ef bc 45 a5 0f 3c 81 9b 8b 3d 8c 8a cc bd
       -0.029278098 0.008767431 0.068167694 -0.09987363
0003b0 03 b6 e1 bd 5b 22 90 bd 52 b5 f3 3c 09 c0 f9 3d
       -0.11021044 -0.07037803 0.029749546 0.12194831
0003c0 a2 e6 9f bc 62 2d 32 bd 1c 3d cd bd 8d 3c 00 3e
       -0.019519154 -0.04350031 -0.10021421 0.12523098
0003d0 5a 33 3f bd d7 24 4f bc 20 cf da bd fc 82 05 be
       -0.046679832 -0.012643061 -0.10684037 -0.13038248
0003e0 4a 3b 42 3c 6c 66 81 bd 26 76 b7 3d 70 1e c3 bc
       0.011854956 -0.063183635 0.08958082 -0.023818225
0003f0 a5 01 93 3d f2 0d 7f 3d 75 8d 16 be f7 f7 05 be
       0.07178048 0.06226916 -0.14702399 -0.13082872

lstm.weight_ih_l1 f4 [256, 64]
000000 52 25 8e bd ee 90 49 3d 8d 7d 62 3d 49 06 25 bd
       -0.06940712 0.04921048 0.055295516 -0.040289197
000010 dd 89 ef 3d 82 61 d0 3c 70 95 1c 3d ba 6b 49 3d
       0.11696217 0.02543712 0.038228452 0.049175
000020 b4 2b 11 3b 6d 73 a2 3d 49 33 e3 3d 85 e3 2a ba
       0.0022151293 0.07932172 0.11093766 -0.00065188884
000030 2b 19 5a bc 98 3a 95 bc 23 31 99 3b f7 0b 88 be
       -0.013311665 -0.018216416 0.004675047 -0.26571628
000040 43 2f 9c 3d df 29 16 bd 14 49 c2 3d c1 eb b8 3b
       0.07626202 -0.036661025 0.09486595 0.0056433384
000050 9f 5f c2 bd de d2 2d 3d c3 6b 13 bd bd f6 a1 bd
       -0.094908945 0.042437427 -0.03599144 -0.0790839
000060 06 f5 a7 bd c9 5a 40 3d 7c 02 e4 3d 6f 5a 7b bd
       -0.082010314 0.04696158 0.11133286 -0.06136554
000070 9f fe 5c b9 ae 31 d0 3d ee dc 16 3d 32 59 21 3d
       -0.00021075689 0.10165726 0.03683179 0.039391704
000080 c3 26 78 3e b1 cb b0 bc 19 05 cd 3c f1 3e 38 3d
       0.24233536 -0.021581503 0.025026845 0.0449819
000090 80 13 fd bb 9a fd ae 3d cf 37 29 be 85 58 b7 bd
       -0.007723272 0.085444644 -0.16525196 -0.08952431
0000a0 75 5e 04 3d 07 1c eb 3c 2f 0b a6 3d f7 95 10 3e
       0.032316644 0.028699888 0.08107602 0.14119707
0000b0 9e 2b 84 bd 41 b3 01 3e ec 2f 15 be 68 0d 30 3e
       -0.06453632 0.12666036 -0.14569062 0.17192614
0000c0 49 71 6c 3d ab 45 9b bd 3e 4f c2 3a 69 6a 4c be
       0.057725225 -0.075816475 0.0014824641 -0.19962467
0000d0 41 ea 80 bd 11 b7 7f bc 56 95 02 be 33 36 4f 3d
       -0.062946804 -0.015607611 -0.1275228 0.050588798
0000e0 b0 d4 c3 bc b4 c6 3c 3d 67 9a 78 3c cb 4e 13 bd
       -0.023905128 0.046087936 0.015173531 -0.035963815
0000f0 8d c7 fb bd 68 c6 d3 3d b9 6f 8f bc 3d 8a 29 3d
       -0.12293921 0.10340577 -0.017509328 0.0413916
000100 02 d8 05 3e ec c3 de 3d 25 cb 0c be ba ee 97 3d
       0.13070682 0.10877213 -0.13749368 0.0741858
000110 7d 6e ae bd 1e 10 2e 3e 38 3b 53 3e b4 13 87 bc
       -0.08517168 0.16998336 0.20628059 -0.016488887
000120 bf 97 7f bd 78 b7 d6 3d 84 b7 dc 3d a7 eb 8d bd
       -0.062400576 0.10484213 0.1077719 -0.06929713
000130 26 39 ea 3d c8 99 1c be 3e aa 82 3d 57 14 8c 3d
       0.114366814 -0.15293038 0.06380127 0.06839817
000140 3b d8 65 bc d2 63 59 3b 35 6d 97 bd e5 9f ae 3c
       -0.014028604 0.003317107 -0.073938765 0.021316478
000150 09 2a 5c bd 8e c7 b4 3c 7e b9 f5 bd ab ac 2e bc
       -0.053751025 0.022067811 -0.119982705 -0.010661284
000160 8c 15 c7 3d 55 52 8b bd 4e a9 16 bd be 31 1a bb
       0.097209066 -0.06802813 -0.036782555 -0.0023528184
000170 d3 ce 7a 3d 9a 1e 41 be c7 9c 1e 3b 3f a8 ad 3d
       0.0612324 -0.1885933 0.0024202333 0.08479356
000180 b3 0a 10 3e 1c 7b 24 bd e6 c0 38 be 44 e7 33 3e
       0.14066581 -0.04015647 -0.18042335 0.1756869
000190 06 ea 1c be 65 32 09 bd 68 25 91 be 63 b9 24 3d
       -0.15323648 -0.033495326 -0.2834885 0.04021586
0001a0 58 82 0a 3e 2c 82 fc bd 20 12 91 3d a2 b5 7f bd
       0.13526285 -0.12329516 0.07083535 -0.062429078
0001b0 9b 08 c7 bd d8 e0 b3 3d 6f a1 0a 3e 57 60 1d 3d
       -0.09718438 0.0878312 0.13538145 0.038421955
0001c0 6b 45 15 3e 67 1c 23 3e 47 ad ed bd 72 28 a0 bd
       0.14577262 0.15928803 -0.11605316 -0.07820214
0001d0 06 b1 e8 bd e9 16 dd bc 8f 1b 9a bd 3f 39 29 3d
       -0.113618895 -0.026988463 -0.07524788 0.04131436
0001e0 0a 38 9f bd 69 16 9a 3d 3d 73 8e bd 28 84 e8 bc
       -0.077743605 0.07523806 -0.06955574 -0.02838333
0001f0 d7 21 79 3d 2e fb 82 bd 03 d3 c9 bd fb 2a 87 3c
       0.060823288 -0.06395565 -0.098547004 0.016499987
000200 d6 06 11 be 93 d4 4e 3c 60 bd 78 3d 73 6e 8d 3d
       -0.14162764 0.012623924 0.060727477 0.06905832
000210 4e ef b3 bc 36 1c c3 3d 5d 0a 02 bd 09 cd d4 bc
       -0.021964695 0.09526865 -0.031748164 -0.025976675
000220 94 d7 1c be f5 0f a8 bd c0 49 0d be be 76 07 bc
       -0.15316612 -0.082061686 -0.13797665 -0.008268056
000230 03 c0 d9 3d 54 df e0 bd 67 b3 a6 3c 55 ce bd 3d
       0.106323265 -0.109800965 0.020349218 0.0926787
000240 dd ed e2 3c cd 6b 3b 3c 6d 81 ec bd cf 75 06 bd
       0.027701313 0.011439276 -0.115481235 -0.032827195
000250 22 31 2f be 5d 29 02 3e 82 ce 39 bd 66 f1 0a 3e
       -0.17108586 0.12711091 -0.045362957 0.13568649
000260 ca d1 05 be 4a eb 38 3e da 73 b7 3c 20 be 58 3d
       -0.1306831 0.18058506 0.02239411 0.052915692
000270 aa c4 e3 3c c9 65 23 be be 7e b0 3d 6d af 36 3c
       0.027803738 -0.15956797 0.08617924 0.011150223
000280 47 37 1b bd b9 3e b6 3d 90 19 00 3d 3c c0 8a bc
       -0.037894513 0.08898682 0.03127438 -0.016937368
000290 db 48 0c be 5f eb 12 3e 9f 47 18 be f3 5d 09 3c
       -0.13699667 0.143476 -0.14871071 0.008384216
0002a0 86 af 95 3d 45 fb 10 be 5c ba d9 bd c7 35 aa bd
       0.07308869 -0.14158352 -0.10631248 -0.083110385
0002b0 72 7b 4b bd 26 92 c5 3c 1e 37 88 bd 89 bd 83 bd
       -0.049678273 0.02411754 -0.06651138 -0.06432635
0002c0 ec 9a d1 bd 65 69 2a 3e 6c 18 a1 bd 66 54 85 bd
       -0.10234627 0.16641767 -0.07865986 -0.06510238
0002d0 d0 a6 c3 3d b9 5b 56 3d fe 9b 1b 3e ad b4 f6 3d
       0.09553301 0.052333567 0.15196225 0.1204618
0002e0 2f c6 d4 3b 7f 22 00 bd 7a f3 d3 39 9e e0 38 bd
       0.006493352 -0.031282898 0.0004042646 -0.045136087
0002f0 b9 b5 c3 bc 78 76 d2 bd e9 a6 ea 3d 06 9f c1 3d
       -0.023890363 -0.10276502 0.11457617 0.094541594
000300 3a ca b9 3d 45 50 81 bd 26 63 7e 3d 7e e4 f0 bd
       0.09071775 -0.06314138 0.062106274 -0.117623314
000310 5a 2f ae 3d bb 4d e8 bd 9e 94 86 bd d7 42 14 3c
       0.08505125 -0.11342951 -0.06571315 0.009049139
000320 f2 2d 39 bd 5b 57 70 3a ec 4d 99 bd 84 39 da bd
       -0.045209832 0.00091682904 -0.074855655 -0.106555015
000330 51 fb 12 bd 0e 2e 52 be fb 79 d1 3d da 1d d9 bc
       -0.035884205 -0.20525381 0.10228344 -0.026503492
000340 bf b1 c1 3d b0 92 d7 bd 60 e2 1f be 76 17 32 3e
       0.094577305 -0.10526025 -0.15613699 0.17391762
000350 d8 b8 a0 3d 6d 8d 74 bc d0 cd 47 3d df a1 8a 3e
       0.07847756 -0.014926297 0.048780262 0.27076623
000360 e9 fc 4e 3d bd aa 99 3d 79 2a 64 3d a8 07 f1 3c
       0.050534163 0.07503269 0.055704568 0.029422596
000370 92 9f 07 bc a6 d7 d6 3d f0 e4 db bd 65 15 d9 3d
       -0.008277791 0.104903504 -0.10737026 0.10599784
000380 d8 66 33 be fc 9d 24 bd 1f 09 da bd b1 55 47 3d
       -0.175197 -0.04018973 -0.10646271 0.048665706
000390 1b 5f d8 3c c1 fc 8a bd e3 e1 7c bd 02 c7 12 bc
       0.026412537 -0.0678649 -0.06173886 -0.00895858
0003a0 12 f8 0d 3d fd 68 0a 3e de 87 0c bd 6b da 8a bb
       0.034660406 0.13516612 -0.03430926 -0.004237463
0003b0 ec 39 1b 3e a2 3c 26 be 3a dd 9e bd 33 de ac 3e
       0.15158814 -0.16234067 -0.07757039 0.33763275
0003c0 3f c4 b7 bd b4 55 16 bc 98 92 ac 3d ae 21 26 be
       -0.08972978 -0.009175707 0.08426398 -0.16223785
0003d0 ab 86 c7 3d cc 43 74 3d 3a 19 0d bc ff 51 ea 3d
       0.09742483 0.05963497 -0.0086119715 0.11441421
0003e0 3e 56 33 3c 3d 8e f6 bd 6c d7 26 bd 70 9f 7a bd
       0.010945855 -0.120388485 -0.040732786 -0.061187208
0003f0 af 62 c7 3d 13 3d 39 be 2f 5c e2 3d fb 6e 8c 3d
       0.09735619 -0.18089704 0.11052739 0.06857105

lstm.weight_hh_l1 f4 [256, 64]
000000 69 a9 15 3d 59 6d 9e 3d 3c 2f 69 3d 2a af 17 be
       0.036538515 0.077357 0.05692981 -0.14812914
000010 0c 52 aa bd 3c 52 86 bd d6 34 2a bc 54 82 0f 3d
       -0.083164304 -0.06558654 -0.010388574 0.0350364
000020 12 6b 0e 3e 00 37 e1 3d 6b 0f c6 bd 77 a6 16 3e
       0.13908032 0.109968185 -0.096709095 0.14711939
000030 78 48 57 bd 8c 46 08 3d d7 58 2a bd 8f 25 cb bd
       -0.052559346 0.033270404 -0.04158863 -0.09919273
000040 7f 82 88 3d d5 7f 42 3d a1 6e d6 3d f7 0d a5 3d
       0.06665515 0.04748519 0.104703195 0.08059304
000050 98 71 15 3e e5 3e 96 bd 8d 08 66 bd e9 86 7d 3d
       0.14594114 -0.07336215 -0.0561605 0.06189624
000060 e4 d5 e6 3c 0c 9b fb bc ea 23 8a bc fe 04 ef 3d
       0.028178163 -0.03071358 -0.016862828 0.11670874
000070 5f ca 27 bd 36 f9 8b bd 00 1d 1e bc e9 00 0e 3e
       -0.04096448 -0.068346426 -0.009650469 0.13867535
000080 56 b5 10 3d b7 b6 b8 bd 18 db 13 bd e0 56 a4 bd
       0.035329185 -0.09019225 -0.036097616 -0.080243826
000090 e3 93 a5 3c d3 7c 16 bb 5b 3a a0 bc 6e cd 2b be
       0.02021212 -0.0022962585 -0.019559076 -0.16777584
0000a0 49 aa 30 bd 1a a9 c5 bd 2d 45 1d 3e 58 92 40 bc
       -0.043131147 -0.09651394 0.1535842 -0.011753641
0000b0 d7 79 6c 3d c0 c3 be bd f7 4a 53 3c 86 e2 c5 bc
       0.057733383 -0.0931468 0.012896291 -0.024155866
0000c0 0d d7 1e be d0 66 99 3d 9c 2b 03 3d ea 5a 83 bd
       -0.15511723 0.07490313 0.03202401 -0.06413825
0000d0 30 75 f0 bd bb 52 2b 3c ac d2 0e 3d d0 6e ef bc
       -0.11741102 0.010456736 0.03486888 -0.029227644
0000e0 4e df 1a 3d be b6 06 3d f0 9d ba 3b 2f e0 0e bd
       0.037810616 0.03288912 0.005695097 -0.034881767
0000f0 36 0b a9 3d f7 20 14 bd d1 62 94 bd 8a 72 7f 3c
       0.082540914 -0.03616425 -0.0724541 0.015591273
000100 00 aa 36 3d b3 39 96 bc 43 06 10 be 2c ba 20 be
       0.04459572 -0.01833806 -0.14064889 -0.15696019
000110 83 72 38 be c1 d2 97 bd 70 56 fd 3d 10 e9 23 be
       -0.18012433 -0.07413245 0.12370002 -0.16006875
000120 f8 e2 1b 3b 5a 65 14 3e 91 8d 77 bd 0a af c7 3d
       0.0023786407 0.14491788 -0.060437743 0.09750183
000130 88 38 14 3e ab 2e 00 bc 78 98 0a 3c b4 f7 2e bc
       0.1447469 -0.0078236265 0.008459203 -0.010679174
000140 a4 0b 10 3e 50 6d c0 bd bb 6d 68 3d 68 24 b1 3b
       0.1406694 -0.0939585 0.056745272 0.0054059513
000150 e6 d9 cc b9 6f 0a 1b 3e ad d6 1e 3d aa ec 41 3d
       -0.0003907226 0.15140699 0.03877895 0.04734484
000160 c0 72 6d 3e e2 fe 4b bb 4c 5b b0 bd 00 ee 65 3d
       0.23188305 -0.0031127264 -0.086111635 0.056135178
000170 a0 5d ef 3c ea 33 2d be fa 88 b7 3d 8a 09 7d 3d
       0.029219449 -0.16914335 0.08961673 0.061776675
000180 68 b3 4c bd 9f f1 3f bc b4 da 85 3c d2 82 e0 bb
       -0.049975783 -0.011715322 0.016339637 -0.0068515325
000190 9a 10 d0 3d 70 33 41 3d f5 38 e7 bd 4e 7c 50 3d
       0.101594165 0.047168195 -0.112901606 0.050899796
0001a0 bc 66 84 bd 42 e4 45 3e 73 0c 81 3d 5e 4c 59 3e
       -0.064649075 0.19325355 0.063012026 0.21220538
0001b0 4b 45 9b bd a5 b5 49 be b9 7d 7a 3d 31 23 c1 bd
       -0.07581576 -0.19698198 0.061155055 -0.0943054
0001c0 5b d0 39 be 10 d2 a7 3d 5f 0d 0b 3e 4f 15 25 bb
       -0.18145888 0.08194363 0.1357932 -0.0025189703
0001d0 a3 a1 f2 bd 74 8d fb 3d 09 33 45 3e 04 d5 40 3e
       -0.11847236 0.122828394 0.1925775 0.18831259
0001e0 2f 51 44 3e 3a f5 8a bd c2 38 a4 bd 60 a4 0d be
       0.19171594 -0.067850545 -0.08018638 -0.13832235
0001f0 1a cc 58 bd bf 94 1a 3e ef 76 11 3d 1a 4c 07 be
       -0.05292902 0.15095805 0.035513815 -0.13212624
000200 68 c3 04 3e dc 89 aa 3c 7c 95 a0 3d e8 67 65 bd
       0.12965167 0.02081769 0.07841012 -0.056007296
000210 f6 6b a0 bc 82 58 e7 3d 19 46 f2 3c ed f0 4c 3d
       -0.01958273 0.112961784 0.02957444 0.050034452
000220 ac 83 7f 3c 5f 9a 80 bd e4 b0 8e bd 06 b5 14 bd
       0.015595358 -0.06279444 -0.06967333 -0.03630545
000230 77 86 5d 3d 67 0e 30 bc 00 0c 2a 3e c2 2f 30 3d
       0.054083314 -0.010745621 0.1660614 0.043014295
000240 c8 ca 9d 3c 57 43 79 bc e2 3a 1c bd a0 72 a9 3c
       0.019261733 -0.015213809 -0.038142093 0.02068454
000250 d3 be db 3d 51 3f a6 3d 5b 2c 0b 3d 67 a7 f6 3c
       0.10729756 0.081175454 0.033977848 0.03010912
000260 63 ea 3d be 26 61 50 bd 1f 70 07 3e b6 36 3c 3e
       -0.18546443 -0.050873898 0.13226365 0.18380246
000270 85 34 13 3d e2 0c 09 3d c0 af 89 3d 35 4f 34 3e
       0.03593876 0.03345955 0.06722975 0.1760834
000280 c8 7c c8 bd 2c a5 a7 bd 56 58 c9 bc a2 b6 dc bd
       -0.09789425 -0.08185801 -0.024578255 -0.10777022
000290 e2 b4 c3 bd b7 60 0b 3c 26 94 fe 3d 55 a1 ba 3c
       -0.09555985 0.008506945 0.12430601 0.022782007
0002a0 55 d7 38 3e 30 2e 06 be bb f5 cc 3d 9b dc 50 3d
       0.18050893 -0.13103557 0.10007807 0.050991636
0002b0 5b 6e b7 3d 12 fd de bd e5 93 d2 3d 23 be 80 3c
       0.089565955 -0.10888113 0.10282115 0.015715664
0002c0 03 d7 11 3e d1 03 f1 bd cf ca 17 3c 60 73 ac 3d
       0.14242177 -0.11768306 0.009264662 0.084204435
0002d0 54 fa 5c 3d 99 8d cd bd 4c 65 3d be 0f cd e0 bd
       0.05394967 -0.10036773 -0.18495673 -0.10976612
0002e0 b1 68 ad bc 8f d6 b0 3d 19 7c 28 3d e0 92 fa 3d
       -0.021168085 0.08634674 0.041133974 0.122350454
0002f0 12 e0 ae 3c 23 9b b8 3c 2d d1 c4 bd 75 f5 93 bb
       0.02134708 0.022534912 -0.096102096 -0.0045153447
000300 5c f8 8e bd e5 83 20 bd 32 39 4c 3c a9 f0 e1 3b
       -0.069809645 -0.039188284 0.012464808 0.006895144
000310 00 d3 2e 3d 23 60 9b ba b2 ff 34 3d c7 24 7d bb
       0.042681694 -0.0011854212 0.044189163 -0.0038626657
000320 a5 09 ca 3d 5a da 2e 3e a2 92 46 3d 5b bc 09 bd
       0.09865121 0.17075482 0.048479684 -0.033626895
000330 55 bf 69 bd 35 66 04 bd 1b 0d 0f be 2e be 99 3c
       -0.057067234 -0.032324035 -0.13969843 0.018767443
000340 48 07 f6 bd c6 6d 66 3c f6 05 0a bd 1f 32 8e bd
       -0.120131075 0.014064258 -0.03369709 -0.069431536
000350 2e 1c bc 3d 1a 25 b3 bc 91 2e 6d 3d 44 b4 05 be
       0.09185062 -0.021868277 0.057905737 -0.13057047
000360 12 8f 5b 3d b5 bc 86 bd c3 e3 4a 3c a7 cb cd bd
       0.05360324 -0.06578962 0.012383404 -0.10048609
000370 03 ba 8d bd 15 d0 ec bc eb a8 47 3d db d5 8f bd
       -0.069202445 -0.028907815 0.048745077 -0.070232116
000380 4b 04 c1 3d 8b 5b 9b 3d cb 76 ff 3c de d4 51 3e
       0.09424647 0.0758582 0.031184575 0.20491359
000390 c6 8a 74 3d 9b 9a dd 3d 75 27 02 be 6d 65 51 bd
       0.059702657 0.10820504 -0.12710364 -0.051122118
0003a0 b3 ae 62 bd af bf b7 3d a0 17 52 3d 97 32 0f 3e
       -0.055342387 0.089721076 0.05129206 0.13984142
0003b0 32 e0 51 bc 74 36 ef bd f8 ae f5 bd 37 05 9c 3c
       -0.0128098 -0.11680308 -0.11996263 0.019045455
0003c0 32 59 94 bd fc 0c 3a 3e 59 cd 3d 3d 53 f8 38 3b
       -0.07243575 0.18169016 0.046338413 0.0028224185
0003d0 a8 ba 43 3e 9e 7b 75 3d 2e 5e 14 3e f3 d4 b5 3d
       0.19114172 0.059932344 0.14489052 0.088785075
0003e0 10 95 3b 3e f0 69 46 3c 4f 90 85 bd b4 34 9d bd
       0.18318582 0.012110218 -0.06521665 -0.07676068
0003f0 78 3b a9 3c 1f dc 6c bb 76 39 82 bc 54 35 05 3e
       0.02065824 -0.0036141945 -0.01589654 0.13008624

lstm.bias_ih_l1 f4 [256]
000000 ed 03 4d 3c 42 50 fd 3c 86 3c 9e bd 8b 6b ac 3d
       0.012513143 0.030922059 -0.07726388 0.0841895
000010 d7 c8 4c 3d 6f f6 22 bd 84 0f 47 bc a2 06 b9 bd
       0.049996223 -0.0397858 -0.012149695 -0.09034468
000020 99 4a d7 bd f6 32 0c bc 40 12 ca bd 5b 67 33 be
       -0.10512275 -0.008557072 -0.09866762 -0.17519896
000030 e6 c8 50 be 4e c5 f5 3d 13 5a 27 bd 85 62 6e 3d
       -0.20389137 0.120005235 -0.040857386 0.058199424
000040 43 a9 02 3e 37 d7 05 be 8c 1c 14 be a7 55 25 bd
       0.1275988 -0.13070379 -0.14464015 -0.040364888
000050 5f 61 2b be dd 6d 9a bd 5e 4c 0d 3d 72 33 30 be
       -0.16736363 -0.07540486 0.034496658 -0.17207125
000060 93 3b 1d bc 15 70 af bc 9b e1 b1 3d 16 5d a6 3a
       -0.009596723 -0.02141575 0.08685609 0.0012692537
000070 0f 6c 06 be 9e 64 49 3d 86 55 8e bd bc 90 60 be
       -0.13127159 0.04916822 -0.06949906 -0.21930212
000080 a8 7f 1c be 69 fd b9 3c 65 a9 a5 bd 5d 12 6d bd
       -0.15283072 0.022703843 -0.0808895 -0.05787884
000090 f3 39 31 be 80 ba 1e be 77 7b e4 bc ed a3 4d 3d
       -0.17307262 -0.15500832 -0.027890904 0.05020516
0000a0 e2 0d f7 3c 77 b0 58 3d b6 bc 48 3d b6 22 0e 3d
       0.030157987 0.052902665 0.049008094 0.03470107
0000b0 5a 2e c9 bd 30 96 ed bd e6 5f 6e bd 54 01 b7 bd
       -0.09823294 -0.116009116 -0.058196925 -0.089358
0000c0 eb 10 37 3d 8f e8 c7 bd 7a e3 b1 3b f7 e5 15 3d
       0.04469387 -0.09761154 0.0054287286 0.036596265
0000d0 81 f5 96 3d 42 23 0f be e5 83 b9 3d cb d6 3d 3d
       0.07371045 -0.13978294 0.0905836 0.04634742
0000e0 16 60 b6 bd 03 d0 59 bd 58 c5 82 3c f7 f1 de bc
       -0.08905046 -0.05317689 0.015963241 -0.027214987
0000f0 8d 38 b5 bd 83 7f d2 bd 74 28 17 bd ad 68 c3 bd
       -0.08848677 -0.10278227 -0.036903813 -0.0954145
000100 4b 57 e9 bd 9a be 9e bd c5 5d 6f bd 92 76 54 bd
       -0.11393603 -0.07751198 -0.058439035 -0.05187089
000110 f2 65 fd bd 25 d9 36 bd 2e 0c b7 bd b7 12 aa bd
       -0.1237296 -0.04464068 -0.0893787 -0.08304351
000120 58 6a f7 bd 08 aa ea 3c dd 54 06 be 19 02 62 bd
       -0.1208083 0.02864553 -0.1311831 -0.05517778
000130 72 42 40 be 65 1c c5 3d 2b bc dd bd 94 b1 91 3d
       -0.18775347 0.096245565 -0.10826906 0.071139485
000140 68 90 b2 bd 03 aa dd 3b a2 a2 9f 3b 56 c9 c2 bd
       -0.087189496 0.0067646517 0.0048716823 -0.09511058
000150 d7 b3 14 be f2 83 26 3d 7f 16 0f bd a8 29 62 3d
       -0.14521728 0.040653177 -0.034933563 0.055215508
000160 67 39 a2 bd 82 7c b0 ba 0a 86 68 bd 95 81 f1 bd
       -0.07921105 -0.0013464841 -0.056768455 -0.11792294
000170 ff 43 99 bd 22 d6 e8 bd 72 f4 0b be 81 47 12 be
       -0.07483672 -0.113689676 -0.13667467 -0.14285089
000180 0a a5 5f bd d9 de 58 3d 3c a7 c8 bd d5 2c 36 3d
       -0.054600753 0.0529469 -0.097975224 0.04447635
000190 20 da 65 bd da 26 21 3c 14 bd cc bc b1 50 f8 bd
       -0.056116223 0.009835923 -0.024992503 -0.12124766
0001a0 df 74 25 be 7a 9e ab bd 55 c1 67 bd 4a f3 23 be
       -0.16157864 -0.083798364 -0.05658086 -0.16010776
0001b0 d1 17 39 be 31 09 32 be a9 ed 9b bc 6e fd 74 bd
       -0.18075491 -0.17386319 -0.019034224 -0.059812002
0001c0 bc 02 cc bd d5 64 47 3d 5d 5b 39 be b7 97 3b bd
       -0.09961459 0.048680145 -0.18101259 -0.045798983
0001d0 9d 95 97 3c 53 6b 43 3d e3 fc 6c bd 5a 0c b9 bc
       0.018503958 0.047709774 -0.05785836 -0.022588897
0001e0 f9 92 6e bd 7e 4c e9 bd de 65 7e bd 4d 5b d1 bd
       -0.058245633 -0.11391543 -0.062108867 -0.10222492
0001f0 57 47 e5 3c 39 ec 84 bd 0e 5a 53 bd e0 de 32 bd
       0.027988119 -0.064903684 -0.051599555 -0.04366958
000200 d1 23 0e be a8 2a 08 be 0f 32 69 3c e6 61 23 3e
       -0.1388085 -0.13297522 0.014233126 0.15955314
000210 80 d8 2b 3e 60 c4 2a be 87 07 f6 3c cb 9e 61 bd
       0.16781807 -0.16676474 0.030032886 -0.055083077
000220 b1 74 14 bd 3f 91 54 3d 89 06 c4 bc da 6a 0b 3d
       -0.036244098 0.05189633 -0.023928897 0.03403745
000230 c2 fa 15 3d 75 33 25 3c be 59 be 3c 42 bf b1 3d
       0.036616094 0.010083069 0.023236152 0.08679058
000240 23 14 75 bd 2e e4 4b 3d ee 7e c0 3c 43 9d 20 bd
       -0.059833657 0.049778156 0.023498025 -0.039212476
000250 bf ce d4 bc ee a5 2f 3d 17 b3 8c bc fc 46 44 3b
       -0.02597749 0.042882852 -0.01717524 0.0029949537
000260 48 23 4c 3d 50 d6 11 bd b1 59 0f be 30 1c 82 3b
       0.049838334 -0.035604775 -0.13999058 0.0039706454
000270 94 ed 2a be a8 ed 91 bd 07 3b c5 bc 3f 11 4a 3d
       -0.16692191 -0.071254075 -0.024075998 0.049332853
000280 2c 65 cc 3c d7 9e fe 3d 3d 33 87 bd 57 05 ab bd
       0.024950586 0.1243264 -0.0660157 -0.08350628
000290 fc 99 86 bc fd 47 07 ba c7 3b ff bc 19 4b 68 3c
       -0.016430847 -0.00051605684 -0.031156434 0.014178061
0002a0 d1 ee fd 3c 76 38 b6 bd 16 47 d6 bd 80 b0 15 3d
       0.030997666 -0.08897488 -0.10462777 0.036545277
0002b0 33 b8 16 3e b1 eb c0 3d 20 e4 13 be 2b 26 c7 bc
       0.14718704 0.094199546 -0.14442492 -0.024310192
0002c0 e8 f7 0a bd e3 3d 12 bd 41 22 15 be 3c 5d de bd
       -0.033927828 -0.03570355 -0.14563848 -0.10857627
0002d0 2e 99 e9 3d 4a e7 9b bc 82 99 76 3c 31 65 1a bb
       0.1140617 -0.019031186 0.015051248 -0.002355885
0002e0 b3 7b 9f 3d 29 15 13 bd 83 ce ac 3d 61 56 20 3d
       0.07787266 -0.03590885 0.084378265 0.039144877
0002f0 17 21 8d 3d c9 9d ff bd 11 e3 20 3d 7e 7f a8 3d
       0.06891077 -0.12481267 0.039279047 0.08227442
000300 d5 2e 1c 3c 9e 67 a7 3b bd 8c 00 3c 57 e9 30 3d
       0.00953265 0.0051087877 0.007846055 0.04319128
000310 b2 47 21 be 47 dc b2 bd 4d bc 59 bd 3c 5b 68 bc
       -0.15750006 -0.08733421 -0.053158093 -0.014181908
000320 6f 78 8e 3d 7c a3 cc bd 30 ea 57 bd 72 fe 20 bd
       0.06956565 -0.0999212 -0.052713573 -0.039305158
000330 41 88 04 be e0 c2 bd 3d 0f 17 f4 3b 64 6d d7 bd
       -0.12942602 0.09265685 0.007449038 -0.105189115
000340 81 b3 d5 bd cd 0c 60 bd be c5 9a bd 0b f8 8d bd
       -0.10434628 -0.054699708 -0.075572476 -0.06932076
000350 fb 79 bb 3c f9 49 6d 3c 31 4a 43 3d 11 be 1c be
       0.022885313 0.0144829685 0.047678176 -0.1530688
000360 b1 95 d0 bd b1 32 8c 3d 38 9a 5a 3d d3 11 5c bd
       -0.10184801 0.06845606 0.05336973 -0.053727936
000370 48 b4 93 bc c2 6f 52 3d 4e a4 09 be a5 7f a5 3c
       -0.0180303 0.05137611 -0.13441584 0.020202467
000380 29 66 da bd 34 ed d7 3a 33 1d 32 3c fc 3f 2b be
       -0.10664017 0.001647389 0.010871219 -0.16723627
000390 24 0d c9 bc ae e0 c5 bd 71 53 f1 bd 8e 07 8a 3d
       -0.024542399 -0.09661995 -0.11783493 0.06739722
0003a0 5b de a3 bd 50 87 12 3c f2 22 9f 3d 2f 8e cf bd
       -0.08001395 0.008943394 0.07770337 -0.10134541
0003b0 4b c6 22 bd 10 c2 8d bb b6 ec d5 bd d7 be db 3d
       -0.03973989 -0.0043261126 -0.1044554 0.10729759
0003c0 b8 69 06 be 61 95 0f be fb 7b dd bd 42 a3 0b be
       -0.13126266 -0.14021827 -0.10814663 -0.13636497
0003d0 b3 92 0d be 7a e8 eb bd af 4a 05 3c fa d8 38 be
       -0.13825493 -0.11518951 0.008135482 -0.1805152
0003e0 38 99 70 3c a2 1b 4a bd a5 41 b9 bd 03 2a 5b 3d
       0.014684968 -0.04934276 -0.09045724 0.053506862
0003f0 47 ee 86 bd a0 47 00 be b5 ee 1e 3d cd b8 49 bb
       -0.065884165 -0.12527323 0.038801868 -0.0030780316
